02_train/run_outputs/02cnn_train_weights.pth (torch, 48140 bytes, 22 tensors)

features.0.weight f4 [16, 6, 5]
00000000: d2d4 df3e 1585 613d 66a4 b1be ec05 e7be
00000010: f1e8 4bbf cb58 85be 786a 16bf 3ead 53be
00000020: 4efc 1dbe 9706 19bf 963a 3a3f f549 e23e
00000030: 13a4 cc3e 4255 c93d 2252 e13d c5c6 6fbd
00000040: c1c9 0b3d 269c cd3c f008 293d 6c8d a53d
00000050: 30ec e8bd 162e babb c2f6 90bd 62ff e73d
00000060: cde2 03bd 8117 83be b840 10be 6fbe 1bbe
00000070: 6d34 a1bd bec4 babe 3780 8dbf 50bf b5bf
00000080: 0b0a 4dbf 34f7 c9be 07cf a0bb 4bf7 053f
00000090: 563b 703e 82a1 2c3e 1061 68be 6504 d5be
000000a0: ba90 a53e 0e22 b23e ff76 3c3f dc5b 8a3f
000000b0: 14c6 993f c69e bfbd 211f b63d 137c b33c
000000c0: e66b b23d 6500 71bd ec27 4abe c456 80bd
000000d0: 122b 7cbd 8e4e 5d3e 7c23 163d cfa0 dd39
000000e0: 4192 8c3c c75a 25bd b273 9f3d 03e8 58be
000000f0: 30f0 e1bf 919c fcbf 105a bdbf c15f 80bf
00000100: beeb bebe d5b3 0e3f 3136 5e3f 6440 ce3e
00000110: bbba 5c3e 546f 2c3e 1fdf a4be 7a87 04bf
00000120: b5a0 d4be 0361 f9be d106 36be a922 31bc
00000130: 8c38 5539 875e 453d 4c00 97bd 6d46 e73d
00000140: ba3c 1bbe 9f5e 11be 511c 233e 12a1 d43c
00000150: b352 523e 90ff 15be 824b 763d fc7f cabd
00000160: 73fb f2bc 22e2 d93d 0808 e93f f7e1 b33f
00000170: 2a95 4b3f 035e eb3d 082f e1be 06ad 51bf
00000180: 755d 9bbe baa8 44be 4bca 823e 368a d03e
00000190: c797 ea3d 0c68 053d ae84 8bbe cb0e 14bf
000001a0: 69d8 32bf 0fdf abbc 85da 66bd 64a9 4e3c
000001b0: b964 6abd 7be5 a6bd 106c 3d3d 054b cebd
000001c0: d951 23bd bbe6 4ebe 7f36 07be 09a0 38be
000001d0: c42b c1bd 9810 8dbe 2208 2ebe a20a d2bd
000001e0: 7a10 16be 5370 a33e 3cc7 573f 6831 653f
000001f0: f745 6b3f 9efd b03e 02ce bc3e 1b05 eb3d
00000200: 8a9f 263e debf 0dbe c039 863e e610 ef3e
00000210: dbd1 a63e cdc9 1c3f 67c8 f93e 2a02 02bd
00000220: 9976 a03c 7b0f 1cbd a513 823d c428 99bc
00000230: db7c 43be 5143 8dbe d457 093c 68fe 54be
00000240: 9afc 1cbe 910c b13c 039f bf3d a968 173e
00000250: b27d 543e 3940 e5bc c0d3 abbd f5aa 073f
00000260: 331e fd3e 9982 eb3e f93c 683f f0c8 ca3e
00000270: 9d38 c73d 9890 27be 04cf fcbc 9ba8 f13d
00000280: c42f 4ebf 4421 01bf 964a 7d39 d0ed adbe
00000290: 8058 0bbf 9275 8f3d 0cd0 05be 22a8 913d
000002a0: 1215 453d cf32 0dbd f227 28be 7b46 063e
000002b0: 790d 563e aa56 7fbd 1c59 b2bd 1892 5bbd
000002c0: db50 9cbd f77f e23d 66a4 0d3e 3717 39be
000002d0: c3e9 863f 5d23 fb3e 2104 e8bd b3b7 fabe
000002e0: af3c c8be cbee 15bf 6415 3abf 8a76 3cbf
000002f0: 2bd5 3ebf c28e 1fbf 3423 513f 211e 273f
00000300: 9e25 ef3e ff22 943e f1c0 59bc c611 9bbd
00000310: 8d98 a3bc adf1 2d3d 3470 ab3d 8a18 883d
00000320: a8a4 ebbd 1006 94bd ba83 b13d d75a 5c3d
00000330: e9ad 93bb 8e28 1abe 1eaf 02bd 1446 e7bd
00000340: c95c 1fbe bb1a 54be 64e1 8d3f a89e 633f
00000350: e21e 5d3e e47b 94be 86b1 48bf 8e16 933f
00000360: ba80 853f b535 1f3f 08e4 f23e 923f 263e
00000370: 6cfb d3be ef41 89be 1603 80be 5cf5 1a3d
00000380: a6a7 a2bd 148f 683e d2e8 093e ffa4 2b3d
00000390: 7195 cfbd e378 00be ee11 b7be 1210 0a3c
000003a0: a098 483d a9a4 fc3d f4a3 d83d d2af d83d
000003b0: 1af4 153d 0d33 90bd ef74 6fbc 3b12 d03c
000003c0: 65fa 40be 76e8 293e 3040 1c3f 9a97 4e3f
000003d0: fbde 873f 4f39 86bf 3ed7 91bf d2ae 32bf
000003e0: 7f0c 62bf 68c4 48bf ef6a 843f 6b18 8d3f
000003f0: 1505 923f 7ec0 873f c78c 893f ebd7 1abe
0.43717057 0.055058558 -0.3469574 -0.45121706 -0.79652315 -0.26044306 -0.5875621 -0.20671555
-0.15428278 -0.5977568 0.72745645 0.4419705 0.3996893 0.09830715 0.11001994 -0.05853917
0.034127954 0.025098871 0.04126829 0.08083615 -0.11373174 -0.0056817634 -0.07078315 0.11328007
-0.032198716 -0.2560387 -0.14087188 -0.15209363 -0.078713275 -0.36478227 -1.1054753 -1.4199009
-0.8009345 -0.39446414 -0.004907492 0.52330464 0.23460135 0.16858485 -0.22693276 -0.41604915
0.3233698 0.34791607 0.73619074 1.0809283 1.2013574 -0.093564555 0.08892656 0.02190975
0.08711986 -0.058838267 -0.19741791 -0.06266549 -0.061564513 0.21611997 0.036654934 0.00042272217
0.017159583 -0.040369775 0.07785739 -0.21182255 -1.7651424 -1.973528 -1.479311 -1.0029222
-0.37289232 0.5574315 0.8680144 0.402835 0.21555607 0.16839343 -0.32201478 -0.5176922
-0.4152886 -0.48706827 -0.17776038 -0.010811486 0.00020334328 0.04818585 -0.073731035 0.112927295
-0.15159884 -0.14196251 0.1592877 0.02595571 0.2053936 -0.1464827 0.060130604 -0.09887692
-0.029660916 0.106388345 1.8205576 1.4053334 0.7952448 0.11492541 -0.43981194 -0.8190464
-0.3034474 -0.19204989 0.25544962 0.40730447 0.114547305 0.03256993 -0.27249664 -0.5783507
-0.69861466 -0.020980386 -0.05636074 0.012613628 -0.057224963 -0.08149239 0.046245635 -0.100729026
-0.039872978 -0.20205204 -0.13204382 -0.18029799 -0.09432176 -0.27551723 -0.1699529 -0.10255934
-0.14654723 0.31921634 0.8428838 0.8952851 0.9190363 0.34568495 0.3687592 0.11475583
0.16271797 -0.13842723 0.26215935 0.4669258 0.32581982 0.61245424 0.48785707 -0.031740345
0.019587802 -0.0381007 0.06351403 -0.018696196 -0.19090597 -0.2759042 0.008382756 -0.20800173
-0.15330735 0.021612437 0.09356501 0.14786018 0.20751074 -0.027984725 -0.083899975 0.52995235
0.49437103 0.45998076 0.90718037 0.39606428 0.09727595 -0.16363752 -0.030860431 0.11799737
-0.80541635 -0.50441384 0.00024155746 -0.339705 -0.54431915 0.07004847 -0.13067645 0.07112147
0.048115797 -0.034472283 -0.16421488 0.13112824 0.20903577 -0.06233851 -0.087084025 -0.053606123
-0.076326095 0.110595636 0.13832244 -0.18075262 1.0540088 0.49050418 -0.113289125 -0.48968276
-0.39108798 -0.58567494 -0.7268889 -0.73618376 -0.7454402 -0.62327206 0.8169434 0.6528035
0.46708387 0.2893295 -0.01329063 -0.075717494 -0.019970203 0.042466808 0.083710104 0.066453055
-0.11506015 -0.07227719 0.08667703 0.05379757 -0.0045068157 -0.15054533 -0.031905286 -0.11292663
-0.15562738 -0.20713322 1.1084409 0.88913965 0.21593812 -0.2900077 -0.7839588 1.1491258
1.0429909 0.62191325 0.474396 0.16235188 -0.41402757 -0.26808116 -0.25002354 0.03783165
-0.07942133 0.2271083 0.1346772 0.0419054 -0.101359256 -0.12546115 -0.35755867 0.008426683
0.04897368 0.12336094 0.105781466 0.1058041 0.036609747 -0.07040987 -0.0146152815 0.025399318
-0.18845518 0.16592583 0.6103544 0.80700076 1.0614923 -1.0486239 -1.1393812 -0.69798005
-0.8830032 -0.7842469 1.0345134 1.1023077 1.1407801 1.0605619 1.0746087 -0.15121429

features.0.bias f4 [16]
00000000: 9857 633d be38 53bd e1b9 27be 1628 a3ba
00000010: 1892 a1bd 6313 b7bd 1537 3d3e 0519 2ebd
00000020: bfdd 123e 4d16 223e fe3f 963c a451 6a3d
00000030: 0633 973c 5c1f 52bd e803 06bd 9d3a cf3c
0.055503458 -0.051567785 -0.16379501 -0.001244786 -0.07889193 -0.089392446 0.18478043 -0.04250433
0.14342402 0.1582882 0.01834106 0.057206765 0.018456947 -0.051299438 -0.03271857 0.025296504

features.1.weight f4 [16]
00000000: 8aad 783f 85d3 753f 4d44 683f cf05 753f
00000010: be42 603f cb99 803f 382c 7f3f 13c0 6a3f
00000020: beb4 5a3f 23bf 6e3f 0906 7c3f b635 753f
00000030: c988 643f 2a4d 6c3f 36a4 603f 7810 573f
0.971398 0.9602588 0.9072922 0.9571199 0.8760184 1.0046934 0.9967685 0.9169933
0.8543204 0.932604 0.9844671 0.9578508 0.8927122 0.92305243 0.87750566 0.84009504

features.1.bias f4 [16]
00000000: a4a7 f3ba cfc0 453c d0d6 233d 5271 81bc
00000010: 9029 9c3b cc4d 3ebe b850 cabc c7fe fdbc
00000020: 488a e2bd 60a0 b7bc e0e9 43bc 3a1d 76be
00000030: d81c 873c d3de adbd 9b9b f9bc f791 c8bc
-0.001858939 0.012069895 0.039999783 -0.015801106 0.004765697 -0.18584365 -0.024696693 -0.031005276
-0.11061531 -0.02241534 -0.011957616 -0.24034587 0.016493246 -0.08489766 -0.030469706 -0.024483664

features.1.running_mean f4 [16]
00000000: 3fc0 703d 514c 3bbd a071 2bbe f369 013c
00000010: 8afd 0cbd c2e7 b7bd fa1a 3f3e 1daf febc
00000020: 5d30 1a3e 8348 5c3e 2d92 be3c e135 7c3d
00000030: d2c3 853c 400a 99bd 65b7 91bd 0831 363c
0.05877709 -0.045727078 -0.16742563 0.007898795 -0.03442148 -0.08979751 0.18662634 -0.03108936
0.15057512 0.21512036 0.023263061 0.06157482 0.016328726 -0.07472658 -0.07115058 0.011120088

features.1.running_var f4 [16]
00000000: 1f0e 9644 16b8 9b42 5cff 9e42 f015 8244
00000010: 62c8 1044 31f1 5641 ff14 0f44 2859 aa43
00000020: 9fee e042 a2b5 8244 f958 a444 cd3a 3c42
00000030: 5e12 7443 0044 8343 7743 e343 891a 1d44
1200.4413 77.85954 79.49875 1040.6855 579.131 13.433885 572.32806 340.69653
112.46606 1045.676 1314.7804 47.057423 244.07175 262.53125 454.52707 628.4146

features.5.weight f4 [32, 16, 3]
00000000: cc2e 073e 59e8 c53d 6343 c6bd 376d debd
00000010: e6da b0bd a2b5 95bd 781d a7bc 7570 663d
00000020: 503b 203e c99d 193e 82bb 25bd e1d5 d2bc
00000030: a46b 33bd ce90 0bbc f172 7fbb f03b 73be
00000040: a684 1ebe d4da 4dbe 853c 683c 9ecf a2bd
00000050: 234a 2f3c 5c94 35be 1545 19be 1de0 2ebe
00000060: 5956 d9bd 1e36 99bd 03eb 9cbd 5ede 543d
00000070: cc4a ba3d a7ac 9abd ea9a fb3d 4d9e 323d
00000080: 8dc5 d7bc b483 4dbc 09ca 443c 1f77 08be
00000090: 9b82 c63c 15e4 fe3d 0f3a 873d 2320 2ebd
000000a0: bb08 edbd 0826 45bd 02c4 16be 4e9f 373d
000000b0: 0689 c1bd 1294 acbd 639c c2bc 2898 f73d
000000c0: 7a8a b7bc f64b 40be c2b2 15be c68e 1e3d
000000d0: b9c2 213e 0f4c 88bc 258b 803b d34d dc3d
000000e0: c812 b9bd 1a3d 073e 3290 063d 4c0b 7bbd
000000f0: 5ec5 6a3d d8c3 0c3d e8e6 f53c 61ac c63d
00000100: 211c 3a3d 4381 0c3e 82ea 10be 0feb 88be
00000110: 8f2b 67be 53c3 46be 5b9e febd b7c1 5cbd
00000120: cfec aabd 9bec 30be ac8f 0fbe ec55 a5bc
00000130: 09e3 a4bc 4c02 e73c 5369 77bd 9746 3ebe
00000140: 4743 4dbe d6cf 2f3d 691a f1bd 6c5f dfbd
00000150: 425d bebd 434c 08be 9b75 27bb 1bd8 c53d
00000160: afc3 68bc 1ebd 8a3d 06a0 aebd 6e40 4fbc
00000170: e6a4 993d f527 47bd 584e 13bc 6e1a a13d
00000180: b350 d0bd 42ae 3d3d 1199 a6bc d4c1 87bd
00000190: d2a0 873d 2853 9fbd 69c7 b83c eb36 2c3d
000001a0: 0fdb 2cbb 6c22 1bbe c06a 40be 0d35 17be
000001b0: 604a 45be 62a5 74be ca3f 6ebe 67ce 82bd
000001c0: 2514 e03d 5dfa b73d 73de af3d 18e6 4c3d
000001d0: 897b 753d 873a d23d 5b85 dcbc ad9b c4bd
000001e0: c673 803d f898 0dbd 0442 0fbd c5fd 96bd
000001f0: aae6 a4bd dd11 92bd c15c 08be 857c 4d3c
00000200: 8978 baba 8eaa 163d f58a b5bc 5ed2 713d
00000210: f57e c9bd 7c36 29bd 13c6 0bbe 7069 8ebd
00000220: 6bda 0fbd b4fe f6bc 75e6 0dbe e9bc 04be
00000230: c334 3abe 00f4 b5bd c5b8 11be c659 ebbd
00000240: b332 123d 1670 fcbd 5b5a 823b 686d c1bd
00000250: 61c7 90be 5f56 67be 02a6 8bbd 0d9c 2abe
00000260: b424 c8bc 7947 45ba 8af3 1b3e 3ad6 19bd
00000270: d594 913c 8d5a 0bbc 98f2 2bbc c0a6 473d
00000280: 0727 62bd 5fcd dfbd fdb1 63bd e9fc 963c
00000290: 30e1 75be 794d 11be 82b8 d5bd e9f0 81bc
000002a0: b101 593d 4fab 96bd e49d edbd 6c25 453c
000002b0: b266 6c3d c90d 76bd 76c0 1ebd 9249 963c
000002c0: 3def 1f3d fe82 0c3d 00ea f5bc 6252 763e
000002d0: be4b bdbc e02c 92bd f597 1bbe 8b82 d83c
000002e0: fb90 1e3e 1a01 e23c 8278 9dbb e1b4 d23d
000002f0: ece2 c63c 346f 99b9 0e76 cebd 2233 03be
00000300: 6395 30be 9be5 b8bd a8f9 0ebc 60b6 433e
00000310: 983e c43c 3b77 323e 19f7 f5bc ecae 6c3c
00000320: 0edd b13d 8e25 963d a65a 1abe dc36 263c
00000330: 6421 65bc f952 82bd 10bb 78bd 0e13 88bd
00000340: a254 6f3d 5904 33bd 5909 c5bc faba 87bc
00000350: 53f4 02be 882f a03d ddf0 5a3d 5f6e 4e3d
00000360: c3cf 2abd bde9 f3bd 4dec aa3d 88d5 763d
00000370: 28b0 56bb 1f62 c6bd fd05 acbd 4a17 2fbd
00000380: 6b84 67bd abeb 923d 4ff1 b53d 88f3 723e
00000390: 888a 0a3d 145a b83d 6343 d13d 1d9c 56be
000003a0: eb05 80be 8451 0dbe 72ee 193d d5db 29be
000003b0: a963 47be c17a 2d3d 2eb7 183c 5b4d 253d
000003c0: ae9e 12be 1202 d8bd 81c8 a63d cb4e 11ba
000003d0: f5bf 893b a0d4 38bd 6ca8 613d 2b41 a73b
000003e0: 2f8c 40be 2ec1 09be 9b0b 023d 7633 79bd
000003f0: 48a7 6fbe 640d 8cbd ebe4 c4bd 2f73 053e
0.13201445 0.096634574 -0.09680822 -0.10860675 -0.086355016 -0.07310034 -0.020399794 0.05625959
0.15647626 0.15001597 -0.040462025 -0.025736751 -0.043803826 -0.008518411 -0.0038978423 -0.23753333
-0.15480289 -0.20103008 0.014174585 -0.07949756 0.010698828 -0.17732376 -0.14967759 -0.1707768
-0.10612173 -0.07481025 -0.076620124 0.05196988 0.090962976 -0.07552462 0.12285407 0.043608
-0.026339317 -0.0125436075 0.01201106 -0.13326691 0.0242322 0.12445847 0.06602871 -0.042511117
-0.11573931 -0.048131973 -0.14723209 0.04482966 -0.09449963 -0.0842668 -0.023756212 0.120895684
-0.022404898 -0.18778977 -0.14618972 0.038710378 0.15796937 -0.01663783 0.0039228373 0.10757031
-0.09036785 0.13206902 0.03285236 -0.06129007 0.05731713 0.03436646 0.030017331 0.097008474
0.045436982 0.13721184 -0.14151958 -0.26741835 -0.2257521 -0.19410448 -0.12432548 -0.05389568
-0.08345949 -0.17277758 -0.1401965 -0.020182572 -0.02012779 0.028199337 -0.06040318 -0.18581615
-0.20045196 0.042922817 -0.117726155 -0.10906872 -0.09295131 -0.13310342 -0.0025552276 0.096603595
-0.014206811 0.067743525 -0.08526616 -0.012649639 0.07502155 -0.04862209 -0.008990847 0.07866369
-0.10171642 0.046308763 -0.02033666 -0.06628767 0.06622471 -0.07779533 0.022556024 0.04204456
-0.0026375686 -0.1514985 -0.18790722 -0.14766331 -0.19266653 -0.23891214 -0.23266521 -0.063870244
0.10941342 0.089833 0.08587351 0.050024122 0.059932265 0.102650695 -0.026919058 -0.09600005
0.06272082 -0.03456971 -0.034975067 -0.073726214 -0.08051808 -0.071323134 -0.13316633 0.012541895
-0.0014226596 0.036783747 -0.022160986 0.059038512 -0.09838668 -0.041311726 -0.13649778 -0.06953704
-0.03512041 -0.030150749 -0.13857444 -0.12962689 -0.1818419 -0.0888443 -0.1423064 -0.11491732
0.03569288 -0.12326066 0.0039780564 -0.09444696 -0.28277114 -0.22591542 -0.06818773 -0.16661091
-0.024431564 -0.0007525604 0.15229622 -0.037557818 0.017771164 -0.008505476 -0.010494851 0.04874301
-0.055213 -0.10927843 -0.055589665 0.018431144 -0.24011683 -0.1418971 -0.10435583 -0.015861945
0.05298013 -0.07356893 -0.11602381 0.012032848 0.057715125 -0.06007174 -0.038757764 0.018345628
0.039046515 0.03430461 -0.030018806 0.24054864 -0.023107406 -0.071374655 -0.15194686 0.026429435
0.15484993 0.027588416 -0.0048056254 0.10288406 0.024278127 -0.00029265287 -0.10081111 -0.12812474
-0.17244487 -0.09028169 -0.008726515 0.1911254 0.023955628 0.17428295 -0.030025052 0.0144460015
0.08684741 0.07331382 -0.15073642 0.010144915 -0.013985012 -0.06363482 -0.06072527 -0.066442594
0.05843032 -0.043705318 -0.024052309 -0.01656865 -0.12788515 0.07821566 0.05345236 0.050398227
-0.041702043 -0.119098164 0.08345852 0.060262233 -0.0032758806 -0.09686684 -0.0839958 -0.04274682
-0.056522768 0.07173856 0.088839166 0.23725712 0.03382352 0.09001556 0.10217931 -0.2095799
-0.25004515 -0.13800627 0.037580915 -0.16587766 -0.19471611 0.042353395 0.009321017 0.040356975
-0.14318344 -0.1054727 0.08143712 -0.0005543052 0.0042037913 -0.04512465 0.05509226 0.005104204
-0.18803476 -0.13452598 0.03174935 -0.060840093 -0.23403656 -0.068384916 -0.09613975 0.1303222

features.5.bias f4 [32]
00000000: 87cb 9ebd e46d 02be e28e 23bd 3682 3ebd
00000010: 244f 22bd abf1 f0bd b05a c2bc cdad 183d
00000020: 4ec9 3bbd b216 98bd 2d93 99bd 1096 73bc
00000030: 235e 653d d8c0 c1bd db6f 38bd eb8e d63d
00000040: b9fc f73c 24d6 813c 2c8a cc3c 3c86 f43c
00000050: aac6 753d 8358 13be b9d4 b7bd 43f2 c43c
00000060: 2bb0 f93d 01e1 413d 0c42 0cbe 93bb d6bd
00000070: f2e0 edbc 0d6f 80bd fd13 c53d 22b3 b0bb
-0.077536635 -0.12737232 -0.039931186 -0.046510898 -0.039626256 -0.117648445 -0.023724884 0.037275124
-0.045846276 -0.07426204 -0.07498775 -0.014867321 0.05599798 -0.0946061 -0.04502855 0.10476478
0.030271875 0.01584918 0.02496823 0.029849164 0.060003914 -0.14389233 -0.089761205 0.0240413
0.121918045 0.04733372 -0.1369707 -0.10484996 -0.029037926 -0.06271181 0.09622953 -0.005392448

features.6.weight f4 [32]
00000000: c941 7b3f 5bdc 763f 6e5f 883f fb36 593f
00000010: 9cc4 4b3f 1f84 613f c066 5e3f 0fc3 743f
00000020: 28e7 533f f71c 7e3f 47f6 863f 5c76 5e3f
00000030: ca71 633f 74a2 763f 1b8c 7d3f 86f2 6a3f
00000040: dbca 643f 2d03 783f 5531 883f a7b4 5b3f
00000050: 33c4 473f 8562 803f 23c8 823f 5060 673f
00000060: 56b9 853f a31e 6c3f cdc3 5c3f 65cb 513f
00000070: cf79 603f 4a18 733f a93a 643f bec9 863f
0.98147255 0.96429986 1.0654123 0.8484952 0.7959688 0.88092226 0.86875534 0.95610136
0.8277459 0.99262947 1.0543908 0.8689935 0.88845503 0.96341634 0.9904191 0.9177631
0.8937203 0.96879846 1.0640055 0.8582253 0.7803375 1.0030066 1.0217327 0.90381336
1.0447185 0.9223425 0.8623627 0.8195098 0.87685865 0.9495894 0.8915201 1.0530317

features.6.bias f4 [32]
00000000: baef 0abe def0 d5bd ef34 02be 741d 12be
00000010: 124b 8ebe bab7 41be 323f 0fbe 5858 07be
00000020: 445e 07be 072e 73bb a4fa b0bd cee5 9cbd
00000030: 8293 c83c 1ac2 d5bd a487 fbbd b3dd 10be
00000040: 22cc 24be e8e9 bbbd 04a4 d1bd f9b6 9abd
00000050: 6ea6 b8bd 4dc9 09be 5505 1fbe 2696 dcbd
00000060: d3e3 a63b 4b53 0fbe 6033 2dbe 4cce 1ebe
00000070: fe6d b9bd 2ca1 13be dba7 09be 9c87 a0bd
-0.13568011 -0.104463324 -0.12715505 -0.14269048 -0.2779165 -0.18917742 -0.13988951 -0.13217294
-0.13219553 -0.0037106292 -0.08641556 -0.07661019 0.0244844 -0.104374126 -0.12281731 -0.14147072
-0.16093495 -0.091754735 -0.102363616 -0.075544305 -0.09016119 -0.13455696 -0.15529378 -0.10770826
0.0050930767 -0.13996617 -0.1691413 -0.15508384 -0.090541825 -0.14416951 -0.13442938 -0.078383654

features.6.running_mean f4 [32]
00000000: c3a2 c3be 529f 04bf bd46 18bf 46e5 dcbe
00000010: 2814 0dbe 41d5 03bf 0863 86be efba 81be
00000020: 120d f6bb 688b 2ebf 3451 2dbf 0487 8f3d
00000030: 5fd1 00bf 05e5 d5be 5630 c6be 70b9 56be
00000040: f36f e03d 70f4 06bf a3f1 febe 0570 3bbe
00000050: 7c3c 55be a008 03bf 4eec 09bf 1f81 a4be
00000060: eecf f0be 7e36 6fbe 1cf0 1cbf 761a 07bf
00000070: d06e 3d3d 37d0 adbe 6667 71be e63a 02bf
-0.38210115 -0.51805604 -0.5948294 -0.43143672 -0.1377722 -0.51497275 -0.2624743 -0.25337932
-0.0075088823 -0.6818147 -0.6770203 0.07008174 -0.50319475 -0.4177629 -0.38708752 -0.20969176
0.109588526 -0.5271673 -0.4979373 -0.18304451 -0.20823854 -0.51185036 -0.538762 -0.32129762
-0.47033638 -0.23360631 -0.6130388 -0.5277475 0.046248257 -0.33947918 -0.235746 -0.5087112

features.6.running_var f4 [32]
00000000: 6944 193f 43a7 983f 0900 7b3f 718f 483f
00000010: 5e08 033f eb48 3b3f f412 233f 25c9 483f
00000020: 7b68 a03e b4b5 d73f 9629 cd3f 8377 a33e
00000030: de3d 0e40 11a4 5f3f e318 613f 671b 243f
00000040: 0005 a23e 3188 963f 35b8 683f c001 fe3e
00000050: 1ef4 f73e 6520 5a3f 7767 843f d8af 4e3f
00000060: f91f f73f a61c 3f3f b73a a63f 23d8 5f3f
00000070: d438 a23e 09e0 203f 737d 5b3f 4689 723f
0.5987001 1.1926044 0.9804693 0.78343874 0.5118464 0.7315814 0.63700795 0.7843192
0.31329712 1.6852326 1.6028316 0.31927118 2.222526 0.8735972 0.879286 0.6410431
0.3164444 1.1760312 0.9090608 0.4961071 0.48428434 0.8520568 1.0344075 0.80737066
1.9306632 0.7465309 1.2986668 0.87439173 0.3168398 0.6284185 0.85738295 0.9474071

features.10.weight f4 [64, 32, 3]
00000000: 701b 603e 6a6d 443e b1fe 5d3e 036c 883d
00000010: 9a36 0b3e 8a52 ef3d 9ac0 a0bd 8639 debc
00000020: 6f20 fabd 322f 423e 8dfb 693d a408 be3c
00000030: 0320 6b3d 1169 383d de4a a23d 8d71 bf3c
00000040: cd5a 45bd 7ea6 6b3d c396 1f3b 5fad c93c
00000050: 0942 a33d d0f3 9d3d badf a9bc 3a18 a5bc
00000060: 8978 10bd f4d7 5dbd 84c9 99bc 9cab a0bd
00000070: 3950 1fbd dec9 c0bc b8dc 8fbd cfe2 bfbd
00000080: 9a43 22bd 52fa 1cbd 069a 1bbd cc46 f5bd
00000090: 7428 74bd 4aa6 b6bd b857 ecbd a6ea 6b3d
000000a0: 29fd c83d e0d5 113e eab1 553d 686e f63d
000000b0: e4e4 ab3d 583c bf3d 80d1 123e f303 b33d
000000c0: 0b04 c5bd 891e 3dbd 887f 49bd e489 53bd
000000d0: b6ec fcbc ff66 04bd ad4c 2dbd 0a62 37bd
000000e0: b6db 48bd 33d9 37bd 22bb 1a3d 9429 0fbc
000000f0: aefa 4cbd 5ecb c4bc c279 df3c dd97 513d
00000100: 073c 153e cb0e 263e 78bb 4d3e 636f d23d
00000110: 0b69 a13c a6cf d23d 9fdc e23c c17a 9c3d
00000120: b3fc c7bc 6dba e7bd 22c6 b5bd eb8c 593d
00000130: 0989 cb3d aaea 73bc a390 4a3c eb59 40bb
00000140: 65c6 f4bb 3baa f2bc 9128 f5bc a141 2dbd
00000150: cdab 2bbd 80de 56bd f1a2 b7bd 3cc5 833d
00000160: 9794 fe3d 78f5 e63d 1947 48bd 52a1 f63c
00000170: d0e0 de3c cc69 973b f50d 9fbd c10b b1bd
00000180: fb18 043e 02a9 de3d ed60 203e b51d da3d
00000190: 3010 e63d e980 873d 4e4b 48bd eeb9 ffbc
000001a0: 870e 013c 5073 173e 0172 9a3d 2e4f 8abc
000001b0: 9244 cfbd 9fd9 d3bb fa2b de3d 88d4 43bc
000001c0: 938c d13c d211 de3c 2c2d 233d 76a1 063e
000001d0: acba ba3d b36c ac3d 38ed 2b3d c04b fc3c
000001e0: 54dc 68bd e84a 933a 8f42 55bd 3b59 0fbc
000001f0: a5c6 88bd 01d5 b0bd a2ad 1fbd 9703 fdbc
00000200: dad2 35bd ca95 43bd db91 40bb f93f e4bd
00000210: 95c6 dabd 3d3f 80bd 5b05 9ebd abae f03d
00000220: d8e0 d33d a487 973d 6cd8 25bc bc2a 963d
00000230: 91f1 c63d ab91 bb3d 1a70 d53d 1129 e03d
00000240: 0ba5 04bd 5793 65bd c079 36bd f342 b5bc
00000250: 9380 5abd de42 13bc 5050 5abd 675a 19bc
00000260: d4c9 8ebd 69be d1bd ce64 c63b ba9c e23c
00000270: 38a8 7ebd e269 bd3c 3750 1c3d d9cb e93d
00000280: 8626 403d fe65 e13d 3b3d 013e fa74 023e
00000290: 6c32 7d3d d86f ef3c b224 873d b80e 163d
000002a0: e666 cebc 0d39 83bd 348c 84bd 3e6f 7d3d
000002b0: 34d6 203e b22b 0f3e 4bae e7bc 282e aebd
000002c0: d1f2 91bd 3053 c9bd 3ee2 babc 44ac 32bc
000002d0: 9db9 08bd 8fb8 b3bd 91da 9ebd 4cec 963d
000002e0: 358d f63d d41c da3d 4f9a 3dbe d32c 8abd
000002f0: 9bf2 26bd f5f5 04bd c510 a4bc a167 b1bc
00000300: f87f abbd 1025 e3bd 9a81 cdbd 251c 483d
00000310: abb4 0a3d 607a 1dbc 1fda 423e 4990 813d
00000320: d021 1c3e 999a 94bc a2da 5d3b 3b15 e9bd
00000330: a860 25bd 7bbe 32bc 829f 45bd 1ff9 103e
00000340: 83c0 0c3e afcd b73d 8449 013d 062d b5bc
00000350: 5b13 62bd db01 883b 8447 9d3c 4155 edbc
00000360: 1b58 11bd 83ab f6bc f079 11bd 5217 a53d
00000370: 7ad2 e03d 9f4e 1b3d 1d6d 433e 82d5 803d
00000380: fb64 a13d 3990 033e 0b61 003e 1822 013d
00000390: cf67 85bc e818 ecbb 9b2c f33c 82a7 6dbc
000003a0: 453e 6239 2618 45bd a116 6dbd 2566 b9bd
000003b0: a872 08be 9235 2c3d 3fb0 bfbc 6802 d5bd
000003c0: 599c 873d 097f 923c 77d6 3d3b 5b9a 9e3c
000003d0: 3bed 833d 9aaf 2a3e 658c 323e 6e74 063e
000003e0: 9490 303e b84f efbd 1771 0bbe 10e9 d0bd
000003f0: 8581 44bd 4073 88bd 4124 27bd a904 07bc
0.21885467 0.19182363 0.21679188 0.066612266 0.13595048 0.11685665 -0.07849236 -0.027127039
-0.122132175 0.18963316 0.057124663 0.02319748 0.057403576 0.045022074 0.07924436 0.023369575
-0.048182297 0.057531826 0.0024351336 0.024618803 0.079715796 0.07712519 -0.020736564 -0.020153154
-0.0352712 -0.054161027 -0.018772848 -0.07845232 -0.038894866 -0.023533758 -0.07024521 -0.09369432
-0.03961525 -0.03832466 -0.037988685 -0.11976394 -0.05960889 -0.08918436 -0.115401685 0.057596825
0.098139115 0.14241743 0.052171625 0.12032777 0.08393267 0.093376815 0.1433773 0.08740988
-0.09619912 -0.0461717 -0.04919389 -0.051645175 -0.030874591 -0.032324787 -0.04230945 -0.04477123
-0.049037658 -0.04488487 0.03777612 -0.00873794 -0.050043754 -0.024022754 0.027279738 0.05117022
0.1457368 0.1621658 0.20091045 0.102751516 0.019703409 0.10293512 0.027693091 0.07640601
-0.024412489 -0.11314855 -0.088756815 0.053112905 0.09938247 -0.014887491 0.012363586 -0.002935047
-0.0074699395 -0.029622188 -0.02992657 -0.042298917 -0.04191189 -0.052458286 -0.089666255 0.06434104
0.12430685 0.11277288 -0.04889593 0.03010622 0.027206808 0.0046207663 -0.07766334 -0.0864482
0.12900154 0.108720794 0.15661974 0.106501974 0.11233556 0.066163845 -0.04889994 -0.031216588
0.007876999 0.14790082 0.07541276 -0.016883459 -0.101205006 -0.0064651514 0.108482316 -0.011952527
0.025579726 0.027108107 0.039838 0.1314753 0.09117636 0.0841917 0.041974276 0.03079784
-0.056850746 0.0011237534 -0.05206543 -0.008749302 -0.066785134 -0.08634377 -0.03898395 -0.0308855
-0.044390537 -0.04775027 -0.0029383812 -0.11145014 -0.10682408 -0.06262062 -0.07715865 0.11752065
0.1034562 0.07398918 -0.0101224 0.0733237 0.09714044 0.09158643 0.10421772 0.10945333
-0.03238396 -0.056048717 -0.044549704 -0.02212665 -0.053345274 -0.00898811 -0.05329925 -0.0093599325
-0.069720894 -0.10241396 0.0060544973 0.027662624 -0.062172145 0.023121778 0.038162436 0.11415834
0.04691174 0.110057816 0.12621014 0.12739936 0.061815664 0.029228136 0.06598796 0.03663513
-0.02519555 -0.06407366 -0.06472054 0.061873667 0.15706712 0.13981512 -0.028281352 -0.08504897
-0.07126392 -0.0983032 -0.022812959 -0.010905329 -0.03338014 -0.08775436 -0.07756532 0.07369289
0.12038652 0.1065003 -0.18515895 -0.06746831 -0.04075871 -0.032461125 -0.020027528 -0.02165586
-0.083740175 -0.110910535 -0.10034485 0.048854966 0.033863705 -0.009611696 0.19028519 0.06326348
0.15247273 -0.018140124 0.003385224 -0.113810025 -0.04037538 -0.010909672 -0.04824782 0.14157532
0.13745312 0.08974778 0.03156425 -0.022116195 -0.05519424 0.004150612 0.01919914 -0.028971316
-0.035484415 -0.03011108 -0.03551668 0.080610886 0.10977645 0.037916776 0.19084592 0.062907234
0.078805886 0.12847985 0.12537019 0.031526655 -0.016284851 -0.0072051175 0.029684355 -0.014505269
0.00021576237 -0.048118733 -0.05788291 -0.09052686 -0.13324988 0.042043276 -0.02339947 -0.104008496
0.06621618 0.01788284 0.0028966942 0.019360712 0.064417325 0.16668549 0.17436369 0.13130352
0.17242652 -0.11685127 -0.13617359 -0.10200703 -0.047975082 -0.06662607 -0.04080606 -0.008240857

features.10.bias f4 [64]
00000000: a3e9 163d b0de 7dbd f833 aa3d 6c56 9fbc
00000010: d2c8 75bd cd10 813d 700e 8a3d ef88 17bd
00000020: 17fb a03d d048 eebb 7139 913d 01b2 873a
00000030: edf2 9abd 3d20 63bc 0f0a 0bbe 4a59 373d
00000040: 58f4 d13d 5088 9d3d 5d24 d4bd c6a2 373d
00000050: 3d44 793d 0938 8d3d 51a8 b4bd f36a da3d
00000060: a4ae bf3c c381 063d 6722 66bd 9558 393a
00000070: 733d 54bd a8bf a2bd de2f aa3d 1821 363d
00000080: 9ae0 d6bd a509 9ebd d280 0f3d bd26 d53d
00000090: 472d f93c 16e6 adbc 4006 853d 8a2d f9bd
000000a0: 6ece 9f3d 90fa 413d 5c5c c9bd 790f 0f3d
000000b0: b324 b23d fb06 91bd 070c 55bd cf99 4b3d
000000c0: d639 5b3d a310 643d 0608 eebc 29f2 d33a
000000d0: 64d4 413d 7104 c13d 4880 853d a4ac c2b9
000000e0: 9328 5c3d 53d9 d13b 0189 3abd 884e 093d
000000f0: 755b b83d 7de5 14bd 0536 d9bd 753d 0f3d
0.036843907 -0.06197995 0.083106935 -0.019450389 -0.06000597 0.063020326 0.06741035 -0.036995824
0.078603916 -0.0072718635 0.07091034 0.0010352732 -0.07565866 -0.013862667 -0.13578056 0.044762887
0.10251683 0.07692015 -0.10358498 0.044832967 0.060856093 0.068954535 -0.08821166 0.1066493
0.023398705 0.032838594 -0.056185152 0.00070703897 -0.051816415 -0.07946712 0.08309911 0.044465154
-0.10492058 -0.07716683 0.035034962 0.10407779 0.030417098 -0.021227878 0.06495333 -0.12166889
0.07803045 0.047358096 -0.09832069 0.034926865 0.08698406 -0.070814095 -0.052013423 0.04970723
0.053521954 0.05567993 -0.02905656 0.0016170192 0.047321692 0.09424675 0.06518608 -0.0003713119
0.053749632 0.006404081 -0.045540813 0.03352216 0.09001819 -0.03635167 -0.106060065 0.03497072

features.11.weight f4 [64]
00000000: cc6d 713f b9d0 663f 2dda 843f dda4 823f
00000010: 4cc5 763f 9a87 843f 426d 823f 61d4 833f
00000020: ea84 783f e8e8 7a3f a9c4 723f 2ac1 7d3f
00000030: a72d 843f 981d 7f3f 273d 6c3f a1b1 743f
00000040: 0747 793f 4136 853f 90d8 7c3f efc3 743f
00000050: e28a 833f 3500 6b3f 9d59 813f b2d0 823f
00000060: a609 7a3f e3a1 813f 2011 713f 6ff8 743f
00000070: 9fa5 843f 668c 713f d86b 813f fe3d 763f
00000080: 52c9 763f a875 6d3f 4144 6b3f 8f9e 7e3f
00000090: cf06 753f 3a78 653f 3599 833f 08f9 753f
000000a0: 3252 823f 7d2f 883f 989a 7e3f 45ed 7d3f
000000b0: f899 883f f7bf 713f 27a7 7f3f e882 7b3f
000000c0: 16e2 733f 81a1 843f 59ac 843f 235a 6b3f
000000d0: 197e 7f3f 8052 773f a56d 823f d636 833f
000000e0: 5251 713f 8074 683f 364f 6d3f a914 6e3f
000000f0: 4a89 803f 14da 6b3f 9918 713f c5c7 643f
0.9430816 0.90162235 1.0379082 1.0206562 0.963948 1.0353882 1.0189593 1.0299188
0.9707781 0.98011637 0.9483133 0.9912287 1.0326432 0.9965453 0.9228081 0.9558354
0.97374004 1.0407182 0.9876795 0.9561147 1.0276759 0.9179719 1.0105473 1.0219939
0.9767097 1.0127529 0.94166756 0.9569158 1.0363044 0.94354856 1.0111036 0.9618834
0.9640094 0.92757654 0.9190102 0.9946069 0.95713514 0.89636576 1.028113 0.96083117
1.0181334 1.0639492 0.9945464 0.9919017 1.0671988 0.9443354 0.9986443 0.9824662
0.95266855 1.0361787 1.0365096 0.9193441 0.99801785 0.9661026 1.0189711 1.025111
0.9426471 0.90802765 0.9269899 0.93000275 1.0041897 0.92129636 0.9417816 0.89367324

features.11.bias f4 [64]
00000000: f58d 2cbe 2439 6cbe 7f63 3e3d 2156 5d3d
00000010: 4adf 51be e155 d93d 5a57 4a3d 00a4 a2bd
00000020: c89c 0abe f10d 0fbd 308b 49be 2692 8ebd
00000030: b67e 8b3d 191e 2dbe 5abf 19be 6b44 2ebe
00000040: 2918 7d3d 2181 8c3d 1ce9 47be 6896 47be
00000050: 38f4 b03d db4a 58be 4edf 503d 9843 90bd
00000060: ae43 e93c 5c54 033d 5864 5cbe 84b0 4b3d
00000070: 2964 943d c4c4 64be 09e3 6f3d 23eb 32be
00000080: 357c 1fbd c0bb 56be a27c 5ebe 7cc0 5d3d
00000090: a168 90bd 81a3 33be db57 d93d af97 29be
000000a0: bac4 933d 169d ab3d 147d 32be 4254 4bbb
000000b0: bef3 df3d a6df 45be a8ad 5a3d 89f1 763d
000000c0: 8e72 46be 50e9 9c3d 3a0b c53d 603c 43be
000000d0: 2a01 583d 3b3a 03be b1d4 20be ba16 f83c
000000e0: 452e 4cbe 1bcc 6dbe 2c8a 69be c4c7 44be
000000f0: e408 ebbd b393 65be 58f4 5dbe 5c9e 74be
-0.16851027 -0.23068672 0.046481606 0.054037217 -0.20495334 0.10612083 0.04939971 -0.07941437
-0.1353637 -0.034925405 -0.19682002 -0.06961469 0.068112776 -0.16906013 -0.15014401 -0.17018287
0.06179062 0.06860567 -0.19522518 -0.19490969 0.08640331 -0.21122305 0.05099421 -0.070441425
0.028474655 0.032062873 -0.21522653 0.049728885 0.072456665 -0.22340685 0.058566127 -0.1747251
-0.038936812 -0.20970058 -0.21727231 0.054138646 -0.070512064 -0.1754284 0.1061246 -0.16561769
0.07215257 0.08379571 -0.17430526 -0.0031025563 0.10935162 -0.19323596 0.053388268 0.06028894
-0.19379637 0.07661688 0.09621282 -0.19066 0.052735485 -0.12815182 -0.15706135 0.030284274
-0.19939525 -0.23222391 -0.22806615 -0.1921683 -0.11476305 -0.22419624 -0.21675241 -0.23888534

features.11.running_mean f4 [64]
00000000: 24c8 003e db0a b03c 32f6 2b3f 1d0f 4d3f
00000010: 603a 79bd 382d 073f 951e 383f d4d8 5d3e
00000020: c489 613e 3782 cd3d 9399 8e3d 036e 14be
00000030: 57e4 393f 3614 713e 83b7 c0bc 60f3 8abc
00000040: 36a8 273f 7cac 333f 6e9d 80bd 1ad6 4c3e
00000050: 9ad5 363f 2694 c73d 29fa 603f 817f 903e
00000060: 10be 453f 8ffc 213f 953c 04bd c555 b63e
00000070: 6636 743f 361b 66bd 57a5 463f 8b69 b53d
00000080: 9892 213d 734b a73c 0a0a 253c eefe 283f
00000090: f45b 693e 7569 d5bd fc0e 373f fe4e 66bd
000000a0: 7d22 293f 8e4a 783f 47d5 a7bd 1dba 483f
000000b0: 1e5e 493f 00d2 42bd cf46 4a3f b559 b33e
000000c0: 5675 b13d ec3f 143f 4728 163f c82b 0abe
000000d0: 324b 4d3f 825d ea3d e5cd 863e c149 253f
000000e0: b039 db3e 3d2c 5f3c ae09 9dbc d539 ca3c
000000f0: 8133 293f f5b3 b83d cee6 37bc df6f 3f3d
0.12576348 0.021489551 0.6717254 0.80101186 -0.060846686 0.52803373 0.71921664 0.21664745
0.2202521 0.10034602 0.06962886 -0.14495091 0.72614044 0.23542866 -0.023525005 -0.016961753
0.65491045 0.70185065 -0.06280027 0.20003548 0.7141968 0.09745054 0.87881714 0.28222278
0.7724314 0.63276 -0.032284338 0.35612312 0.95395505 -0.056178294 0.7759604 0.08858021
0.039446443 0.02042172 0.010073194 0.6601399 0.22788984 -0.10420505 0.7150724 -0.056227677
0.6606825 0.9698876 -0.08194976 0.78408986 0.78659236 -0.047563553 0.79014295 0.3502938
0.08664958 0.5791004 0.5865521 -0.13493264 0.80192864 0.114436164 0.2632896 0.64565665
0.4281745 0.013621387 -0.019169655 0.02468578 0.66094214 0.09018699 -0.011224462 0.046737548

features.11.running_var f4 [64]
00000000: b036 6f3e efb0 7b3e 59a1 423e 8d3f 983e
00000010: c929 923e d8a5 1f3e f928 ad3e 1f8f f93e
00000020: 7122 493e 87d8 9c3e 3da8 a73e bc2f af3e
00000030: 6106 a03e aa46 513e 5ecf 703e 8d26 793e
00000040: c66a 673e 70df 3f3e 75be 703e 7bee 5b3e
00000050: a17e 893e 2087 8b3e 7167 8f3e 25c0 c83e
00000060: 89f0 933e cd88 693e 5ea5 8f3e 7aef 5a3e
00000070: d86d 883e 2d75 9a3e 709d b03e 29b3 523e
00000080: 74b3 9e3e 6d95 803e d053 953e 1530 553e
00000090: c41f 723e 62b3 503e 81e8 5d3e 4dc7 6b3e
000000a0: 64ad 603e 139d c93e a00b 503e cae8 323e
000000b0: c199 bc3e cd99 623e 8fca 983e 7ff0 163e
000000c0: 3d11 5c3e 15f6 693e 7dbd 6d3e 9c09 493e
000000d0: 2e87 9b3e 0ccb 263e 2cbb 893e d43f 4f3e
000000e0: 509d 833e 7224 a03e bf40 793e 6942 a03e
000000f0: aac1 9b3e 0bc7 4c3e b029 6a3e 422f 833e
0.23360705 0.24579214 0.19006862 0.29735985 0.28547505 0.15590608 0.33820322 0.48742005
0.19642045 0.30633947 0.32745543 0.34216106 0.31254867 0.20437112 0.23516604 0.24331112
0.22599325 0.18737578 0.23510154 0.21477692 0.26854423 0.2725153 0.28008607 0.39209095
0.2889445 0.22806092 0.28055853 0.21380416 0.26646304 0.30167523 0.34495115 0.20576157
0.30996287 0.25114003 0.29165506 0.20819123 0.2364493 0.20380929 0.21670724 0.23025246
0.21941143 0.3937765 0.20316935 0.17471614 0.36836055 0.22128983 0.2984204 0.1474018
0.21490951 0.22847779 0.23216815 0.19632572 0.3037657 0.16288394 0.26900613 0.20239192
0.25705957 0.31277806 0.24341105 0.31300667 0.3042119 0.19997804 0.22867465 0.25621992

embedding_layer.0.weight f4 [16, 64]
00000000: c4d2 8b3d 8f9a 64bd 0537 293c 5344 18be
00000010: f32f a3bc baa4 44be 53ed a2bd 221a 0fbe
00000020: 8102 903d 7333 30be 5e2a 8d3d bd0e 5cbe
00000030: dcb4 87bd c469 f23c f20b 7c3d 82e9 293e
00000040: 90c9 58be cc27 85bd bdb1 a5bc 5804 2b3d
00000050: 67e7 9bbc b9a4 f73d 9017 85bc fc2d 4abe
00000060: 6bf5 9fbc d760 92bd 0770 6e3d 776f 06be
00000070: 59c7 28be 0d60 e1bd a868 b3bd 6b5f 5d3c
00000080: 040c 33be 2d83 233d 14d1 d9bb 4363 b6bd
00000090: 2039 2fbd eece 383e 0386 5fbd 76c4 933d
000000a0: ef8f 63bd b24f 253d 3cf3 393e 855d e1bc
000000b0: 69db 17be c9f3 1d3e ded0 193d d475 27be
000000c0: 6364 043e 2044 d6bd e999 6bbd 459a 053e
000000d0: 7220 51bd a3f7 e6bc 1fea 86bc 4bb5 2ebe
000000e0: f186 d43c cf5a 18bd 07e1 0cbd da35 cb3d
000000f0: 0467 38be 31c9 c43d c98d 77bc 5a4c 843d
00000100: fa28 c13d 5d90 58bb 0d32 aa3c 22c5 7c3d
00000110: 3df6 b63c 5c30 febd bd1d 6a3d 7148 39be
00000120: ad76 af3d 0aeb 26bd 74d2 5abc 5627 e3bc
00000130: 7e87 3bbc cbb0 ff3d 76ac 933d ded7 a6b8
00000140: ca63 aebd 93e6 793c 1ada 1a3e 64a1 323e
00000150: f191 443b ed99 1b3e d237 4abd e8b5 d5bd
00000160: 8821 d2bd eaf4 6fbd cb51 a1ba 31a0 0abe
00000170: 84c0 d6bc 8894 b63d 711b 833c 3c90 093e
00000180: 35eb 2abe d763 ecba ea02 0b3e b26a 13be
00000190: cd6d fb3d a4d3 fb3d 2d78 b5bd 70af 013e
000001a0: 8a66 8ebc 6a20 0f3c 423c ed3c d078 823c
000001b0: 85f9 2d3d 2bbd 0d3e f775 cdbc eefc 01be
000001c0: 72a3 4f3e 047c 02bd 4a6a 343d 0bdb 673d
000001d0: 9d89 56bc c99b 073e 802c e03d cf87 f6bd
000001e0: abd5 7b3d ee8b b23d fb74 eb3d 9330 c03d
000001f0: 0087 9fbd b049 183e d32c 1f3e fbfc fc3d
00000200: fde1 b13d dc98 5d3d dbe8 1bbe 0843 4e3c
00000210: df31 84bd 2b81 19be 5d6e 73bd 132f 1ebe
00000220: 0fc0 953d b12b 04be 7c26 b93d 3aa8 32be
00000230: 6c7f 3ebc 9abb 2cbe babc ed3d 980c 1a3e
00000240: 1cf0 31be df66 5dbd 9417 9a3d fbe2 8cbd
00000250: 69e0 94bd c18d fb3d e2be 98bd 957d 1cbe
00000260: 052c b6bd ba37 7cbe d0a3 233e 7b38 16be
00000270: 014d 1fbe 0f63 b33d d273 e63c ec1f 463e
00000280: 0086 1cbe 0ec4 2c3e 1364 eebc c99d 47be
00000290: 8167 b43d 4561 6a3d aa95 0e3d 77b8 5abc
000002a0: 3b6f 3cbc 6dcf 65bd c98b b3bd 146e fbbd
000002b0: fd74 5c3c 2f3b 27bd 7140 10bd 1c10 01be
000002c0: 0748 253d 8477 fabd a1fc 97bc 74a4 253e
000002d0: 240d 00be 04dd bdbc e128 38be 498a 9fbe
000002e0: db38 83bc 3b2b 003d 9605 343d b337 49bd
000002f0: 6b41 09be d762 b2bd e5a5 4dbc 92b2 e7bd
00000300: 5b58 06bc 9421 33bd a52e be3d 71c8 cb3d
00000310: b454 50bd 4b6c 573d 0d8c 0c3e e7eb ff3c
00000320: d1ca 65bc 204d ce3c 7cf3 e5bc 0e56 4dbc
00000330: 9985 113e 96b9 0fbd 0e0d 423d 611b ecbc
00000340: f414 1f3e e761 253e 72b7 4ebd 11e5 87bd
00000350: d855 003e 2d78 88bd 2ceb cf3c 7a86 a93d
00000360: 01a7 103e 4242 213e 5fb2 e9bd 915a 0b3e
00000370: 1a6b 953d 52e4 96bd 791f 233e b82a 47bd
00000380: df08 973d 8680 c0bc 9f63 48bd f121 383d
00000390: 9bef ebbb 043d d63c 7990 463e ff91 5dbd
000003a0: 8d17 2c3e 124c f93d a6c0 96bc 1413 a33d
000003b0: c165 dc3d b60e efb9 441b 723d f911 0b3e
000003c0: 0a61 1ebd 9d7d 303d 56c5 083e ad61 6fbc
000003d0: ed99 0e3e 9aa7 26bb ccb8 82ba 9ee4 ac3d
000003e0: c024 56bd a65c 83bc 2c53 b0bd 8eaf 80bc
000003f0: 610c 07bd e76b a3bd bcf8 a1bd 5763 acbd
0.0682731 -0.05581146 0.010328059 -0.14869814 -0.019920325 -0.19203463 -0.07955422 -0.13974813
0.070317276 -0.17207126 0.068928465 -0.21489997 -0.06626293 0.029591449 0.06153483 0.16592982
-0.2117064 -0.06501731 -0.020226354 0.04175219 -0.01903124 0.12091965 -0.016246587 -0.19744104
-0.019526204 -0.07147377 0.058212306 -0.13128458 -0.16482295 -0.11004648 -0.08760196 0.013511519
-0.17485052 0.03992002 -0.0066472385 -0.089056514 -0.042779088 0.18047687 -0.054571163 0.07215206
-0.055557188 0.040359206 0.18159193 -0.027510414 -0.14829792 0.15425028 0.037552707 -0.16353542
0.1292892 -0.104622126 -0.057519827 0.1304713 -0.051056333 -0.028194254 -0.01646906 -0.17061345
0.025943251 -0.037195977 -0.03439429 0.09922381 -0.18008047 0.09608687 -0.015109488 0.064598754
0.09431644 -0.0033045032 0.02077582 0.061711438 0.022334212 -0.124115676 0.057157267 -0.1809404
0.085675575 -0.040751494 -0.01335584 -0.027728718 -0.011445878 0.124848925 0.07210629 -7.955705e-05
-0.08515127 0.015252727 0.15122262 0.17444378 0.0029994214 0.15195437 -0.04936964 -0.104350865
-0.10260302 -0.058583178 -0.0012307701 -0.1353767 -0.026214845 0.08915049 0.016004296 0.13433927
-0.16691287 -0.0018035126 0.1357533 -0.1439617 0.12276802 0.122962266 -0.08860812 0.1266458
-0.017382879 0.008735755 0.028959397 0.015926749 0.04247429 0.13841693 -0.025080664 -0.12694141
0.20277193 -0.03185655 0.044046678 0.05660538 -0.013094333 0.13243021 0.10945988 -0.12037622
0.061483067 0.08718096 0.11496922 0.09384265 -0.07789421 0.1487186 0.15544443 0.1235294
0.08685682 0.054100856 -0.15225546 0.012589224 -0.06454825 -0.1499068 -0.059431423 -0.15447645
0.07312023 -0.12907292 0.090405434 -0.17446986 -0.011627059 -0.1686844 0.11608262 0.15043867
-0.1737675 -0.054053184 0.075240284 -0.068792306 -0.07269365 0.12282897 -0.07458283 -0.1528228
-0.08895115 -0.24630633 0.15980458 -0.14669983 -0.15556718 0.08759128 0.0281314 0.19348115
-0.15285492 0.16871664 -0.029100453 -0.19493784 0.08808804 0.05722167 0.0348107 -0.013349644
-0.011501129 -0.05610602 -0.08766896 -0.12276855 0.013455627 -0.040827926 -0.035217706 -0.12603801
0.040351894 -0.12229827 -0.01855308 0.16176015 -0.12505013 -0.023176678 -0.17984344 -0.3116019
-0.016018322 0.031291228 0.04395064 -0.049125385 -0.13403861 -0.087102585 -0.012551759 -0.113133565
-0.0081997765 -0.043733194 0.092862405 0.099503405 -0.05086203 0.05259351 0.137253 0.031240417
-0.014025406 0.02518326 -0.028070204 -0.012532724 0.1421112 -0.035089098 0.04737573 -0.028821649
0.15535337 0.16150628 -0.050467916 -0.06635488 0.12532747 -0.06663547 0.025380693 0.082776025
0.14126207 0.15747932 -0.11410975 0.13608767 0.072958186 -0.073677674 0.15929975 -0.048624724
0.07374739 -0.023498785 -0.04892313 0.044954244 -0.007200194 0.026152141 0.1939105 -0.05409431
0.16805859 0.121727124 -0.018402409 0.07962623 0.107615955 -0.00045596593 0.059108034 0.13581075
-0.038666762 0.043088544 0.13356528 -0.01461069 0.13925906 -0.0025429488 -0.0009973287 0.08442043
-0.05228114 -0.01603539 -0.08609614 -0.015708711 -0.03297079 -0.07979565 -0.079087704 -0.08417385

embedding_layer.0.bias f4 [16]
00000000: cf8c 003c 5200 afbd 5afe 2f3d 21ac 873e
00000010: 1cd5 73bc 4e9f b6bc 8b4e 343d 6088 ed3d
00000020: 8508 7d3e 0b73 3c3e 665f 073e 20cf 183e
00000030: 808a fe3d 2ed1 c63c 1b3f 1abe 049f 67bd
0.007846071 -0.08544983 0.042967178 0.2649851 -0.014882352 -0.02229276 0.044020217 0.11598277
0.24710281 0.1840326 0.13219985 0.14922762 0.124287605 0.024269667 -0.15063135 -0.056548133

classifier.weight f4 [2, 16]
00000000: dffc 88be e80e 42be 1f6c 23be dc53 703e
00000010: 6364 8bbd 1ffb 553d 766b 0cbe 9c6c be3e
00000020: 86a6 703e b119 903e 5c91 d23d a07f 0ebc
00000030: 7daa a33e fed9 98be f79d 57be 4e6d 48be
00000040: f68c 033d fe6a 243e 0715 5f3e 88ab 90be
00000050: d0cd 863e 8ddc ab3e 477e 5b3e 6e34 cebe
00000060: b822 6b3d 35bb 88bd f027 14bd dbba b0be
00000070: e48a dd3d 4468 ba3b 4169 12be f098 703e
-0.26755425 -0.18950999 -0.15959214 0.2346949 -0.068062566 0.05224144 -0.13712868 0.37192237
0.23501024 0.281446 0.10281631 -0.00869742 0.3196601 -0.29853815 -0.21056353 -0.19572946
0.032116853 0.1605644 0.21785365 -0.28255868 0.26328897 0.33566704 0.2143489 -0.40274376
0.057406157 -0.06676332 -0.0361709 -0.3451756 0.10817507 0.005688699 -0.14297964 0.23495841

classifier.bias f4 [2]
00000000: d0a6 4a3e ccf7 19bd
0.19790196 -0.037589833
