o02_test/run_outputs/15Bcnn_train_weights.pth (torch, 48171 bytes, 22 tensors)

features.0.weight f4 [16, 6, 5]
000000 b9 4e fe 3f 85 13 98 3f 6e dc 20 3e d8 6d 58 bf
       1.9867774 1.1880957 0.15709087 -0.8454261
000010 ec 4b c6 bf 83 2c c5 be 04 fa 4d bf 47 5d 19 bf
       -1.549192 -0.38510522 -0.8045962 -0.59907955
000020 fe 24 14 bf 68 01 39 bf 10 1b 13 3f 3f bb 72 3e
       -0.57868946 -0.7226777 0.5746317 0.23704241
000030 7b 8c 4d 3e ee dc 0d be d0 11 80 be 0d 72 de bb
       0.2007312 -0.13853809 -0.2501359 -0.0067884983
000040 6d 21 e6 3b 27 92 28 bc 11 14 74 3c 29 81 df 3d
       0.0070230276 -0.010288752 0.014897362 0.10913307
000050 e7 09 0e be cd b4 73 3d e0 04 99 bd 44 6d 9b 3d
       -0.13870965 0.059498597 -0.07471633 0.075892
000060 91 f8 df 3c 45 c8 99 be 2c db 5e bc 60 0a 06 ba
       0.027340205 -0.30035606 -0.013602059 -0.00051132403
000070 e6 aa 9e 3b e8 7a eb be 60 35 52 c0 9c 86 52 c0
       0.00484215 -0.45992208 -3.2845078 -3.289466
000080 26 99 e4 bf 55 0b 2c bf 05 6b 05 3f 8c 5a ad 3f
       -1.7859237 -0.6720479 0.52116424 1.3543258
000090 5a 98 03 3f d2 b8 96 3e 7a a4 4f be f6 4c 93 be
       0.51404345 0.29437882 -0.20277587 -0.28769654
0000a0 f6 bd cf 3d 15 1e c5 3e 5d 34 33 3f 95 7c 9d 3f
       0.10143654 0.38499513 0.70001775 1.2303644
0000b0 9d 8f b4 3f dc 31 77 bd 70 fd fb 3d af 5b aa bd
       1.4106327 -0.060350284 0.12304199 -0.083182685
0000c0 2f 59 33 3d 44 39 42 3d 57 f6 b1 bd c6 e9 01 bc
       0.043786224 0.047417894 -0.08689564 -0.007929271
0000d0 e1 02 fd bc ed 1f 39 3e 92 20 99 bd 72 08 36 bd
       -0.030885162 0.18078585 -0.074769154 -0.044441648
0000e0 ef 9c dd 3c 03 78 02 bd de c8 e5 3d 9a 11 56 be
       0.02705237 -0.031852733 0.11219953 -0.20905152
0000f0 3c 9f 13 c0 58 45 26 c0 57 fe cf bf f6 28 07 bf
       -2.306594 -2.5979824 -1.6249493 -0.52796876
000100 a0 45 76 3e c9 1c fe 3e 2d ef 45 3f 4b 67 16 3f
       0.24049997 0.49631336 0.7731808 0.5875136
000110 d7 c8 3d 3f f4 bf 74 3f 78 f6 42 3e cc e9 74 3d
       0.7413458 0.956054 0.19039333 0.05979328
000120 44 85 d4 3a b2 37 e8 be 1d bb d7 be 03 1f ee bc
       0.0016214033 -0.45354992 -0.42134944 -0.029067522
000130 a2 fb a9 3b a3 da 94 3d 51 87 ad bd 5e 7e a5 3d
       0.0051874677 0.07268264 -0.08473075 0.08080743
000140 c5 02 af bd 15 af 11 be 29 b7 f3 3d 7f f1 6f bd
       -0.0854545 -0.14226945 0.119001694 -0.058579918
000150 3f 1e 33 3e df b2 1e be f6 16 ad 3d 08 09 9d bd
       0.17492007 -0.15497921 0.08451645 -0.07667738
000160 f8 5f 1c 3c a2 e0 5a 3e 39 90 2c 40 39 72 fd 3f
       0.009544365 0.21374753 2.6963027 1.9800483
000170 fc 77 82 3f 86 5a 60 bc 34 74 24 bf d2 e0 1d bf
       1.0192866 -0.0136934575 -0.6423981 -0.61671174
000180 c1 9d b2 bd ff a0 18 3e 93 df 08 3f 39 54 3b 3f
       -0.087214954 0.14905165 0.5346615 0.7317539
000190 7f 39 36 3e eb 0c 0b 3e 5d 29 dd bc 0c 43 4f be
       0.1779537 0.13579147 -0.026997263 -0.2024042
0001a0 e9 1d 00 bf b8 88 2d bd a4 d9 10 bd 5a b2 59 3b
       -0.5004564 -0.042366713 -0.03536381 0.0033217878
0001b0 64 37 85 bd 22 d1 f6 bd 6d 35 58 bd 93 c4 f2 bd
       -0.065047055 -0.12051608 -0.052785326 -0.118539
0001c0 6a 87 d8 bc 7a 3e 0c be 48 eb cd bd cf c2 69 be
       -0.026431758 -0.13695708 -0.10054642 -0.2282822
0001d0 d7 14 07 be f1 2a 96 be a0 59 24 be 4f 5d 79 bc
       -0.13191544 -0.29329637 -0.16049814 -0.01522
0001e0 5e cb b7 3e 0c b0 7d 3f 10 dc df 3f 57 3b f0 3f
       0.35897344 0.9909675 1.7489033 1.8768109
0001f0 9c 90 f8 3f cd 60 85 3f 9b d1 4f 3f 35 28 c6 3e
       1.9419131 1.0420166 0.8117921 0.3870255
000200 a0 50 cf 3b 51 b0 17 bf ff b4 74 3e e0 4a e5 3d
       0.00632675 -0.5925341 0.2389717 0.11195922
000210 89 e8 c7 be 0b 7a bf be 2e 5a eb be 3d 4d b5 bc
       -0.39044598 -0.373978 -0.4596724 -0.022131557
000220 37 be 12 bc 0b a0 89 bc 11 48 88 3d 1f 48 5f 3d
       -0.008956484 -0.016799947 0.066543706 0.05451214
000230 74 8d 5c be 81 de 93 be ad ff 4a bd 33 1d 52 be
       -0.21538335 -0.28880695 -0.049560238 -0.20518951
000240 5b 7e a4 bd 88 d6 53 3d 48 aa d6 3d 43 a2 0c 3e
       -0.08031913 0.051718265 0.10481697 0.13733773
000250 8e 4a 2d 3e 72 cd 01 bd 9b 76 c9 bf a0 d7 93 3e
       0.16922972 -0.03169007 -1.573932 0.28875446
000260 d3 b2 07 3f 5d e8 20 3f 67 46 c0 3f fd 0f f8 3e
       0.5300724 0.6285456 1.5021485 0.48449698
000270 d3 89 bc 3e 6d 42 a3 3e bf 19 4a 3f b1 1d 3b 3f
       0.36823902 0.31886616 0.78945535 0.7309218
000280 7e 7d 48 bf 36 a9 52 bf d2 3e 7b be 7c 8e 2d bf
       -0.78316486 -0.82289445 -0.24535683 -0.6779554
000290 19 9e 58 bf 15 1a 2e 3d 36 b9 79 bd e0 4d f1 3b
       -0.8461624 0.042505343 -0.060967647 0.0073640198
0002a0 7b ff 0d 3d 19 f7 09 3c b5 3f 4f be 88 a0 14 3e
       0.034667473 0.008420729 -0.20239146 0.14514363
0002b0 c4 13 5c 3e 92 79 0f be cf db 68 bd 42 14 48 bd
       0.21491915 -0.14011219 -0.05685025 -0.048847444
0002c0 83 5a bb bd fd 2b 0e 3e 8a fa 09 3e e4 be 5f be
       -0.09148123 0.13883968 0.1347448 -0.21850163
0002d0 2c 3b 07 40 2a 2a 93 3f 68 0d c1 bd 0c 98 a6 bf
       2.1129866 1.1497242 -0.09426385 -1.3015151
0002e0 6e f6 cb bf 4f 0a df be 77 49 1b bf 93 f0 48 bf
       -1.5934579 -0.43562552 -0.60658973 -0.7849209
0002f0 67 5d 7b bf 22 50 36 bf b8 e0 48 3f dc 3b 2d 3f
       -0.98189396 -0.7121602 0.78467894 0.67669463
000300 0b 5c 19 3f 52 75 e0 3e 23 2e 17 bd ba 45 39 3b
       0.5990607 0.43839508 -0.036909234 0.002827032
000310 95 9a 2b bc 7e 8f 48 3c 26 57 17 3d ec 5f ab 3d
       -0.010473867 0.012241242 0.036948346 0.08367905
000320 45 e8 1a be a4 d2 17 bd 87 5c 54 3d 38 6d 27 3d
       -0.15127666 -0.037066117 0.051846053 0.040875643
000330 4c f8 21 3d c0 d4 a2 be 96 c1 ec bc 72 e8 0c bd
       0.039543435 -0.3180294 -0.028900903 -0.034401365
000340 d1 11 e3 bd d4 3c 8a be 1d 54 f3 3f 75 1a 9c 3f
       -0.110873826 -0.26999533 1.9010044 1.2195574
000350 a7 25 1e bb f1 78 52 bf 97 1d bd bf ef ed 02 40
       -0.002413133 -0.8221579 -1.4774655 2.0457723
000360 57 da f6 3f 77 ef 8e 3f 85 e8 2c 3f 13 cc 06 3e
       1.9285382 1.1166829 0.67542297 0.13163786
000370 7e 28 49 bf 5b f9 2c bf 54 1b 09 bf b0 d0 2c be
       -0.7857741 -0.67567986 -0.53557324 -0.16876483
000380 fc 55 aa be a2 6e 15 3e dd 08 cb 3d 3a 87 8b 3d
       -0.33268726 0.14592984 0.099138 0.06812902
000390 7a 2e a3 bd 59 84 0b be 4f 10 b6 be c0 4a 11 3d
       -0.07967849 -0.13624705 -0.35559317 0.035471678
0003a0 d3 3a 10 3e c1 e8 08 3e b1 5d 92 3c 17 4e 55 3d
       0.1408494 0.13370039 0.017866941 0.052076425
0003b0 38 4f 94 3c a8 5c ce bc e1 de b2 3c 03 93 bd bb
       0.01810418 -0.025190666 0.021834793 -0.0057853474
0003c0 8b 46 f3 be 4d dd c3 3c 2c d2 1b 3f 4e 09 53 3f
       -0.47514758 0.023909235 0.6086757 0.8243607
0003d0 3b d6 a3 3f 68 b9 03 c0 bb fa 28 c0 65 0e ef bf
       1.2799753 -2.0581913 -2.6403034 -1.8676268
0003e0 a2 bf ea bf 93 9d c9 bf a6 e8 9d 3f 77 88 b5 3f
       -1.8339732 -1.5751213 1.2336624 1.4182271
0003f0 2a 04 b9 3f 44 0f b2 3f 3f ff b1 3f 3c 65 c2 bd
       1.4454396 1.3910909 1.390602 -0.09491965

features.0.bias f4 [16]
000000 92 98 02 3e d2 64 f9 bc 0c e1 33 be da 74 7c 3c
       0.12753513 -0.030443583 -0.17566317 0.015408719
000010 54 37 c8 bd c8 47 b3 bd 2b 7e 56 3d c2 7b d8 bd
       -0.09776178 -0.087539256 0.052366417 -0.1057048
000020 28 05 21 3e 8e 4c 45 3d bf 74 fd 3d 1c 1e 68 3d
       0.15724623 0.04816871 0.12375783 0.05666934
000030 ca 49 70 bd ca d9 e0 3c 93 ad 83 3b f9 3f e7 3c
       -0.05866412 0.0274476 0.0040184944 0.028228747

features.1.weight f4 [16]
000000 8e ec 61 3f 42 3d 5e 3f 01 e0 48 3f f5 a8 65 3f
       0.8825158 0.8681222 0.784668 0.8971093
000010 98 e2 41 3f 43 ac 68 3f cc c5 63 3f a1 e1 4c 3f
       0.7573638 0.9088785 0.8897369 0.8003178
000020 78 80 48 3f c6 d9 4e 3f b7 22 61 3f 1d 05 5b 3f
       0.7832103 0.80801046 0.87943596 0.8555468
000030 17 fa 4d 3f 96 3d 4b 3f 0d 09 4e 3f ea 06 4e 3f
       0.8045973 0.7939085 0.8048256 0.804793

features.1.bias f4 [16]
000000 2c 27 1f be 87 0d 9d bc d0 d9 c2 3a c4 48 e2 bb
       -0.15542287 -0.01917149 0.0014865939 -0.006905647
000010 49 8b 5c be 22 e9 c0 be a8 f1 43 be 2e 1d 5f bd
       -0.21537508 -0.37677866 -0.19135153 -0.054471187
000020 91 3d 20 be 1e 16 9c bc a7 07 b6 ba ed b5 cd be
       -0.15648486 -0.019053515 -0.0013887779 -0.4017786
000030 9e 71 d3 be 52 bf 87 bd 63 fe df bb 4d d6 0e bd
       -0.4129762 -0.06628288 -0.006835745 -0.034872342

features.1.running_mean f4 [16]
000000 e0 d4 eb 3d 50 15 04 bd 91 11 34 be f2 8d 8d bc
       0.11515212 -0.032246888 -0.17584826 -0.017279599
000010 f8 d1 c9 bd 1b af b4 bd c6 fd 20 3d 14 1b cb bd
       -0.098545015 -0.08822461 0.039304517 -0.09917274
000020 95 f9 1f 3e da b1 b7 3c 07 27 e0 3d 4d 10 5c 3d
       0.15622552 0.022423673 0.10944944 0.053726483
000030 e9 65 82 bd 3a 29 cd 3c 17 ed 8d 3c 05 10 b6 3c
       -0.06367094 0.025044072 0.017324967 0.022224436

features.1.running_var f4 [16]
000000 a9 77 6c 44 cc 8c 6d 42 1e 6d 82 42 15 45 b7 44
       945.8697 59.387497 65.21312 1466.1588
000010 b6 f6 27 44 a9 8d b7 41 20 ac 6d 44 b9 a3 70 43
       671.85486 22.94417 950.68945 240.63954
000020 98 1a b9 42 1d 6e b2 44 3b b7 4e 44 3d 65 84 42
       92.55194 1427.441 826.863 66.19773
000030 d6 a7 b3 43 7a ce 1f 43 4e 92 3e 44 dd b5 d2 43
       359.31122 159.80655 762.286 421.4208

features.5.weight f4 [32, 16, 3]
000000 ab 91 e6 3c 8e 75 61 3d 0a be f0 bc 6d 47 a7 bd
       0.028145632 0.05504375 -0.029387493 -0.0816792
000010 63 09 ff bd 71 bc 34 be b6 37 cf 3c 1c 3c 0b 3d
       -0.12452962 -0.1765001 0.02529512 0.03399287
000020 12 25 39 3e cc cc e5 3d 45 e4 91 bd 40 f0 cf bd
       0.18080547 0.112207025 -0.07123617 -0.10153246
000030 28 ba ce bd a7 c5 56 bd 9f 33 ff bb 49 41 28 be
       -0.100941 -0.05243459 -0.007788136 -0.16431154
000040 9a 6b 7a be 30 62 75 be dc 28 49 bd fd 22 48 bd
       -0.24455109 -0.23963237 -0.049111232 -0.048861492
000050 3d 31 ee 3d 4c 58 32 be 53 fb 2c 3e 59 b9 37 3d
       0.11630485 -0.17416495 0.16892748 0.044854496
000060 20 12 71 bc 57 60 35 bd f4 b8 48 be ec 6d fe 3d
       -0.014713794 -0.04428133 -0.19601804 0.1242331
000070 dc 4c d5 3d a2 a4 04 bd 58 1e 10 bc 0b a2 1e bd
       0.104150504 -0.03238357 -0.008796297 -0.038728755
000080 78 68 6e 3d 62 c6 91 3d 9c 82 73 bd 1c d8 44 be
       0.058205098 0.07117917 -0.05945073 -0.19223064
000090 4b 4b 16 be dd ca de bc 4c 90 b6 3d 08 d8 08 be
       -0.1467716 -0.027196342 0.08914241 -0.1336366
0000a0 71 88 c3 bd ef 2e b2 39 b4 11 63 be 1f 62 5e 3d
       -0.095475085 0.00033985774 -0.22174722 0.054292794
0000b0 d2 73 37 3d dd a2 01 3e d9 69 cf bd 43 60 a0 bd
       0.04478819 0.12659784 -0.10127611 -0.078308605
0000c0 be c1 ae bd a0 3d d0 bd 74 1b 75 bd a3 e8 fa 3d
       -0.08533047 -0.10168004 -0.059840634 0.12251403
0000d0 7e 24 8c 3e f0 b5 ab b8 d4 1b e0 bc c9 11 68 3d
       0.2737159 -8.187804e-05 -0.02735702 0.056657586
0000e0 8b e1 5f bd 7d 81 25 3c b7 fc 50 bd b0 e3 02 be
       -0.054658454 0.010101673 -0.051022258 -0.12782168
0000f0 99 c1 ee 3d d3 64 4f 3d 36 24 9c bc 8f ef f0 3d
       0.116580196 0.050633263 -0.019060235 0.11764442
000100 26 a7 e7 bc 34 4d 1b 3e 63 0d ef bd 32 1c 53 be
       -0.028277945 0.1516617 -0.11672475 -0.20616224
000110 2c d6 05 be d5 24 c2 bd 23 c8 af bd d9 c3 18 be
       -0.13069981 -0.094796814 -0.08583095 -0.1491846
000120 cb 15 6c be bf 6f 90 be 97 ae 23 be ca 80 56 3d
       -0.23055188 -0.28210256 -0.1598457 0.052368917
000130 93 54 a4 3d f7 0a ca b9 69 df fe bd 39 14 fd bd
       0.08023944 -0.00038536612 -0.12444956 -0.12357373
000140 b9 52 21 be 21 b0 d6 bc 1c 0d 24 be cf ee af bd
       -0.15754212 -0.026207032 -0.16020626 -0.08590471
000150 2a 6b f1 bc 26 95 79 be ed 87 06 3d 12 2d 82 3d
       -0.029470045 -0.24373302 0.032844473 0.06356253
000160 c0 77 de bb fc bf ae 3d 3e d0 36 be fd 49 97 bd
       -0.0067891777 0.08532712 -0.17852876 -0.07387159
000170 af 08 85 3d 42 fa 3e bd bd 79 a2 bd a5 d3 a4 3d
       0.06495797 -0.046625383 -0.07933376 0.080481805
000180 53 0f 0d bd 07 b9 c5 3d 24 ce 6c 3c 82 7a 06 be
       -0.034438442 0.09654432 0.014453445 -0.1313267
000190 a2 97 9c bd 0a 75 c0 bd b4 33 ad bc 16 20 71 3d
       -0.07646109 -0.093973234 -0.021142818 0.05886849
0001a0 4b bb 6d bd fe c7 4f be dd 1d 50 be 77 64 39 be
       -0.058039945 -0.20291135 -0.20323892 -0.1810473
0001b0 60 68 0c bd c7 b3 1c be 41 66 9e bd 1a 8b 19 bc
       -0.034279227 -0.15302955 -0.07734347 -0.009371543
0001c0 f4 32 b9 3d 9a 8d 24 3e e1 92 cc 3d db c4 0c 3d
       0.09042922 0.16069642 0.099889524 0.034367424
0001d0 de c4 3c bc 33 c4 1d 3e 96 16 8d bb 20 46 20 bd
       -0.011521546 0.15406875 -0.004305671 -0.039129376
0001e0 38 42 d6 3d b0 44 58 bd c7 62 07 be 97 64 7d bc
       0.10461849 -0.05279988 -0.13221274 -0.015465877
0001f0 ff 7c 18 be 54 cf e9 bd 75 11 3c be 61 7e 83 bd
       -0.14891432 -0.11416498 -0.18366034 -0.06420589
000200 04 58 fe bd 77 9e 76 3c 79 dc 30 3d 14 b7 7a 3d
       -0.124191314 0.015052429 0.04317901 0.061209753
000210 16 39 4f bd ac 6d 8f b7 b2 5e 2c be 5e 6c 04 be
       -0.05059155 -1.7097998e-05 -0.16832998 -0.12931964
000220 b4 69 11 3c 69 b4 b9 bc c5 ff 26 be 74 35 50 be
       0.008875299 -0.022669034 -0.16308506 -0.20332891
000230 64 5e 30 be 7f ef 9c bd 6b b8 70 be 96 37 7b be
       -0.17223507 -0.07662868 -0.2350785 -0.24532923
000240 d2 46 8d bd 5c 2c 1c be 3b 2e 62 bc e9 5e 56 3e
       -0.068982735 -0.15251297 -0.0138049675 0.20934643
000250 32 60 aa 3b 47 fd 07 be 5f 37 da 3d 34 87 98 bd
       0.0051994557 -0.13280211 0.106550924 -0.07447663
000260 14 9f e5 bd f6 38 be bd aa 81 de 3d 06 f1 b9 3c
       -0.11211982 -0.09288208 0.10864575 0.022697937
000270 64 a4 1c 3e eb ec 88 bc 71 d1 1d bd 2b 00 c7 bd
       0.15297085 -0.016714534 -0.038529817 -0.09716829
000280 a2 92 e3 bd 70 5c 46 be 03 d8 09 be cc d5 4c bd
       -0.11111952 -0.193712 -0.13461308 -0.05000858
000290 5d 86 51 be b0 8e e2 bd 90 28 a5 bd 4a cf b3 bd
       -0.20461412 -0.11062372 -0.08064377 -0.087797716
0002a0 70 ad 65 3c 5a 89 1b be fa ef a3 bd e3 9f 8f 3d
       0.0140184015 -0.15189114 -0.08004756 0.07012918
0002b0 54 7e f4 3d a6 18 b8 b9 f2 44 3a bd 2b a2 23 3e
       0.11938158 -0.0003511358 -0.045475908 0.15979831
0002c0 81 39 0e 3e a8 fe 2b be b0 0d 89 bc ea 76 53 3e
       0.13889123 -0.16796362 -0.01673016 0.20650831
0002d0 c7 8d 5a bd 18 36 08 be 46 08 83 be ee 08 cc 3d
       -0.053357866 -0.13301885 -0.2559225 0.09962641
0002e0 e0 04 61 3d 33 2a 0a be d4 2c 7a bd 5c e2 8d 3d
       0.05493629 -0.1349266 -0.061077908 0.0692794
0002f0 9d 89 07 bb ad a1 fb bb 09 a6 1a be 7d 78 4e bd
       -0.002068139 -0.0076791854 -0.151024 -0.050407875
000300 fd a5 85 be d1 92 64 be 44 d3 50 be 3d 84 24 3d
       -0.26103202 -0.22321631 -0.20393091 0.040165175
000310 7b 4a 80 bd bc de bd 3d 47 6a 31 bd 1a 43 48 bd
       -0.06264206 0.09270999 -0.043314245 -0.048892118
000320 7e f1 1e bd 14 b7 99 3e 3a f5 94 bd 19 51 02 3e
       -0.038804524 0.3002249 -0.07273336 0.12726249
000330 a6 9d db bc b5 6e 22 bd de 11 88 3c 77 3b 7a be
       -0.026808571 -0.03965636 0.016610082 -0.24436747
000340 b4 b5 b7 3d c3 ed b4 bd 68 57 0f be e6 29 3d be
       0.08970204 -0.08834412 -0.13998187 -0.18473014
000350 72 2f 68 be bf c6 da bc e2 a6 ae 3c 2b b5 af 3d
       -0.22674349 -0.026706098 0.02131981 0.08579477
000360 a4 de 16 be d0 5f e5 bd a2 2d e8 bc b3 76 ed bc
       -0.14733368 -0.111999154 -0.028342072 -0.028987264
000370 d2 e5 2b ba 45 a7 7b bd b2 71 04 be 03 82 bf bd
       -0.0006557378 -0.061438818 -0.12933996 -0.0935097
000380 19 76 81 bd 93 c3 78 bc 4b 70 eb bc d6 c4 91 3e
       -0.063213535 -0.015183347 -0.028740069 0.28470486
000390 35 55 98 3d 19 d7 c6 3d 8d 30 b2 3d 32 cb 37 bd
       0.07438127 0.09708995 0.087006666 -0.044871517
0003a0 77 78 20 be 9c 95 21 be a8 59 c6 3d b1 5d f9 3c
       -0.15670954 -0.15779728 0.09685069 0.030440183
0003b0 08 06 02 bd 49 9f 4c 3d c1 f8 1b 3d 4a 63 99 3b
       -0.031744033 0.049956594 0.038079027 0.0046810256
0003c0 ff 59 fb bd f1 00 23 be fb 4e c3 bc a2 17 01 3e
       -0.12273025 -0.15918328 -0.023841372 0.12606671
0003d0 c2 92 0d 3e eb 43 42 3d b7 ce 00 3e 69 3c 30 3e
       0.13825515 0.047428053 0.12578855 0.17210545
0003e0 22 89 81 be 72 a1 9e 3b 3b 16 ef 3d d7 00 1e be
       -0.25299937 0.004841023 0.11674162 -0.15430008
0003f0 a9 b3 02 be 55 6b 48 bd a3 cb 51 bd d2 f6 41 3d
       -0.12763847 -0.048930485 -0.051219594 0.047354527

features.5.bias f4 [32]
000000 c6 8d b4 bc d4 46 4c bc 74 53 4e 3c 86 91 b0 bd
       -0.02204026 -0.012468059 0.012593139 -0.086215064
000010 bc 89 39 be 96 18 69 be 7b 32 eb 3c 3c 18 8f 3c
       -0.18118948 -0.22763285 0.028710594 0.01746761
000020 7f fd 98 bc 02 ce 02 be 2e 5a 12 be c0 8b 09 be
       -0.018675564 -0.12773898 -0.14292213 -0.13432217
000030 2c 85 9d ba bf 83 bd 3d aa 0e 1e bc 8f 1d 61 3c
       -0.0012017838 0.09253644 -0.009647051 0.0137399575
000040 1b ad d1 bd 74 bd 16 3e 03 92 ac bd 5d bd 8a 3d
       -0.102380954 0.14720708 -0.08426287 0.067743994
000050 78 78 62 bd e4 58 26 be 3b ee 2e 3d b0 6d a7 bc
       -0.05529067 -0.16244847 0.042707663 -0.020438045
000060 e4 72 69 3d a1 a6 e9 3d d0 cd c1 bc ff 25 37 be
       0.056994334 0.11408735 -0.02365771 -0.17885588
000070 06 c4 be 3c a9 9b b8 bc ed 40 ce 3c 8e 49 63 3c
       0.02328683 -0.022535162 0.025177443 0.013872517

features.6.weight f4 [32]
000000 22 8e 48 3f 17 08 64 3f e2 df 6d 3f 64 d0 42 3f
       0.7834188 0.89074844 0.92919743 0.7609923
000010 2e 97 4f 3f 6a 20 53 3f 2c 26 67 3f 7e c2 4a 3f
       0.81090057 0.82471335 0.9029262 0.7920302
000020 58 48 35 3f e7 3e 61 3f 89 0e 76 3f d2 2e 41 3f
       0.7081351 0.87986606 0.9611593 0.7546207
000030 cb e0 4a 3f cc a8 58 3f 13 56 66 3f 7f 78 51 3f
       0.79249257 0.84632564 0.8997509 0.8182449
000040 f5 8c 3a 3f fc d8 65 3f 9f bc 68 3f 61 f7 48 3f
       0.72871333 0.89784217 0.9091281 0.7850247
000050 52 58 43 3f 75 8e 67 3f 9f 24 71 3f 84 c2 4e 3f
       0.7630664 0.9045175 0.94196504 0.8076556
000060 fe c6 72 3f e4 40 58 3f 57 c4 63 3f 11 0d 4c 3f
       0.9483489 0.84474015 0.88971466 0.7970744
000070 21 84 41 3f 59 04 5a 3f 46 31 6e 3f a2 78 68 3f
       0.7559224 0.85162884 0.93043935 0.9080907

features.6.bias f4 [32]
000000 9f 7d 23 be 5d 71 12 be 90 14 31 be eb 0d c2 3a
       -0.1596589 -0.14301057 -0.17293 0.0014805173
000010 c8 7e 1a be 4c 54 71 be 20 42 b7 bd 4c 40 36 be
       -0.15087426 -0.23567313 -0.08948159 -0.17797965
000020 05 ea dd 3d 88 7d 58 be 5a fb 86 bd 33 51 8e bd
       0.10835651 -0.21141636 -0.0659091 -0.06949081
000030 f0 b9 5e 3d 3f f5 a7 be f2 4c 67 be a6 ac 37 be
       0.054376543 -0.32804295 -0.22587946 -0.17936954
000040 21 57 1a be 12 0f 68 be e4 11 39 be 93 24 28 3c
       -0.150723 -0.22661999 -0.18073231 0.010262626
000050 8f e1 94 be ec f2 36 be 6a cd 61 be 3f df 7f be
       -0.29078338 -0.17866105 -0.22051015 -0.24987505
000060 3d 7a 6b bd c8 61 47 be 44 8a 3a bd d8 f5 76 be
       -0.057489622 -0.19470894 -0.045542017 -0.2411722
000070 19 f2 29 be fd c6 36 be 62 91 d3 3c e7 5d 8a be
       -0.16596259 -0.17849346 0.02582616 -0.27024767

features.6.running_mean f4 [32]
000000 51 ca 9a be 3e f3 b1 be ca 1f 10 bf 6d c2 a1 be
       -0.3023248 -0.34755892 -0.56298506 -0.31593648
000010 df 3a e2 be 5e 8c 03 bf 27 02 4c be 69 f1 b4 be
       -0.4418554 -0.5138606 -0.19922696 -0.3534043
000020 13 3e 04 be f0 af 27 bf 0e cd 39 bf 73 3e 95 bd
       -0.12914304 -0.65502834 -0.72578514 -0.07287302
000030 08 23 a2 be aa e7 30 be b3 75 69 be fc c1 8c be
       -0.31667352 -0.17275873 -0.22798805 -0.27491748
000040 37 4a 4a be 25 8e d7 be 2a 58 18 bf d8 fe de bd
       -0.19754873 -0.42100635 -0.5950953 -0.10888451
000050 a3 20 60 be e6 c7 0b bf 4b aa dd be 44 ff c3 be
       -0.2188745 -0.54601896 -0.43293986 -0.3828069
000060 f5 4a f0 be 12 38 70 be f3 12 fe be 9e cc 3b bf
       -0.46932188 -0.23458889 -0.49623832 -0.73359096
000070 d7 00 74 3e d3 38 b0 be 06 4e bb be 14 10 02 bf
       0.23828445 -0.34418353 -0.36582965 -0.50805783

features.6.running_var f4 [32]
000000 a5 e8 34 3f 49 ec 45 3f 97 1d 93 3f 48 1a 04 3f
       0.7066749 0.7731367 1.1493405 0.516026
000010 dc 6d 26 3f a5 f7 29 3f 02 7f f0 3e 0f 32 91 3f
       0.6501138 0.663935 0.469719 1.1343402
000020 25 03 03 3f 88 9e 8a 3f f7 eb de 3f 55 e0 58 3e
       0.51176673 1.082963 1.7415761 0.21179326
000030 be 3a 39 3f 9a 7c 66 3f 49 39 1b 3f 23 51 48 3f
       0.7235526 0.90033877 0.60634285 0.78248805
000040 c7 23 bf 3e 6a 02 7d 3f 8c fa 82 3f 44 a8 f9 3e
       0.37331983 0.9883181 1.0232711 0.4876119
000050 81 4b 03 3f ea 7b 6b 3f 48 14 71 3f 70 52 61 3f
       0.51287085 0.9198595 0.9417157 0.88016415
000060 b8 e5 ea 3f 5e 1c 80 3f 11 d6 f2 3f 08 d3 74 3f
       1.8351355 1.0008657 1.8971578 0.9563451
000070 7d 36 9b 3e d6 1e 44 3f 41 cc b0 3f da 7f 55 3f
       0.3031501 0.7660955 1.3812333 0.8339821

features.10.weight f4 [64, 32, 3]
000000 92 04 05 3e c3 b2 05 3e 78 d7 c5 3d 8b 86 f6 3d
       0.12990025 0.13056473 0.09660238 0.12037381
000010 6b 1e 0b 3e ec eb 17 3e 1a de 92 bd 1e f9 2b bd
       0.13585822 0.14836091 -0.07171269 -0.041985624
000020 2a e6 bb bd 89 ba be bd 80 00 d8 bd df 4f 26 be
       -0.0917476 -0.093129225 -0.1054697 -0.16241406
000030 f7 86 a8 bc 94 22 2e bd 03 87 83 bc 85 d4 9e 3d
       -0.020572169 -0.042513445 -0.01605559 0.07755379
000040 a5 fb f0 bc 96 bf 5e 3c 3b 00 b6 3b 33 db 2e bd
       -0.029416868 0.013595482 0.0055542267 -0.042689513
000050 38 58 39 bb 62 9a 87 3b 05 6b d2 bd c3 72 05 bd
       -0.0028281342 0.004138277 -0.102743186 -0.03258015
000060 56 da 09 be db 08 c6 bd 50 6b 9d bd c4 0b 41 bd
       -0.13462195 -0.09669658 -0.07686484 -0.04713036
000070 3c 11 81 bd 93 12 c1 bb a2 46 ce bd fa 61 e3 bd
       -0.06302115 -0.005892107 -0.10072066 -0.11102672
000080 06 f9 34 bd 44 57 0d be 10 9e ed bd 22 3c 16 be
       -0.0441828 -0.1380282 -0.11602414 -0.14671376
000090 be d9 03 be 5f 15 06 be 0f 52 25 be 05 77 fd bc
       -0.12876031 -0.1309409 -0.16144584 -0.030940542
0000a0 13 d6 59 bd 9d 51 ef bc 32 b6 fb bc 1e c4 94 bc
       -0.053182673 -0.029213721 -0.030726526 -0.018159922
0000b0 68 1b 5a bd ea 81 a7 3c 19 d1 1c 3d 45 f1 69 3d
       -0.053248793 0.02044769 0.03828535 0.05711486
0000c0 62 ae 18 be 3b 0d 9d bd cb 8f cd bd c8 ee 2e bd
       -0.14910272 -0.07668539 -0.10037192 -0.04270819
0000d0 aa 72 08 bd 5b b5 06 bc 46 62 1c 3e 2e 04 38 3e
       -0.033312477 -0.008221949 0.15271863 0.17970344
0000e0 4c 36 6b 3e ec 64 f9 bc a1 b7 02 bc df ab fd bc
       0.22969931 -0.030443631 -0.007978351 -0.030965744
0000f0 16 c0 13 bd 4f be 13 bc 86 da 59 bd 42 92 24 3e
       -0.03607186 -0.009017541 -0.053186916 0.16071418
000100 ac 5b 2a 3e 0d 81 5a 3e f2 07 5e 3e af 0f 19 3e
       0.16636533 0.21338291 0.21682718 0.14947389
000110 dd 92 4d 3e 13 29 ae 3d c2 ee 52 3c ea 19 d4 3d
       0.20075555 0.08503928 0.012874307 0.10356505
000120 a1 01 98 bd d6 28 1e be 67 84 e2 bd d0 3a f1 3d
       -0.07422186 -0.15445265 -0.1106041 0.11778796
000130 96 58 d0 3d 53 9c 05 3e a6 1c f8 bd e0 94 01 be
       0.101731464 0.13047914 -0.12114839 -0.12654448
000140 85 27 0f be 9d ca 7c 3c c0 f2 19 bb 60 86 9a bc
       -0.13979919 0.015429166 -0.0023490638 -0.018862903
000150 6c c0 bf bd e7 ae 9a bd 56 e6 dc bd 69 07 65 3c
       -0.093628734 -0.07552891 -0.107861206 0.0139788175
000160 a6 7c 51 3c f9 a0 b9 3d cd 93 17 be d2 2d 07 be
       0.012786066 0.09063906 -0.14802475 -0.13201073
000170 d3 39 0f be 3c 88 29 3d b6 27 38 bd 1d 3a e0 bc
       -0.13986902 0.04138969 -0.044959746 -0.02737146
000180 b0 96 51 bd 70 a2 68 3c 95 1a 97 bc d7 45 77 3d
       -0.051169097 0.014198884 -0.018445292 0.06036934
000190 74 06 02 3e ab ee 3d 3e 47 6b 5b bc 1a 48 5d bc
       0.12697774 0.18548076 -0.013392276 -0.01350596
0001a0 8b 61 09 bc 12 3f b8 3c dc fc 10 3d 76 c7 d5 bc
       -0.008385072 0.022491012 0.035397395 -0.026096087
0001b0 c5 56 0d 3e 33 c2 e1 3d f0 b2 c5 3d b8 9a 54 3e
       0.13802631 0.11023369 0.0965327 0.20762146
0001c0 fe 09 76 3e 1b 40 3b 3e 5a 5b 0f 3e d5 80 00 3e
       0.24027249 0.18286173 0.13999692 0.12549146
0001d0 32 72 81 3d 54 3e 4a 3e 67 13 37 3e ba a8 5d 3e
       0.06320609 0.19750339 0.17878495 0.21646395
0001e0 bb 45 5e bd 71 7d e3 bc 33 8b 40 bd f4 a0 7f 3d
       -0.05426572 -0.027769776 -0.04700775 0.062409356
0001f0 a0 a8 84 3d 4f e9 2d 3d 94 bd f2 bd 00 d8 a9 bd
       0.06477475 0.04245883 -0.118525654 -0.08293152
000200 fc a5 01 be ca 6a 13 3c 23 23 a5 bc ca c9 86 bd
       -0.12660974 0.008997628 -0.020158356 -0.06581457
000210 e4 12 b3 bd 08 5c 54 bd bc ec c8 bd 6f b9 45 3e
       -0.087438375 -0.05184558 -0.098107785 0.19309019
000220 00 3d 43 3e 83 dd 0d 3e 50 20 d8 3d 66 6e f6 3d
       0.19066238 0.13854031 0.10553038 0.120327756
000230 2b ce 82 3d 65 21 50 3e c6 7c 37 3e 7b 44 c7 3d
       0.0638698 0.20325239 0.17918691 0.097298585
000240 c9 21 7d bc d7 64 3b 3d 41 32 65 3d ef f2 c7 3a
       -0.01544995 0.045750465 0.05595613 0.0015254895
000250 d9 7c 6e bb ac bb a1 bb a1 5b 23 3b 05 05 27 3d
       -0.0036390333 -0.0049357023 0.0024926441 0.04077627
000260 a3 79 6f 3b 5e e6 1f bb 8a bb b2 3c f9 20 58 bc
       0.0036541007 -0.0024398784 0.021817941 -0.013191455
000270 5f ac 86 3a 4e e4 3b 3d fe 36 cf 3a 95 99 85 3d
       0.0010274759 0.045872025 0.0015809236 0.06523434
000280 f5 b0 07 3e 88 29 f1 3d e5 a9 df 3d 9d 29 0e 3e
       0.13251098 0.117754996 0.10921077 0.13883062
000290 df 3a b6 3d cd 0b 17 3e 70 fe 1c 3e 0e 3e 52 3d
       0.088979475 0.14750595 0.15331435 0.05132871
0002a0 d0 04 3c bd 05 39 ae bd db 15 ca bd 7e 5a 1b 3d
       -0.045903027 -0.08506969 -0.0986745 0.037928097
0002b0 2d b1 03 3e 9e f6 0b 3e a4 61 29 be 5a 5c db bd
       0.12860556 0.13668296 -0.16541153 -0.10710974
0002c0 00 0b 8b bd d2 04 1f 3d 36 d1 d6 3d 1f 2c 2b 3d
       -0.067892075 0.038822956 0.104891226 0.041790124
0002d0 65 b7 a4 3c 02 a7 50 3c 2b 85 9f bc 5f b1 02 3e
       0.02010698 0.01273513 -0.01947268 0.12762974
0002e0 00 fe 2d 3e e3 83 54 3e b8 d3 0c be 99 c1 a7 bd
       0.16991425 0.20753436 -0.1375264 -0.08191223
0002f0 a4 0b e3 bd 98 fb 16 bd 7c b8 e0 3c 6f 6f b3 bb
       -0.11086205 -0.036861032 0.027431719 -0.0054759304
000300 cb a8 c5 3a bc d9 10 3c ae db 27 3c e5 de 02 bd
       0.0015080211 0.008840974 0.010245247 -0.03195085
000310 74 39 f2 3c ef 86 81 3d 5b 66 53 3e 90 01 f7 3d
       0.029568411 0.06324565 0.20644514 0.12060845
000320 3c eb 68 3e 8d 97 67 bd 40 64 c4 bb a9 cb e5 bc
       0.22745985 -0.056541014 -0.005993396 -0.028051214
000330 ad bf 4a bd de fe 04 bc 71 1d 38 bd 4b 9f be bd
       -0.049499203 -0.008117406 -0.044949953 -0.093077265
000340 45 24 bc bd 87 c1 40 bd 5d 8b e6 3c d5 8b 28 3c
       -0.09186605 -0.047059562 0.028142625 0.010287245
000350 c5 7c aa bc f8 19 c6 39 00 9c 3a 3d 33 8e a0 3b
       -0.020811448 0.0003778485 0.04555893 0.004899764
000360 20 98 bc bd c2 72 cc bd 68 96 2a bd bf 17 c2 3d
       -0.09208703 -0.09982826 -0.041647345 0.094771855
000370 dc 67 1e 3e 3d 38 38 3e 70 7e 22 3e f5 02 e5 3d
       0.15469307 0.17990203 0.15868545 0.11182205
000380 7d c6 ec 3d 23 a1 bf 3d 25 b2 a6 3d b6 01 0f bd
       0.11561296 0.09356906 0.08139447 -0.03491374
000390 fb 3f 80 bd c6 e3 2c 3d f6 a1 ab 3d e7 ae a9 bd
       -0.06262203 0.04220941 0.08380501 -0.08285313
0003a0 78 b3 bb bd e3 ad ca bd 3a c1 53 be 30 39 64 be
       -0.0916509 -0.098964475 -0.20679179 -0.2228744
0003b0 9d 22 1c be 9e 7b 44 be ee 45 1c be 4b 08 7b be
       -0.15247579 -0.19187781 -0.15261051 -0.24514882
0003c0 2d 1e 00 bc be b2 8a bc ed dd 32 bd e7 2b 10 3e
       -0.0078196945 -0.016930934 -0.043668676 0.14079247
0003d0 fe cb 29 3e 13 76 9d 3e 5a 9b 50 3e a0 c4 0b 3e
       0.16581723 0.30754146 0.20371762 0.13649225
0003e0 8a c4 3e 3e 3b de ed 3d 48 1f 64 3d 6a 02 ce 3c
       0.18629661 0.11614653 0.055693895 0.025147635
0003f0 f9 98 f6 bc e0 66 49 3b 65 a7 e6 ba 3f 6c e0 bd
       -0.03010224 0.0030731484 -0.0017597495 -0.10958146

features.10.bias f4 [64]
000000 80 68 98 3d db f9 3e bd 45 d5 4e 3d fd 5f 87 bd
       0.07441807 -0.046625 0.05049636 -0.06610105
000010 44 97 03 be 00 cd d8 3d 3f 0e 03 3d 1c ba 5b bd
       -0.12850672 0.10585976 0.031996008 -0.053644285
000020 9e 4e 89 3d 39 75 b5 bc cd 8e 3c 3d d1 6a ed bb
       0.06704448 -0.022150623 0.046034623 -0.0072453995
000030 67 52 f5 3a fd 25 73 bd 34 7f b2 bd 3f e7 2b bc
       0.0018716574 -0.0593624 -0.08715668 -0.010492145
000040 9a 66 0f 3e 51 49 23 3d 72 4c 14 be 62 47 c2 3c
       0.14003983 0.03986484 -0.14482287 0.023715679
000050 87 fe bf 3d 57 fb 9b bb 7a 80 56 bd 4a 18 f7 3c
       0.09374719 -0.0047601867 -0.05236862 0.03016295
000060 20 b1 16 3d 4d 94 fe 3c 35 2f aa bd ec c1 c3 3b
       0.036790013 0.031076575 -0.08309785 0.005974045
000070 95 25 af 3c 1d 80 50 bd 70 c1 28 3e 1c 7a c8 3c
       0.021380225 -0.05090343 0.1648004 0.024472289
000080 e2 7e 00 bd 85 c6 1b be 73 8c 0d bd fc 41 12 3e
       -0.031371005 -0.15212448 -0.03455777 0.14282984
000090 6e 0b e5 3b ed c4 94 3d 14 12 26 3d e4 6b d8 bd
       0.006989888 0.07264123 0.040544584 -0.105674535
0000a0 73 05 ef 3d a3 ec 53 3d 58 f2 85 bd 88 66 80 bb
       0.11670961 0.051739346 -0.06540364 -0.0039184727
0000b0 05 6e 11 3e ce 8e 1f be a5 86 b7 bc 49 99 2a 3d
       0.14202125 -0.1558182 -0.02240307 0.04165009
0000c0 91 7f 01 3e f2 e1 c8 3d 85 8c 93 bd 27 63 59 3b
       0.12646319 0.09808721 -0.07204536 0.0033170672
0000d0 16 ed e3 3c 50 43 36 3d bb 25 ae bc 7a 65 68 bc
       0.027823012 0.044497788 -0.021258226 -0.01418435
0000e0 f8 53 ba bc ed de cd 3d 4c 4c 38 bd c6 6e 18 3d
       -0.022745118 0.10052285 -0.044994637 0.037215017
0000f0 29 7d a3 3c c6 94 8d bd 15 4a 69 3b d2 f5 29 3e
       0.019957142 -0.06913142 0.0035597135 0.1659768

features.11.weight f4 [64]
000000 11 91 62 3f 85 fe 66 3f a1 a4 6a 3f 46 41 69 3f
       0.88502604 0.90232116 0.91657454 0.91115224
000010 ed cf 64 3f d3 ae 6b 3f 86 82 63 3f 96 3f 6d 3f
       0.8937977 0.92063636 0.8887104 0.9267515
000020 ea a8 4b 3f c9 2c 6e 3f b2 5d 54 3f a1 1a 6d 3f
       0.7955462 0.93037087 0.8295547 0.9261876
000030 86 33 6e 3f 8f 80 5b 3f 71 6b 65 3f 81 d1 66 3f
       0.9304737 0.8574304 0.8961707 0.9016343
000040 5e 80 59 3f 4c bc 68 3f d9 19 6e 3f 82 8d 57 3f
       0.849615 0.9091232 0.9300819 0.842003
000050 65 64 66 3f 58 57 50 3f 5e 4c 7d 3f 33 52 79 3f
       0.8999694 0.81383276 0.9894465 0.9739105
000060 ab 73 5e 3f fd 34 64 3f d4 65 6b 3f 12 f0 5d 3f
       0.86895245 0.89143354 0.9195225 0.86694443
000070 df 6c 77 3f 9a 05 5c 3f 31 55 67 3f 20 e3 7d 3f
       0.966505 0.8594605 0.90364367 0.9917469
000080 8f 5a 55 3f 98 44 6b 3f 02 84 69 3f 50 b1 68 3f
       0.83341306 0.9190154 0.9121705 0.9089556
000090 21 38 62 3f 14 5d 5d 3f 76 f7 62 3f cc 64 5c 3f
       0.88366896 0.8647015 0.88658845 0.86091304
0000a0 13 25 63 3f b7 c8 6d 3f 79 89 82 3f 29 f7 69 3f
       0.88728446 0.9288439 1.0198203 0.9139276
0000b0 d5 7d 75 3f 56 d4 70 3f 1c 3a 67 3f 28 72 51 3f
       0.9589513 0.94074 0.9032304 0.81814814
0000c0 6d a2 69 3f bb 8c 64 3f 6d c4 70 3f 4e 96 55 3f
       0.9126347 0.8927724 0.9404972 0.8343247
0000d0 f0 bb 71 3f 1a d4 68 3f 1e 3b 5d 3f 09 bb 6d 3f
       0.94427395 0.9094864 0.8641833 0.9286352
0000e0 a6 86 5a 3f 9f aa 5f 3f 6e a1 56 3f 14 e8 54 3f
       0.8536171 0.8736972 0.8384007 0.83166623
0000f0 88 e3 81 3f c0 0f 59 3f e6 4e 59 3f af 8e 4d 3f
       1.0147562 0.8478966 0.84886014 0.8029584

features.11.bias f4 [64]
000000 68 ce bb be 36 e2 ab be 28 c4 9e bc b0 47 e9 3c
       -0.36680913 -0.33571023 -0.019380644 0.028476566
000010 51 af a8 be 44 7b 6c bb b0 82 49 bc 72 e5 4d be
       -0.32946256 -0.0036084214 -0.012299225 -0.20107058
000020 8e 09 db be 5a 1e 25 be c7 98 d0 be 73 57 5b be
       -0.42780727 -0.1612486 -0.4074156 -0.21420078
000030 22 7f 18 bd 16 a0 ce be 1f 77 a3 be 90 a3 09 be
       -0.03723062 -0.4035651 -0.3192682 -0.134413
000040 0d e6 e6 bc 09 bd 95 3a 9e 09 9d be f0 12 d3 be
       -0.028185869 0.0011424135 -0.306714 -0.41225386
000050 17 7e 16 3d 66 d1 d0 be 34 a2 3c be 89 22 04 be
       0.036741342 -0.40784758 -0.1842125 -0.12903799
000060 65 2d f9 bc 58 98 33 bd 47 67 f7 3c 35 e1 eb 3b
       -0.030417154 -0.04384646 0.030200614 0.0071984776
000070 29 73 b4 3c 22 cc cc be cd 7b 07 3d e9 62 89 be
       0.022027569 -0.3999949 0.03307705 -0.26833275
000080 e4 25 67 be 93 b4 ba be a4 86 af be 1a 02 f8 3a
       -0.22573048 -0.36465892 -0.3428241 0.0018921525
000090 a5 e7 b2 be fc 9e c7 be bf a0 82 bc 45 b7 c1 be
       -0.34942356 -0.38988483 -0.01594579 -0.37835136
0000a0 c3 f2 0c bc 98 ef aa 3a bd ce ea bd 10 c8 32 bc
       -0.008602801 0.0013041375 -0.114652134 -0.010911956
0000b0 a6 44 16 3d 7c 1a a5 be 06 53 b6 bc 02 49 07 be
       0.036686562 -0.32246768 -0.022256386 -0.13211444
0000c0 ff 5a c6 be cb 85 13 be b5 09 3b 3b 84 a7 94 be
       -0.387413 -0.14406507 0.0028539721 -0.29034054
0000d0 ae 3a 1b 3d f3 d3 ff bd 64 2d c1 be 3d b8 00 3d
       0.03789776 -0.12491598 -0.37729943 0.031425703
0000e0 bf c4 b6 be 95 ee d2 be 75 3d c9 be d8 73 c0 be
       -0.3569698 -0.4119765 -0.393047 -0.37588382
0000f0 aa f9 1b be d2 86 cb be 5f 54 c5 be a9 2d c6 be
       -0.15231958 -0.39751297 -0.38540933 -0.3870671

features.11.running_mean f4 [64]
000000 0c a3 ee be df af 15 3e da 4e 0a 3f e2 95 eb 3e
       -0.4660877 0.14617871 0.5402657 0.4601279
000010 5b de 08 be 77 6d 6c 3f 61 fa bd 3e 2c f5 67 3d
       -0.13366072 0.9235453 0.37105086 0.0566303
000020 49 10 0b bf a4 91 b2 3d ba d4 01 bf 9f 7b 1d 3e
       -0.54321724 0.08719185 -0.5071522 0.15379189
000030 3d 59 33 3f ea b2 3a bf 2a a9 4a be 94 18 e3 be
       0.7005804 -0.7292925 -0.19791093 -0.4435469
000040 57 5c 93 3e 14 53 ea 3c 1d a7 5b bd ad d3 02 be
       0.28781387 0.028604068 -0.05362617 -0.1277606
000050 88 40 28 3f 07 01 35 bf 12 d1 18 bf a0 d4 66 bc
       0.65723467 -0.7070469 -0.59694016 -0.01408878
000060 bf 1a aa 3e 12 e3 e0 3e 7f 1a b2 3e fe e7 bd 3e
       0.3322353 0.4392324 0.3478584 0.37091058
000070 c5 ff 00 3f e1 d1 c8 be 4f 5e d2 3e 5c cb 11 3e
       0.50390273 -0.39222625 0.41087577 0.14237732
000080 54 a5 04 3e e2 d7 d3 bd a2 a7 07 3e 8e 29 d8 3e
       0.12953693 -0.10343911 0.1324754 0.42219204
000090 85 db 15 bd 2b 1d 9f bd 8a e3 ea 3e 9a 08 3f bf
       -0.036586303 -0.07769235 0.45876724 -0.746225
0000a0 a4 07 f0 3d 85 a4 9f 3e e6 58 d3 3d 0e 8d 23 3f
       0.11720207 0.31180206 0.103196904 0.6388711
0000b0 f3 b8 63 3e 2b d8 cc be 5d 6e 65 3f ff ef 9f bd
       0.22238521 -0.40008673 0.89621526 -0.078094475
0000c0 d3 b3 a5 be a8 43 6e 3e d5 bb e6 3e 71 5e 66 bf
       -0.32363757 0.23267996 0.4506518 -0.89987856
0000d0 5f 1f ee 3d 6d 7c e8 3c 57 87 17 bf 12 4f 04 3f
       0.11627077 0.028379643 -0.5919089 0.5168315
0000e0 23 39 8f be 93 2d d6 be d1 ce 39 bf 08 3b 1c bf
       -0.2797328 -0.41831645 -0.725812 -0.61027575
0000f0 95 4c 2b be 3c ba 3f be 4d 0e e8 be 92 54 6c be
       -0.16728432 -0.18723387 -0.4532341 -0.23079136

features.11.running_var f4 [64]
000000 b9 56 80 3e 65 cc 59 3e 07 31 94 3e 38 26 53 3e
       0.25066164 0.21269377 0.28943655 0.20620048
000010 bd b1 5e 3e 46 ab 5c 3e 17 18 83 3e c9 2f 49 3e
       0.2174749 0.2154971 0.25604317 0.19647135
000020 67 de 78 3e 35 ce 48 3e c7 ff 83 3e b6 2e 3e 3e
       0.2430359 0.19609912 0.2578108 0.18572506
000030 7e c6 81 3e 39 2a 61 3e e4 28 58 3e b5 34 42 3e
       0.2534675 0.21988763 0.21109349 0.18965419
000040 16 b0 32 3e 9e de 8e 3e 32 42 7a 3e bc 34 5b 3e
       0.17449984 0.27904218 0.24439314 0.21406835
000050 f1 ba 5d 3e 2f 64 43 3e ec 72 74 3e 38 bf 34 3e
       0.21653344 0.19081186 0.23871964 0.17651069
000060 e2 37 7b 3e c1 3d 6c 3e 7f 73 76 3e d7 eb 8f 3e
       0.24533036 0.23070432 0.24067496 0.2810962
000070 fe ef a8 3e 74 9f 88 3e 56 46 bd 3e 9f a3 6b 3e
       0.329956 0.26684153 0.36967725 0.23011635
000080 d1 b7 38 3e 24 85 56 3e 7a 56 64 3e 93 2f 52 3e
       0.1803887 0.20949227 0.22298613 0.2052596
000090 df 7d 34 3e fa 44 81 3e e1 7f 82 3e e6 99 8b 3e
       0.17626141 0.25247937 0.2548819 0.27265853
0000a0 4c 5a 80 3e 4c 42 4b 3e aa ea 30 3e 95 ba 43 3e
       0.2506889 0.19849509 0.17277017 0.19114144
0000b0 e5 e2 a9 3e 5a 81 76 3e 6f 21 95 3e cc 86 2a 3e
       0.3318092 0.24072781 0.2912707 0.16652983
0000c0 ca 5a 61 3e 21 14 1e 3e 88 80 a0 3e e1 74 42 3e
       0.2200729 0.15437366 0.31348062 0.18989898
0000d0 66 43 8a 3e 02 2e 27 3e b3 07 6f 3e 32 d0 67 3e
       0.27004546 0.16326144 0.23342781 0.22638014
0000e0 cd 00 50 3e 25 b9 7f 3e 52 3e 8a 3e 04 84 8a 3e
       0.20312805 0.24972971 0.27000672 0.27053845
0000f0 0b 59 26 3e 9d 4f 48 3e 54 2e 5d 3e 96 af 69 3e
       0.16244905 0.1956162 0.21599704 0.22820887

embedding_layer.0.weight f4 [16, 64]
000000 e8 c5 19 3e 4d 10 32 be 1c 10 84 bc 85 a8 0e be
       0.15016901 -0.17389031 -0.016120963 -0.13931473
000010 ec 02 4d bd 71 a8 2e be 63 8a 23 bc e3 b9 ce bc
       -0.050051615 -0.17056443 -0.009981724 -0.025235122
000020 c2 85 2c 3e 21 28 e6 bd fe d0 c5 3d 6c 37 17 be
       0.168479 -0.11238123 0.09659003 -0.14767236
000030 89 6b 46 be ad 0a ec 3d 5e 7a d3 3d a7 00 83 bd
       -0.19376959 0.11525474 0.10326074 -0.06396609
000040 d5 15 39 bc d3 f6 80 bd c7 b2 31 be a6 90 69 3d
       -0.011296709 -0.06297078 -0.17353354 0.057022713
000050 c4 e6 6c bd a9 33 76 3e df 5e 84 3e dc f7 13 bd
       -0.057837263 0.24043144 0.2585363 -0.03612505
000060 d6 65 09 3c 6a 84 2a ba b1 7f 6c 3b 4d 8f ec bd
       0.008386096 -0.00065047166 0.0036086852 -0.1155077
000070 d1 28 0d be 7f bc 63 be ae a3 7e bd 64 3e 62 3d
       -0.13785101 -0.22239874 -0.062167816 0.05523528
000080 10 b1 28 be 89 95 84 3c 0f 1c 15 be fd 14 30 bd
       -0.16473794 0.016184585 -0.14561485 -0.042988766
000090 95 11 c9 bd b0 7e 1e 3e 29 3b 31 be 36 9f f0 3d
       -0.09817807 0.15478015 -0.17307724 0.11749117
0000a0 9b 13 75 3b a2 6e 4d bc b2 04 be bd cb 4b 9e bd
       0.003739572 -0.012538584 -0.09278239 -0.077293
0000b0 50 7c 02 bc c0 b0 8b 3e 4a 2f 58 be 59 62 0f be
       -0.007964209 0.27283287 -0.2111179 -0.1400236
0000c0 1d 12 64 3e 38 5d bf bd 9a c1 1d bd fb 0d e3 3d
       0.22272535 -0.09343952 -0.03851471 0.11086651
0000d0 ec c1 90 3c 3f 5d 10 be 05 4a 14 3d 69 e2 5a bd
       0.017670594 -0.1409807 0.036203403 -0.053438578
0000e0 a4 d4 2c bd 5e 02 32 3d 89 52 c4 3d d0 2a 37 3e
       -0.042194977 0.04345929 0.09586055 0.17887425
0000f0 22 45 0b be 09 f9 d7 3d c6 ca d7 bc 37 47 bd 3d
       -0.13600591 0.105455466 -0.026341807 0.09242099
000100 8c e1 55 3e d6 54 33 3b 69 2e e3 3b cf ab 64 3d
       0.2088682 0.0027363799 0.0069330228 0.055827912
000110 3f f7 31 3d e8 ab d9 bd f0 af 51 3d b4 7f 3f be
       0.043448683 -0.10628492 0.051193178 -0.18701059
000120 3e f7 42 3e 38 16 10 bd 4e 42 8d 3d 1e e8 0f be
       0.19039628 -0.03517744 0.06897412 -0.1405339
000130 bb 17 94 bd 57 50 88 3e 38 75 1d 3e 1c eb c3 bd
       -0.07231089 0.26623794 0.15376747 -0.09566328
000140 98 cb d8 bc 24 9a cc 3d 44 59 f2 3d 8a 0b 51 3e
       -0.026464269 0.099903375 0.11833432 0.20414558
000150 f1 b5 eb bc 9e 17 34 3e 4e 5e 8f 3d 13 f1 d5 bd
       -0.02877328 0.17587134 0.07000409 -0.10446372
000160 d2 45 04 bd a1 80 f5 bc 7d bf 64 3d ad 9a b2 bc
       -0.03229315 -0.029968562 0.05584668 -0.02180227
000170 59 8f 9c 3c 21 48 30 3e 10 71 94 3d a4 78 04 3e
       0.019111322 0.17215015 0.072481275 0.12936646
000180 5c 56 43 be e7 4b 3c bc 1b ad 04 3e d4 cd b7 bc
       -0.19075912 -0.011492706 0.1295666 -0.022437014
000190 b8 ba 94 3d 4f 38 35 3e 18 94 b0 bd 47 48 43 3e
       0.07262176 0.17697261 -0.08621997 0.1907054
0001a0 5d af b1 3d 6a 00 3c bb 60 c5 21 be 46 06 78 bb
       0.08676026 -0.002868677 -0.15797949 -0.0037845536
0001b0 88 e0 95 3d a7 6b 44 3e 63 d6 9a bc dc 40 d5 bd
       0.073182166 0.19181691 -0.018901056 -0.104127616
0001c0 a5 34 89 3e 12 53 a0 bd f3 5f b3 3c 5e 97 b3 3d
       0.26797977 -0.078283444 0.021896338 0.087691054
0001d0 33 6c 8f 3d 3c e5 b5 bd e5 a1 5d 3e 12 25 50 bd
       0.07003059 -0.088816136 0.21643789 -0.050816603
0001e0 69 1f ec 3d fc 98 33 3e be 9f 3a 3e d3 d7 3b 3e
       0.115294285 0.17538828 0.18225 0.18344049
0001f0 42 29 1e be c5 28 ed 3d c8 f6 71 3e 66 29 55 3e
       -0.15445426 0.11580042 0.23629296 0.20816574
000200 e1 38 89 3e d9 2a ed 3c 4d 25 cd bd 3e 9f 59 bd
       0.26801208 0.028951095 -0.1001688 -0.05313038
000210 da a4 5b be 2b ff 10 be 49 6a 9d bd f6 24 0e be
       -0.21449605 -0.14159839 -0.07686288 -0.13881287
000220 85 98 12 3e e9 4b c1 bd 62 d1 40 3e da 0e da bd
       0.14315994 -0.09438307 0.18829873 -0.10647364
000230 66 a3 c8 bd 59 9c 85 3d 6e b6 fe ba 77 72 54 bd
       -0.09796791 0.065239616 -0.001943303 -0.051866975
000240 c7 04 cf bc ac 47 ef bb 50 95 c0 3d 89 e0 9f bd
       -0.025270833 -0.007302245 0.09403479 -0.078064986
000250 82 d3 ff bd 3c 4f 72 3e 99 22 78 3e 33 03 23 bd
       -0.12491514 0.23663038 0.24231948 -0.039797973
000260 e7 f1 86 3c 6e b9 6e bd 88 58 e9 bc 11 d3 58 bd
       0.01647277 -0.05828231 -0.028484598 -0.052935664
000270 16 06 e4 bd 26 51 07 3e b3 64 7f bd 27 f1 06 3e
       -0.11133973 0.1321455 -0.062351894 0.1317793
000280 f3 d8 2b be cc 23 83 3e 91 9f 00 3d eb f6 ba bd
       -0.16781978 0.25613248 0.031402174 -0.09129127
000290 3b e6 7a 3d b6 2f ff bd 55 30 15 bd d8 02 c3 3d
       0.06125472 -0.12460272 -0.036423046 0.09522027
0002a0 43 03 a0 3c 99 73 c1 bd 96 aa bb bd 46 76 42 be
       0.019532805 -0.09445877 -0.09163396 -0.1899043
0002b0 0f 49 1f 3d 37 57 2d be 87 97 4d be 6b b8 e7 bd
       0.038888033 -0.16927801 -0.20077334 -0.11314472
0002c0 a6 d0 8e 3d ac 44 c2 bd 52 c1 fd bc 4e f6 d1 3d
       0.0697339 -0.09485754 -0.030975971 0.10252057
0002d0 4e 11 14 3c 2d 7b c3 bd 7a 32 8c 3c c6 45 0f bd
       0.009037329 -0.09544978 0.017113913 -0.03497865
0002e0 08 a6 fa bc e4 d3 f0 b7 ae 4b 45 3e 8d 6b c0 3d
       -0.030596748 -2.8708899e-05 0.19267151 0.09395514
0002f0 05 4d 87 bd 41 92 39 bd 18 67 b7 3d ac 02 0d be
       -0.06606487 -0.045305494 0.089552104 -0.1377055
000300 50 a1 b8 3d 44 2a 98 be 00 13 22 bd 06 68 91 3c
       0.09015143 -0.29719746 -0.0395689 0.017749798
000310 97 f9 50 be c4 74 32 bd 54 04 b0 3d 13 26 fd bc
       -0.20407711 -0.043568388 0.085945755 -0.030901944
000320 6f a2 a3 bd 4e e1 8c 3b a3 4f 2b bd 48 bb 84 bd
       -0.07989966 0.0042993193 -0.041823994 -0.064810336
000330 ac 68 dc 3d f0 12 83 3d d3 77 a8 bd da a5 a0 bd
       0.10762152 0.064000964 -0.0822598 -0.07844134
000340 69 34 cd 3d 86 d6 aa 3d 1f 0f 31 be ad fe 6c be
       0.10019762 0.08341698 -0.17290924 -0.23144026
000350 ee cc 17 3d 50 f8 d1 bd 7d 1c 23 3d e3 b4 25 bd
       0.03706067 -0.1025244 0.03982209 -0.04045571
000360 9b 7e 10 3e 6e 9b b9 3d bf a4 17 3d 92 64 04 3e
       0.14110796 0.09062849 0.03702235 0.1292899
000370 0f 53 fc 3a b2 32 06 be 95 04 0c 3e 20 3c 7f be
       0.0019250828 -0.13105276 0.13673623 -0.2492528
000380 24 e9 20 bd 9b b2 3b be 56 cb 94 be 1f 8c 9d 3d
       -0.03928484 -0.18329851 -0.29061383 0.076927416
000390 07 52 4f be 96 59 1c be 55 cc d2 3d ff a8 59 bc
       -0.20246135 -0.1526855 0.102928795 -0.013284921
0003a0 ad 2b 0c 3e 45 65 99 3d 46 c3 25 bd 8b 8d fc bb
       0.13688536 0.07490019 -0.04046943 -0.007707303
0003b0 ab 8a b8 3d 35 65 d1 bd 83 49 72 bc 50 39 0f 3d
       0.09010824 -0.10224382 -0.014788034 0.034966767
0003c0 77 bc 02 be b4 70 c8 bd 3e 9b 9e 3d ff fc c5 bb
       -0.12767206 -0.097871214 0.07744454 -0.0060421224
0003d0 bd c1 03 3e 9d a4 49 3d 4a c9 fa 3c fd a0 89 3c
       0.12866874 0.049229253 0.03061356 0.016800398
0003e0 94 49 c5 bd 94 10 c1 bd 88 3e 1e bd 25 f5 05 bd
       -0.096331745 -0.0942699 -0.038633853 -0.03270449
0003f0 a0 ad 0f be a4 8b 8f be e0 fe 07 be 50 ef 2b be
       -0.14031076 -0.28036225 -0.13280821 -0.16790509

embedding_layer.0.bias f4 [16]
000000 eb d0 c0 3d b7 7b a1 bc 8a 86 ca 3d b2 89 a6 3e
       0.09414848 -0.019712312 0.098889425 0.32526928
000010 21 be 73 3d 93 2e 8e 3d f0 67 a7 3d 87 b1 3f 3e
       0.059507493 0.06942477 0.081741214 0.18720065
000020 96 d8 b6 3e 20 a3 c1 3e 82 d7 68 3e 66 21 b6 3e
       0.35712117 0.37819767 0.2273846 0.35572356
000030 08 3d 63 3e 79 4f 91 3d a9 b3 1b be d4 69 58 3d
       0.2219125 0.07095236 -0.15205254 0.0528353

classifier.weight f4 [2, 16]
000000 f3 f1 c2 be bb ce 77 be 89 8e 45 be 01 17 9f 3e
       -0.38075218 -0.24199955 -0.19292654 0.31072238
000010 e7 88 0f be 72 68 8d bc 85 3f 8d be 9c 89 08 3f
       -0.14017068 -0.017261717 -0.27587524 0.53334975
000020 6f ae 82 3e cf 8d 96 3e 79 2e 11 3e 20 0b 90 3b
       0.25523707 0.29405066 0.14177884 0.0043958575
000030 78 9c a6 3e d2 d5 ee be 86 79 90 3c bd 24 bd be
       0.3254125 -0.46647507 0.017636072 -0.36942092
000040 ca df 2a 3e 1b e1 5c 3e fe c0 7b 3e 2d 5a b5 be
       0.16686931 0.21570246 0.2458534 -0.3542036
000050 c1 91 a2 3e cc 41 bd 3e f6 28 b1 3e 82 b8 0f bf
       0.31751826 0.36964262 0.34601563 -0.5614091
000060 a6 80 2a 3c a7 c9 ca bd 51 5e a6 bd 91 d7 a6 be
       0.010406649 -0.099017434 -0.08123458 -0.3258634
000070 12 8e 81 3d 10 3f 4d 3e 60 77 ad be a7 63 cf 3e
       0.06325926 0.20043588 -0.33880138 0.40505716

classifier.bias f4 [2]
000000 d3 82 3b 3e f6 8a 19 bd
       0.18311624 -0.03748604
