o02_test/run_outputs/27Acnn_train_weights.pth (torch, 48171 bytes, 22 tensors)

features.0.weight f4 [16, 6, 5]
0	0x3f967147	1.175332
1	0x3f1ed83e	0.6204871
2	0xbda1281c	-0.078689784
3	0xbf5914a2	-0.8479711
4	0xbfdc1b6c	-1.7195868
5	0x3ebe58a4	0.37177002
6	0xbca92f51	-0.020652445
7	0x3e4a1df8	0.19737995
8	0x3d5cd3ae	0.05391281
9	0xbf22c97b	-0.63588685
10	0x3e3347f5	0.17507918
11	0xbdd74922	-0.10511996
12	0x3d62812d	0.055298973
13	0x3c89a573	0.016802525
14	0x3d8ab13e	0.067720875
15	0x3d2b9dff	0.041898724
16	0x3d061318	0.032733053
17	0xbb3d434a	-0.0028879219
18	0xbc987bed	-0.01861378
19	0xbc9466b9	-0.018115388
20	0xbe47e612	-0.19521359
21	0x3d0622c0	0.032747984
22	0xbd3f3cf5	-0.046688993
23	0x3df62358	0.1201846
24	0x3d2027a5	0.039100308
25	0xbebd8fb0	-0.37023687
26	0xbc91f07b	-0.017814865
27	0xbcc36810	-0.023853332
28	0x3dc1e99e	0.09468387
29	0xbef9ab92	-0.4876371
30	0xc03bb242	-2.932755
31	0xc04267c8	-3.0375843
32	0xbfc92ed5	-1.5717417
33	0xbe38d992	-0.18051746
34	0x3f8f93cc	1.1216979
35	0x3f1d0195	0.6133054
36	0x3e3c5e6a	0.18395391
37	0x3e8fa981	0.2805901
38	0x3e2dd588	0.16975987
39	0x3efd8629	0.4951642
40	0x3f21037c	0.6289594
41	0x3f2de94b	0.679341
42	0x3f788c63	0.97089213
43	0x3fb1d70a	1.389375
44	0x3fbc98b2	1.4734099
45	0xbda2073a	-0.079115346
46	0x3dea82c6	0.11450724
47	0xbda8a8d8	-0.082353294
48	0x3ca4edb6	0.02013288
49	0x3c9e0f4e	0.019294407
50	0xbd8d2961	-0.06892658
51	0xbd9e11df	-0.077182524
52	0xbd105c13	-0.03524406
53	0x3e5874b2	0.21138266
54	0xbc8e5c9e	-0.017378148
55	0xbd298952	-0.041390724
56	0x3c38651f	0.011254578
57	0xbcc490ae	-0.02399477
58	0x3e09f16b	0.13471
59	0xbe317937	-0.17331396
60	0xc049ca35	-3.1529667
61	0xc04cab89	-3.1979697
62	0xc01335db	-2.300162
63	0xbfc307b2	-1.5236723
64	0xbf2d27e3	-0.6763899
65	0x3f027f12	0.50975144
66	0x3f15c504	0.58503747
67	0xbe5a0ee2	-0.2129474
68	0xbe446227	-0.19178067
69	0xbf16200c	-0.5864265
70	0xbe8ee65e	-0.2791013
71	0xbeac06a0	-0.33598804
72	0xbd3db24e	-0.046312623
73	0x3ebd2e7f	0.36949536
74	0x3f4d89bc	0.8028829
75	0x3c674e0a	0.014117727
76	0xbc6aaa4a	-0.014322827
77	0x3da29a7b	0.07939621
78	0xbd257f17	-0.040404405
79	0x3e11c545	0.14235409
80	0xbe3e1e2f	-0.18566202
81	0xbdf9dabe	-0.12199925
82	0x3e3e4408	0.1858064
83	0xbd4b0475	-0.049564797
84	0xbc843d1b	-0.016142419
85	0xbdc42539	-0.09577412
86	0x3de69eeb	0.1126078
87	0xbdab51b8	-0.08365196
88	0xbdb1502f	-0.08657872
89	0x3b89184f	0.004183806
90	0x4035d4f6	2.841123
91	0x3ff1a1f7	1.8877553
92	0x3f29f08c	0.6638267
93	0xbf04269c	-0.51621413
94	0xbf980fd8	-1.1879835
95	0xbf85829f	-1.0430487
96	0xbee2e63a	-0.44316274
97	0xbe513ae5	-0.20432623
98	0x3ea5ca50	0.32380915
99	0x3f0bee34	0.54660344
100	0xbd9b09c3	-0.07570221
101	0xbe603b32	-0.21897581
102	0xbec5d2e4	-0.3863746
103	0xbef35fa3	-0.47533903
104	0xbf4129ba	-0.75454295
105	0xbd469955	-0.048486073
106	0xbd82d2c0	-0.063878536
107	0x3d389926	0.04506793
108	0xbd12750c	-0.035756156
109	0xbdc31c84	-0.09526923
110	0xbc215da6	-0.009848988
111	0xbe0566d3	-0.13027506
112	0xbd37f5d3	-0.04491217
113	0xbe277ad0	-0.16355443
114	0xbd97a2b1	-0.07404078
115	0xbe3ecabd	-0.18632026
116	0xbd9996ab	-0.07499441
117	0xbe98b6b6	-0.29826897
118	0xbe6005bf	-0.21877192
119	0xbd8b2151	-0.06793464
120	0x3ef6c61f	0.4819803
121	0x3f834213	1.0254539
122	0x3fcb7c38	1.5897284
123	0x3fe5f2b4	1.7964692
124	0x3fe381b0	1.7773952
125	0x3f788438	0.9707675
126	0x3f32d62b	0.69858044
127	0x3e646971	0.22305848
128	0x3acea140	0.0015764609
129	0xbf08e0d0	-0.53468037
130	0x3ef798fe	0.4835891
131	0x3ecf3a00	0.40473938
132	0x3da22c92	0.07918657
133	0x3e864097	0.26221153
134	0x3e2c0089	0.16797079
135	0x3de02db8	0.1094622
136	0x3d5f28d4	0.054482296
137	0x3bf11a90	0.007357903
138	0x3d6b9743	0.0575173
139	0xbccb329a	-0.024804402
140	0xbdf436d8	-0.11924523
141	0xbe6bb202	-0.23017123
142	0x3c99d4e8	0.01877828
143	0xbe129fd0	-0.14318776
144	0xbdd9de3c	-0.10638091
145	0x3dff6465	0.124703206
146	0x3e052cfb	0.1300544
147	0x3e087eb7	0.13329588
148	0x3e385227	0.18000089
149	0x3cc6ac28	0.024252012
150	0xbf8cb892	-1.0993826
151	0x3c22ee39	0.009944492
152	0x3ddb2309	0.10700042
153	0x3eb68ee0	0.3565588
154	0x3f8e4685	1.1115271
155	0x3e73b013	0.23797636
156	0xbd33237c	-0.043735012
157	0xbe9cf3cc	-0.30654752
158	0x3f2dd1e9	0.6789842
159	0x3f9ff5ed	1.2496926
160	0xbf316d45	-0.6930736
161	0xbf4a5385	-0.7903369
162	0xbecca4ad	-0.39969388
163	0xbf2b6a25	-0.6695884
164	0xbf781840	-0.96912
165	0x3d207f7f	0.03918409
166	0xbd78fd0b	-0.060788196
167	0x3bdad902	0.0066787014
168	0x3cd78de5	0.026312778
169	0xbc8e8133	-0.017395591
170	0xbe6d6964	-0.23184735
171	0x3e10a177	0.14124094
172	0x3e8079b0	0.2509284
173	0xbdce18ba	-0.1006331
174	0xbdba7ea9	-0.0910619
175	0xbd8e22c5	-0.069402255
176	0xbdeb5e86	-0.11492638
177	0x3e0ccdbb	0.13750355
178	0x3e148a13	0.14505796
179	0xbe15e552	-0.1463826
180	0x400e511d	2.2237008
181	0x3fbd0b71	1.4769117
182	0x3e7c5289	0.2464086
183	0xbf73c411	-0.9522105
184	0xbf9e5a28	-1.2371264
185	0xbeba93be	-0.36440843
186	0xbef28696	-0.47368306
187	0xbf10748e	-0.5642785
188	0xbf5a2532	-0.85213006
189	0xbecf06cd	-0.40434876
190	0x3f2865f7	0.65780586
191	0x3f08b527	0.53401417
192	0x3ef9d40a	0.48794585
193	0x3ea426ad	0.32060757
194	0xbe0e885a	-0.13919201
195	0x3cdeac6d	0.027181828
196	0xbc0e2657	-0.008676133
197	0x3bd6f550	0.0065600052
198	0x3d1154c9	0.035481248
199	0x3dbe8450	0.0930258
200	0xbd9ea2a8	-0.07745868
201	0xbd7d6b61	-0.061869983
202	0x3c34c076	0.011032214
203	0x3d299432	0.041401096
204	0x3d659ca2	0.05605758
205	0xbe8db1fc	-0.27674854
206	0xbc33f8cf	-0.010984614
207	0x39b3001a	0.00034141616
208	0xbde88519	-0.11353511
209	0xbeadfda6	-0.3398258
210	0x3fe24042	1.767586
211	0x3facf1dc	1.351131
212	0x3e9e16a7	0.30876657
213	0xbf485b01	-0.7826386
214	0xbfd6ee87	-1.6791543
215	0x3fed8d77	1.8558797
216	0x3fdbc6ca	1.7170041
217	0x3f99dff0	1.2021465
218	0x3f79a78c	0.9752128
219	0x3f2b013a	0.66798747
220	0xbf78f3e1	-0.9724713
221	0xbf6fbaa3	-0.9364416
222	0xbf6682fb	-0.9004361
223	0xbf01637d	-0.5054243
224	0xbf0c993e	-0.5492133
225	0x3e38b81c	0.18038982
226	0x3e01e245	0.12683971
227	0x3d0ba72e	0.03409498
228	0xbdbd4603	-0.09241869
229	0xbd8aedcc	-0.067836374
230	0xbeaa91fd	-0.33314505
231	0x3cbe79e9	0.02325149
232	0x3da897d7	0.08232086
233	0x3dfab9df	0.12242483
234	0x3da12ad6	0.078694984
235	0x3d8fa303	0.07013514
236	0x39838508	0.00025085383
237	0xbd47842f	-0.048710044
238	0x3d0e5164	0.03474559
239	0xbbab956f	-0.0052363197
240	0xbee1248e	-0.43973202
241	0x3d8f88bd	0.07008503
242	0x3f451d6a	0.7699801
243	0x3f8f5f22	1.1200907
244	0x3fccf759	1.6012985
245	0xc0059906	-2.0874648
246	0xc024329f	-2.5655897
247	0xbfc3b334	-1.5289063
248	0xbfd150f0	-1.6352825
249	0xbfbfec85	-1.4994055
250	0x3fbd8682	1.4806674
251	0x3fcd3ed9	1.6034805
252	0x3fca6a4d	1.581369
253	0x3fc5574e	1.5417268
254	0x3fca1ed2	1.5790656
255	0xbd9943c4	-0.074836284

features.0.bias f4 [16]
0	0x3e200206	0.15625772
1	0xbe1d2206	-0.1534501
2	0xbdf5973e	-0.11991738
3	0xbbdb757f	-0.0066973562
4	0xbde3f3c7	-0.11130481
5	0xbe82644e	-0.2546715
6	0x3e0f075d	0.13967653
7	0xba480b6e	-0.00076310977
8	0x3e37b522	0.1794019
9	0x3dcd0133	0.10009994
10	0x3e05a1ef	0.13050054
11	0x3dee312d	0.11630473
12	0x3d826a91	0.06367982
13	0xbcbde004	-0.023178108
14	0x3c96aab1	0.018391939
15	0xbd33b362	-0.043872245

features.1.weight f4 [16]
0	0x3f5f60bf	0.87257
1	0x3f57b4a6	0.8426002
2	0x3f403b77	0.75090736
3	0x3f6c7ab0	0.92374706
4	0x3f417cd1	0.7558108
5	0x3f5dc269	0.8662477
6	0x3f6aff56	0.9179586
7	0x3f44d719	0.7689071
8	0x3f4bf0a0	0.7966404
9	0x3f5edfd2	0.8706027
10	0x3f667be9	0.9003282
11	0x3f54bbaa	0.8309885
12	0x3f4f13ed	0.8088978
13	0x3f537364	0.8259795
14	0x3f3ed5ed	0.74545175
15	0x3f3c1e9a	0.73484194

features.1.bias f4 [16]
0	0xbe9db5b6	-0.30802697
1	0xbeb325f5	-0.34989896
2	0xbe136b5d	-0.14396425
3	0x3b36d0b8	0.0027895402
4	0xbe203060	-0.15643454
5	0xbeb1cb69	-0.34725502
6	0xbdab72fc	-0.08371541
7	0xbe40a2c8	-0.18812096
8	0xbdf94bd3	-0.121726654
9	0xbc043134	-0.008068372
10	0xbbd1cc8c	-0.0064025577
11	0xbed51531	-0.4161773
12	0xbe0cedff	-0.13762663
13	0xbbcd5de7	-0.0062672975
14	0xbc7a0418	-0.015259765
15	0xbccc1222	-0.02491099

features.1.running_mean f4 [16]
0	0x3e21b821	0.15792896
1	0xbe1d3bd2	-0.15354851
2	0xbe06b7cf	-0.13156055
3	0xbbf293c0	-0.007402867
4	0xbe0eb59c	-0.13936466
5	0xbe83155c	-0.25602233
6	0x3e0b8b6f	0.13627408
7	0xbb336aea	-0.0027376958
8	0x3e333cfe	0.17503735
9	0x3d879a72	0.06621255
10	0x3e05d81d	0.13070722
11	0x3de564b2	0.11200847
12	0x3d7f5694	0.062338427
13	0xbc5d9fed	-0.013526899
14	0x3d44ef06	0.048079513
15	0xbd2f29f5	-0.042764623

features.1.running_var f4 [16]
0	0x449c310e	1249.533
1	0x41ea88fe	29.31689
2	0x43534b2d	211.29366
3	0x44de2cd8	1777.4014
4	0x44676c56	925.69275
5	0x41d31683	26.385992
6	0x4493b1be	1181.5544
7	0x439ee00d	317.7504
8	0x42d60b0a	107.02156
9	0x448c4bcf	1122.369
10	0x44ffbc8f	2045.8925
11	0x4286a06b	67.31332
12	0x43acd9eb	345.70248
13	0x433916d8	185.08923
14	0x444201b5	776.0267
15	0x43f89b8a	497.21515

features.5.weight f4 [32, 16, 3]
0	0x3e2237d9	0.15841617
1	0x3e46d99d	0.1941895
2	0x3d15963f	0.03652024
3	0xbd8bd366	-0.068274304
4	0xbdfcc5f4	-0.12342444
5	0xbe0c8893	-0.13723974
6	0xbd808a6e	-0.06276403
7	0xbd8746ff	-0.06605338
8	0xbcd231f3	-0.025658583
9	0x3e0ce983	0.13760953
10	0xbc9265e0	-0.017870843
11	0xbd1bec7a	-0.03806732
12	0xbbf6d82b	-0.0075330934
13	0x3a759b4a	0.0009369148
14	0x3a61e6f6	0.0008617485
15	0xbe73bf43	-0.2380343
16	0xbe97f641	-0.29680064
17	0xbeaab530	-0.3334136
18	0x3cd66c1f	0.026174603
19	0xbd0ebb2a	-0.034846462
20	0x3dbbe30e	0.091741666
21	0xbe26a077	-0.1627215
22	0xbe14f8e4	-0.14548069
23	0xbe042750	-0.12905622
24	0xbdde9dfb	-0.10869976
25	0xbe0060ba	-0.12536898
26	0xbdba6118	-0.091005504
27	0x3db5fa8a	0.08885677
28	0x3d8408cc	0.0644699
29	0xbcabe282	-0.02098203
30	0x3e2c2d6f	0.16814207
31	0x3dce398d	0.10069571
32	0x3d2e3f24	0.042540684
33	0xbdf34da0	-0.1188004
34	0xbe10ff22	-0.14159825
35	0xbe304d2c	-0.17216939
36	0xbccca002	-0.024978641
37	0x3d337df1	0.04382128
38	0x3dd7b83d	0.105331875
39	0xbd5b8788	-0.05359605
40	0xbe1416de	-0.14461848
41	0xbd155469	-0.036457453
42	0xbd9161cc	-0.070987314
43	0x3e273a8c	0.16330928
44	0x3d1181ea	0.035524286
45	0xbd925f7e	-0.0714712
46	0xbc1cda28	-0.009573497
47	0x3c8d770a	0.017268676
48	0xbdbf8c08	-0.09352881
49	0xbe4b819e	-0.19873664
50	0xbe273d14	-0.16331893
51	0xbd34f5a5	-0.044179577
52	0x3e2c5e26	0.1683279
53	0x3d52110c	0.05128579
54	0x3cf93511	0.030420812
55	0x3daf9eaa	0.08575185
56	0x3d1cb66a	0.0382599
57	0x3e0db4b7	0.13838468
58	0x3d5f1f2a	0.05447308
59	0xbdb6c029	-0.089233704
60	0xbd247ac5	-0.040156145
61	0xbd61c513	-0.055119585
62	0xbd40c907	-0.047066715
63	0x3d1e6981	0.038674835
64	0xbdac7397	-0.084204845
65	0x3e404c25	0.18779047
66	0xbe4b957f	-0.19881247
67	0xbe9a1733	-0.30095825
68	0xbe6daf87	-0.2321149
69	0xbe3fa343	-0.18714623
70	0xbe0ac869	-0.13553013
71	0xbcec3a1e	-0.028836306
72	0xbdbe1263	-0.09280851
73	0xbe1d5f7a	-0.15368453
74	0xbdc518f6	-0.096239015
75	0xbd1db4bb	-0.038502436
76	0x3af5b9e4	0.0018747416
77	0xbd1635b8	-0.036672324
78	0xbd08d971	-0.033410493
79	0xbe879058	-0.26477313
80	0xbe4d87d4	-0.20071346
81	0xbd54c73e	-0.051947825
82	0xbdcf1aa4	-0.10112503
83	0xbe80dc3b	-0.25168023
84	0xbe014118	-0.12622488
85	0xbd63ac58	-0.05558428
86	0x3e3ef514	0.18648177
87	0x3dc8f286	0.09811883
88	0xbd983806	-0.074325606
89	0x3d91d60a	0.07120903
90	0xbdaad73c	-0.08341834
91	0xbd2cc492	-0.04217965
92	0x3dda2038	0.106506765
93	0xbd9dc7b8	-0.07704109
94	0x3cbe4fea	0.023231465
95	0x3d372ab2	0.04471845
96	0x3ce55db9	0.027998792
97	0x3de32d69	0.11092646
98	0xbd7ea497	-0.062168684
99	0x3cb9e108	0.022690311
100	0x3d9b4ff5	0.0758361
101	0xbdc25b50	-0.09490073
102	0x3cdbc1dc	0.026825838
103	0xbd00c796	-0.03144034
104	0xbd905f90	-0.07049477
105	0xbe30fcc9	-0.1728393
106	0xbe913af0	-0.28365278
107	0xbe48e569	-0.19618763
108	0xbe311e01	-0.17296602
109	0xbe8d195e	-0.27558416
110	0xbe3e2464	-0.1856857
111	0xbd7ebeba	-0.06219361
112	0x3dc6d21a	0.097080424
113	0x3dfa3a06	0.12218098
114	0x3e20d7d5	0.15707333
115	0x3d71bc75	0.059017617
116	0x3d17ab8c	0.037028834
117	0x3e04d0f1	0.1297033
118	0xbd7953d5	-0.060870964
119	0xbda27d01	-0.07933999
120	0xbc6e0b64	-0.014529083
121	0xbd1060bc	-0.035248503
122	0x3dacb80f	0.08433544
123	0xbd41c01f	-0.04730236
124	0xbe379e5d	-0.17931505
125	0x3cf5c2a9	0.030000048
126	0xbd29ebd1	-0.041484658
127	0x3c457d31	0.012053774
128	0xbddb1d4d	-0.10698948
129	0xbc325c9b	-0.010886337
130	0x3ce71de3	0.028212493
131	0x3e1e3513	0.15449934
132	0xbd937c51	-0.07201446
133	0xbe3280f8	-0.1743201
134	0xbe08d279	-0.13361539
135	0x3a02809d	0.00049782713
136	0x3d2c5081	0.042068962
137	0xbdad8a10	-0.08473599
138	0xbd768c50	-0.060192406
139	0xbdc7ecbe	-0.09761952
140	0xbe3d356e	-0.18477413
141	0xbc3b316a	-0.011425355
142	0xbe5031e2	-0.20331529
143	0xbe0c3f68	-0.13696063
144	0xbd2f879a	-0.04285393
145	0xbe3a3b68	-0.18186724
146	0xbced2494	-0.028948106
147	0x3e88eb08	0.26741815
148	0xbe33f232	-0.17572859
149	0xbde39249	-0.11111886
150	0x3d50bffb	0.050964337
151	0xbd571800	-0.052513123
152	0xbd762aab	-0.060099285
153	0xbde0663c	-0.10957
154	0x3e24004d	0.1601574
155	0x3d57432a	0.052554287
156	0x3e09add1	0.13445212
157	0xbc9bb56d	-0.019007409
158	0xbc62d458	-0.013844572
159	0x3d9862b9	0.07440705
160	0xbdd5b04e	-0.10434018
161	0xbe78cf1f	-0.2429776
162	0xbd8e6519	-0.069528766
163	0xbe0912cd	-0.13386078
164	0xbe559bd4	-0.20860225
165	0x3d36ffa9	0.04467741
166	0xbda6af69	-0.081389256
167	0xbdb8671c	-0.090040416
168	0xbe078a91	-0.13236453
169	0xbd90cfac	-0.0707086
170	0xbd485d3f	-0.04891705
171	0x3cfc9680	0.030833483
172	0x3d825eed	0.06365762
173	0xbd12955e	-0.03578698
174	0xbd869504	-0.06571391
175	0xbdfd8be4	-0.12380198
176	0x3b36b3f9	0.0027878268
177	0x3e366670	0.17812514
178	0x3ce3f6af	0.027827589
179	0x3e2fa4bd	0.17152686
180	0x3da2cd28	0.07949287
181	0xbd2331d4	-0.03984244
182	0xbdc8c76c	-0.09803662
183	0xbd8b50da	-0.068025306
184	0x3ce94c96	0.028478902
185	0xba67a14c	-0.0008835986
186	0xbd2015db	-0.039083343
187	0x3d5b898b	0.053597968
188	0xbd4b842c	-0.049686596
189	0xbe057ab1	-0.13035084
190	0xbd8a8126	-0.06762914
191	0xbcef33dd	-0.029199535
192	0xbde16fec	-0.110076755
193	0xbdf2f648	-0.11863381
194	0xbdb8eb4d	-0.09029255
195	0x3e2fafbb	0.1715688
196	0x3b91b047	0.0044460627
197	0x3d55e5c2	0.052221067
198	0xbd4dfa15	-0.050287325
199	0x3db5c065	0.08874587
200	0xbabc8799	-0.0014383673
201	0x3d0d17fb	0.034446698
202	0xbe814b02	-0.2525254
203	0xbc8dbb86	-0.017301332
204	0x3d02f371	0.031970445
205	0x3c36659f	0.011132627
206	0xbd0fb964	-0.03508891
207	0xbe1fe85c	-0.15615982
208	0x3d994141	0.07483149
209	0xbe36801c	-0.17822307
210	0x3d0ddf35	0.034636695
211	0x3cad9b3b	0.021192184
212	0xbe04e19e	-0.12976691
213	0x3dc827e3	0.09773233
214	0x3da61cc3	0.081109546
215	0x3c83b4b0	0.01607737
216	0xbe7de517	-0.24794422
217	0xbe24e11b	-0.16101496
218	0x3c7ef9e8	0.015562512
219	0xbc923948	-0.01784958
220	0xbdd0d751	-0.10197318
221	0xbdec25cc	-0.11530647
222	0xbcb56992	-0.022145066
223	0xbd4419ae	-0.047876053
224	0xbcc34305	-0.023835668
225	0xbd30dd60	-0.04317987
226	0xbcfa7450	-0.03057304
227	0x3e230a37	0.15921865
228	0x3c81b6a2	0.015834156
229	0x3e138e43	0.14409737
230	0x3dc2530b	0.094884954
231	0xbe98144f	-0.29702994
232	0xbeb48b3a	-0.3526247
233	0xbe7665be	-0.24062249
234	0x3dfc10d4	0.12307897
235	0xbd313f66	-0.043273352
236	0xbe239f57	-0.15978752
237	0x3dadbda8	0.0848344
238	0x3cc8f183	0.024529224
239	0xbd83f70a	-0.06443603
240	0xbd302dd4	-0.043012455
241	0xbdba15cd	-0.090861894
242	0xbcab911d	-0.020943219
243	0x3e71fa97	0.23630749
244	0x3d753fdb	0.05987535
245	0x3d5f2030	0.054474056
246	0x3da1b665	0.07896117
247	0x3db16f30	0.086637855
248	0x3c12299c	0.008921053
249	0xbeb5210b	-0.35376772
250	0xbe748b82	-0.23881343
251	0xbeba6fea	-0.3641351
252	0xbd4e2bec	-0.050334856
253	0x3d638edd	0.055556167
254	0x3d9dd9f5	0.07707588
255	0x3d9ef41a	0.077614024

features.5.bias f4 [32]
0	0xbd5790ae	-0.05262821
1	0xbde5e7da	-0.11225863
2	0xbda5cf0b	-0.08096131
3	0xbdd99074	-0.10623255
4	0xbd2c7af4	-0.042109445
5	0xbcfe3776	-0.031032305
6	0x3c1fdede	0.0097577255
7	0xbd0904ae	-0.03345173
8	0xbe04a3ca	-0.12953106
9	0xbe558a47	-0.2085353
10	0xbe1e09a3	-0.15433364
11	0xbdd2dc19	-0.102958865
12	0xbded196a	-0.11577113
13	0x3df75a84	0.12077811
14	0xbbdf1ad0	-0.006808616
15	0x3db79fe7	0.08966046
16	0xbcd2d3b6	-0.025735717
17	0xbe0ded3b	-0.13860027
18	0xbdb0c236	-0.08630793
19	0x3e3a3b72	0.18186739
20	0x3d90ffb6	0.07080023
21	0xbde31234	-0.11087456
22	0xbe3c73c5	-0.18403538
23	0x3e34d503	0.17659383
24	0x3dba3811	0.09092725
25	0x3e13dadd	0.14438958
26	0xbde83755	-0.11338679
27	0xbe4fe6e0	-0.20302916
28	0xbe4160ea	-0.18884626
29	0x3c145f89	0.0090559805
30	0x3d4606d8	0.04834637
31	0xbe223ae1	-0.15842773

features.6.weight f4 [32]
0	0x3f4e91ca	0.80691206
1	0x3f64455d	0.8916834
2	0x3f7108ec	0.9415424
3	0x3f30d6d1	0.69077784
4	0x3f42f6b9	0.7615772
5	0x3f5acb37	0.8546633
6	0x3f55cc9f	0.8351535
7	0x3f4c8f08	0.7990575
8	0x3f3e46b8	0.7432666
9	0x3f627428	0.8845849
10	0x3f75cc87	0.9601521
11	0x3f491188	0.78542376
12	0x3f5f44a4	0.8721411
13	0x3f5f6d26	0.8727592
14	0x3f6875c0	0.9080467
15	0x3f65c5da	0.8975502
16	0x3f38d0dd	0.721937
17	0x3f5f86c2	0.87315
18	0x3f580550	0.84383106
19	0x3f58e829	0.8472925
20	0x3f51d17d	0.8196028
21	0x3f639211	0.88894755
22	0x3f65839b	0.8965394
23	0x3f6556c3	0.8958551
24	0x3f68d736	0.90953386
25	0x3f3dbd32	0.74116814
26	0x3f573315	0.8406232
27	0x3f458578	0.7715678
28	0x3f4a2e8b	0.7897727
29	0x3f4cdd41	0.80025107
30	0x3f53bce2	0.8271009
31	0x3f5cfb17	0.8632063

features.6.bias f4 [32]
0	0xbe1a6eed	-0.15081377
1	0xbe3b97e2	-0.18319657
2	0xbe4956e8	-0.19662058
3	0xbe09996d	-0.13437434
4	0xbe025638	-0.12728202
5	0xbe1ef7ea	-0.15524259
6	0xbd995c1a	-0.0748827
7	0xbe8112d4	-0.25209677
8	0xbd117797	-0.03551444
9	0xbe4520f4	-0.19250852
10	0xbdf9d7fb	-0.12199398
11	0xbe046a62	-0.12931207
12	0x3c4b017d	0.012390492
13	0xbddf6750	-0.10908377
14	0xbe1a747a	-0.15083495
15	0xbe2d485d	-0.16922136
16	0xbe9c8028	-0.30566525
17	0xbb55865d	-0.0032581307
18	0xbe90e810	-0.2830205
19	0xbe157283	-0.14594464
20	0xbdba677f	-0.091017716
21	0xbe5333f0	-0.20625281
22	0xbe6fce9b	-0.23418657
23	0xbe4c42bb	-0.1994733
24	0xbd8a08b4	-0.06739941
25	0xbe99154b	-0.29899058
26	0xbda27d12	-0.079340115
27	0xbe87a66a	-0.2649415
28	0xbe046d65	-0.12932356
29	0xbeb644a1	-0.35599235
30	0x3d127a1e	0.03576099
31	0xbe8d4930	-0.275949

features.6.running_mean f4 [32]
0	0xbe8ab684	-0.27092373
1	0xbf02f622	-0.5115682
2	0xbf012198	-0.50441885
3	0xbeac5f4e	-0.33666462
4	0xbed6308a	-0.41833907
5	0xbf03d639	-0.5149875
6	0xbe86e713	-0.2634817
7	0xbe9eb781	-0.30999377
8	0xbe8940b5	-0.2680718
9	0xbf3f0847	-0.74622005
10	0xbf3ac868	-0.72962046
11	0xbe3851c6	-0.17999944
12	0xbed79916	-0.42108983
13	0xbe30a7b5	-0.17251475
14	0xbe48a369	-0.19593586
15	0xbe38ef4c	-0.18060035
16	0x3e477aab	0.19480388
17	0xbee372f4	-0.4442364
18	0xbf2600df	-0.6484508
19	0xbd98af39	-0.07455296
20	0xbe9ce072	-0.30639988
21	0xbf04c12a	-0.51857245
22	0xbf05c7f4	-0.5225823
23	0xbe0c7bc2	-0.13719085
24	0xbef5d2c6	-0.4801237
25	0xbd42096a	-0.04737226
26	0xbf1737b1	-0.59069353
27	0xbf1b66a5	-0.607035
28	0xbe2fd655	-0.17171605
29	0xbe864e17	-0.26231453
30	0xbe4f1491	-0.20222689
31	0xbf1f8f60	-0.6232815

features.6.running_var f4 [32]
0	0x3f11962d	0.56869775
1	0x3fa5ec26	1.2962692
2	0x3f30f865	0.6912902
3	0x3f05f634	0.523288
4	0x3f50df50	0.8159075
5	0x3f95dc48	1.170785
6	0x3f40572c	0.75133014
7	0x3f378e4b	0.71701497
8	0x3ec6cfce	0.38830417
9	0x3f9aa39d	1.2081181
10	0x3fd4513a	1.6587288
11	0x3e9a9f3d	0.30199614
12	0x3f93f46d	1.1558968
13	0x3f6e4bba	0.930843
14	0x3f1789c2	0.59194577
15	0x3f450884	0.7696612
16	0x3e97e1f3	0.29664573
17	0x3f1cd9f2	0.6127006
18	0x3f97c432	1.1856749
19	0x3f502dbe	0.813198
20	0x3fa91e40	1.3212357
21	0x3f9a8ff0	1.2075176
22	0x3f68cb26	0.9093498
23	0x3f6b4ba5	0.919123
24	0x400e25f7	2.2210672
25	0x3f1c47a0	0.6104679
26	0x3f99bbff	1.2010497
27	0x3f4c0074	0.7968819
28	0x3e5490ad	0.20758314
29	0x3f1e4390	0.6182184
30	0x3f2e2e56	0.68039453
31	0x3f49f4a9	0.78888947

features.10.weight f4 [64, 32, 3]
0	0x3b2da0b5	0.0026493494
1	0x3cd92e0d	0.026511217
2	0xbb21ac77	-0.0024669447
3	0x3d5292f6	0.051409684
4	0x3d5b2b59	0.053508136
5	0x3d19fa93	0.03759248
6	0xbda84455	-0.08216158
7	0xbd461bb1	-0.048366252
8	0xbdff5ca5	-0.124688424
9	0xbcba673a	-0.0227543
10	0x3b9e1a55	0.0048249164
11	0x3ca7fe95	0.020507136
12	0x3db54205	0.08850483
13	0x3de38697	0.11109655
14	0x3df63579	0.12021918
15	0x3e46bf31	0.19408871
16	0x3e00ab2d	0.12565298
17	0x3de95f96	0.11395185
18	0x3e0842cf	0.13306735
19	0x3e03478d	0.12820263
20	0x3df7c8e1	0.120988615
21	0x3d51d34b	0.051226895
22	0x3cbe3923	0.023220604
23	0x3d3a4f90	0.045486033
24	0xbd3a74dd	-0.045521606
25	0xbc9bd69e	-0.019023236
26	0xbd7ac9c6	-0.061227582
27	0xbd217a11	-0.039423052
28	0xbd3302e2	-0.04370392
29	0xbd281252	-0.041033097
30	0xbe024cd2	-0.12724617
31	0xbdda6f60	-0.10665774
32	0xbdce4b3c	-0.100729436
33	0xbdd7d5d1	-0.10538829
34	0xbd9d47ef	-0.07679736
35	0xbe1cb846	-0.1530467
36	0xbe033763	-0.12814097
37	0xbdcda79e	-0.10041736
38	0xbe1005ef	-0.14064763
39	0x3da37eb1	0.07983149
40	0x3de103e6	0.10987072
41	0x3ded7e4d	0.115963556
42	0x3d9692b9	0.07352204
43	0x3cebc608	0.028780952
44	0x3c93b1f1	0.018029185
45	0x3d276d95	0.04087599
46	0x3dd19517	0.10233515
47	0x3dcba356	0.09943263
48	0xbe0822ad	-0.13294478
49	0xbd86cb02	-0.065816894
50	0xbd8af813	-0.06785598
51	0xbdb55b5f	-0.08855318
52	0xbd8cb700	-0.06870842
53	0xbd98eee6	-0.07467441
54	0xbbe3c357	-0.0069507766
55	0xbc8bd238	-0.017068014
56	0xbd159729	-0.03652111
57	0xbcf21c17	-0.02955441
58	0x3c480987	0.012209303
59	0xbdafa4e6	-0.08576374
60	0xbe3215e2	-0.1739116
61	0xbe08ad85	-0.13347442
62	0xbe1a86bd	-0.15090461
63	0x3e1e634a	0.15467563
64	0x3dfeb8b1	0.12437571
65	0x3e13f946	0.14450559
66	0x3e614259	0.21997966
67	0x3deeae09	0.11654288
68	0x3dbcc071	0.09216393
69	0x3e101096	0.14068827
70	0x3d135da9	0.035977993
71	0x3dabac34	0.083824545
72	0xbdca3f9c	-0.09875414
73	0xbdf98b11	-0.12184728
74	0xbe0e5c58	-0.13902414
75	0x3e02b350	0.12763715
76	0x3e481c0e	0.19541952
77	0x3d875086	0.066071555
78	0xbdb21709	-0.086958
79	0xbdbe9181	-0.093050964
80	0xbdc05cf9	-0.09392733
81	0xbd81e4c5	-0.063424625
82	0xbda2a96b	-0.0794247
83	0xbdf2194f	-0.118212335
84	0xbd5806dd	-0.05274092
85	0xbcba0f3e	-0.022712346
86	0xbdca6492	-0.098824635
87	0xbdb75307	-0.08951383
88	0x3c82b902	0.01595736
89	0x3c45b704	0.01206756
90	0xbdd412ba	-0.10355134
91	0xbdaf9931	-0.08574141
92	0xbdf7ede2	-0.121059194
93	0x3cff571d	0.031169469
94	0xbd23c6d3	-0.039984535
95	0xbd630335	-0.05542298
96	0x3dfabde1	0.12243248
97	0x3e01bdbc	0.12670034
98	0xbc157be4	-0.009123776
99	0x3e1582c2	0.14600661
100	0x3e1cd861	0.15316917
101	0x3e1a49ee	0.15067264
102	0xbd66fb5d	-0.056392062
103	0xbd50a77f	-0.050940987
104	0xbd51a2a8	-0.05118051
105	0xbdd1f7de	-0.10252355
106	0xbcd48bd6	-0.025945585
107	0xbdbcff40	-0.092283726
108	0x3c52143b	0.012822206
109	0x3d715262	0.058916457
110	0x3d85c307	0.06531339
111	0x3e01bd4a	0.12669864
112	0x3e09bfea	0.13452116
113	0x3d7f7ff1	0.062377874
114	0x3d8b1f6f	0.06793105
115	0x3e05ef38	0.13079536
116	0x3d8b5db7	0.06804984
117	0x3e1874ed	0.14888354
118	0x3e308d2f	0.17241357
119	0x3e092bb1	0.13395573
120	0xbd58fa18	-0.052972883
121	0xbc45b1df	-0.012066334
122	0xbcde0e69	-0.02710648
123	0x3cbd5a77	0.023114426
124	0xbc2d0219	-0.010559582
125	0xbd29d369	-0.041461382
126	0xbd7b39ae	-0.061334305
127	0xbd8a8d95	-0.06765286
128	0xbd92c423	-0.07166316
129	0xbd89f2b1	-0.06735743
130	0xbd8f6330	-0.070013404
131	0xbe374755	-0.17898305
132	0xbe0bb8b0	-0.13644671
133	0xbde658a5	-0.11247376
134	0xbe051b24	-0.12998635
135	0x3d9f52d2	0.077794686
136	0x3dd5ccbb	0.1043944
137	0x3d842f85	0.06454376
138	0x3d4349dc	0.04767786
139	0x3c66ea55	0.014093955
140	0x3d145854	0.03621705
141	0x3df7539e	0.120764956
142	0x3de3b939	0.11119313
143	0x3df9143a	0.12162061
144	0xbd265cc0	-0.040615797
145	0xbd66d488	-0.05635503
146	0xbd9076a3	-0.07053878
147	0xbdab26fe	-0.083570465
148	0xbd29d2ac	-0.041460678
149	0xbd6e5249	-0.058183942
150	0xbca94b7d	-0.020665878
151	0x3c0cf10e	0.008602394
152	0xbd9aa298	-0.075505435
153	0xbd8a5226	-0.0675395
154	0x3d611407	0.05495074
155	0x3cd2a1c6	0.025711905
156	0xbde6405c	-0.11242744
157	0xbcfaa97c	-0.030598395
158	0xbdaff988	-0.08592516
159	0x3df15050	0.117828965
160	0x3dc0c093	0.094117306
161	0x3e2a87db	0.16653387
162	0x3e3ea1c6	0.18616399
163	0x3e2a9731	0.16659237
164	0x3e02497e	0.12723348
165	0x3deb9616	0.11503236
166	0x3e1e5b65	0.15464552
167	0x3d289d6d	0.041165758
168	0xbd3c4583	-0.04596473
169	0xbdd4163e	-0.10355805
170	0xbde4df49	-0.11175401
171	0x3dcfe79f	0.101516
172	0x3e4890a8	0.19586432
173	0x3e28808b	0.16455285
174	0xbd96d587	-0.07364946
175	0xbdb341ff	-0.08752822
176	0xbda05126	-0.07827978
177	0xbdc18c75	-0.09450618
178	0x3c6f1c94	0.014594216
179	0xbd09e9ba	-0.033670165
180	0xbd0af55c	-0.0339254
181	0xbd64485f	-0.05573308
182	0xbd38faff	-0.045161244
183	0xbc33afeb	-0.010967235
184	0x3e4d9846	0.20077619
185	0x3e133442	0.14375404
186	0xbdee6d06	-0.11641888
187	0xbd9150ee	-0.07095514
188	0xbdd3c3c5	-0.103400744
189	0x3cdd096d	0.026982034
190	0x3c822776	0.015887957
191	0x3d014494	0.03155954
192	0xbe4459bf	-0.1917486
193	0xbe622ab0	-0.22086596
194	0xbe34417e	-0.17603108
195	0xbd9c78f7	-0.0764026
196	0xbcdf14f3	-0.027231669
197	0x3c52e4b0	0.012871906
198	0x3e2570e2	0.16156343
199	0x3db62bf8	0.08895105
200	0x3e111000	0.1416626
201	0xba8b1676	-0.0010611552
202	0x3d074e20	0.03303349
203	0xbe0c946c	-0.13728493
204	0xbdf8d6e2	-0.12150361
205	0xbcf09e88	-0.029372469
206	0x3d17360f	0.03691679
207	0x3d0015ae	0.031270675
208	0x3b3f6f7c	0.0029210737
209	0x3d56af3c	0.05241321
210	0xbc336978	-0.010950439
211	0xbd5de995	-0.05417784
212	0xbcffa36b	-0.031205853
213	0xbd9b37e1	-0.075790174
214	0xbbd8e6ab	-0.0066192946
215	0x3d136bb3	0.03599138
216	0xbde117f5	-0.109908976
217	0xbd0ee483	-0.034885895
218	0xbe11c0fd	-0.14233775
219	0x3e00cb91	0.12577654
220	0x3dc5c9ca	0.09657629
221	0x3d990cbe	0.074731335
222	0x3e20ea3f	0.15714358
223	0x3d996ce2	0.07491471
224	0x3db925a5	0.09040383
225	0x3d8ba2cd	0.06818161
226	0x3ddce8c0	0.10786581
227	0x3cf68893	0.03009442
228	0xbe0fdb60	-0.14048529
229	0x3b3a63d1	0.0028440843
230	0x3d8f4d1e	0.06997131
231	0xbd299b01	-0.04140759
232	0xbbad9df5	-0.005298371
233	0xbd83d61e	-0.06437324
234	0xbe0ee7e3	-0.13955645
235	0xbe230e91	-0.15923525
236	0xbe03e844	-0.12881571
237	0xbdf63ce1	-0.120233305
238	0xbd9757b7	-0.07389777
239	0xbdae8f9f	-0.08523487
240	0x3d86674e	0.065626726
241	0xbc876c76	-0.01653121
242	0xbcf917b8	-0.030406818
243	0xbd9c6779	-0.07636923
244	0x3a845f1f	0.0010099149
245	0x3e458621	0.19289447
246	0x3e9750d5	0.29553857
247	0x3e2077c2	0.15670684
248	0x3e5e9e7a	0.21740142
249	0xbe6a9995	-0.2291015
250	0xbe22b810	-0.15890527
251	0xbe02e4c4	-0.1278258
252	0xbd7bf0aa	-0.061508812
253	0xbc75b6e3	-0.014997217
254	0xb9fa8b32	-0.00047787424
255	0xbce9fd68	-0.028563216

features.10.bias f4 [64]
0	0x3c1e6fe0	0.009670228
1	0xbdbadc02	-0.091239944
2	0x3e11c353	0.14234667
3	0xbdeb7457	-0.114967994
4	0xbcf9c6a8	-0.030490234
5	0x3c8c4424	0.017122336
6	0x3da02271	0.07819069
7	0xbd5e85df	-0.05432689
8	0x3d963316	0.073339626
9	0xbd713a64	-0.058893576
10	0x3d7854ac	0.060627624
11	0x3d1279bb	0.035760622
12	0x3c461f7f	0.01209247
13	0xbc145dbc	-0.009055551
14	0xbc3a4541	-0.0113690505
15	0x37fc2dd1	3.0062076e-05
16	0x3c8c49ee	0.017125096
17	0x3e25c7d3	0.16189508
18	0xbd6d86bb	-0.057989817
19	0x3e432869	0.19058384
20	0xbc202886	-0.009775287
21	0x3c3c386f	0.011488064
22	0xbd27da2f	-0.04097956
23	0x3db4454f	0.08802282
24	0x3d9c6a98	0.07637519
25	0x3e05a156	0.13049826
26	0xbdcd2656	-0.100170776
27	0x3c81896f	0.015812604
28	0x3d96c635	0.07362024
29	0xbe043a06	-0.12912759
30	0x3da34dbc	0.07973811
31	0x3d6c5202	0.057695396
32	0xbd6fc924	-0.058541432
33	0xbd1ccea3	-0.038283
34	0xbd2f054b	-0.042729657
35	0x3ddca230	0.10773122
36	0x3b8ad8e6	0.004237282
37	0xbd2614bc	-0.040547118
38	0x3ccbcdc1	0.024878385
39	0xbdc509bc	-0.09620997
40	0x3dcfc6fb	0.101453744
41	0x3ccfa2df	0.025346218
42	0xbd0d3f00	-0.03448391
43	0xbd16bfc7	-0.036803987
44	0x3d902a60	0.070393324
45	0x35253d90	6.1556875e-07
46	0xbdd6ca1c	-0.10487768
47	0xbd011c82	-0.031521328
48	0x3c35a2fe	0.011086224
49	0x3db102ab	0.08643087
50	0xbd32f395	-0.04368933
51	0x3bdbfdc7	0.006713602
52	0x3d24a965	0.04020061
53	0x3d34f844	0.044182077
54	0x3e02f7ba	0.12789813
55	0x3d10ec96	0.035381876
56	0xbc7af787	-0.015317804
57	0xbd9069d0	-0.07051432
58	0x37856e76	1.5906273e-05
59	0x3d55bcc5	0.052181978
60	0x3d6dacdd	0.058026183
61	0xbbfd7f58	-0.007736128
62	0xbd9330a9	-0.071870156
63	0x3d58cb44	0.052928224

features.11.weight f4 [64]
0	0x3f65e29f	0.8979892
1	0x3f4f9f64	0.81102586
2	0x3f70ab24	0.9401114
3	0x3f64303d	0.89136106
4	0x3f599968	0.84999704
5	0x3f67984d	0.9046677
6	0x3f69e76b	0.9136874
7	0x3f6b3c63	0.9188902
8	0x3f5b6bac	0.8571117
9	0x3f5d3ba6	0.8641914
10	0x3f50082f	0.8126249
11	0x3f712187	0.94191784
12	0x3f742f85	0.9538501
13	0x3f5e6616	0.8687452
14	0x3f5bad23	0.8581106
15	0x3f658a55	0.896642
16	0x3f59536a	0.84892905
17	0x3f61832c	0.8809078
18	0x3f824541	1.0177385
19	0x3f5185c3	0.8184473
20	0x3f605146	0.87624013
21	0x3f537be8	0.8261094
22	0x3f6422c8	0.8911557
23	0x3f7611d5	0.9612096
24	0x3f5b10f7	0.8557276
25	0x3f61bc32	0.8817779
26	0x3f6ed2e0	0.9329052
27	0x3f61649e	0.88044155
28	0x3f7548b4	0.9581406
29	0x3f5c9026	0.86157453
30	0x3f64aa6e	0.89322555
31	0x3f5c9ee0	0.86179924
32	0x3f576594	0.8413937
33	0x3f5e9271	0.869422
34	0x3f563c3b	0.83685654
35	0x3f65d174	0.89772725
36	0x3f73a644	0.95175576
37	0x3f54885f	0.83020586
38	0x3f648a0a	0.8927313
39	0x3f62b523	0.8855764
40	0x3f53c123	0.8271658
41	0x3f717a1e	0.9432696
42	0x3f742cfc	0.9538114
43	0x3f62e113	0.88624686
44	0x3f693b68	0.9110627
45	0x3f6b4adb	0.91911095
46	0x3f5fef68	0.8747468
47	0x3f5306a6	0.8243202
48	0x3f649f61	0.8930569
49	0x3f6139b0	0.8797865
50	0x3f777eba	0.96677744
51	0x3f4e72f3	0.8064415
52	0x3f64ec88	0.8942342
53	0x3f662e58	0.89914465
54	0x3f646552	0.892171
55	0x3f67543e	0.9036292
56	0x3f6c9576	0.9241556
57	0x3f6189dd	0.8810099
58	0x3f501ae4	0.8129103
59	0x3f52326a	0.82108176
60	0x3f656a69	0.89615494
61	0x3f505e55	0.8139394
62	0x3f6c0e66	0.9220947
63	0x3f4aeb67	0.79265445

features.11.bias f4 [64]
0	0xbebc0519	-0.3672264
1	0xbed5291d	-0.4163293
2	0x3cc82c64	0.02443523
3	0xbdae6608	-0.08515555
4	0xbed1e657	-0.40996048
5	0xbb2caf42	-0.002634958
6	0x3c9225bb	0.017840257
7	0xbe29ee8f	-0.16594909
8	0xbed27c26	-0.41110343
9	0xbe6084ff	-0.21925734
10	0xbedce339	-0.43142107
11	0xbe0b9eb1	-0.13634755
12	0xbbfe9c70	-0.0077701136
13	0xbea82f86	-0.32848758
14	0xbe55705f	-0.20843647
15	0xbc91f478	-0.017816767
16	0xbd9d28ad	-0.07673774
17	0xbd3b1680	-0.045675755
18	0xbe78c152	-0.24292496
19	0xbed12a9f	-0.4085283
20	0xbd28250d	-0.04105096
21	0xbec263e7	-0.37966844
22	0x3ca6c776	0.020358782
23	0xbe25a80a	-0.16177383
24	0xbd9a1c6c	-0.07524952
25	0xbdb1f72b	-0.08689722
26	0x3b8b2982	0.0042468915
27	0xbe10355f	-0.1408286
28	0x3da59086	0.08084206
29	0xbebfb903	-0.3744584
30	0x3ce4fe06	0.027953159
31	0xbec824d4	-0.39090598
32	0xbe20d3d8	-0.15705812
33	0xbead2923	-0.33820447
34	0xbebc9636	-0.36833352
35	0x3ccba601	0.02485943
36	0xbe9d9346	-0.30776423
37	0xbedadf47	-0.42748472
38	0x3d099e1e	0.033598058
39	0xbe86a629	-0.26298645
40	0xbd17e214	-0.03708084
41	0x3d465f4f	0.048430737
42	0xbe0d900f	-0.13824485
43	0xbbdec785	-0.006798687
44	0xbcc21e77	-0.023696167
45	0xbea21ef8	-0.31664252
46	0xbc80e633	-0.015734768
47	0xbe01f568	-0.12691271
48	0xbeb9cf8a	-0.36291152
49	0xbc55c802	-0.013048174
50	0x3d63b4c7	0.055592325
51	0xbecda4c0	-0.40164757
52	0x3bdef991	0.006804653
53	0xbe393545	-0.18086727
54	0xbebd8bd2	-0.37020737
55	0xbc8b7c98	-0.017027184
56	0xbe9fde20	-0.31224155
57	0xbeaeaae7	-0.34114763
58	0xbed0ee2b	-0.40806708
59	0xbed31f49	-0.41234806
60	0xbd0c5fb8	-0.034270972
61	0xbecb1351	-0.39663175
62	0xbeb04238	-0.3442552
63	0xbed53dca	-0.41648704

features.11.running_mean f4 [64]
0	0xbeb019c4	-0.34394658
1	0xbe76f4f1	-0.24116875
2	0x3e41f919	0.1894268
3	0xbe5ad447	-0.2137004
4	0xbeffa452	-0.49930054
5	0x3e31c46c	0.17360085
6	0x3ea6eea3	0.3260394
7	0xbe08a8da	-0.13345662
8	0xbe4c20f7	-0.1993445
9	0x3c7338cf	0.014845087
10	0xbe839337	-0.25698254
11	0xbeaee511	-0.3415914
12	0x3ee08b0e	0.4385609
13	0xbdfedc69	-0.12444384
14	0x3dc34c2b	0.09536012
15	0x3e4996a9	0.19686379
16	0xbd93d19f	-0.072177164
17	0x3ecce45a	0.40017968
18	0xbdd11c76	-0.102105066
19	0xbd7ac4a0	-0.061222672
20	0x3edef56e	0.43546623
21	0xbef14089	-0.4711955
22	0x3e41df7f	0.18932913
23	0x3dd9d55f	0.106364004
24	0x3eedb21e	0.46424955
25	0x3e58502a	0.2112433
26	0xbe367e17	-0.17821537
27	0x3dc10854	0.094254166
28	0x3e8d9969	0.27656105
29	0xbedddcb6	-0.43332452
30	0x3e6b5cc0	0.229846
31	0xbedb9542	-0.42887312
32	0xbeb2e3ce	-0.34939426
33	0xbc837c59	-0.016050505
34	0xbefc05af	-0.49223086
35	0x3ea9b732	0.3314758
36	0xbd943dcf	-0.072383516
37	0xbf00c7c9	-0.5030485
38	0x3eb75333	0.35805663
39	0xbf0b7879	-0.544807
40	0x3eec47f7	0.46148655
41	0x3e332d76	0.1749781
42	0xbea1b008	-0.31579614
43	0x3eb17f5c	0.3466748
44	0x3f0cb919	0.54969937
45	0xbbde5152	-0.0067845965
46	0x3ea0780c	0.31341588
47	0xbdff0fda	-0.12454195
48	0xbeaf478c	-0.34234273
49	0x3f211723	0.6292593
50	0xbe5fc5ce	-0.218528
51	0xbe4e5c9b	-0.20152514
52	0x3edce773	0.43145332
53	0xbb45179a	-0.0030073882
54	0x3bb30646	0.0054633943
55	0x3f3d3143	0.7390329
56	0x3e0ba535	0.1363724
57	0xbedbc3da	-0.4292286
58	0xbef09fb7	-0.46996853
59	0xbef37313	-0.47548732
60	0x3f098f25	0.53734046
61	0xbeb0aeaa	-0.34508258
62	0xbe87ec58	-0.26547503
63	0xbecba4e7	-0.39774248

features.11.running_var f4 [64]
0	0x3e0ef65a	0.13961163
1	0x3e082685	0.13295944
2	0x3e0df6e2	0.1386371
3	0x3dc668f0	0.09687984
4	0x3e101c98	0.14073408
5	0x3de1eae5	0.11031131
6	0x3e4fc8af	0.20291398
7	0x3e0c575d	0.13705201
8	0x3e10e95e	0.14151523
9	0x3e049dc5	0.1295081
10	0x3e0b9e63	0.13634638
11	0x3e32977e	0.17440602
12	0x3e0cfaf7	0.1376761
13	0x3e03cfb9	0.12872209
14	0x3df04cba	0.117333844
15	0x3dfb23d4	0.12262693
16	0x3dcc80a8	0.09985477
17	0x3de93da5	0.11388711
18	0x3e2a04ec	0.1660344
19	0x3e18074c	0.14846534
20	0x3e0b0190	0.13574815
21	0x3e1203b8	0.14259231
22	0x3e339a5e	0.17539355
23	0x3e0881ac	0.13330716
24	0x3e01ef97	0.12689053
25	0x3de95afe	0.113943085
26	0x3df41f7a	0.11920066
27	0x3dff49bd	0.12465236
28	0x3e2ad105	0.16681297
29	0x3e0c507d	0.13702579
30	0x3e283bec	0.16429108
31	0x3e19798a	0.1498777
32	0x3e33f4ed	0.175739
33	0x3e325023	0.17413382
34	0x3e2a495f	0.16629551
35	0x3e0bf1f9	0.13666524
36	0x3e0452c2	0.12922195
37	0x3e18bd7a	0.1491603
38	0x3dd7c7ab	0.105361305
39	0x3e08c834	0.13357621
40	0x3e06d195	0.13165887
41	0x3e1e1694	0.154383
42	0x3e27b087	0.16375934
43	0x3e2f4d2e	0.17119285
44	0x3e11014b	0.1416065
45	0x3e2e996f	0.17050718
46	0x3e0c14b4	0.13679773
47	0x3e0040ed	0.12524767
48	0x3e1e5580	0.15462303
49	0x3e285483	0.16438489
50	0x3df64a2a	0.120258644
51	0x3e176817	0.14785801
52	0x3e22155b	0.15828459
53	0x3e035c13	0.12828092
54	0x3e156312	0.14588574
55	0x3e32217e	0.17395589
56	0x3e21e300	0.1580925
57	0x3e351422	0.17683461
58	0x3e37e330	0.17957759
59	0x3e2baa0e	0.1676409
60	0x3e168c8d	0.14702053
61	0x3e19577e	0.14974782
62	0x3e10ac32	0.14128187
63	0x3e2324f6	0.15932068

embedding_layer.0.weight f4 [16, 64]
0	0x3dcd8383	0.100348495
1	0xbd6e1daa	-0.05813376
2	0x3bceda11	0.0063126166
3	0xbe1ca1aa	-0.15296045
4	0xbc710e9f	-0.014712959
5	0xbd8cb5ff	-0.068706505
6	0xbd853eff	-0.06506156
7	0xbddb8583	-0.10718825
8	0x3df3f1af	0.11911332
9	0xbe0f3f68	-0.13989031
10	0xbd3853ca	-0.045001782
11	0xbdaf6ca3	-0.08565643
12	0xbe15f78c	-0.14645213
13	0x3d4b410b	0.049622577
14	0xbdcf7d42	-0.10131313
15	0xbd5a76e3	-0.053336035
16	0xbe2deafe	-0.16984174
17	0xbd3dfff1	-0.046386663
18	0xbddf2c16	-0.108970806
19	0x3d72eae0	0.059306026
20	0xbdd8e89b	-0.10591241
21	0x3e9fab8d	0.3118557
22	0x3d1bda3a	0.038049914
23	0xbe3a83bc	-0.18214315
24	0xbd0887ec	-0.03333275
25	0xbde0c67c	-0.10975358
26	0x3e019692	0.12655094
27	0xbdc4ce9d	-0.09609721
28	0xbd48ddf7	-0.049039807
29	0xbd90303f	-0.07040452
30	0xbdeed899	-0.116624065
31	0x3cea527e	0.028603788
32	0xbddb8a42	-0.1071973
33	0x3dfa83c4	0.122321635
34	0xbd2fff58	-0.042968124
35	0xbcd0c5b9	-0.025484907
36	0xbe140c39	-0.14457788
37	0x3e924d3f	0.2857456
38	0xbdc1a014	-0.094543606
39	0x3e1b16ae	0.1514537
40	0xbd718de7	-0.05897322
41	0x3d2d95a9	0.042379055
42	0xbd620db2	-0.055188842
43	0xbc803123	-0.01564843
44	0xbd7745ad	-0.060369182
45	0x3e7059fd	0.23471828
46	0xbdc144d2	-0.094369546
47	0xbe0bf289	-0.13666739
48	0x3e053315	0.13007767
49	0xbe617379	-0.22016706
50	0x3e0bc743	0.13650231
51	0x3da6d749	0.08146531
52	0xbd907ba7	-0.07054835
53	0xbe4e5ff6	-0.20153794
54	0xbdbb20c2	-0.091371074
55	0xbe292e68	-0.16521609
56	0xbccb6fe8	-0.024833634
57	0xbcb8c51f	-0.022554932
58	0x3dae391b	0.08506986
59	0x3e5b6834	0.21426469
60	0xbe3660d8	-0.1781038
61	0x3dfe0294	0.124028355
62	0xbc84d5d4	-0.016215242
63	0x3da3221c	0.0796549
64	0x3ddfa0dc	0.10919353
65	0x3c08b960	0.008344978
66	0x3ce8067c	0.028323404
67	0xbd51ccf6	-0.051220857
68	0x3dc5ebb2	0.09664096
69	0xbadc449e	-0.0016805117
70	0x3e04f64a	0.12984577
71	0xbe4ce875	-0.2001055
72	0x3dced25b	0.10098716
73	0xbdefe498	-0.11713523
74	0x3c5d5b6c	0.013510566
75	0xbddebf9c	-0.1087639
76	0xbcd06ba3	-0.02544195
77	0x3df1ca9b	0.11806222
78	0xbde755d3	-0.112956665
79	0xbe6dc410	-0.23219323
80	0xbde74b69	-0.1129368
81	0xbd86cdc9	-0.06582219
82	0x3de14be4	0.11000803
83	0x3e1d5eae	0.15368149
84	0x3d45f92b	0.04833333
85	0x3e582d3c	0.21111006
86	0x3d432320	0.04764092
87	0xbe480851	-0.19534422
88	0xbe205833	-0.15658645
89	0xbe1c5f74	-0.15270787
90	0x3da59d2a	0.08086617
91	0xbe330c5c	-0.17485183
92	0x3db9f34f	0.090796106
93	0x3de14cf4	0.11001006
94	0x3d9421ff	0.07233047
95	0x3e465047	0.19366561
96	0xbe097ae4	-0.13425785
97	0xbd117041	-0.035507444
98	0x3e77e3c3	0.24207978
99	0xbc9f82c0	-0.019471526
100	0x3e27d0d1	0.16388251
101	0x3e1e2401	0.15443422
102	0xbdeb1db2	-0.11480273
103	0x3e28e7b8	0.16494644
104	0x3c82f538	0.01598607
105	0x3d864f7f	0.065581314
106	0xbe07d9ec	-0.13266724
107	0x3ca06f21	0.01958424
108	0xbd540108	-0.051758796
109	0x3e11b11b	0.14227717
110	0xbd8332c2	-0.06406166
111	0xbe3290c3	-0.17438035
112	0x3e677f97	0.22607265
113	0xbd12f214	-0.035875395
114	0x3e2b0e9a	0.16704789
115	0x3d751dce	0.059842877
116	0xbc15041b	-0.009095217
117	0xbdd73d87	-0.10509782
118	0x3de8dc53	0.113701485
119	0xb9dfed3b	-0.00042710625
120	0x3d48b696	0.049002253
121	0x3d92a966	0.071612164
122	0x3e4a155e	0.19734713
123	0x3e1e21c4	0.15442568
124	0xbdb95190	-0.0904876
125	0x3e2095a7	0.15682088
126	0x3e425fdc	0.1898188
127	0x3e40a9f3	0.1881483
128	0xbdfc8230	-0.12329519
129	0xbe528ded	-0.20561953
130	0x3c9ebbb7	0.019376619
131	0x3db90156	0.09033458
132	0xbdffd4d1	-0.124917634
133	0x3d5891e2	0.0528735
134	0x3e03ff5a	0.12890378
135	0xbe868192	-0.2627073
136	0xbe0a8c10	-0.13529992
137	0xbd02af1d	-0.031905282
138	0xbddd1865	-0.107956685
139	0xbe886ae5	-0.26644054
140	0x3e8539ef	0.26020762
141	0xbeb22592	-0.3479429
142	0x3da08e3b	0.07839628
143	0x3e195370	0.14973235
144	0xbce9860e	-0.028506305
145	0x3dd6243f	0.10456132
146	0xbe6c46de	-0.23073909
147	0xbe57069c	-0.20998615
148	0x3d300c6e	0.042980604
149	0xbdc18e0f	-0.09450924
150	0x3e55dc10	0.20884728
151	0xbe960f41	-0.29308513
152	0x3e116307	0.14197932
153	0x3e0b0780	0.1357708
154	0x3e53f027	0.2069708
155	0xbe48f179	-0.19623365
156	0x3e0062da	0.12537709
157	0xbd1e3ff7	-0.03863522
158	0x3e3ff476	0.18745598
159	0xbdb7f02f	-0.08981358
160	0xbe1450e7	-0.14483987
161	0xbdf685c0	-0.120372295
162	0xbe274d99	-0.16338195
163	0x3dc43853	0.095810555
164	0xbe7635ab	-0.2404391
165	0xbd9c5675	-0.07633678
166	0x3e1eac06	0.15495309
167	0x3ce50f23	0.02796132
168	0x3d88b6cb	0.0667549
169	0xbcc67a15	-0.024228135
170	0xbee71ea8	-0.45140576
171	0x3e076c8b	0.13225
172	0x3ded9b54	0.11601892
173	0xbe09099f	-0.13382576
174	0x3dd6824e	0.104740724
175	0xbba2e8b0	-0.004971586
176	0xbe5f005b	-0.2177748
177	0x3ddd4301	0.108037956
178	0x3e5c7f6b	0.21532981
179	0xbe0cbd3a	-0.13744059
180	0x3dbd210a	0.09234817
181	0xbd9fafb1	-0.07797182
182	0xbe88c9df	-0.26716515
183	0x3e10e1ac	0.14148587
184	0xbe8d4991	-0.2759519
185	0xbeea82f1	-0.45803025
186	0xbe48d722	-0.19613317
187	0xbe105147	-0.14093505
188	0x3e1ac896	0.1511558
189	0xbe94bca7	-0.2905018
190	0xbe39c91e	-0.18143126
191	0xbe1551e4	-0.1458202
192	0xbd662dd3	-0.056196045
193	0xbda876dc	-0.082257956
194	0x3de04bfc	0.10951993
195	0x3e014952	0.12625626
196	0xbdd92d1e	-0.106043085
197	0x3dc6deb3	0.09710445
198	0x3dc0fad2	0.0942284
199	0x3dff71f4	0.12472907
200	0xbd9928f7	-0.074785165
201	0x3dce7d5b	0.100825034
202	0xbe01c52c	-0.12672871
203	0xbb14fea1	-0.0022734778
204	0x3e353b9f	0.17698525
205	0xbd380a1d	-0.04493152
206	0x3e161062	0.14654687
207	0x3dcb40e9	0.0992449
208	0x3e2e4395	0.17017968
209	0x3e1f5327	0.15559064
210	0xbcbd8d4f	-0.02313867
211	0xbd98f026	-0.0746768
212	0x3da28629	0.07935745
213	0xbdc15756	-0.09440486
214	0x3cafc380	0.021455526
215	0x3e169a5f	0.14707325
216	0x3e3e94c9	0.18611445
217	0x3e072370	0.13197112
218	0x3d4adb64	0.049525633
219	0x3dbb80af	0.09155404
220	0x3c94f742	0.018184308
221	0xbdbc52b3	-0.09195461
222	0x3e0534d9	0.13008441
223	0xbda478e7	-0.08030873
224	0x3dea748e	0.11448012
225	0xbd6b30a8	-0.05741945
226	0xbda9ca62	-0.082905546
227	0x3de48dae	0.11159836
228	0xbd07493f	-0.033028837
229	0xbd84e0b4	-0.06488171
230	0x3e308406	0.17237863
231	0xbcd51c21	-0.02601439
232	0x3dd4ec1c	0.10396597
233	0x3dc4da89	0.09611995
234	0x3d9d3912	0.07676901
235	0x3d4ffe42	0.05077959
236	0x3dc654f9	0.09684176
237	0xbd32591c	-0.043542013
238	0x3dcdd8f5	0.10051147
239	0x3da71589	0.081584044
240	0xbdb972cf	-0.09055101
241	0x3b8210ec	0.0039693024
242	0x3dc9f97b	0.09862038
243	0xbdc5f2fa	-0.09665485
244	0x3e21b174	0.15790349
245	0x3e3efeed	0.18651934
246	0xbd8e092c	-0.06935343
247	0x3d43d5a5	0.04781117
248	0xbd527f33	-0.051390838
249	0xbd039bd4	-0.03213103
250	0xbe1a9bf9	-0.15098561
251	0xbd2ac9b4	-0.041696265
252	0x3d533aa2	0.05156959
253	0xbddef644	-0.10886815
254	0xbd764799	-0.060126875
255	0xbe1820cd	-0.14856263

embedding_layer.0.bias f4 [16]
0	0x3dfe49e1	0.12416435
1	0x3cb26fc7	0.021781815
2	0xbd3acf05	-0.045607585
3	0x3e9c16cf	0.30486152
4	0x3e05a065	0.13049467
5	0x3d9faf16	0.07797067
6	0x3deb2f80	0.11483669
7	0x3ed2e144	0.4118749
8	0x3ebd0ec2	0.36925322
9	0x3e84b72d	0.25921002
10	0x3e99e0b9	0.30054262
11	0x3e459384	0.19294554
12	0x3e4a16d0	0.19735265
13	0x3e044347	0.1291629
14	0xbe5b72fc	-0.21430582
15	0x3d562733	0.052283477

classifier.weight f4 [2, 16]
0	0xbeb1c88f	-0.34723327
1	0xbe6ed4f7	-0.23323427
2	0x3ee60e4f	0.44932792
3	0x3e5d2d31	0.2159927
4	0xbe359b8a	-0.17735115
5	0xbd2520bc	-0.04031442
6	0xbe6bd034	-0.23028642
7	0x3ebc8a68	0.36824346
8	0x3e714c43	0.23564248
9	0x3eccc122	0.399911
10	0x3e25d235	0.16193469
11	0x3da1abdc	0.07894108
12	0x3e904f6a	0.28185588
13	0xbede2f8c	-0.4339565
14	0xbdb89f3d	-0.09014747
15	0xbea7f92d	-0.32807294
16	0x3e09ac70	0.13444686
17	0x3e54097e	0.20706746
18	0xbecb2035	-0.3967301
19	0xbe84ba6b	-0.25923476
20	0x3eb51a7f	0.35371777
21	0x3ec83537	0.391031
22	0x3e99a49c	0.300084
23	0xbecacfa1	-0.39611533
24	0x3ceb0e6e	0.028693404
25	0xbe52bc79	-0.20579709
26	0xbdd0516e	-0.101717815
27	0xbecc3e40	-0.39891243
28	0x3dd68c83	0.10476019
29	0x3e2d4c43	0.16923623
30	0xbe6af730	-0.22945857
31	0x3eba2661	0.36357406

classifier.bias f4 [2]
0	0x3e12ea3a	0.14347163
1	0x3ac17bc2	0.0014761614
