o02_test/run_outputs/27cnn_train_weights.pth (torch, 48140 bytes, 22 tensors)

features.0.weight f4 [16, 6, 5]
00000000: b55c c53e f9c1 813e b9ea 6b3b 2b70 183c
00000010: be7d 92be b0ea 0dbe 4e66 d7be c479 d5bd
00000020: d9f6 743b 5d1e c8be b8a9 293e 597a a3bd
00000030: 2cce de3a e3f2 33be fc5a 2abe 6ccb a9bd
00000040: ecff 513d 28a3 ad3c 9d0b 173c 9909 bb3d
00000050: 4d69 75bd ee97 893c 6ec1 7ebd 2ded d43d
00000060: 25d9 8bbd ede4 6bbe d935 e5bd b112 21be
00000070: 4755 a4bd b1d2 b6be 9b1c 1bbf 3976 73bf
00000080: ed68 12bf f620 02bf 68dc 99be bb99 103e
00000090: 6ae7 0dbe 1e8c d33b b0b8 c4bd 04f2 7cbc
000000a0: a0d5 b43d 7598 a83d 1a86 933e c3d9 003f
000000b0: aa3f 1c3f 8f9d a8bc 8d96 db3d 6260 45bc
000000c0: 50fe a43d 4d62 22bd 2190 1cbe 8772 44bd
000000d0: 046c 03be ced0 2b3e 33ea 3a3d a24a 373d
000000e0: f05b 853c 22c3 87bd 64d6 533d 9f78 8cbe
000000f0: f841 22bf d84d 59bf c810 2bbf b5ef 2ebf
00000100: e3b1 d6be 6448 973e 9daf d43e 1b0d d53a
00000110: 7cad fdbd 9f56 86be f83c 60bd d89b 1abe
00000120: bbcf 863d 613d 83bc 1b93 163e d637 5fbb
00000130: 5605 71bd 569a 5d3d 8b3d 2b3c aebe 183e
00000140: 4265 81be 76c1 4cbe 1700 ca3d 1309 a2bd
00000150: ab2d b73d ef94 02be 9816 943d ccea 0ebe
00000160: 25db 87bd f831 ad3d 6a3e 403f 9066 153f
00000170: 9323 fc3e b346 573e 097d 79be 4bab 91bd
00000180: 64f1 8f3e 627c 513e 8a89 893e 0833 543e
00000190: 5b08 dd3d 7882 0f3e e3f0 09be b095 d0be
000001a0: 3cd7 cebe 9fba d1bc 442a 3abd 5e12 1b3d
000001b0: 43ed 47bd 9189 dbbd 1e4d 423e 4855 c6bc
000001c0: 62de 26bd 3491 80be e6fe 25be 52b5 2abe
000001d0: 3364 61bd 32aa 5fbe d71a b5bd 4433 40bd
000001e0: 03ba 2fbe c404 2cbd 7c35 643e f8d8 533e
000001f0: 97c4 7b3e 4c89 e53d dd89 313e 9f15 b33d
00000200: 61eb 773e 8c7f acbd 6ac2 a43e 489a cb3e
00000210: b02d 623e 41d4 123f 3f4d eb3e a66a d03c
00000220: 7f18 1bbd 5c01 a5bd cdec 3f3d 15de 7cbd
00000230: 4f1e 9b3d b2bd febd 1867 173e 349d cfbd
00000240: 0482 22bd f417 613e 02c2 503e 692c 583e
00000250: 16ca 823e edd9 123c 5865 bc3c 14b0 033e
00000260: 8c0f 3c3e 3a70 8c3d ac94 da3e da5f fa3d
00000270: 94a9 853e cc4f b43d 9a82 ea3d 57ac ea3d
00000280: 7c21 66be e204 f1bd db6b af3d 8d25 5ebe
00000290: 8ffc 14be 2c38 4dbc a679 f0bd 2a1e 073e
000002a0: bdb0 143d 8b6e 89bd 20c4 dbbd 9efd 4b3d
000002b0: d58c 1a3e d2b3 abbc eb13 7bbd 0b71 38bd
000002c0: 8a5b c2bd 09fa 0a3e 6773 553e 2977 03be
000002d0: 9ee8 fe3e 23df a83e 760f 883d 9422 44be
000002e0: 3f7c 0ebe f215 1dbe 02a7 68be b61b 9abe
000002f0: 12f8 9abe cd31 40be 25b4 453e c00c a23d
00000300: b00e 67bc cf62 f3bd d434 a3be d880 7cbd
00000310: 5064 8e3c 79a3 213d 09f6 983d 42ab 7c3d
00000320: 3619 c5bd 1788 76bd a087 993d 969e a63c
00000330: 31dd 99bb 10f5 3cbe 93be d9bd a697 2abe
00000340: e383 3cbe 05ce 21be 0886 e63e 4cb1 733e
00000350: d3b8 4dbe fe04 b9be 159c 00bf 6d4e 1e3f
00000360: 9411 e63e 412a 5c3e 8ce9 1a3e 128d 34be
00000370: 9a6c c9be e00b 87be c1d9 d1be f3b3 82be
00000380: 6769 bcbe a1c4 473e d5ee 063e a4a3 2b3d
00000390: b3d4 11be af0c 5abe cbfd 54be 7ca5 cc3d
000003a0: d20d ae3d f4ae 213e 8804 0e3e ab8b 703d
000003b0: 77a2 363d 52ac 07bd 9761 55bb d63b b7bb
000003c0: 9249 5b3d 7f1c 93bd 44e7 9bbd 8f28 2cbe
000003d0: 1126 78bd bf08 e7be 6f4e 04bf 4d51 9fbe
000003e0: 5e9f eebe 2141 97be 0f98 d33e bf35 c33e
000003f0: fd80 cc3e 4cc2 873e 4b5b 713e 03ef 49be
0.38547292 0.25343302 0.003599806 0.009304087 -0.2861156 -0.13859057 -0.4207024 -0.104236156
0.0037378578 -0.39085665 0.16568649 -0.0798232 0.00169987 -0.17573123 -0.1663627 -0.08290753
0.051269457 0.021195963 0.009219077 0.0913269 -0.059914876 0.016796079 -0.062196188 0.103968
-0.068285264 -0.23036547 -0.11191911 -0.15729786 -0.08024078 -0.3570762 -0.60590523 -0.9510227
-0.57191354 -0.50831544 -0.3005097 0.14121144 -0.13857809 0.0064559123 -0.09605539 -0.01543856
0.08829808 0.08232204 0.2881325 0.5033228 0.61034644 -0.020582942 0.10722075 -0.012046905
0.08056319 -0.03964453 -0.15289356 -0.047960784 -0.12834173 0.16778871 0.045633506 0.04474891
0.01627919 -0.066290155 0.05171813 -0.27435777 -0.6338191 -0.84884405 -0.6682248 -0.68334514
-0.41932592 0.29547417 0.41540232 0.0016254516 -0.12386605 -0.26237962 -0.054745644 -0.15098512
0.0658259 -0.016020479 0.14704554 -0.003406038 -0.05884298 0.054102264 0.010451685 0.14916489
-0.25272566 -0.19995674 0.098632984 -0.07911887 0.08944257 -0.12752126 0.07230872 -0.13956755
-0.066335954 0.084567964 0.75095236 0.5835962 0.4924589 0.21023063 -0.24364103 -0.0711275
0.28113854 0.20457605 0.26862746 0.20722592 0.10792609 0.14014614 -0.13470797 -0.40739202
-0.40398586 -0.025601683 -0.045450464 0.037859313 -0.048810255 -0.10719598 0.1897473 -0.024210587
-0.040739425 -0.2511078 -0.16210517 -0.1667073 -0.055027198 -0.21842268 -0.0884301 -0.04692389
-0.17160802 -0.041996732 0.22286028 0.20688236 0.24586712 0.11207828 0.17337747 0.08744358
0.24210884 -0.08422765 0.32179576 0.39766145 0.22087741 0.57355124 0.45957372 0.025441479
-0.03786516 -0.080569 0.04685669 -0.06173523 0.0757414 -0.12438525 0.14785421 -0.10137406
-0.039674774 0.21981794 0.20386508 0.21110691 0.25544804 0.00896309 0.022997543 0.12860137
0.18365306 0.06857343 0.42691553 0.122253135 0.2610594 0.088042825 0.114506915 0.114586525
-0.22473711 -0.117685094 0.08565494 -0.21694012 -0.14549468 -0.012525599 -0.117419526 0.131951
0.036301363 -0.067105375 -0.10730767 0.049802415 0.15092786 -0.020959768 -0.061298292 -0.04502968
-0.09490116 0.13571943 0.20844804 -0.12838425 0.49786848 0.3298274 0.06643574 -0.19153816
-0.13914584 -0.15340403 -0.22719958 -0.30099267 -0.30267388 -0.18768997 0.19307001 0.07912588
-0.014102623 -0.118840806 -0.31876242 -0.061646312 0.017381817 0.03946254 0.074688025 0.06168676
-0.09623949 -0.06018838 0.074965715 0.020339292 -0.0046955575 -0.18452859 -0.10632052 -0.16659412
-0.18409686 -0.15801246 0.45024133 0.23798102 -0.20090036 -0.3613662 -0.5023816 0.6183842
0.44935286 0.21500494 0.15128154 -0.17631939 -0.3934067 -0.26376247 -0.40986446 -0.25527915
-0.36799166 0.19508602 0.13177045 0.041904107 -0.14241295 -0.21293901 -0.2079994 0.09992501
0.0849873 0.15789396 0.13868916 0.058726948 0.044588532 -0.03312332 -0.0032559389 -0.00559185
0.05353696 -0.071831696 -0.0761247 -0.16812347 -0.060583178 -0.4512386 -0.5168218 -0.31116715
-0.46605963 -0.29541877 0.4132695 0.38126943 0.3994216 0.26515424 0.23569982 -0.19720082

features.0.bias f4 [16]
00000000: dc67 e13d 8350 b4bd 5526 e7bd 128d a63c
00000010: 5721 cebd 53f6 00be caa4 d23d 6a20 38bd
00000020: 1c4f 323e 16d1 033e 1500 7c3d 9c17 623d
00000030: 6a18 b03c 3312 e8bb 5ff7 393d 6be8 8ebd
0.11006138 -0.08804419 -0.11286608 0.02033094 -0.10064953 -0.12593965 0.10285337 -0.044952787
0.1741299 0.12872729 0.061523516 0.055198297 0.021496017 -0.0070822476 0.045401927 -0.06977924

features.1.weight f4 [16]
00000000: 90be 7e3f ba9d 7e3f 0426 6b3f c21e 7d3f
00000010: 946c 813f 79ca 763f 0336 813f a3f8 6c3f
00000020: 16c9 6e3f f091 843f 2463 823f 33be 6e3f
00000030: 1818 743f caf8 803f 9bc7 753f b543 663f
0.99509525 0.9945942 0.9185488 0.9887506 1.011126 0.964027 1.0094608 0.9256689
0.9327558 1.0357037 1.0186505 0.9325897 0.95349264 1.0075924 0.960077 0.8994706

features.1.bias f4 [16]
00000000: 4804 1fbd 556d 95bd f669 99bd f5cb a6bb
00000010: 73b6 21bc 2a2c 6cbe d45e a3bd 3e0b 903c
00000020: 8122 71bd 9658 9e38 89d7 ba3b 6323 c3bc
00000030: 630f d3bd 3843 08bd 22da 9abc 3914 f0bc
-0.038822442 -0.07296244 -0.074909136 -0.0050902315 -0.009870159 -0.23063722 -0.079770714 0.017583486
-0.058870796 7.5505275e-05 0.0057019633 -0.023820585 -0.10305669 -0.03326723 -0.018902842 -0.029306518

features.1.running_mean f4 [16]
00000000: e436 183e 92f4 94bd 3ae1 c8bd 05bf 083d
00000010: 3b2b 0ebe f424 06be b839 0e3e c794 36bd
00000020: 043e 333e 4195 023e 127c dc3d b76f 3b3d
00000030: 687f d73c a87f dfbb 1618 563d 9824 45bd
0.14864689 -0.072732106 -0.098085836 0.033385295 -0.13883679 -0.13100034 0.13889205 -0.04457548
0.17504126 0.12752248 0.10765852 0.045760836 0.02630587 -0.0068206377 0.052269064 -0.0481306

features.1.running_var f4 [16]
00000000: 8609 8744 bec6 1043 3290 6543 f448 0944
00000010: 41d4 7c44 1afd b641 5cc3 5644 bec7 9843
00000020: 55fe 0143 34cb 2544 6c02 d244 dc06 fd42
00000030: 509a 5a42 786a be42 2cbb a843 e908 2244
1080.2976 144.77634 229.56326 549.1399 1011.31647 22.873585 859.0525 305.5605
129.99348 663.17505 1680.0757 126.5134 54.650696 95.20795 337.46228 648.1392

features.5.weight f4 [32, 16, 3]
00000000: b347 203d 72f4 e13d 33e1 9abd 9abf 80bd
00000010: c83a 88bd af92 c1bd 8f43 a63c a639 823d
00000020: 7d53 983d c1b6 ad3d 1ef3 c3bd 656b 25bd
00000030: 5e84 54bc 9a6f 3a3d 7726 b23d 18ed 40be
00000040: 43c3 3bbd c2ef 14be 47b0 c4bd 08fc 0dbe
00000050: 6079 8e3d 633b 35be 20eb 463d 01d4 8ebd
00000060: 27e9 e8bd 554c aebc 2ccc babd 1676 fa3d
00000070: 054e 1b3e 92d5 80bd f976 763d 9be0 693c
00000080: e516 973c 4788 98bc 2987 d93d 649f 46bd
00000090: db8c b2bd bc5c cf3c 68d9 be3c fcf6 60bd
000000a0: 7025 46be e1a8 1bbd c203 98bd c9aa 593e
000000b0: e531 acbd a8d5 f53a 6f3b 9fbc effb b73c
000000c0: 77ab f23b e594 cbbd 967d efbc 403e 023e
000000d0: 2af4 1a3e 2741 7fbc 1287 6c3b 31d4 ca3d
000000e0: 64ad 5fbc 6a94 0d3e 2b9d 8f3c dbf6 2abd
000000f0: 08b1 d7bc 2085 40bd df74 d2ba 8080 173e
00000100: 6f57 e13d b55a da3d d4b0 a7bd a21b 51be
00000110: 8d5b 36be e7b5 22be 41be 45be de60 b4bd
00000120: d9cb e5bd 6a71 13be 68fa 09be 83b6 99bd
00000130: d202 78bd 64b6 8b3d 235d 913c 29f6 c6bd
00000140: 42b9 cdbd 46a1 9b3d 47ae 13bd d556 1dbd
00000150: 4eb3 4e3d 3656 c5bd 9254 003d cf6b 083e
00000160: 13da 893c bb5b 243d 2ba4 bbbd c0dc 13bd
00000170: 7c9d c1bb 2a83 073d f531 1c3d b6f6 ad3d
00000180: 385f 01be eca3 e6bb d8ca 91bd a698 72bd
00000190: da43 debc e4ed 99bd 856c 413d cbb9 b83c
000001a0: fcfa 2abd df88 bcbd d904 27be 85b9 12be
000001b0: 619f 98bd d5ac 1dbe 8c80 f0bd 32c8 053d
000001c0: 7c58 123e 9af4 0e3e 0681 423d 3b8c 13bd
000001d0: 1ef2 f5bc 3ed1 d03d 3e58 043d 949a 4f3c
000001e0: d2c9 063d a107 81bd e089 b8bc afd1 cfbc
000001f0: df45 bcbd 1087 fdbd a464 0bbe 44f0 5cbd
00000200: a545 47bd 1932 97bd 9558 91bc 9000 5e3d
00000210: 5bd7 febc 1c36 923d bfdb 02bb fa7a e2bd
00000220: 47ed cebc 0551 223b 0416 eebd 1aff 3ebe
00000230: 2729 61be 1215 ecbd 19c9 36be e642 dfbd
00000240: 0b11 553c 2601 1cbe 2d24 da3d b54e b53d
00000250: ca1c 25be f8c4 adbd 6f55 a73c 1f8f 8dbd
00000260: 6b40 c6bc 40d3 d1bc 770b 273e 2b55 c8bc
00000270: cdb9 7d3d 0cbb 19bd c2ce 603c 5058 8d3d
00000280: 78b8 83bd 4afb febd f2c2 35bd 48fd b33d
00000290: 0246 2abe d241 25bd 0c57 28be 8328 423d
000002a0: b71e 463a 2b0a 8dbd ed5e 37bc 83bf da3c
000002b0: da68 e43d 87db 9ebd 5859 0bbd 9898 1b3d
000002c0: f10e 033e 67e7 6d3d 2731 c5bd 4fa2 e33d
000002d0: a6a3 adbd dd30 c7bd 1c56 3fbe 9135 febc
000002e0: b04b a63d c773 18bc 6c25 8fbd 95a9 a23d
000002f0: 59fd 8bbc efb2 1a3e 546b 11be 8b46 60bd
00000300: 6daa 53be 8009 f9bd 0df7 05bd c8a0 303e
00000310: 237a 6a3b 2566 023e c831 12bc 69be 6c3d
00000320: a7f4 d33d 6eed f63d f450 c5bd 08a7 1a3e
00000330: a51a 643c 078b e4bd daf0 f8bd fc81 cebd
00000340: 5cad 873d 7a46 e0bd 9196 9ebc 0944 9fbc
00000350: a2bf 26be b253 4c3b 4992 5ebd edb9 0abc
00000360: b2c7 40bd 24c0 5bbe 564a 5c3d b3d5 933d
00000370: c993 f23c 71dd edbd 34ee e1bd 792f cabd
00000380: c696 9cbd 12f6 a63d 41cd 3f3d a19d be3d
00000390: f83f 95bd dea4 c23c 5529 993c bd9f f6bd
000003a0: 3daf 19be 2a2b 84bd 8a20 a93d 9b27 d6bd
000003b0: 025f 0fbe 6096 c33d 23b0 8f3d a8db be3d
000003c0: a35f 2abe d8e1 15be e3ea c63b f444 433d
000003d0: a101 74bc c4d1 a4bd c1ae e3bc 50db 763d
000003e0: 10eb 0cbe f261 0ebe d450 a63c fec1 f9bd
000003f0: 02be f4bd bb4f 573d a642 d13c 876b 583d
0.039130878 0.11032952 -0.075624846 -0.06286545 -0.06651837 -0.09451806 0.020295886 0.06358652
0.07437799 0.08482123 -0.09567855 -0.040385623 -0.012971012 0.045516588 0.08698743 -0.18840444
-0.045840513 -0.14544585 -0.09603935 -0.13865674 0.06956744 -0.17698435 0.048564076 -0.0697403
-0.11372595 -0.021276632 -0.09120974 0.12229554 0.15166481 -0.06290735 0.060172055 0.0142747415
0.018443534 -0.01861967 0.10621483 -0.04849185 -0.08718272 0.025312774 0.023297027 -0.054923043
-0.19350219 -0.038002852 -0.07422592 0.21256556 -0.08407954 0.0018755691 -0.01943752 0.022458998
0.007405694 -0.09940509 -0.029234689 0.12719059 0.15132204 -0.015579498 0.003609125 0.099037535
-0.013652179 0.13826147 0.017530998 -0.041739326 -0.026329532 -0.047001958 -0.0016056559 0.14795113
0.11003005 0.10661832 -0.08188024 -0.20420697 -0.17808361 -0.15889703 -0.19310857 -0.088075384
-0.112205215 -0.14398733 -0.13474429 -0.075055145 -0.060549565 0.068218976 0.017744606 -0.0971492
-0.10045101 0.0759912 -0.036054876 -0.038412888 0.050463967 -0.09635584 0.031330653 0.13322376
0.016827619 0.040126543 -0.09162172 -0.036099195 -0.005908666 0.033084072 0.03813358 0.08494322
-0.1263398 -0.007038584 -0.071187675 -0.05922761 -0.027131964 -0.07516077 0.047222633 0.02254953
-0.041743264 -0.092057936 -0.16310443 -0.14328583 -0.07452274 -0.15397961 -0.11743268 0.032661624
0.14291567 0.13960496 0.047486328 -0.036022406 -0.030022677 0.1019616 0.032310717 0.012671132
0.032907315 -0.06300283 -0.022526681 -0.02536854 -0.09193014 -0.12379277 -0.1361261 -0.053940073
-0.048650403 -0.07382602 -0.017742435 0.054199755 -0.031108549 0.07139227 -0.0019967405 -0.11058612
-0.025259627 0.002476753 -0.11625293 -0.18652001 -0.21988355 -0.11527456 -0.1785015 -0.10901432
0.013004552 -0.15234813 0.10651431 0.08852903 -0.16124263 -0.084848344 0.02042648 -0.06912064
-0.024200639 -0.025613427 0.16312967 -0.024454674 0.06194477 -0.037531897 0.01372117 0.0690161
-0.06431669 -0.12450273 -0.044375367 0.08788544 -0.16628268 -0.040345974 -0.16439456 0.047401916
0.00075576775 -0.06886705 -0.011192066 0.026702648 0.11152811 -0.07756715 -0.03402075 0.03798732
0.12798668 0.05808201 -0.09628516 0.11114942 -0.08478479 -0.09726117 -0.18685192 -0.031031402
0.08119905 -0.009304947 -0.069895595 0.079425015 -0.017088579 0.1510732 -0.14201099 -0.054754775
-0.20670481 -0.12160015 -0.03270631 0.17248833 0.0035778366 0.12734278 -0.008923002 0.057798777
0.10349398 0.12057005 -0.09634581 0.1510278 0.013922368 -0.1115933 -0.12155314 -0.10083386
0.066248626 -0.10950942 -0.019358905 -0.019441621 -0.1628404 0.0031177816 -0.054338727 -0.00846718
-0.047065444 -0.21460015 0.05378183 0.07218494 0.029611485 -0.11614502 -0.11031762 -0.09872336
-0.07645945 0.08152403 0.046826605 0.09307409 -0.07287592 0.023760255 0.018696466 -0.120421864
-0.15008254 -0.064535454 0.082581595 -0.10456773 -0.14001086 0.09550166 0.07016017 0.0931924
-0.16638045 -0.14636934 0.006070481 0.04767318 -0.0148929665 -0.08047822 -0.02779329 0.060267746
-0.13761544 -0.1390455 0.020302214 -0.12195204 -0.119503036 0.05256627 0.025544476 0.05283692

features.5.bias f4 [32]
00000000: b5b2 b3bd 73c6 8dbd 9bed afbc 10e9 89bd
00000010: cc18 a3bd 1080 8dbd e036 393d 70ca fb3d
00000020: 91e4 403d c481 b8bd bfcb 8abd 94ad 27bd
00000030: f782 0abc 0b3f df3b 7a61 bc3d 194a 5a3e
00000040: 00ea ea3c 474c 9ebc 0c3e 04bb 59e1 8e3d
00000050: 1728 363d e898 0bbe 3b15 cbbd 6c1d 883a
00000060: e8a1 033d ad69 983d 3dca d4bd a6c5 0ebe
00000070: bd0d 98bc 4710 3ebd 2f12 8d3c 6dc8 92bd
-0.0877432 -0.06922617 -0.021475604 -0.06733906 -0.07963714 -0.069091916 0.04521835 0.12294471
0.047092978 -0.09009126 -0.06777143 -0.04093702 -0.008454076 0.006812935 0.0919828 0.21317329
0.028676033 -0.019323481 -0.0020178584 0.069765754 0.044471826 -0.13632548 -0.09916159 0.0010384745
0.032136828 0.07442031 -0.103901364 -0.13942584 -0.018561238 -0.046402242 0.017220585 -0.071671344

features.6.weight f4 [32]
00000000: 9de5 593f 1855 803f 775e 903f ae44 5f3f
00000010: 1269 6b3f 4b9b 6e3f 0abb 7b3f 9359 783f
00000020: 399c 6a3f 01a9 883f f5f8 893f f75e 6f3f
00000030: d967 613f ae83 863f ec0c 7b3f 8be4 743f
00000040: 815f 6f3f 6a0d 7a3f 0b49 823f 1bc4 663f
00000050: b66f 793f 4437 793f 3605 6c3f b81f 743f
00000060: caf7 893f a070 543f 122a 633f 91ed 5b3f
00000070: 6ea1 833f 47c8 843f ddfb 743f b372 823f
0.8511599 1.0025969 1.1278828 0.8721417 0.919572 0.9320571 0.98332274 0.9701168
0.91644627 1.0676576 1.0779101 0.9350428 0.88049084 1.0508935 0.9806659 0.9566123
0.935051 0.9767672 1.0178541 0.90142983 0.9743608 0.97349954 0.9219545 0.953609
1.0778744 0.8298435 0.8873607 0.8590937 1.028364 1.037362 0.9569681 1.0191253

features.6.bias f4 [32]
00000000: b69e b6bd b534 c1bd e4f2 40bc 6a2a 14bd
00000010: a9a4 56bd 4e87 9abd d222 28bd c486 e6bd
00000020: 0b3b 27bb 1b79 b8bc 5e64 943c 099d 00be
00000030: 2078 83bc 8bd4 22bb 2ad6 41bd 8f27 7bbd
00000040: 83de ccbd 64c0 5fbc b655 83bd d321 49bd
00000050: 8811 33bd 54dc 68bd 56c2 cdbd 9429 94bd
00000060: 470a 263c 327a 2abe bf00 f5bd 2ccd 1dbe
00000070: ed62 74bc e1fc 05be 64b7 adbd 2188 4abd
-0.089169905 -0.09433881 -0.01177666 -0.03617326 -0.052403126 -0.075453386 -0.041048832 -0.11256173
-0.002551737 -0.022518685 0.018114265 -0.12559904 -0.016048491 -0.0024845924 -0.047323383 -0.061317023
-0.10003378 -0.013656709 -0.064128324 -0.049104523 -0.04371789 -0.056850746 -0.10046832 -0.07234493
0.010134286 -0.16648176 -0.11963033 -0.15410298 -0.014916164 -0.13084747 -0.084822446 -0.04944623

features.6.running_mean f4 [32]
00000000: eeb7 8dbe 3a37 7dbe 03c0 16bf e4f8 64be
00000010: 3d31 94be 5d7d 18bf 9847 11bd 678c b63d
00000020: c499 9d3d c451 edbe cd19 27bf 80e7 04be
00000030: 2402 68be 8fb4 2bbe 146f ddbd 4743 eb3b
00000040: cd12 e33d 17e9 a0be 8d38 06bf 4d26 663c
00000050: b0ad b23d f21b aebe 6958 afbe 374d 2cbe
00000060: 3fc7 bbbe 3a68 703e e3e5 30bf 5597 b5be
00000070: 86eb fd3d 3869 1cbe 54c2 0fbe a89f d7be
-0.2767939 -0.24728099 -0.58886737 -0.22360569 -0.28943816 -0.5956629 -0.035468668 0.08913498
0.07695344 -0.46351445 -0.65273744 -0.12978935 -0.22657067 -0.16768096 -0.10812202 0.007179651
0.1108757 -0.31427833 -0.5243004 0.014047218 0.087245345 -0.34005696 -0.3424714 -0.1682633
-0.3667545 0.2347726 -0.6910078 -0.3546702 0.12398438 -0.15274513 -0.14038974 -0.42113996

features.6.running_var f4 [32]
00000000: 6848 a03e f2dd ad3e 5ae7 913f cbf3 783e
00000010: 9a15 cb3e 4460 c13f 32f4 8d3e dcad 053f
00000020: 581e 2c3e 4f5c 243f ec54 943f c53b bb3e
00000030: 8766 203f 5a4a bc3e cfc5 cc3e 576d b13e
00000040: e74a 663e 7237 ec3e fc1b 603f 4b28 8c3e
00000050: ac5d 8b3e 0918 b33e b389 a13e 3d23 bc3e
00000060: c7f7 843f c13e db3e 22d1 9d3f d611 a73e
00000070: 0937 923e 992e 963e a28a aa3e 266e e23e
0.31305242 0.33958393 1.1398728 0.2431175 0.39664918 1.5107503 0.2772537 0.52218413
0.1680845 0.6420335 1.1588416 0.36569038 0.62656444 0.36775476 0.39994666 0.34653732
0.2248951 0.4613605 0.875427 0.2737449 0.27219903 0.34979275 0.3155037 0.36745635
1.0388116 0.42821315 1.2329447 0.32630795 0.28557613 0.29332426 0.33308893 0.44224662

features.10.weight f4 [64, 32, 3]
00000000: 05e9 b63b 2113 9cbc ac55 983c cc0c 443c
00000010: 1546 d73d 00b9 973d 15ee b1bd ca48 f2bb
00000020: 2ad1 07be 6798 9a3d 347c 683c 5355 0cbc
00000030: ace7 8f3d c402 b83c 881b 583d e429 04bd
00000040: 4427 26be b78d 00bd 78bd fc3c 76b5 6c3c
00000050: e298 643d b626 dd3d a1b6 04bc aee3 94bc
00000060: cde9 65bc 8779 bbbd 146d 6cbd bec1 0abd
00000070: 728d 05bb 29ae 8b3c 3a28 8fbd 13a2 89bd
00000080: 45bc 713c 6458 05bd fd22 04bd 35e4 c8bd
00000090: c0ef 193c 9eae 22bd d092 5abd 4386 693d
000000a0: fa1c 8c3d 8fdb ee3d c09a 5c3d 1d26 dc3d
000000b0: fcd9 b93c 7fb6 5c3d 7991 ed3d 885c 913d
000000c0: dc17 b8bd ded9 2cbd 32fb 3039 d473 b7bb
000000d0: 6647 c63c f201 073c df73 bb39 553e 3a3c
000000e0: 240a 5dbb 2d7c 03bd becf ba3c 947d 893c
000000f0: a7a6 4fbd c8a0 97bd 4487 783b dbb7 153c
00000100: 355e 2f3e 018a 1b3e b828 3c3e 4b63 e93d
00000110: 2848 fb3c 3c4e 083e 5b77 d23b df06 9b3d
00000120: 4cdd cfbc cace 07be 2849 92bd 9e3b 05bc
00000130: 9159 b43d 3b05 c6bc 85c9 443d c429 4b3d
00000140: 6695 143d fabd 343d 635b 083d 5868 78bd
00000150: d2af 06bd 2f19 99bd 9303 b7bd cc22 0ebc
00000160: 3164 973d 3902 303d e421 56bc 3cef cabb
00000170: 2771 08bc 02a8 6a3d f6ff 64bd a70a 1fbd
00000180: b0db 1fbd 9165 f5bc 4960 3a3d 1519 583d
00000190: 95ab dc3d bf96 1f3d 3eeb c0bd 611a 53bd
000001a0: b07a c73c 6401 6d3d 9076 2b3d 2037 9fbc
000001b0: fa01 12bd 00b2 06bc 73d2 883d 0be4 9cbd
000001c0: 87fe 513b 5665 0ebc 7de2 903c cfc8 bc3d
000001d0: 34e1 073a 562e 0fbb 1413 a3bc dd9c 84bd
000001e0: d3da efbc 4782 6bbb 348c a7bd ba93 ed3c
000001f0: 9283 9ebd 6d5f 8abd 97e0 52bd a237 4abd
00000200: 09f0 2cbd fea9 4dbd 176a efbb ce5f dcbd
00000210: 9852 19bc f68b 0d3c 7cd6 a03c 1a43 213e
00000220: 84a6 0a3e 47f5 3a3c 7b6a 95bb 71fc 083d
00000230: 1353 683b 7f47 8e3d 3ef4 4b3d 1a61 df3d
00000240: 8d19 edbc bdc9 83bd d84b 3bbd 7be7 a8bc
00000250: 1349 f5bc bde2 313c 3437 7cbd 8fca e13c
00000260: c42b 42bd 1008 b2bd 39d0 5f3b 0d1d 343d
00000270: 9385 dd3b 417b aebc 062a 1fbd eeaa 7e3d
00000280: 909b df3c d931 973d 1970 bc3d 8194 093e
00000290: cbef e83d 5fa2 253c 0fed 903d 17ce 543a
000002a0: 987b 0abd 5f54 a7bd 13d9 153b 2ffe 77bd
000002b0: 1f09 ba3d db33 9b3d 9012 56bd 22db 99bd
000002c0: e8cb 50bc b21d febc d112 153d 7dd0 d4bc
000002d0: 4fe1 b4bc 6c56 f1bd e79b abbd a84b ce3c
000002e0: 463b 103e 951e b23d 503f bfbd c836 8cbd
000002f0: 8e0b 81bd f49f 37bd 7699 a63c db39 1c3d
00000300: f321 b2bd 3b41 5fbd 29d6 e2bc 4567 08bd
00000310: 5afb f1bc 5c93 6bbb b12f 533e 5315 cf3d
00000320: 6220 343e 3746 92bd b263 bebc 4522 5ebd
00000330: a42b 8b3c 3c4e 463d b0d2 283d 1818 343e
00000340: 8d66 3f3e fa91 093e 3dc4 533d 8b14 4bbd
00000350: 42c4 6fbd 876d c3bc a422 443c 5780 44bd
00000360: 4d8d 94bd 45b6 03bd fc17 d0bd 225e d63d
00000370: 111d 063e 1c83 6d3d 5909 3e3e d2fe a93d
00000380: 1f57 b03d 3cde 493d d609 b83d 5a4f 3ebb
00000390: 0f8f 79bd 03cb d0bc 2280 4e3a 2c10 b83c
000003a0: b788 fa3c 51b1 babc 7b97 5cbd f9e2 0bbd
000003b0: c399 84bc 8293 1f3c ae64 35bc 752a 63bc
000003c0: 7590 4e3d 8d4a a53c c0af 963b 90e4 b8bb
000003d0: e4f0 e33c a234 063e fa78 223e 5896 cb3d
000003e0: d2ee 063e c7e4 67bd 29b8 2fbd 8cc2 c3bd
000003f0: afcf 84bd 251d 1fbd b3ff 8abc 635d b63b
0.0055819773 -0.01905209 0.018595539 0.011965942 0.10511414 0.07408333 -0.08687989 -0.007393931
-0.13263384 0.075486 0.014189769 -0.008565265 0.0702661 0.022462256 0.05276063 -0.032266513
-0.16225916 -0.03138515 0.030852064 0.0144475605 0.055809863 0.10798399 -0.008100183 -0.018174972
-0.014032793 -0.09154039 -0.057721213 -0.033876173 -0.0020378497 0.01705082 -0.069900945 -0.06720366
0.01475436 -0.032555 -0.03225993 -0.09809152 0.00939554 -0.03971731 -0.053362668 0.057012808
0.06841464 0.11662971 0.05385852 0.10749457 0.02268695 0.05388498 0.11600012 0.07097727
-0.08988926 -0.04219996 0.00016878246 -0.0055985246 0.024203967 0.00824021 0.0003575375 0.0113674
-0.0033727968 -0.032100845 0.022804137 0.016783513 -0.05069604 -0.074037135 0.0037922421 0.009138073
0.17125781 0.15189363 0.18374908 0.11395892 0.030674055 0.13311094 0.0064229197 0.0756967
-0.025374077 -0.13262478 -0.0714286 -0.00813189 0.08806146 -0.024172416 0.048043747 0.049600378
0.03627529 0.04412649 0.03329028 -0.060646385 -0.03288252 -0.074755065 -0.089362286 -0.008675288
0.07392157 0.04297087 -0.013069604 -0.0061930697 -0.008327759 0.05728913 -0.055908166 -0.03882852
-0.03902787 -0.029955657 0.04550198 0.052758295 0.10774914 0.038962122 -0.09419869 -0.05153883
0.024350494 0.057862654 0.041861117 -0.019435465 -0.035646416 -0.008221149 0.06680765 -0.07660683
0.003204258 -0.008691153 0.017686123 0.09217989 0.0005183399 -0.0021847687 -0.019906558 -0.06475232
-0.029279148 -0.0035935806 -0.081810385 0.029001106 -0.07739939 -0.06756482 -0.051483717 -0.04936946
-0.042221103 -0.050210945 -0.007306348 -0.10760461 -0.009358071 0.008639326 0.019633524 0.15748253
0.13540083 0.011411018 -0.0045598126 0.033443872 0.0035449907 0.069472305 0.049793474 0.109071925
-0.028942848 -0.06434963 -0.045726627 -0.020618191 -0.029942071 0.010857281 -0.061576083 0.027562408
-0.04740502 -0.08692944 0.003415121 0.043973017 0.006760308 -0.021299006 -0.038858436 0.06217473
0.027295858 0.073825546 0.092010684 0.13435556 0.11373862 0.010109513 0.07076465 0.0008117868
-0.033809274 -0.081703894 0.0022864982 -0.060545143 0.09083771 0.0757825 -0.052263796 -0.075124994
-0.012743928 -0.03102002 0.036394898 -0.025978321 -0.022080092 -0.11784062 -0.083793454 0.02518256
0.14085111 0.08697239 -0.09338248 -0.06846386 -0.06301032 -0.044830278 0.020336848 0.038141113
-0.086978815 -0.054505568 -0.02769001 -0.03330161 -0.0295388 -0.0035945987 0.20623662 0.10111489
0.17590478 -0.07142299 -0.023240898 -0.0542319 0.016988583 0.048414454 0.041216552 0.17587316
0.18691464 0.13434592 0.05170082 -0.04958014 -0.058536775 -0.023855938 0.01197115 -0.047973957
-0.072535135 -0.032156248 -0.10160825 0.10467173 0.13097025 0.057986364 0.18558253 0.08300556
0.08610367 0.049284205 0.08986251 -0.0029038996 -0.060927447 -0.025487429 0.00078773696 0.022468649
0.030582769 -0.02278963 -0.0538554 -0.034152005 -0.0161866 0.009739758 -0.011071367 -0.013865103
0.050430734 0.02017715 0.0045985878 -0.005642481 0.027824827 0.13106015 0.15866461 0.09940785
0.1317704 -0.056614663 -0.04290024 -0.09558591 -0.06484925 -0.038846154 -0.01696763 0.005565332

features.10.bias f4 [64]
00000000: a7d3 913d ff9a 97bd 1c61 b73d c1e0 2fbd
00000010: 5d62 59bd bbbc b33d 65dc c13d 6ae5 25bd
00000020: a1b4 943d e8cd 873b 7a62 cfbb b605 8abc
00000030: a968 0fbd 82a3 cfbc b32c 93bd 7cc0 793d
00000040: 0cb0 903d 5c31 c23d cdf5 b6bd 3dd4 f03d
00000050: 9e21 ce3c 4781 193d c1bb 0bbd fa4e 983d
00000060: 70ab 3a3d e660 9d3d 3f92 c1bd 280d 733c
00000070: 4cab 313c f50f aebd 7c52 cc3d c432 a73d
00000080: 0d30 d0bd 852b b0bd b4e6 123c 0f99 c13d
00000090: 3177 ff3c 4646 033d 6dc5 dabc 6fa0 ddbd
000000a0: b6f1 bb3d 25bc 433d 33f3 8bbd c241 763c
000000b0: 6442 ac3d 6829 08bd 9b9e 6cbd 0d62 903d
000000c0: 22b6 4d3d c5a3 a63d c9be d8bc 0b1a 9e3c
000000d0: 8cc7 2d3c 98d2 9d3d af87 a23d 954d 183d
000000e0: fe0a e8bc 3148 2ebb 68d8 91bd df6f 423d
000000f0: aa16 943d 3522 46bd 24d1 86bd e5f8 9e3d
0.071204476 -0.0740261 0.08954069 -0.04293895 -0.053072322 0.08776232 0.09465865 -0.04050199
0.07261015 0.004144419 -0.006328878 -0.016848426 -0.03501192 -0.025346521 -0.0718626 0.060974583
0.07064828 0.09482071 -0.089336015 0.11759231 0.025162514 0.037476804 -0.034114603 0.074369386
0.04557365 0.076844975 -0.09451722 0.01483468 0.010844063 -0.08499137 0.0997667 0.0816398
-0.10165415 -0.08602051 0.008966137 0.09453022 0.031184765 0.03204944 -0.026705468 -0.10821616
0.09176962 0.04778685 -0.06833496 0.015030326 0.084111005 -0.033242613 -0.057768445 0.07049952
0.050222524 0.08136705 -0.026458161 0.019299528 0.010606658 0.07706183 0.07936036 0.037183363
-0.028325554 -0.0026593322 -0.07121354 0.04746997 0.07230885 -0.048372466 -0.06582859 0.077623166

features.11.weight f4 [64]
00000000: d7a3 7f3f 82b0 773f e26f 883f 7d55 853f
00000010: 9fcc 7f3f 1223 893f a24d 853f c93a 883f
00000020: e45e 803f f2e6 833f a8e9 803f 7e99 833f
00000030: 0e3f 8a3f 93d9 7a3f 1019 793f feb2 833f
00000040: 15da 893f 830d 893f 1417 7d3f 73cb 783f
00000050: 94d3 873f 3edf 7a3f 3063 833f 1de8 853f
00000060: 8f3e 803f ef84 883f 0cc1 833f aa3a 7b3f
00000070: f4a3 8c3f 48b8 7c3f d4dd 7f3f 52c1 7d3f
00000080: e49a 813f 85ee 813f 056c 7e3f 17ab 883f
00000090: 7acd 803f 3b9c 7f3f 069e 803f 2a16 7e3f
000000a0: 2a01 863f 30df 8b3f 4cb8 813f d36f 8c3f
000000b0: 106c 8d3f 5df7 7d3f f2af 7b3f 4e98 843f
000000c0: 8158 843f 7b5d 853f 89f1 8a3f bf0b 773f
000000d0: 5a51 873f 2b2f 7f3f 6105 7f3f 2a71 8e3f
000000e0: 4162 7b3f 25d9 7c3f 4bd9 813f 6811 7c3f
000000f0: 95af 8d3f dbaf 783f daac 7b3f f9b2 763f
0.99859375 0.96753705 1.0659144 1.0416714 0.999216 1.0713828 1.0414317 1.064294
1.0028958 1.0304854 1.0071306 1.0281217 1.0800493 0.9798824 0.9730387 1.0288999
1.0769678 1.0707248 0.9886334 0.9718544 1.0611444 0.9799689 1.0264645 1.046146
1.0019091 1.0665568 1.0293288 0.9813639 1.0987535 0.9871869 0.9994786 0.9912311
1.0125394 1.0150915 0.99383575 1.0677212 1.0062706 0.99847764 1.0048225 0.9925257
1.0469105 1.0927486 1.0134368 1.0971626 1.1048603 0.9920557 0.98315346 1.035898
1.0339509 1.0419153 1.0854961 0.965023 1.0571702 0.9968135 0.9961758 1.1128285
0.981968 0.98768836 1.0144438 0.9846406 1.1069208 0.97143334 0.98310626 0.9636684

features.11.bias f4 [64]
00000000: 73b3 69bd 31ee aabd de1e 443d 1b40 2a3d
00000010: e1fc adbd 353a 863d 2b98 313d fa5f 34bc
00000020: 6c19 8dbd ee83 cbbc 3880 9cbd a41c dfbc
00000030: 4213 783d 858c b4bd 0d8a 9cbd 1c87 073d
00000040: d363 ac3d 10f1 863d 2975 40bd 5610 b7bd
00000050: 2303 9e3d eab2 a9bd 8ac3 5e3d fa53 9ebc
00000060: ea4d 893c f30a 4b3d da69 8c3d 9ac9 1a3d
00000070: 6a21 ee3d 1012 89bd 14e4 f03c 6e2d 69bd
00000080: b0a4 293c ad50 64bd 4832 6dbd e61f 843d
00000090: eeb5 6bbd a613 89bd 6f66 ecbc c119 9bbd
000000a0: 63d6 2a3d f877 bc3d 8d87 4abb 2a60 a73d
000000b0: 84ee c23d 9d54 83bd 1248 a33c d0af 853d
000000c0: db12 39bd c7d2 733d 3238 d53d 92cd a6bd
000000d0: 9c3f 4e3d 492e acbc c460 75bd e959 d73d
000000e0: 9c26 6fbd 9579 c4bd d381 51bd c957 9abd
000000f0: 1cd6 94bc 4cfa abbd 2859 9cbd b100 aabd
-0.0570559 -0.08346213 0.047881 0.041565042 -0.084954984 0.06554071 0.04335801 -0.011009211
-0.068896145 -0.024843182 -0.07641643 -0.027235337 0.06056524 -0.088158645 -0.076435186 0.033087835
0.084174775 0.06588948 -0.046986733 -0.08938663 0.07715442 -0.08286078 0.0543857 -0.019327153
0.016760785 0.04957099 0.06856127 0.03778992 0.11627467 -0.06692898 0.029405631 -0.05692809
0.010354206 -0.055741 -0.05790928 0.06451397 -0.05754655 -0.06693201 -0.028857438 -0.075732715
0.04170836 0.0920257 -0.0030903548 0.08172639 0.095181495 -0.06412623 0.019931827 0.06527674
-0.045183998 0.059527185 0.10411109 -0.08144678 0.05035363 -0.021018164 -0.059906736 0.10515196
-0.05838643 -0.095935024 -0.0511492 -0.07536275 -0.018168502 -0.0839735 -0.07634193 -0.08300913

features.11.running_mean f4 [64]
00000000: db35 353e 8e25 f3bd 6b84 463f 0c09 933e
00000010: 6472 81be f224 293f 756f 013f f9be 373e
00000020: 10f1 06be fd95 273d 4d91 0abe ca83 1bbd
00000030: 3915 043f df43 8dbc a040 6bbe 853a e8bd
00000040: 4da4 b43e 9287 093f d6aa 1cbe 0625 c83c
00000050: b3d8 bf3e e2a0 27be c962 073f 4e8c 973e
00000060: 7bbd 49be c447 883e 1bd2 6e3d 0a34 593e
00000070: bf19 233e 7426 28be 4a5f 153f 3bdf 34bd
00000080: 51eb bc3d 1b72 73be bbdc 683d 4f9e 203f
00000090: 9877 043e 4aba 003e 6b9e 52be cfa1 7fbe
000000a0: 7881 fa3e c101 e23e 4366 8e3c e81b 1f3f
000000b0: 17e5 bd3e d6d7 0f3d 7522 2c3e ee9d 6f3e
000000c0: e02a 373e 913b ec3e bba5 213f e23a 1ebe
000000d0: 8ebe b83e a3d6 473e 99aa cfbd 3c8c 383f
000000e0: 4f65 20be 9755 0a3e 4064 e0be ea0f 6bbe
000000f0: 2e3c 473f 3086 41be 77a2 79be 525b cbbd
0.17696325 -0.11872397 0.77545804 0.2871784 -0.25282586 0.66072 0.50560695 0.17943944
-0.13177896 0.040914524 -0.1353199 -0.03796748 0.51594883 -0.017244278 -0.22973871 -0.11339287
0.35281602 0.5372249 -0.15299544 0.024431717 0.37470016 -0.16369966 0.5288511 0.2959923
-0.19701187 0.26617253 0.05830584 0.21211258 0.1592779 -0.16420919 0.58348525 -0.0441582
0.092245705 -0.23773997 0.05685113 0.6274156 0.12936246 0.12571064 -0.20568244 -0.24964069
0.48926902 0.44141963 0.017382747 0.62151957 0.37088844 0.035117947 0.1681002 0.23400089
0.1788745 0.46139196 0.6314351 -0.1545215 0.36082882 0.19515471 -0.10139961 0.7208898
-0.15663646 0.13509212 -0.43826485 -0.2295529 0.778262 -0.18898845 -0.24378382 -0.09929527

features.11.running_var f4 [64]
00000000: 44ed fa3e ef5a c73e d659 cd3e d954 b33e
00000010: c100 103f 5502 883e 3332 183f dcd5 583f
00000020: dd62 073f c2da 293f 4dcb 123f 2db2 323f
00000030: 9fcd ac3e 5600 d03e 286d b63e 8d85 d43e
00000040: 3a0b ce3e b065 b73e a7da 033f c295 033f
00000050: b10b 993e 1170 f13e cb9b b33e c892 353f
00000060: 2644 133f ef12 cd3e 842b d73e a81a ac3e
00000070: e575 fc3e 7202 093f de96 bf3e 0075 da3e
00000080: 86b3 213f 1706 143f e787 0c3f 7c91 d73e
00000090: 09cf fe3e 00d6 033f aacb e43e 612c 023f
000000a0: dea9 f73e 00d1 b23e eab2 b13e 89aa c53e
000000b0: 6623 093f 72fa 083f e7d5 043f 00fb ce3e
000000c0: d75c 1d3f 1d81 e63e c3bc 783e f58b 073f
000000d0: 67fd 003f c00c d83e 733d 0a3f b0f4 a63e
000000e0: bd2d fa3e 54b4 193f 6e21 da3e 23a7 193f
000000f0: e876 743f 6a3a d73e e8d6 fc3e 4c8d ea3e
0.49009144 0.38936564 0.40107602 0.3502567 0.5625115 0.2656428 0.594516 0.84701324
0.5288523 0.6634942 0.5734146 0.69803125 0.33750626 0.40625256 0.35630155 0.4150814
0.4024294 0.3581977 0.5150551 0.5140039 0.29891732 0.47155812 0.35079798 0.70927095
0.5752586 0.40053508 0.42025387 0.33614087 0.49308696 0.53519356 0.3741979 0.4266739
0.63164556 0.5782179 0.5489487 0.42103183 0.4976733 0.51498413 0.44686633 0.50848967
0.48371786 0.3492508 0.34706813 0.3860667 0.5356964 0.5350715 0.5188889 0.40425873
0.6146979 0.4502038 0.24290757 0.5294793 0.5038666 0.42197227 0.54000014 0.32608557
0.4886302 0.60040784 0.4260363 0.60020655 0.95493937 0.42036754 0.4938271 0.45810926

embedding_layer.0.weight f4 [16, 64]
00000000: 9ce4 5e3d 29d4 e7bc e23f ef3c 6bf9 49be
00000010: c794 dcbc cabf 12be 1a93 a6bd e19e cabd
00000020: a926 ba3d 3ff4 15be 8df3 cd3c 1f1a 32be
00000030: 75bf 10be 2f38 173d 29b3 e43d 64d8 b6ba
00000040: e0aa 37be 9c16 b8bb c50d 453c 8673 193d
00000050: b245 01be 9e6f 033e 945a 783d 451e 4dbe
00000060: 5c33 11bd 4419 c23a 5975 febc 6d98 90bd
00000070: 9ec1 f8bd 31c3 82bd 316b 0dbe f0b4 ec3c
00000080: 4164 08be c698 bc3d 5124 8dbc ffee 063d
00000090: 0a4e 4abc ca64 0a3e ced5 e3bc 67d2 5a3d
000000a0: cf51 b3bd 6d12 21bd 7070 d63d 3217 da3c
000000b0: 809a 10be 084d 253e b4a0 c63d 247b 36be
000000c0: ee30 d93d 2de8 c3bd 8e5e 493c be62 f53d
000000d0: 32a8 f8bc 3446 03be 746f b0bc 32be 5cbd
000000e0: 3c62 ae3c afe5 bcbc 9bce b03c dd8b a13d
000000f0: 2c62 19be 8b03 be3d be8d 5dbd 4087 923d
00000100: b4de aa3d 841a acbc 946a 1a3d e8a0 f93c
00000110: 8465 d5bc 8583 d5bd f9d8 1a3d d55f 45be
00000120: 0748 9e3d abf6 1cbd 4b2e 1cbd 46ba a6bd
00000130: 11a7 083c 5ec6 ba3d 45c0 cc3d a370 1cbe
00000140: be67 debd f2db 923c 0be8 243e dd98 153e
00000150: eb36 16bc f707 113e 8dbe 33bd 021a fdbd
00000160: 5df1 fdbd 0dff cfbd df93 d2bd 3bda 21be
00000170: c8e2 2ebd 438c 833d 9ad7 553d bbef e83d
00000180: 7a5c 2fbe c276 b03b ea9d 043e a743 f6bd
00000190: 62b7 113e 79f7 8c3d cf2d acbd 9a91 893d
000001a0: 7a37 9cbc 1f6c 9fbc 0fff 86bc a4ae 1f3d
000001b0: 5f58 0e3d 8dcd 0e3e 08f0 343c b3ee 1cbe
000001c0: 4927 2b3e 8292 37bc 52cc b73d 7a73 6d3d
000001d0: 6c54 23bc 7375 f3bb 4cc8 dd3d 3d1a d3bd
000001e0: fac6 533d 9210 5b3d 862f 073e 7620 943d
000001f0: 721d 2fbe a3bd 0c3e 97e1 0d3e 6744 cc3d
00000200: 8dc7 56bd 4be4 acbd 1b22 9d3a 3893 ff3d
00000210: 7ad5 bebd 3aee 49bd 95d5 4b3d e00d 43be
00000220: 107b 34bc 9a48 8dbd 9c79 0bbd 8364 d2bd
00000230: 0c34 2f3e 5208 0ebe 84bb 00bc 817f 163c
00000240: 29f7 f3ba cb15 243e d011 36bd b528 07be
00000250: cbce 9cbd d366 aebb 1a8c 1e3e 0965 8cbd
00000260: 5707 9a3d e270 47bd e741 063e 5c55 c7bc
00000270: 7606 833d 9304 ad3c 527d 093e 52fc 7b3c
00000280: fb62 093d 183e 973d a384 9bbd 9d46 8a3d
00000290: 8ed1 b5bc 400c 18be 9870 34bd 5073 ffbd
000002a0: 1b7b d03d b1fd bebc f720 39be 540a c13d
000002b0: 9339 313e 462e 1abe 3094 41bb bb04 5d3d
000002c0: 4fab 16be eba9 fa3d 0232 493e 653f 1f3c
000002d0: 4f59 4d3d 8ba0 e1bd 3cf8 0ebe a7f0 ac3d
000002e0: 56b8 a4bd 9195 bcbd 4560 febc 82db bcbd
000002f0: e9f4 5abb 8425 e4bd 5d89 a3bd 1373 1bbd
00000300: 7df6 d63c 5939 a7bd e037 0a3d d5f5 aa3d
00000310: 5da9 51bd 1bd5 4f3d adc0 fa3d b691 e03c
00000320: 9364 00bc c53e 6f3d ad5c 76bd b0f1 89bd
00000330: f64b 153e 9bc0 c73c eff5 ae3d 15fe 463d
00000340: 618c 4c3e 5938 203e 8553 0fbd f2de 24bd
00000350: d91e bf3d 439b a3bd 5e1e 82bc 8023 8f3d
00000360: c37d 063e b669 103e 8db5 df3c d070 c23d
00000370: f926 553d f057 46bd 8925 d13d b629 babb
00000380: 78d7 453d 7e41 29bd d1e2 c8bd eda4 9b3d
00000390: 24d3 f63c fdf7 083d 90a2 8a3d 67ec 13bd
000003a0: 98e3 103e 9460 023e 83f1 493d 6b02 d43d
000003b0: 32f2 c53d 78d3 b2bb a073 e33c 8cd2 e93d
000003c0: d524 32bd 8c6b 113c 4d6d fb3d 21a4 82bd
000003d0: 6a15 1b3e 2405 0f3e 37e9 fb3b 4ccf bf3d
000003e0: a272 d7b8 5829 0c3d c7d6 f0bd 9a6d 93bc
000003f0: 1bc4 8abd 8b5b a3bd 1ee2 8ebd ae81 74bd
0.054417238 -0.028299408 0.029205266 -0.19724052 -0.026926411 -0.14330974 -0.08133526 -0.09893585
0.09089405 -0.14643954 0.025140548 -0.17392777 -0.14135535 0.036918815 0.111669846 -0.0013949987
-0.17936277 -0.0056179296 0.012027209 0.037463687 -0.12624243 0.12835547 0.060633257 -0.20031078
-0.03544937 0.0014808555 -0.031061815 -0.07060323 -0.121463045 -0.06384886 -0.13810422 0.028894871
-0.13319494 0.09208827 -0.017229231 0.03294277 -0.0123477075 0.1351501 -0.027811911 0.05342331
-0.08755838 -0.039324213 0.104706645 0.026622389 -0.14121437 0.16142666 0.096986204 -0.17820412
0.10605036 -0.095657684 0.01229061 0.11981724 -0.03035364 -0.12819749 -0.02153752 -0.053892322
0.021287076 -0.02305874 0.021582892 0.07888005 -0.14978856 0.092780195 -0.054090254 0.07154703
0.083432585 -0.021008737 0.037699297 0.030472234 -0.026049383 -0.10425476 0.037804577 -0.19274838
0.07728582 -0.03832118 -0.038130086 -0.081409976 0.008340613 0.09119867 0.0999761 -0.15277342
-0.10859631 0.017927144 0.16104142 0.14609094 -0.009168367 0.14163195 -0.043882895 -0.12358476
-0.12399552 -0.10156069 -0.102821104 -0.15805905 -0.042696744 0.06423237 0.052207567 0.1137385
-0.17125121 0.005385251 0.12950864 -0.120246224 0.14230111 0.06883139 -0.08407175 0.067172244
-0.019069422 -0.019460736 -0.016479043 0.03898491 0.034752246 0.13945599 0.011043556 -0.15325432
0.16714205 -0.011204364 0.08974518 0.057971455 -0.009968858 -0.0074297725 0.10829219 -0.10307739
0.05170343 0.0534826 0.13201723 0.07232754 -0.17101076 0.13744216 0.13855587 0.09973984
-0.0524364 -0.08441981 0.0011988314 0.124792516 -0.09318061 -0.049299456 0.049764235 -0.19048262
-0.0110156685 -0.06898613 -0.034051523 -0.10273077 0.17109698 -0.13870361 -0.007857207 0.009185673
-0.0018613088 0.16023938 -0.04445058 -0.13199122 -0.0765663 -0.005322316 0.15483132 -0.068552084
0.07520931 -0.048691638 0.13111077 -0.024332695 0.06397717 0.021120345 0.13426712 0.015379982
0.03354166 0.0738489 -0.07593658 0.0675175 -0.02219465 -0.14848423 -0.04405269 -0.12473166
0.101797305 -0.023314329 -0.18078981 0.09425798 0.17307119 -0.15056714 -0.002953779 0.05395959
-0.14713787 0.122394405 0.19647983 0.009719704 0.050134 -0.11016949 -0.13961881 0.08444338
-0.08042972 -0.09208215 -0.031051764 -0.09221555 -0.0033410138 -0.11139968 -0.07985184 -0.03795154
0.026240582 -0.08165235 0.033744693 0.0834767 -0.051186908 0.050740343 0.12243781 0.02741323
-0.007836479 0.05840947 -0.060146976 -0.06735551 0.14579758 0.024383834 0.08543002 0.048582155
0.19975425 0.15646495 -0.03499176 -0.04025168 0.093320556 -0.07988598 -0.01588362 0.06989193
0.13133912 0.14102826 0.02730825 0.094941735 0.05203912 -0.048423707 0.102122374 -0.005681242
0.04830119 -0.041322224 -0.09808887 0.075998165 0.030129977 0.033439625 0.067692876 -0.036114123
0.1414932 0.12732154 0.04930259 0.10352024 0.09665336 -0.005457338 0.027765095 0.11417112
-0.043492157 0.008875739 0.12276707 -0.06378961 0.15144888 0.13966805 0.0076877135 0.093657106
-0.00010273351 0.034219116 -0.117597155 -0.017996598 -0.067756854 -0.07976445 -0.06976722 -0.059693985

embedding_layer.0.bias f4 [16]
00000000: 8234 0dbd 6a6a 4fbd 3a5a 36bd d8bf 063e
00000010: c466 353d a919 c7bd 0024 f33c 7eb2 ec3d
00000020: 4e96 2a3e 09e3 273e 910b 793d fa67 9b3d
00000030: ddc7 3b3d 4cc0 643d caa0 f7bd d434 d2bd
-0.034473903 -0.050638594 -0.04451964 0.1315912 0.044287458 -0.09721691 0.029680252 0.11557482
0.16658899 0.16395201 0.060802046 0.07588191 0.0458449 0.05584745 -0.12091215 -0.102639824

classifier.weight f4 [2, 16]
00000000: 7a18 86be 15a7 5bbe aa24 273e 3070 6e3e
00000010: 8d3c a5bd da96 b43d df73 abbd c668 9e3e
00000020: f7d4 813e 9b89 733e 3ad7 053e e58e 3fbd
00000030: afe8 af3e 2785 81be fed4 3bbe 2d06 63be
00000040: 88ce 833c b0b4 3c3e 75b6 d1bd 80ce 90be
00000050: e9ab 913e 0a37 a23e b648 283e cae4 aebe
00000060: 22e6 533d 5013 60bc b45a 7abd 8f39 a5be
00000070: 2233 d33d d938 58bd c526 3ebe f87a 863e
-0.2619055 -0.21450455 0.1632258 0.23284984 -0.0806819 0.08817835 -0.0837171 0.3093931
0.25357792 0.23782961 0.13070384 -0.046767134 0.3435721 -0.252969 -0.18342969 -0.22170325
0.016089693 0.18428302 -0.10239879 -0.28282547 0.2845147 0.31682616 0.16433987 -0.34158927
0.051733144 -0.013676479 -0.061121657 -0.32270476 0.10312487 -0.05278859 -0.18569477 0.26265693

classifier.bias f4 [2]
00000000: 82c8 183e 27e3 943c
0.14920238 0.01817472
