o02_test/run_outputs/31Bcnn_train_weights.pth (torch, 48171 bytes, 22 tensors)

features.0.weight f4 [16, 6, 5]
00000000: c4b6 bb3f 1662 003f 2bfd f8be 6df2 a4bf
00000010: 2245 08c0 8434 513e 78ac 8d3b 3f38 a33e
00000020: af58 2a3e 1679 8dbe 2fe3 993e e3d1 20bd
00000030: 3bad 323e dc9e 5c3d f96e 823d bd83 a8bb
00000040: 6acb 303c 88c5 9d3b 8948 b53c 1dc6 653d
00000050: 7220 1abe 7839 303d 25bd 2abd 42fc e83d
00000060: d4e8 b3ba 0422 b7be fea5 edbc fa70 63bc
00000070: 1c7d 803d 41af ecbe d406 19c0 49a2 30c0
00000080: 1625 d2bf 044d 93be 1846 7b3f ddfc e33e
00000090: 2b98 5f3e ec5f 103f 79d4 cd3e 87aa 603f
000000a0: 0aa4 473f b374 473f c814 453f b011 713f
000000b0: 6d66 7f3f 5ffe b0bd ea53 dd3d 9d0e 93bd
000000c0: 7aff b43c c163 ab3b efb0 dc3b 9772 bcbd
000000d0: ab13 fabd 4f69 7a3e 88ba 8eba 6a8b 5ebd
000000e0: 79a9 ff3c 8660 e9bc 8e98 113e 2f76 2fbe
000000f0: afdb 4ac0 ed92 51c0 ed07 1cc0 b6ee eabf
00000100: 1093 88bf 410c cc3e 5cec cc3e c155 f2be
00000110: 398f 1cbf 5829 80bf b21b 60be 3a5c dcbd
00000120: 827f 4f3e 7d32 183f eca5 5c3f 00f8 9b3c
00000130: f92f 7ebc 59a5 6e3d db6b 65bd 3bf8 0b3e
00000140: b61b 2cbe 8e3e 00be 6d17 253e 037f 76bd
00000150: ca00 2a3c 2fd5 07be 2d9f 9b3d 1ac0 debd
00000160: 47e7 91bd 143d 7f3d b046 5040 3adc 1540
00000170: c053 9f3f aae8 e63c 689c 48bf eef5 56bf
00000180: 8c76 f7bd 0ec4 8ebd 28c5 ba3e a3ce f63e
00000190: 8ef8 773e 087b 4a3d 774b 38be c926 babe
000001a0: c68b 21bf 7370 e4ba e82e 58bd ae06 983c
000001b0: 5170 1abd c966 c7bd 4123 393d 1e3a ecbd
000001c0: 3f2a ceba 1f41 37be cf15 e2bd 8205 25be
000001d0: 9ff7 e5bd 1ced 9bbe b4ed 45be cf0e efbb
000001e0: d32b 8b3e 80f9 7f3f c1ae ea3f ef67 0340
000001f0: ea08 0c40 88f9 8e3f b31a 563f 94c3 c93e
00000200: 61a6 3a3d aa9e c8be c0ee 243e b9e6 ca3d
00000210: 3fbd 9cbe e5dd 35be 4542 72be 16ba 9cbc
00000220: a5a7 123d e6b1 1abc 9a2c 313d 8257 da3c
00000230: 22da 4bbe 1853 88be 312f 96bd 7716 60be
00000240: 3d46 06be e7e0 a43d 4bbd dd3d aea5 f63d
00000250: 4718 1a3e 8e9b 61bd 0d05 aebf dfcf 183e
00000260: 7549 433d a8c5 2b3c 55c8 673f 884a 943e
00000270: 380c 1b3e 20ff a83d 4748 1c3f 6a15 133f
00000280: 13e1 39bf e41b 51bf 967e efbe 2a1c 61bf
00000290: 8e77 7cbf 8d07 293d 1927 84bd 56ae e03c
000002a0: 82a6 483c 228f 03ba b0ab 20be 2370 083e
000002b0: 5815 4e3e 32a3 febd c624 26bd 2a2b 49bd
000002c0: 4c19 ccbd 2fd6 263e bd60 213e d2b7 74be
000002d0: 6278 c73f 9ed9 6c3f ccb9 c6bc 692e 9ebf
000002e0: 5abd f9bf 39e6 af3e d5e0 de3e addc bd3e
000002f0: a81a 803c 16f5 8ebd 8ce5 513e 2cc4 b43d
00000300: 7dee 563e 9feb 803e d1c6 be3d 11ed 643b
00000310: 7980 a1bc f45b 333c 5d1c e23c 9ae7 233c
00000320: 606b 50be e4b1 82bd 56f3 0a3d 59da 1f3d
00000330: 3a0a b43d ceb2 9fbe 1a18 b5bd d5c1 f8bd
00000340: 5d07 85bd ca97 adbe 60bc 0940 cad6 f03f
00000350: 45d3 423f 2851 99be be0c 94bf 5ce4 ff3f
00000360: 59de e63f bff2 883f b420 353f ffb4 e03d
00000370: 277e a8bf 326b abbf 68d5 a8bf d66f 7ebf
00000380: 9c2a 95bf 4b69 023e 14a0 c43d 12c3 8a3d
00000390: 1d19 82bd 134f 04be d659 9dbe 83d2 9c3b
000003a0: a289 c23d 95e8 0a3e 3aa2 273d 5e2f 493d
000003b0: 1c4d ed3b a930 34bd 8459 e83c 30c9 143c
000003c0: 68cc 5c3e 8a36 173f e105 8b3f a9e7 8f3f
000003d0: 60e4 ab3f 08e2 03c0 bb55 1bc0 c3fb d5bf
000003e0: a4af febf 276d dcbf e823 b13f ac04 b63f
000003f0: 4189 ae3f 8527 a13f 134a 9c3f d15d a3bd
1.4665151 0.5014967 -0.48630652 -1.2886482 -2.1292195 0.2043019 0.0043235384 0.3187885
0.16635393 -0.27631444 0.3005614 -0.039262664 0.17448895 0.053862438 0.063688226 -0.0051426576
0.010790685 0.0048148073 0.022129314 0.05609714 -0.1505144 0.043023556 -0.04168429 0.11376239
-0.0013726004 -0.3576814 -0.029009815 -0.013881916 0.06273863 -0.46227458 -2.3910418 -2.759905
-1.6417568 -0.28769696 0.9815383 0.44528857 0.21835391 0.56396365 0.40201166 0.87760204
0.7798468 0.77912444 0.76984835 0.94167614 0.99765664 -0.086422674 0.10807021 -0.07180522
0.022094477 0.0052303975 0.0067349593 -0.09201544 -0.122107826 0.24454235 -0.0010889331 -0.054332174
0.03120874 -0.028488409 0.14218351 -0.17134927 -3.1696584 -3.2745926 -2.4379838 -1.8354099
-1.066988 0.398531 0.40024078 -0.4733105 -0.6115604 -1.0012617 -0.21885565 -0.10759778
0.20263484 0.5945204 0.86190677 0.019039154 -0.015514367 0.058263157 -0.056011062 0.13668911
-0.16807446 -0.12523863 0.16122217 -0.06017972 0.010376165 -0.13264917 0.0759872 -0.10876484
-0.07124191 0.062314108 3.2543144 2.3415666 1.2447433 0.028187115 -0.78363657 -0.8396901
-0.12083158 -0.06970988 0.36478543 0.48204526 0.2421591 0.049433738 -0.17997538 -0.36357716
-0.631039 -0.0017428532 -0.05277911 0.018557873 -0.03770477 -0.097364016 0.045199636 -0.115345225
-0.0015729143 -0.17895935 -0.11039316 -0.16115382 -0.112288706 -0.30454338 -0.19328958 -0.0072954665
0.27181873 0.9999008 1.8334581 2.0532186 2.188044 1.1169901 0.8363449 0.39407027
0.045568828 -0.3918355 0.16106701 0.09907288 -0.30613133 -0.17760427 -0.23658092 -0.019131701
0.03580441 -0.009441828 0.043255426 0.026653055 -0.1990743 -0.26625896 -0.0733322 -0.2188357
-0.13112731 0.08050709 0.108271204 0.1204332 0.15048324 -0.05507999 -1.3595291 0.14923047
0.047677476 0.010484137 0.9054006 0.28963113 0.1514138 0.08251786 0.61047786 0.5745455
-0.7260906 -0.8168318 -0.46776265 -0.879336 -0.98619926 0.041266967 -0.0645277 0.02742688
0.01224673 -0.0005018582 -0.15690494 0.13324027 0.2012533 -0.12433471 -0.040562414 -0.04911343
-0.099657625 0.16292642 0.15759559 -0.23898247 1.5583613 0.9251956 -0.024258517 -1.2357913
-1.951091 0.34355333 0.43530908 0.37082425 0.01563771 -0.0698034 0.20497721 0.08826479
0.20989414 0.25179765 0.09315265 0.0034931342 -0.01971458 0.010947216 0.027601415 0.010003949
-0.2035346 -0.06381586 0.03392347 0.039026592 0.08791013 -0.31191105 -0.08842488 -0.121463455
-0.06495545 -0.33904868 2.1521225 1.8815548 0.7610362 -0.2994473 -1.1566389 1.9991565
1.8036605 1.069908 0.70753026 0.10972022 -1.3163499 -1.3392088 -1.3190126 -0.993894
-1.1653628 0.12735479 0.09600845 0.06775488 -0.06352446 -0.1292079 -0.30732602 0.004785837
0.094989076 0.13565286 0.040926196 0.04911744 0.007241858 -0.04399172 0.028362997 0.00908117
0.2156235 0.59067595 1.0861169 1.1242572 1.342907 -2.0606709 -2.4271076 -1.6717457
-1.9897351 -1.7220811 1.3839083 1.4220176 1.3635637 1.2590185 1.2210106 -0.079768784

features.0.bias f4 [16]
00000000: 5390 b73d e071 ed3c ee05 c2bd eb2f 9dbd
00000010: 4b72 99bd f871 c3bd c9e7 453d d93c 95bd
00000020: 572b 973d 72fe 1b3e ffa3 3bbc 5ee4 a93d
00000030: 315c 6c3d 411b 3b3d 0c3b 4bbc 0bca b13c
0.089630745 0.028984964 -0.09473787 -0.07675155 -0.07492503 -0.09543222 0.04831675 -0.072869964
0.07381313 0.15233782 -0.011452674 0.08295511 0.057705108 0.04568029 -0.012404215 0.021702787

features.1.weight f4 [16]
00000000: 4692 5a3f aee9 5a3f d421 4e3f 927d 663f
00000010: 726e 463f 5e59 663f f18a 5e3f 7dba 423f
00000020: 4778 423f 2263 553f 32e8 5d3f 9dcc 3d3f
00000030: f545 4a3f 3c6b 4f3f 8dbf 503f fa61 463f
0.85379446 0.85512817 0.8052037 0.90035355 0.77512276 0.89980114 0.8693076 0.7606581
0.7596478 0.8335439 0.86682427 0.7414034 0.79012996 0.81023 0.81542283 0.7749325

features.1.bias f4 [16]
00000000: 31a8 3cbe aa37 c4be 7372 30be 3900 41ba
00000010: e1bf e5bb bbe2 c6be a736 a4be 1954 7bbe
00000020: 5dc9 0dbe 1131 03bb ecd8 e5bb 13d2 7cbd
00000030: 649b 71bd a70e b5be c75b 38bb 3fd0 8dbc
-0.18423535 -0.38323718 -0.17231159 -0.0007362399 -0.007011399 -0.38844857 -0.32072946 -0.245438
-0.13846345 -0.002001826 -0.0070143845 -0.06172378 -0.058986083 -0.3536274 -0.0028130875 -0.017311214

features.1.running_mean f4 [16]
00000000: 41f9 2b3e c9b0 013d 1a67 80bd 32a3 5bbc
00000010: bdcf c4bd 8c36 b7bd acf4 0a3e ed81 8bbd
00000020: d82e a63d 32d8 313e e6b3 bf3d 42f9 a43d
00000030: 8e56 ba3d 46f6 233d 7699 b1bb 764a 453d
0.16794302 0.031662736 -0.06269665 -0.013405608 -0.096099354 -0.08945951 0.13569897 -0.06811891
0.081144035 0.17367628 0.09360485 0.08055355 0.0909854 0.040029787 -0.0054199053 0.048166715

features.1.running_var f4 [16]
00000000: 5eb2 6d44 18c4 8f41 ad87 2643 5721 9344
00000010: c412 3744 5aeb 6541 631f a344 3631 5843
00000020: 6b08 ab42 0996 7144 75fa c644 8030 9842
00000030: d65a 3e43 8089 f942 005d 8c44 45e7 a343
950.787 17.970749 166.52998 1177.0419 732.2932 14.369959 1304.9808 216.19223
85.51644 966.3443 1591.8268 76.09473 190.35483 124.768555 1122.9062 327.8068

features.5.weight f4 [32, 16, 3]
00000000: bf31 6e3d 4508 f13d eedf bc3c 69f1 e7bd
00000010: 4730 aabd ff05 c6bd 4c90 c4bd 505f 8dbd
00000020: 16f0 913d a5c2 ec3d 366d acbc 773a dabc
00000030: ca27 43bc b080 70bc 7dba 783d 40fb 81be
00000040: ebd1 0ebe 499f 69be 9c7e c83b 11b2 c0bd
00000050: d342 c53d 333e 32be a578 47be f75a 59be
00000060: 8805 47be 56d7 0bbe 907c 82bd a3bf e53c
00000070: ed05 ed3c 2a22 9ebd eab8 163e 6a2c 8d3d
00000080: be85 da3d 8351 f0bd 0edb cfbd 1ffa aabd
00000090: e4e8 2cbd a0c0 ba3d 846e 283e f7bb f5bb
000000a0: bad4 21be c2b9 993d 88da dfb9 c0b6 4b3e
000000b0: c8be e03d 5448 14be 73e1 96bd 98b3 863c
000000c0: ecfb 43be edf4 73be ffab 05be 72fb 08be
000000d0: 832b 993e 948b 31bd c07e 1d3d 3ecd d03d
000000e0: da31 65bc c83b 333e c77a e03b 0eab 64bc
000000f0: 3643 533d 618e 483d 6914 e6bc 1651 373e
00000100: 5f05 54bd 0c7b 103e 74a9 88be 646b 89be
00000110: f444 68be 7268 d6bd ea57 f5bd 7910 99bd
00000120: 1793 12bd 1381 99bd e788 edbd 646b e43c
00000130: 20c9 b3bb fae1 4a3d 4fa0 12be 61ca 4abe
00000140: f478 27be 6785 aebd 2e0b 56bd 724d ddbb
00000150: ecd5 163d a594 66bd 1554 c03d 335e fe3d
00000160: 94d1 8fbc 5535 aabc cce6 71bc 6aee 753c
00000170: 812d 763d cde9 9cbc fedb d3bc 149f 54bd
00000180: 15c2 d4b8 1959 8a3d 15f2 00bd 9248 51bd
00000190: 8204 c73c 98b1 9dbd ff7d 973c 0367 013b
000001a0: 142c a1bc 2505 f4bd ed01 89be 5b18 7fbe
000001b0: 1cbc e23b c6b9 cfbd f98f d9bd 06be e2bd
000001c0: 3eee 033e 4e27 0d3e b89c 373e d79c 913c
000001d0: 3e39 8abd 01fa 293e a08b 03bd 4ed4 5abd
000001e0: 1a12 0f3e 5243 a1bd 4eea 4ebc 9073 913c
000001f0: b349 72bd 845f 17be e71f 10be b9c0 dbbd
00000200: b24d a3bd c4f2 1a3d 921d 2ebd 082a 313c
00000210: 3f2f 6bbd 6d5e 3bbe c75d cebd d7c3 fcba
00000220: 4fad 323d d4b2 8dbd 53ab 59be 13b3 2ebe
00000230: 1e0b 92be ba96 d2bd 620f 44be b36b 13be
00000240: 3ba5 473d 2411 b6bc 2d41 5f3d 8d9b 443c
00000250: 3efb 49be 4e7b 6dbe b7ff 79bd bbfc e1bd
00000260: 0914 e9bd a6d0 853c 6cea 553e 0fdc 1c3d
00000270: dd9b afbd 3456 b7bd 6967 82bd c588 303d
00000280: f4a7 f7bd 6db4 4ebe 923e 743c 1c13 2c3e
00000290: 6cfc 34bd 5f4e 8dbe 91d1 6abe 5ad6 50be
000002a0: 7909 453e c400 acbc f907 b1bd fe0a ce3c
000002b0: 7bb5 6c3d 7910 543c 8753 9aba fef4 a63d
000002c0: 9087 9c3c d633 04bc 3cb1 99bd 528a 343e
000002d0: 3c8a 843d 177c 4b3c 38c6 1fbe b5f0 94bc
000002e0: 81a4 293e a3c6 0f3c 7c11 f9bd 3ece 5fbd
000002f0: be73 5abd 7394 b3bc b410 3bbe 5f2d 19be
00000300: a99f d6bd 2543 a4bd cd4b c6bd 6de7 0f3e
00000310: c583 8bbc d096 5a3d c2fc 7b3c cd57 b53d
00000320: d9c5 9b3d 9226 de3d a515 75be 8ca8 763d
00000330: 48c2 533d dc0c aebc c15f 45bb 87b1 73be
00000340: 286f 053d 38db c2bd 71d9 03be 0825 29be
00000350: a722 80be 9e23 ab3a 66ad a93d bae4 403d
00000360: 6f7b e4bd d5bc 25be 8d77 19bd 2c09 dcbc
00000370: abc3 0abe 7ffc 45be c1c7 c2bc 6397 21bc
00000380: b36c fcbc 73f4 a93c 7da7 b03d 86e5 053e
00000390: 57de 953d a795 163e e4d5 1d3e a643 8fbe
000003a0: 952f b7be a7be 88be 1ee3 f03c 0293 86bd
000003b0: e5f2 f9bd f297 143d f5ad 0ebc 0f26 8bbc
000003c0: 203b 0cbe a88b 00be b973 a3bc 98ba 5b3e
000003d0: f90f 823d 057a 923e 21d1 1f3d ac40 003e
000003e0: 5cd4 f7bd 7a5b fabd f25d 303b 0451 17be
000003f0: 40dd 0cbe 07f2 44bd d7fd 83bd 1feb cb3c
0.05815291 0.117691554 0.023055997 -0.11325342 -0.083099894 -0.096691124 -0.09597835 -0.06902945
0.07125871 0.11560563 -0.02104817 -0.026639206 -0.011911342 -0.014679119 0.060724724 -0.25387
-0.13947265 -0.22814669 0.0061186086 -0.094089635 0.09631886 -0.1740654 -0.19479616 -0.21226107
-0.19435704 -0.13656363 -0.06371415 0.028045481 0.02893349 -0.0772136 0.14718977 0.06893237
0.106700405 -0.11734297 -0.10149203 -0.08348488 -0.04221429 0.091187716 0.16448408 -0.007499214
-0.15803805 0.075061336 -0.00042696693 0.19893932 0.10973889 -0.14480716 -0.0736722 0.016443059
-0.1913907 -0.238239 -0.13053893 -0.13377169 0.2991601 -0.043346003 0.038450956 0.10195397
-0.013988936 0.17503273 0.0068505737 -0.013956798 0.05157777 0.048963908 -0.028085904 0.17902026
-0.051762935 0.14109439 -0.26691782 -0.26839745 -0.22682554 -0.1046914 -0.11979659 -0.07473845
-0.035784807 -0.07495322 -0.11598378 0.02788324 -0.0054866225 0.049531914 -0.14318965 -0.19803764
-0.16354734 -0.08521538 -0.052256756 -0.006753617 0.036825106 -0.056294102 0.093910374 0.12420311
-0.01755599 -0.020777384 -0.014764499 0.015010456 0.06010199 -0.019154454 -0.025861736 -0.05190952
-0.00010145098 0.06755275 -0.031480867 -0.0510946 0.024294142 -0.07699889 0.018492697 0.0019745238
-0.019674338 -0.11915044 -0.26759282 -0.24911635 0.006919397 -0.10142855 -0.10623164 -0.110714
0.12883851 0.13784525 0.17930877 0.017774982 -0.06749199 0.16599275 -0.03211558 -0.053425126
0.13971749 -0.078741685 -0.012629105 0.0177553 -0.059152316 -0.1478253 -0.1407467 -0.10730118
-0.079738036 0.037829176 -0.04250867 0.010813244 -0.057418104 -0.1829774 -0.1007648 -0.0019284439
0.04362231 -0.069188744 -0.21256761 -0.17060499 -0.28524107 -0.10282655 -0.19146493 -0.14396553
0.04874156 -0.02222497 0.054505516 0.011999977 -0.19724748 -0.23191568 -0.061034884 -0.11034533
-0.113807745 0.016334843 0.20890206 0.0382958 -0.085746504 -0.08951989 -0.0636738 0.043099184
-0.120925814 -0.20186014 0.014907496 0.16804165 -0.04418604 -0.27598855 -0.22931506 -0.20394269
0.19241895 -0.020996459 -0.08644099 0.025151726 0.05779026 0.0129433805 -0.0011774161 0.08152197
0.01910761 -0.008068999 -0.07504508 0.1763089 0.064716786 0.012419722 -0.15602958 -0.018181184
0.1656666 0.008775386 -0.12161538 -0.054640047 -0.053333037 -0.021921372 -0.1826809 -0.14958714
-0.104796715 -0.08020619 -0.096824266 0.14053126 -0.017030606 0.053366482 0.015380086 0.08854637
0.07606096 0.108472005 -0.23934038 0.060219333 0.051698953 -0.021246366 -0.0030116888 -0.2379819
0.03257671 -0.09514469 -0.12875916 -0.16518033 -0.25026438 0.0013056879 0.08285026 0.04709313
-0.111563556 -0.16185315 -0.037467528 -0.026859842 -0.13551204 -0.19334601 -0.02377689 -0.009862754
-0.03081355 0.020746445 0.08625696 0.13075837 0.073177986 0.14705525 0.15413624 -0.279813
-0.3577849 -0.26707956 0.029405173 -0.06571008 -0.122045316 0.03627772 -0.008708467 -0.016985921
-0.1369443 -0.12553275 -0.019952642 0.21457899 0.06350703 0.2860872 0.0390178 0.1252467
-0.12101051 -0.12224479 0.0026911465 -0.14776999 -0.13756275 -0.048082378 -0.064449005 0.024892388

features.5.bias f4 [32]
00000000: affc b9bd d7a4 983d d57a 4bbd 9009 dfbc
00000010: 1c26 b33d 7f14 a2bd a1f5 503d fbb5 2c3e
00000020: 779c 8fbd 700e 3ebe f663 7abe f96a fabd
00000030: 1288 b1bd 5f76 80bc 234d 84bd 747f cd3d
00000040: ba86 193e 8b04 8fbd d212 7cbd 5e68 453e
00000050: 78cc 233d 4ffa adbe 5e21 13be 94fe f73c
00000060: f5d4 10be f3e8 a63d d4cd 49bd 7100 753c
00000070: 5c50 17bd c324 013e 9153 59bd 06d9 80bc
-0.09081399 0.07453316 -0.04967769 -0.02722624 0.08747503 -0.079140656 0.0510155 0.16866295
-0.07012265 -0.18560195 -0.24452195 -0.12227435 -0.086685315 -0.015681444 -0.06460025 0.100340754
0.149928 -0.069832884 -0.061541386 0.19278094 0.03998992 -0.33980033 -0.14368197 0.03027276
-0.14143737 0.081499 -0.04926856 0.0149537185 -0.03694187 0.1261168 -0.05305821 -0.015728485

features.6.weight f4 [32]
00000000: f694 453f 9523 623f 641f 663f 46c6 443f
00000010: 6947 1a3f 600b 343f 476e 513f c273 573f
00000020: d135 413f 100a 543f d291 753f 53d4 363f
00000030: 495b 553f 78cb 683f 5961 523f 4906 5d3f
00000040: f21c 333f ee57 513f 7d32 4b3f e8b1 5b3f
00000050: 35b2 4a3f 48ae 6b3f 859e 5a3f 1394 563f
00000060: a66e 6c3f 752b 253f df9a 4e3f 98ac 443f
00000070: 2d17 4b3f 3f19 573f b264 543f 149b 623f
0.7718042 0.88335544 0.8989165 0.7686504 0.60265213 0.70329857 0.81808895 0.8416101
0.7547274 0.82827854 0.9592563 0.7141773 0.83342415 0.9093547 0.8217979 0.86337715
0.6996604 0.81774795 0.79373914 0.8581834 0.7917817 0.9206281 0.8539813 0.83819693
0.92356336 0.64519435 0.80705065 0.7682586 0.7933224 0.840229 0.8296615 0.8851788

features.6.bias f4 [32]
00000000: d23a acbc 31d6 20be 2975 7cbe 609c 74be
00000010: e2f7 debd 72c3 b5be 882c f7bd 7cb4 29be
00000020: f735 5ebe 4795 1cbe 7d2c ecbd 7e61 90be
00000030: 7a49 9f3c 4f4e bcbd 5882 0dbe b6d5 1bbe
00000040: c956 b4be fc90 47be 288e 81be 7a98 55be
00000050: 0e66 59be ac38 32be 1f01 8abe a152 60be
00000060: e9a7 23bd 0e5c 9dbe a2f6 3dbe d542 4abe
00000070: bd7a 47be e520 9abe 4d67 47bb 471f 8abe
-0.021024141 -0.15706708 -0.24654068 -0.23887777 -0.10887124 -0.35500675 -0.120690405 -0.16572756
-0.21700273 -0.1529132 -0.11531923 -0.2819938 0.019444216 -0.09194624 -0.13819253 -0.15218243
-0.35222462 -0.19488901 -0.2530377 -0.20858946 -0.21230337 -0.17404431 -0.2695398 -0.2190652
-0.039955053 -0.30734295 -0.18551114 -0.19752057 -0.19480415 -0.30103222 -0.0030426562 -0.26976988

features.6.running_mean f4 [32]
00000000: c73a 94be a7ff 23be 0711 1dbf f0f2 92be
00000010: e7a1 55be dd0d aebe ec77 4dbe 7875 7ebe
00000020: 80c7 2ebe c137 3abf f08e 44bf 37cc 5abe
00000030: b2d3 c4be e215 99be 1e02 96be 918e 94be
00000040: 427a d93e 9477 09bf 63cc 05bf dc9f abbd
00000050: 7ed5 e3bd ded2 39bf 2fab 32bf 2d84 d0be
00000060: 398c 1dbf b7dd 3cbd 0502 08bf 5287 f4be
00000070: b815 38be 842d ddbd 2cf1 bdbe dba4 f9be
-0.28951094 -0.16015492 -0.61354107 -0.28700972 -0.20862542 -0.33994952 -0.20065278 -0.24849498
-0.1706829 -0.72741324 -0.76780605 -0.21366964 -0.3844276 -0.29899508 -0.2929849 -0.2901502
0.42476088 -0.53698087 -0.52264994 -0.083801 -0.11124705 -0.7258738 -0.69792455 -0.40725842
-0.6154209 -0.04610988 -0.5312808 -0.4775949 -0.17977035 -0.10799697 -0.37098062 -0.48758587

features.6.running_var f4 [32]
00000000: 38e9 ef3e 1ba0 383f a38e 873f b725 013f
00000010: 5a10 533f 867b 043f 7d54 2f3f cbb7 693f
00000020: f6f7 c13e e17f 813f 3114 8f3f c103 8a3e
00000030: 8639 843f 79f8 6f3f 0b14 363f 587b a43f
00000040: ffa1 b63e 5896 483f 80f8 3a3f d46d 523f
00000050: 88b7 cb3e eddc 5c3f dd8d 7b3f 0229 913f
00000060: 6e9a f33f 8815 d23e 03f1 3c3f 7851 ba3f
00000070: 25a2 033f 6513 0f3f 2e3e 3d3f dea7 373f
0.4685762 0.721193 1.0590404 0.50448173 0.82446826 0.5175098 0.68488294 0.9129607
0.37884492 1.011715 1.1178037 0.2695599 1.0330055 0.93738514 0.71124333 1.2850142
0.35670468 0.78354406 0.7303543 0.82198834 0.3978846 0.86274606 0.9826334 1.134064
1.9031503 0.41032052 0.73805255 1.4556112 0.5141929 0.5588897 0.73923004 0.7174052

features.10.weight f4 [64, 32, 3]
00000000: 1103 1fbc 7bf0 eabc c9c4 35bd 89ad 00bd
00000010: 16d4 7cbb 5cd5 4b3c b339 62bd 3436 c4bc
00000020: 1b68 cfbd 55d0 393e 1a8d e53d 6b2c ef3d
00000030: 0f8b 6f3d a529 123d 600f 523d 177c 29bd
00000040: c53e 1ebe a38a 71bc 38bf ae3d 18d6 623d
00000050: 335f 9d3d fc2c db3d ea8e 09bd 3abc 443d
00000060: f515 c5bd 1eed 8bbd 9e90 8bbd a3d5 16bd
00000070: 9fa1 53bd aa0b e3bc 4dec cbbd c19f ebbd
00000080: 03b2 a0bd a892 08be 7ae8 d7bd 358e 0fbe
00000090: 8aae babd aec8 d6bd b9eb 03be 8d6e a83d
000000a0: f86e 963d b6ca b53d c558 813c aa71 86bb
000000b0: 66b3 bfbb 600c 023e 81b5 1f3e b614 0b3e
000000c0: 70ca 21be 9cc0 a1bd 9561 94bd fdb8 94bd
000000d0: 8e35 acbd 3559 b7bd fbb9 cb3b 8a14 98bc
000000e0: 2aa6 d8bc 70bc 39bd 6747 dabb 26dc 68ba
000000f0: 4cb6 24be 0b5e a2bd 0d44 ecbd f51b f13d
00000100: c061 313e 7dee 643e 669f b33c d802 4abd
00000110: 746f e6bd 3257 8e3e 7bfc 1b3e 668f 5f3e
00000120: a6a6 8abd 186e fabd 7805 0abe f4d1 cb3d
00000130: 746a 083e 2af9 813d c220 eb3d 004a 923d
00000140: d5ca 5a3d 4637 303e 5708 3c3e f1b8 113e
00000150: e67c dfbd bca3 8ebd 13f8 f1bd 341e b1bd
00000160: 971b 27bd dbf6 8ebc acf9 fbbd 379a c4bd
00000170: 3b4e d5bd 767b f1bb 447f b6bd f13c a4bd
00000180: a2c4 bebc e594 d4bd 59c2 fbbd 3446 3cbd
00000190: 5772 323c 430f 553d 1fce 3dbd bce1 11bd
000001a0: 0170 21bd 7572 4f3e 93d5 d03d 3643 17bb
000001b0: 1ff8 7ebc cd67 f13b fb23 09bd f5b7 c938
000001c0: ca78 e83d d463 5e3d eb4a b23c 4aad bd3d
000001d0: 7545 aa3d b57c 0e3e 523d ed3d fd32 4d3e
000001e0: 0587 a8bd 3aa7 73bd 57d2 c2bd 756f a03b
000001f0: 54be fabc 3897 f6bc 43f2 9bbd 2330 71bd
00000200: 1b21 a7bd 2fa1 2dbd 215f 88bd 963c 2bbe
00000210: 0eea bebd 5824 c3bd 1e58 fbbd d467 4e3d
00000220: 2885 2f3d 1dc9 83bb 45a1 3f3d 2368 d73c
00000230: c78c e9bb 48e0 cc3d e69d 0f3e 35f6 3d3e
00000240: 84d4 cabd 88de f1bd 77d2 c7bd 9bfa 03bd
00000250: 263c 95bc df18 cebb 91f1 51bd d07e ccbc
00000260: e8c3 0abd 46e5 4f3d f1d1 113e ecec 8a3d
00000270: b351 88bd e559 3dbc 72b4 b1bd afca e53d
00000280: 584f d43d 29dc 913d 3aec 5abd 1aff dabc
00000290: 70aa 11bd 94ea 4f3e 18a4 a03d ff1a f8bb
000002a0: aad7 d3bd 1e52 80bd 5302 fbbd 2caf 943d
000002b0: 1ca5 1e3e 293c e63d 4545 203d 5fb9 c6bb
000002c0: 178b 6e3c 0fbe fd3c 82e3 2b3e 3523 d43d
000002d0: c2c4 febd 3b98 06be f6c9 04be e2d7 09bd
000002e0: a507 e93d f574 c33d 1d3e 0fbe e8d2 fcbd
000002f0: 7211 fabd b203 67bd f253 7cbd 306b 43bd
00000300: aa7b 42bd 4d3d 8abd be66 ff3b 4cc5 01bd
00000310: 853d aebc 4ddc 6c3c 1a25 2f3e 5f1c 623d
00000320: 7284 5d3e edf7 e3bd 4073 e9bd 926a f3bc
00000330: 8fc4 e4bc 18e9 f4bb e592 d7bd 65e7 e4bc
00000340: 5159 02bc 733d fabc 9fbe de3c 1e11 333c
00000350: 5ad8 a83c 31b8 bb3d 97cf 983d 0543 043e
00000360: c57c 743d 695e 713d cbba 1f3c e2e7 ca3d
00000370: 2470 0d3e 1c6d 2c3e 8ccc 453e c97c 7d3d
00000380: 7e28 363d 04b5 af3d e3f7 d63d ab27 a03d
00000390: 8e87 f0bc 3a97 3d3d 36c7 473c 0b44 883b
000003a0: fec1 c93b 77fa 073c a35f 40be 00ae 31be
000003b0: 64b1 afbd 3c47 5bbd c036 e93c ceec 49bc
000003c0: 6f56 673d 5058 9c3c 801e f43c b195 253e
000003d0: 0666 f73d b787 473e 6592 7c3e ae5f 093e
000003e0: 50dc 4e3e 6fd4 5bbe e686 3bbe f59b d9bd
000003f0: 8b36 28bd 0115 e2bc 819f 81bd 049b 15bd
-0.009705321 -0.028679123 -0.044377122 -0.031415496 -0.0038578562 0.012441006 -0.055230808 -0.023951627
-0.101272784 0.18145879 0.112085536 0.11678394 0.058482226 0.035684247 0.051284194 -0.041378107
-0.15453632 -0.014742526 0.08532566 0.055379957 0.076841734 0.107019395 -0.03358356 0.04803107
-0.096233286 -0.06832336 -0.06814693 -0.036824834 -0.051667806 -0.027715523 -0.0995718 -0.1150508
-0.07846453 -0.13337195 -0.10542388 -0.14019091 -0.09115322 -0.10487495 -0.1288289 0.08224211
0.07345384 0.08876555 0.015789399 -0.0041029053 -0.0058502434 0.12700033 0.15596582 0.1358212
-0.1579988 -0.078980654 -0.07245175 -0.07261846 -0.08408652 -0.08952562 0.006217239 -0.018564481
-0.02644642 -0.045345724 -0.006661344 -0.00088829023 -0.16085166 -0.079280935 -0.11536417 0.117729105
0.17322445 0.22356601 0.021926593 -0.04931912 -0.11251727 0.278009 0.15233032 0.21832046
-0.06770067 -0.1222803 -0.13478649 0.09952155 0.13321859 0.063463524 0.114808574 0.07143021
0.053416092 0.17208585 0.18362556 0.14230706 -0.10912494 -0.069648236 -0.118148945 -0.08648339
-0.040797796 -0.017451694 -0.123034805 -0.09599727 -0.10415312 -0.007369454 -0.08910993 -0.08019436
-0.023287121 -0.10379962 -0.12292928 -0.04596539 0.010891519 0.052016508 -0.04633915 -0.035615668
-0.039413456 0.20258506 0.10196986 -0.0023080832 -0.015562086 0.0073671103 -0.03348158 9.6186915e-05
0.11351164 0.054294422 0.02176424 0.09261568 0.08314029 0.1391476 0.115839615 0.20038982
-0.08228878 -0.05948565 -0.095127754 0.004896099 -0.030608334 -0.030101404 -0.07614567 -0.058883797
-0.08160611 -0.042390045 -0.066587694 -0.1672233 -0.09321986 -0.095284164 -0.122726664 0.050391987
0.042851597 -0.0040217773 0.046784658 0.026294773 -0.0071273777 0.10003716 0.14025077 0.18550952
-0.099038154 -0.118100226 -0.0975694 -0.032221418 -0.018217158 -0.006289586 -0.051255766 -0.024962813
-0.033878237 0.05075576 0.14240243 0.067834705 -0.06656208 -0.011557077 -0.08676995 0.112202995
0.10366696 0.0712207 -0.05344794 -0.02673297 -0.035562932 0.20304328 0.078437984 -0.0075715776
-0.10343869 -0.062656626 -0.12256303 0.07259974 0.15492672 0.112419434 0.03912856 -0.0060645784
0.014559529 0.030974416 0.16786006 0.10358278 -0.12439872 -0.13144009 -0.12967667 -0.033653148
0.11378411 0.09543792 -0.13988538 -0.12344915 -0.12210359 -0.05640001 -0.061603494 -0.047709644
-0.047481216 -0.067499734 0.0077942302 -0.031682298 -0.02126957 0.014456821 0.17103997 0.055202838
0.21632555 -0.111312725 -0.11398935 -0.029713903 -0.027925758 -0.007474076 -0.10526065 -0.027942369
-0.007955865 -0.03054688 0.027190505 0.010929374 0.020610977 0.09165991 0.074614696 0.12916191
0.059689302 0.058927927 0.009749125 0.099075094 0.1381231 0.16838497 0.1931631 0.061886583
0.04447221 0.08579448 0.104964994 0.07820066 -0.029361513 0.0462868 0.012193492 0.004158502
0.006157159 0.008299462 -0.18786483 -0.17351532 -0.085787565 -0.05353473 0.02846849 -0.012324525
0.056478914 0.01908508 0.0297997 0.16170384 0.12080006 0.19485365 0.2466522 0.13415405
0.2020123 -0.21467756 -0.18313178 -0.106254496 -0.04106764 -0.027597906 -0.06329251 -0.036524788

features.10.bias f4 [64]
00000000: c394 fc3c 4dc5 1ebd 6a0a a03c fa76 aabb
00000010: e0db 48bd f398 81bc d8ca 8a3d 0bd3 c2bc
00000020: 885c d73d aa77 603d 41af 063e e4e9 7fbd
00000030: 2e96 6fbd 97d9 9abd eae8 c3bd 48f4 903d
00000040: 54ac babc cd3e 053e a768 e5bd 5d89 2f3d
00000050: e2f6 1f3c 0c7e 1cbc 6cef e4bd 271e 363d
00000060: 0623 fa3d 05d0 163d 5e3f b7bd 1910 e23b
00000070: 4371 41bc 1668 0dbe 14b6 383d 2374 863d
00000080: fd6e 8ebd e5de d0bd 24f7 d43c 48e3 533d
00000090: 508b a2bc e98c a03c 5a61 103c 475d b8bc
000000a0: 3f78 953c cca2 f13d b5b1 a83c f60b b83c
000000b0: d0b5 1b3e 2cd1 86bd d93a 6cbd 0819 2b3d
000000c0: 676d 683d 45f5 a03c 8198 1dbd 807a eb3c
000000d0: 9d79 643d 2585 ef3c 2385 193b 9bda 3a3a
000000e0: 516d 55bc dcb3 38bd 1fbc 853c 77f4 8abc
000000f0: 9426 843d 6566 9fbd 2712 89bd 6cdd 813d
0.030832654 -0.03876238 0.019536216 -0.0052021714 -0.049037814 -0.015820002 0.067769706 -0.023782274
0.10515696 0.05480162 0.13152792 -0.062478915 -0.058492832 -0.07561033 -0.09565909 0.07077843
-0.02278725 0.13012238 -0.112016015 0.04285561 0.009763451 -0.009551536 -0.111784786 0.04446235
0.122137114 0.036819477 -0.08947633 0.0068988916 -0.011806789 -0.13809237 0.04509552 0.0656512
-0.06954763 -0.10198764 0.025996752 0.051730424 -0.01984182 0.019598441 0.008812273 -0.022505416
0.018245814 0.11798629 0.02059255 0.02246664 0.15206075 -0.06582865 -0.05767331 0.04177192
0.05674496 0.019648204 -0.038475517 0.028744936 0.055780042 0.029238293 0.0023425303 0.00071279117
-0.013026551 -0.045093402 0.016325055 -0.016962273 0.06452671 -0.07783202 -0.066929154 0.06341061

features.11.weight f4 [64]
00000000: fc80 5a3f e6d5 4c3f 203d 6e3f 2e56 673f
00000010: 9f77 593f 36f0 653f cfd6 663f 7261 663f
00000020: 282a 523f 7f2c 663f 6603 533f 7871 663f
00000030: 1a97 6e3f 22f9 613f 86e2 723f de93 4f3f
00000040: cc6f 5c3f f8bd 5e3f 42e4 663f 6f26 573f
00000050: 6ed8 5a3f 7827 4f3f bc34 723f 1498 6b3f
00000060: 3007 5c3f 6c91 6a3f 5da1 733f 52af 613f
00000070: ec59 6b3f 1766 4b3f 1b62 643f b1d6 623f
00000080: ba1a 563f 0c47 5a3f 07c4 4d3f cade 683f
00000090: 0bc7 583f 9024 5a3f b13b 683f 6451 583f
000000a0: 1559 583f aa8b 683f bc51 6e3f e935 683f
000000b0: 62b2 6e3f 78d4 663f 2c44 5e3f 3340 4e3f
000000c0: 6148 5c3f 9a98 613f 2f2e 703f 7ca7 453f
000000d0: 592b 653f ac77 773f 31e0 673f eedf 6e3f
000000e0: 26d7 643f 37ba 4d3f c07d 523f c9ed 563f
000000f0: 9678 6a3f cee5 583f 5a99 573f 9a0c 483f
0.85353065 0.80013883 0.9306202 0.90365875 0.8494815 0.8981966 0.9017152 0.8999244
0.82095575 0.89911646 0.8242706 0.9001689 0.9319931 0.8827077 0.948769 0.81085
0.8610809 0.8700862 0.90192044 0.8404302 0.85486495 0.809196 0.94611716 0.9202893
0.8594847 0.91628146 0.95168096 0.8815814 0.91934085 0.7945265 0.892122 0.88608843
0.8363453 0.8526466 0.8037724 0.9096495 0.84678715 0.8521204 0.9071608 0.8449919
0.8451093 0.9083811 0.93093467 0.9070726 0.9324094 0.9016795 0.8682277 0.8056671
0.8604794 0.88123477 0.9382047 0.77208686 0.8951927 0.9666698 0.90576464 0.9331044
0.8939079 0.80362266 0.8222313 0.8395658 0.9159025 0.84725654 0.8421837 0.7814423

features.11.bias f4 [64]
00000000: 623e 9fbe 4c69 ccbe db9a 5ebd af3f 36bd
00000010: 0e87 9fbe a7e8 7dbd 457d 55bc 75d5 74be
00000020: 2506 c0be a0d8 4cbe 27c1 b1be fda9 88be
00000030: 38a9 9ebc 1c6a 96be 2def 7ebe 7f25 b7be
00000040: d26a d8bc 85ce 20bd db01 88be 8662 bcbe
00000050: a264 08bd 68fb 9ebe 8811 73bd 9bb7 49be
00000060: e587 5fbe 4d2b 2fbd fa65 923d 450e 62be
00000070: fff6 283b b6ac c5be c15a 043d cc65 9abe
00000080: 139c 51be 8054 c1be 85df b7be 9046 9cbd
00000090: 6757 bfbe e00e a4be bb8c 133d b9ee 0fbd
000000a0: b9b6 a1bd bc9d f9bc cf5d 8abe 91c3 78bb
000000b0: 8147 80bd df1f a2be 2453 89be c26f bfbd
000000c0: b015 a2be 0f95 a4bd 5a58 823a c10b afbe
000000d0: 7c58 edbc 36e3 84be ad9f 96be 367d d6bc
000000e0: cdd7 b0be 7275 bdbe 3094 b3be f120 adbe
000000f0: d23d 82be ea82 a8be 5dee b1be d26f b5be
-0.31102282 -0.39924085 -0.0543469 -0.044494327 -0.31157726 -0.061989453 -0.013030355 -0.23909552
-0.37504688 -0.20004511 -0.34717676 -0.2669219 -0.0193678 -0.2937783 -0.24895926 -0.35770795
-0.026418123 -0.039259452 -0.26563916 -0.36793917 -0.033299096 -0.31051183 -0.05934289 -0.19698946
-0.21829183 -0.042765904 0.07148357 -0.22075756 0.0025781987 -0.3860833 0.032313112 -0.3015579
-0.20469694 -0.3775978 -0.3591272 -0.07630646 -0.3737137 -0.320426 0.036022883 -0.035139773
-0.0789618 -0.030470721 -0.27024695 -0.0037958364 -0.06263638 -0.3166494 -0.26821244 -0.09347488
-0.3165717 -0.08036243 0.0009944544 -0.34188655 -0.028972857 -0.25954598 -0.29418698 -0.026182752
-0.34539643 -0.37003666 -0.35073996 -0.33814195 -0.2543779 -0.3291238 -0.3475217 -0.35436875

features.11.running_mean f4 [64]
00000000: 2fbd 3ebe bc96 8cbe b56e 023f e535 f23c
00000010: 5205 d83d bc17 403f 81b4 ba3e 26b9 30bd
00000020: 1c4f 82be a1d4 23bd aa9e 43be 9590 e33d
00000030: 07ff bb3e 5457 8b3e 23dc bcbd eeb1 3abe
00000040: 220f 9b3d ff1f b93e c4bb ae3d b301 cc3d
00000050: 829f 933e 7d3d a9be 6625 83be 7c44 003e
00000060: 3759 a1bc 646c d73d 2c05 9cbd c8f2 173e
00000070: b258 993e 4891 c1be f2f3 9a3d 8fa0 343e
00000080: 2b4e 90bd c9fa 483d a82b 10be 9d22 763f
00000090: d425 21be c43c 87be 082c 943e 1e75 a1be
000000a0: 6298 fc3e 2565 283f 00af e03d 46d4 cd3e
000000b0: cd8d 563f 08b8 063c 94af a0be 5bb7 9fbd
000000c0: f8ed 00be dc48 953d 7cd3 f53e e8b5 a1bd
000000d0: b51e ea3e aefa 513e 6a54 073d 558c ff3e
000000e0: 3b43 163e 1be4 b3be 9b02 83be f966 9cbe
000000f0: 8ac9 493e 30b4 a1bd 3366 d2be 1eee 95be
-0.18626855 -0.2745875 0.50950176 0.029566715 0.1054789 0.75036216 0.3646584 -0.04314532
-0.2545098 -0.0399977 -0.19103494 0.11111561 0.36718008 0.27215064 -0.09221675 -0.18231937
0.07571246 0.36157224 0.08531907 0.099612616 0.28832632 -0.33054724 -0.2561447 0.12526125
-0.019695861 0.10518721 -0.07618174 0.14838707 0.29950482 -0.37806153 0.0756606 0.17639373
-0.07046159 0.049067292 -0.14079154 0.96146566 -0.15737087 -0.26413548 0.28939843 -0.31534666
0.4933501 0.65779334 0.109708786 0.40201014 0.8381012 0.008222587 -0.31383955 -0.07798644
-0.12590778 0.072892874 0.48012912 -0.07896024 0.45726553 0.20505783 0.033039488 0.49911752
0.14674084 -0.35134968 -0.25587925 -0.30547312 0.19705787 -0.07895696 -0.41093597 -0.29283231

features.11.running_var f4 [64]
00000000: a154 113e 33fc 133e f18c 363e dd19 0e3e
00000010: 0a33 193e 615d 2e3e 57fb 413e 09e4 253e
00000020: 1c25 333e 23a2 233e de34 223e c698 123e
00000030: 86f9 2d3e 1c11 333e ff5a 143e 5508 0d3e
00000040: 4daa 163e 2eb8 283e 0340 2d3e 8a6d 023e
00000050: ee5c 2c3e 1898 3f3e 6e89 133e 2bd2 0e3e
00000060: d8d1 353e 6bba 093e 36a5 fe3d 0499 153e
00000070: 0049 403e a204 183e db35 273e 6803 1c3e
00000080: 493d 193e 6651 2b3e 678d 2a3e 83e8 6e3e
00000090: e895 ee3d cba1 033e 6a0b 143e 2c2c 133e
000000a0: a1b8 3a3e 7aa3 663e ec10 353e ec95 193e
000000b0: 5804 563e 6c32 3a3e e881 143e b7db 123e
000000c0: 58ce 163e 4319 133e 9283 673e 53be 003e
000000d0: 8bdf 203e 05f4 413e 6f5d 313e 51f4 633e
000000e0: 763b 1c3e c0ea 413e 5346 293e 5b79 333e
000000f0: eca0 1a3e 7a8a fa3d e612 0a3e aaff 223e
0.1419244 0.14451675 0.17827202 0.13877054 0.14960876 0.17027809 0.18943535 0.1620027
0.17494625 0.15979819 0.1584048 0.14316091 0.16989717 0.17486995 0.14487837 0.1377271
0.14713402 0.16476509 0.1691895 0.12737098 0.16832325 0.18710363 0.14407894 0.1394736
0.1775583 0.13450019 0.12433855 0.14609152 0.18777847 0.14845517 0.16329138 0.15235674
0.14964785 0.1673027 0.16655503 0.23330884 0.11649686 0.12854688 0.14457479 0.14372319
0.18234493 0.22523299 0.17682236 0.14998597 0.20900095 0.18183297 0.1450268 0.14341627
0.14727151 0.14365105 0.22608784 0.12572603 0.15710275 0.18940742 0.17320798 0.22261168
0.15257058 0.18937206 0.16530733 0.17526762 0.1510045 0.122334436 0.13483772 0.1591784

embedding_layer.0.weight f4 [16, 64]
00000000: 2e80 053e 8fc0 4e3b 48e7 a2bd 5381 0abe
00000010: e93e a4bd 9bb8 61be 080f 6e3d 82b9 1ebe
00000020: d252 293e 1fe3 1cbe 0fe9 003e 4f8e 6fbe
00000030: 84ed b9bd 7e28 403d e32e ee3d 9f85 253e
00000040: 02f0 e63b 0851 563c 96ea 44bd 11cc a93d
00000050: 3f8b 00bc f6d5 1f3e 6be4 573e 5726 54be
00000060: 2e78 30be 1557 a43d 6b93 c13d 562f 64be
00000070: 7c36 4ebd a772 49bc 9ea8 0b3d 3662 993c
00000080: a0cb 62be 5eeb a6bb a21f 823c f761 5dbe
00000090: 2bca f2bc 6c47 863e 28ef bdbd 9052 9abd
000000a0: 01df 2ebe 9600 eabd ad65 103e 43d5 5fbd
000000b0: 0f00 73be 1ea8 5c3e faec 803e 8e91 36be
000000c0: e9a7 2e3e 4186 13be 2aa6 65bc ca42 003e
000000d0: 9131 2dbe 87eb 92bd d453 913c 57b3 eebd
000000e0: a2e6 9c3c ffc6 883d 54a8 aa3d b1da 3e3e
000000f0: d3ab 41be 9e41 c33d a5c3 f13d e2e0 383e
00000100: 7960 503e b5e4 3b3d fbf8 f0bc 3dd7 cfbb
00000110: e7f1 1fbd 46ac d0bd c512 e73d e8c8 6bbe
00000120: a917 383e 7c24 07be f6df d63d 6a95 2cbe
00000130: a711 c9bc f4c5 ae3d 6aac 953d 106e 303d
00000140: a58d ce3c bae6 253d b99f 0a3e 3812 3b3e
00000150: 7503 07bc dc0a 833e 82e7 de3d ab3d 47be
00000160: 11dc 6abe ec41 abbd 4fc9 123d c387 30be
00000170: c5ff 353d 05f9 0e3e 1d99 923d 8c7d df3d
00000180: 0b2a 50be 83c8 03bd 9c16 4f3e 08d4 02be
00000190: 7d28 303e f847 5b3e 6481 ebbc 0bbd 74bd
000001a0: dd50 0abe 1a1c 1ebd fff4 893d b55c d03c
000001b0: ed85 ddba e1e2 e83d 7931 303e 93b8 08be
000001c0: 3aae 723e 10d7 84bd 4096 9d3c 49d9 8e3d
000001d0: 1741 b33b e726 b03d 5f99 2f3e 5b0c 67bc
000001e0: 8b6d 833d 3d16 193e b90d 4c3e f45d 373e
000001f0: 3df9 30be e09c 283e ebd8 843e b1d6 503e
00000200: c4fe e63d e812 3f3e 11e3 b6bd 08b1 76bd
00000210: 7ea0 2bbe 08b9 50be 21cc 3cbd eb12 bfbd
00000220: 0632 073e 26f0 d5bd 9591 843d 713d 3cbd
00000230: 7241 6fbc 901b 85bd 3da3 a03e 544e 46bd
00000240: f8b8 cabd c676 d4bc 3ebd a13d 40e0 4cbd
00000250: ea57 07bd 8571 0c3e dae3 5d3e 6de2 c7bd
00000260: 9173 b3bc f7c0 0fbd f621 82bd ffc6 bebd
00000270: 155d ebbd 21be 053e a198 e1bc 0cb7 553e
00000280: 5da0 9dbd bc63 423e e733 f7bc 5c4a 3fbe
00000290: 957e ab3d f830 a23b 8655 9dbd 3f56 dbbd
000002a0: c369 f7bd 9a12 01be bc01 34be 903d 33be
000002b0: c2e1 0abe dd02 f3bd 0551 5d3c d44d 2bbd
000002c0: eb95 b3bc 2ca0 69bc 83aa 0cbd 1a8a 363e
000002d0: e0ba 05be f1a5 82bd 8bda 97be 4c6d e0bd
000002e0: 4946 fe3c d8f2 9b3d 2f97 843d 1f4f 94bd
000002f0: 8881 cdbd e94d 923d ccb6 8a3b 10d4 22be
00000300: 5ff3 5bbd be64 e2bd 9d51 193d 3f5b 023e
00000310: e95f 2abd 3d3e 9bba 24ef d33d 37b4 1d3d
00000320: 3194 94bd 4a7c b23d 3fcb 0cbe 3de7 1ebd
00000330: 6c90 353e 3355 36bd 3f08 9cbc 4a08 ddbd
00000340: 7841 1e3e f8e2 df3d 0dce 61bd f249 b6bd
00000350: d0a9 bf3d 77fe d0bd fbf6 053b 7b0d 603d
00000360: 9b67 0a3e 5424 373e 61c7 d83d 20f3 a83d
00000370: 19e3 823d 303f dfbd c080 173e 2674 56bd
00000380: cd4a 9d3d 0eb4 92bd ece6 0cbe baec b1bb
00000390: ea9c b5bd 53df 103c 6538 363e cbbe 9a3d
000003a0: c081 dd3d 94bf be3d c5a8 4ebd c2d5 ca3d
000003b0: 86b3 5f3d d23d 34bd 8185 fb39 c000 a63d
000003c0: 3753 87bd ba8b 763d 0930 033e da3a 9dbd
000003d0: 77f5 023e 3058 30bd f7d4 7ebd 3d8b c43d
000003e0: cecc 56bd 60ed a5bd c40c 03be 4055 74bd
000003f0: 9fc5 7cbd 70dc 71bd dc73 26bd aedc 9fbd
0.13037178 0.003154788 -0.0795427 -0.13525896 -0.08019812 -0.22043078 0.058119804 -0.15500453
0.165355 -0.15321015 0.12588905 -0.2339413 -0.09078506 0.046913616 0.11630037 0.16164254
0.007047654 0.013080843 -0.04807528 0.08290876 -0.007845699 0.15608963 0.21083228 -0.2071775
-0.17233345 0.08024422 0.09451946 -0.22283682 -0.05034493 -0.012295402 0.034096353 0.018723588
-0.2214799 -0.005093976 0.015884224 -0.21619402 -0.029637417 0.26226366 -0.09274131 -0.07535279
-0.17077257 -0.11425893 0.14101286 -0.05464674 -0.23730491 0.21548507 0.251808 -0.17828962
0.1705624 -0.14406683 -0.014016667 0.12525478 -0.1691344 -0.071738295 0.017740168 -0.116553
0.019152943 0.066785805 0.08332887 0.18638112 -0.18913202 0.09534 0.11804894 0.18054536
0.20349301 0.04587241 -0.029415598 -0.006342797 -0.039049055 -0.101891086 0.11282877 -0.23025858
0.17977776 -0.13197511 0.10491936 -0.16853872 -0.02454455 0.0853385 0.07308276 0.043073714
0.025214026 0.04050324 0.13537492 0.18268669 -0.00824057 0.25594223 0.10884 -0.19457118
-0.22935511 -0.08362183 0.035836514 -0.17239289 0.044433374 0.13962181 0.0715811 0.10912618
-0.20328538 -0.032173645 0.20223469 -0.12776196 0.17202945 0.21414173 -0.028748222 -0.059750598
-0.1350741 -0.03860102 0.067361824 0.025434831 -0.0016900875 0.11371399 0.17206372 -0.1335166
0.23699275 -0.064863324 0.019236684 0.069750376 0.005470406 0.0860117 0.1714835 -0.014102067
0.06417378 0.1494989 0.1992711 0.17906934 -0.17282577 0.16466093 0.25946745 0.20394398
0.112790614 0.18659556 -0.08930028 -0.060227424 -0.16760442 -0.20383084 -0.04609311 -0.0932978
0.13202676 -0.10446195 0.0647308 -0.045957033 -0.014603006 -0.06499398 0.3137454 -0.048414543
-0.09898561 -0.025935542 0.07897423 -0.05001855 -0.033042826 0.1371518 0.2166895 -0.09759984
-0.021905692 -0.035096135 -0.06354134 -0.09315299 -0.11492363 0.1306081 -0.0275386 0.20870608
-0.076966025 0.18983358 -0.030176116 -0.1868071 0.08373753 0.004949685 -0.07682328 -0.107098095
-0.12080719 -0.12604752 -0.17578787 -0.17503953 -0.13562682 -0.118657805 0.013508086 -0.04182227
-0.021922072 -0.014259379 -0.0343423 0.17826119 -0.13059568 -0.06379307 -0.29658923 -0.10958347
0.031039374 0.07614678 0.064741485 -0.07241654 -0.10034472 0.071437664 0.004233217 -0.15901208
-0.053698894 -0.11054371 0.037431348 0.1273012 -0.041595373 -0.001184411 0.10348347 0.038501944
-0.07254828 0.087151125 -0.13749407 -0.038794745 0.17730874 -0.044514846 -0.0190469 -0.10792597
0.15454662 0.10931963 -0.055128146 -0.08900823 0.09358561 -0.10204785 0.0020441401 0.054700356
0.13516085 0.17884952 0.105849035 0.082494974 0.06390972 -0.10900724 0.14795208 -0.05235686
0.07680283 -0.07163249 -0.13759965 -0.0054298313 -0.088678196 0.008842307 0.1779495 0.07555922
0.108157635 0.093138844 -0.05045392 0.09904052 0.054614566 -0.04400427 0.0004797392 0.08105612
-0.06607669 0.060191847 0.12811293 -0.07677241 0.1278895 -0.043052852 -0.062214818 0.0959687
-0.05244141 -0.08101916 -0.12797838 -0.059651613 -0.061711904 -0.059048116 -0.040637836 -0.07805763

embedding_layer.0.bias f4 [16]
00000000: 9e49 743d 8f9f 94b9 b026 873d e7b9 c93e
00000010: 2788 eabb 081b 2f3d cda1 a73d 4c33 9b3e
00000020: 2821 cd3e a8aa e33e 22ef 833e f187 df3e
00000030: 6252 6d3e 64be 9e3d ce30 063d 8898 223d
0.05964052 -0.0002834764 0.06599176 0.39399645 -0.007157344 0.04275039 0.08185158 0.30312574
0.4006436 0.44466138 0.2576838 0.43658403 0.23175958 0.07751158 0.032761388 0.039696246

classifier.weight f4 [2, 16]
00000000: bd50 aabe 91a8 7dbe 4eeb 66be c227 843e
00000010: eeb6 f9bd 596a e1bd 664a 77be b5b3 f73e
00000020: fd8a 883e d38a c93e f242 043e c975 883d
00000030: 436f 9d3e a408 cdbe bcd2 d0be edaf 83be
00000040: e9d9 f93d d925 633e 0720 8e3e 012d 9abe
00000050: 38d5 973e c217 ea3e 570e 9f3e 05df 02bf
00000060: 70cd a6bb 7351 4ebe 7273 8ebd 9d2f c4be
00000070: b284 9a3d 38b2 0d3e ca78 bb3d eab0 953e
-0.33264723 -0.24771334 -0.22550699 0.25811583 -0.12193094 -0.11006612 -0.24149475 0.48379293
0.2666854 0.39363727 0.12916163 0.06663091 0.30748948 -0.40045655 -0.40785778 -0.25720158
0.12199766 0.22182406 0.2775881 -0.3011246 0.2965486 0.4572125 0.31065628 -0.5112155
-0.005090408 -0.20148258 -0.06955613 -0.38317576 0.07544841 0.13837516 0.09153898 0.29236537

classifier.bias f4 [2]
00000000: 25bd 203e dcdf 5dbc
0.15697153 -0.013542142
