o02_test/run_outputs/42cnn_train_weights.pth (torch, 48140 bytes, 22 tensors)

features.0.weight f4 [16, 6, 5]
00000000: 6123 183f 26d6 f03e 968c fe3d 8aa3 993d
00000010: f506 a6be 009d c6bc 20e8 b4be c57c bfbe
00000020: 6dc6 a5be 75a0 19bf db81 bf3e 7656 a53d
00000030: 3641 143e 10ca 80bc 8eea 193c 1aea 5dbd
00000040: 66c5 4b3d 8042 77bc 0637 37bd 459c cf3d
00000050: dbb7 86bd a20a c43b 7c53 6cbd 6169 053e
00000060: c524 bdbd 3370 82be e8ae aabd 26f0 2fbc
00000070: 1bcc 963d 6237 a9be 5606 2abf 1669 7bbf
00000080: e780 04bf 7c04 bfbe 951d 36be e25b a83e
00000090: f59f 903d 3c7a 0f3e 13ed ea3b ee09 eb3c
000000a0: 34d3 89be c7db 8abe b0b7 153d 5df7 ac3e
000000b0: c0c6 ea3e 3255 31bd 5a76 ba3d da0e 1dbc
000000c0: 325e e73d a949 61bc 6809 63be 8dcb 8cbd
000000d0: 0588 c0bd 270c 3f3e b056 a33d c8dc d2bb
000000e0: c553 87bc 9b80 98bd dc9a 993d 10fa 55be
000000f0: c088 23bf 4b3d 3cbf de50 bcbe 70ee 26be
00000100: daef 283e f8a4 873e a269 083f bb9a 8d3e
00000110: d077 883e 5cd3 6d3e 2756 aabe 479c 02bf
00000120: c47f cabe 5f6a 16bf 06bd a6be 2879 aabd
00000130: 76e6 62bd 7fe7 603d 6b27 24bd 4de6 363d
00000140: 588d f2bd 09f9 0cbe d559 1a3e f95b 073d
00000150: cd08 7d3e 22bf 0bbe cb15 5a3d 21ef 0cbe
00000160: 065b 36bd bec9 023e 3be1 123f 9c42 8e3e
00000170: b8df a93d c03b 2bbe 8407 07bf 7cb3 8bbe
00000180: 689a 953c cc05 a8bc 1457 613e 3d78 433e
00000190: 1615 823e 4e95 763e a406 03be 8714 f7be
000001a0: c20a 02bf 93a0 253d a126 26bd 138e f2bc
000001b0: cefa cbbd b02f a1bd 27c3 fa3d d8ad 6ebd
000001c0: bb4f 2fbd 4282 87be f3ca 56be 01e4 a1bd
000001d0: 544b b4ba 4144 46be dbcb efbd 329a ebbd
000001e0: 722f 82be 19ad 12be 7c30 003e 736d 533e
000001f0: 11d8 8d3e 8190 ed3d 59e8 1fba 4ad1 7dbd
00000200: 00bc 4a3e 23d5 0bbe 5d51 923e 168c dd3e
00000210: e9d4 9a3e 33e5 1c3f 2333 023f d500 debc
00000220: 2c85 a5bd db3f efbd d775 a73d 3b4a 893c
00000230: 9df3 e7bc f73d 54be 0118 9d3d 7bb6 4ebe
00000240: f4a0 16be efa2 353d 4dae de3d 0146 1c3e
00000250: 4e4c 293e fc58 fabd b0de ea3c 6a81 aa3e
00000260: c889 973e 453f 4e3d a143 df3e 6a9b 443e
00000270: 8083 0a3d a394 a0be dc5b 98be bf86 84be
00000280: e268 22be 0874 343e 1a31 013f 898b 903e
00000290: 9ffa 933e 1b92 3a3d 98f9 afbd 8219 dd3d
000002a0: 1f99 d23c e755 37bd 2bc0 c8bd 2bbc 7b3d
000002b0: e185 333e 63cc 38bc 9886 f4bd 41b4 a0bc
000002c0: 63d2 bcbd 5676 d83d 3947 0a3e b663 7abe
000002d0: f17d 1a3f ef10 ca3e 8985 4e3d e327 52be
000002e0: 23e1 29be ca62 1ebe 32d2 c8be 8d9f 0abf
000002f0: d080 f1be 4319 b6be faf3 ad3e c0f2 943e
00000300: fba9 753e d09d a23d ba0d 48be 3ddb 38bd
00000310: 8214 b9bc ec2b f2bc 17a5 263d e755 943d
00000320: 0550 90bd 3b66 0b3c 9e2f 163e d26d df3c
00000330: 5d83 8fbd 4ab2 48be cd8f 48bd 1e84 d3bd
00000340: 395e 21be 1175 1cbe 1305 ad3e 979d 323e
00000350: 9c77 49be edfe 9abe 18dc c8be 5e2e e63e
00000360: 4763 b73e 370d bf3d 7798 ce3d c038 29bd
00000370: 1e3a 8bbe 64f5 60be da79 e3be 139f 91be
00000380: 0d2e cbbe cadd 363e 1428 2c3e c9a7 0e3d
00000390: 721e 40be 501a 2ebe 1451 59be d7b1 8b3d
000003a0: 7c5d 963d 47df 253e 8672 033e a060 3a3d
000003b0: 04e1 d73b 93a6 8fbd 7062 4abc 2bab f5bb
000003c0: eb7f b03e 626e 7f3e fd41 7f3e d52d fc3d
000003d0: f438 f03d 7e43 ccbe ade0 dabe a005 54be
000003e0: 65e1 9ebe 9679 82be c9b7 ec3e ed8b ef3e
000003f0: 2206 023f 6866 cb3e b898 b53e ac44 48be
0.59428984 0.47038382 0.124291584 0.07501896 -0.32427183 -0.024244785 -0.35333347 -0.3739988
-0.3237795 -0.60010463 0.3740376 0.08073132 0.14478001 -0.01572135 0.009394301 -0.054178335
0.0497488 -0.015091538 -0.04473021 0.10137228 -0.065780364 0.005982713 -0.057696804 0.1302848
-0.09235529 -0.25476226 -0.08334142 -0.010738408 0.07363149 -0.33050066 -0.6641592 -0.98207223
-0.5175919 -0.3730811 -0.17784722 0.328826 0.070617594 0.14011472 0.0071693747 0.028691258
-0.26918948 -0.27120802 0.03655213 0.33782473 0.4585476 -0.04329414 0.09104605 -0.00958606
0.11297263 -0.013750472 -0.22171557 -0.06874762 -0.09400944 0.1865698 0.07975519 -0.0064350106
-0.016519437 -0.074464045 0.0750024 -0.20896173 -0.6388054 -0.73531026 -0.36780447 -0.16301894
0.16497746 0.2649305 0.5328618 0.27657112 0.2665391 0.23225158 -0.33268854 -0.5101971
-0.39550602 -0.5875606 -0.32566088 -0.0832389 -0.055395566 0.054908272 -0.040076654 0.044653226
-0.118433654 -0.13766874 0.1507333 0.033046696 0.24710388 -0.1364713 0.05324344 -0.13763095
-0.0445204 0.12772271 0.57374924 0.27785194 0.08294624 -0.16722012 -0.5274584 -0.27285373
0.018262103 -0.020510577 0.22005874 0.19088836 0.25406712 0.24080393 -0.12795502 -0.4825785
-0.50797665 0.04043634 -0.040564183 -0.029608762 -0.099599466 -0.07870424 0.122442536 -0.05827126
-0.042800646 -0.26466566 -0.20975856 -0.079048164 -0.001375536 -0.19361974 -0.11708804 -0.1150402
-0.25426823 -0.14323844 0.12518495 0.2064722 0.27703908 0.115998276 -0.0006099991 -0.06196717
0.19798279 -0.13655524 0.285777 0.4327094 0.30240563 0.6128723 0.5085928 -0.027100006
-0.08082041 -0.11682101 0.08176773 0.016759029 -0.028314406 -0.20726763 0.07670594 -0.20186798
-0.14709836 0.04434484 0.10873089 0.1526108 0.16533014 -0.12224004 0.028670639 0.3330186
0.29597306 0.050353307 0.43606284 0.19199911 0.033816814 -0.313634 -0.29757583 -0.25884053
-0.15860322 0.17622387 0.5046555 0.28231457 0.28902146 0.045549493 -0.08592528 0.10795881
0.02570778 -0.044759657 -0.09802278 0.061458748 0.1753154 -0.011279198 -0.11939734 -0.019617202
-0.092198156 0.10569446 0.13503732 -0.24452099 0.6034842 0.39466044 0.050420318 -0.20523028
-0.16589789 -0.15467373 -0.39222866 -0.54149705 -0.4716859 -0.35566148 0.33975202 0.29091454
0.23990624 0.079402566 -0.19536486 -0.045130957 -0.022592787 -0.02956196 0.040684786 0.07242947
-0.070465125 0.00850826 0.14666602 0.027274046 -0.070074774 -0.19599262 -0.048965264 -0.10327934
-0.157586 -0.15279032 0.33792934 0.17442928 -0.19674534 -0.30272618 -0.39230418 0.4495725
0.3581793 0.093286924 0.10087674 -0.041313887 -0.27192777 -0.21968609 -0.44428903 -0.28441676
-0.3968357 0.17858043 0.16812164 0.03482798 -0.18761614 -0.17002225 -0.21222335 0.0682103
0.073420495 0.16198455 0.12836656 0.045502305 0.0065881032 -0.070141934 -0.012352571 -0.0074972115
0.34472594 0.24944451 0.24927516 0.12313429 0.11729613 -0.39895242 -0.4274954 -0.20705271
-0.31031337 -0.25483388 0.46233967 0.46786442 0.5079061 0.39726567 0.35468078 -0.19557446

features.0.bias f4 [16]
00000000: 6155 d53d 66ae 25bd ffc6 72bd 844e da3c
00000010: 4ef9 0bbe 787a e8bd 04a6 a13d 5671 b23b
00000020: 3a77 1c3e a944 643e 8b7c 873d 41c6 793d
00000030: ea99 ef3c 126d 4e3d ced9 0dbd fb9c 48bc
0.10416675 -0.040449522 -0.05927181 0.026648767 -0.13669321 -0.11351484 0.07892993 0.0054456396
0.15279856 0.22291817 0.066155516 0.060980085 0.029248197 0.050396986 -0.034631543 -0.012244458

features.1.weight f4 [16]
00000000: a13d 823f f15c 7b3f bc43 793f 5f08 803f
00000010: dd00 6b3f e9a0 7d3f 6a2c 7d3f b940 763f
00000020: 68f9 6e3f f03c 873f a9c5 7a3f 7624 6b3f
00000030: 250b 673f d969 823f 4061 7e3f 3491 533f
1.0175058 0.9818869 0.9736898 1.0002555 0.9179819 0.99073654 0.98895895 0.9619251
0.93349314 1.0565472 0.97957855 0.9185251 0.9025138 1.0188552 0.9936714 0.8264344

features.1.bias f4 [16]
00000000: 6535 f0bd 4958 6bbd 52ed bbbc c672 cfbb
00000010: 9123 33bd 1175 5bbe 4af0 04be af24 b83d
00000020: 3d0d 96bd 6f20 39bc 0030 d2bc e733 f4bc
00000030: 0be2 c3bc ec36 11bc f993 93bc 4e81 e5bc
-0.11728934 -0.057457242 -0.022940312 -0.0063308207 -0.04373509 -0.21431376 -0.12982288 0.08991372
-0.07326744 -0.011299237 -0.025657654 -0.029809905 -0.023911497 -0.008863192 -0.018014895 -0.028015759

features.1.running_mean f4 [16]
00000000: 3e9b 983d 02d6 77bd bc57 6fbd 284f b63b
00000010: a921 f0bd cd54 f8bd 2f2b 453d 8681 353a
00000020: 8aec 183e 22f9 503e ae3f 693c fd34 673d
00000030: a4a1 8a3b 781d 553d 27d1 34bd 6412 d0bc
0.07451485 -0.060506828 -0.05843328 0.0055636354 -0.1172517 -0.121255495 0.048136886 0.00069239025
0.14933982 0.20407537 0.014236374 0.056447018 0.004230695 0.052030057 -0.044144776 -0.025399394

features.1.running_var f4 [16]
00000000: dd69 e343 7585 3543 d9e1 f042 025e 2644
00000010: 2dbc af43 874e 1142 40c3 0744 b04c b543
00000020: ae88 2443 3c80 5644 eae0 a344 33e4 3043
00000030: 5a27 f543 9557 1e43 f77d 6743 d2ad 1444
454.82706 181.52132 120.44111 665.4689 351.47012 36.326687 543.0508 362.59912
164.5339 858.00366 1311.0286 176.8914 490.30743 158.34212 231.49205 594.71594

features.5.weight f4 [32, 16, 3]
00000000: 8bf3 a83d 0002 0f3e d8ae ad3c 5fd2 14be
00000010: 9504 e8bd d814 02be c435 a5bc 7980 b33c
00000020: 5360 e73c 270e 303d 29cd 00be 3152 8bbd
00000030: e39c 65bd 2833 7abd 87e2 81bc 6f4f 02be
00000040: dd74 3abd 114f 0fbe dfc2 5ebd 9f17 a5bd
00000050: 2d81 d63d 2983 fbbd 7bcc fa3d d19c a23c
00000060: aee8 57bd 7533 fd3c c880 35bd ca16 213e
00000070: 50b6 1b3e 3cf8 03be b853 a63d 0fb0 493d
00000080: 9375 213d 5b55 9a3d f716 2b3d 00f2 92bd
00000090: b518 0bbc bbb3 923d 33da 6d3d fb96 89bc
000000a0: 61b9 f6bd 4efd abbc d77f 4ebc 6c39 603e
000000b0: 3886 28bd 39ee c13b 70d8 cabc 6720 803c
000000c0: 79a5 043d 6ec0 ebbd 0b10 1cbd 6791 8c3d
000000d0: 07a0 ea3d 610b 14bd b19d b33b 363b d43d
000000e0: 6e4e 50bd a8a7 0e3e 2066 a93c eeb9 55bd
000000f0: 0109 143a 4a11 3ebc d47c 793b 8c47 003e
00000100: 8f48 b33d b8ef f03d 74cb 8bbd 0a43 49be
00000110: 7516 1abe aaf6 32be 4dc0 35be 4305 09be
00000120: dd11 28be 195e 32be 6a65 0fbe 720e b1bd
00000130: fcb5 3fbd addb c93c 819a 3e3d 2842 b9bd
00000140: d700 cbbd 1ac1 ca3d a0b8 9dbd 1c13 05bd
00000150: eb3e a73d 6a9b 0ebe c005 e43c 8ff2 133e
00000160: cb25 833c 1d89 3a3d 1ee8 b1bd d042 24bd
00000170: e230 a13b 4be3 843c ac06 eb3b af77 a93d
00000180: a57d 3dbd 4921 3e3d 94fb 1cbd 00b8 77bd
00000190: 9347 d53c 1ae2 96bd 2020 3b3d 9153 413d
000001a0: df31 bdbd ef44 cfbd dfdc 6fbe 14dd 5fbe
000001b0: fada b5bd 98a7 14be 77e0 24be 3c36 2a3d
000001c0: 179f e23d b91a 023e e054 db3d cbe8 aa3a
000001d0: 5041 81bc 5797 2f3e 80c7 413c 5d36 f5bb
000001e0: 03ed 4b3d d4f5 b7bc 38bb 3dbc e15e 2ebd
000001f0: 8100 20be 21f2 07be fe7a 86bd cdf5 31bd
00000200: 98bd e23c 0ef5 c5bd 4036 e1bc 923f 083c
00000210: dbb0 1abe 12bc 33bd a59e 06be f708 9fbd
00000220: 07fb 5e3d 2472 373d 2452 d8bd 4fcd e3bd
00000230: 0f4b 11be fc3d c1bd 3f8d adbd b053 8ebd
00000240: 94a7 d0bc ad34 35be 13a5 963d bb71 623d
00000250: 3a10 32be 5648 ddbd 60bc 093d ffc4 a0bc
00000260: c71f f3bc 1d8c b8bc 66da 2c3e 1386 a5bc
00000270: 4275 6b3d b8c3 c1bc c8fb 99bc b09e ec3d
00000280: 8520 64bb ad94 d8bd d158 7ebd 45a1 8e3d
00000290: eade 2dbe b5d8 9dbd e296 3ebe c47c d6bc
000002a0: 79be 193d 64bc 81bc 2fb8 c5bc 1729 e9bc
000002b0: 8c28 a33d b783 8abd 387b 8ebd 5b47 b73c
000002c0: 7287 c43d ca39 df3d b5c4 b4bd d453 e53d
000002d0: 60db 42bd cfdb 16bd 0cdc 07be d39c f3b9
000002e0: 490c 113e 21d8 c8b9 b16e aabd da26 a63c
000002f0: 30fc 8fbd 1b4b f63d 863e 09be 6139 dcbd
00000300: d077 3bbe 48a8 0cbe b749 87bd e13e cf3d
00000310: 0164 c43b 7bc7 e23d 3863 353d 337a bc3d
00000320: 7cfb db3d dc4c 2c3e d4be adbd 715f 4a3e
00000330: e652 643c 9d62 a5bd 5b21 3fbd f9d1 18be
00000340: 2c36 bf3d 7999 05be 1a45 cbbc e8ee 22bd
00000350: 91c4 41be c364 afbd 047a 41bd dc18 b8bc
00000360: 38c7 a7bc 7e82 55be e6a1 b83c e7a5 873d
00000370: 69ab 6f3c f17a f9bd b34b f2bd 2b5a bbbd
00000380: 7129 e3bd d361 593d 88de 7e3d c448 123e
00000390: 6c2d 4fbd 2f11 503d e03e 543d 05a3 cabd
000003a0: 50d7 11be 5600 9ebd 01c9 443d 367e e1bd
000003b0: d8a6 fdbd 9edd 5d3d d56b 633d 633b d53d
000003c0: 19bd 02be a7f5 1bbe b543 073d 0216 b63d
000003d0: b76e 903d b6fa b23c 3041 c43d d78b 253e
000003e0: 82e3 13be aa05 9dbd a5cc f43d f8d5 8fbd
000003f0: a5a7 02be 1ffc 0d3c c069 07bd 736d 133e
0.08249577 0.13965607 0.021201536 -0.14533375 -0.11328999 -0.12703264 -0.020167239 0.021911846
0.028244173 0.042982247 -0.12578262 -0.06802786 -0.056057822 -0.061083943 -0.015855087 -0.12725614
-0.045521606 -0.13995005 -0.054385062 -0.08061146 0.10473857 -0.12280876 0.12246033 0.019850167
-0.052712135 0.030908326 -0.04431227 0.1573135 0.15206265 -0.12887663 0.08121437 0.04924017
0.03941877 0.075358115 0.041769948 -0.07175064 -0.008489777 0.07163187 0.05806942 -0.016795626
-0.12047077 -0.020994809 -0.012603722 0.21896905 -0.041143626 0.005918291 -0.024761409 0.01564045
0.03238437 -0.115113124 -0.038101237 0.06863671 0.11456304 -0.036143664 0.0054814448 0.10362856
-0.050856046 0.13931143 0.02067858 -0.05217927 0.00056470936 -0.011600802 0.0038068788 0.12527293
0.08754074 0.11764473 -0.06825915 -0.1965448 -0.15047629 -0.17476907 -0.17749138 -0.13380913
-0.16413064 -0.17418708 -0.1400353 -0.08645333 -0.046804413 0.024640882 0.046534065 -0.090458214
-0.099122696 0.099001125 -0.0770123 -0.032488927 0.081662975 -0.13926473 0.027834773 0.14447998
0.016009232 0.045540918 -0.08686851 -0.04010278 0.0049191574 0.016221663 0.007172426 0.08274781
-0.046262402 0.046418462 -0.03832586 -0.06047821 0.026035106 -0.07367344 0.045684934 0.047198836
-0.09238028 -0.1012057 -0.234241 -0.21861678 -0.08879657 -0.14517057 -0.16101252 0.04155563
0.110655 0.12705506 0.10709548 0.0013039348 -0.015778214 0.17147575 0.01182735 -0.0074832872
0.04978658 -0.022456087 -0.011580281 -0.042570952 -0.15625192 -0.13275959 -0.06566428 -0.043447305
0.027678296 -0.09665881 -0.027491689 0.008315938 -0.15106528 -0.04388053 -0.13146456 -0.07765382
0.054438617 0.044786587 -0.10562542 -0.11123144 -0.14188789 -0.09435651 -0.08474206 -0.06949556
-0.025470532 -0.17695875 0.07355704 0.055284243 -0.17389002 -0.108048126 0.033626914 -0.019625185
-0.029678239 -0.022527749 0.16880187 -0.020205533 0.057484873 -0.023652896 -0.018796816 0.11553705
-0.0034809422 -0.10575233 -0.06209642 0.069643535 -0.16979566 -0.07707349 -0.18612245 -0.02618254
0.037535165 -0.015836902 -0.024135677 -0.028461976 0.07966718 -0.06763404 -0.06957096 0.022372892
0.09596147 0.10899694 -0.088265814 0.111976296 -0.047572494 -0.03683072 -0.13267535 -0.00046465415
0.14164843 -0.00038308 -0.08321894 0.020282198 -0.07030523 0.12026044 -0.13402757 -0.10753132
-0.18307424 -0.13736069 -0.06605857 0.10119415 0.0059933667 0.11073204 0.044284075 0.09202995
0.10741326 0.16826195 -0.08483663 0.1976297 0.01393578 -0.080754496 -0.04666267 -0.14923848
0.09336504 -0.13046826 -0.024813224 -0.03977862 -0.1892264 -0.08564141 -0.047235504 -0.022472791
-0.020480737 -0.2085056 0.022538137 0.0662344 0.01462827 -0.12181652 -0.11830845 -0.091480576
-0.11091889 0.053071808 0.06222394 0.1428557 -0.050580427 0.050797638 0.051817775 -0.09894375
-0.14242291 -0.07714908 0.048043255 -0.11010401 -0.123853385 0.05416643 0.05552276 0.10411718
-0.12767448 -0.15230428 0.033023555 0.088909164 0.07052367 0.021848064 0.09582746 0.16166626
-0.14442256 -0.07667096 0.11953095 -0.07023233 -0.12759264 0.008666067 -0.033059835 0.1439722

features.5.bias f4 [32]
00000000: 558c dbbd 1a88 b0bd b18b 24bd 1312 e1bd
00000010: 1ae1 ccbc c786 b5bd b28b dc3c 007e f03d
00000020: 1a69 683c c11e 1b3d a1ab f1bd 50fa 33bd
00000030: 335f 63bc 771d 783d 1b5f 68bb c93c e33d
00000040: 2557 b93d 5733 283c 6361 2ebd 5609 c83d
00000050: 07dc 21bb cdf1 f0bd aacf 21bd 8d7f 40bd
00000060: f6ce f73b 5c39 ee3d a08b 20bd cb6d 2ebe
00000070: 70ba 723c 04b5 0d3c 3551 983c 7c6e 1ebd
-0.107201256 -0.08619709 -0.040172283 -0.109897755 -0.02500968 -0.08863597 0.02692208 0.117427826
0.014185214 0.037871126 -0.11800314 -0.04393989 -0.013877678 0.060574975 -0.0035457078 0.11095578
0.090498246 0.010266147 -0.042573344 0.09767406 -0.0024697797 -0.1176487 -0.039504685 -0.046996642
0.0075625135 0.11632034 -0.039195657 -0.1703407 0.014814958 0.0086491145 0.01859341 -0.038679585

features.6.weight f4 [32]
00000000: 8f42 613f 5369 893f 00dc 8c3f fd85 513f
00000010: 4aa7 713f 9f74 6c3f e4b4 823f d114 7c3f
00000020: fb66 633f a763 863f cabe 903f 7a72 673f
00000030: 03bd 5f3f a0fa 823f 174a 813f 9db1 7b3f
00000040: 9f06 683f c332 843f 773d 713f bb1d 673f
00000050: 062f 653f f9b8 853f c0a6 6d3f b193 713f
00000060: 9f09 843f ebdc 473f ea0e 703f c128 653f
00000070: 283f 833f e0f5 863f 206a 6f3f e033 8f3f
0.87992185 1.0735267 1.1004639 0.81845075 0.9439589 0.9236545 1.0211453 0.98469263
0.8882901 1.0499161 1.1308224 0.9040905 0.87397784 1.0232735 1.0100735 0.9831789
0.90635103 1.0327991 0.9423441 0.9027974 0.8952488 1.0447074 0.92832565 0.94365984
1.0315436 0.7807147 0.9377276 0.8951531 1.0253649 1.0543785 0.9352131 1.1187706

features.6.bias f4 [32]
00000000: 533b fabc d4ad 39bc 9b25 5abd 72c2 bfbd
00000010: b057 7ebc 0bbb ebbd 65c0 7f3c 8f5a 31be
00000020: 30dd 51bd 2c98 18bd d930 f3b9 0b2a aabd
00000030: a30a 07bd 7ae0 f6bc 75d0 eebd 80a6 3fbd
00000040: 6bb4 98bd 997b 84bd c0ba e4bd dc14 08bd
00000050: 3eb1 6abd ab1d bbbd bc67 ddbd b2eb e8bd
00000060: 6044 9ebc 7f21 fcbd 99b2 a7bd 2b4d febd
00000070: c6bf dcbc fb7f 51bd 0846 01be aa38 16bc
-0.030545866 -0.011332948 -0.05325852 -0.093632594 -0.015523836 -0.11510285 0.015609835 -0.17319702
-0.05123633 -0.037254497 -0.00046384966 -0.083088 -0.03296913 -0.030136336 -0.11660854 -0.046789646
-0.07456287 -0.06468887 -0.11168432 -0.033223018 -0.057297938 -0.09136518 -0.108108014 -0.1137308
-0.019319713 -0.123110764 -0.08188362 -0.12417062 -0.026946913 -0.051147442 -0.12624371 -0.009168783

features.6.running_mean f4 [32]
00000000: 8c80 28be 6cc6 aebe 0349 05bf 37c2 a2be
00000010: 5c09 6fbe 479e a6be e50c 65be 814f aa3d
00000020: b309 163d 02ec 00bf 7410 27bf 4f10 15bd
00000030: 884d bbbe 01de 44be 1509 8bbd 146f cabd
00000040: fd9a 213e 2234 bbbe ffc2 08bf be31 b4bd
00000050: 3941 a8be a974 b2be 42e6 a5be e400 78be
00000060: e8de edbe 8228 b03e d4af a4be 528f 00bf
00000070: f6cc 593e 53cb 61be 7771 d7bd 8cad f4be
-0.16455287 -0.3413576 -0.5206453 -0.317888 -0.23343414 -0.3254263 -0.223682 0.083159454
0.036630344 -0.5036012 -0.6525948 -0.036392506 -0.3658259 -0.19225313 -0.06788842 -0.09884468
0.1578178 -0.36563212 -0.5342254 -0.0879855 -0.3286226 -0.3485463 -0.32402235 -0.2421909
-0.46459126 0.34405905 -0.32165396 -0.5021869 0.21269593 -0.22050218 -0.105196886 -0.47788656

features.6.running_var f4 [32]
00000000: 6173 2a3e 15e3 bb3e 4c9f 553f 5624 9e3e
00000010: a194 e23e 52c7 ab3e e681 cd3e 6d7f d93e
00000020: 3a6d 763e b8ac 7a3f c385 943f 317d 993e
00000030: 6f5d 7a3f 31fc f53e a835 d63e 08a8 023f
00000040: cbe8 843e 7d12 ff3e 81d7 4b3f e31a f73e
00000050: ab39 233f 6658 d13e fb30 b03e 912a d53e
00000060: 48cf 933f 5e6f fb3e e92b 173f f6c9 1a3f
00000070: 949e ae3e 94ec ae3e 0151 c83e c59e 363f
0.16645576 0.36696687 0.8344619 0.30887097 0.4425402 0.33550507 0.40138167 0.4248003
0.24065104 0.979198 1.1603321 0.29978326 0.9779882 0.4804397 0.4183781 0.51037645
0.25958857 0.49818793 0.7962571 0.482627 0.6375987 0.40887755 0.3441237 0.41634038
1.1547632 0.49108404 0.59051377 0.6046442 0.3410536 0.3416487 0.391243 0.71336013

features.10.weight f4 [64, 32, 3]
00000000: 3937 833b b027 a6bc bc60 8d3c fe12 a43c
00000010: aacb 033e d7b9 dc3d 6c7a 52bd 17d9 c33c
00000020: ab15 dabd f4d1 a23d 7d14 193d 48ea 2c3c
00000030: 0832 713d 62f4 de3c 5c7c 263d a86e 273d
00000040: 8954 a9bd a6d3 1e3d 9ab6 013d 18b1 1f3d
00000050: fdb8 953d b40b 163e 2cc2 2c3d 05f4 883c
00000060: 7e89 50bb c807 a0bd 06dd 7cbc 4d6f 00bd
00000070: 3f5b f63a 2a80 013d cc17 8fbd 1a79 88bd
00000080: 8a43 2ebb 6ac5 94bc 91c3 b8bc 456e a8bd
00000090: 414d 9c3c aa74 7ebd 7922 e4bd df52 d33c
000000a0: 95c9 443d 6389 c33d d988 4c3d f9c1 fb3d
000000b0: da68 453d 62bc 383d 0b11 e33d 340a 343d
000000c0: 4f50 b9bd 2755 26bd 66c7 4abc 75db 5bbc
000000d0: b341 0d3d 304f cb3c 4f78 443d 75f5 853d
000000e0: cc1d 443d 19b1 29bd fafb d73c 3651 523c
000000f0: 0a11 67bc cc92 9fbc d46f 223d 4973 253d
00000100: 6b75 393e bca7 213e c580 e23d 7cc1 423d
00000110: e075 5d3b 0e23 143e ade5 683d c656 a53d
00000120: 3ebd e6bc 4584 fabd eeb1 d4bd 0541 523b
00000130: cf6f b53d c6b0 7cbc 31df 0d3e 9c30 f53d
00000140: ccf3 c13d b336 ac3d 0961 813d 996b 8abb
00000150: 9b7b 12bd 27d8 89bd edf9 a5bd 580d 633c
00000160: 032c c53d 54f0 923d cdfa 65bb f92f 7abc
00000170: 407d 8dbc 069c 713d 5e54 58bd 1366 4ebd
00000180: 7359 53bd 365b 43bd d638 513d 08dc 8d3d
00000190: fe5e e43d 1e81 213d bc0b aebd 94e6 09bd
000001a0: e613 f93c 7721 933d d710 433d 7258 2dbd
000001b0: 43fd bdbc 607a f4bb 2be8 833d 06e6 123d
000001c0: 688d bd3d 7e79 563d 1aa0 993d b4c3 123e
000001d0: f1be 873d aa1e 863d b6c6 2a3d 9401 a9bc
000001e0: f9dc 87bc 04a0 453c d43e 6ebd 1290 153d
000001f0: c284 8bbd c20c adbd 5154 5fbd 8a41 21bd
00000200: 9562 70bd e7b4 f0bc a2a6 153c 6e5a b9bd
00000210: dd31 bbbc 30cd 4bbc b914 2737 5661 183e
00000220: ba51 003e cea3 f33b 4b0b 053c e184 653d
00000230: b699 b33c b354 af3d edf6 6a3d 9cb8 e03d
00000240: 8d72 623b cf8a e8bc 74cb aabc 3b94 b0bc
00000250: 2dce 04bd 8fa3 d03c 7088 1abd 51c9 1a3d
00000260: 6167 3cbd 1e5d a4bd cec3 c9ba 12de 093d
00000270: a4de 2c3d 6528 1a3d 3917 be3b 9ba5 933d
00000280: 607b 233d 9e2f 8a3d 06f4 3a3d d2b1 c93d
00000290: 592a 883d 3e94 46bb 7e8b 693d f17e 0abc
000002a0: 1a63 b3bc 2f25 a5bd 44a9 e7bc 2e4f f6bc
000002b0: 5048 f13d 1993 cb3d 3120 30bc 5f27 17bd
000002c0: 4127 bc3a acef b63c 15f0 b43d 0c4a 46bc
000002d0: b8a7 243b 4393 e1bd 7eea b3bd 42ab 663d
000002e0: 64de 0a3e 588f cc3d 1c90 b8bd c00e 8ebd
000002f0: fde2 91bd f40d 65bd 9f12 8b3c 00c0 0f3c
00000300: e823 9cbd 5774 b6bd dfbb 30bd 4533 3bbd
00000310: 4162 8bbd 4143 25bd 3d11 4e3e 1c96 c63d
00000320: 7136 523e 0177 00bc 3729 d83c 66b3 003d
00000330: 505e 353d 3782 453d 46fe 4fbd 2b34 213e
00000340: bd63 003e d853 bc3d b90c b03c 8589 95bd
00000350: a92f bfbd c0fd 04bd ca6d 313c 2248 48bd
00000360: d34f c5bc d35e b9bc 4395 7dbd 54eb b53d
00000370: 0dbc b83d a981 0b3d 86cc 5c3e d4e7 d73d
00000380: f9de 153e 1f17 573d ec9b 863d 57ad c93c
00000390: f6cf 2bbd 690a ee3c 139d 093d 8f09 be3c
000003a0: a561 fbbb 921c fabc a4b6 92bd 6fb1 6dbd
000003b0: 50f1 52bd b48c 64b9 c638 3abd 8cd2 d8bd
000003c0: 625d a93a bb05 f8bc 2652 d6ba 51c7 893d
000003d0: 898a be3d f1b4 2a3e 543e 163e c2cf b53d
000003e0: 65eb cb3d db4c 18bd a649 6abd 3ccc b7bd
000003f0: 90bd d5bc 00d1 bebb c2d4 403d 581a b7bc
0.004004386 -0.020282596 0.01725804 0.020028587 0.1287066 0.10777634 -0.05138628 0.023907227
-0.10648664 0.07950202 0.037373055 0.010553904 0.058885604 0.02721614 0.040645942 0.040877014
-0.08268077 0.038776062 0.031668283 0.03898725 0.07310674 0.14652902 0.042177364 0.01671792
-0.0031820233 -0.07813984 -0.0154335555 -0.031356145 0.0018795504 0.031616367 -0.06986961 -0.06663723
-0.002659055 -0.01816054 -0.02255419 -0.08224157 0.019079806 -0.06212298 -0.11139388 0.025796352
0.048043806 0.09547689 0.049935196 0.12292857 0.048195697 0.04510153 0.11087235 0.043955043
-0.09048521 -0.04060855 -0.012376642 -0.013419022 0.034486484 0.024818033 0.047966298 0.06540958
0.04787998 -0.04142866 0.026365269 0.012836745 -0.0141031835 -0.019479178 0.03965743 0.040393148
0.18111198 0.15786642 0.11059717 0.047547802 0.0033792183 0.14466497 0.05685966 0.08073191
-0.02816641 -0.1223226 -0.103855 0.0032082212 0.088592164 -0.015423005 0.13854672 0.11972162
0.09470329 0.084088705 0.06317336 -0.0042242524 -0.03576241 -0.06730681 -0.0810431 0.013858162
0.09627535 0.07174745 -0.0035092116 -0.015270227 -0.017271638 0.058986686 -0.052814834 -0.050390314
-0.051598977 -0.047694407 0.051079594 0.06926733 0.11150931 0.039429776 -0.08498332 -0.033667162
0.030404996 0.07184117 0.04762348 -0.042320676 -0.023192054 -0.0074608773 0.06440767 0.0358639
0.09255487 0.052361958 0.0750124 0.14332467 0.06628216 0.065488175 0.04169341 -0.020630635
-0.01658486 0.0120620765 -0.058165386 0.03651435 -0.06812431 -0.08449699 -0.05452377 -0.039369144
-0.058687765 -0.029383136 0.009133967 -0.09050451 -0.022850925 -0.012439057 9.958801e-06 0.1488088
0.12531176 0.0074352985 0.008120368 0.056034926 0.021923881 0.08561077 0.057364393 0.109727114
0.003455314 -0.028386502 -0.020848967 -0.021555057 -0.032423187 0.025468616 -0.037727773 0.037789647
-0.045997027 -0.08025573 -0.0015393437 0.03365905 0.042204514 0.03763618 0.005801108 0.07209321
0.03991258 0.067473635 0.045642875 0.0984837 0.06648702 -0.0030300762 0.057017796 -0.008453117
-0.021897841 -0.08063733 -0.028278954 -0.030067053 0.11781371 0.09940166 -0.0107498625 -0.03690278
0.001435496 0.022331081 0.088348545 -0.012102615 0.0025124382 -0.11014416 -0.0878496 0.056315668
0.13561398 0.09988278 -0.09011862 -0.06936407 -0.07123373 -0.05592151 0.016976653 0.008773804
-0.07624036 -0.08908909 -0.043147918 -0.04570319 -0.0680585 -0.04034734 0.20123763 0.096966
0.2052858 -0.007840873 0.02638684 0.031421088 0.044279397 0.048219886 -0.050779603 0.15742557
0.12538047 0.091956794 0.021490442 -0.073016204 -0.09335262 -0.032468557 0.010829398 -0.048896916
-0.024085915 -0.022628224 -0.061909925 0.08882776 0.09020243 0.0340592 0.21562394 0.105422646
0.14635839 0.052512284 0.065727085 0.024618788 -0.041946374 0.029057698 0.033597063 0.023197917
-0.0076715522 -0.030531202 -0.07163742 -0.058030542 -0.051499665 -0.0002179619 -0.0454643 -0.10587034
0.0012921507 -0.03027617 -0.0016351386 0.0672747 0.09303767 0.16670586 0.14672214 0.08877517
0.09957007 -0.03718267 -0.057199143 -0.089745015 -0.026091367 -0.0058232546 0.0470779 -0.022351429

features.10.bias f4 [64]
00000000: dbe3 353d 31c9 45bd 16cd c83d dc15 7cbd
00000010: c2da 46bd d390 853d 8ac6 a43d 8115 20bd
00000020: d2f8 db3d 2337 223c 99c8 373d 9a0d 97bb
00000030: d1f3 56bd 71fe 65bd 8269 9bbd f5b7 923d
00000040: 7257 0b3d 996e d43d 1758 d3bd 2f7b a03d
00000050: 7fc9 443d db50 343d 882a 62bb b6ef 7a3d
00000060: 5c3a 803d 3e2d fc3d 6886 98bd 8494 c1b9
00000070: 44cf 54bb 1acf bebd 8447 a73d f36d 923d
00000080: 5e42 9bbd 1164 9dbd eab9 35bc 014a 973d
00000090: db5b d33c 1c8b 113a 05ab a1bc a021 acbd
000000a0: 2930 fe3c ac8d b53d 9b6a 8ebd b448 13bd
000000b0: 8971 123e 7715 53bd 9609 92bd cf99 163d
000000c0: e3ba d13c 2a71 4c3d d5ac 6fbd 84c7 333c
000000d0: 620d 8a3c 72e7 923d 2019 793d 7ebb 90bc
000000e0: bb04 95bc f5b1 0cbd 4eef 96bd e4cf 5c3d
000000f0: 15fa a33d 4fcf 1abd bea4 94bd 4a97 8b3d
0.044406753 -0.048287574 0.09804742 -0.061544284 -0.048548467 0.06521764 0.08045681 -0.039083008
0.10740818 0.009900841 0.04486904 -0.0046097757 -0.052478615 -0.056150857 -0.075884834 0.07163993
0.03401894 0.10372657 -0.10319536 0.078359954 0.048043724 0.044022422 -0.0034510214 0.061263762
0.06261131 0.12313317 -0.07447511 -0.0003692248 -0.0032472173 -0.09316845 0.081679374 0.071498774
-0.07581018 -0.07685102 -0.011091689 0.07387162 0.025800636 0.000555204 -0.019734869 -0.08404851
0.031028824 0.088649124 -0.06953927 -0.035958007 0.14301123 -0.051534142 -0.071307346 0.036767777
0.02560181 0.04991261 -0.058514435 0.010972861 0.016852085 0.07173051 0.060814977 -0.017667528
-0.018190732 -0.0343494 -0.073698625 0.053909197 0.08006684 -0.03779536 -0.072579846 0.068159655

features.11.weight f4 [64]
00000000: d079 803f c661 7c3f cc0f 8e3f d678 833f
00000010: e93b 7d3f 5eff 883f f046 863f 84d2 873f
00000020: a6ee 813f 43b1 853f aa5c 803f 8cdb 833f
00000030: 6db9 8b3f 2e65 803f 927a 843f 60aa 803f
00000040: 5ff3 863f e871 833f fa12 7a3f 2fee 7c3f
00000050: 94da 843f a4fd 7c3f 9d0f 893f 177e 833f
00000060: 33f0 783f 973e 873f 5675 843f 8368 803f
00000070: 4db7 873f 9418 803f bd63 853f f52b 833f
00000080: 8a47 813f 5f15 803f 61ae 7f3f bb5d 893f
00000090: 57f2 853f 27c1 813f d616 803f d77c 803f
000000a0: c0e2 883f c6c3 8b3f 3b86 8c3f cae9 873f
000000b0: 2234 8c3f a2af 773f e148 823f 127e 853f
000000c0: 1239 7f3f dd8a 873f 0541 8c3f 8029 803f
000000d0: 8652 863f ae04 833f 2075 813f b4bf 8f3f
000000e0: 89fe 813f 2dde 823f 73e9 7e3f c4e4 7f3f
000000f0: 7d69 873f d497 7e3f 98a5 7f3f 548b 7b3f
1.0037174 0.9858669 1.1098571 1.0271251 0.9891954 1.0702932 1.0490398 1.0611119
1.0150955 1.0444721 1.0028279 1.0301375 1.0915962 1.0030878 1.0349905 1.0051994
1.0543021 1.0269136 0.97685206 0.9880094 1.0379205 0.98824525 1.070789 1.0272855
0.97241515 1.0565976 1.0348308 1.0031894 1.0602814 1.0007501 1.0421063 1.024779
1.0099957 1.0006522 0.99875456 1.0731729 1.0464581 1.013707 1.0006969 1.0038098
1.0694199 1.091912 1.0978464 1.0618222 1.095341 0.9675237 1.0178491 1.0429099
0.9969646 1.0589253 1.0957342 1.0012665 1.0493934 1.0235803 1.0113869 1.1230378
1.0155803 1.0224053 0.99574965 0.99958444 1.0579067 0.9945042 0.9986205 0.9825947

features.11.bias f4 [64]
00000000: e636 b0bd 401c dabd e1df ab3d b07e 3f3d
00000010: eb8b acbd 9820 9d3d 99d1 5c3d 0337 8e3c
00000020: e77f 8bbd f6e4 08bd c4a5 c6bd 44f8 cfbc
00000030: fb1c ab3d 0df9 a7bd 6ea4 a03c 8078 833c
00000040: baa5 ad3d cec4 123d 9ba3 13bd beb3 b8bd
00000050: e362 8d3d 572a bcbd 0e28 963d 82a6 c7bb
00000060: f486 fa3b 962e 923d cbc1 2b3d 0ead 2b3d
00000070: bae5 693d 4ca3 98bd 8cbf 833d 1bd4 cabc
00000080: ab30 8cbb ed4f b2bd 7853 67bd 5372 943d
00000090: 2590 57bd ebc6 a0bd 5915 66bd 88fe 59bd
000000a0: 56c8 9d3d ff59 9b3d ea69 c23c 2077 643d
000000b0: 15ee b83d dd93 adbd 9f01 133d e051 603d
000000c0: 458d a4bd 390c 5c3d 0ebe c33d 39a0 acbd
000000d0: e3c2 7c3d 6958 053d f858 96bd df57 ee3d
000000e0: 7ef8 3dbd b18c a9bd 89bb f9bd 8843 9fbd
000000f0: 8e78 7dbc 1c6e 9fbd 210a b7bd 08da b8bd
-0.08604221 -0.106499195 0.08392311 0.046751678 -0.08425125 0.076722324 0.053910825 0.017360216
-0.06811505 -0.03342148 -0.09699586 -0.025386937 0.08355137 -0.082017995 0.019609656 0.01604867
0.084788755 0.03583222 -0.0360447 -0.09018658 0.06903627 -0.09187763 0.073318586 -0.0060928473
0.007645482 0.07137792 0.041932862 0.041913085 0.05710385 -0.074530214 0.06433019 -0.024759343
-0.0042782626 -0.08706651 -0.056476086 0.07248368 -0.0526277 -0.078504406 -0.056172702 -0.053221256
0.07704227 0.07585525 0.023732144 0.05577767 0.090297855 -0.08475468 0.035890218 0.054765582
-0.080347575 0.053722594 0.095577344 -0.084289975 0.061709296 0.032555018 -0.07341188 0.11637854
-0.04637956 -0.08278788 -0.121939726 -0.077765524 -0.015470637 -0.077846736 -0.08937479 -0.09025961

features.11.running_mean f4 [64]
00000000: 90ab ee3e 214a 733e cc35 343f bfe4 923e
00000010: 8a4c 70bd 0723 2e3f 827c d03e 01b9 81bd
00000020: 7fb1 f93d 9a4b b23e f5c6 473e 0aac 24be
00000030: d252 f13e a61d 8e3e c5f6 2abe 5ea6 793e
00000040: 30ea 8f3e 6c74 933e 3e3f 903e e9cd 123f
00000050: fc2b f23d c500 353e db11 e33e 0422 14bd
00000060: 79cd 9dbe b62d 7f3d f3fb 873e 4fc3 293d
00000070: c6fb 023f ab40 403e 5cf1 003f 223a 98be
00000080: 4dff bcbd 0430 483e 3f63 193d 9b0b d53e
00000090: b115 1a3f 3c99 003e 1a9f b23d b8e4 62be
000000a0: 3c56 2e3e 751e c43e 443f b83d 5b84 823e
000000b0: 64ea db3e 34a1 ae3d 205a 163f 48c5 673e
000000c0: feb2 4d3d ecf3 eb3e 82d5 0c3f 3dbb 353e
000000d0: 1466 903e 2fe2 e6be b4b3 a33e 5450 163e
000000e0: eef7 4f3e db6c 9e3e 1245 563e 6395 813e
000000f0: 6a01 163e 6edb e13e cad8 31bd 1db4 373e
0.46615267 0.23758747 0.7039459 0.28690144 -0.058666743 0.680222 0.40719992 -0.06334115
0.12192058 0.34823304 0.1950949 -0.16081253 0.471335 0.27756995 -0.16695698 0.2437987
0.28108358 0.2879976 0.2817325 0.57345444 0.118247956 0.17676075 0.4434956 -0.036165252
-0.30820826 0.062299453 0.2655941 0.041446026 0.51165426 0.18774669 0.50368285 -0.29731852
-0.09228382 0.19549567 0.037448164 0.41610417 0.6018935 0.12558454 0.087217525 -0.22157562
0.17025083 0.38304487 0.08996442 0.25491604 0.42952263 0.08526841 0.5873127 0.2263385
0.05021953 0.46084535 0.5501329 0.17747207 0.2820288 -0.4509444 0.3197304 0.1467908
0.20309421 0.30942425 0.20924786 0.25309286 0.14648977 0.44112724 -0.043419637 0.17939802

features.11.running_var f4 [64]
00000000: 6df8 f53e 5278 ae3e 9546 e03e 0870 853e
00000010: dde0 d03e e1b2 723e f0e9 ff3e 17db fd3e
00000020: 8d15 cc3e 3cfc 163f d189 e63e e0cd 0d3f
00000030: d054 523e 17af af3e 9fc6 9d3e f412 743e
00000040: 20e5 6f3e 06e3 9d3e 5482 aa3e 7038 f63e
00000050: 3325 9e3e 8f6f af3e 8e9c 013f 5028 bc3e
00000060: 1998 963e a981 913e c9df af3e ec48 653e
00000070: b095 8a3e d720 e63e a3cf d13e ab6c 8e3e
00000080: f7e6 093f e5f7 e93e 4dc3 c73e 7678 b33e
00000090: 6002 eb3e ebfe cb3e 18d2 9f3e 373d f93e
000000a0: 495b f03e 3e56 023f c684 053f cb18 bc3e
000000b0: 42f9 093f 1418 b13e 96fd c13e 0464 a13e
000000c0: c66a dc3e 5d57 a53e 5ddf dc3e 031c aa3e
000000d0: db0c 063f b7cf 833e 2639 f53e 0119 ae3e
000000e0: 37e4 f53e baee 013f b3b2 db3e 8a32 ce3e
000000f0: 9317 ef3e 39d4 b83e c6b7 ea3e 30d3 cb3e
0.48041096 0.34076172 0.4380385 0.26062036 0.40796557 0.2370105 0.49983168 0.49581215
0.39860192 0.5897863 0.4502702 0.55392265 0.20540166 0.3431327 0.30815598 0.23835355
0.23427248 0.30837268 0.33302557 0.48089933 0.30887756 0.342648 0.5062951 0.36749506
0.29412916 0.28419235 0.34350422 0.22391099 0.27067327 0.4494693 0.40978727 0.27817282
0.5386805 0.4569694 0.3901619 0.35052842 0.4590025 0.39842924 0.31214976 0.48679516
0.46944645 0.50912845 0.5215572 0.36737666 0.5389596 0.34588683 0.37888783 0.31521618
0.43050212 0.32293215 0.43139163 0.33224496 0.52363366 0.2574441 0.47895163 0.3400345
0.48025677 0.5075489 0.42909774 0.40272933 0.46697673 0.36099413 0.45843333 0.3980956

embedding_layer.0.weight f4 [16, 64]
00000000: 0150 ac3d 5bec babb 3fba 2d3b 6eb1 11be
00000010: 179d 02bc 16f8 33be be06 7abd 2f27 92bd
00000020: 9ec4 d23d 990b 0bbe cc48 233d 65bf 18be
00000030: 1801 06be 5e2a 9d3d 1d41 c83d 7881 203c
00000040: 50e8 29be bcb0 ee3c 75e3 96bc 2467 763d
00000050: 4c6f 98bd 2dd2 163e a39f 8f3d c26c 21be
00000060: 1f1b 53bc df9d 6b3b 86cb 93ba 1e0c 43bd
00000070: 7b48 cdbd 08fb 09bd ae8f f1bd d3cc 453d
00000080: 0e8b 10be df2c 7d3d 6709 803b 5bed f73b
00000090: dd56 25bd 53b8 2e3e 18e5 09bb 32f0 e23d
000000a0: fa6d c5bd bcb2 d43c 4582 b3bc e7b7 703d
000000b0: c21a e3bd 0814 043e 8d03 653d 0456 58be
000000c0: 3808 023e 74a2 9dbd 50c2 fa3c 808a 1c3e
000000d0: 9460 c63b 7a5b a2bd f040 dabb 985c ccbd
000000e0: 9d64 673c b58c 62bb ccfc 7b3d 147b af3d
000000f0: 74d5 f4bd 698a b33d a0dd 9dbc cd8a c63d
00000100: 36b7 a23d 6b52 503b f274 0b3d d57d b9bc
00000110: 1bd7 57bc 72c3 e1bd 65a0 963c f3d4 3ebe
00000120: eddf 8d3d 37f7 91bc 544a 24bd d2a7 99bd
00000130: d1e2 acbc f00e fa3d 20a0 d23d bde0 17be
00000140: e7cf f1bd 5af4 593d 9140 ea3d 63eb 133e
00000150: f7db 9dbc a3da 113e 11b8 83bd 8851 95bd
00000160: 1fb1 07be 6f92 cbbd faa4 90bd d080 eebd
00000170: bca4 233a dfcf 963d cb0a 613d df23 053e
00000180: 9337 2ebe e47a 763b 3c0e 203e 66e7 e0bd
00000190: 75fe 093e 3145 ba3d df1e 6dbd a52d a93d
000001a0: 4747 46bd 5617 813b b29c e5bd 08a1 323d
000001b0: e766 253d 2f72 003e 7da2 dcbb f458 30be
000001c0: 07bc 273e 1fba 0dbd fd70 973d c21f a83d
000001d0: 065d 283c 8e4b 903d 08e4 ff3d 545c 09be
000001e0: 568e 4c3d 9b29 933d 6508 043e 4928 9c3d
000001f0: c340 babd 70f8 fb3d 1c2f 1f3e 2664 013e
00000200: 5889 6fbc dda1 d0bc ded0 653d 9ecc ef3d
00000210: 0d14 a5bc 5127 aebc 9f9c f73d 06a6 52be
00000220: 2792 62bd 38c4 09be e12c 3a3c a7cd 9dbd
00000230: 8371 233e 82ad 71bd 1487 d9bd add1 a43d
00000240: 00be c63c 8453 fb3d 8c41 45bd 89db c0bd
00000250: ea62 22bd 0f16 c33d afd9 1e3e 9e6b f4bd
00000260: 9264 783c 542e 8dbd 82e0 2f3e bb48 683b
00000270: 40f5 283d b73f 7b3d cbe1 1f3e 304e fe3b
00000280: ba50 6dbd e9f7 3d3d 0f9b 933c 94a0 c83d
00000290: 8dab d3bd 6a22 acbd 9d6b 36bd 1c30 c1bd
000002a0: 6800 e93d 1719 b5bb 3fc7 5dbe f1ed 963d
000002b0: c8aa 2a3e 3e7b 38be 3152 763d fef0 3dbd
000002c0: 3ce4 acbd 1d6e ca3d 1f33 4b3e db23 713d
000002d0: 4832 353d 4766 61be 63b8 e6bd 0e31 a03d
000002e0: d157 aabd 6207 02be 085d 013d 41d5 30bb
000002f0: 513f e2bc 3821 0ebe 1149 a43b cb45 b73c
00000300: 4f67 813c 566b c0bd b4db 8b3d 3b28 9e3d
00000310: ab9f 2ebd 66bb 083d 405a 113e 98bb 3b3d
00000320: d3d7 6bbc f387 2f3d a4c0 5abd 2bc4 4dbd
00000330: fc14 1c3e 1b0c 07bd b059 e03c 89f8 073d
00000340: badc 3d3e a284 d93d 31c6 10bd 7719 36bd
00000350: d232 a63d 002e 9fbd ec35 86bb 67f5 533d
00000360: bcc0 e13d 8b23 ff3d 75d0 7d3c 4de9 053e
00000370: 6e1a bd3c 4c5f 8fbd 912a 023e bd5d 4ebd
00000380: 1505 0a3d 0583 18bd 6537 8dbd d558 a23d
00000390: aa95 e0bb 9f1a 423d 0512 473d dd69 d3bc
000003a0: 7f04 323e 8d7d 013e 526e 553a 6e5d 943d
000003b0: 8b1c b73d e132 e6b9 ba57 103d 1aa0 af3d
000003c0: 620e 0fbd 2fb8 703c aa47 003e 068b 80bd
000003d0: a266 0e3e e0f6 d93d 26fa 38bd e8fb da3d
000003e0: d806 5abd 4154 4f3c ba62 acbd b71c 2dbd
000003f0: 76ac b4bd 4a99 11be dd80 a7bd efd2 7dbd
0.08413697 -0.0057044453 0.0026508716 -0.1422784 -0.007972023 -0.17575106 -0.061041586 -0.0713638
0.10291408 -0.13578643 0.039864346 -0.14916761 -0.13086355 0.076740965 0.097780444 0.009796493
-0.16592526 0.029137008 -0.018419007 0.060156956 -0.07443103 0.14728613 0.0701287 -0.15764144
-0.012884884 0.0035952253 -0.0011275865 -0.047618978 -0.1002359 -0.033686668 -0.11794983 0.04829104
-0.14115545 0.06181037 0.003907371 0.007566137 -0.040366042 0.17062502 -0.0021041092 0.1108097
-0.09640117 0.025964133 -0.021912703 0.058769133 -0.11089088 0.12898266 0.05591159 -0.21126562
0.12698448 -0.07697001 0.030610234 0.15287209 0.0060539935 -0.07927604 -0.006660573 -0.09978598
0.014123109 -0.0034568731 0.061520383 0.08568397 -0.119547755 0.08766634 -0.019270718 0.09694443
0.07945101 0.0031787406 0.034047075 -0.02264301 -0.013173844 -0.11023606 0.018387029 -0.18635921
0.06927476 -0.017818077 -0.040109947 -0.07502712 -0.021104248 0.1220988 0.10284448 -0.14831825
-0.11807232 0.053211547 0.11438096 0.14445262 -0.019269926 0.1424356 -0.06431592 -0.072909415
-0.1325116 -0.09940039 -0.07062717 -0.11645663 0.0006242504 0.07363867 0.054941934 0.13001965
-0.17013387 0.003760987 0.1563043 -0.10981636 0.13475974 0.090952285 -0.05789077 0.08260659
-0.04840782 0.0039395494 -0.11211528 0.043610603 0.04038134 0.12543558 -0.0067332373 -0.17221433
0.1638032 -0.034601327 0.07394598 0.08209182 0.010276085 0.07045661 0.124946654 -0.13414127
0.04994043 0.0718567 0.12893827 0.07624871 -0.090943836 0.12303245 0.15545315 0.1263586
-0.014620148 -0.025467807 0.056107394 0.117089495 -0.020151163 -0.021258982 0.1209042 -0.20571145
-0.055315163 -0.13453758 0.011363239 -0.07705241 0.1596127 -0.05900336 -0.10621467 0.08047805
0.024260521 0.12271789 -0.048158213 -0.09416873 -0.039645113 0.09525692 0.15512727 -0.11934589
0.015160697 -0.06893602 0.17175487 0.0035443741 0.041249514 0.06134006 0.15613477 0.0077607855
-0.057938315 0.046379004 0.018018274 0.09796253 -0.10335455 -0.084050015 -0.04453622 -0.09433004
0.113770306 -0.0055266726 -0.21658038 0.073696025 0.1666671 -0.18015763 0.060136978 -0.046372406
-0.0844197 0.09884284 0.1984372 0.058872085 0.044237405 -0.22011672 -0.11265638 0.078218564
-0.08317531 -0.12698129 0.031582862 -0.0026982578 -0.027618082 -0.1387986 0.005013593 0.022372147
0.015796332 -0.09395473 0.068290144 0.07722517 -0.04263274 0.033381842 0.14194584 0.0458332
-0.014394718 0.04285426 -0.053406373 -0.05023591 0.1524238 -0.03297053 0.027386516 0.033196006
0.18541232 0.10621001 -0.03534526 -0.04445788 0.08115162 -0.07772446 -0.0040957835 0.051747706
0.11023089 0.12457951 0.015491595 0.13077278 0.023083892 -0.07000598 0.1271155 -0.050382365
0.033696253 -0.037234325 -0.06895331 0.079270996 -0.006853779 0.04738867 0.04860117 -0.025807315
0.17384528 0.1264555 0.0008141744 0.07244383 0.08940991 -0.00043906926 0.035239913 0.08575459
-0.034925826 0.01469235 0.12527338 -0.062765166 0.13906339 0.10642791 -0.045160435 0.106925786
-0.053229183 0.012654365 -0.08417268 -0.042263713 -0.08821957 -0.14218631 -0.081788756 -0.06196874

embedding_layer.0.bias f4 [16]
00000000: af60 49bc 0f48 3abd f3cf 3cbd b5ee fc3d
00000010: 242e 213d c5ca 81bd 9285 883c 32a5 ef3d
00000020: 92a7 1c3e 653a 1b3e 208a 583d 1271 de3d
00000030: da86 183d d85b d63c 6412 dbbd 59df 8bbd
-0.012291118 -0.045478877 -0.046096753 0.12350217 0.039350644 -0.06337503 0.016665254 0.117014304
0.15298298 0.15158994 0.0528661 0.1086141 0.03723798 0.026166841 -0.10696867 -0.068297096

classifier.weight f4 [2, 16]
00000000: 40aa 8abe 0f94 5cbe 6dbf 4d3e 0e35 613e
00000010: ea2e debd 646f 573d 6875 bdbd f1d2 b03e
00000020: 4cf9 743e 47fd 7f3e 642b 013e c7c9 7abd
00000030: 5d0e af3e f8e8 87be e894 49be 451c 40be
00000040: 878a cd3c b7a3 3d3e d87a 0fbe 142e 8abe
00000050: 5ce0 9f3e 8d5e b43e f442 313e ff4c c1be
00000060: c11f 873d eb3f d4bc e5c0 67bd 75c2 9dbe
00000070: f351 d63d 6db6 24bd 5648 30be 5a09 6a3e
-0.27083015 -0.21540855 0.20092554 0.21992895 -0.10848792 0.052596465 -0.09250909 0.34535936
0.23923224 0.24998961 0.12614208 -0.061227586 0.34190646 -0.2654493 -0.1968571 -0.18760784
0.025090469 0.18519484 -0.14011705 -0.2698828 0.3122586 0.35228387 0.17310697 -0.37754056
0.065978535 -0.025909385 -0.056580443 -0.3081242 0.10464849 -0.040213037 -0.17215094 0.2285513

classifier.bias f4 [2]
00000000: b9ce 0f3e 2745 dc3c
0.14043702 0.026888443
