o02_test/run_outputs/58Acnn_train_weights.pth (torch, 48171 bytes, 22 tensors)

features.0.weight f4 [16, 6, 5]
0	0x3fefd468	1.8736696
1	0x3f5fdc61	0.87445647
2	0xbebd40b4	-0.36963427
3	0xbfa42137	-1.2822636
4	0xbff7c986	-1.9358375
5	0xbee8bcdd	-0.4545659
6	0xbf3cd822	-0.7376729
7	0xbed866b7	-0.42265865
8	0xbe3c379b	-0.18380587
9	0xbeb86dcf	-0.36021277
10	0x3ecffee9	0.4062417
11	0x3e2d144f	0.16902278
12	0x3e92104b	0.28528056
13	0x3d90355d	0.07041428
14	0xbccaadb5	-0.024741033
15	0xbcba0065	-0.022705266
16	0x3c699913	0.014257687
17	0x3c0bd7b1	0.008535312
18	0x3d307a5b	0.043085437
19	0x3dd58d57	0.10427349
20	0xbdfafa22	-0.1225474
21	0x3d49ea0a	0.049295463
22	0xbd58a630	-0.052892864
23	0x3dfdf9ff	0.124011986
24	0x3bf1fc7f	0.007384836
25	0xbe962de4	-0.29331887
26	0xbce2995c	-0.027661018
27	0xbd90aa5a	-0.07063742
28	0xbd75e630	-0.060033977
29	0xbed113d6	-0.40835446
30	0xc03934bc	-2.8938437
31	0xc0475634	-3.1146364
32	0xbfe41be8	-1.7821016
33	0xbf05981f	-0.52185243
34	0x3f1ada50	0.6048937
35	0x3f2e0910	0.6798258
36	0x3e9719cf	0.29511878
37	0x3e3012a8	0.17194617
38	0xbe0c35b9	-0.13692369
39	0x3db00284	0.0859423
40	0x3f607318	0.8767562
41	0x3f7d22b5	0.98881084
42	0x3f92e005	1.1474615
43	0x3fb32bb1	1.3997709
44	0x3fc39790	1.5280628
45	0xbd933053	-0.071869515
46	0x3daeac69	0.085289784
47	0xbd82c967	-0.06386071
48	0x3d21ae8e	0.03947311
49	0x3b47e781	0.0030502977
50	0xbdd97afd	-0.10619161
51	0xbdc2bf61	-0.09509159
52	0x3caa5d1e	0.020796355
53	0x3e61f0f9	0.2206458
54	0xbd0d9a79	-0.034571145
55	0xbd2f32c1	-0.042773012
56	0x3c897441	0.016779067
57	0xbc70e5a8	-0.014703192
58	0x3dee4f1a	0.11636181
59	0xbe24d580	-0.16097069
60	0xc054d30e	-3.3253818
61	0xc05b0f77	-3.422819
62	0xc022428e	-2.5353122
63	0xbfe5fe32	-1.7968199
64	0xbf51060d	-0.8164986
65	0x3ef37e07	0.4755709
66	0x3efecd39	0.49765947
67	0xbe89e5d5	-0.2693316
68	0xbf025570	-0.5091162
69	0xbf80db49	-1.006692
70	0xbe00b5ce	-0.12569353
71	0xbe5ebf28	-0.21752608
72	0xbd30ddd6	-0.04318031
73	0x3ed4d936	0.4157197
74	0x3f470910	0.77748203
75	0x3b84e988	0.0040561594
76	0xbcb68817	-0.02228169
77	0x3d8aadac	0.067714065
78	0xbd5ed805	-0.05440523
79	0x3dd31e3e	0.103085026
80	0xbe2299fb	-0.15879051
81	0xbe03e06a	-0.12878576
82	0x3e49f80c	0.19723529
83	0xbce8418d	-0.02835157
84	0x3c686db0	0.014186308
85	0xbdd37ff3	-0.10327139
86	0x3df05273	0.11734476
87	0xbdb6cd8e	-0.08925925
88	0xbd85f574	-0.06540957
89	0x3d0d0249	0.034426007
90	0x40405c4f	3.005634
91	0x4017ace6	2.369928
92	0x3fb2cbd1	1.396845
93	0x3eaa66f5	0.33281675
94	0xbed396f4	-0.41326106
95	0xbed87884	-0.42279446
96	0x3e64c358	0.22340143
97	0x3ea4fd94	0.32224715
98	0x3f5e5e55	0.8686269
99	0x3f736614	0.95077634
100	0xbe27b136	-0.16376194
101	0xbe9e527b	-0.30922303
102	0xbeb1f483	-0.3475686
103	0xbea27b6f	-0.31734797
104	0xbeee85b9	-0.46586397
105	0xbd35ea84	-0.044413105
106	0xbd69d091	-0.05708367
107	0x3cb431f7	0.021996481
108	0xbd26b7b5	-0.04070254
109	0xbd9b3a47	-0.07579475
110	0xbc452b66	-0.012034273
111	0xbdffc847	-0.12489372
112	0x397e3bf2	0.00024245659
113	0xbdf63ab2	-0.12022914
114	0xbcac871e	-0.021060523
115	0xbe2a5114	-0.16632491
116	0xbdf19184	-0.11795333
117	0xbea8b908	-0.32953668
118	0xbe589652	-0.21151093
119	0x3c599a28	0.013281383
120	0xbfa4c004	-1.2871099
121	0xbeeca478	-0.4621923
122	0x3f364be0	0.71209526
123	0x3fb4cc62	1.4124873
124	0x40022e5a	2.034079
125	0xbec8dc2d	-0.3923048
126	0xbef481c6	-0.4775526
127	0xbf0471b3	-0.5173599
128	0xbf2abc34	-0.66693425
129	0xbf8a029c	-1.0782046
130	0x3fb80b19	1.4378387
131	0x3fcd0db0	1.6019802
132	0x3fb56568	1.4171572
133	0x3fbf7a1d	1.4959141
134	0x3f921fdb	1.1415972
135	0xbe3eee24	-0.18645531
136	0xbd3d192e	-0.04616659
137	0xbc512d3a	-0.0127671305
138	0x3db3cfac	0.08779845
139	0x3d7a0cd2	0.061047383
140	0xbc00f58e	-0.007871045
141	0xbe26ae0b	-0.1627733
142	0x3d1a63f6	0.037692986
143	0xbe1cb3d2	-0.15302971
144	0xbe2f7cf0	-0.17137504
145	0x3db35606	0.08756642
146	0x3d98ec61	0.07466961
147	0x3d77f48d	0.060535956
148	0x3dde4ffa	0.10855098
149	0xbdcbe3cd	-0.09955559
150	0xbf37d42c	-0.71808124
151	0x3f46b33c	0.7761724
152	0x3ecc2d5a	0.3987835
153	0x3eceeac1	0.40413478
154	0x3fa895e6	1.3170745
155	0x3f1077d1	0.56432825
156	0x3e7e1685	0.24813278
157	0xbe001976	-0.12509713
158	0x3f0d328f	0.5515527
159	0x3f19d058	0.6008353
160	0xbf8fa084	-1.122086
161	0xbf8bb6dd	-1.091518
162	0xbedcb43a	-0.43106252
163	0xbf3ea35c	-0.74468017
164	0xbf8ce373	-1.1006912
165	0x3d4c8ba9	0.049937878
166	0xbd770e38	-0.060316294
167	0x38b071f6	8.413561e-05
168	0x3c49d287	0.01231826
169	0x3c310b58	0.010805927
170	0xbdfcb1ee	-0.12338625
171	0x3e16b136	0.14716038
172	0x3e1e94e4	0.15486485
173	0xbe11a55e	-0.14223239
174	0xbc6ead04	-0.014567617
175	0xbda3e898	-0.08003348
176	0xbdc4da97	-0.09612005
177	0x3e340c60	0.17582846
178	0x3e201eec	0.15636796
179	0xbe75f59f	-0.24019478
180	0x3fe28aae	1.7698572
181	0x3f8c34ad	1.0953575
182	0x3b420750	0.002960641
183	0xbfb0a759	-1.380107
184	0xc0092270	-2.142727
185	0x3d9fa58b	0.07795247
186	0x3d6de0c8	0.058075696
187	0xbca66941	-0.02031386
188	0xbed005d7	-0.40629455
189	0xbec07d67	-0.37595674
190	0x3ed70b6a	0.42000896
191	0x3e8f919f	0.28040788
192	0x3eb839a6	0.35981482
193	0x3ef8c41e	0.48587126
194	0x3ebbeb31	0.36702874
195	0x3c46b6b7	0.012128524
196	0xbc564b71	-0.01307951
197	0x3c945de0	0.01811117
198	0x3bf9db04	0.0076249857
199	0xbc13d0fd	-0.009021995
200	0xbe16c7eb	-0.147247
201	0xbce6ae30	-0.028159231
202	0x3d26433c	0.040591463
203	0x3d6c59ab	0.0577027
204	0x3dad91e9	0.08475096
205	0xbeb9c57c	-0.3628348
206	0xbd7f80ef	-0.06237882
207	0xbdf73539	-0.12070698
208	0xbd800aee	-0.06252085
209	0xbea6aa02	-0.3255158
210	0x3ffd7815	1.9802271
211	0x3fb5f0df	1.4214133
212	0x3dfab645	0.122417964
213	0xbf639a9b	-0.88907784
214	0xbfcc28c8	-1.5949945
215	0x3ff9978c	1.9499373
216	0x3ff36156	1.901408
217	0x3f812909	1.0090648
218	0x3ec90a7f	0.3926582
219	0xbd6e78cc	-0.05822067
220	0xbf905e02	-1.1278689
221	0xbf923dbb	-1.1425089
222	0xbf8dcd1c	-1.107822
223	0xbf6d3638	-0.92660856
224	0xbf8576ed	-1.0426918
225	0x3e2bfb4f	0.16795085
226	0x3df77dc0	0.12084532
227	0x3d74f010	0.059799254
228	0xbdb510ca	-0.08841093
229	0xbdfc497f	-0.12318706
230	0xbe9a8141	-0.30176738
231	0xbb8e1f29	-0.0043372107
232	0x3d82b034	0.06381264
233	0x3e0058e5	0.1253391
234	0x3ddec305	0.10877041
235	0x3a708c17	0.00091761485
236	0x3bbea144	0.005817564
237	0xbcd7386a	-0.026272018
238	0x3d1a3242	0.037645586
239	0x3cfa1f84	0.030532606
240	0x3f952292	1.1651175
241	0x3fcf79ae	1.6209009
242	0x40027bda	2.0388093
243	0x3ffe261b	1.9855379
244	0x40017078	2.0224895
245	0xc012f18f	-2.2959936
246	0xc03c0c9d	-2.9382699
247	0xc003291a	-2.0493836
248	0xc00121e3	-2.0176933
249	0xbfdc68d9	-1.7219497
250	0x3f98d920	1.1941261
251	0x3f8b7108	1.0893869
252	0x3f87d0fb	1.0610651
253	0x3f7d198f	0.98867124
254	0x3f6d2877	0.9263987
255	0xbd56290a	-0.05228523

features.0.bias f4 [16]
0	0x3dc6252a	0.09675057
1	0x3d065aa8	0.0328013
2	0xbe199327	-0.1499754
3	0x3cc13fa4	0.023589917
4	0xbdc6b2da	-0.09702082
5	0xbe116382	-0.14198115
6	0x3dee13f8	0.116249025
7	0xbdc31588	-0.09525591
8	0x3dc4a0ce	0.096009836
9	0x3e92146b	0.28531203
10	0x3df74c5f	0.120751135
11	0x3d4ed20f	0.050493296
12	0x3d0bc47f	0.03412294
13	0x3df0279f	0.11726307
14	0xbe596a9d	-0.21232076
15	0xbd85a036	-0.065246984

features.1.weight f4 [16]
0	0x3f5ed26c	0.8703983
1	0x3f694580	0.91121674
2	0x3f4c0913	0.79701346
3	0x3f69fee8	0.9140458
4	0x3f2b8702	0.6700288
5	0x3f652a0a	0.8951727
6	0x3f60e997	0.8785643
7	0x3f4cf7e4	0.8006575
8	0x3f4b8de1	0.79513365
9	0x3f5ff5a9	0.8748422
10	0x3f601d15	0.87544376
11	0x3f3977c3	0.72448367
12	0x3f4b69b6	0.7945818
13	0x3f4ec0aa	0.8076273
14	0x3f5831fb	0.84451264
15	0x3f438488	0.763741

features.1.bias f4 [16]
0	0xbdb89dc0	-0.090144634
1	0xbec2958b	-0.38004717
2	0xbe8db497	-0.27676842
3	0xbba0e82e	-0.0049104905
4	0xbeaad8a3	-0.33368406
5	0xbecdcc38	-0.4019487
6	0xbe93ae8c	-0.28844106
7	0xbdfbd0af	-0.122956626
8	0xbdab201f	-0.08355736
9	0xbc921ba9	-0.017835455
10	0xbb111bee	-0.0022141892
11	0xbbde2a57	-0.0067799496
12	0xbd282e50	-0.041059792
13	0xbe8356a5	-0.25652042
14	0xbbdbc4fe	-0.006706833
15	0xbcaa3ad2	-0.02078

features.1.running_mean f4 [16]
0	0x3d22487f	0.03961992
1	0x3ce6d8f7	0.028179629
2	0xbe1dd2e9	-0.15412487
3	0xbc7116bf	-0.014714896
4	0xbd6c89f2	-0.057748742
5	0xbe168f68	-0.14703143
6	0x3d63a4e9	0.055577192
7	0xbdcc4cf4	-0.09975615
8	0x3dc018ef	0.09379756
9	0x3ea09e6e	0.31370872
10	0x3d9137f4	0.0709075
11	0x3d36f9d4	0.04467185
12	0x3c616dfd	0.013759133
13	0x3dcb6006	0.099304244
14	0xbe856638	-0.2605455
15	0xbda60a9e	-0.08107494

features.1.running_var f4 [16]
0	0x449eb581	1269.672
1	0x41db2c30	27.396576
2	0x429e0a2a	79.01985
3	0x44a336fe	1305.7185
4	0x43b0ab39	353.33768
5	0x41887792	17.058384
6	0x44a8c4cc	1350.1499
7	0x439bd313	311.64902
8	0x42372576	45.786583
9	0x44ab73d1	1371.6193
10	0x446ebab5	954.9173
11	0x434201b6	194.00668
12	0x43ae36c0	348.42773
13	0x4337d7e3	183.8433
14	0x43e5c259	459.51834
15	0x43d5a93b	427.3221

features.5.weight f4 [32, 16, 3]
0	0xbc1cd02d	-0.009571117
1	0x3c7372fe	0.014858959
2	0xbdb935ef	-0.0904349
3	0xbe380cc0	-0.17973614
4	0xbe3fb418	-0.18721044
5	0xbe2c4a5c	-0.16825241
6	0x3d8e7a34	0.06956902
7	0x3ca3307a	0.019920576
8	0xbd11c491	-0.03558785
9	0x3dc1e94c	0.09468326
10	0x3d29094c	0.04126863
11	0x3de2295c	0.11043045
12	0xbbe8b514	-0.0071016643
13	0x3c595628	0.01326517
14	0x3d44e855	0.04807313
15	0xbe532306	-0.20618829
16	0xbe1fdf2e	-0.1561248
17	0xbe313d84	-0.17308623
18	0xbdf59f43	-0.119932674
19	0xbd9543e7	-0.07288342
20	0x3d7fd1fe	0.062456124
21	0xbe0825d3	-0.13295679
22	0x3db1af8b	0.0867606
23	0x3cb78c4d	0.022405768
24	0xbd68cd90	-0.056836665
25	0x3c285019	0.010273003
26	0xbcbb34a9	-0.022852259
27	0x3e269e0f	0.16271232
28	0x3e82d42b	0.25552496
29	0xbdd5359a	-0.10410614
30	0x3cb3abcd	0.021932507
31	0x3b846111	0.0040398915
32	0x3c8edd96	0.017439645
33	0xbe0d7582	-0.13814357
34	0xbd1ea0e4	-0.038727656
35	0xbc2c1ae0	-0.010504454
36	0xbd3fd217	-0.046831217
37	0xbcd8025d	-0.026368314
38	0xbd87988b	-0.06620892
39	0xbdbbbd3f	-0.09166955
40	0xbe5e18a9	-0.21689095
41	0xbe22a811	-0.15884425
42	0xbdb870fd	-0.09005926
43	0x3e38fec6	0.18065938
44	0x3cecea8f	0.02892044
45	0x3d66242e	0.056186847
46	0xbd58d4be	-0.05293726
47	0x3cd7a53d	0.026323909
48	0xbdfb12c3	-0.12259438
49	0xbe0edc3c	-0.139512
50	0xbda6936f	-0.081335895
51	0x3d8b4fa1	0.068022974
52	0x3e9579a7	0.29194376
53	0xbbc36a02	-0.005963565
54	0x3d8166fd	0.063184716
55	0x3e135543	0.14387994
56	0xbcc56336	-0.024095159
57	0x3d578b33	0.052622985
58	0xbc037f7b	-0.008025999
59	0xbdc0d9f4	-0.09416571
60	0x3dd8b90c	0.1058217
61	0x3c854c61	0.016271772
62	0xbd749ca9	-0.059719715
63	0x3e711035	0.23541339
64	0x3d61c750	0.05512172
65	0x3d995fcb	0.07488974
66	0xbe51c84a	-0.2048656
67	0xbe829024	-0.25500596
68	0xbe504071	-0.20337082
69	0xbdd80264	-0.10547331
70	0xbd89c6ac	-0.06727347
71	0xbd8ad2ad	-0.067784645
72	0xbb095c6e	-0.0020959633
73	0xbdca4f44	-0.098784
74	0xbdcb05ca	-0.099132136
75	0x3ca1cd50	0.019751221
76	0x3c1ea72b	0.009683411
77	0xbbb71092	-0.005586692
78	0xbdbb81f7	-0.09155648
79	0xbe03c350	-0.12867475
80	0xbe2c2c3e	-0.16813752
81	0xbd4ae0f7	-0.04953095
82	0xbd6a9aeb	-0.057276648
83	0xbc87a9c6	-0.016560446
84	0x3d9ddf8e	0.07708655
85	0xbd95922e	-0.07303272
86	0x3dddb92c	0.10826334
87	0x3dedbc15	0.116081394
88	0xbd597a62	-0.05309523
89	0x3d3922ea	0.045199312
90	0xbe2c5c50	-0.1683209
91	0xbdcc5f15	-0.09979073
92	0x3d29e1fd	0.041475285
93	0xbb1bb64a	-0.0023759776
94	0xbd4bf1a6	-0.049791
95	0xbd937037	-0.07199138
96	0x3c52281f	0.012826948
97	0x3da54467	0.08069687
98	0x3ca85155	0.020546595
99	0xbbd3835e	-0.006454869
100	0x3d099a52	0.033594437
101	0xbc4b542c	-0.012410205
102	0x3d7c29ea	0.06156341
103	0xbdcd7f94	-0.10034099
104	0xbc343340	-0.010998547
105	0xbe5c80ce	-0.2153351
106	0xbe76b366	-0.24091873
107	0xbe1af543	-0.15132622
108	0x3cf48632	0.029849146
109	0xbd8ffd0f	-0.07030689
110	0xbd1ebccf	-0.03875428
111	0x3e265267	0.16242371
112	0x3dc6ed2f	0.09713208
113	0x3c884616	0.016634982
114	0x3e63d261	0.22248222
115	0x3d99a558	0.0750224
116	0x3bc81a13	0.006106624
117	0x3e00f9e5	0.12595327
118	0xbbe56af7	-0.0070012766
119	0xbd0c0574	-0.034184888
120	0x3dbed2c3	0.09317543
121	0x3d2cb7dc	0.04216753
122	0xbd8f7282	-0.070042625
123	0xbcd77730	-0.02630195
124	0xbde4bc8f	-0.11168777
125	0xbe26d458	-0.1629194
126	0xbe14a177	-0.14514719
127	0xbe02f8cf	-0.12790225
128	0xbde5681d	-0.11201499
129	0xb9c34917	-0.00037247755
130	0x3d20b461	0.039234523
131	0x3b4e7915	0.0031505276
132	0xbd5f1cbb	-0.05447076
133	0xbde91437	-0.11380809
134	0xbe2b64ea	-0.16737714
135	0xbd23bb65	-0.039973635
136	0x3c3b75be	0.011441646
137	0x3ce42ef1	0.027854415
138	0xbe666ec1	-0.22503187
139	0xbe9380e0	-0.2880926
140	0xbe81fc38	-0.2538774
141	0xbd93ac73	-0.072106265
142	0xbe9697c5	-0.29412666
143	0xbe7bed38	-0.2460221
144	0x3d857367	0.06516152
145	0xbd414711	-0.047186915
146	0x3d9d07c2	0.07667495
147	0x3d5f8eec	0.05457966
148	0xbe3a7483	-0.18208508
149	0xbe69cbcd	-0.2283165
150	0xbc8cdf87	-0.01719643
151	0xbc535601	-0.012898923
152	0xbd80f5b1	-0.06296862
153	0xbc880251	-0.016602667
154	0x3e487118	0.19574392
155	0x3d2329d4	0.039834812
156	0x3db66518	0.08906001
157	0xbcbdf0dd	-0.023186142
158	0xbd40269e	-0.04691183
159	0x3bc1ca26	0.0059139905
160	0xbd61a1df	-0.055086013
161	0xbe7f5980	-0.24936485
162	0x3d04bd68	0.032407194
163	0x3e076700	0.13222885
164	0xbd50167b	-0.05080269
165	0xbe701aaa	-0.23447672
166	0xbe741451	-0.23835875
167	0xbe43880c	-0.19094867
168	0x3e094cde	0.13408229
169	0xbd89549d	-0.06705592
170	0xbdc9c2ad	-0.098515846
171	0x3bb9bcb6	0.005668248
172	0x3d1f6cc0	0.03892207
173	0xbd80c63b	-0.062878095
174	0x3d7798b5	0.060448367
175	0x3de94713	0.113905095
176	0x3e1150b3	0.1419094
177	0xbd24a8ef	-0.04020017
178	0xbd44157f	-0.047872063
179	0x3e3387ac	0.17532223
180	0xbba0a11b	-0.004902018
181	0xbc6b5368	-0.014363147
182	0xbd397e02	-0.045286186
183	0x3d17b339	0.037036154
184	0x3db8582e	0.09001194
185	0x3cbf5e38	0.023360357
186	0xbe2307e1	-0.15920974
187	0xba611995	-0.0008586881
188	0xbd1fd063	-0.039017092
189	0xbe0c7cbe	-0.1371946
190	0xbe76577d	-0.24056812
191	0xbe0d11fd	-0.13776393
192	0xbccb12d8	-0.024789259
193	0xbe0ded61	-0.13860084
194	0xbdcf3c22	-0.10118891
195	0x3c27af1a	0.010234619
196	0xbdcb1f21	-0.09918047
197	0x3e61cf88	0.22051823
198	0x3b79fea1	0.0038146155
199	0x3d594738	0.053046435
200	0x3e1e4707	0.15456782
201	0x3e8454a3	0.25845823
202	0xbe5ecb28	-0.21757185
203	0x3a2c778d	0.0006579094
204	0xbe25dac3	-0.16196732
205	0xbd4cf9d8	-0.050042957
206	0xbd04599e	-0.032312028
207	0xbe8befb5	-0.2733132
208	0x3b9e8cba	0.0048385533
209	0xbdaa6eb3	-0.083218955
210	0x3d25b171	0.040452424
211	0xbdf9246b	-0.12165149
212	0xbeb45c48	-0.35226655
213	0xbd6206cf	-0.055182274
214	0x3c26e17b	0.010185595
215	0x3cd59c1e	0.026075419
216	0xbe1c64f6	-0.15272889
217	0xbdac8b29	-0.0842498
218	0x3cf74419	0.030183839
219	0xbbc7f8a7	-0.0061026397
220	0xbdaacdab	-0.08340009
221	0xbdeb5c72	-0.11492242
222	0x3d1bd4e8	0.03804484
223	0xbcfae6f5	-0.030627707
224	0xbdaffdeb	-0.08593353
225	0xbc8217c1	-0.015880467
226	0x3c94a6e3	0.018145984
227	0x3e46a7ee	0.19399998
228	0xbca17196	-0.019707482
229	0x3db9a044	0.09063771
230	0x3def66e8	0.1168955
231	0xbd8190e6	-0.06326465
232	0xbd86b99e	-0.065783724
233	0x3d5e636c	0.054294035
234	0xbd98f881	-0.07469273
235	0xbe1bc62c	-0.15212315
236	0xbe155c97	-0.14586101
237	0x3d802b91	0.0625831
238	0x3de4fde6	0.1118124
239	0x3d8df98a	0.069323614
240	0xbdf0b6c9	-0.117536135
241	0xbdc8cef5	-0.09805099
242	0xbd7b5546	-0.06136062
243	0x3e358544	0.17726618
244	0xbda03235	-0.07822076
245	0xbe1b5413	-0.1516879
246	0x3d6fd13f	0.058549162
247	0x3da4da10	0.080494046
248	0xbda58ae6	-0.080831334
249	0xbe2295b2	-0.15877417
250	0xbddd13c7	-0.10794788
251	0xbd6f9263	-0.058489215
252	0xbcfcb5d9	-0.03084843
253	0x3e0d91ee	0.13825199
254	0x3ddd8f87	0.10818391
255	0x3ac8ad18	0.0015310375

features.5.bias f4 [32]
0	0x3c84cd37	0.016211135
1	0xbddc477d	-0.10755823
2	0x3dcbe86a	0.09956439
3	0xbdf6237a	-0.12018485
4	0xbe1f2593	-0.15541677
5	0xbdea12a9	-0.114293404
6	0xbda53d37	-0.080683164
7	0x3e119fb6	0.14221081
8	0xbda2e4be	-0.07953785
9	0xbd4dc17e	-0.050233357
10	0xbdf02107	-0.117250495
11	0xbcc2b566	-0.023768138
12	0x3caa56ee	0.020793404
13	0xbd694002	-0.05694581
14	0xbb356724	-0.0027679885
15	0xbc9bd149	-0.019020693
16	0xbe27c0f3	-0.16382198
17	0x3d492213	0.04910476
18	0xbcca8154	-0.024719872
19	0x3e7422f1	0.23841454
20	0xbc9e3fd6	-0.019317549
21	0xbb59ab12	-0.0033213538
22	0xbe55ec0b	-0.20890824
23	0xbb1be2a5	-0.0023786214
24	0xbdc1cdf3	-0.0946311
25	0x3cde10da	0.027107645
26	0x3da1373a	0.07871862
27	0xbd984069	-0.0743416
28	0xbc74f221	-0.014950306
29	0xbd3fe29b	-0.046846967
30	0x3d8808bc	0.06642291
31	0xbe46e75e	-0.19424197

features.6.weight f4 [32]
0	0x3f547603	0.8299257
1	0x3f6295f7	0.8851008
2	0x3f735541	0.9505196
3	0x3f52a2a2	0.8227941
4	0x3f41918e	0.75612724
5	0x3f6a2068	0.914557
6	0x3f49bf57	0.78807586
7	0x3f4858c6	0.7826046
8	0x3f519f16	0.8188337
9	0x3f5e7282	0.86893475
10	0x3f7405de	0.9532145
11	0x3f3f755d	0.7478846
12	0x3f614c0e	0.88006675
13	0x3f6eb2dc	0.9324167
14	0x3f64c4f7	0.89363045
15	0x3f6359b3	0.88808745
16	0x3f25ff75	0.6484292
17	0x3f5df19d	0.866968
18	0x3f5740e3	0.84083384
19	0x3f507dde	0.8144206
20	0x3f3576fe	0.7088469
21	0x3f6566de	0.8961009
22	0x3f7008c8	0.937634
23	0x3f637672	0.8885261
24	0x3f6ae800	0.91760254
25	0x3f53854e	0.8262528
26	0x3f536c85	0.8258746
27	0x3f463af5	0.7743371
28	0x3f4c105d	0.7971247
29	0x3f65afac	0.8972118
30	0x3f3b7c39	0.73236424
31	0x3f5d65af	0.8648328

features.6.bias f4 [32]
0	0xbe1f1a0c	-0.1553728
1	0xbdf7b6af	-0.12095391
2	0xbe593947	-0.21213256
3	0xbe6e7a71	-0.23288895
4	0xbe028eed	-0.12749834
5	0xbd9fdf8d	-0.07806311
6	0xbdb9ae72	-0.09066476
7	0xbeba3154	-0.3636576
8	0x3dce5faf	0.10076844
9	0xbe60e6c4	-0.2196303
10	0xbddfe8db	-0.109330855
11	0xbe33cd8e	-0.17558882
12	0x3d532127	0.05154529
13	0xbdf5fe60	-0.12011409
14	0xbdb00782	-0.08595182
15	0xbde8dc66	-0.11370163
16	0xbebd2d84	-0.36948788
17	0xbe4c08cd	-0.19925232
18	0xbe8b234b	-0.27175364
19	0xbe5fd73b	-0.21859448
20	0xbe52577b	-0.20541184
21	0xbe15c0a9	-0.14624275
22	0xbe76a132	-0.24084929
23	0xbe5d54a4	-0.21614319
24	0x3d2275ec	0.03966324
25	0xbe0fa680	-0.14028358
26	0xbe48e4c1	-0.19618513
27	0xbdb48057	-0.088135414
28	0xbe4345cc	-0.19069594
29	0xbe284ce5	-0.16435583
30	0xbd7c94cc	-0.06166534
31	0xbe99f137	-0.30066845

features.6.running_mean f4 [32]
0	0xbe1f1f37	-0.15539251
1	0xbeb50c34	-0.35360873
2	0xbeda094b	-0.42585215
3	0xbea8241e	-0.32840055
4	0xbebb3506	-0.3656389
5	0xbf193d85	-0.59859496
6	0xbea1dbcd	-0.31613007
7	0xbe14cbb2	-0.14530829
8	0xbeee15c2	-0.46500975
9	0xbf03520f	-0.51297086
10	0xbf245741	-0.6419564
11	0xbe05b733	-0.13058166
12	0xbecb4572	-0.3970142
13	0xbebae9bc	-0.3650645
14	0xbe8356a0	-0.25652027
15	0xbeb2603f	-0.34839055
16	0x3d7c9c60	0.06167257
17	0xbec0c33d	-0.37648955
18	0xbf04d904	-0.5189364
19	0xbd1eccae	-0.038769417
20	0x3dceee55	0.10104052
21	0xbeccd9aa	-0.40009815
22	0xbeea1022	-0.45715433
23	0xbe7fd7b9	-0.24984635
24	0xbf150548	-0.58211184
25	0xbe82f432	-0.2557693
26	0xbe73d31f	-0.23811005
27	0xbe9881b2	-0.2978645
28	0xbe057446	-0.13032636
29	0xbe9f62ba	-0.3113001
30	0xbe20c307	-0.15699397
31	0xbf32446b	-0.6963565

features.6.running_var f4 [32]
0	0x3efbd1f5	0.49183622
1	0x3efc918b	0.4932979
2	0x3f85dd4a	1.0458157
3	0x3edd2859	0.43194845
4	0x3efcae4e	0.49351734
5	0x3fcf3167	1.6186951
6	0x3ef55da8	0.47923017
7	0x3f4cfc0a	0.8007208
8	0x3f921a76	1.1414325
9	0x3f4fff55	0.8124898
10	0x3fa2fbfc	1.273315
11	0x3eb6cd71	0.35703614
12	0x3fe83615	1.8141505
13	0x3f52db6c	0.8236606
14	0x3f10095e	0.56264293
15	0x3f53dc12	0.82757676
16	0x3ecaee80	0.39635086
17	0x3f31ca02	0.69448864
18	0x3f5080de	0.81446636
19	0x3f4173a3	0.7556707
20	0x3e72c86a	0.23709264
21	0x3f6e17aa	0.9300486
22	0x3f090abd	0.5353201
23	0x3f29201d	0.66064626
24	0x3ff1dd66	1.889569
25	0x3f29b108	0.66285753
26	0x3f1b5f5f	0.606924
27	0x3f09bbc3	0.53802127
28	0x3ee41930	0.44550467
29	0x3f16d85b	0.5892388
30	0x3ef91116	0.48645848
31	0x3f4ebe00	0.80758667

features.10.weight f4 [64, 32, 3]
0	0xbdfc7e07	-0.12328725
1	0xbdce41b6	-0.10071127
2	0xbe1403db	-0.14454596
3	0x3c7e2019	0.015510582
4	0x3de51357	0.111853294
5	0x3e3744e2	0.1789737
6	0xbd1cbbd8	-0.03826508
7	0xbc8a695f	-0.016895948
8	0xbd9673b7	-0.073462896
9	0x3e2187b7	0.15774427
10	0x3d803f25	0.06262044
11	0x3d67672e	0.056494884
12	0x3e2f8267	0.17139588
13	0x3d83f5b5	0.06443349
14	0x3d92cc07	0.071678214
15	0xbdd3dd3b	-0.10344931
16	0xbddb8646	-0.1071897
17	0xbd8c7395	-0.06857983
18	0x3d1e90ab	0.038712185
19	0x3cd8f55e	0.026484188
20	0xbc3b75e0	-0.011441678
21	0x3d7307e5	0.0593337
22	0xbb10ac21	-0.0022075253
23	0xbc090782	-0.008363606
24	0xbd647608	-0.055776626
25	0xbdb8ef06	-0.09029965
26	0xbde7a326	-0.11310415
27	0xba1f9499	-0.00060875114
28	0xbccb7e56	-0.024840515
29	0xbd195619	-0.037435625
30	0xbdc8d02e	-0.09805332
31	0xbd9fc5ca	-0.07801397
32	0xbd4d017c	-0.050050244
33	0xbd8d0932	-0.068865195
34	0xbd8b0e2b	-0.06789812
35	0xbdffa715	-0.1248304
36	0xbdd2d43b	-0.10294386
37	0xbdeedda0	-0.11663365
38	0xbe26337c	-0.16230577
39	0x3aefa24c	0.0018282621
40	0xbcc4a3aa	-0.024003822
41	0x3d030a26	0.0319921
42	0x3d8b725d	0.068089224
43	0x3d4a544b	0.049396794
44	0x3c2ea5b5	0.010659625
45	0x3d7dcccf	0.0619629
46	0x3d82179f	0.063521616
47	0x3db15701	0.08659173
48	0xbdff2c87	-0.12459665
49	0xbd6708f9	-0.05640504
50	0xbd7290b5	-0.059220035
51	0x3d058cd4	0.032605007
52	0x3ca74783	0.020419842
53	0xbca8e37d	-0.020616287
54	0x3d1e4a66	0.03864517
55	0x3c620352	0.013794737
56	0xbc1aae73	-0.009441006
57	0x3d6f6afe	0.058451645
58	0x3e1f18ac	0.15536755
59	0x3e045526	0.12923107
60	0xbe14becf	-0.14525913
61	0xbdb57a33	-0.08861198
62	0xbd5d3cf3	-0.054013204
63	0x3d0abe46	0.033872865
64	0x3d91b7ee	0.0711516
65	0x3da4c569	0.080454655
66	0x3e45f36a	0.19331136
67	0x3e0dd714	0.13851577
68	0x3dcd4b5c	0.10024139
69	0x3e8e053b	0.27738366
70	0x3e4656ea	0.19369093
71	0x3e2cd7c4	0.16879183
72	0xbd9edbd8	-0.077567756
73	0xbdb74476	-0.08948605
74	0xbdf9776f	-0.12180983
75	0x3da7ecb0	0.081994414
76	0x3e12baed	0.14329119
77	0x3d9a1014	0.07522598
78	0x3d908d54	0.07058206
79	0x3e140f42	0.14458945
80	0x3e3eb16e	0.18622372
81	0xbd8d0f15	-0.06887642
82	0xbd7777bf	-0.060416933
83	0xbe3dfd1c	-0.18553585
84	0xbd9ccb3e	-0.07655953
85	0xbd86cb1f	-0.06581711
86	0xbe0333a8	-0.12812674
87	0xbc4560ac	-0.012046974
88	0x3d5cdc8f	0.05392128
89	0x3deea663	0.116528295
90	0xbd93634e	-0.07196675
91	0xbd5e5cdb	-0.054287773
92	0xbd761ee2	-0.060088046
93	0x3d69d2c2	0.05708576
94	0xbd2f22bc	-0.042757735
95	0xbd1adc08	-0.037807494
96	0xbe0532ae	-0.13007614
97	0xbdce2f86	-0.10067658
98	0xbda69d50	-0.08135474
99	0x3c94c9ea	0.018162686
100	0x3d8a5db4	0.06756154
101	0x3dd19100	0.10232735
102	0xbd92e390	-0.0717231
103	0xbd00b96d	-0.031426836
104	0xbd344d4f	-0.04401904
105	0x3dfc4c8d	0.123192884
106	0x3d9ea0f9	0.07745547
107	0xbc7f2cc2	-0.015574636
108	0x3da1308c	0.07870588
109	0x3d0f9def	0.035062727
110	0x3d6f0f71	0.058364335
111	0xbdce077b	-0.100600205
112	0xbd390a73	-0.04517598
113	0xbd89e583	-0.06733229
114	0x3e1499e3	0.14511828
115	0x3e289a0e	0.16465017
116	0x3dac6060	0.084168196
117	0x3e4e21ed	0.20130129
118	0x3e64150b	0.22273652
119	0x3e62de0f	0.22155021
120	0xbc9bbd5f	-0.019011198
121	0xbd077a10	-0.033075392
122	0xbd9492b3	-0.07254543
123	0x3d2ad634	0.041708186
124	0x3cd5b771	0.026088448
125	0xbaccb042	-0.0015616494
126	0xbdcf1d10	-0.10112965
127	0xbd6d6f73	-0.057967614
128	0xbda92737	-0.08259433
129	0xbd525373	-0.051349115
130	0xbd30485b	-0.043037754
131	0xbdc75a4d	-0.097340204
132	0xbdac986f	-0.08427512
133	0xbd854f38	-0.065092504
134	0xbd939ed7	-0.07208031
135	0x3dce3d6b	0.10070308
136	0x3e0e069b	0.13869707
137	0x3dabe69a	0.08393593
138	0x3d1f7971	0.038934175
139	0x3d2563a7	0.04037824
140	0x3bd946f5	0.006630773
141	0x3d007951	0.031365696
142	0x3d3f0eaa	0.046644844
143	0x3db9bbbc	0.090690106
144	0xbd006a41	-0.03135133
145	0xbb8b5296	-0.0042517884
146	0x3c6a607b	0.014305229
147	0x3d8674f2	0.06565274
148	0x3d0ceb61	0.034404162
149	0x3ba9adc6	0.005178186
150	0xbbe4c415	-0.0069813826
151	0x3d2362ec	0.03988926
152	0xbcf9ba2c	-0.030484281
153	0x3e1a9c66	0.15098724
154	0x3e6a0e9d	0.22857137
155	0x3e2f9e6d	0.17150278
156	0xbc06ac40	-0.008219779
157	0xbc25aac3	-0.010111514
158	0xbc682e4b	-0.014171193
159	0x3d5ccb1f	0.05390465
160	0x3d8f76d9	0.0700509
161	0x3d2c88be	0.042122595
162	0x3dccbd3d	0.09997032
163	0x3e33ea4c	0.17569846
164	0x3e1aeb2a	0.1512877
165	0x3e18785a	0.1488966
166	0x3e20a808	0.15689099
167	0x3d961250	0.073277116
168	0xbdcfc718	-0.10145396
169	0xbdb1b5c3	-0.086772464
170	0xbdb129ae	-0.08650528
171	0x3e38d64c	0.18050498
172	0x3e87cdc3	0.2652417
173	0x3e78790a	0.24264923
174	0xbc841fab	-0.016128382
175	0x3d5df381	0.0541873
176	0x3d83b69b	0.064313136
177	0xbc40a4c7	-0.011758036
178	0xbb05481a	-0.0020337165
179	0xbde3ffa9	-0.11132748
180	0xbd7259e9	-0.059167776
181	0xbd00007b	-0.03125046
182	0xbd1d371e	-0.038382642
183	0x3d1c0eb4	0.03809996
184	0x3e17bc28	0.1481787
185	0x3de5a9f6	0.11214058
186	0xbda2dc1f	-0.07952141
187	0xbc8425ea	-0.01613136
188	0xbcc55e3a	-0.024092782
189	0xbc5b7e41	-0.0133968005
190	0x3d0e656a	0.034764685
191	0xbb1de1dd	-0.0024090924
192	0xbd82a289	-0.06378657
193	0xbb41fe5a	-0.0029601068
194	0xbdebf1f1	-0.11520756
195	0xbda98c2d	-0.082786895
196	0xbe2972d4	-0.1654771
197	0xbd2da553	-0.042393994
198	0x3e6c27cc	0.23062056
199	0x3de05f67	0.109556966
200	0x3e58d7cf	0.21176074
201	0x3d8fecb0	0.070275664
202	0xbdb686d8	-0.08912438
203	0xbe08fdcd	-0.13378067
204	0x3d681368	0.056659132
205	0xbbb64111	-0.0055619557
206	0xbdbc371c	-0.09190199
207	0x3e12748d	0.14302273
208	0x3e1909cf	0.14945148
209	0x3d916282	0.07098867
210	0xbd0ecbc4	-0.034862295
211	0xbd834288	-0.06409174
212	0xbe1dfb05	-0.15427788
213	0xbdd43c6d	-0.10363088
214	0xbd6e1ee0	-0.058134913
215	0xbd54df2a	-0.05197064
216	0xbd889555	-0.06669108
217	0x3db356d7	0.08756798
218	0xbc559fcb	-0.013038586
219	0x3e5e489a	0.21707383
220	0x3e400372	0.18751314
221	0x3e277432	0.16352919
222	0x3e266ab8	0.16251647
223	0x3d158770	0.036506116
224	0x3d455f61	0.048186664
225	0x3da77f71	0.081786044
226	0x3dd2718f	0.10275566
227	0x3d0c6e3b	0.03428481
228	0xbe076d0b	-0.1322519
229	0xbd8bd11f	-0.06826996
230	0xbd67d97c	-0.056603894
231	0xbddb9f86	-0.10723786
232	0xbda7fc97	-0.082024746
233	0xbe04fd41	-0.12987234
234	0xbe67d443	-0.22639565
235	0xbe071bab	-0.13194148
236	0xbdd0c7dd	-0.10194371
237	0xbca2d3b0	-0.019876331
238	0x3cc21d5f	0.023695646
239	0xbd9a2664	-0.07526854
240	0x3dcc8da1	0.09987951
241	0x3d39cf18	0.045363516
242	0xbc88751a	-0.0166574
243	0x3dd61661	0.10453487
244	0x3e1f2c31	0.15544201
245	0x3e5fe823	0.21865897
246	0x3e86b9b4	0.26313555
247	0x3e2888cf	0.16458438
248	0x3e33fbf4	0.17576581
249	0xbe0eaf23	-0.13933997
250	0xbdb63731	-0.08897246
251	0xbd9fa69a	-0.077954486
252	0xbd2a63c9	-0.04159907
253	0xbc1d06ef	-0.009584173
254	0x3be34e84	0.00693685
255	0xbcb237e6	-0.02175517

features.10.bias f4 [64]
0	0x3ca214a3	0.019785231
1	0xbd66afe2	-0.05632008
2	0x3e3207db	0.17385809
3	0xbd5daf0c	-0.054122016
4	0xbda44739	-0.08021397
5	0x3d92eea2	0.07174422
6	0x3d95104f	0.07278501
7	0xbd1c013f	-0.038087126
8	0x3e0df19f	0.13861702
9	0x3d05233d	0.03250431
10	0x3c44a94a	0.012003252
11	0xbcc3dd82	-0.023909334
12	0xbcc64a9f	-0.024205504
13	0xbd4f64bd	-0.05063318
14	0xbd3083af	-0.043094333
15	0x3dd3e06e	0.10345541
16	0x3bffeb2c	0.007810017
17	0x3d6b424d	0.057436276
18	0xbdda14eb	-0.10648521
19	0x3e05a24e	0.13050196
20	0x3b97d7af	0.004633866
21	0xbcb0d163	-0.021584218
22	0xbd9ed6dd	-0.07755826
23	0x3d0aacfb	0.033856373
24	0x3db376f3	0.08762922
25	0x3d7cc536	0.061711513
26	0xbd3e5a47	-0.046472814
27	0xbcab70e6	-0.020927858
28	0x3d8dfcb0	0.06932962
29	0xbdd8867f	-0.10572528
30	0x3d4f0806	0.05054476
31	0x3d8f3ec7	0.06994396
32	0xbdb59dc9	-0.08867986
33	0xbd97ce83	-0.07412436
34	0x3d1aa8da	0.037758686
35	0x3d1884cd	0.037236024
36	0x3d1afd58	0.037839264
37	0xbca27777	-0.019832356
38	0xbd6a5926	-0.057213925
39	0xbdc6c2fa	-0.097051576
40	0x3ceaa1e6	0.028641652
41	0xbd3efe4f	-0.046629246
42	0x3bb693da	0.0055718245
43	0xbd7ae9fc	-0.0612583
44	0x3cfd6e1f	0.030936299
45	0x3b9af562	0.004728959
46	0xbd6499e8	-0.05581084
47	0x3d9b9660	0.07597041
48	0x3e1cf0c2	0.15326217
49	0x3e154b2e	0.1457946
50	0xbe0795a3	-0.13240676
51	0x3cd0bb49	0.02547993
52	0x3d8ca149	0.068667
53	0x3d81e8ea	0.06343253
54	0x3d8e4b81	0.06947995
55	0x3dbfcac1	0.09364844
56	0x3cbef107	0.02330829
57	0x3cfe3aa3	0.03103382
58	0xbd3f6254	-0.046724632
59	0x3cbccc28	0.023046568
60	0x3cb65b48	0.022260323
61	0xbdc600d7	-0.09668129
62	0xbcd00aa0	-0.025395691
63	0x3da924f9	0.08259005

features.11.weight f4 [64]
0	0x3f5fc431	0.8740874
1	0x3f72df09	0.94871575
2	0x3f6adc37	0.9174227
3	0x3f662c5b	0.8991143
4	0x3f5721ae	0.84035766
5	0x3f67d46e	0.90558517
6	0x3f69658e	0.91170585
7	0x3f77a07f	0.9672927
8	0x3f4d8e9c	0.8029573
9	0x3f7b7986	0.98232305
10	0x3f4adec4	0.79246163
11	0x3f771ece	0.9653138
12	0x3f6c7fa2	0.9238225
13	0x3f5a2c17	0.85223526
14	0x3f696083	0.9116289
15	0x3f60ed1b	0.87861794
16	0x3f5b5d3e	0.8568915
17	0x3f647b1d	0.89250356
18	0x3f66ae42	0.90109646
19	0x3f57ff7e	0.84374225
20	0x3f5aa1ec	0.85403323
21	0x3f513e1a	0.81735384
22	0x3f5e167b	0.8675305
23	0x3f80e625	1.0070235
24	0x3f611351	0.879201
25	0x3f630c52	0.88690674
26	0x3f64fb63	0.89446086
27	0x3f6048e1	0.87611204
28	0x3f6b5315	0.9192365
29	0x3f546d97	0.8297972
30	0x3f66c5af	0.9014539
31	0x3f6c1cb6	0.9223131
32	0x3f6178e0	0.88075066
33	0x3f6d2641	0.92636496
34	0x3f7e5a72	0.9935676
35	0x3f68eabd	0.9098318
36	0x3f736acb	0.9508483
37	0x3f5a9f15	0.8539899
38	0x3f6995f3	0.9124443
39	0x3f6bf69a	0.9217316
40	0x3f5af9e2	0.8553754
41	0x3f697ffd	0.9121092
42	0x3f77f578	0.9685893
43	0x3f655def	0.89596456
44	0x3f703429	0.9382959
45	0x3f61b33b	0.8816411
46	0x3f606a0c	0.87661815
47	0x3f5dcf37	0.8664431
48	0x3f7aadae	0.97921264
49	0x3f62c2e8	0.88578653
50	0x3f6dff38	0.9296756
51	0x3f4a3d30	0.78999615
52	0x3f6689e2	0.9005414
53	0x3f651ef3	0.8950035
54	0x3f58e470	0.8472357
55	0x3f70b0bb	0.9401967
56	0x3f5b250a	0.8560339
57	0x3f5be4e1	0.85896116
58	0x3f62c052	0.8857471
59	0x3f4eb8a0	0.80750465
60	0x3f71501b	0.94262856
61	0x3f609ad1	0.8773623
62	0x3f729ff1	0.947753
63	0x3f4916cf	0.7855043

features.11.bias f4 [64]
0	0xbec546d7	-0.3853061
1	0xbe991f5a	-0.29906732
2	0x3ccf283c	0.02528774
3	0x3c9f3324	0.019433565
4	0xbeca3f38	-0.39501357
5	0xbd4e92d7	-0.050433006
6	0x3c8fd8fc	0.01755952
7	0xbe7d08f9	-0.24710454
8	0xbec0d1a8	-0.37659955
9	0xbe77735a	-0.24165097
10	0xbeda2995	-0.4260985
11	0xbe484cf2	-0.19560602
12	0x3d14f36b	0.036364954
13	0xbeb90f59	-0.36144522
14	0xbea6fb4f	-0.32613608
15	0xbc8a64b3	-0.01689372
16	0xbcfc0642	-0.030764703
17	0xbc864106	-0.016388427
18	0xbe7160b4	-0.23572046
19	0xbec3dc8e	-0.38254207
20	0xbdd5d5a9	-0.10441143
21	0xbecaa840	-0.3958149
22	0xbbb08cb8	-0.0053878687
23	0xbe5252a5	-0.20539339
24	0xbd4fd147	-0.05073669
25	0xbcc58699	-0.024112033
26	0x3cb956c5	0.022624383
27	0xbc8c4798	-0.017123982
28	0x3d29ee3d	0.041486967
29	0xbec6ab6b	-0.38802657
30	0x3bcb8b7d	0.0062116967
31	0xbea48283	-0.32130823
32	0xbe1d9e27	-0.15392362
33	0xbe976e90	-0.2957654
34	0xbe7c124b	-0.24616353
35	0x3c8404b1	0.016115518
36	0xbeb028d6	-0.34406155
37	0xbebbe76a	-0.36699992
38	0xbc0ee9ae	-0.008722706
39	0xbe0400e8	-0.1289097
40	0xbd1b13f9	-0.037860844
41	0x3be4ec23	0.0069861575
42	0xbe451df0	-0.19249701
43	0xbc2d589b	-0.010580207
44	0x3cc61b6e	0.024183001
45	0xbec8db92	-0.3923002
46	0x3c0b6d68	0.008509971
47	0xbe0845f0	-0.13307929
48	0xbe8060b0	-0.25073767
49	0xbda3200e	-0.07965098
50	0x3d3523a7	0.044223454
51	0xbeccd1d3	-0.40003833
52	0x3c8557a1	0.016277136
53	0xbceab896	-0.02865247
54	0xbebc2126	-0.3674404
55	0x3c89a42e	0.01680192
56	0xbec12984	-0.37726986
57	0xbec5223c	-0.3850268
58	0xbe93d3af	-0.2887244
59	0xbec73268	-0.38905644
60	0xbe4d1827	-0.20028745
61	0xbebb894a	-0.3662818
62	0xbe9700a3	-0.29492673
63	0xbed5a0c3	-0.41724214

features.11.running_mean f4 [64]
0	0xbe64c547	-0.2234088
1	0x3d93f43b	0.07224318
2	0x3e146665	0.14492185
3	0xbdfcc3a4	-0.12342003
4	0xbf19d22e	-0.60086334
5	0x3f08e031	0.5346709
6	0x3c24d719	0.010061049
7	0x3e935319	0.28774336
8	0xbe778b1f	-0.24174164
9	0x3e8c4e9c	0.27403724
10	0xbee41d64	-0.44553673
11	0x3cb60dd8	0.022223398
12	0x3e26e3f2	0.16297892
13	0xbeef74b0	-0.46768713
14	0xbe52a7f5	-0.20571883
15	0x3e49d163	0.19708781
16	0x3e1f968f	0.15584777
17	0x3de690d0	0.112580895
18	0xbdb45751	-0.08805717
19	0x3e0adc66	0.13560638
20	0xbc7e5548	-0.015523262
21	0xbf0a0e94	-0.53928494
22	0x3d020aac	0.03174846
23	0x3e909ecb	0.2824615
24	0x3ed64669	0.41850594
25	0x3ddae0e9	0.106874295
26	0x3dc5f42b	0.09665712
27	0x3ee91552	0.4552408
28	0x3d2bd76a	0.04195348
29	0xbf2a3e9b	-0.6650178
30	0x3f0b61bc	0.54446006
31	0x3d4bf98e	0.04979854
32	0xbd9d144e	-0.076698884
33	0x3d5d9833	0.054100227
34	0x3dc77ef5	0.09741012
35	0xbce149cf	-0.027501015
36	0x3de9ff12	0.11425604
37	0xbee7dde8	-0.4528649
38	0x3e4c7724	0.19967324
39	0xbe1e7004	-0.15472418
40	0x3e194518	0.14967763
41	0x3db175c3	0.086650394
42	0x3d9fe684	0.07807639
43	0x3e57c972	0.21072939
44	0x3d02b1f8	0.031908005
45	0xbdfa9db9	-0.122371145
46	0x3dad592d	0.084642746
47	0x3db71001	0.089385994
48	0xbd85547d	-0.065102555
49	0x3e1e7f5d	0.15478273
50	0xbec55d4e	-0.38547748
51	0xbed345f0	-0.41264296
52	0x3e89c77c	0.26910007
53	0x3edff90d	0.43744698
54	0xbeff9a56	-0.49922436
55	0x3e8d2adb	0.2757176
56	0xbe08160e	-0.13289663
57	0xbe57e13f	-0.21082018
58	0xbe07c362	-0.13258126
59	0xbf0e6d01	-0.55635077
60	0x3e0150e6	0.12628517
61	0xbe45407d	-0.19262882
62	0xbe8ccb89	-0.27499035
63	0xbea0e585	-0.3142511

features.11.running_var f4 [64]
0	0x3e409260	0.18805838
1	0x3e4d3faf	0.20043825
2	0x3e297a48	0.16550553
3	0x3e442c9e	0.19157645
4	0x3e3d76cb	0.18502347
5	0x3dfd9c9f	0.12383389
6	0x3e26949a	0.16267624
7	0x3e2c42c5	0.16822346
8	0x3e5078c6	0.20358571
9	0x3e3d189f	0.18466423
10	0x3e338f7c	0.17535204
11	0x3e5a9b80	0.21348381
12	0x3e0fee5c	0.1405577
13	0x3e077863	0.13229518
14	0x3e2f8cb9	0.17143525
15	0x3e1f5150	0.15558362
16	0x3dfe9a6f	0.124317996
17	0x3de730ad	0.11288581
18	0x3e3c59ee	0.1839368
19	0x3e41d91d	0.18930478
20	0x3e42fb6d	0.19041224
21	0x3e40da46	0.18833265
22	0x3e2efcbd	0.170886
23	0x3e3f81d1	0.18701865
24	0x3e25ccbe	0.16191384
25	0x3e1102a6	0.14161167
26	0x3e14562b	0.14485995
27	0x3e0fc82d	0.14041205
28	0x3e05ac3a	0.1305398
29	0x3e3df655	0.18551
30	0x3e3c84eb	0.18410079
31	0x3e2d6cc0	0.16936016
32	0x3e766b5d	0.24064393
33	0x3e6e452e	0.23268577
34	0x3e2df70b	0.1698877
35	0x3e57325d	0.21015306
36	0x3e5304d8	0.20607316
37	0x3e44b725	0.19210489
38	0x3e19cc35	0.15019305
39	0x3e61030a	0.21973816
40	0x3e369d99	0.17833556
41	0x3e1bdb44	0.15220362
42	0x3e734a30	0.23758769
43	0x3e0ad0f4	0.13556272
44	0x3e6440f4	0.22290403
45	0x3e54aedc	0.20769829
46	0x3e30ad1d	0.17253537
47	0x3e4cb3b7	0.19990431
48	0x3e2d8821	0.1694646
49	0x3e2f07e8	0.1709286
50	0x3e34f8e1	0.17673065
51	0x3e48e844	0.19619852
52	0x3e230c7a	0.15922728
53	0x3e37255d	0.17885347
54	0x3e503c24	0.20335442
55	0x3e20955b	0.15681975
56	0x3e3d2df5	0.18474562
57	0x3e3d97be	0.18514916
58	0x3e29eedf	0.16595028
59	0x3e3d635c	0.18494934
60	0x3e45cdee	0.19316837
61	0x3e3667a2	0.1781297
62	0x3e170868	0.147493
63	0x3e4e09f4	0.20120984

embedding_layer.0.weight f4 [16, 64]
0	0x3d25ab43	0.04044653
1	0xbe205482	-0.15657237
2	0x3d2f8032	0.042846866
3	0xbce15d52	-0.027510319
4	0x3db9d5cb	0.09073981
5	0xbdc73bbe	-0.09728192
6	0xbd20adaf	-0.039228138
7	0xbe25a7cb	-0.16177289
8	0x3e0374b4	0.12837487
9	0xbe2fd236	-0.17170033
10	0x3de1966d	0.110150196
11	0xbdad1e19	-0.08453006
12	0xbd954f77	-0.07290547
13	0x3cbc2275	0.02296565
14	0x3e27614a	0.16345707
15	0x3cbdf5ab	0.023188433
16	0xbde1c628	-0.110241234
17	0x3c809c8b	0.015699646
18	0xbd5fac2a	-0.054607548
19	0x3db6fd38	0.089350164
20	0xbe3dcff7	-0.18536364
21	0x3e5e2e3a	0.21697322
22	0x3cce1b3b	0.025159469
23	0xbe48d853	-0.19613771
24	0xbd78c4cb	-0.06073455
25	0xbd5e4814	-0.054267958
26	0xbd886956	-0.06660716
27	0xbdd80c27	-0.10549193
28	0xbd30f366	-0.043200873
29	0xbb9f5e2b	-0.0048635206
30	0xbe538bde	-0.20658824
31	0x3d3b4458	0.045719475
32	0xbe12635d	-0.14295717
33	0xbcb4e052	-0.02207962
34	0xbdd918de	-0.10600446
35	0x3d153f1f	0.03643715
36	0xbdab95f5	-0.083782114
37	0x3e9df686	0.30852145
38	0xbe1c7267	-0.15278016
39	0xbdedbb70	-0.116080165
40	0xbc4b320f	-0.012402072
41	0xbd8d0693	-0.068860196
42	0xbd85cfc0	-0.06533766
43	0xbb826170	-0.0039789006
44	0xbdd826ff	-0.10554313
45	0x3e57ed60	0.21086645
46	0xbd819f2c	-0.06329188
47	0xbe0d6086	-0.13806352
48	0x3e533c50	0.20628476
49	0xbe2acd82	-0.16679958
50	0xb98cab77	-0.00026830632
51	0x3e4358e1	0.19076873
52	0xbdfefc4d	-0.12450466
53	0xbe17a1c0	-0.14807796
54	0x3d3e8b4c	0.046519563
55	0xbc32511c	-0.010883596
56	0x3cdde748	0.027087823
57	0xbcb7c96e	-0.022434916
58	0x3d077a12	0.0330754
59	0x3e114146	0.14185056
60	0xbe2169d7	-0.15763031
61	0x3e19888b	0.14993493
62	0x3d1912ea	0.037371553
63	0x3daa8f70	0.0832814
64	0x3e168a4d	0.14701195
65	0x3c7f10e2	0.01556799
66	0x3ced9c27	0.029005123
67	0x3e02af8e	0.12762281
68	0x3e0b1769	0.13583149
69	0xbcfbb4f5	-0.030725935
70	0x3de9ba89	0.11412532
71	0xbe34d704	-0.17660147
72	0x3e440bed	0.19145174
73	0xbdfae3d8	-0.12250489
74	0x3d7aee00	0.06126213
75	0xbde6928e	-0.11258422
76	0x3c027b0b	0.007963906
77	0x3d9c1116	0.076204464
78	0x3dc34868	0.09535295
79	0xbd32de8f	-0.04366928
80	0xbdabaf06	-0.083829924
81	0xb9e0040a	-0.0004272762
82	0x3da680dd	0.081300475
83	0x3e14dd0f	0.14537452
84	0xbd504103	-0.05084325
85	0x3e66cc18	0.22538793
86	0xbcbbe6df	-0.022937236
87	0xbe061e82	-0.13097575
88	0xbe0c5f01	-0.13708116
89	0xbdae45f2	-0.08509435
90	0xbdef0fd3	-0.1167294
91	0xbe0c201e	-0.13684127
92	0x3cef11d2	0.029183302
93	0x3e3f4d89	0.18681921
94	0xbcae9450	-0.021310955
95	0x3e0c148f	0.13679717
96	0xbe4ede4c	-0.20201987
97	0xbbf38b42	-0.0074323723
98	0x3e11d25c	0.14240402
99	0x3d4ae10e	0.049531035
100	0x3e22089b	0.15823595
101	0x3e2ae28a	0.1668798
102	0xbdfa774d	-0.12229786
103	0xbddbce8e	-0.107327566
104	0x3df93e37	0.1217007
105	0xbd84c296	-0.06482427
106	0xbdb8cd3e	-0.09023522
107	0x3d6ba342	0.05752874
108	0x3debb895	0.115098156
109	0x3e63d4e2	0.22249177
110	0x3c9dac6b	0.019247254
111	0xbdefc8f5	-0.117082514
112	0x3e4dc420	0.20094347
113	0xbcec6fc7	-0.028861893
114	0xbc56f6bd	-0.01312035
115	0x3dfdbd42	0.12389614
116	0xbd748e84	-0.059706226
117	0xbcafa168	-0.02143927
118	0x3e2f778a	0.17135444
119	0xbd2b7f5c	-0.041869506
120	0x3dc4b055	0.09603945
121	0x3e0311d1	0.12799765
122	0x3daeb8d1	0.08531345
123	0x3e0cc890	0.13748384
124	0xbdd6ac04	-0.10482028
125	0x3e4b4312	0.19849804
126	0x3e70f8f1	0.23532464
127	0x3e1e52fc	0.15461344
128	0x3e52f806	0.20602426
129	0x3d47a9e9	0.048746023
130	0xbb829232	-0.003984713
131	0xbd8e21e0	-0.06940055
132	0x3cc17f10	0.023620158
133	0xbe334fd9	-0.17510928
134	0xbc6f3e36	-0.014602235
135	0xbe6207b3	-0.2207325
136	0x3ddc3613	0.10752501
137	0xbe083456	-0.13301215
138	0x3d9ebdb5	0.077510275
139	0xbdc13466	-0.09433822
140	0xbd1fedb5	-0.039045054
141	0xbdf2c7d4	-0.118545204
142	0x3dae69c6	0.085162684
143	0xbdec2379	-0.11530203
144	0xbe07fd6a	-0.13280264
145	0x3d701fa7	0.058623936
146	0x3d8480d2	0.06469883
147	0xbdfba436	-0.1228718
148	0xbe349cdc	-0.17637962
149	0x3e4bdbe2	0.19908097
150	0xbd3a91b5	-0.045549113
151	0xbe0e2601	-0.13881685
152	0xbe090490	-0.13380647
153	0xbe0bff26	-0.1367155
154	0xbcb14fc6	-0.021644484
155	0xbe3c675d	-0.18398805
156	0xbd5740b9	-0.05255196
157	0x3e65c2e0	0.2243762
158	0xbd6cbb2b	-0.057795685
159	0x3e2eda68	0.17075503
160	0xbe1ea237	-0.15491568
161	0x3e8a2549	0.2698157
162	0x3dffff2b	0.12499841
163	0x3d017d8e	0.03161388
164	0xbd43d994	-0.04781492
165	0xbccc8d5c	-0.02496975
166	0xbd4a298a	-0.04935602
167	0xbe0f357a	-0.13985243
168	0xbce70407	-0.028200163
169	0xbe14bbde	-0.1452479
170	0xbddb61bb	-0.10712
171	0xbdb2dd36	-0.08733599
172	0xbc81167e	-0.015757795
173	0xbdac350a	-0.08408554
174	0xbde7b6b6	-0.11314146
175	0xbdd6abf3	-0.104820155
176	0xbd7153a0	-0.05891764
177	0xbdba12c5	-0.09085611
178	0x3c9c3498	0.019068047
179	0x3e011718	0.12606466
180	0xbe2fe55a	-0.17177334
181	0xbe2cff42	-0.16894248
182	0x3ca5de15	0.020247499
183	0xbd8c0004	-0.068359405
184	0xbca41dda	-0.020033766
185	0xbddb8248	-0.107182086
186	0x3d50f9df	0.051019546
187	0x3d27e5f7	0.040990796
188	0xbd95afe9	-0.07308943
189	0xbe54c09e	-0.20776603
190	0xbdafc01b	-0.08581563
191	0xbe2055af	-0.15657686
192	0xbe060efd	-0.13091655
193	0xbea23f39	-0.3168886
194	0x3daa0030	0.08300817
195	0x3e025e43	0.1273127
196	0xbd62fcf1	-0.055417005
197	0x3cc7d8f5	0.024395445
198	0x3e0d85eb	0.13820617
199	0xbc86ecf2	-0.016470406
200	0xbdf99bca	-0.121879175
201	0xbce8f5ee	-0.02843758
202	0xbdc098d9	-0.094041534
203	0xbde95fd0	-0.11395228
204	0x3e2ff7ef	0.17184423
205	0xbdf4d34e	-0.11954366
206	0xbdeda0e1	-0.11602951
207	0x3dbec20d	0.09314356
208	0x3dee9cbe	0.1165099
209	0x3d39e858	0.045387596
210	0xbe779b8b	-0.24180429
211	0xbe7bfdce	-0.24608538
212	0xbbfab29c	-0.0076506864
213	0xbbed225b	-0.0072367615
214	0x3d4779f4	0.048700288
215	0xbcd4ee96	-0.025992673
216	0x3e3bc811	0.18338038
217	0x3d7081c1	0.058717493
218	0x3d43b5e7	0.047780897
219	0x3dea9944	0.11455014
220	0x3cfc3267	0.030785752
221	0xbdadfcd3	-0.08495488
222	0x3e0cfb20	0.13767672
223	0xbe313c0f	-0.17308067
224	0xbde5e430	-0.11225164
225	0xbe64b5db	-0.22334997
226	0xbe6be39a	-0.23036042
227	0x3decf23f	0.11569642
228	0xbe734e02	-0.23760226
229	0x3df9a2bc	0.12189242
230	0x3e2572ef	0.16157125
231	0xbd1bbfe8	-0.038024813
232	0x3e020507	0.1269723
233	0x3d1c5a01	0.038171772
234	0xbd2d4d75	-0.042310197
235	0x3d3bd7c1	0.045860056
236	0x3dcbfb83	0.099600814
237	0xbe4a197d	-0.19736286
238	0x3dbbf2e6	0.091771886
239	0x3d0a2da1	0.03373492
240	0xbe2e6733	-0.17031555
241	0xbd7cb132	-0.061692424
242	0x3d995a69	0.074879475
243	0xbe26faf1	-0.16306664
244	0x3db7a0ae	0.08966194
245	0x3e36a954	0.17838031
246	0xbda72c24	-0.08162716
247	0x3dc6ee1a	0.09713383
248	0xbe2c4f00	-0.16827011
249	0xbb98e5bd	-0.004666059
250	0xbe943549	-0.28946903
251	0xbd487119	-0.048935983
252	0xbda15905	-0.07878307
253	0xbe2e5d9f	-0.17027901
254	0xbde49529	-0.111612625
255	0xbde2a74d	-0.11067066

embedding_layer.0.bias f4 [16]
0	0x3deb55ea	0.11490996
1	0x3ce3f899	0.027828502
2	0x3e28e0bd	0.16491981
3	0x3e986353	0.29763278
4	0x3de65275	0.11246196
5	0x3deb6223	0.114933275
6	0x3e1e2dca	0.15447155
7	0x3ecb11c8	0.39662004
8	0x3ebc2c26	0.36752433
9	0x3ed3db81	0.41378406
10	0x3e41fb3d	0.18943496
11	0x3e030473	0.12794666
12	0x3e34588e	0.17611906
13	0x3e109945	0.14120968
14	0x3cdcbfbb	0.026946893
15	0x3d2d7d22	0.042355664

classifier.weight f4 [2, 16]
0	0xbea4b557	-0.321696
1	0xbe61ca27	-0.22049771
2	0xbe541d05	-0.20714195
3	0x3ebbf072	0.36706883
4	0xbe0d831e	-0.13819548
5	0xbd54a2ae	-0.051912956
6	0xbe85a177	-0.2609975
7	0x3eafed0b	0.34360537
8	0x3e8af536	0.27140206
9	0x3e8f33fe	0.27969354
10	0x3e079029	0.13238586
11	0x3ebcbba1	0.368619
12	0x3ea012eb	0.31264433
13	0xbee7aae6	-0.45247573
14	0xbece99d6	-0.40351743
15	0xbe907eaa	-0.28221637
16	0x3dde52af	0.108556144
17	0x3e46fed3	0.19433145
18	0x3e850142	0.25977522
19	0xbed21904	-0.4103471
20	0x3ea12f09	0.31481197
21	0x3ece5dfb	0.40306076
22	0x3ea97ec3	0.33104524
23	0xbebe3bd4	-0.3715502
24	0xbbdb488f	-0.0066919993
25	0xbdae883e	-0.0852208
26	0xbd93a7ca	-0.072097376
27	0xbf3061a3	-0.6889898
28	0x3d98c437	0.074593
29	0x3e3fd875	0.18734916
30	0x3dab0b15	0.08351723
31	0x3ea2af18	0.3177421

classifier.bias f4 [2]
0	0x3e1bb24d	0.15204735
1	0xbbe11f16	-0.006870161
