o02_test/run_outputs/58cnn_train_weights.pth (torch, 48140 bytes, 22 tensors)

features.0.weight f4 [16, 6, 5]
000000 78 aa 5e 3f 1c a7 d7 3e 76 18 79 bd 08 09 1f bf
       0.86978865 0.42119682 -0.060814343 -0.62123156
000010 65 7b 90 bf fd b9 7e bf 99 09 bd bf cf 80 84 bf
       -1.1287657 -0.99502546 -1.4768554 -1.0351809
000020 1d 97 0d bf 22 f7 8a bf 2d 6d 92 3f 06 7c 23 3f
       -0.55308706 -1.0856669 1.1439568 0.6386112
000030 41 d6 03 3f a4 4c 32 3e 41 47 06 3d 1b e9 99 bd
       0.514988 0.17412049 0.032782797 -0.075151645
000040 90 6d cd 3b 88 f0 80 3b 5c f6 03 3d 1e 22 0e 3e
       0.0062691644 0.0039349236 0.03221737 0.13880202
000050 72 f9 d5 bc b4 5c 15 3d c7 fa ae bd fa 2e 4e 3d
       -0.026119921 0.03646536 -0.08543926 0.05033777
000060 48 c6 d7 bc a6 61 7a be 37 09 77 bd 99 b9 e0 bd
       -0.026339665 -0.24451312 -0.060311522 -0.109729
000070 ac 0b 9b bd f9 48 be be 0f 0a 38 c0 9f 4b 2f c0
       -0.075705856 -0.3716505 -2.875614 -2.7389905
000080 a7 32 c6 bf b2 79 4d bf dd 75 b4 3d f2 c4 1b 3f
       -1.5484208 -0.8026382 0.08811543 0.6084739
000090 5f bf 99 be 12 55 9c be b5 10 45 bf db 45 92 be
       -0.30028817 -0.30533653 -0.7697862 -0.2856892
0000a0 b8 57 b6 3e 58 21 db 3e f9 94 48 3f 30 e3 a6 3f
       0.356138 0.42798877 0.78352314 1.3038082
0000b0 2d a7 be 3f 6e 8d d4 bc 9f 54 b2 3d 51 3d aa bd
       1.4894768 -0.025946345 0.087075464 -0.083124764
0000c0 fa 3d 9f 3d de 27 49 3c e1 b7 d3 bd 4d bd 82 3d
       0.07775493 0.0122775715 -0.103378065 0.063837625
0000d0 ed 3a 1b bd 43 33 0f 3e 4f e5 c4 bd 80 ce 97 bc
       -0.037897993 0.13984399 -0.0961405 -0.018531084
0000e0 99 51 bb 3c 5c 12 a8 bc ec e3 06 3e c2 49 78 be
       0.022866057 -0.020516567 0.13172883 -0.24246886
0000f0 01 16 49 c0 60 61 4e c0 c4 88 10 c0 e8 fa af bf
       -3.141968 -3.2246933 -2.2583475 -1.3748446
000100 3e 85 dd be 40 5c 8a 3f 5c b4 8f 3f 29 09 88 3d
       -0.43265718 1.0809402 1.1226916 0.06642372
000110 1f e5 78 be 3e 13 13 bf e0 d1 ee bc a4 27 c3 be
       -0.24306153 -0.57451236 -0.02915281 -0.3811618
000120 1b 5b 45 be ad 25 01 3f 1f 2b 99 3f 74 13 8d 3c
       -0.19273035 0.50448114 1.1966285 0.01722119
000130 b5 20 20 bd 2c 09 1e 3d 72 1b 83 bd 19 4c d0 3d
       -0.03909369 0.038582966 -0.06401719 0.101707645
000140 b8 6a 06 be 2c 2e 08 be a0 de 61 3e f9 41 6b bb
       -0.13126647 -0.13298863 0.22057581 -0.0035897477
000150 44 b4 41 3c bb c8 bd bd ee 31 11 3e 69 8b c8 bd
       0.011822764 -0.09266802 0.14179203 -0.097922154
000160 b6 ad c2 bd e8 7e 3b 3b d3 1b 10 40 c7 69 e4 3f
       -0.09505789 0.0028609578 2.2516983 1.7844781
000170 d5 50 89 3f 33 f7 99 3e 5b e4 fb bd 20 06 03 bf
       1.0727793 0.3007141 -0.12299415 -0.5118122
000180 e3 e8 d3 3d 59 73 87 3e 38 e5 2b 3f 90 a1 72 3f
       0.10347154 0.2645519 0.67146635 0.94777775
000190 8a 83 91 3e a6 ce 5f 3e ce 95 f2 bd 69 3d 11 bf
       0.2842067 0.21856174 -0.11844979 -0.5673433
0001a0 37 f8 55 bf 06 c3 83 bd fc d0 87 bd 35 5b f4 bb
       -0.8358187 -0.06433682 -0.066316575 -0.007457162
0001b0 37 e0 90 bd 3b 3d 90 bd 12 64 17 bd e8 32 ef bd
       -0.070740156 -0.07042929 -0.03696067 -0.116796315
0001c0 48 5b 2c bc b3 ed 1e be 9b c7 45 bd 94 20 15 be
       -0.01051981 -0.15520363 -0.04828606 -0.14563209
0001d0 56 37 8b bd 1e ac 88 be 63 86 50 be 9c e8 26 be
       -0.06797664 -0.26693815 -0.20363764 -0.16299671
0001e0 f1 48 5e 3e 18 8a 28 3f 84 a6 af 3f e2 16 c3 3f
       0.21707512 0.65835714 1.3722692 1.5241358
0001f0 37 06 c7 3f e6 f2 90 3f 98 d2 69 3f 44 b0 32 3f
       1.5548772 1.1324127 0.91336966 0.6980021
000200 a0 8c be 3e 7e d2 d8 bd ff fd cd 3e 23 b1 db 3e
       0.37216663 -0.10587023 0.40232846 0.42908582
000210 b2 83 27 3e 33 f0 a2 3e 08 cd 34 3e cd 5e 95 bd
       0.16358832 0.31823882 0.17656338 -0.072934724
000220 ff f0 8d 3c a4 fe 73 bd ce 6c a8 3c 6c 1b 9e 3c
       0.01732683 -0.059569016 0.020559695 0.019300185
000230 b3 33 85 be 9a b0 76 be f8 d9 19 3d df 6b 24 be
       -0.26016006 -0.24090806 0.037561387 -0.16056775
000240 9c 6b fc bd d5 28 42 bd ef 86 03 3d bf 37 cc 3d
       -0.12325212 -0.04740222 0.032111105 0.0997157
000250 a2 59 6a 3e 7b 54 9b 3d f1 11 6d 3e 70 7e 6d 3f
       0.22885755 0.07584473 0.23151375 0.92771053
000260 f9 79 12 3f e6 e8 f7 3d 3f 78 ff 3e b0 4a 1e 3f
       0.57217366 0.12104969 0.49896428 0.61832714
000270 38 e8 9c 3e b6 01 45 be cd 7c ec 3e ce 82 59 3f
       0.3064592 -0.19238934 0.46188965 0.8496522
000280 bd 01 97 bf c7 27 85 bf 3d c1 87 be 3c 1b eb be
       -1.1797405 -1.0402764 -0.26514617 -0.45919216
000290 76 b8 50 bf 66 32 59 3d 7e 7c 9e bd 0d 44 38 3d
       -0.81531465 0.05302658 -0.07738589 0.044986773
0002a0 89 c4 82 3b 80 8e c8 3b f2 d5 06 be 88 44 ed 3d
       0.003990714 0.006120503 -0.13167551 0.11585337
0002b0 28 3a 69 3e 39 22 20 bd 42 17 f6 bd fa ce 04 be
       0.22776091 -0.039095137 -0.12016155 -0.1296958
0002c0 2c 6c fa bd aa 5d 19 3e 8c e0 40 3e 71 2f f4 bd
       -0.122276634 0.14977136 0.18835658 -0.11923111
0002d0 2f 10 ff 3f b4 60 9e 3f ec f3 7d 3e ba 83 51 bf
       1.9926814 1.2373261 0.2480008 -0.81841624
0002e0 c8 b5 8a bf 91 16 b2 bf 37 62 c6 bf 06 35 9d bf
       -1.0836725 -1.3913137 -1.5498723 -1.2281806
0002f0 3f 3d 78 bf 94 f8 88 bf b4 06 a2 3f 02 44 93 3f
       -0.96968454 -1.070086 1.2658296 1.1505129
000300 68 f1 70 3f 83 dd 48 3f 36 20 00 3f da 24 95 bd
       0.94118357 0.78463 0.5004915 -0.072824195
000310 fb 43 40 bb 82 90 5d 3c 6b d6 5f 3d 2d 71 be 3d
       -0.0029337395 0.013523223 0.054647844 0.0929893
000320 98 9e 31 bd e0 5d 08 bd be d2 6f 3d b7 66 96 3d
       -0.043364137 -0.03329265 0.05855059 0.0734381
000330 01 18 05 3d f8 20 e6 bd 56 2d 48 3c 2f 6e 79 bd
       0.032493595 -0.11236757 0.01221784 -0.060896095
000340 a6 d9 00 be 95 85 62 be 97 6a ea 3f 7e ba a6 3f
       -0.12583026 -0.2212127 1.8313779 1.3025663
000350 33 15 9b 3e 72 62 c7 be 14 32 8d bf 66 70 a1 3f
       0.3028961 -0.38942295 -1.1030908 1.2612426
000360 0a 80 89 3f a6 2c 28 3e 09 6b e8 bd a3 3b 84 bd
       1.07422 0.16423282 -0.1134854 -0.06456687
000370 84 34 36 bf bf e0 1a bf 17 5f e9 be be 40 14 be
       -0.7117388 -0.60499185 -0.4558036 -0.14477822
000380 34 73 9b be 4c 8a fd 3d cb 18 b2 3d 6e 47 4e 3d
       -0.3036133 0.12379894 0.08696135 0.05036109
000390 bf 07 75 bd 3e 6a bb bd 7b 7c cb be 77 0e b7 bc
       -0.05982184 -0.091511235 -0.3974341 -0.022345765
0003a0 5e 78 e9 3d 6f 49 20 3e d6 d2 de 3d cc f3 12 3e
       0.11399911 0.15653013 0.108800575 0.14350814
0003b0 6f 61 38 3d b8 fa 79 bd 4f ae 13 bd 32 ba c4 bc
       0.045014795 -0.06103012 -0.036054906 -0.024014566
0003c0 56 c7 21 bf d2 b1 7a 3d d4 d5 5d 3f 8e 87 a2 3f
       -0.6319479 0.06120474 0.866544 1.2697618
0003d0 c8 bb ef 3f 48 25 d9 bf d6 04 06 c0 b5 ed 9d bf
       1.8729181 -1.6964502 -2.0940452 -1.2338167
0003e0 bc b4 85 bf d7 64 71 bf bc 73 a8 3f ce 47 b3 3f
       -1.0445781 -0.94294494 1.3160319 1.4006288
0003f0 4c 56 a4 3f 4e fb 87 3f a5 12 80 3f a5 a7 ea bd
       1.2838836 1.0623567 1.000569 -0.11457757

features.0.bias f4 [16]
000000 17 cd af 3d 18 a6 43 bd ab 88 02 be 87 77 89 bd
       0.0858404 -0.04776582 -0.12747447 -0.06712251
000010 d1 00 d3 bd 42 23 32 bd 6c d4 9c 3d 7f 8d c6 bc
       -0.1030289 -0.043490656 0.07657704 -0.024237392
000020 bf 48 0e 3e ca cc 2c 3e 1b 26 05 3d 46 7e ca 3d
       0.13894938 0.16874996 0.032507043 0.09887366
000030 54 ff 91 3d 7c 5f 9c bd 8a f9 f0 3c a7 99 e8 bc
       0.07128778 -0.076354 0.029415864 -0.02839358

features.1.weight f4 [16]
000000 0b 32 67 3f 5e 7b 6b 3f 2a 63 5c 3f 98 ab 56 3f
       0.90310735 0.9198512 0.8608881 0.8385558
000010 65 f8 68 3f d5 1e 50 3f a5 4d 71 3f d1 0c 59 3f
       0.9100402 0.81297046 0.942591 0.8478518
000020 f0 97 4e 3f 78 8a 57 3f 44 1d 66 3f ed 9e 67 3f
       0.8070059 0.8419566 0.89888406 0.90476876
000030 eb 20 5d 3f 66 9f 63 3f 6a 3a 63 3f 67 ff 3c 3f
       0.86378354 0.889151 0.8876101 0.73827213

features.1.bias f4 [16]
000000 e3 83 cb bd 4c 61 8a bd 92 e7 75 be 7a 82 35 bb
       -0.09937265 -0.06756839 -0.24014118 -0.0027696178
000010 87 8b bd 3a ac d3 6e be d1 6d ce bb 9d d7 83 bd
       0.0014461138 -0.23322934 -0.006299712 -0.06437609
000020 c8 fc d6 bd 63 0a 4c bc 68 0d 3b bd dc 88 d3 be
       -0.10497433 -0.012453648 -0.045667082 -0.41315353
000030 01 c4 87 bd f5 57 7e bd 03 73 ed bc 33 85 68 bd
       -0.06629182 -0.0620956 -0.028985506 -0.056767654

features.1.running_mean f4 [16]
000000 4a 03 b4 3d 38 2c 2f bd 7a 08 03 be 72 65 e6 bd
       0.0878969 -0.04276678 -0.12796202 -0.11249818
000010 6b d5 1a be 00 71 29 bd 28 74 b3 3d c7 b4 59 bc
       -0.15120475 -0.04136753 0.087623894 -0.01328773
000020 be d1 0f 3e d1 e4 0c 3e 2e 41 07 3d 5f d8 d4 3d
       0.14044854 0.13759162 0.033021145 0.10392832
000030 d3 22 8c 3d bc 75 98 bd 96 48 85 3d ac fd 0b 3d
       0.0684258 -0.07444331 0.06507985 0.034177467

features.1.running_var f4 [16]
000000 c6 37 8b 44 d1 5b 35 42 d9 9c 4b 42 c4 53 a4 44
       1113.7429 45.339664 50.90317 1314.6177
000010 bd 1d f3 43 0a 56 b1 41 7e ca cc 43 09 fe 2e 43
       486.23233 22.167011 409.58197 174.99232
000020 57 b1 bb 42 fe b8 13 44 66 74 e9 44 a0 1a ec 41
       93.84637 590.8905 1867.6375 29.513
000030 31 31 3f 42 35 d8 28 43 8a 1f 8a 43 ce 69 69 44
       47.79804 168.84456 276.2464 933.6532

features.5.weight f4 [32, 16, 3]
000000 b5 54 19 3e 95 4d 4c 3e 06 85 ce 3c d9 8f 49 bd
       0.1497372 0.1995147 0.025209915 -0.04920945
000010 73 6a ee bc 8d 8b e1 bc 79 37 86 bc 0c 6c a1 bc
       -0.029103493 -0.027532363 -0.016383873 -0.019704841
000020 59 89 50 bd 9c 2a 95 3d b7 04 e4 bc 0e 54 83 3d
       -0.050912235 0.07283518 -0.02783428 0.064125165
000030 67 9c 01 bd e2 7a 68 bd 85 7a 41 bd 15 e0 b8 bd
       -0.031643298 -0.056757815 -0.047235984 -0.09027115
000040 78 c7 54 bd 43 fd 12 be d7 e8 6c 3b fd 61 f8 bd
       -0.05194804 -0.14354424 0.0036149526 -0.12128065
000050 30 72 6a 3e 25 ac 24 be 26 5f 54 3d 81 30 4d bc
       0.22895122 -0.16081293 0.051848553 -0.012523771
000060 36 d3 da bd 55 ce b7 bc 68 b3 1f be c8 18 03 3e
       -0.106848165 -0.022437254 -0.15595782 0.12802422
000070 3c 73 57 3e 65 91 ac 3d 91 d1 a4 3e 6b 13 f8 bb
       0.21040052 0.08426169 0.32191136 -0.007570674
000080 8a b9 34 3e d2 34 82 bd fe 3d 91 bd 9f 55 31 bd
       0.17648903 -0.06357731 -0.07091902 -0.043294545
000090 61 d2 58 bd d8 ee 73 3d d7 34 2d 3d d0 03 f7 3c
       -0.052935008 0.05955395 0.04228672 0.030153185
0000a0 8f 1e 99 bb aa 0e 17 bd 34 b0 73 bd 7d 2a 53 3e
       -0.0046728323 -0.03687922 -0.059494212 0.20621677
0000b0 bb c5 37 bd 49 ba 0f 39 ad 8d 33 ba cc 3e 71 bc
       -0.044866305 0.0001370694 -0.00068494194 -0.014724445
0000c0 55 76 62 3d f9 a3 23 be 5c 8a 1b be 9c 7c 4b 3d
       0.05528863 -0.1598052 -0.15189499 0.049679384
0000d0 ee dc e1 3d 4a 10 01 3d 81 0b aa bc 44 cc a6 3d
       0.11028467 0.031509675 -0.020757439 0.08144429
0000e0 4b 02 18 3d d1 80 26 3e bf 89 1b bd 20 d5 a6 bd
       0.03711156 0.16260077 -0.03797316 -0.08146119
0000f0 47 d7 86 3d 22 2a 4f 3d 7e bf 4c 3d 49 32 6a 3b
       0.0658403 0.05057729 0.04998731 0.0035735539
000100 14 dd f4 3c 13 0c 2f 3e 70 88 02 bd db 68 74 be
       0.029890575 0.1709445 -0.0318684 -0.23868124
000110 91 86 74 be b0 3f 4d be 34 44 c7 bd 25 00 8b bd
       -0.23879458 -0.20043826 -0.097298056 -0.06787137
000120 e2 49 51 bd 0c e2 1f be ce b6 d3 bd 33 68 c8 3c
       -0.05109585 -0.15613574 -0.103376016 0.024463749
000130 ee 41 f1 3a 3a 70 2a 3d 02 80 e5 3d 07 0e fb bd
       0.0018406489 0.041610934 0.11206056 -0.12258535
000140 6e bf 43 be 7e c6 18 3e f4 2d 03 be e7 4c ee bd
       -0.19115993 0.14919469 -0.12810498 -0.11635762
000150 da 46 47 bc b3 54 af bd 3b 0a 87 bd 8b 4d be 3d
       -0.012162888 -0.08561077 -0.06593748 0.09292134
000160 da 94 69 bd a5 e0 a6 3d 69 d1 63 be 26 ee 5c be
       -0.05702672 0.08148316 -0.22247852 -0.21575221
000170 53 2e b5 bd dd 75 10 bd 33 59 1d 38 15 36 0d 3e
       -0.08846726 -0.035268653 3.751479e-05 0.13790162
000180 a5 35 f9 bc 13 09 9a 3c 59 aa 3b bc 4b 26 c1 bd
       -0.030421088 0.018803155 -0.011454188 -0.09431132
000190 39 3e 85 bd 69 82 9f bd 5d 60 08 3c d1 b3 95 3d
       -0.06506009 -0.07788546 0.008323756 0.07309688
0001a0 72 0e c1 3d cc 45 0b be 0a 3c 43 be 37 c4 1e be
       0.09426583 -0.13600844 -0.19065872 -0.15504538
0001b0 53 c9 94 be 3c a1 94 be 4b 02 2c be 6b 42 6e bd
       -0.29059848 -0.29029262 -0.1679775 -0.05816881
0001c0 c5 9c 37 3d c8 7e bf 3d 0a ca b7 3d 03 06 2b 3d
       0.04482724 0.093503535 0.08974083 0.04175378
0001d0 8a 24 67 3c 4b a5 19 3e 3d 48 ab bd 5a 1a 0b be
       0.014107833 0.1500446 -0.08363388 -0.13584271
0001e0 eb 69 17 bc 2a 5d 6c bd 15 96 29 bd 4f e4 bc bd
       -0.009241561 -0.057706036 -0.041402895 -0.09223234
0001f0 cd d5 a6 bd 4a 41 8f bd f0 a5 3d bd 7d ce 03 bd
       -0.08146248 -0.06994875 -0.04630083 -0.032179344
000200 7d f2 96 3c 64 59 28 3d 94 94 a0 3c e2 56 ac 3d
       0.018426174 0.041100875 0.019602098 0.08415009
000210 d4 61 ce ba c3 e5 02 3e 0a d1 bf 3c 6f aa 86 bd
       -0.0015745708 0.1278296 0.023415107 -0.065754764
000220 c2 e4 44 bd 39 07 6f bd 7a be 0a be ac ac 16 be
       -0.048069723 -0.058356497 -0.13549224 -0.14714307
000230 4f f4 49 be 97 11 00 be e5 e4 e6 bd 11 a2 23 be
       -0.19722103 -0.1250671 -0.11274127 -0.15979792
000240 0f 1b 85 bd d2 02 f7 bd ca 73 26 3c 52 eb 45 3d
       -0.06499302 -0.12061085 0.010159442 0.048320122
000250 f6 2c e8 bd e8 4c a0 3d 2d 3c 85 bd 3e 8f 92 bd
       -0.113367006 0.07827169 -0.06505618 -0.071562275
000260 17 5b af 3d a9 47 85 bd 56 ce 0b 3e 67 67 76 bd
       0.08562296 -0.06507809 0.1365293 -0.060157206
000270 7e dd 35 3d ec 50 c1 3b 87 3d 38 3c a0 69 13 3e
       0.044400685 0.005899539 0.011245138 0.14395761
000280 e9 77 e3 bd fe 7e 4b bd d4 6e 0a be 6a 7d bc bd
       -0.111068554 -0.049681656 -0.1351884 -0.09203608
000290 f2 9f 3c be 58 8a cd bd 6f 88 4e bd 3a a3 06 bd
       -0.1842039 -0.100361526 -0.050423082 -0.03287051
0002a0 75 c5 c0 3c 6a fa 76 bd 33 73 cb bd ed b4 4e 3d
       0.023531655 -0.060297407 -0.09934082 0.050465513
0002b0 68 aa f4 3d ed 4e 89 3c 90 2d 54 bd 4b 1b 03 bd
       0.11946565 0.016761268 -0.051801264 -0.03200845
0002c0 b1 72 4b 3c 10 df 38 3d 03 81 89 bd 0b e5 56 3e
       0.012417481 0.045134604 -0.0671406 0.2098581
0002d0 f1 37 7b be 24 9c a5 be 93 7a ad be 04 5c ea bc
       -0.24533059 -0.32345688 -0.3388258 -0.02860833
0002e0 5c 08 d8 3d ae 7b ae bd 1d eb cc bd 57 dd 71 bc
       0.105484694 -0.08519684 -0.10005782 -0.014762244
0002f0 b9 21 82 bd 31 f1 74 3d b7 da 7d b9 4f 71 61 bb
       -0.06354088 0.05980033 -0.00024209438 -0.0034399813
000300 96 4f 29 be e3 ff 1c be 0d 67 45 bd 0f b8 68 3e
       -0.16534266 -0.15331988 -0.04819398 0.22726463
000310 f2 ad 32 bd 46 94 63 3e 3a 94 62 bc d5 d7 81 3d
       -0.04362292 0.2222453 -0.013829285 0.06339995
000320 65 16 25 3e 18 de 17 3e b8 71 6d be 8b e2 6a 3c
       0.16121824 0.14830816 -0.23187912 0.014336239
000330 10 63 dc 3c e0 fd 95 bb aa 93 fc bc cd b0 eb 3c
       0.026902705 -0.0045773834 -0.03083213 0.028770829
000340 a1 64 3a 3d fc 3a 01 be 13 c6 23 bd bb 58 8a bd
       0.045506123 -0.12620157 -0.03998382 -0.06755205
000350 99 ed e9 bd e7 db 32 3c ac 84 81 3d 43 31 36 3d
       -0.11422271 0.010916687 0.06324133 0.044480573
000360 9e b5 cd bd 13 f6 f5 bd 2d e5 f2 3b ba e8 e2 3d
       -0.10044406 -0.120098256 0.007412574 0.11079545
000370 2c 12 88 bc 2c 6f c2 bd c5 6f 8c bd cc 9a 15 be
       -0.016610228 -0.094938606 -0.06857256 -0.14609832
000380 e2 fe e1 bd 10 de 66 bd c8 1a 83 39 f3 da 0d 3e
       -0.11034943 -0.05636412 0.0002500622 0.13853054
000390 a0 fc 24 be 08 ad cb bd da 59 08 3b 75 c0 e4 bd
       -0.16111994 -0.099451125 0.0020805509 -0.11169521
0003a0 7e e6 90 be d6 12 c6 bd 17 c0 84 3d 03 66 84 bd
       -0.28300852 -0.096715614 0.06481951 -0.0646477
0003b0 41 7e 19 be 09 48 ff 3d 08 0d 9f 3d 9e f4 1b 3c
       -0.14989568 0.124649115 0.077661574 0.0095187705
0003c0 05 66 a0 bd 2c 02 10 be ac e8 32 3d 7b b4 ab 3c
       -0.07831959 -0.14063329 0.043678924 0.020960083
0003d0 dc 87 9d bc bc 75 6f 3d 70 72 1e be 2c 37 8a bd
       -0.019229822 0.05846189 -0.15473342 -0.067488045
0003e0 a9 5c b6 bd 2b b1 86 bc c9 21 2a 3e 21 e3 30 bd
       -0.08904392 -0.016441902 0.1661445 -0.043185357
0003f0 84 74 9b bc 32 77 c3 3b 56 5e 00 3d 48 0e 09 3e
       -0.018976457 0.005965137 0.031339966 0.13384354

features.5.bias f4 [32]
000000 42 74 96 bd 69 b8 f5 bd 4f 03 33 bd 48 be 97 be
       -0.07346393 -0.11998064 -0.043704327 -0.2963736
000010 18 75 7d bd f3 d1 56 be 78 7b 39 3e 65 5f b6 bc
       -0.061879247 -0.20978527 0.18113506 -0.022262285
000020 bc c8 54 bd a1 e9 3b bd 51 15 14 bd cc 4e ce bd
       -0.051949248 -0.045877103 -0.03615314 -0.10073623
000030 20 ed 07 3e 48 32 e4 3c 8f 92 04 3e 68 4e fe 3d
       0.1327405 0.027856007 0.12946533 0.124172986
000040 14 20 d8 3d f3 3e 2d 3e 95 2f 26 bd ae 36 0c 3e
       0.105529934 0.16918544 -0.04057272 0.13692734
000050 d3 68 b1 3d 52 b9 7d bc 79 bb 01 bd 69 b1 1c bd
       0.08662572 -0.015486078 -0.03167293 -0.03825513
000060 63 09 02 3e 9f 18 b6 3d c9 e0 bb bb 3e f0 5b be
       0.12698893 0.08891415 -0.0057335836 -0.21478364
000070 d5 44 be bd a2 ab 4a 3d 21 f1 bd 3d 76 c8 88 3c
       -0.092904724 0.049480088 0.09274507 0.01669715

features.6.weight f4 [32]
000000 9a 77 25 3f 56 10 60 3f bc 31 80 3f c1 3c 56 3f
       0.6463562 0.87524927 1.0015178 0.83686453
000010 73 57 4d 3f a7 79 52 3f 10 aa 43 3f 5a 6c 5d 3f
       0.8021156 0.82216877 0.7643137 0.86493456
000020 5f 19 55 3f 15 48 74 3f f0 bc 72 3f d9 69 59 3f
       0.8324184 0.9542249 0.94819546 0.84927136
000030 ed a1 6d 3f 16 b8 5e 3f 03 b6 48 3f 14 42 61 3f
       0.92825204 0.8699964 0.7840273 0.8799145
000040 eb 91 38 3f 23 65 69 3f ae 43 6d 3f 55 2b 62 3f
       0.72097653 0.9116995 0.92681396 0.8834737
000050 e0 32 75 3f 44 86 64 3f 50 8f 6f 3f 11 a6 52 3f
       0.95780754 0.89267373 0.9357805 0.8228465
000060 f7 c7 6d 3f 23 2e 55 3f 26 df 5d 3f ac de 50 3f
       0.9288325 0.83273524 0.8666862 0.8158977
000070 a5 ca 54 3f 65 27 66 3f 6b 68 6b 3f bc 88 6f 3f
       0.8312171 0.8990386 0.91956204 0.93568015

features.6.bias f4 [32]
000000 9a b0 1c be a0 ea 14 be ce 3f 5a be 8c de eb bd
       -0.15301743 -0.14542627 -0.21313402 -0.11517057
000010 c9 9c 93 bd a6 06 0b be df d4 92 bd 7f fe a1 be
       -0.07207639 -0.13576755 -0.07169508 -0.31639478
000020 1b 80 81 bd 11 27 1a be fe 0b 03 be 3b ac 22 be
       -0.06323262 -0.15053965 -0.12797543 -0.15886013
000030 d2 52 3a be b2 e3 1c be 5f db 19 be c8 ec 15 be
       -0.18195656 -0.15321234 -0.1502509 -0.14641106
000040 e8 47 ac be 50 27 0a be 29 d0 27 be 4d e3 d5 bd
       -0.3364861 -0.13491559 -0.16388 -0.10443745
000050 87 c2 9e be f4 0b 2c be d6 61 70 be 45 77 db bd
       -0.31007788 -0.16801435 -0.23474821 -0.10716108
000060 9f b6 ab bd fa ea 36 be 48 9d dd bd f8 a7 2a be
       -0.083844416 -0.17863074 -0.10821015 -0.16665637
000070 fe 9d 0c be 7a bf 67 be 5d f7 5d bd 10 37 1d be
       -0.13732144 -0.22631636 -0.054190982 -0.15353036

features.6.running_mean f4 [32]
000000 62 4d 16 3d f4 3f df be c1 a2 12 bf 72 eb 2a bf
       0.03669489 -0.4360348 -0.5727959 -0.6676551
000010 90 c6 a2 be 32 04 34 bf 8a f1 9d bd 4c 2c 70 be
       -0.31792116 -0.703189 -0.077120855 -0.23454398
000020 06 58 84 be e9 82 10 bf ac e0 1a bf 02 1c 4e be
       -0.25848407 -0.56449753 -0.6049907 -0.20127872
000030 e8 4e 58 be 44 db 83 be 4e 9a 62 be 64 03 22 be
       -0.2112385 -0.25753224 -0.22129175 -0.15821606
000040 5f f0 e8 3e f7 9d 9b be 8b bd 0e bf 9c 28 7f bd
       0.4549589 -0.30393955 -0.5575797 -0.062294587
000050 4d c1 8d be 54 17 c1 be 1e 7a d7 be 84 31 a0 be
       -0.2768654 -0.3771311 -0.42085356 -0.31287777
000060 9a b7 b5 be 5f f6 6a be 9a 6a d7 be c0 7b 23 bf
       -0.3549164 -0.22945546 -0.42073518 -0.638607
000070 4c 7a a8 bd 1a 61 af be 7c 42 60 bd 28 07 ef be
       -0.08226451 -0.3425377 -0.054750904 -0.46685147

features.6.running_var f4 [32]
000000 1a 7a ff 3e fa 85 4a 3f 3e 19 51 3f b2 af 54 3f
       0.49897844 0.7911068 0.8167914 0.8308059
000010 c5 70 1f 3f 1b 0d ae 3f f4 d3 21 3f e1 9e de 3e
       0.6228145 1.359775 0.6321404 0.4348059
000020 04 00 d8 3e d1 12 71 3f cf 7a d3 3f 3b 06 a4 3e
       0.42187512 0.94169337 1.6521853 0.32036003
000030 86 46 9e 3f 57 80 36 3f 7b ea 81 3f a3 23 16 3f
       1.2365272 0.7128958 1.0149683 0.5864813
000040 b1 d8 ec 3e 38 53 81 3f e3 27 5a 3f b7 e5 f4 3e
       0.46259072 1.0103521 0.8521711 0.4783151
000050 05 e5 95 3f 0a ff 6b 3f c1 3a 54 3f cd 65 59 3f
       1.1710516 0.92186034 0.8290215 0.8492096
000060 60 d5 bf 3f c2 d6 38 3f 62 49 95 3f 19 da 51 3f
       1.4986992 0.72202694 1.166302 0.81973416
000070 24 8b 81 3e ed 72 78 3f cf 3f ca 3e 2d 21 41 3f
       0.25301468 0.9705036 0.39501807 0.7544125

features.10.weight f4 [64, 32, 3]
000000 2d b7 49 bd 72 9d 55 bd 55 a8 0b bd be b3 ab 3d
       -0.049246956 -0.052152105 -0.03409608 0.083838925
000010 fd 92 f7 3d d3 89 b3 3d a2 8f 04 be 30 78 b3 bd
       0.12088583 0.08766522 -0.12945417 -0.08763158
000020 57 14 11 be 63 d4 1b 3e cc 0e 13 3e cd 79 31 3e
       -0.14167915 0.15217738 0.14361113 0.1733162
000030 93 b1 15 3e 35 18 bc 3d cf 5d f6 3d 0f 7c 01 3e
       0.1461852 0.091843046 0.12029611 0.12644981
000040 a5 fa aa 3d 2f 1b 20 3e 0b 9f a1 3b be e0 f7 bb
       0.08348588 0.1563537 0.0049322895 -0.007564633
000050 74 5c fb 3c 47 b7 e5 3c de e3 6e bd 31 42 a8 bd
       0.030683734 0.028041495 -0.05832278 -0.0821575
000060 d5 26 5a 3d 81 ce 97 bc ac 52 e0 3b cc 35 11 be
       0.05325969 -0.018531086 0.0068457928 -0.14180678
000070 7c 4c d4 bd 39 5d a0 bd fe ca 04 be 5d 4c e0 bd
       -0.10366151 -0.07830281 -0.1296806 -0.10952065
000080 a3 6d 77 bd 35 72 76 bd d3 b7 16 bd 69 a4 aa bd
       -0.060407292 -0.06016751 -0.036796402 -0.0833214
000090 f9 05 d6 bd ec 19 ff bd 60 a7 60 be df 3f ab 3d
       -0.10450358 -0.12456116 -0.21938848 0.08361792
0000a0 d4 a2 72 3d 2c 6b d1 3d 20 63 92 3c f7 cf 57 3d
       0.059237316 0.102255195 0.017869532 0.052688565
0000b0 3a 89 52 b9 14 91 83 3d c8 4b 12 3e 4d c3 f7 3d
       -0.00020078282 0.06424156 0.14286721 0.120977975
0000c0 dd 4b f6 bd 20 a2 0c bd 73 58 06 bd 2b af 23 be
       -0.120261885 -0.034334302 -0.032799195 -0.1598479
0000d0 22 a9 d8 bd 81 9c d1 bd f8 c5 83 bd 64 27 6a bd
       -0.105791345 -0.10234929 -0.06434244 -0.057166472
0000e0 59 9c 62 bd fe 69 3b ba 58 5f 3e 3d 98 5c 0a bd
       -0.055324886 -0.0007149278 0.046477646 -0.03377971
0000f0 0e d6 26 be b4 0d 1c be 69 c5 2e be df 21 15 3e
       -0.16292593 -0.15239602 -0.17067493 0.14563702
000100 51 f0 3a 3e 0f 78 6a 3e b4 5b 30 3e bf 33 21 3e
       0.18255736 0.22897361 0.17222482 0.15742396
000110 0a 0c 13 3e e4 85 a0 3d 4c 68 87 3c 85 c5 06 3d
       0.14360061 0.078380376 0.016529225 0.032903213
000120 2e 52 45 bd 31 54 a5 bd ab f2 a9 bd 33 3f ad 3d
       -0.048174076 -0.08072699 -0.08298238 0.0845932
000130 04 b9 b0 3d 63 09 9d 3c b4 db 35 bd a0 c6 8b bc
       0.08629039 0.019169515 -0.04439898 -0.017062485
000140 50 cd a2 bc da d5 39 be 72 dc 14 be f4 bf 5d be
       -0.019873291 -0.18147984 -0.14537218 -0.21655256
000150 8b 01 55 bd a5 dc 60 bd f3 19 a5 bd 2c 53 9d 3d
       -0.052003425 -0.054897923 -0.0806159 0.076818794
000160 d6 4b d0 3d f0 53 e2 3d 79 4d 43 bd 9d 3c 01 bd
       0.101707146 0.11051166 -0.047681306 -0.031551946
000170 5c b5 04 bd 8e 9f b6 bc 96 7c a7 bd 68 a4 82 bd
       -0.03239952 -0.022292878 -0.0817806 -0.06379014
000180 fd 91 fb bc 32 29 5f bd 42 7e d7 bc 8f 5f 00 3e
       -0.030709261 -0.054482646 -0.026305322 0.12536453
000190 8f c4 88 3d 51 02 95 3c e3 83 c1 bd b2 b7 90 bd
       0.066781156 0.018189581 -0.094489835 -0.07066287
0001a0 cc 1b e5 bc 88 98 31 3e 41 38 2d 3e cf bc 02 3e
       -0.027967356 0.17343342 0.1691599 0.12767337
0001b0 c3 b3 d1 3c ac d8 00 3c dc fb 55 3d 12 12 e0 3d
       0.025598412 0.007864159 0.052242145 0.10940947
0001c0 76 35 22 3e a9 48 06 3e 6e de 77 3d 0a bc cf 3d
       0.15840706 0.13113655 0.06051486 0.101432875
0001d0 82 91 65 3d 15 19 d5 3d 3a 73 98 3d 17 1a ce 3c
       0.05604697 0.10405175 0.07443853 0.025158925
0001e0 70 5b e4 3d 87 2c 9b 3d 60 50 ec 3c f7 50 81 bd
       0.11150253 0.07576852 0.02884692 -0.06314271
0001f0 98 01 b4 bd 70 73 9f bd 1d 04 d0 bd c1 52 59 bd
       -0.087893665 -0.0778569 -0.101570345 -0.053057436
000200 d3 e8 6c bd f1 1e 39 bd df f2 e6 bc 39 57 00 be
       -0.057839226 -0.045195524 -0.028191982 -0.12533273
000210 e5 59 de bd bf d7 89 bd 91 e1 1d be b2 24 86 3d
       -0.1085699 -0.067306034 -0.15418078 0.06549968
000220 d9 24 67 3d 07 22 c4 3c 9a f3 e4 bb 63 b0 bb 3c
       0.056431625 0.023942007 -0.0069870474 0.022911256
000230 46 05 da bc fb ff 94 3d a6 b2 eb 3d 9c bd 09 3e
       -0.026613843 0.07275387 0.11508684 0.13451236
000240 6a 4d 81 bd 95 98 84 bd 09 a1 b3 bd 26 f9 f9 bd
       -0.06313594 -0.06474415 -0.087709494 -0.122057244
000250 8b c7 9f bd 87 0b c9 bc d6 40 a8 bd 02 ad 0c bd
       -0.07801732 -0.02454163 -0.082154915 -0.03434468
000260 c1 6f 91 bd f7 9b db 3c 0f b8 fa 3c 08 94 18 bd
       -0.071013935 0.026807768 0.030605344 -0.03725055
000270 7f 85 01 be c8 1d e4 bd 45 29 3c be ee 03 e0 3d
       -0.12648581 -0.11138493 -0.18375118 0.109382495
000280 13 b0 b2 3d da a6 07 3e a8 b1 15 3e 71 7d 20 3e
       0.0872499 0.13247243 0.14618552 0.15672852
000290 06 0e 2e 3e 73 f0 0f bc ab 72 85 bb 1e 23 0a bd
       0.16997537 -0.008785355 -0.0040725074 -0.033724897
0002a0 44 26 bd bc 50 2f dd bc 79 d0 68 bd f8 22 1d 3e
       -0.023089536 -0.0270001 -0.05683944 0.15345371
0002b0 fa 70 1e 3e fb 5c 0e 3e e9 cf 99 bd 60 1d 81 bd
       0.15472785 0.13902657 -0.07510359 -0.06304431
0002c0 52 75 5e bd c2 87 3c be 68 34 ce bd 64 e7 0b be
       -0.054311104 -0.18411162 -0.100685894 -0.13662487
0002d0 87 dd f7 bc c5 49 dd bd 5f d7 03 be 80 26 f9 3d
       -0.030257 -0.10805086 -0.12875126 0.121655464
0002e0 c1 d1 1e 3e ad 58 13 3e 70 9d 92 bd b4 43 82 bc
       0.15509702 0.14389296 -0.07158935 -0.015901424
0002f0 00 e5 00 bd a3 83 b0 bd 7e 42 78 bd 55 64 48 bd
       -0.03146839 -0.08618858 -0.060610287 -0.04892381
000300 35 b0 52 3c 45 c5 83 3c 45 93 62 3d a5 d8 df bd
       0.012859394 0.016085276 0.05531623 -0.109299935
000310 5b 80 92 bd 9a 2a 96 bd 16 ef 38 3e 74 a5 b3 3d
       -0.07153388 -0.07332344 0.18059954 0.08771792
000320 a9 2b 29 3e 01 60 bf bd a7 f1 86 bc 86 d1 7a bd
       0.16520561 -0.09344483 -0.01647265 -0.061234973
000330 52 e0 f6 bd 15 5b c8 bc b2 ef 94 bd 4a 7d 9a bb
       -0.120545045 -0.024457494 -0.07272281 -0.0047146427
000340 ab 02 7f 3d d4 31 44 3c b0 fb 94 bc 14 4a fc bc
       0.062258404 0.011974771 -0.01818642 -0.030797042
000350 8d d2 03 be 7a 1c 06 be 17 cd 00 be 08 bd 0f be
       -0.12873287 -0.130968 -0.12578236 -0.14036953
000360 86 9b 77 be e5 00 16 be f5 ea 20 be 55 92 58 3d
       -0.24180421 -0.14648779 -0.15714629 0.052873928
000370 1a b5 ea 3d e8 34 6a 3d 43 91 3c 3e 0d 64 9b 3d
       0.11460324 0.05717936 0.18414788 0.075874425
000380 c5 62 ce 3d 47 62 da 3d 5e 24 aa 3d cf 26 f1 3c
       0.100774325 0.10663276 0.08307718 0.02943745
000390 45 d8 e8 bd 6f 61 64 bd 23 36 6d bd 17 18 55 bd
       -0.11369375 -0.055756982 -0.057912957 -0.052024927
0003a0 ab 7b c1 bc 94 e8 8d bd 78 8e e7 bd 54 d8 1e bd
       -0.02361854 -0.069291264 -0.11306471 -0.038780525
0003b0 ad 90 0a be 37 87 61 bd 4d 7a f6 3b 71 b2 9d bd
       -0.13531752 -0.05506059 0.0075219036 -0.077000506
0003c0 dd 03 0d bc 31 e4 52 bc ac 3f 6a 3c 83 eb 79 bc
       -0.008606878 -0.012871788 0.014297407 -0.015253904
0003d0 5c 61 9c 3d 68 45 2c 3e 24 2e 0c 3e 64 38 be 3d
       0.07635757 0.16823351 0.13689476 0.092880994
0003e0 44 f7 ce 3d ae cd 37 be 20 2b bf bd 5d 1d 05 be
       0.10105756 -0.17949554 -0.09334397 -0.12999482
0003f0 48 e4 24 3b 9f 74 d6 3c f0 a1 1f 3d 43 45 07 be
       0.002516048 0.026178656 0.038972795 -0.13210015

features.10.bias f4 [64]
000000 4a 0e 8e 3d dd 15 9f bd 02 43 58 3c 31 79 84 bd
       0.06936319 -0.07767842 0.01319957 -0.06468428
000010 e0 40 a8 bd 7d 23 7b 3d 9f 99 11 3e a9 be 9a ba
       -0.08215499 0.06131314 0.14218758 -0.0011806089
000020 da 0d a7 3b 55 70 33 bc 3a 50 80 3c 6a ae 20 bc
       0.005098087 -0.010952075 0.015663255 -0.009807209
000030 2c b4 de bb 6e e5 ea 3b db 95 57 bd 32 ed 18 3d
       -0.0067963805 0.0071684634 -0.052633148 0.037335582
000040 3d ec 03 bc 38 bd fb bb d8 ff 58 bd 7f 31 c4 3d
       -0.008051929 -0.0076824687 -0.052978367 0.09579753
000050 e4 2f a9 3d 78 33 88 3d 4a bd 9b 3c cb 33 a0 3d
       0.082610875 0.06650442 0.019011158 0.07822379
000060 3d a7 4c 3d 4a db 06 3d 3a 64 e5 bc 1e ca 7c bc
       0.04996418 0.032923974 -0.028001893 -0.015429048
000070 17 b1 a4 3d 54 56 b3 bd 6c 24 d7 3d 0d 26 ad 3d
       0.0804159 -0.087567 0.10504994 0.08454523
000080 3a 02 90 bd d0 4b ca bd 5d 27 2f 3d c9 49 18 3b
       -0.07031675 -0.09877741 0.04276215 0.0023237339
000090 5b b9 c2 3b 29 8c f6 3c c2 5a 19 3d d7 85 04 be
       0.0059425062 0.03009613 0.03744007 -0.12941681
0000a0 30 e7 e8 3c 19 7e 24 3d 24 f4 56 bd f9 4f 7d 3c
       0.028430551 0.04015932 -0.052478924 0.0154609615
0000b0 29 b0 7c 3c 50 d6 73 bb e8 2b f2 bc d9 a4 3c 3d
       0.015422859 -0.0037206598 -0.029561952 0.04605565
0000c0 2d 9a f8 3c 63 b0 00 3e 20 d1 d5 bd 4b a6 cf bb
       0.030346954 0.12567286 -0.10440278 -0.0063369623
0000d0 83 96 3a bd c9 a7 0f 3e ee 52 28 3d b6 8f b3 3d
       -0.045553695 0.14028849 0.041094713 0.08767645
0000e0 cf 77 37 bd 66 d5 7b bc cb 27 15 3d 55 41 3e 3d
       -0.044791993 -0.015370702 0.036414903 0.046449024
0000f0 82 d7 b7 3d 3c 15 7e bd 1d d4 c2 bd 12 45 9c 3d
       0.08976652 -0.06203197 -0.09513114 0.076303616

features.11.weight f4 [64]
000000 c2 f4 6f 3f 1c 26 5e 3f 2f 29 7b 3f 2a 04 6d 3f
       0.93732846 0.867769 0.98109716 0.9258448
000010 d6 36 61 3f 5c 94 6b 3f 91 06 73 3f 19 fc 78 3f
       0.879743 0.92023253 0.94931895 0.9725967
000020 ea 5e 5d 3f 56 e1 7e 3f b2 d6 5e 3f c8 fd 74 3f
       0.8647295 0.99562585 0.8704635 0.9569974
000030 95 72 71 3f 38 f7 67 3f 18 cb 5c 3f 28 60 76 3f
       0.94315463 0.906116 0.86247396 0.9624047
000040 7a f0 66 3f 36 b5 69 3f 19 10 6b 3f b4 08 6b 3f
       0.9021069 0.9129213 0.9182144 0.91810155
000050 28 4e 72 3f 71 ec 57 3f e5 53 6b 3f 97 5d 79 3f
       0.94650507 0.84345156 0.9192489 0.9740843
000060 f2 c0 65 3f 3f 45 70 3f 38 66 79 3f 67 83 63 3f
       0.89747536 0.9385566 0.974216 0.8887238
000070 2d ea 7d 3f 74 3d 6b 3f d2 68 69 3f 50 be 67 3f
       0.9918545 0.91890645 0.9117557 0.9052477
000080 bb 65 70 3f a9 06 6c 3f 4d 33 5e 3f a1 75 74 3f
       0.9390523 0.9219766 0.8679703 0.9549199
000090 5f 7d 6b 3f b5 3e 65 3f 30 1b 70 3f d0 a6 62 3f
       0.91988176 0.8954881 0.93791485 0.88535786
0000a0 0b c0 6b 3f 4d 22 80 3f e9 52 84 3f 97 cc 77 3f
       0.9208991 1.0010468 1.0337802 0.96796554
0000b0 9d 67 7d 3f 67 96 62 3f ac 46 6c 3f b1 b8 63 3f
       0.98986226 0.88510746 0.92295337 0.8895369
0000c0 d5 4d 75 3f b0 d6 7e 3f 27 49 6e 3f 74 d5 5b 3f
       0.9582189 0.9954634 0.9308037 0.8587258
0000d0 e1 85 6e 3f a4 9a 67 3f 67 1c 65 3f 73 96 73 3f
       0.93173033 0.9047034 0.89496464 0.9515144
0000e0 69 72 67 3f bf fc 73 3f af 54 5b 3f 5d bb 57 3f
       0.9040895 0.95307535 0.8567609 0.8427027
0000f0 4f e9 7e 3f af 70 69 3f 2a ca 64 3f 9a 28 53 3f
       0.9957475 0.91187567 0.8937098 0.8248383

features.11.bias f4 [64]
000000 b7 ba 78 be e8 4f 9e be fe 10 8e 3d 83 9f 33 3c
       -0.24289976 -0.3092034 0.06936835 0.0109633235
000010 a3 1f a2 be 35 33 26 3b 83 18 3b 3d 15 ab 03 be
       -0.31664762 0.0025360112 0.045677673 -0.12858231
000020 a4 f8 a5 be b1 29 f3 bd e3 1a a3 be 7f f1 01 be
       -0.3241626 -0.118731864 -0.3185645 -0.1268978
000030 59 28 d5 3b 60 a2 81 be 0d 49 90 be f5 64 1d be
       0.006505054 -0.25319195 -0.28180733 -0.15370543
000040 c4 cc d5 3c 3a ba b4 3c 0e d6 53 be e7 50 91 be
       0.026098616 0.022061456 -0.20687124 -0.28382036
000050 2e 64 91 3c a4 d7 a7 be 02 8b 28 3d c7 98 1d be
       0.017747965 -0.32781708 0.041148193 -0.15390311
000060 10 6b 83 bb aa 4b 39 3d d7 a8 9b 3d e8 3c 3e 3c
       -0.0040105656 0.045238174 0.07600563 0.011611201
000070 3b f0 3e 3d 40 f6 8a be 8c de 30 3d ac 78 90 be
       0.04661582 -0.27141 0.043180987 -0.28217065
000080 ef 2d 01 be 2f 5e 8c be 1c 1a 96 be 1c ba 91 3d
       -0.12615179 -0.27415606 -0.29316795 0.07115576
000090 4f 15 89 be f6 a8 9d be ba cf 99 3d 4e fe 88 be
       -0.2677407 -0.3079297 0.07510324 -0.2675652
0000a0 25 76 0f 3d d7 a3 c2 3d 8d 07 83 bd f9 3b 4e 3d
       0.03502478 0.09503906 -0.063979246 0.050350163
0000b0 70 d5 9d 3d 82 a5 a5 be 99 cf 72 be b3 33 bc bd
       0.077067256 -0.32352835 -0.23712005 -0.09189548
0000c0 38 a8 74 be 58 90 a7 bc 41 ac 1e 3d 83 d9 8d be
       -0.23892295 -0.02045457 0.038738493 -0.2770501
0000d0 78 3f 60 3d 7b 73 63 be ad 28 90 be 9b e1 75 3d
       0.05474803 -0.22212021 -0.28156033 0.060029607
0000e0 2e d0 8f be f6 64 81 be aa e2 a3 be 22 7b 9f be
       -0.28088516 -0.2527234 -0.32008868 -0.3114863
0000f0 79 b2 76 be 41 96 8b be 9b fb 85 be 6a 59 a1 be
       -0.2409152 -0.27263072 -0.26168522 -0.3151353

features.11.running_mean f4 [64]
000000 d8 52 c2 bd 6c 85 14 be 3f 6a 67 bd e5 81 87 be
       -0.094884574 -0.14504021 -0.05649781 -0.2646629
000010 96 c3 9b be 0b c5 1b 3f e7 12 1d 3e 29 80 be 3e
       -0.30422658 0.6084754 0.15339242 0.37207153
000020 61 a4 7a be 3c dd af 3e d1 67 11 be 08 0f b6 bb
       -0.24476768 0.34348476 -0.14199759 -0.005555991
000030 f6 66 57 3d 84 34 0f be db 59 88 be e7 a4 03 3f
       0.052588426 -0.13984877 -0.26631054 0.51423496
000040 2d 8c 6e be ba d5 85 be 35 45 11 3d 52 16 be 3d
       -0.2329566 -0.26139623 0.03546639 0.09281601
000050 26 65 58 3f a8 f1 01 be f6 f9 a3 3e ba 00 d9 3e
       0.8452934 -0.12689841 0.32026643 0.42383367
000060 a1 5c cb bd fe 39 bf be 7c bb f9 3d eb b4 e2 bd
       -0.09929777 -0.37348932 0.12193963 -0.110696636
000070 64 8f 8a 3f 35 e0 69 be aa 6e 95 3e 30 d5 df bd
       1.0825009 -0.22839434 0.29185992 -0.10929334
000080 d0 9e 31 3e 6e 3c e0 3d 1c 18 55 be 41 b2 0a 3d
       0.17345738 0.10949026 -0.20809978 0.033861402
000090 0a 21 4a be 64 67 da bd 41 e6 a1 3c 56 c2 62 be
       -0.19739166 -0.106642514 0.019763114 -0.22144446
0000a0 86 7e e9 bc 59 09 aa 3e b4 9c a1 3e 38 6e 56 3e
       -0.028502714 0.33210257 0.31564867 0.20940483
0000b0 ab 65 59 be 4a 09 e5 bd 0c b7 1d be ac 90 19 3e
       -0.2123019 -0.111834124 -0.15401858 0.14996594
0000c0 23 15 ce bd 18 8c 8c 3f 20 19 8b bd cd 91 e0 bd
       -0.10062625 1.0980253 -0.067919016 -0.10965309
0000d0 0e f7 fa bd df 1c 3f bd 85 a3 00 be b2 ed bd 3e
       -0.12254153 -0.046658393 -0.12562378 0.3709541
0000e0 1a a0 44 be 5d 6c 1a be 80 00 ad bd f9 3d 55 be
       -0.19201699 -0.150804 -0.08447361 -0.20824422
0000f0 ca ec 99 3f 9a e1 90 bd 72 f2 8f be 6a 31 22 be
       1.2025387 -0.0707428 -0.2811466 -0.15839162

features.11.running_var f4 [64]
000000 9c 14 30 3e 1a ab 4c 3e f9 72 42 3e a1 64 2a 3e
       0.17195362 0.19987145 0.18989171 0.1663995
000010 39 64 3b 3e d7 e5 26 3e 1e d2 50 3e 1f c4 86 3e
       0.1829995 0.16298614 0.20392653 0.26321504
000020 2c 9d 54 3e cd 04 87 3e 04 b2 5d 3e fc 47 8c 3e
       0.20763081 0.2637085 0.21649939 0.2739867
000030 1b 64 36 3e c7 9e 42 3e df 42 40 3e 96 97 a1 3e
       0.17811625 0.19005881 0.1877551 0.31560963
000040 04 fd 21 3e f8 11 3c 3e 1d 7d 52 3e c8 81 3b 3e
       0.15819174 0.1836623 0.2055554 0.18311226
000050 53 12 46 3e f2 75 5c 3e 4b e6 6e 3e b9 c1 82 3e
       0.19342928 0.21529368 0.23330037 0.25538424
000060 85 cc 39 3e 2a 2d 30 3e 9d c0 8c 3e af 29 3f 3e
       0.18144424 0.17204729 0.27490702 0.18668245
000070 ce 28 9e 3e 67 2b 70 3e 90 b0 7d 3e 76 9c 75 3e
       0.30890507 0.23454057 0.24774384 0.23985466
000080 64 05 77 3e 3b d5 59 3e 56 f4 68 3e fb 9e 71 3e
       0.2412315 0.21272747 0.22749457 0.23595802
000090 21 86 52 3e b5 fe 31 3e da ec 37 3e 71 ea 81 3e
       0.20558979 0.1738232 0.17961445 0.25374177
0000a0 2e 0b 3d 3e 0b 15 5b 3e 7a 42 95 3e 8e e0 69 3e
       0.18461296 0.21394746 0.2915228 0.22839567
0000b0 8c fd 44 3e b9 99 41 3e 4b f3 4e 3e a0 1d 42 3e
       0.19237345 0.18906297 0.20209996 0.18956614
0000c0 3c 1a 67 3e c1 fb 8c 3e 6c 4d 53 3e c6 c0 3e 3e
       0.22568601 0.27535823 0.20635003 0.18628225
0000d0 2b e8 4d 3e f9 9d 3c 3e f0 9f 68 3e 1b 3a 53 3e
       0.20108096 0.18419637 0.22717261 0.20627634
0000e0 e8 37 56 3e 00 f1 48 3e b5 88 58 3e b8 d3 6b 3e
       0.20919764 0.19623184 0.211459 0.23029983
0000f0 65 90 94 3e 5e 91 30 3e c6 5a 52 3e 8d 4d 74 3e
       0.29016414 0.17242953 0.2054244 0.23857708

embedding_layer.0.weight f4 [16, 64]
000000 9f 4f 15 3e 7d c7 c4 bc 81 48 53 bb e7 d6 15 be
       0.14581154 -0.024020905 -0.003223926 -0.1463276
000010 86 6b c4 3a 49 fa 0b be 1c be a3 bd 1c ba 41 be
       0.0014985658 -0.13669695 -0.07995245 -0.18918651
000020 fb 11 1f 3e 00 3c f5 bd 53 ee 32 bd 87 4c 52 be
       0.15534203 -0.11974335 -0.043684315 -0.20537005
000030 8c f8 b1 bd 1d 40 87 3d 5c 4a 00 3e dd fe f3 bd
       -0.08689985 0.066040255 0.12528366 -0.11913846
000040 59 27 11 be 7d 4c ed bc 97 e3 02 3d 9f 1a bf 3d
       -0.14175166 -0.028967137 0.031955328 0.093312494
000050 e6 5f 59 be ac 7d 5b 3e 36 a1 97 bd 44 3c 45 be
       -0.21227989 0.21434659 -0.074037954 -0.19261271
000060 67 64 74 3c 1a 45 a0 3c d0 11 9b bb 5f 35 1d bd
       0.014916516 0.0195642 -0.004732348 -0.038380977
000070 bf e5 59 be ff cd 8a bd 20 1f e4 bd fa 95 45 3d
       -0.21279047 -0.06777572 -0.11138749 0.048238732
000080 5f 1a 80 be 53 8e 8c 3d 6b 9a 80 3b 1e b8 2d bc
       -0.2502012 0.06863084 0.003924658 -0.010602979
000090 16 7d c4 3c 67 e6 3f 3e 91 7e c5 bd ee fc e6 3d
       0.023985427 0.18740235 -0.09643281 0.11278711
0000a0 65 eb aa bd ae 0f 0a bd 70 8f c1 bd 47 91 0a bd
       -0.08345679 -0.03370636 -0.09451187 -0.033829954
0000b0 74 b5 96 bd db 6d 54 3e a1 7b 2b 3e fc b7 32 be
       -0.07358828 0.20745032 0.1674638 -0.17452997
0000c0 04 de 11 3e 43 9f 85 be 8a 16 29 3c f1 ea 27 3e
       0.14244848 -0.2609807 0.010320315 0.16398217
0000d0 70 e2 c5 bd df 5e 7d bc bf d9 57 3c 45 95 93 bd
       -0.0966233 -0.015464514 0.013174473 -0.07206205
0000e0 3d 2a 09 3d 3b f7 8d bc a7 08 b3 3d 34 4d e6 3d
       0.033487547 -0.017329803 0.08741885 0.11245194
0000f0 cd 96 8c be a9 da eb 3d e7 aa 66 3b 63 f9 b7 3d
       -0.27458802 0.115163155 0.003519708 0.089831136
000100 4a 5a 0e 3e 73 34 89 3d 5f aa 22 bd 9d 5e 0f 3d
       0.1390163 0.06699457 -0.03971326 0.03500234
000110 98 d5 7b 3d fd b9 77 bd 3a 78 90 3d 7b 35 38 be
       0.061482996 -0.060480107 0.070541814 -0.17989151
000120 f9 ff 2a 3e 1a 92 8e bd 2f 73 22 bb 06 41 20 be
       0.16699208 -0.069614604 -0.0024787893 -0.15649804
000130 a1 65 21 3c 31 dd 2f 3e 51 4f ff 3d 61 a2 40 be
       0.00985089 0.17174222 0.124663 -0.18811943
000140 91 cb 95 bd ab 5e 06 3c 5b c1 19 3e 80 0e 10 3e
       -0.07314218 0.008201282 0.15015166 0.14068031
000150 27 e2 cf bd a3 fc 44 3e 50 ec 14 bd 42 53 0f be
       -0.10150557 0.19236998 -0.036358178 -0.13996604
000160 d2 41 05 bd 81 51 9b 3b d5 c0 e3 3c ac ef f7 bd
       -0.032533474 0.0047399406 0.02780191 -0.12106261
000170 40 a1 68 bd 52 bd 06 3e b2 ba 5d 3d 9b b2 3b 3e
       -0.056794405 0.13158157 0.054133125 0.18329851
000180 2f ec 28 be 50 33 23 bc 93 cb 42 3e c3 69 2b bd
       -0.16496347 -0.009960964 0.1902297 -0.04184891
000190 71 c3 27 3e bf 9c fa 3d 67 24 7b bd 6b 82 1d 3e
       0.16383149 0.12236928 -0.061314013 0.15381782
0001a0 4b c3 96 bd 17 af 50 bd ab 35 02 be ff 61 6e 3d
       -0.07361468 -0.05094823 -0.12715785 0.058198925
0001b0 57 ef 3f 3d f2 1f 29 3e 22 9d 19 3d 03 39 3c be
       0.04685911 0.16516092 0.03750337 -0.18381123
0001c0 5d fb 47 3e 4f 8a 9e bd df b7 99 3d 60 17 a1 3d
       0.19529481 -0.07741224 0.07505774 0.078657866
0001d0 56 d7 a9 3c bf bc f6 3d f3 75 21 3e 6f ea 92 bd
       0.020732563 0.12047719 0.1576765 -0.07173621
0001e0 78 21 93 3d 00 31 8a 3d e7 d0 4c 3e f9 6d eb 3d
       0.07184118 0.06747627 0.20001565 0.11495585
0001f0 3a 3d e6 bd 23 35 29 3e ba be 74 3e 31 fe 0e 3e
       -0.11242147 0.16524176 0.23900881 0.13964154
000200 90 f0 19 be 76 a6 22 be d7 d4 e8 3d f5 74 03 3e
       -0.15033174 -0.15883812 0.11368721 0.12837584
000210 b0 90 03 be ed 36 6f 3c 5c 1d 97 3d 29 64 38 be
       -0.12848163 0.014600498 0.07378647 -0.18006958
000220 83 b9 d4 bd cb ed 4b be da 05 e2 bd c4 e3 44 be
       -0.10386946 -0.1991493 -0.11036272 -0.1922751
000230 f9 bc 0d 3e f6 52 6e be 1a 7b 1c be f8 00 eb bd
       0.13841619 -0.23273835 -0.15281335 -0.11474794
000240 c4 f6 bf bc 12 89 d3 3d 59 56 0c be 6e 29 99 be
       -0.023433097 0.103288785 -0.13704814 -0.2991442
000250 1a 76 a8 3d a2 57 08 bd 60 1f 37 3e ce 51 59 be
       0.08225651 -0.0332867 0.17883062 -0.21222612
000260 36 42 df 3d 2a 80 c3 bc 0a 3d 77 3e c1 92 ac 3d
       0.109013006 -0.023864824 0.24144378 0.084264286
000270 6c 18 e9 3d 72 c0 d8 bb cd 0d 43 3e 74 25 a6 bd
       0.11381611 -0.006614738 0.19048233 -0.08112612
000280 11 36 06 be f2 0e 48 be 2b da be bd f0 67 06 3e
       -0.13106562 -0.19536951 -0.09318956 0.13125587
000290 92 c7 39 be 38 41 9b be 31 f6 2f 3e 49 aa ae bd
       -0.18142536 -0.30323195 0.17183758 -0.08528573
0002a0 4a a6 da 3c 83 48 d2 3d 69 cb 92 be 90 3b bd 3d
       0.02669062 0.10267737 -0.28670815 0.09239876
0002b0 7f 88 26 3e 64 b3 66 be ac a9 66 be 68 67 b7 bd
       0.16263007 -0.2252937 -0.22525662 -0.0895527
0002c0 2d 48 64 be 41 af db 3d 18 64 27 3e 54 bb 08 be
       -0.22293158 0.107267864 0.16346776 -0.1335271
0002d0 9e 34 c1 3c 78 19 a3 be d1 1b 39 be 4f 89 bd 3d
       0.02358466 -0.3185537 -0.18077017 0.09254705
0002e0 46 65 5b be 0c 8e 71 be 61 e9 f5 bd bb 72 17 be
       -0.21425352 -0.23589343 -0.12007404 -0.1478986
0002f0 88 02 ea 3a e7 a4 7e be f7 35 3a be d9 5e 21 be
       0.0017853538 -0.24867593 -0.18184648 -0.15758838
000300 26 b3 af 3c 64 38 0d be 21 3d 32 3d c4 26 cf 3d
       0.02144773 -0.13791043 0.04351533 0.10114816
000310 f2 f8 ae bd 89 ea d2 3b 41 b4 0e 3e d9 b6 7d 3d
       -0.08543576 0.00643665 0.13935949 0.061941955
000320 7b 1f 27 bb 6d f2 af 3d c6 26 02 be b0 70 d2 bc
       -0.0025500942 0.08591161 -0.12710103 -0.0256885
000330 67 d4 12 3e 8e 2e 3f bd 00 bc b4 bc 61 4c c6 bc
       0.14338838 -0.046675257 -0.022062302 -0.024206342
000340 fe f4 1b 3e f7 d1 fd 3d d4 4e 91 bd d5 22 04 be
       0.15230176 0.12393563 -0.070951134 -0.12903912
000350 b1 97 41 3b b1 31 ca bd 1a a0 b8 3a ee e0 c4 3d
       0.0029539878 -0.09872759 0.00140858 0.096132144
000360 ec 61 2a 3e 43 a7 26 3e 3c 5e 66 3d 55 00 16 3e
       0.16638917 0.16274743 0.056242213 0.14648564
000370 12 c7 82 3c 6d 86 cc bd 4a 48 df 3d 72 b1 91 bd
       0.015964065 -0.09986577 0.1090246 -0.07113923
000380 d6 68 e8 bb 4d fa 03 be b0 35 a5 bd fa b4 92 3d
       -0.0070925755 -0.12888451 -0.08066881 0.07163425
000390 08 8a 58 3c 9c 48 28 bd 8e 93 3a 3e 09 ee 7f bd
       0.013216503 -0.04108487 0.1822035 -0.062482867
0003a0 3a 75 24 3e 6e 45 07 3e f6 48 d5 3c bd 1c 9b 3d
       0.16060343 0.13210079 0.026035767 0.07573841
0003b0 01 ad 01 3e 10 65 e8 bd 60 9a 85 bd 9e d0 81 3d
       0.12663652 -0.11347401 -0.06523585 0.06338619
0003c0 fb f2 fa 3b 97 dd ef bc 38 4e e3 3d a6 74 c5 bd
       0.00765836 -0.029280467 0.110989034 -0.096413895
0003d0 0e 7f 08 3e 5d 67 2e 3d a9 2b f0 bc 35 9a 99 3d
       0.13329718 0.042579044 -0.029317694 0.07500116
0003e0 18 af dd bd 85 10 a8 3a c7 90 9f bd 7a 93 c6 bd
       -0.10824412 0.0012822306 -0.07791286 -0.09696098
0003f0 6a d8 db bd 91 7e 1b be 9d b2 10 bd 74 a2 93 bd
       -0.10734637 -0.15185 -0.03532659 -0.0720872

embedding_layer.0.bias f4 [16]
000000 7a 9f 1f 3e c9 7f ec 3b 52 36 d2 3c ba 56 ba 3e
       0.15588179 0.0072173816 0.025660668 0.36394292
000010 f3 0f f1 3d ad 6e da 3d f5 22 29 3e 5e b3 51 3e
       0.1177062 0.10665641 0.16517241 0.2047858
000020 b5 d5 b1 3e 5f 5c c4 3e f3 ac 6e 3e a0 2e 37 3e
       0.34733358 0.38351724 0.23308162 0.1788888
000030 7e 4a 4f 3e 8f fd 18 3e 33 b0 4f 3d 79 66 b0 3d
       0.2024326 0.14940475 0.050705146 0.08613295

classifier.weight f4 [2, 16]
000000 78 76 a3 be a6 1d 6d be 18 9a bf 3e 54 9b 92 3e
       -0.31926322 -0.23155841 0.37422252 0.2863413
000010 41 2e 0d be 1c c0 8b 3c 42 d3 33 be 47 6a c9 3e
       -0.13787176 0.017059378 -0.17561057 0.39338896
000020 2e 4c 7e 3e 2e 3b 83 3e ae 1e f8 3d 2d fe 22 3e
       0.24833748 0.25631088 0.12115227 0.15917273
000030 67 78 9e 3e 3e 23 c7 be 45 93 93 be 79 5e 8f be
       0.30951235 -0.38894075 -0.28823295 -0.28001764
000040 7e f6 c9 3d d4 4c 51 3e e8 9c a3 be 40 a6 a9 be
       0.09861468 0.20439464 -0.31955647 -0.3313465
000050 95 44 a4 3e e8 6f b1 3e 3b f6 7d 3e 07 32 d8 be
       0.32083574 0.3465569 0.2480096 -0.42225668
000060 f1 65 d3 3c 03 d9 61 bd 63 4d 70 bd 3d 52 fb be
       0.025805445 -0.0551386 -0.05866755 -0.4908618
000070 a3 8c bb 3d 42 41 ea 3d 01 b8 30 bd ba 39 a2 3e
       0.09157684 0.11438228 -0.04314423 0.31684667

classifier.bias f4 [2]
000000 3c 59 3f 3e 11 d9 15 bd
       0.18686384 -0.036583964
