o02_test/run_outputs/64Bcnn_train_weights.pth (torch, 48171 bytes, 22 tensors)

features.0.weight f4 [16, 6, 5]
0	0x3fd7c760	1.685772
1	0x3f880f39	1.0629646
2	0x3ea5428d	0.32277337
3	0xbec078d7	-0.37592193
4	0xbfa2cb1c	-1.2718234
5	0xbf07c1fb	-0.53030366
6	0xbf4c35a6	-0.7976936
7	0xbf013b22	-0.50480855
8	0xbe28dee0	-0.1649127
9	0xbf2c4d91	-0.67305857
10	0x3f63493a	0.8878361
11	0x3ebf632f	0.3738036
12	0x3e412527	0.18861829
13	0xbe2fb809	-0.17160048
14	0xbeb9d595	-0.36295763
15	0xbd7539e8	-0.059869677
16	0x3caa9a55	0.020825544
17	0x3bd2c671	0.0064323475
18	0x3d3c8199	0.04602203
19	0x3dfcf229	0.12350876
20	0xbd8a837b	-0.06763359
21	0x3ce17152	0.027519856
22	0xbd970933	-0.073748015
23	0x3db6637a	0.089056924
24	0x3c84073d	0.016116733
25	0xbea65a49	-0.32490757
26	0xbdab702f	-0.08371007
27	0xbe0147bd	-0.12625022
28	0xbde38665	-0.11109618
29	0xbecfb092	-0.405644
30	0xc05245b3	-3.285504
31	0xc0601c58	-3.50173
32	0xc0106f0a	-2.2567773
33	0xbfae3576	-1.3610065
34	0xbe2eed38	-0.1708268
35	0x3ec423a7	0.3830845
36	0xbe1cf408	-0.15327466
37	0xbd81f682	-0.06345846
38	0xbed03fe1	-0.40673736
39	0xbe048fb2	-0.1294544
40	0xbe0b7782	-0.13619807
41	0xbe38cb88	-0.18046391
42	0xbcf7244f	-0.03016868
43	0x3f323c95	0.6962369
44	0x3f88022a	1.062566
45	0xbd0ccd6c	-0.034375593
46	0x3dcbb2ec	0.09946236
47	0xbdc3369d	-0.09531901
48	0x3ce51b58	0.02796714
49	0x3d356801	0.04428864
50	0xbdebe8a7	-0.11518984
51	0xbd843607	-0.064556174
52	0x39d96e5a	0.00041471684
53	0x3e640ad6	0.22269759
54	0xbda49459	-0.080361076
55	0xbcdc0ca9	-0.026861506
56	0x3c872ab7	0.01649986
57	0xbd392b16	-0.045207106
58	0x3e012940	0.12613392
59	0xbe2d51d1	-0.16925742
60	0xbfb62ee9	-1.4233066
61	0xbfd54a86	-1.6663368
62	0xbfa4c7c6	-1.2873466
63	0xbf2ee03a	-0.6831089
64	0xbc198282	-0.009369494
65	0x3f7a513c	0.97780204
66	0x3f83ec45	1.0306479
67	0x3e25e9ed	0.16202517
68	0x3e9bed63	0.3045455
69	0x3e2c3bc1	0.1681967
70	0xbe61b206	-0.22040567
71	0xbf465dbe	-0.7748679
72	0xbf6b43e6	-0.9190048
73	0xbf6a1c54	-0.91449475
74	0xbef3e161	-0.47632888
75	0xbd0accb3	-0.033886623
76	0xbc9e932e	-0.01935729
77	0x3d2e0c85	0.04249241
78	0xbd9b4899	-0.07582206
79	0x3de4b1ac	0.11166701
80	0xbe4f559a	-0.20247498
81	0xbe32f887	-0.17477618
82	0x3da7bfcf	0.081908815
83	0xbe02f3c9	-0.12788309
84	0xbbd61e89	-0.006534402
85	0xbe20fc92	-0.15721348
86	0x3dc7891d	0.09742949
87	0xbcf363a0	-0.02971059
88	0x3d02ddef	0.031949934
89	0x3e5e1f7e	0.21691701
90	0x4031e4ad	2.7795823
91	0x40184531	2.379223
92	0x3fce5a13	1.6121238
93	0x3f392e3f	0.7233619
94	0x3e9f1f5e	0.3107862
95	0xbf371ddd	-0.7152994
96	0xbe620812	-0.22073391
97	0x3c2ee0d5	0.010673721
98	0x3eb70044	0.3574239
99	0x3ef77c4a	0.48337013
100	0x3f4dfec3	0.8046686
101	0x3f3c0380	0.7344284
102	0x3e8ac140	0.27100563
103	0xbec1646b	-0.37771925
104	0xbf70a82a	-0.940066
105	0x3d26458b	0.040593665
106	0xbd3eae37	-0.046552863
107	0x3d194785	0.037421722
108	0xbd584ab9	-0.052805636
109	0xbe0cc5f9	-0.13747396
110	0x3d819f55	0.06329218
111	0xbde5f8b6	-0.112290785
112	0xbd9824bb	-0.07428881
113	0xbe239d2a	-0.15977922
114	0xbd9514a1	-0.07279325
115	0xbdb2a743	-0.08723309
116	0xbbf3568d	-0.007426089
117	0xbe6c83d3	-0.23097162
118	0xbe4be21c	-0.19910473
119	0xbe1a7327	-0.1508299
120	0x3dc16ebc	0.09444949
121	0x3ec7a173	0.38990363
122	0x3f6bfb51	0.92180353
123	0x3f52731f	0.8220691
124	0x3f88ca9a	1.0686829
125	0x3f76424f	0.9619493
126	0x3f30ee8f	0.6911401
127	0x3ed72574	0.42020762
128	0x3eb35605	0.35026565
129	0x3e9371ba	0.28797704
130	0x3ec09389	0.3761256
131	0x3ead952c	0.33902872
132	0x3dbab82e	0.09117161
133	0x3ea299df	0.3175802
134	0x3ccb4723	0.024814194
135	0xbe551a2c	-0.20810765
136	0xbd6f455b	-0.058415752
137	0xbe280b6e	-0.1641061
138	0xbd079702	-0.033102997
139	0xbdd48fdb	-0.10379001
140	0xbd967960	-0.07347369
141	0xbdf49b98	-0.1194374
142	0x3de8a900	0.11360359
143	0xbde822d6	-0.113347694
144	0xbdf9ab23	-0.12190845
145	0xbd44bc2f	-0.04803103
146	0x3c070f3c	0.008243378
147	0x3dbb45bb	0.091441594
148	0x3e592b33	0.21207885
149	0x3d6a11d3	0.057145905
150	0x3f1ae8ce	0.6051148
151	0x3f3d33fc	0.73907447
152	0x3e2ffe9b	0.17186968
153	0xbe9ae540	-0.3025303
154	0xbd3327af	-0.043739017
155	0x3e883216	0.26600713
156	0xbee3fd43	-0.4452916
157	0xbf7a9b73	-0.97893447
158	0xbeb0df00	-0.34545135
159	0xbbab4bda	-0.005227548
160	0xbf9b9aae	-1.215658
161	0xbf87d0ad	-1.0610558
162	0xbeaee078	-0.3415563
163	0xbedc906b	-0.43078932
164	0xbf5ac259	-0.854528
165	0x3d444fd4	0.047927693
166	0xbdb4403c	-0.08801314
167	0x3d518c67	0.05115929
168	0x3d588a9e	0.05286657
169	0xbd3bb2a5	-0.045824666
170	0xbdfd2787	-0.12361055
171	0x3e1dd68a	0.15413871
172	0x3e32594c	0.17416877
173	0xbdb11c58	-0.08647984
174	0xbdc69793	-0.09696879
175	0xbe13a632	-0.14418867
176	0xbdc2339a	-0.094824985
177	0x3e13ec23	0.14445548
178	0x3e38015f	0.17969273
179	0xbe339daf	-0.1754062
180	0x400a76b2	2.1634946
181	0x3fb14c2a	1.3851368
182	0x3eba43b0	0.36379766
183	0xbf27670b	-0.65391606
184	0xbf8fd67d	-1.1237332
185	0xbf43b1e4	-0.76443315
186	0xbf6ee839	-0.93323094
187	0xbf53cd27	-0.8273491
188	0xbf5e06db	-0.8672921
189	0xbf6604b1	-0.8985091
190	0x3f812367	1.0088929
191	0x3f3f8d0c	0.74824595
192	0x3e9e9d0e	0.30979198
193	0xbd772e8c	-0.060347125
194	0xbed04944	-0.40680897
195	0xbd892c9d	-0.066979624
196	0xba9a228b	-0.0011759562
197	0x3ca2cd3b	0.019873252
198	0x3d74935a	0.059710838
199	0x3dbb2523	0.09137943
200	0xbd581260	-0.0527519
201	0xbd643c08	-0.055721313
202	0x3c489bd2	0.012244182
203	0x3d2f1338	0.042742938
204	0x3d828f6d	0.063750125
205	0xbe8d4e26	-0.27598685
206	0xbdba80b5	-0.0910658
207	0xbdd52dfa	-0.1040916
208	0xbdd29f4a	-0.10284288
209	0xbe619a11	-0.22031428
210	0x3fb99741	1.4499284
211	0x3f15721c	0.5837724
212	0xbf058dd1	-0.5216952
213	0xbf9f6ac6	-1.245446
214	0xbff02a42	-1.8762896
215	0x4001abeb	2.026118
216	0x3fccc4f9	1.5997611
217	0x3f4417ea	0.7659899
218	0x3f0f4bbf	0.55974954
219	0x3ea919e9	0.3302758
220	0xbfae8b85	-1.3636328
221	0xbfab9940	-1.3406143
222	0xbfa143d7	-1.2598828
223	0xbf5ce006	-0.8627933
224	0xbf314479	-0.69245106
225	0x3e0b8844	0.136262
226	0x3d843570	0.06455505
227	0x3ce58384	0.028016813
228	0xbd91d8ab	-0.07121404
229	0xbe05c741	-0.1306429
230	0xbe8e69f4	-0.2781521
231	0x3dde0d5f	0.10842394
232	0x3e0289d2	0.12747887
233	0x3dbd2c19	0.092369266
234	0x3db6140b	0.08890542
235	0x3e3b1481	0.1826954
236	0x3c9fee3a	0.019522775
237	0xbdc58314	-0.09644142
238	0xbcf5b2ff	-0.029992579
239	0xbc0fe98b	-0.008783708
240	0x3decb10d	0.11557207
241	0x3f9113e9	1.1334201
242	0x3fddb416	1.7320583
243	0x3fddedcc	1.7338195
244	0x40034fc3	2.0517433
245	0xbfb2d6bc	-1.3971782
246	0xbff66277	-1.9248799
247	0xbf815805	-1.0104986
248	0xbf8283b8	-1.0196447
249	0xbf26e960	-0.6519985
250	0x3fa63e24	1.2987714
251	0x3fb02082	1.3759921
252	0x3f8caaa6	1.0989578
253	0x3f3967de	0.72424114
254	0x3f17ef52	0.5934955
255	0xbd742dac	-0.05961387

features.0.bias f4 [16]
0	0x3dbc67d6	0.09199493
1	0xbd5d37aa	-0.054008164
2	0xbc7fe671	-0.015618906
3	0x3c3090bc	0.010776695
4	0xbdc1bd3c	-0.09459922
5	0x3cfd4a4d	0.030919218
6	0x3dc84bc4	0.09780076
7	0xbd6b5361	-0.057452563
8	0x3e0d68dd	0.13809533
9	0x3dd838bf	0.105576985
10	0x3e151a53	0.14560823
11	0x3d84addc	0.064784735
12	0x3dce6377	0.10077565
13	0xbc86ecff	-0.01647043
14	0x3d133b8c	0.03594546
15	0x3ccca91c	0.024982981

features.1.weight f4 [16]
0	0x3f62e059	0.8862358
1	0x3f71502c	0.9426296
2	0x3f43e832	0.76526177
3	0x3f578f7f	0.8420333
4	0x3f38fec7	0.7226376
5	0x3f6a7a91	0.9159327
6	0x3f645d94	0.8920529
7	0x3f5283c7	0.82232326
8	0x3f4f6069	0.81006485
9	0x3f5c1b53	0.85979193
10	0x3f62c167	0.8857636
11	0x3f4f9d1e	0.81099117
12	0x3f60b31b	0.87773293
13	0x3f5c1df1	0.85983187
14	0x3f5c475a	0.86046374
15	0x3f4724a4	0.77790284

features.1.bias f4 [16]
0	0xbdb43ed1	-0.08801044
1	0xbed0b9ea	-0.4076684
2	0xbc102cc2	-0.008799734
3	0xbc7a245e	-0.01526746
4	0x3a8ab26d	0.001058174
5	0xbe9d08c6	-0.30670756
6	0xbd97da7e	-0.07414721
7	0xbcad3c2a	-0.021146853
8	0xbca60dd1	-0.02027026
9	0xbb6d14b8	-0.003617568
10	0xbd848916	-0.064714596
11	0xbd9bbe67	-0.07604676
12	0xbdb30e89	-0.08743007
13	0xbebbbc14	-0.3666693
14	0xbbad7232	-0.005293154
15	0xbc91c6b3	-0.017794942

features.1.running_mean f4 [16]
0	0x3e1b091a	0.1514019
1	0xbd4283bf	-0.047488924
2	0xbcbf3e0d	-0.023345018
3	0x3d46334c	0.048388764
4	0xbdf45fe7	-0.119323544
5	0x3d0a5071	0.03376812
6	0x3e11b973	0.142309
7	0xbd6de54d	-0.058080006
8	0x3e0b21ef	0.13587163
9	0x3db8fe09	0.09032828
10	0x3e511ec6	0.20421895
11	0x3d3f4e57	0.04670557
12	0x3de5717b	0.11203285
13	0xbc2d79c6	-0.010588115
14	0xbb160cc8	-0.0022895802
15	0x3d4b861c	0.049688444

features.1.running_var f4 [16]
0	0x44b4fed2	1447.9631
1	0x41cf9b0a	25.950703
2	0x43251049	165.06361
3	0x4446c816	795.12634
4	0x447883ef	994.06146
5	0x41a27796	20.308392
6	0x44542f04	848.7346
7	0x43191f92	153.12332
8	0x4254cb48	53.198517
9	0x44aa4f29	1362.4738
10	0x44b1816d	1420.0446
11	0x43d4e4b6	425.7868
12	0x43009a81	128.60353
13	0x42e5a00d	114.8126
14	0x444af7af	811.87006
15	0x44177eb2	605.9796

features.5.weight f4 [32, 16, 3]
0	0x3d79e58c	0.06100993
1	0x3e0399c1	0.12851621
2	0x3d1f25df	0.038854476
3	0xbe0d73ca	-0.13813701
4	0xbe34b76f	-0.176481
5	0xbe24dc46	-0.16099653
6	0x3dce075e	0.10059999
7	0x3d862ca4	0.06551483
8	0x3e3650f9	0.17804326
9	0x3d17064a	0.036871232
10	0xbd87e493	-0.06635394
11	0x3af1bf24	0.0018443805
12	0xbd735d24	-0.059414998
13	0xbdabf0ea	-0.0839556
14	0xb907b4ed	-0.00012942003
15	0xbe5fe4b1	-0.21864583
16	0xbe45196d	-0.1924798
17	0xbe502ab8	-0.20328796
18	0xbcef55d5	-0.029215733
19	0xbdfd3cd2	-0.12365116
20	0x3dbfe46d	0.09369741
21	0x399f8c6a	0.0003043146
22	0x3d898ba5	0.06716088
23	0xbd0513a4	-0.032489434
24	0xbe2f11a5	-0.17096575
25	0xbd15d5e5	-0.03658094
26	0xbd9566ce	-0.07294999
27	0x3ddc2aa2	0.10750319
28	0x3dcd2f78	0.100188196
29	0xbdc89c09	-0.09795386
30	0x3d95a835	0.073074736
31	0x3a441eba	0.0007481385
32	0x3d305481	0.04304934
33	0xbc9a48b6	-0.0188335
34	0x3d05f5cd	0.032705117
35	0x3d0d08fe	0.034432404
36	0xbc066e4e	-0.00820501
37	0xbd0a1211	-0.033708636
38	0xbd318b3d	-0.04334568
39	0xbe620488	-0.22072041
40	0xbe66122b	-0.22467868
41	0xbe3928e6	-0.18082008
42	0xbdbf1fd7	-0.09332245
43	0x3e5ff7d9	0.2187189
44	0x3bfbb6cb	0.0076817027
45	0x3d8ccaab	0.06874593
46	0x3d0fd848	0.03511837
47	0x3d3e9171	0.046525422
48	0xbdbb468f	-0.09144317
49	0xbe57eb6c	-0.210859
50	0xbe1dbd2e	-0.15404198
51	0x3e2e8a67	0.17044984
52	0x3e91246b	0.28348097
53	0xbc9afcf1	-0.01891944
54	0x3d95b328	0.07309562
55	0x3d09e1ec	0.03366272
56	0xbd71fecd	-0.059080888
57	0x3dc94b4e	0.09828816
58	0x3c34a8ce	0.011026574
59	0xbd325507	-0.04353812
60	0x3d7db3df	0.061939117
61	0x3b4db22c	0.0031386716
62	0xbd038c85	-0.03211643
63	0x3e09b83d	0.13449188
64	0x3cee0c48	0.02905859
65	0x3d9c901b	0.076446734
66	0xbdb8833b	-0.09009405
67	0xbe8090e5	-0.25110546
68	0xbe3bb709	-0.18331541
69	0xbe9424c2	-0.28934294
70	0xbe225ad8	-0.15854967
71	0xbd9b1e5b	-0.07574149
72	0xbd91b157	-0.07113903
73	0xbe2c1099	-0.16803207
74	0xbe163a97	-0.14670788
75	0x3cba6949	0.022755282
76	0x3b321b26	0.0027176826
77	0x3cc6363e	0.024195787
78	0xbdab0234	-0.083500296
79	0xbe4311af	-0.19049715
80	0xbe3811a3	-0.17975478
81	0xbd487755	-0.04894193
82	0xbdeb6e1d	-0.11495612
83	0xbd2f19ac	-0.042749092
84	0x3ca0f069	0.019645886
85	0xbe185e57	-0.14879738
86	0xbcbf59f0	-0.023358315
87	0x3d160994	0.03663023
88	0xbc339d38	-0.010962777
89	0x3d9524e1	0.07282425
90	0xbe1353d4	-0.14387447
91	0xbcc94560	-0.024569213
92	0x3e05c8d8	0.13064897
93	0xbd52565b	-0.051351886
94	0xbde24151	-0.11047614
95	0x3d4ad620	0.04952061
96	0x3c80e31d	0.015733296
97	0x3bcb61ac	0.0062067118
98	0xbd6c8811	-0.05774695
99	0xbd2f576d	-0.042807985
100	0x3cdb4ce3	0.02677006
101	0x3da7378f	0.08164894
102	0xbdbd4396	-0.092414066
103	0xbe13768d	-0.14400692
104	0xbe490ce3	-0.19633822
105	0x3c5d80dd	0.013519493
106	0xbe4a28d1	-0.19742133
107	0xbe5f236f	-0.2179086
108	0xbe8d9dee	-0.27659553
109	0xbec2978c	-0.38006246
110	0xbe987100	-0.29773712
111	0x3db0ce9c	0.086331576
112	0x3de01c61	0.10942913
113	0x3dc2042b	0.09473451
114	0x3e174c90	0.147753
115	0xbceed6bf	-0.029155133
116	0xbd1e6063	-0.03866614
117	0x3d1c8805	0.038215656
118	0x3cc5521c	0.024087004
119	0x3d0d1a1d	0.03444873
120	0x3dafd938	0.08586353
121	0xbd6da4ca	-0.058018483
122	0x3ceb25aa	0.028704483
123	0xbd5e9e15	-0.054349978
124	0xbe3176e7	-0.17330514
125	0xbe341672	-0.17586687
126	0xbd873ec7	-0.06603771
127	0xbd00f7e4	-0.031486407
128	0xbc121a24	-0.008917365
129	0xbe42fcaa	-0.19041696
130	0xbdd5439c	-0.10413286
131	0xbd31febb	-0.04345582
132	0xbe2e79f5	-0.1703871
133	0xbe440686	-0.19143113
134	0xbe114b6d	-0.14188929
135	0x3db180d4	0.0866715
136	0x3d9073e8	0.07053357
137	0x3c9bdd58	0.019026443
138	0xbe45ce90	-0.19317079
139	0xbe12fa70	-0.14353347
140	0xbe283b0c	-0.16428775
141	0xbc488af7	-0.012240163
142	0xbdfdf6ab	-0.12400564
143	0xbd6b2c1f	-0.057415124
144	0x3b243f3d	0.0025062107
145	0xbe58bc6f	-0.21165632
146	0xbe2772a0	-0.1635232
147	0x3e434226	0.19068202
148	0x3bb4c726	0.0055169044
149	0xbcff8010	-0.031188995
150	0x3e09eb8b	0.13468759
151	0xbce13131	-0.027489277
152	0xbd53d6ee	-0.051718645
153	0x3bff177d	0.0077847824
154	0x3dc21fc2	0.094787136
155	0xbd5f5668	-0.054525763
156	0x3d61649b	0.055027585
157	0xbcb5b01c	-0.022178702
158	0xbc710120	-0.014709741
159	0x3d474229	0.04864708
160	0xbc8b2bc8	-0.01698865
161	0xbe31c586	-0.17360505
162	0x3cc3d72c	0.023906313
163	0xbdc21d87	-0.09478288
164	0xbe83da1f	-0.2575235
165	0xbe41eee7	-0.1893879
166	0xbd8e44e6	-0.06946735
167	0x3d14b608	0.03630641
168	0xbe349568	-0.17635119
169	0xbe82b95c	-0.25532043
170	0xbe59ed97	-0.2128204
171	0xbd90b9fd	-0.070667244
172	0xbbd686c0	-0.006546825
173	0xbe2396ea	-0.15975538
174	0xbd51136a	-0.051043905
175	0xbc0ce38e	-0.008599175
176	0xbd11eda6	-0.03562703
177	0xbe5477ee	-0.20748875
178	0xbe2cc1d1	-0.1687081
179	0x3de860fd	0.11346624
180	0xbdddd091	-0.108307965
181	0xbd83d0a3	-0.06436279
182	0xbb783e31	-0.0037878866
183	0xbaaaab26	-0.0013020977
184	0x3e13d7e2	0.14437822
185	0x3d89c3e7	0.067268185
186	0xbe4d0f57	-0.20025383
187	0x3b378bcd	0.0028006912
188	0x3de6c612	0.11268248
189	0xbdb66ded	-0.089076854
190	0xbe11414e	-0.14185068
191	0xbbbec9fa	-0.0058224173
192	0xbe192a0c	-0.14957446
193	0xbe00703e	-0.12542817
194	0xbdaca138	-0.084291875
195	0x3e985bec	0.2975763
196	0xbcc0da3c	-0.023541562
197	0x3e0d71a3	0.1381288
198	0x3ce07510	0.02739957
199	0x3c937884	0.018001802
200	0xbd4e5861	-0.050377253
201	0x3ca05430	0.019571394
202	0xbe372a39	-0.178872
203	0x3d3989a4	0.04529728
204	0x3c8b7f36	0.017028432
205	0xbdda5299	-0.106602855
206	0xbdbb265d	-0.091381766
207	0xbdfc3081	-0.12313939
208	0x3b85ab9a	0.0040792944
209	0xbe1cd673	-0.15316181
210	0xbcee7307	-0.029107584
211	0xbdb7aee2	-0.08968903
212	0xbe02c3a5	-0.12769945
213	0xbb846779	-0.004040655
214	0xbcc5d43e	-0.024149057
215	0x3ca2d12d	0.019875133
216	0xbdef832f	-0.11694943
217	0xbe019420	-0.12654161
218	0xbd628515	-0.0553027
219	0x3df32a8d	0.1187335
220	0x3cde408d	0.02713039
221	0xbcf5dcb2	-0.030012462
222	0xbdabb483	-0.08384039
223	0xbe015eb0	-0.12633777
224	0xbda89954	-0.0823237
225	0x3ddc8daa	0.10769208
226	0x3ddc7648	0.10764748
227	0x3e0e8d55	0.13921101
228	0x3d96fd24	0.073725015
229	0x3dce213e	0.10064934
230	0x3dfc6a6a	0.12324984
231	0xbe6f2201	-0.23352815
232	0xbe5b94e3	-0.21443515
233	0xbdac2568	-0.08405572
234	0x3cff56c2	0.031169299
235	0xbe1aac7e	-0.15104863
236	0xbe78e5f7	-0.24306475
237	0x3d8e749b	0.069558345
238	0x3d0a2693	0.033728193
239	0x39f7ccca	0.0004726409
240	0xbdbf1d8f	-0.0933181
241	0xbdd9297b	-0.10603615
242	0xbdeae7b6	-0.114699766
243	0x3ca243af	0.019807665
244	0x3db1b427	0.086769395
245	0xbd5f8ea8	-0.054579407
246	0xbdc1c332	-0.09461059
247	0xbccf60ae	-0.025314655
248	0xbd5d160a	-0.053976096
249	0xbe2be17e	-0.16785237
250	0xbe2b2e66	-0.16716918
251	0xbe31f765	-0.1737953
252	0xbe1378b5	-0.14401515
253	0xbd07863d	-0.033087004
254	0x3c71abe5	0.0147504555
255	0x3dda83da	0.1066968

features.5.bias f4 [32]
0	0xbd443b9f	-0.04790842
1	0xba023a7c	-0.00049678213
2	0xbc33cf77	-0.010974756
3	0xbce3074a	-0.027713437
4	0x3cb8a471	0.02253935
5	0xbdfc9100	-0.12332344
6	0x3c573ec0	0.013137519
7	0x3e574ad5	0.2102464
8	0x3d25e515	0.040501673
9	0xbe64d8d9	-0.22348346
10	0x3c4ba89a	0.012430334
11	0xbc5be052	-0.013420181
12	0x3c923f57	0.017852468
13	0x3d1214b2	0.035664268
14	0x3df181df	0.11792349
15	0x3da304bc	0.079598874
16	0x3e781111	0.2422526
17	0x3d498a03	0.049203884
18	0xbd5e000a	-0.054199256
19	0x3cd60a97	0.026128097
20	0xbdf1eb77	-0.118124895
21	0xbe0c2cba	-0.13688937
22	0xbd059aba	-0.032618262
23	0x3e5f02c3	0.21778397
24	0x3dc8dc54	0.09807649
25	0xbc2caacd	-0.010538769
26	0xbe015c55	-0.12632878
27	0xbddc8b26	-0.10768728
28	0xbcc6bf13	-0.024261033
29	0x3cc6ca83	0.024266487
30	0x3d64553a	0.05574534
31	0xbd8cee4b	-0.06881388

features.6.weight f4 [32]
0	0x3f4ad303	0.7922823
1	0x3f59001d	0.847658
2	0x3f80a7f0	1.005125
3	0x3f397a57	0.724523
4	0x3f580461	0.8438168
5	0x3f6b2a4d	0.9186142
6	0x3f465fff	0.7749023
7	0x3f581757	0.84410614
8	0x3f415407	0.7551884
9	0x3f6b9b86	0.92034185
10	0x3f79d061	0.97583586
11	0x3f4f6c9e	0.8102511
12	0x3f4e730c	0.806443
13	0x3f60169f	0.8753452
14	0x3f4e6418	0.8062148
15	0x3f58e6de	0.84727275
16	0x3f5b31d6	0.8562292
17	0x3f5b311c	0.8562181
18	0x3f5dda0c	0.8666084
19	0x3f530b0d	0.8243874
20	0x3f583b33	0.8446533
21	0x3f6be1e1	0.9214154
22	0x3f4ff833	0.81238097
23	0x3f43dd17	0.7650923
24	0x3f76234f	0.96147627
25	0x3f3de36d	0.7417515
26	0x3f35e756	0.71056116
27	0x3f4bb080	0.7956619
28	0x3f65fea0	0.8984165
29	0x3f5a05ff	0.851654
30	0x3f53dd06	0.8275913
31	0x3f66db07	0.9017796

features.6.bias f4 [32]
0	0xbd6f1e51	-0.05837852
1	0xbe231a33	-0.15927963
2	0xbe298a69	-0.16556706
3	0xbe34ee5e	-0.17669055
4	0xbd9195f5	-0.0710868
5	0xbe301b15	-0.17197831
6	0xbd5f2bcc	-0.054485127
7	0xbdf5c291	-0.12000001
8	0xbe9d8539	-0.30765703
9	0xbdc657f1	-0.09684742
10	0xbde507e7	-0.11183148
11	0xbe946d0c	-0.28989446
12	0xbde905d2	-0.11378063
13	0xbd7ca73f	-0.061682936
14	0xbe108306	-0.14112481
15	0xbda6bf00	-0.08141899
16	0x3d9c9992	0.07646479
17	0xbcd85ae8	-0.026410535
18	0xbe239636	-0.1597527
19	0xbe75b508	-0.23994839
20	0xbe03074d	-0.12795754
21	0xbe5f10da	-0.21783772
22	0xbe5f2022	-0.21789601
23	0xbd974269	-0.073857136
24	0xbda6a0de	-0.08136152
25	0xbe84f5d1	-0.25968793
26	0xbe698d4e	-0.2280781
27	0xbd9bf747	-0.07615524
28	0xbe46c682	-0.19411662
29	0xbe1cafe5	-0.15301473
30	0xbe4841e3	-0.19556384
31	0xbe17b86e	-0.14816448

features.6.running_mean f4 [32]
0	0xbe60de4f	-0.21959804
1	0xbec369db	-0.381667
2	0xbf215bdb	-0.63030785
3	0xbefc328c	-0.49257314
4	0xbe5a60cf	-0.21325992
5	0xbf2480c3	-0.64258975
6	0xbe58c927	-0.21170484
7	0xbcc79154	-0.02436129
8	0x3cae3dda	0.021269727
9	0xbf41d4a5	-0.75715095
10	0xbef79626	-0.48356742
11	0xbec25b19	-0.37960127
12	0xbe180c1a	-0.14848366
13	0xbe74f3dc	-0.2392115
14	0xbe5f887c	-0.21829408
15	0xbdf1e11c	-0.11810514
16	0xbd196684	-0.037451282
17	0xbf0ade08	-0.5424504
18	0xbf35f4ce	-0.7107667
19	0x3d0efa9d	0.034906972
20	0xbf0e675d	-0.5562647
21	0xbf126bcc	-0.57195735
22	0xbebb50dd	-0.3658513
23	0x3d6dcb16	0.058055006
24	0xbe954b7b	-0.2915915
25	0xbe1cc4d0	-0.15309453
26	0xbf1886b8	-0.59580564
27	0xbeb929d6	-0.3616473
28	0xbe0bc670	-0.13649917
29	0xbea345ac	-0.31889093
30	0xbd5c3dd6	-0.05376991
31	0xbf03d8c2	-0.5150262

features.6.running_var f4 [32]
0	0x3f0a1ccf	0.5395021
1	0x3f555dc3	0.83346194
2	0x3fac2c7e	1.3451078
3	0x3f839c7c	1.028213
4	0x3f196ebd	0.599346
5	0x3fbb2fea	1.4623997
6	0x3f0f80ff	0.5605621
7	0x3ef2df92	0.47436196
8	0x3eab5abc	0.33467662
9	0x3f96c2fb	1.1778253
10	0x3fb30d0c	1.3988357
11	0x3f858304	1.0430608
12	0x3f0b63e5	0.544493
13	0x3f3a989e	0.72889125
14	0x3f54b090	0.83081913
15	0x3ee32c7e	0.44369882
16	0x3fa8e76a	1.3195622
17	0x3fc702cf	1.5547732
18	0x3fcdc21c	1.6074862
19	0x3eaf1881	0.34198382
20	0x4011b1b7	2.2764719
21	0x3f5553f3	0.8333122
22	0x3f1b3c01	0.60638434
23	0x3ee1cf61	0.4410353
24	0x3fdce91f	1.7258643
25	0x3eca6d2e	0.39536422
26	0x3f6063e1	0.87652403
27	0x3f0d1bb2	0.55120385
28	0x3f05fb98	0.52337027
29	0x3f5eab82	0.8698045
30	0x3ebddff2	0.3708492
31	0x3f73cbbe	0.9523276

features.10.weight f4 [64, 32, 3]
0	0xbd21738f	-0.039416846
1	0x3c7821d4	0.015144784
2	0x3ae150bd	0.00171902
3	0x3dbfe078	0.09368986
4	0x3e0f5e3d	0.14000793
5	0x3e175087	0.14776812
6	0xbde1aed7	-0.11019676
7	0xbd8e04ea	-0.06934531
8	0xbdf2b83a	-0.11851545
9	0x3e146850	0.14492917
10	0x3d8b087e	0.06788729
11	0x3d3bb8eb	0.04583065
12	0x3ced5f7c	0.028976195
13	0x3c020894	0.0079366155
14	0x3c0b8195	0.0085147815
15	0xbe368e9d	-0.1782784
16	0xbe5386d1	-0.20656897
17	0xbdfb96fd	-0.12284658
18	0x3d9c73fd	0.076393105
19	0x3ddd90ca	0.10818632
20	0x3e21d4f4	0.15803891
21	0x3db5f179	0.08883948
22	0x3d7282f2	0.05920691
23	0x3d674873	0.056465577
24	0xbd1632e0	-0.036669612
25	0xbd0f6373	-0.03500695
26	0xbc160b63	-0.009157988
27	0xbde1ea82	-0.11031057
28	0xbd8a3aae	-0.067494735
29	0xbd8ef0b8	-0.06979507
30	0xbe0bd60a	-0.13655868
31	0xbdf6207e	-0.12017916
32	0xbd84eca4	-0.06490448
33	0xbdae27de	-0.08503698
34	0xbd1c9450	-0.03822738
35	0xbd951267	-0.072789006
36	0xbd854abb	-0.06508394
37	0xbc28e553	-0.010308581
38	0xbd6c3f53	-0.05767758
39	0x3da9afd8	0.08285493
40	0x3de3e08d	0.11126814
41	0x3ddd6abd	0.10811374
42	0x3daaa879	0.08332915
43	0x3e21c94e	0.15799448
44	0x3dd7084b	0.10499629
45	0x3d245805	0.040123004
46	0x3e0e1126	0.13873729
47	0x3e02fe9b	0.12792437
48	0xbe18a4b9	-0.14906587
49	0xbdc3e998	-0.09566039
50	0xbdf92c3c	-0.1216664
51	0xbdc06447	-0.093941264
52	0xbd3b175b	-0.04567657
53	0xbd843d35	-0.06456987
54	0xbdede96b	-0.116167866
55	0xbdce276b	-0.10066112
56	0xbda458db	-0.0802476
57	0xbd450b68	-0.04810658
58	0xbcfa91e0	-0.030587137
59	0xbd9d0611	-0.07667173
60	0xbdb84d3f	-0.089991085
61	0xbd99589f	-0.07487606
62	0xbd50fa38	-0.051019877
63	0x3db0182c	0.085983604
64	0x3e2c81f5	0.1684645
65	0x3e330a23	0.17484336
66	0x3e5401b6	0.20703778
67	0x3e06e2e8	0.13172495
68	0x3e03a95c	0.12857574
69	0x3e1c35c4	0.15254885
70	0x3e3affc7	0.18261634
71	0x3e3748fe	0.17898938
72	0xbde4df52	-0.111754075
73	0xbe12c3b5	-0.14332469
74	0xbe076dbf	-0.13225459
75	0x3db739a9	0.08946545
76	0x3e05b4d1	0.13057257
77	0x3da39617	0.07987612
78	0xbb6e1e69	-0.0036334044
79	0xbc39e70f	-0.011346593
80	0xbb557e11	-0.0032576362
81	0xbdea5460	-0.114418745
82	0xbdc5d229	-0.096592255
83	0xbe13cc14	-0.14433318
84	0xbd601fee	-0.05471795
85	0xbd80894c	-0.06276187
86	0xbdd44b5f	-0.103659384
87	0x3b1b1dab	0.0023668807
88	0x3d6f4cc4	0.05842282
89	0x3dd7cf1f	0.10537552
90	0xbd3215b6	-0.043477736
91	0x3c340e03	0.010989669
92	0x3cca8316	0.02472071
93	0xbdb30d7b	-0.087428056
94	0xbdda3b44	-0.10655835
95	0xbdadfe3e	-0.084957585
96	0xbd8b1825	-0.067917146
97	0xbc985610	-0.018595725
98	0xbb2bd273	-0.0026217967
99	0x3d9d9032	0.07693519
100	0x3dea57ea	0.114425495
101	0x3e1963e8	0.14979517
102	0xbd581c30	-0.052761257
103	0xbd59c20a	-0.053163566
104	0xbd114d41	-0.035474066
105	0x3e0cc29b	0.13746111
106	0x3e03acc9	0.12858881
107	0x3df24748	0.11830002
108	0xbd2440fd	-0.04010104
109	0xbd3f7437	-0.04674169
110	0x3c3ceea0	0.011531502
111	0xbe0742ee	-0.13209125
112	0xbdd7b81f	-0.10533165
113	0xbdd42ecd	-0.10360489
114	0x3cfe72df	0.031060634
115	0x3dc38b90	0.09548104
116	0x3da57ef9	0.08080859
117	0x3dbb25df	0.09138083
118	0x3df0736e	0.117407665
119	0x3e0f77e5	0.1401058
120	0xbe064f52	-0.13116196
121	0xbd992681	-0.07478047
122	0xbd6ef169	-0.058335695
123	0xbd6962a2	-0.05697883
124	0xbd98f45f	-0.07468485
125	0xbd6fc66a	-0.05853883
126	0xbda3bd39	-0.07995076
127	0xbd81cdfc	-0.063381165
128	0xbd76778e	-0.06017261
129	0xbddb0f2a	-0.10696252
130	0xbd8edd9a	-0.06975861
131	0xbe12602f	-0.14294504
132	0xbdae3bfd	-0.085075356
133	0xbdbc32b7	-0.091893606
134	0xbd8b6e81	-0.06808186
135	0x3db30ec0	0.08743048
136	0x3dae696a	0.085162
137	0x3d9063c0	0.07050276
138	0xbd51de2e	-0.051237278
139	0x3d4032e7	0.046923544
140	0x3da38745	0.07984785
141	0x3cc6e009	0.02427675
142	0x3d8eed79	0.06978888
143	0x3de00c07	0.10939794
144	0xbe054594	-0.13014823
145	0xbdb3d6d8	-0.087812126
146	0xbdc01cd7	-0.09380501
147	0xbd94edf4	-0.072719485
148	0xbda66a26	-0.08125715
149	0xbd688103	-0.05676366
150	0xbdbdd1c5	-0.09268526
151	0xbd4f8353	-0.05066235
152	0xbdcb3f2e	-0.0992416
153	0xbd98eab3	-0.0746664
154	0xbd8070d2	-0.06271519
155	0xbd99daa3	-0.07512405
156	0xbe2ff9c6	-0.17185125
157	0xbe085baf	-0.13316225
158	0xbdc62ac2	-0.09676124
159	0x3e03dd2d	0.1287734
160	0x3dc0d1a1	0.094149835
161	0x3e2dc463	0.16969447
162	0x3df49341	0.11942149
163	0x3e09f119	0.13470878
164	0x3e2c2e7f	0.16814612
165	0xbd0e4e17	-0.03474244
166	0x3d430728	0.047614247
167	0x3cd2d0c0	0.025734305
168	0xbdccd781	-0.100020416
169	0xbd6eb250	-0.05827552
170	0xbdb68475	-0.08911983
171	0x3d0d15c4	0.034444585
172	0x3df22a79	0.11824507
173	0x3dcd0d79	0.10012335
174	0xbc899994	-0.016796865
175	0xbd853388	-0.065039694
176	0xbc919bfe	-0.017774578
177	0xbdadccc8	-0.084863245
178	0xbd2cf852	-0.042229004
179	0xbe1b6c35	-0.15177996
180	0xbdca16bf	-0.0986762
181	0xbdd9ef80	-0.10641384
182	0xbdfaf880	-0.12254429
183	0x3d81de8d	0.06341276
184	0x3db607b7	0.0888819
185	0x3e0533d8	0.13008058
186	0xbe1e828e	-0.1547949
187	0xbe029229	-0.12751068
188	0xbdba918c	-0.09109792
189	0xbde3db25	-0.11125783
190	0xbda56cd2	-0.080773965
191	0xbd4bed71	-0.04978699
192	0xbe2f8141	-0.1713915
193	0xbcddc864	-0.027073093
194	0xbd360651	-0.044439618
195	0xbda3aa60	-0.07991481
196	0xbd46ebd0	-0.048564732
197	0xbd53d1a3	-0.051713597
198	0x3e7e2d73	0.24822025
199	0x3de96602	0.113964096
200	0x3e5db035	0.21649249
201	0x3c8447d8	0.016147539
202	0x3ba82551	0.0051314016
203	0xbdf09c52	-0.11748566
204	0xbe1384f9	-0.14406194
205	0xbde56825	-0.112015046
206	0xbdd76b79	-0.10518546
207	0x3deb19b8	0.11479515
208	0x3e2a5abb	0.16636173
209	0x3e37454b	0.17897527
210	0xbd69525d	-0.056963313
211	0xbaa6f92a	-0.0012739052
212	0x3c675a3a	0.014120633
213	0xbcc35e69	-0.02384873
214	0x3c2890af	0.0102884015
215	0x3cc2092b	0.023686012
216	0x3c4eaea6	0.012614882
217	0x3bf59eab	0.0074957213
218	0xbcf24a69	-0.029576497
219	0x3da8d9f4	0.08244696
220	0x3d238525	0.0399219
221	0x3dbafbcf	0.0913006
222	0x3df5599b	0.119799815
223	0x3da3bf30	0.079954505
224	0x3e07e1d8	0.13269746
225	0x3e313680	0.17305946
226	0x3e2835b7	0.1642674
227	0x3d317df7	0.04333302
228	0xbe82bd5c	-0.25535095
229	0xbe0b7485	-0.13618667
230	0xbd9f0201	-0.07764054
231	0xbe1b0108	-0.15137112
232	0xbd88beaf	-0.06676995
233	0xbdd99072	-0.10623254
234	0xbe0c0a08	-0.13675702
235	0xbd9dceef	-0.07705485
236	0xbda7b3fe	-0.08188628
237	0xbd04537c	-0.03230618
238	0xbba562ff	-0.0050472016
239	0xbda18745	-0.07887129
240	0xbc5a8ff2	-0.013339983
241	0xbc7c5d59	-0.015403115
242	0xbcdded33	-0.027090644
243	0x3bf48aad	0.0074628205
244	0x3d15f632	0.036611743
245	0x3e32f08d	0.17474575
246	0x3e3805c7	0.17970954
247	0x3dc54d5c	0.09633896
248	0x3dc291e4	0.09500483
249	0x3ce46a2d	0.02788266
250	0xbd179242	-0.037004717
251	0xbdc630e2	-0.096772924
252	0xbd6d69fb	-0.0579624
253	0x3d3d1653	0.04616387
254	0x3d850140	0.06494379
255	0xbd96c461	-0.07361675

features.10.bias f4 [64]
0	0xbc09a145	-0.008400266
1	0xbd5f9012	-0.054580756
2	0x3dae77bf	0.085189335
3	0xbccfbeee	-0.025359597
4	0xbd8a92cd	-0.06766281
5	0x3cb2035b	0.021730116
6	0xba213b60	-0.000615051
7	0x3c208df2	0.009799467
8	0x3d1fca5f	0.039011355
9	0x3ce00e7c	0.027350657
10	0x3d79e418	0.061008543
11	0xbad1217a	-0.0015955411
12	0xbbd137d1	-0.0063848277
13	0xbdc4f3fd	-0.096168496
14	0xbdcd497c	-0.10023782
15	0x3c8c51aa	0.017128784
16	0x3d84bfe2	0.06481911
17	0x3e0546cd	0.1301529
18	0xbdecbdf2	-0.11559667
19	0x3e0cb5db	0.13741247
20	0xbbbcc581	-0.005760849
21	0xbd1033c4	-0.035205618
22	0xbdbc2383	-0.09186461
23	0x3d0d8bfd	0.03455733
24	0x3c75fa07	0.015013224
25	0x3d232193	0.03982694
26	0xbd2a8298	-0.04162845
27	0x3dd340a5	0.10315064
28	0x3d1f448b	0.038883727
29	0xbc32f53c	-0.010922726
30	0x3d668ea7	0.056288388
31	0x3db0e591	0.08637536
32	0xbdad251b	-0.08454343
33	0xbe040bb6	-0.12895092
34	0xbcf8018b	-0.030274173
35	0x3e175cdc	0.14781517
36	0x3d753491	0.059864584
37	0xbcea3d2d	-0.028593624
38	0xbcc01766	-0.023448657
39	0xbd3ee6cd	-0.046606828
40	0x3ccc551d	0.024942929
41	0x3dd7c4b9	0.10535569
42	0xbdc3341b	-0.09531423
43	0xbd11d59e	-0.03560411
44	0x3da6f52a	0.0815223
45	0xbdb812b6	-0.08987944
46	0xbdb2a417	-0.08722704
47	0x3d41e401	0.047336582
48	0x3d522913	0.051308703
49	0x3c5acdd1	0.0133547345
50	0xbd9d8a12	-0.076923504
51	0x3d445d49	0.047940526
52	0x3d8b4695	0.06800572
53	0x3d5e3861	0.054252986
54	0x3d97f8fd	0.074205376
55	0x3c77a553	0.0151151
56	0x3cc5c2ec	0.024140798
57	0xbd89878c	-0.06715307
58	0xbe088fb1	-0.13336064
59	0xbbe19346	-0.0068840114
60	0x3d5acc4a	0.05341748
61	0xbdaea5c4	-0.08527711
62	0xbd7fbd6d	-0.06243651
63	0x3c7e1818	0.015508674

features.11.weight f4 [64]
0	0x3f7b5215	0.9817212
1	0x3f5656b8	0.8372607
2	0x3f6ef091	0.93335825
3	0x3f66558e	0.89974296
4	0x3f62dd69	0.88619095
5	0x3f79b452	0.9754077
6	0x3f6e049b	0.9297578
7	0x3f6f2d29	0.93428284
8	0x3f56e901	0.83949286
9	0x3f766e70	0.96262264
10	0x3f57faa7	0.8436684
11	0x3f7cc426	0.987368
12	0x3f718c4f	0.9435472
13	0x3f5c0fa5	0.8596137
14	0x3f60451a	0.8760544
15	0x3f61294d	0.87953645
16	0x3f677482	0.9041215
17	0x3f71b7f3	0.9442131
18	0x3f62c3ef	0.8858022
19	0x3f690397	0.910211
20	0x3f664445	0.8994792
21	0x3f501810	0.81286716
22	0x3f6e2918	0.93031454
23	0x3f733b43	0.950123
24	0x3f6510b6	0.89478624
25	0x3f66e414	0.9019177
26	0x3f7ab898	0.9793792
27	0x3f65d68e	0.8978051
28	0x3f72596a	0.94667685
29	0x3f5a06d9	0.851667
30	0x3f6d8ddf	0.92794603
31	0x3f647dd0	0.89254475
32	0x3f6c2793	0.92247885
33	0x3f5da5e7	0.8658127
34	0x3f5a8256	0.85355127
35	0x3f6db801	0.9285889
36	0x3f614926	0.8800224
37	0x3f5cca93	0.86246604
38	0x3f5c93b9	0.86162907
39	0x3f588e75	0.8459237
40	0x3f70b9d8	0.94033575
41	0x3f74afe4	0.9558089
42	0x3f7288d6	0.94740045
43	0x3f7b2f70	0.9811926
44	0x3f72c41c	0.9483049
45	0x3f72e5ab	0.94881696
46	0x3f73371b	0.9500596
47	0x3f583bda	0.84466326
48	0x3f6a2354	0.91460156
49	0x3f6b6b1a	0.919603
50	0x3f72f9ca	0.949124
51	0x3f50e3de	0.815977
52	0x3f60f541	0.8787423
53	0x3f6ab13f	0.91676706
54	0x3f816c57	1.0111188
55	0x3f778621	0.9668904
56	0x3f5bc611	0.858491
57	0x3f82e1be	1.0225141
58	0x3f556834	0.83362126
59	0x3f56b3b4	0.83867955
60	0x3f7c2ea7	0.98508686
61	0x3f748dbd	0.95528775
62	0x3f680baa	0.906428
63	0x3f4c68c1	0.7984734

features.11.bias f4 [64]
0	0xbe61bc0d	-0.22044392
1	0xbeb2e22d	-0.34938183
2	0x3d31b29e	0.043383233
3	0x3d246a91	0.040140692
4	0xbe989d89	-0.2980769
5	0xbc8fa000	-0.017532349
6	0x3d93ba23	0.07213237
7	0xbe6643af	-0.22486757
8	0xbeb2b202	-0.34901434
9	0xbe72f84c	-0.2372753
10	0xbe9daa10	-0.3079381
11	0xbe238623	-0.15969138
12	0x3db399ee	0.08769594
13	0xbe971d68	-0.29514623
14	0xbe8b839f	-0.27248856
15	0xbe028d2e	-0.12749168
16	0x3db34488	0.08753306
17	0x3d743354	0.059619263
18	0xbe8fed34	-0.2811066
19	0xbe81bd8c	-0.25339925
20	0x3d0842ee	0.033266954
21	0xbeb21076	-0.34778184
22	0x3d3df015	0.04637154
23	0xbe65679d	-0.22402807
24	0xbe31775e	-0.17330691
25	0x3d1269c5	0.0357454
26	0x3d0fa134	0.035065845
27	0x3d8a40bb	0.067506276
28	0x3dea006b	0.11425861
29	0xbe9b6702	-0.30352026
30	0x3dca2619	0.09870548
31	0xbe9b8446	-0.30374354
32	0xbe019937	-0.12656103
33	0xbeaba538	-0.3352449
34	0xbeaa3f4f	-0.33251426
35	0x3d06861e	0.032842748
36	0xbe94ceba	-0.2906397
37	0xbea085aa	-0.31351978
38	0xbe8d892d	-0.2764372
39	0xbea30fc5	-0.3184797
40	0x3d3be675	0.045874078
41	0x3d8ad042	0.06778003
42	0xbe306cba	-0.17228976
43	0x3bc33b45	0.005957993
44	0x3d6cad67	0.057782557
45	0xbe51c7d6	-0.20486388
46	0x3d665e29	0.056242142
47	0xbddcd6b4	-0.10783139
48	0xbe91f50d	-0.2850727
49	0xbc15452b	-0.009110729
50	0x3d968445	0.07349447
51	0xbeafebdb	-0.3435963
52	0x3d1c2114	0.038117483
53	0xbe1a6195	-0.15076287
54	0xbde747a4	-0.11292961
55	0x3db366e6	0.08759861
56	0xbe93a726	-0.28838462
57	0xbe36e84b	-0.1786205
58	0xbeb609dc	-0.35554397
59	0xbeb0c6fc	-0.34526813
60	0xbe33a10b	-0.17541902
61	0xbe729019	-0.23687781
62	0xbe95b263	-0.2923766
63	0xbeb0eecd	-0.3455719

features.11.running_mean f4 [64]
0	0xbe7c5d0b	-0.24644868
1	0xbede3e85	-0.43407074
2	0x3e20c03b	0.1569833
3	0xbe797cd0	-0.24364018
4	0xbef49d4b	-0.47776255
5	0x3f793a48	0.97354555
6	0x3e42bc86	0.19017228
7	0x3f809fc6	1.0048759
8	0xbeeb9e3a	-0.46019155
9	0x3f494ed4	0.7863591
10	0xbebdbbbc	-0.37057292
11	0x3efa5b0e	0.48897594
12	0xbe1230de	-0.14276454
13	0xbf0991ae	-0.53737915
14	0xbdcf49ac	-0.10121474
15	0xbd75145d	-0.059833873
16	0xbe0d57dc	-0.13803047
17	0x3e71435d	0.23560853
18	0xbe668606	-0.22512063
19	0x3c478afa	0.012179131
20	0xbe50848a	-0.2036306
21	0xbef77b12	-0.48336083
22	0x3f10ec49	0.5661054
23	0x3f8c5f71	1.0966626
24	0x3f7d33bb	0.9890706
25	0x3d49cef1	0.04926962
26	0x3f53f249	0.8279157
27	0x3e8c0740	0.2734928
28	0x3d588b40	0.052867174
29	0xbf0e2185	-0.55519897
30	0x3e5008b6	0.20315823
31	0xbeb03636	-0.3441636
32	0xbde9abd5	-0.114097275
33	0xbf1949d9	-0.5987831
34	0xbec47b78	-0.3837545
35	0x3ee07263	0.4383727
36	0xbeca1c21	-0.39474586
37	0xbf0003ba	-0.50005686
38	0xbedfe6dc	-0.4373082
39	0xbf218134	-0.63087773
40	0x3ea8ec23	0.32992658
41	0x3e495b13	0.19663648
42	0x3e81c875	0.2534825
43	0x3f6d7471	0.927558
44	0x3f0a38f8	0.5399318
45	0xbeebaf4d	-0.4603218
46	0x3f029bc6	0.5101894
47	0xbe444a45	-0.19168957
48	0xbeae03c2	-0.33987242
49	0x3f885fce	1.0654237
50	0x3e5abdde	0.21361491
51	0xbed69006	-0.41906756
52	0x3e216df8	0.15764606
53	0x3edcdaa0	0.43135548
54	0x3f0a5232	0.5403167
55	0x3df7f477	0.12107175
56	0xbe4edb4c	-0.20200843
57	0xbe69e8bc	-0.22842687
58	0xbebef518	-0.37296367
59	0xbee14757	-0.4399974
60	0x3f3ffa63	0.74991435
61	0xbe9f36d0	-0.31096506
62	0xbf13be41	-0.5771218
63	0xbee19bb1	-0.44064096

features.11.running_var f4 [64]
0	0x3e680ebf	0.22661875
1	0x3e95deec	0.29271638
2	0x3e5cb9a1	0.21555187
3	0x3e4c123b	0.1992883
4	0x3e9eba9e	0.31001753
5	0x3e6e74b2	0.23286703
6	0x3e867f19	0.26268843
7	0x3eb65c17	0.35617134
8	0x3e8ef361	0.27920058
9	0x3e9e0ef7	0.30870792
10	0x3eb1cd37	0.3472688
11	0x3ec35480	0.38150406
12	0x3eb179ec	0.34663332
13	0x3e6624fd	0.22475047
14	0x3e774423	0.24147086
15	0x3e5a4efa	0.2131919
16	0x3e3fa056	0.18713507
17	0x3e7b2c4f	0.24528621
18	0x3e6a1e20	0.22863054
19	0x3e742c58	0.23845041
20	0x3e8505b5	0.25980917
21	0x3eaf22e1	0.34206298
22	0x3e776644	0.24160105
23	0x3ea94ee4	0.33068
24	0x3e7ec6db	0.24880545
25	0x3e88c96c	0.26716173
26	0x3e86a658	0.26298785
27	0x3e781d17	0.24229847
28	0x3e6a8485	0.22902115
29	0x3ebcdf1d	0.36888972
30	0x3eb05a8d	0.34444085
31	0x3e8dcaec	0.2769388
32	0x3ea3411c	0.31885612
33	0x3e91fc42	0.2851277
34	0x3e88da8e	0.26729244
35	0x3e5c9fa9	0.2154528
36	0x3e8bf4e5	0.27335277
37	0x3e952efb	0.29137406
38	0x3e81af4b	0.2532905
39	0x3eb53eba	0.3539942
40	0x3e2abbb0	0.1667316
41	0x3e4a1158	0.19733179
42	0x3ebd6a1d	0.3699502
43	0x3e464e83	0.19365887
44	0x3e7b934f	0.24567913
45	0x3e392f36	0.18084416
46	0x3ea53539	0.32267168
47	0x3e8723d5	0.26394525
48	0x3e7f585f	0.24936055
49	0x3e736c54	0.23771793
50	0x3e561991	0.2090819
51	0x3ebb101b	0.36535725
52	0x3e732798	0.23745573
53	0x3e978a41	0.29597667
54	0x3ebfa2f5	0.37429014
55	0x3e9f9bcb	0.31173548
56	0x3e7b8f1a	0.24566308
57	0x3e5cd3df	0.21565197
58	0x3e50b692	0.20382145
59	0x3eb8e12a	0.36109287
60	0x3ea04c00	0.31307983
61	0x3e5bb7af	0.21456788
62	0x3e86604b	0.2624534
63	0x3eb18daf	0.34678409

embedding_layer.0.weight f4 [16, 64]
0	0x3dffd7e5	0.124923505
1	0xbd0df4c5	-0.03465726
2	0xbc4d13e7	-0.012516952
3	0xbdf68f02	-0.12038995
4	0xbe174e0d	-0.14775868
5	0xbe8577c4	-0.26067936
6	0xbdd6f764	-0.10496405
7	0xbe7a71cc	-0.24457473
8	0x3e086de8	0.13323176
9	0xbe95f03c	-0.29284847
10	0x3ce6d100	0.02817583
11	0xbe88f2a6	-0.26747626
12	0xbdc0ce75	-0.094143786
13	0x3cc92c38	0.024557218
14	0x3d5717e3	0.052513015
15	0xbdf28b6e	-0.11843
16	0xbd9dbef6	-0.077024385
17	0xbc087d6a	-0.008330682
18	0xbd57d852	-0.052696534
19	0x3df5438b	0.119757734
20	0xbde7a6ff	-0.11311149
21	0x3dc1ef78	0.09469503
22	0xbe132de7	-0.14372979
23	0xbea3bdaf	-0.31980655
24	0xbe8111a9	-0.25208786
25	0xbd08205e	-0.033233993
26	0xbdc2e410	-0.09516156
27	0xbd98cfd6	-0.074615166
28	0xbe0dd9b0	-0.13852572
29	0xbd562209	-0.052278552
30	0xbe32f45e	-0.17476031
31	0x3dd97738	0.10618442
32	0xbe7c2022	-0.24621633
33	0x3d665c2a	0.05624024
34	0xbca063e6	-0.019578885
35	0xbb632468	-0.003465915
36	0x3c79a71f	0.015237599
37	0x3e6b1eda	0.22960988
38	0xbd74655d	-0.05966698
39	0x3e06151b	0.13093989
40	0xbe0a290b	-0.13492219
41	0x3ab4cd42	0.0013794082
42	0xbde7a9f5	-0.113117136
43	0xbe59c676	-0.21267113
44	0xbde4777f	-0.111556046
45	0x3e47cfb6	0.19512829
46	0xbcd8404c	-0.026397847
47	0xbe27a0bf	-0.16369914
48	0x3e08c9ae	0.13358185
49	0xbe59c72d	-0.21267386
50	0xbcd41e8b	-0.02589347
51	0x3e3ce781	0.18447687
52	0xbcfb90fa	-0.030708779
53	0xbe5cd915	-0.21567185
54	0xbe72032c	-0.23634022
55	0xbc2fa1ca	-0.010719726
56	0x3d80f50c	0.06296739
57	0xbe093314	-0.13398391
58	0x3d5ecc0e	0.05439382
59	0x3dd7952e	0.10526501
60	0xbe693870	-0.22775435
61	0x3ddeeb5f	0.10884737
62	0x3ddbc8a9	0.10731632
63	0x3d82ea82	0.06392385
64	0x3dd13169	0.10214502
65	0x3d59e56f	0.05319732
66	0x3d2752e4	0.040850535
67	0x3cc4bfbf	0.024017213
68	0x3c7085c6	0.014680332
69	0xbdd4f73d	-0.103987195
70	0x3d33894c	0.04383211
71	0xbe5697af	-0.209563
72	0x3df854da	0.12125559
73	0xbdc6ecc1	-0.09713126
74	0x3d56f07f	0.05247545
75	0xbdeb561f	-0.11491036
76	0x3c544026	0.012954747
77	0x3e0eabab	0.13932674
78	0x3da267c7	0.0792995
79	0xbe299872	-0.1656206
80	0xbd478139	-0.04870722
81	0x3d7e587c	0.062096104
82	0x3e153759	0.14571895
83	0x3e1a751b	0.15083735
84	0xbd06728e	-0.03282409
85	0x3e5af9d5	0.21384366
86	0xbba98364	-0.0051731337
87	0xbe09d35b	-0.13459532
88	0xbe32dec7	-0.17467795
89	0xbc0bf763	-0.008542868
90	0xbd146b24	-0.03623499
91	0xbd2e42ee	-0.042544298
92	0xbc8b1d07	-0.016981615
93	0x3e0173f8	0.12641895
94	0x3c6f062d	0.014588875
95	0x3e09e153	0.1346486
96	0xbe47186d	-0.19442911
97	0x3d3fe09d	0.046845067
98	0x3e3ce98e	0.18448469
99	0xba866d48	-0.0010255957
100	0x3e1968b8	0.14981353
101	0x3e180407	0.14845286
102	0x3992f885	0.00028032452
103	0x3d9f45a6	0.07776956
104	0x3c4a0f13	0.012332696
105	0xbd21cd7b	-0.039502602
106	0xbe3e2830	-0.18570018
107	0x3a88d50e	0.0010439472
108	0x3d61aa3a	0.05509398
109	0x3e22674e	0.1585972
110	0x3d4359d0	0.047693074
111	0xbe171931	-0.14755704
112	0x3e437775	0.19088538
113	0xbbd9b2d5	-0.006643633
114	0x3da88b9f	0.082297556
115	0x3e114a29	0.14188446
116	0xbd17ee60	-0.037092566
117	0xbd2a3701	-0.041556362
118	0xbdfa2c93	-0.12215533
119	0xbc0b371e	-0.008497028
120	0x3d48559b	0.048909765
121	0x3d6381f5	0.05554386
122	0x3e36296c	0.17789239
123	0x3df5413f	0.11975335
124	0xbe1bacc3	-0.15202622
125	0x3e2da6df	0.16958188
126	0x3e48298a	0.19547096
127	0x3de8227b	0.11334702
128	0xbe566a9a	-0.20939103
129	0xbe20a531	-0.15688016
130	0x3d4aeca1	0.049542073
131	0x3e000476	0.12501702
132	0xbe2209fa	-0.15824118
133	0x3db4bd30	0.08825147
134	0x3df88ff2	0.121368304
135	0xbe78746d	-0.24263163
136	0xbe1c1af6	-0.1524466
137	0xbe4c6e6b	-0.19963996
138	0xbd6fa89e	-0.058510415
139	0xbe92d538	-0.28678298
140	0x3e26d3a2	0.16291669
141	0xbea1951f	-0.31559083
142	0xbe67434d	-0.22584267
143	0xbdb4806e	-0.088135585
144	0xbda66554	-0.081247956
145	0x3e113938	0.14181983
146	0xbe4b8952	-0.19876602
147	0xbe892297	-0.26784202
148	0xbd596722	-0.05307687
149	0xbe190f8c	-0.14947337
150	0x3e5e32d8	0.21699083
151	0xbe0ee2d6	-0.13953719
152	0x3d377e02	0.044797905
153	0xbd32f261	-0.04368818
154	0x3e70c5ef	0.23513006
155	0x3db0fc47	0.08641868
156	0x3d3fd567	0.046834376
157	0xbd8923e8	-0.06696302
158	0x3e55fb1c	0.20896572
159	0xbda482d6	-0.080327675
160	0xbe4e2524	-0.20131356
161	0xbe36732e	-0.17817375
162	0xbe1d2eda	-0.15349904
163	0x3e14d387	0.14533816
164	0xbe2c0aa6	-0.16800937
165	0xbe67d611	-0.22640254
166	0xbdde62aa	-0.108586624
167	0xbe14dd7e	-0.14537618
168	0x3e52a791	0.20571734
169	0x3cf6a4aa	0.030107815
170	0xbe925f28	-0.28588223
171	0x3dffb2e3	0.12485292
172	0x3e3138dd	0.17306848
173	0xbed9ee30	-0.42564535
174	0x3e26f884	0.16305739
175	0xbdad2435	-0.084541716
176	0xbdd4b010	-0.10385144
177	0x3e3e9f4a	0.18615451
178	0x3e50367b	0.20333283
179	0xbe0eb26e	-0.13935253
180	0x3d7899ca	0.06069354
181	0xbe9cea41	-0.30647472
182	0xbeb14a7b	-0.34627137
183	0x3d625009	0.05525211
184	0xbe6e4f6e	-0.23272488
185	0xbeacb770	-0.33733702
186	0xbe15b196	-0.14618525
187	0xbe14813c	-0.14502424
188	0xbe80b529	-0.25138214
189	0xbea3216a	-0.3186143
190	0xbe211250	-0.15729642
191	0xbe04002f	-0.12890695
192	0xbd242392	-0.040072985
193	0xbdd105db	-0.10206195
194	0x3da7008e	0.08154403
195	0x3df198f9	0.11796755
196	0xbd920694	-0.07130161
197	0x3dd87a63	0.105702184
198	0x3e1ff337	0.15620123
199	0x3d820f13	0.063505314
200	0xbd91f052	-0.071259156
201	0x3d9d26f8	0.07673448
202	0xbe07cb93	-0.13261251
203	0xbba7a2f2	-0.00511586
204	0x3e4a3126	0.19745311
205	0xbd13c864	-0.03607978
206	0x3ca5183d	0.02015316
207	0x3d7a9838	0.061180323
208	0x3e2d438b	0.16920297
209	0x3e417f2b	0.18896167
210	0xbdae8480	-0.08521366
211	0xbcfe57d5	-0.031047741
212	0x3d6ca5c3	0.05777527
213	0xbe0ea76f	-0.13931058
214	0xbc1ee2bc	-0.009697612
215	0x3d966430	0.07343328
216	0x3e2000b2	0.15625265
217	0x3e172a02	0.14762118
218	0x3d54a987	0.051919486
219	0x3e2b2a7e	0.16715428
220	0x3d6fdcef	0.058560308
221	0xbdd1734a	-0.10227068
222	0x3e2216b5	0.15828975
223	0xbda090e4	-0.07840136
224	0x3d3643eb	0.044498365
225	0xbddf72f3	-0.10910597
226	0xbe0c4523	-0.13698249
227	0x3d50d17c	0.05098103
228	0xbd01715f	-0.03160226
229	0xbd014378	-0.031558484
230	0xbc19ce86	-0.009387618
231	0xbd07a191	-0.033113066
232	0x3e178776	0.14797768
233	0x3e36e98d	0.1786253
234	0x3d57100a	0.05250553
235	0x3e10bec4	0.14135271
236	0x3d9de9d1	0.077106126
237	0xbcbca35e	-0.023027118
238	0x3d879231	0.06619681
239	0x3dc2298c	0.09480581
240	0xbd68ccc8	-0.05683592
241	0xbcaa7256	-0.020806473
242	0x3e099597	0.1343597
243	0xbdfb363f	-0.12266206
244	0x3dfe7c55	0.12426058
245	0x3e26b6ce	0.16280672
246	0x3d8bfbfc	0.068351716
247	0x3dff8f88	0.12478548
248	0xbc8306da	-0.015994478
249	0x3c46a562	0.012124391
250	0xbe0d32a6	-0.13788852
251	0xbdb9f78c	-0.09080419
252	0x3cc6603e	0.024215814
253	0xbd4c0636	-0.04981061
254	0xbd678298	-0.05652103
255	0xbdaf5c71	-0.08562554

embedding_layer.0.bias f4 [16]
0	0x3e5ceb1e	0.21574065
1	0xbb2916a8	-0.0025800858
2	0x3d7822e4	0.06058015
3	0x3e9fd203	0.31214914
4	0x3e0b3aec	0.13596696
5	0x3e2303fa	0.15919486
6	0x3e2e1b92	0.17002705
7	0x3ea4846d	0.32132283
8	0x3ea2850e	0.31742138
9	0x3ecb850b	0.3974994
10	0x3e4bdfbc	0.19909567
11	0x3e1ab924	0.15109688
12	0x3e49504e	0.1965954
13	0x3e3c1af0	0.18369651
14	0x3dc66c37	0.09688609
15	0x3dc18fd1	0.09451259

classifier.weight f4 [2, 16]
0	0xbedb18d6	-0.42792386
1	0xbe47acbe	-0.1949949
2	0x3ecdc64f	0.4019036
3	0x3e5a6f34	0.21331483
4	0xbe24afe6	-0.16082725
5	0xbde17da1	-0.1101029
6	0xbe5f860b	-0.21828477
7	0x3ea97563	0.3309737
8	0x3e6d9210	0.2320025
9	0x3e89fe6e	0.26951927
10	0x3dbb052b	0.09131845
11	0x3e607259	0.2191862
12	0x3e9c0812	0.30474907
13	0xbedb43ff	-0.42825314
14	0xbed4b028	-0.41540647
15	0xbea530c0	-0.32263756
16	0x3e57a19b	0.21057741
17	0x3e2c506b	0.16827552
18	0xbeb23cfc	-0.34812152
19	0xbe83d7c3	-0.2575055
20	0x3eae9d68	0.34104466
21	0x3eefb7c1	0.4681988
22	0x3e9442c3	0.28957185
23	0xbeb80709	-0.35942867
24	0x3d1b6b9b	0.037944417
25	0xbd92158d	-0.07133017
26	0xbcf4191f	-0.029797135
27	0xbf0bbece	-0.5458802
28	0x3db8bfd1	0.09020961
29	0x3e21b430	0.15791392
30	0x3db65b70	0.08904159
31	0x3eb7baca	0.35884696

classifier.bias f4 [2]
0	0x3e33b77e	0.17550465
1	0xbce164bc	-0.027513854
