o02_test/run_outputs/79Acnn_train_weights.pth (torch, 48171 bytes, 22 tensors)

features.0.weight f4 [16, 6, 5]
2.0153453 1.4071192 0.61122924 -0.36889818 -1.322262 -0.9140539 -1.1987771 -0.8725805
-0.50473213 -0.94786453 1.0704193 0.5373549 0.2764209 -0.21394227 -0.47912183 -0.07079032
0.019087061 0.021998903 0.050674576 0.14617757 -0.05499089 0.027285438 -0.086134955 0.07042103
0.031253416 -0.29184166 -0.06976212 -0.117307335 -0.10267394 -0.36614534 -3.553445 -3.7337818
-2.229456 -1.211912 -0.099644355 0.36058965 -0.22002958 -0.03146434 -0.3579004 -0.02112729
0.12069526 0.052339446 0.12711889 0.8200943 1.2114297 -0.043888554 0.09238766 -0.10196567
0.049995493 0.021925993 -0.085929304 -0.071421735 0.0003170896 0.21722688 -0.07471685 -0.04663422
0.013210728 -0.037815 0.13868943 -0.16976507 -3.6297848 -3.7698238 -2.6795435 -1.9185135
-0.91829556 0.6655442 0.634049 0.13098578 -0.0064271176 -0.14854833 -0.08404828 -0.5136618
-0.3421756 0.24564704 0.48906335 0.0014133161 -0.04557457 0.049773082 -0.025046729 0.026833937
-0.1265718 -0.1875877 0.18491924 0.015873281 -0.013410056 -0.05761781 0.15966664 -0.088309415
-0.0467169 0.050567366 2.892247 2.4852293 1.6830872 0.83716035 0.4547883 -0.69866955
-0.118103 0.22606985 0.48897436 0.6971845 0.88009256 0.68575 0.15756308 -0.42455855
-1.0414962 0.0040745432 -0.07806738 0.050550412 -0.033087753 -0.1241573 0.04163382 -0.16409695
-0.12551129 -0.15537387 -0.055254687 -0.08714593 0.0005498929 -0.23406303 -0.20063722 -0.14242189
0.30208594 0.34425372 0.8049193 0.6517514 0.8485388 1.2695614 0.5578307 0.42928022
0.28642043 0.47442362 0.41026387 0.31383538 -0.055409603 0.18010399 -0.07728813 -0.19079103
0.007263854 -0.14244103 0.010022854 0.011547966 -0.09153027 -0.10439218 0.07116132 -0.1550865
-0.19205606 -0.10630304 -0.028257603 0.053785354 0.23877014 0.10980786 0.8300628 1.0013492
0.18396562 -0.3193831 -0.06237792 0.9212941 -0.105318464 -0.73532283 -0.09696958 0.08216774
-1.6260606 -1.3577293 -0.48443297 -0.61842895 -1.3190116 0.05138679 -0.091772184 0.051855035
0.061784048 -0.061358534 -0.10407003 0.18008329 0.15249003 -0.118474975 -0.08682497 -0.11087131
-0.077034265 0.14478704 0.15051448 -0.21209227 2.6550114 1.8242102 0.65507627 -0.57876676
-1.148748 -1.0933758 -1.2288053 -1.0881861 -1.0965507 -1.108055 1.1241839 0.84975445
0.36035657 -0.09415263 -0.50481 -0.048103824 0.024877556 0.03463705 0.05775416 0.08348886
-0.063405715 -0.054233756 0.0005951173 0.048816208 0.080506794 -0.2204766 -0.05921099 -0.10873266
-0.11911362 -0.23363332 1.9332904 1.0226238 -0.23521714 -1.0966072 -1.9023728 2.3682833
1.9233236 0.93652976 0.55261964 0.22138502 -1.4886813 -1.5642434 -1.4393708 -0.90356016
-0.6311269 0.14262803 0.06616551 0.029529912 -0.06032234 -0.13260743 -0.27494282 0.068645164
0.10413417 0.084793605 0.10072468 0.15533406 -0.014410813 -0.10246843 -0.01433533 0.02009533
0.019145884 1.2721039 2.0646663 2.13887 2.559 -1.3808253 -2.0534558 -1.0089641
-1.1323535 -0.6906247 1.2373264 1.2065651 0.89464474 0.5345389 0.38555905 -0.043036897
00000000: 6bfb 0040 7b1c b43f 8579 1c3f 39e0 bcbe
00000010: e23f a9bf 70ff 69bf 8771 99bf 7061 5fbf
00000020: 2036 01bf 40a7 72bf 8003 893f 1790 093f
00000030: 0a87 8d3e af13 5bbe 754f f5be 84fa 90bd
00000040: 785c 9c3c 0b37 b43c 2590 4f3d 93af 153e
00000050: 213e 61bd b685 df3c 8667 b0bd e738 903d
00000060: 9503 003d 456c 95be 71df 8ebd d43e f0bd
00000070: b746 d2bd 6777 bbbe a56b 63c0 48f6 6ec0
00000080: 68af 0ec0 ef1f 9bbf 5712 ccbd 359f b83e
00000090: 6f4f 61be c0e0 00bd b93e b7be 2313 adbc
000000a0: 142f f73d e361 563d 742b 023e b3f1 513f
000000b0: 2110 9b3f 7cc4 33bd be35 bd3d 61d3 d0bd
000000c0: 13c8 4c3d 249e b33c b4fb afbd 8f45 92bd
000000d0: 0c3f a639 b970 5e3e 2605 99bd 8603 3fbd
000000e0: cf71 583c e7e3 1abd 9a04 0e3e e5d6 2dbe
000000f0: 654e 68c0 cb44 71c0 a47d 2bc0 da91 f5bf
00000100: 6b15 6bbf 1b61 2a3f 0951 223f 2321 063e
00000110: 929a d2bb 0e1d 18be 8121 acbd 577f 03bf
00000120: a431 afbe e68a 7b3e 8366 fa3e 053f b93a
00000130: 66ac 3abd dcde 4b3d cc2e cdbc d8d2 db3c
00000140: 0a9c 01be fd16 40be 785b 3d3e af08 823c
00000150: dab5 5bbc a700 6cbd a77f 233e 91db b4bd
00000160: 385a 3fbd ba1f 4f3d 931a 3940 ff0d 1f40
00000170: 676f d73f 2450 563f 03da e83e 02dc 32bf
00000180: fcdf f1bd db7e 673e d95a fa3e af7a 323f
00000190: bf4d 613f 508d 2f3f 3758 213e bd5f d9be
000001a0: bf4f 85bf bf83 853b cae1 9fbd f30d 4f3d
000001b0: 0687 07bd 2f46 febd 3988 2a3d 0809 28be
000001c0: 0886 00be 541a 1fbe bd52 62bd 9179 b2bd
000001d0: b026 103a 38ae 6fbe d873 4dbe 0bd7 11be
000001e0: 02ab 9a3e 0642 b03e 310f 4e3f 2ed9 263f
000001f0: d739 593f fd80 a23f fecd 0e3f 9eca db3e
00000200: b3a5 923e a7e7 f23e 1b0e d23e 08af a03e
00000210: 2ef5 62bd 2e6d 383e 3d49 9ebd b95e 43be
00000220: a005 ee3b 10dc 11be e636 243c ae33 3d3c
00000230: 3974 bbbd 91cb d5bd 07bd 913d ffce 1ebe
00000240: 58aa 44be 69b5 d9bd 7d7c e7bc 084e 5c3d
00000250: 2980 743e f1e2 e03d ff7e 543f 362c 803f
00000260: 7c61 3c3e 2f86 a3be fd7f 7fbd eed9 6b3f
00000270: 35b1 d7bd 1e3e 3cbf fd97 c6bd 8f47 a83d
00000280: c122 d0bf 13ca adbf 9907 f8be 5c51 1ebf
00000290: 5fd5 a8bf f47a 523d 0ef3 bbbd f265 543d
000002a0: 4511 7d3d 1653 7bbd ab22 d5bd c167 383e
000002b0: 5926 1c3e 02a3 f2bd 4ad1 b1bd 7f10 e3bd
000002c0: 24c4 9dbd 0e43 143e 7820 1a3e b72e 59be
000002d0: b5eb 2940 b87f e93f 14b3 273f 0f2a 14bf
000002e0: 2d0a 93bf bdf3 8bbf 7e49 9dbf af49 8bbf
000002f0: c65b 8cbf bfd4 8dbf 42e5 8f3f 8289 593f
00000300: a880 b83e 18d3 c0bd 3a3b 01bf 8408 45bd
00000310: 04cc cb3c 94df 0d3d a08f 6c3d 35fc aa3d
00000320: dbda 81bd 3724 5ebd a501 1c3a 81f3 473d
00000330: bfe0 a43d 9ec4 61be 3987 72bd 3baf debd
00000340: d7f1 f3bd 933d 6fbe 0f76 f73f 56e5 823f
00000350: c3dc 70be a05d 8cbf f480 f3bf f491 1740
00000360: 782f f63f 6ac0 6f3f 7b78 0d3f c1b2 623e
00000370: 1c8d bebf 2139 c8bf 4d3d b8bf b84f 67bf
00000380: 8891 21bf 150d 123e c881 873d b7e8 f13c
00000390: 8f14 77bd 3eca 07be 4ec5 8cbe d695 8c3d
000003a0: 4c44 d53d 45a8 ad3d be48 ce3d e40f 1f3e
000003b0: 551b 6cbc f8da d1bd bbde 6abc f69e a43c
000003c0: d4d7 9c3c 4dd4 a23f 7e23 0440 3fe3 0840
000003d0: a8c6 2340 e2be b0bf d26b 03c0 bc25 81bf
000003e0: f6f0 90bf c8cc 30bf b660 9e3f ba70 9a3f
000003f0: 7007 653f 8bd7 083f ff67 c53e 7547 30bd

features.0.bias f4 [16]
-0.020251004 0.0136229405 -0.039582144 0.017609563 0.0377216 -0.11231958 0.07302545 0.03239921
0.105773285 0.13562936 0.069584996 0.14011033 -0.22463861 0.10780774 0.08575581 0.0007304882
00000000: 6fe5 a5bc c132 5f3c e320 22bd ee41 903c
00000010: f781 1a3d cf07 e6bd 5e8e 953d 09b5 043d
00000020: aa9f d83d 6ce2 0a3e 9482 8e3d 1579 0f3e
00000030: aa07 66be 4eca dc3d bea0 af3d 3c7e 3f3a

features.1.weight f4 [16]
0.84019023 0.90566295 0.76545054 0.82641387 0.70970774 0.86324763 0.8358001 0.78958184
0.7620646 0.903221 0.8361181 0.7496999 0.83913344 0.8269722 0.7944371 0.7786805
00000000: b516 573f 87d9 673f 91f4 433f dc8f 533f
00000010: 68af 353f ccfd 5c3f fff6 553f 0922 4a3f
00000020: aa16 433f 7e39 673f d60b 563f 55ec 3f3f
00000030: 73d1 563f 73b4 533f 3b60 4b3f 9b57 473f

features.1.bias f4 [16]
-0.09725684 -0.42313936 -0.42278007 0.00441788 -0.007080632 -0.41822115 -0.09076876 -0.0118205305
-0.03020911 -0.030586556 -0.12395364 -0.074957274 -0.066670746 -0.34440807 -0.024317766 0.0017008499
00000000: 982e c7bd b9a5 d8be a176 d8be ddc3 903b
00000010: a504 e8bb 1521 d6be f9e4 b9bd e6aa 41bc
00000020: 1879 f7bc a890 fabc 68db fdbd 3383 99bd
00000030: ac8a 88bd 4156 b0be 0d36 c7bc 0def de3a

features.1.running_mean f4 [16]
-0.047359332 0.011121893 -0.03883902 -0.012314677 0.036053326 -0.11641902 0.05237733 0.03423363
0.108967945 0.16205426 0.03898513 0.16900586 -0.22575587 0.09727512 0.11332547 -0.005831405
00000000: dcfb 41bd 9a38 363c aa15 1fbd 80c3 49bc
00000010: a7ac 133d 186d eebd 9c89 563d 9038 0c3d
00000020: 962a df3d 8df1 253e dfae 1f3d df0f 2d3e
00000030: 8c2c 67be 2e38 c73d 2f17 e83d 5f15 bfbb

features.1.running_var f4 [16]
1468.8185 20.95716 17.409029 923.6088 532.76355 24.00523 917.7778 144.36362
46.974762 1418.8516 1310.6584 730.9374 61.649837 116.58789 885.4424 898.765
00000000: 319a b744 44a8 a741 b145 8b41 f7e6 6644
00000010: de30 0544 b60a c041 c771 6544 165d 1043
00000020: 28e6 3b42 405b b144 12d5 a344 febb 3644
00000030: 6f99 7642 002d e942 505c 5d44 f6b0 6044

features.5.weight f4 [32, 16, 3]
-0.054608688 0.09064162 -0.03995512 -0.2009323 -0.24555293 -0.19559082 0.061356924 0.019139472
-0.031024056 0.0022363467 -0.082962215 -0.08132693 0.033102524 0.009441565 0.050681584 -0.34727773
-0.33777916 -0.26237085 -0.1585284 -0.18079993 0.05106904 0.02313283 0.036619518 -0.055044062
-0.12976485 0.06625551 -0.050710496 0.1431315 0.14081115 -0.09720049 -0.08657471 -0.10959857
-0.09473604 0.018963195 0.030459292 0.062025353 -0.003191657 -0.022752013 -0.02874389 -0.17562768
-0.13238844 -0.09759485 -0.0073991725 0.19701909 0.012648819 -0.027019758 0.08732507 0.11501615
-0.123192854 -0.21905807 -0.13376352 0.13357417 0.32369724 -0.031150969 0.06969537 0.0730952
-0.0777322 0.12997389 0.03438033 -0.048370827 0.05406889 0.014790828 -0.023787424 0.09378361
0.0093190605 -0.020309972 -0.09699946 -0.2220565 -0.13311161 -0.32547522 -0.11738261 -0.11677779
-0.045478832 -0.1776406 -0.19481373 0.030064784 -0.011474905 -0.005673226 -0.12044495 -0.1541429
-0.17330651 -0.12383242 -0.08768191 0.03811618 0.0015978958 -0.17401174 0.015227712 0.10449317
-0.012328017 0.088837385 -0.11190238 0.003461611 0.119976304 -0.08454753 -0.053434674 0.058891244
0.010875974 -0.013909041 -0.06517423 0.04274037 0.032363594 0.011479975 0.063853525 0.044216216
0.0002464954 -0.10014928 -0.2295765 -0.22462757 -0.23592426 -0.3071212 -0.20619428 0.054845836
0.124254316 0.03713957 0.13141641 -0.009143187 -0.07065586 0.044662785 -0.03759794 -0.081487894
0.07834333 -0.060839377 0.11246749 -0.09002632 -0.14403385 -0.086804375 0.018356174 0.023911433
-0.045308236 -0.11360901 -0.05223106 -0.10197494 -0.21118072 -0.24791786 -0.18724005 -0.0029550507
-0.080260806 -0.11642255 -0.09606622 -0.13525005 -0.14080802 -0.12850007 -0.23953946 -0.19982956
0.045719 -0.15657517 -0.18057057 0.12944175 -0.040663794 -0.111297786 0.15395197 0.05146038
-0.29642683 -0.0011094443 0.096329466 -0.050131842 0.100871235 -0.021140728 0.0037341341 0.011656254
-0.07192552 -0.24291268 0.08193023 -0.034589153 -0.24453717 -0.19651695 -0.04620131 0.01261144
-0.16237503 -0.23384069 -0.19363819 -0.09938119 -0.06805026 -0.17498724 0.010543199 0.026400162
-0.0032867366 -0.18872263 -0.15028235 0.13829575 -2.6869675e-06 0.036041304 0.10676684 -0.012455515
0.12784567 0.056346763 -0.16276464 0.029448137 0.13809358 -0.08457871 -0.12594348 -0.050946936
-0.15668564 -0.10988792 -0.110518485 0.32316694 -0.05134642 0.11002356 0.04530459 0.066284806
-0.1037195 0.0077685905 -0.18829519 0.03192793 0.06903137 -0.07334012 -0.0815769 -0.12709402
-0.040796142 -0.17621422 -0.0547494 -0.104620464 -0.14683804 -0.03763625 -0.006611151 0.0043789544
-0.13398172 -0.14687267 -0.08679215 0.13606188 0.031028824 -0.0073625827 -0.0981942 -0.08116233
-0.0475512 0.10571159 0.112252094 0.07960447 0.06129134 0.10508818 0.13610564 -0.15350662
-0.203263 -0.08479854 0.037304226 -0.17394134 -0.28745997 0.08788952 0.037113376 0.055407014
-0.0699088 -0.11101618 -0.12555334 0.04623814 0.09457152 0.0034881034 0.06155326 0.10789245
-0.029030219 -0.17547263 -0.19629692 -0.18011473 -0.20111893 -0.11605397 0.011712597 0.12264569
00000000: 5cad 5fbd 50a2 b93d fba7 23bd 32c1 4dbe
00000010: 3a72 7bbe f648 48be 6651 7b3d 62ca 9c3c
00000020: 2926 febc ac8f 123b 18e8 a9bd bc8e a6bd
00000030: 8396 073d cbb0 1a3c 7e97 4f3d 63ce b1be
00000040: 64f1 acbe 7955 86be 4555 22be 9e23 39be
00000050: c52d 513d 1081 bd3c 59fe 153d e275 61bd
00000060: 14e1 04be f8b0 873d cfb5 4fbd 1091 123e
00000070: cc30 103e 0d11 c7bd 154e b1bd 3775 e0bd
00000080: f804 c2bd b458 9b3c c485 f93c 4c0e 7e3d
00000090: 1e2b 51bb 6e62 babc 4e78 ebbc bed7 33be
000000a0: d690 07be cfdf c7bd c274 f2bb 5fbf 493e
000000b0: fe3c 4f3c 8a58 ddbc 7cd7 b23d 968d eb3d
000000c0: 894c fcbd c250 60be 4ef9 08be abc7 083e
000000d0: a5bb a53e 5130 ffbc 72bc 8e3d f0b2 953d
000000e0: 0f32 9fbd e017 053e 64d2 0c3d 7d20 46bd
000000f0: 5777 5d3d 3b55 723c d8dd c2bc 9f11 c03d
00000100: f9ae 183c 1961 a6bc a7a7 c6bd c762 63be
00000110: 694e 08be b0a4 a6be 4b66 f0bd 3229 efbd
00000120: 0348 3abd 6be7 35be 407d 47be 6c4a f63c
00000130: 3d01 3cbc 78e6 b9bb d8ab f6bd a3d7 1dbe
00000140: 4377 31be da9b fdbd 9392 b3bd b61f 1c3d
00000150: 7c70 d13a 2230 32be a77d 793c 8400 d63d
00000160: 73fb 49bc 60f0 b53d 132d e5bd 32dc 623b
00000170: 23b6 f53d 4127 adbd 51de 5abd f237 713d
00000180: 2431 323c bfe2 63bc 117a 85bd 8710 2f3d
00000190: b08f 043d 8116 3c3c a3c5 823d 101c 353d
000001a0: 0d3c 8139 111b cdbd 1a16 6bbe c504 66be
000001b0: 2196 71be fd3e 9dbe 9824 53be 07a6 603d
000001c0: 0c79 fe3d a91f 183d 0692 063e 4ecd 15bc
000001d0: 05b4 90bd 53f0 363d 4c00 1abd 20e3 a6bd
000001e0: 7872 a03d b632 79bd 5b55 e63d b85f b8bd
000001f0: 9c7d 13be 7ec6 b1bd b05f 963c e9e1 c33c
00000200: 2195 39bd d7ab e8bd 3cf0 55bd 3dd8 d0bd
00000210: c23f 58be 2ede 7dbe dbbb 3fbe 86a9 41bb
00000220: c75f a4bd f26e eebd 5ebe c4bd fd7e 0abe
00000230: fa2f 10be 8695 03be d549 75be 1fa0 4cbe
00000240: d943 3b3d 3e55 20be 7ee7 38be 618c 043e
00000250: 148f 26bd 18f0 e3bd 96a5 1d3e 1fc8 523d
00000260: 42c5 97be c66a 91ba 6248 c53d 0c57 4dbd
00000270: 9495 ce3d 522f adbc 60b8 743b dff9 3e3c
00000280: b04d 93bd 1abe 78be 09cb a73d 5bad 0dbd
00000290: f467 7abe bd3b 49be 963d 3dbd 37a0 4e3c
000002a0: a445 26be ef73 6fbe 1749 46be 5e88 cbbd
000002b0: ef5d 8bbd db2f 33be 62bd 2c3c 2745 d83c
000002c0: 4a66 57bb 8140 41be 9ee3 19be 679d 0d3e
000002d0: c051 34b6 0ca0 133d 93a8 da3d 3712 4cbc
000002e0: fae9 023e ddcb 663d c6ab 26be 383d f13c
000002f0: 6768 0d3e 9a37 adbd 54f7 00be bcad 50bd
00000300: 3372 20be eb0c e1bd 8457 e2bd 2376 a53e
00000310: a050 52bd 0854 e13d 4e91 393d 54c0 873d
00000320: e46a d4bd a98f fe3b 74d0 40be dcc6 023d
00000330: 5260 8d3d 5833 96bd ca11 a7bd ef24 02be
00000340: db19 27bd 8071 34be e840 60bd 4143 d6bd
00000350: b65c 16be 7828 1abd 5ba2 d8bb 557d 8f3b
00000360: 8132 09be ca65 16be 15c0 b1bd ce53 0b3e
00000370: 2930 fe3c d241 f1bb 0a1a c9bd 7038 a6bd
00000380: 0cc5 42bd 517f d83d 6de4 e53d ab07 a33d
00000390: a10c 7b3d 7938 d73d 475f 0b3e d730 1dbe
000003a0: 2d24 50be dbaa adbd 51cc 183d ae1d 32be
000003b0: f42d 93be 6cff b33d 3204 183d 77f2 623d
000003c0: 582c 8fbd 735c e3bd 0e91 00be 3464 3d3d
000003d0: b7ae c13d aa98 643b 451f 7c3d b8f6 dc3d
000003e0: c8d0 edbc 19af 33be 0f02 49be ff6f 38be
000003f0: 1ff2 4dbe b4ad edbd 31e6 3f3c aa2d fb3d

features.5.bias f4 [32]
-0.122172214 0.0059680357 0.1052529 -0.10541757 -0.064767234 -0.22950175 0.07641158 0.17865613
-0.054250266 -0.23449779 -0.26117724 0.054955743 -0.011564553 0.043413367 0.101894036 0.15383886
0.089294724 0.025856292 -0.08833066 0.07848486 -0.025102897 -0.08592701 0.06207571 -0.07287597
0.110964276 0.07955758 -0.118534714 0.06402165 -0.0243217 0.065975904 -0.06786313 -0.014505669
00000000: 6d35 fabd 838f c33b d58e d73d 2be5 d7bd
00000010: afa4 84bd 8202 6bbe ad7d 9c3d a2f1 363e
00000020: 8735 5ebd 3020 70be 06b9 85be 4619 613d
00000030: 4079 3dbc 37d2 313d d2ad d03d ef87 1d3e
00000040: 27e0 b63d 93d0 d33c b4e6 b4bd acbc a03d
00000050: 97a4 cdbc 80fa afbd 1a43 7e3d ff3f 95bd
00000060: 3d41 e33d 16ef a23d 54c2 f2bd c81d 833d
00000070: 4d3e c7bc 601e 873d d3fb 8abd 2fa9 6dbc

features.6.weight f4 [32]
0.7001821 0.7795807 0.9494216 0.728403 0.7781829 0.86899495 0.71024525 0.8139843
0.6800366 0.868218 0.932405 0.7726339 0.7542283 0.78505903 0.8116712 0.85821867
0.76848596 0.79057527 0.80299264 0.78630525 0.855426 0.8871773 0.8085903 0.7683308
0.89316756 0.7367948 0.74128485 0.76104236 0.8368585 0.79063183 0.7712206 0.8789082
00000000: 223f 333f 9a92 473f 4b0d 733f 9e78 3a3f
00000010: ff36 473f 7476 5e3f a2d2 353f 4661 503f
00000020: e116 2e3f 8943 5e3f 18b2 6e3f 56cb 453f
00000030: 1b15 413f a1f9 483f afc9 4f3f 38b4 5b3f
00000040: 7fbb 443f 2463 4a3f ed90 4d3f 4d4b 493f
00000050: 33fd 5a3f 0d1e 633f c6ff 4e3f 54b1 443f
00000060: a1a6 643f 969e 3c3f d8c4 3d3f acd3 423f
00000070: 5c3c 563f d966 4a3f b76e 453f 2100 613f

features.6.bias f4 [32]
-0.0020778086 -0.19139567 -0.19878986 -0.15627658 -0.09903799 -0.21038322 -0.07485488 -0.12093418
-0.4482442 -0.14628193 -0.14837475 -0.27450746 -0.12246331 -0.059099346 -0.1432332 -0.13173458
0.04182374 -0.06798913 -0.1586933 -0.2785732 -0.21625517 -0.22497167 -0.24629596 -0.09942325
-0.10429166 -0.24210978 -0.17213114 -0.12921019 -0.2434655 -0.1824534 -0.166576 -0.20694363
00000000: d82b 08bb 3afd 43be 928f 4bbe f806 20be
00000010: 6ed4 cabd b36e 57be 844d 99bd 57ac f7bd
00000020: 4480 e5be eeca 15be 8def 17be 3e8c 8cbe
00000030: 0bce fabd 2812 72bd b9ab 12be 6ee5 06be
00000040: 5f4f 2b3d e33d 8bbd 7f80 22be 25a1 8ebe
00000050: ff71 5dbe f95e 66be 0235 7cbe 6b9e cbbd
00000060: de96 d5bd a0eb 77be 2543 30be ad4f 04be
00000070: 054f 79be 10d5 3abe e692 2abe 08e9 53be

features.6.running_mean f4 [32]
-0.41563627 -0.33523536 -0.52607584 -0.4757815 -0.2823588 -0.71325225 -0.1357649 -0.08612937
0.07015048 -0.8643781 -0.79220605 -0.34340224 -0.2716795 -0.15546769 -0.22403277 -0.042856228
-0.2874178 -0.52107465 -0.7112261 -0.04927726 -0.48199773 -0.51468474 -0.3543227 -0.2878019
-0.359026 -0.12766653 -0.53383327 -0.28480804 -0.20751487 -0.21101207 -0.11198214 -0.39681444
00000000: 47ce d4be f8a3 abbe e8ac 06bf a299 f3be
00000010: 5591 90be b397 36bf f405 0bbe 9864 b0bd
00000020: 0eab 8f3d e247 5dbf 04ce 4abf 6bd2 afbe
00000030: 9319 8bbe ec32 1fbe d968 65be 038a 2fbd
00000040: 6d28 93be 2665 05bf ea12 36bf f4d6 49bd
00000050: 68c8 f6be 61c2 03bf c969 b5be c55a 93be
00000060: 42d2 b7be 04bb 02be 4ca9 08bf 5cd2 91be
00000070: c77e 54be 8c13 58be e456 e5bd 432b cbbe

features.6.running_var f4 [32]
1.4742922 0.7511473 1.3270344 0.7273904 0.4647315 1.3375554 0.5295314 0.61108595
0.32862645 1.6825719 1.3741153 0.99555737 0.776899 0.5678563 0.7599923 0.4676775
2.009618 1.5416592 1.4491543 0.45228875 2.4915392 0.8378797 1.0663079 0.5356776
2.10456 0.502376 0.79760903 0.8099562 0.6331311 0.6061403 0.2804992 1.0441337
00000000: 9bb5 bc3f 304b 403f 43dc a93f 4236 3a3f
00000010: 4af1 ed3e 0435 ab3f 5f8f 073f 2170 1c3f
00000020: ba41 a83e 845e d73f 03e3 af3f d9dc 7e3f
00000030: dae2 463f 085f 113f db8e 423f 6d73 ef3e
00000040: 959d 0040 1755 c53f e37d b93f 6492 e73e
00000050: 6175 1f40 497f 563f c77c 883f 2b22 093f
00000060: 1cb1 0640 b79b 003f 1b30 4c3f 4a59 4f3f
00000070: e114 223f 032c 1b3f 979d 8f3e 2ca6 853f

features.10.weight f4 [64, 32, 3]
-0.044330757 -0.015278985 -0.017351016 0.0834288 0.1675075 0.14629282 -0.08315671 -0.06557633
-0.102287665 0.21792543 0.12437224 0.077484995 -0.0042179725 -0.01864762 0.010926524 -0.18255354
-0.18453874 -0.120849214 0.0299237 0.11390552 0.1602372 0.099131025 0.12889227 0.11807841
-0.017460397 -0.035114743 -0.05031021 -0.07650553 -0.040602252 -0.058463555 -0.15119438 -0.12780179
-0.09481112 -0.052810524 -0.048974883 -0.08017108 -0.07160778 -0.06788313 -0.05295056 0.050574273
0.09554869 0.1017558 0.14283141 0.20302504 0.083910584 0.08172267 0.2168631 0.18460949
-0.07081116 -0.064320326 -0.07712295 -0.1000394 -0.049581997 -0.03979695 -0.081056125 -0.060278352
-0.08036039 -0.0032210692 -0.00027628973 -0.08963998 -0.13498788 -0.15324514 -0.10523477 0.044047285
0.15037261 0.15594724 0.20159885 0.14595787 0.11678788 0.11538772 0.20573291 0.20589665
-0.1630288 -0.14414145 -0.14977995 0.09584752 0.15336464 0.05934547 0.07736095 0.06939063
-0.011528862 -0.1637461 -0.097290084 -0.11517425 -0.08066298 -0.042542297 -0.0751613 0.05022425
0.1534481 0.14573269 -0.008408525 -0.016134776 -0.02349502 -0.08236991 -0.11588974 -0.08175293
-0.12125368 -0.028156778 -0.027727973 0.083559856 0.14444794 0.16451874 -0.053824924 -0.054686967
-0.03655039 0.20531671 0.17241326 0.1118014 -0.04436423 -0.040463816 0.011974099 -0.14614618
-0.1360902 -0.10055935 -0.006700372 0.09571355 0.10303329 0.0587099 0.12759629 0.17725764
-0.11642049 -0.08327666 -0.07429063 -0.050392054 -0.060393807 -0.056928985 -0.08761334 -0.06591578
-0.0569795 -0.035123397 -0.029041473 -0.10644099 -0.10531942 -0.114673726 -0.058892142 0.05010436
0.036692157 0.039392315 -0.043646384 0.05576631 0.0875025 0.05004018 0.1167315 0.1738786
-0.084689885 -0.05238648 -0.06544574 -0.09333357 -0.07681612 -0.05177436 -0.08357944 -0.05572999
-0.088108905 -0.06284921 -0.09860157 -0.11273822 -0.17907031 -0.12493406 -0.07406677 0.11616433
0.13328683 0.16960067 0.18507741 0.22409011 0.20604053 -0.021078886 0.06263299 0.03002749
-0.12169512 -0.119472936 -0.11878658 0.0631642 0.13557711 0.1514526 0.08131717 0.049774602
0.014091568 -0.13445346 -0.102645196 -0.1426933 -0.084280565 -0.107773855 -0.09070985 0.024016593
0.104768015 0.13481145 -0.1177589 -0.0915096 -0.06705393 -0.13046187 -0.11119108 -0.07025633
-0.16611074 -0.05698453 -0.045590732 -0.120285116 -0.057060614 -0.06293214 0.21036299 0.07732588
0.19793864 -0.012056281 -0.034632772 -0.17792834 -0.19503595 -0.11828731 -0.10211978 0.16321497
0.22302413 0.174514 -0.08492773 -0.09740862 -0.05578437 -0.053578824 0.00322379 -0.017503928
-0.019593814 -0.036386497 -0.07585791 0.016720181 0.0038485907 0.08681922 0.142186 0.08637862
0.14485437 0.17503439 0.16402735 0.015736949 -0.21588464 -0.1187146 -0.01905149 -0.15734653
-0.0637642 -0.109760866 -0.13494632 -0.085262366 -0.11986622 -0.08638979 -0.06724518 -0.10521191
0.00024860734 -0.018423792 0.015949227 -0.043588206 0.011161916 0.15962611 0.1781451 0.09758423
0.12119604 0.0595576 0.01459241 -0.122882 0.035947036 0.112608925 0.11172583 -0.074388266
00000000: 2b94 35bd b554 7abc b823 8ebc b8dc aa3d
00000010: 1687 2b3e c9cd 153e 114e aabd e24c 86bd
00000020: 327c d1bd d827 5f3e dfb6 fe3d 74b0 9e3d
00000030: eb36 8abb e5c2 98bc 2a05 333c 51ef 3abe
00000040: b9f7 3cbe cb7f f7bd 8c22 f53c 4c47 e93d
00000050: 3815 243e 3505 cb3d 56fc 033e 18d3 f13d
00000060: 1b09 8fbc 7ad4 0fbd 1412 4ebd eeae 9cbd
00000070: 8c4e 26bd 7b77 6fbd b3d2 1abe 79de 02be
00000080: 552c c2bd d94f 58bd e399 48bd bc30 a4bd
00000090: 1aa7 92bd 4f06 8bbd b0e2 58bd f826 4f3d
000000a0: 08af c33d 5865 d03d 6642 123e cce5 4f3e
000000b0: 50d9 ab3d 375e a73d 5c11 5e3e 450a 3d3e
000000c0: 7105 91bd 60ba 83bd a3f2 9dbd 75e1 ccbd
000000d0: 7e16 4bbd 2002 23bd c100 a6bd 6fe6 76bd
000000e0: fd93 a4bd 9318 53bb fbda 90b9 2a95 b7bd
000000f0: 433a 0abe 4bec 1cbe 5485 d7bd ed6a 343d
00000100: 47fb 193e a2b0 1f3e ee6f 4e3e fb75 153e
00000110: 7c2e ef3d 6650 ec3d a6ab 523e 92d6 523e
00000120: 06f1 26be d199 13be ea5f 19be b44b c43d
00000130: 9f0b 1d3e 3c14 733d 6b6f 9e3d ad1c 8e3d
00000140: 8de3 3cbc 0fad 27be 0640 c7bd 7ae0 ebbd
00000150: a232 a5bd d540 2ebd 2bee 99bd f1b7 4d3d
00000160: 8021 1d3e f33a 153e e9c3 09bc 142d 84bc
00000170: a178 c0bc 8eb1 a8bd 9a57 edbd 156e a7bd
00000180: d953 f8bd 0ba9 e6bc c625 e3bc 6e21 ab3d
00000190: 29ea 133e 9a77 283e 8677 5cbd 71ff 5fbd
000001a0: ddb5 15bd 8b3e 523e 1a8d 303e 22f8 e43d
000001b0: 44b7 35bd 63bd 25bd 032f 443c 58a7 15be
000001c0: 3b5b 0bbe 0ff2 cdbd cb8e dbbb 7705 c43d
000001d0: 1e03 d33d cb79 703d 9aa8 023e 0783 353e
000001e0: de6d eebd f48c aabd b025 98bd e667 4ebd
000001f0: 7f5f 77bd 5e2e 69bd 9f6e b3bd dafe 86bd
00000200: 5663 69bd 8ddd 0fbd 62e8 edbc bcfd d9bd
00000210: b5b1 d7bd 0fda eabd e338 71bd 3b3a 4d3d
00000220: 844a 163d d659 213d 8dc6 32bd 376b 643d
00000230: 8334 b33d eff6 4c3d ed10 ef3d 3b0d 323e
00000240: e471 adbd 3593 56bd 6b08 86bd ac25 bfbd
00000250: c551 9dbd 5a11 54bd b32b abbd 2145 64bd
00000260: 7172 b4bd 16b7 80bd 9fef c9bd 4ce3 e6bd
00000270: 355e 37be 6edd ffbd 52b0 97bd 90e7 ed3d
00000280: 587c 083e ccab 2d3e ef84 3d3e e177 653e
00000290: 4afc 523e a1ad acbc ba45 803d 36fc f53c
000002a0: 4b3b f9bd 3aae f4bd 6146 f3bd 3b5c 813d
000002b0: bad4 0a3e 6416 1b3e 9e89 a63d 74e0 4b3d
000002c0: 52e0 663c 2bae 09be a537 d2bd 311e 12be
000002d0: 4a9b acbd 8ab8 dcbd 16c6 b9bd 72be c43c
000002e0: 9d90 d63d 030c 0a3e 942b f1bd 6369 bbbd
000002f0: 9253 89bd cc97 05be 26b8 e3bd 8de2 8fbd
00000300: ef18 2abe 9c68 69bd 59bd 3abd 0b58 f6bd
00000310: 64b8 69bd 91e2 80bd 6569 573e 085d 9e3d
00000320: 6db0 4a3e b587 45bc 18db 0dbd d932 36be
00000330: 81b7 47be 9e40 f2bd 2d24 d1bd d321 273e
00000340: 7060 643e ccb3 323e 97ee adbd 2c7e c7bd
00000350: 277e 64bd 7875 5bbd 3946 533b 6664 8fbc
00000360: 3583 a0bc 020a 15bd 645b 9bbd c3f8 883c
00000370: a338 7c3b 46ce b13d 3599 113e 46e7 b03d
00000380: b454 143e 373c 333e c9f6 273e c6ea 803c
00000390: dd10 5dbe a420 f3bd df11 9cbc 731f 21be
000003a0: ce96 82bd 4eca e0bd 5e2f 0abe 099e aebd
000003b0: 6c7c f5bd 21ed b0bd d7b7 89bd 5879 d7bd
000003c0: 8357 8239 7eed 96bc f4a7 823c 8c89 32bd
000003d0: 78e0 363c 0775 233e ab6b 363e 3eda c73d
000003e0: a135 f83d acf2 733d 0115 6f3c 8fa9 fbbd
000003f0: 333d 133d 829f e63d 83d0 e43d e058 98bd

features.10.bias f4 [64]
-0.02068699 -0.0820105 0.13837431 -0.100238845 -0.11383334 0.041305736 0.06960284 -0.043073658
0.090728804 -0.030394424 -0.015804857 0.0010373077 -0.0012715687 -0.021758636 -0.05071827 0.104717165
0.10461496 0.034900244 -0.1152522 0.05841177 0.098637074 0.07640236 -0.05774023 0.052602798
0.0856294 -0.024060652 -0.12208051 0.07161173 -0.022082131 -0.10642357 0.079896785 0.12302257
-0.06901537 -0.13576216 -0.032329742 -0.0072373226 -0.020271327 0.016211879 -0.014284579 -0.026495054
0.0023987999 0.11520232 -0.05770709 -0.011883973 0.037243024 -0.07172686 0.0044968775 0.026662782
0.034192294 0.09466427 0.016964182 0.06215723 2.7475675e-05 0.11908036 0.016165385 0.087182544
0.0150900595 0.023539476 -0.13461952 0.069945686 0.04721685 -0.110953085 -0.031456273 0.031187994
00000000: c377 a9bc 1ff5 a7bd ffb1 0d3e 064a cdbd
00000010: 7421 e9bd 3430 293d ef8b 8e3d 016e 30bd
00000020: 06d0 b93d bafd f8bc 3079 81bc 45f6 873a
00000030: c4aa a6ba 2b3f b2bc f6bd 4fbd f475 d63d
00000040: 5e40 d63d 8ff3 0e3d 5809 ecbd 2e41 6f3d
00000050: 3c02 ca3d d778 9c3d 0581 6cbd 0876 573d
00000060: 785e af3d d81a c5bc 5905 fabd 2ca9 923d
00000070: 96e5 b4bc 9af4 d9bd eda0 a33d 42f3 fb3d
00000080: ee57 8dbd 3c05 0bbe 316c 04bd 1027 edbb
00000090: 0e10 a6bc c6ce 843c de09 6abc 280c d9bc
000000a0: 2f35 1d3b 32ef eb3d 455e 6cbd ffb4 42bc
000000b0: 248c 183d 88e5 92bd 8b5a 933b e86b da3c
000000c0: 380d 0c3d 57df c13d 78f8 8a3c 9498 7e3d
000000d0: 907b e637 67e0 f33d 456d 843c c38c b23d
000000e0: 4c3c 773c dcd5 c03c b3d9 09be af3f 8f3d
000000f0: 7566 413d 5f3b e3bd 4bd8 00bd f77d ff3c

features.11.weight f4 [64]
0.94702154 0.82638204 0.8865661 0.8419525 0.84467477 0.92093074 0.87777585 0.9241922
0.7857815 0.9049439 0.8048516 0.96669143 0.9097705 0.8700109 0.90524536 0.87074685
0.88393813 0.91491705 0.87350374 0.895768 0.8404083 0.78478426 0.873638 0.9191924
0.868716 0.88578945 0.9622827 0.82832724 0.8517854 0.8387392 0.8933616 0.82342905
0.8820731 0.82110727 0.81722784 0.89187175 0.8909056 0.9118386 0.84524655 0.7888315
0.8818347 0.93827826 0.8830914 0.91732365 0.8706557 0.8981773 0.8732222 0.83512425
0.85880417 0.85952973 0.90233666 0.7924347 0.85519916 0.90563864 1.0039353 0.9288998
0.84651613 1.0513837 0.8162235 0.8191182 0.9395933 0.94738287 0.84650373 0.7628989
00000000: 0170 723f c68d 533f fff5 623f 338a 573f
00000010: 9b3c 583f 1ec2 6b3f ebb5 603f dc97 6c3f
00000020: fa28 493f 67aa 673f c10a 4e3f 1779 773f
00000030: b8e6 683f 09b9 5e3f 29be 673f 44e9 5e3f
00000040: c549 623f 0138 6a3f f19d 5f3f 0d51 653f
00000050: 0025 573f 9fe7 483f bda6 5f3f 3150 6b3f
00000060: 2c64 5e3f 19c3 623f 2958 763f 410d 543f
00000070: 9c0e 5a3f 9db7 563f 59b3 643f 3fcc 523f
00000080: 8bcf 613f 1634 523f d835 513f b551 643f
00000090: 6412 643f 416e 693f 1462 583f dcf0 493f
000000a0: ebbf 613f 0133 703f 4712 623f b9d5 6a3f
000000b0: 4be3 5e3f f3ee 653f 7d8b 5f3f b4ca 553f
000000c0: 97da 5b3f 240a 5c3f 89ff 663f 00dd 4a3f
000000d0: 55ee 5a3f efd7 673f f480 803f 61cc 6d3f
000000e0: 48b5 583f be93 863f 06f4 503f bbb1 513f
000000f0: 3089 703f af87 723f 78b4 583f 584d 433f

features.11.bias f4 [64]
-0.24716796 -0.36835602 0.042660914 -0.0010748957 -0.3338348 -0.07188388 0.049072072 -0.23332779
-0.3875562 -0.2772967 -0.35893023 -0.16717218 0.06358424 -0.27151707 -0.25186065 -0.1498138
0.080727585 0.04985508 -0.2674527 -0.25802207 -0.042106606 -0.37386885 0.019133909 -0.21998556
-0.056286246 0.039681017 -0.029176645 0.03747269 0.05229873 -0.337297 0.039463975 -0.3647378
-0.20743917 -0.35918924 -0.3673099 0.030926999 -0.2653604 -0.2749811 -0.291436 -0.36419293
0.032801885 0.05060116 -0.22197767 -0.041225757 0.004563929 -0.24020569 0.009591932 -0.11343753
-0.3462946 -0.040158212 0.07368651 -0.36591923 0.028765295 -0.16622512 -0.16919431 0.084052406
-0.30536923 -0.17050374 -0.38492903 -0.36851957 -0.21173304 -0.2435946 -0.34180838 -0.36673298
00000000: 9919 7dbe 2999 bcbe 36bd 2e3d 84e3 8cba
00000010: 65ec aabe db37 93bd ccff 483d 7bed 6ebe
00000020: c46d c6be d5f9 8dbe b4c5 b7be 2f2f 2bbe
00000030: 7438 823d 4904 8bbe e1f3 80be ca68 19be
00000040: 8154 a53d d734 4c3d 8fef 88be 781b 84be
00000050: fa77 2cbd bd6b bfbe b7be 9c3c e543 61be
00000060: 688c 66bd 9088 223d dc03 efbc f77c 193d
00000070: 3137 563d 31b2 acbe faa4 213d eabe babe
00000080: ef6a 54be a7e7 b7be 0b10 bcbe 9e5a fd3c
00000090: 51dd 87be 53ca 8cbe 1937 95be 7f77 babe
000000a0: 455b 063d 2943 4f3d 1d4e 63be 57dc 28bd
000000b0: 038d 953b 7bf8 75be 7b27 1d3c f051 e8bd
000000c0: 874d b1be f07c 24bd f4e8 963d c459 bbbe
000000d0: 32a5 eb3c eb36 2abe 4641 2dbe ab23 ac3d
000000e0: 5b59 9cbe 8898 2ebe 6b15 c5be 99ae bcbe
000000f0: 8cd0 58be dd70 79be 8201 afbe 6dc4 bbbe

features.11.running_mean f4 [64]
-0.05382245 -0.2990204 0.01692822 -0.13044728 -0.36811876 0.66943836 0.24747358 0.5871943
-0.22135659 0.54613495 -0.30501485 0.22564676 -0.09337376 -0.26300597 -0.19012323 -0.1389407
0.06576739 -0.20047404 -0.293409 0.0005765084 0.15483165 -0.31455612 0.6980516 0.7550929
0.6378476 -0.2373332 -0.034998227 0.2867957 0.25856265 -0.38411874 0.78875333 -0.2649022
0.08121662 -0.4342028 -0.32504365 0.22497772 -0.1894291 -0.23409231 -0.22527163 -0.3656099
0.17532781 0.14351794 0.06274418 0.9780724 0.5693919 -0.3137921 0.59332865 -0.13395071
-0.21846622 1.0091221 0.2059285 -0.17970634 -0.14728358 0.08814618 0.7701148 0.115234055
-0.11182934 -0.04192629 -0.21945083 -0.2864301 0.5194027 -0.26043302 -0.33101258 -0.29958162
00000000: ee74 5cbd 3419 99be 0dad 8a3c f993 05be
00000010: 107a bcbe 5060 2b3f b769 7d3e 5e52 163f
00000020: 4dab 62be 80cf 0b3f e82a 9cbe f20f 673e
00000030: be3a bfbd b8a8 86be aaaf 42be 7946 0ebe
00000040: 0eb1 863d 1149 4dbe b439 96be d320 173a
00000050: 308c 1e3e 800d a1be 82b3 323f c54d 413f
00000060: fb49 233f 7907 73be 4d5a 0fbd e3d6 923e
00000070: 5362 843e 36ab c4be bdeb 493f 43a1 87be
00000080: e654 a63d d44f debe 1f6c a6be 8f60 663e
00000090: b4f9 41be e5b5 6fbe 9bad 66be 3931 bbbe
000000a0: 2289 333e 5ef6 123e 0580 803d f462 7a3f
000000b0: abc3 113f 5ca9 a0be 63e4 173f 602a 09be
000000c0: 9cb5 5fbe ea2a 813f ecde 523e f004 38be
000000d0: 82d1 16be fc85 b43d 3e26 453f d5ff eb3d
000000e0: c806 e5bd e7ba 2bbd b8b7 60be f7a6 92be
000000f0: 93f7 043f 7a57 85be 7b7a a9be c362 99be

features.11.running_var f4 [64]
0.20471086 0.19466364 0.15616441 0.127581 0.23162077 0.1412488 0.18475752 0.27963653
0.2690393 0.19112363 0.24797358 0.22936723 0.15953647 0.13659689 0.18265742 0.1923322
0.14708889 0.1766706 0.19610693 0.17796737 0.12514704 0.26826334 0.17880765 0.24570855
0.14859763 0.20378648 0.17236222 0.1808461 0.13804597 0.21311396 0.1655538 0.25133866
0.17017026 0.25842288 0.21273072 0.15779787 0.15799636 0.17125578 0.14841805 0.23979664
0.18292028 0.16343072 0.17562847 0.21018693 0.15670824 0.16589017 0.22312176 0.16278315
0.18157122 0.20378137 0.19081306 0.22634973 0.124917604 0.15668993 0.25100178 0.18712495
0.16968825 0.19588205 0.16069727 0.24110548 0.18970558 0.16335249 0.24573213 0.22251277
00000000: b99f 513e e855 473e 90e9 1f3e 98a4 023e
00000010: ff2d 6d3e 87a3 103e 1331 3d3e 852c 8f3e
00000020: 85bf 893e eab5 433e c9ec 7d3e 3edf 6a3e
00000030: 875d 233e 0ee0 0b3e 8c0a 3b3e bbf2 443e
00000040: 789e 163e 23e9 343e 41d0 483e 143d 363e
00000050: 8c26 003e d059 893e 5a19 373e 069b 7b3e
00000060: fa29 183e 67ad 503e b97f 303e b82f 393e
00000070: ec5b 0d3e 8c3a 5a3e ef86 293e 76af 803e
00000080: 1d41 2e3e 0150 843e 15d6 593e c495 213e
00000090: ccc9 213e ad5d 2f3e e7fa 173e 408d 753e
000000a0: 744f 3b3e 625a 273e f3d7 333e 3e3b 573e
000000b0: 2078 203e 1ddf 293e 087a 643e a0b0 263e
000000c0: ceed 393e 10ac 503e 8064 433e 39c8 673e
000000d0: cdd4 ff3d 5373 203e 4e83 803e af9d 3f3e
000000e0: c2c2 2d3e 4e95 483e d38d 243e 5be4 763e
000000f0: 2e42 423e e045 273e 34a1 7b3e 63da 633e

embedding_layer.0.weight f4 [16, 64]
0.069795065 -0.08825749 -0.070843436 -0.08814332 -0.1210173 -0.31347114 -0.050847303 -0.28302562
0.1007637 -0.31272507 0.05058932 -0.32185224 -0.121270515 0.05302826 0.14377719 -0.15563394
-0.1079316 0.006637386 -0.06307008 0.07994501 -0.13870761 0.13706662 -0.15457529 -0.35682592
-0.23309183 -0.07612866 0.07218013 -0.06599905 -0.159036 -0.039873917 -0.21318664 0.16366561
-0.28110072 0.09466888 0.03221658 -0.03743413 -0.07003718 0.20195484 -0.15749495 0.15643641
-0.08222059 -0.041610427 -0.18880564 -0.19750531 -0.11416438 0.15415677 -0.038413554 -0.11555571
0.08807136 -0.21938184 -0.055007022 0.1919094 -0.10536699 -0.24828388 -0.3489069 -0.041590888
0.062279712 -0.037781827 0.042858057 0.12144667 -0.2864499 0.08948042 0.068233676 0.11210159
0.09424197 0.05843094 0.015262393 -0.004482013 0.06113206 -0.11590559 0.04445063 -0.23598413
0.1794812 -0.17270848 0.14818777 -0.11450463 -0.00823903 0.13474652 0.085219935 -0.17330107
-0.0596051 0.02317662 0.13489993 0.14070947 -0.10480526 0.2552904 0.059525125 -0.20577513
-0.10607713 -0.024272867 0.0813762 -0.0093167955 0.0050434596 0.13490717 0.057975017 0.20765619
-0.19402628 0.1199455 0.2197874 0.003609957 0.09302498 0.14180875 0.005565713 0.14744586
0.056808446 -0.0041192146 -0.17607602 -0.028027397 0.098872654 0.13292694 0.04779023 -0.19659503
0.1744689 0.0088352095 0.13009045 0.21854374 -0.048724037 -0.109550074 -0.20120879 -0.014160224
0.039423883 0.050136104 0.13327159 0.16587241 -0.19955157 0.1358331 0.18614572 0.16860096
-0.26483485 -0.20680088 0.019011827 0.10731015 -0.12204424 0.043429043 0.08413265 -0.18182872
-0.17992234 -0.2033344 -0.08304339 -0.36324486 0.14460495 -0.39972076 -0.30544809 -0.1361467
-0.017868632 0.08927207 -0.30018577 -0.34921724 -0.064765066 -0.21107128 0.1781111 -0.19990773
0.10228033 -0.038580373 0.27324608 0.07920691 0.059280552 -0.102444045 0.22509453 -0.112905145
-0.27978683 -0.21868443 -0.15969801 0.11681978 -0.23910844 -0.321456 -0.16663285 -0.13986014
0.16730435 0.024813415 -0.2702298 0.17909756 0.16115712 -0.5034281 0.09362246 -0.04870025
-0.21647944 0.13037713 0.19760013 -0.21224633 0.023500435 -0.4042658 -0.39707345 0.019045299
-0.31693402 -0.388531 -0.2585201 -0.19502652 -0.31494385 -0.40956217 -0.24551229 -0.16457301
-0.038738888 -0.12972862 0.08181175 0.116297886 -0.13132781 0.077333376 0.18147601 0.053819798
-0.1310899 0.06454973 -0.20570351 -0.017183548 0.19616462 -0.059052773 -0.044988964 0.070526734
0.2066855 0.21551614 -0.10074905 -0.07104425 0.052567728 -0.17894575 -0.012163372 0.08038878
0.22233582 0.17498688 -0.09938785 0.14695928 0.011076219 -0.1739547 0.12075222 -0.15926525
0.025900964 -0.08039479 -0.18161993 0.054022606 -0.028012395 -0.045706384 -0.0009340846 -0.06943292
0.14294916 0.19117737 0.07542536 0.09877843 0.055436637 -0.010328018 0.0572084 0.12882471
-0.076549515 -0.019339252 0.13449804 -0.18816541 0.1447614 0.15372871 0.050439853 0.13100287
-0.016608296 0.009911975 -0.12166769 -0.1764771 0.017024107 -0.06826922 -0.028332325 -0.109459385
00000000: b7f0 8e3d 58c0 b4bd 5d16 91bd 7c84 b4bd
00000010: ebd7 f7bd 4a7f a0be 4345 50bd bce8 90be
00000020: 335d ce3d 801d a0be bf36 4f3d d1c9 a4be
00000030: ad5c f8bd 2934 593d 543a 133e 815e 1fbe
00000040: 3e0b ddbd 6e7e d93b e32a 81bd 36ba a33d
00000050: 5e09 0ebe 315b 0c3e fc48 1ebe e3b1 b6be
00000060: a0af 6ebe 58e9 9bbd 2dd3 933d 832a 87bd
00000070: 55da 22be d552 23bd 994d 5abe f597 273e
00000080: 6fec 8fbe c2e1 c13d 88f5 033d 8854 19bd
00000090: a76f 8fbd 40cd 4e3e 5b46 21be de30 203e
000000a0: 4563 a8bd b26f 2abd 4456 41be d53e 4abe
000000b0: 04cf e9bd 46db 1d3e 8857 1dbd 79a8 ecbd
000000c0: c25e b43d a2a5 60be 0b4f 61bd e683 443e
000000d0: a6ca d7bd 213e 7ebe eda3 b2be 355b 2abd
000000e0: 0319 7f3d 1ec1 1abd ee8b 2f3d 08b9 f83d
000000f0: 90a9 92be 8341 b73d 19be 8b3d 8595 e53d
00000100: ef01 c13d 4855 6f3d 1e0f 7a3c dadd 92bb
00000110: 9c65 7a3d e95f edbd dd11 363d d3a5 71be
00000120: ebc9 373e 7eda 30be 89be 173e 6781 eabd
00000130: fffc 06bc fefa 093e ca87 ae3d d675 31be
00000140: 7a24 74bd e5dc bd3c 3523 0a3e 2516 103e
00000150: 24a4 d6bd 6cb5 823e 9ed0 733d b7b6 52be
00000160: f73e d9bd e4d7 c6bc 91a8 a63d 79a5 18bc
00000170: 9b43 a53b 1b25 0a3e 3677 6d3d d3a3 543e
00000180: d3ae 46be fca5 f53d f30f 613e 0795 6c3b
00000190: e183 be3d 5036 113e 9660 b63b 0cfc 163e
000001a0: f9af 683d 7afa 86bb 464d 34be b699 e5bc
000001b0: bf7d ca3d 001e 083e b0bf 433d 3550 49be
000001c0: faa7 323e 8ec1 103c 6e36 053e eec9 5f3e
000001d0: db92 47bd ca5b e0bd ad09 4ebe 4900 68bc
000001e0: f07a 213d 845b 4d3d 5978 083e 75da 293e
000001f0: 3f57 4cbe d517 0b3e fc9c 3e3e bba5 2c3e
00000200: 6f98 87be 9cc3 53be b1be 9b3c 6dc5 db3d
00000210: 55f2 f9bd a7e2 313d bd4d ac3d 4f31 3abe
00000220: 903d 38be e536 50be a712 aabd 3bfb b9be
00000230: 5213 143e 33a8 ccbe b163 9cbe 0a6a 0bbe
00000240: 3d61 92bc 46d4 b63d f3b1 99be 9acc b2be
00000250: 8ca3 84bd 1223 58be c262 363e 9db4 4cbe
00000260: 5a78 d13d 7406 1ebd e9e6 8b3e 3c37 a23d
00000270: 2ad0 723d 2fce d1bd 2e7f 663e d03a e7bd
00000280: 3840 8fbe d0ee 5fbe e087 23be 353f ef3d
00000290: d8d8 74be e195 a4be cda1 2abe 7f37 0fbe
000002a0: d551 2b3e 8145 cb3c 8f5b 8abe 5a65 373e
000002b0: 5f06 253e aae0 00bf 22bd bf3d ea79 47bd
000002c0: c9ac 5dbe 9581 053e b057 4a3e 1a57 59be
000002d0: fc83 c03c edfb cebe 364d cbbe e304 9c3c
000002e0: 2d45 a2be 89ed c6be bf5c 84be 08b5 47be
000002f0: 5240 a1be 22b2 d1be 9367 7bbe d485 28be
00000300: abac 1ebd 94d7 04be eb8c a73d 962d ee3d
00000310: cc7a 06be f660 9e3d d9d4 393e 2672 5c3d
00000320: 6e3c 06be a632 843d f1a3 52be 83c4 8cbc
00000330: 61df 483e 52e1 71bd 5946 38bd 5270 903d
00000340: 5da5 533e 43b0 5c3e 8555 cebd a67f 91bd
00000350: 4251 573d 8e3d 37be e148 47bc dfa2 a43d
00000360: 00ac 633e c32f 333e db8b cbbd 7e7c 163e
00000370: 0879 353c 2e21 32be f14c f73d 6e16 23be
00000380: 422e d43c 06a6 a4bd 93fa 39be cf46 5d3d
00000390: 407a e5bc 9e36 3bbd 5bdd 74ba d932 8ebd
000003a0: 4461 123e 00c4 433e 9c78 9a3d 584c ca3d
000003b0: 8711 633d d936 29bc 5b53 6a3d a0ea 033e
000003c0: fec5 9cbd 5a6d 9ebc dbb9 093e 6fae 40be
000003d0: 553c 143e 0f6b 1d3e 059a 4e3d 9e25 063e
000003e0: 1f0e 88bc d665 223c e92c f9bd 6ab6 34be
000003f0: 2476 8b3c bcd0 8bbd 3119 e8bc 3e2c e0bd

embedding_layer.0.bias f4 [16]
0.20019218 -0.0006920586 0.04539844 0.3360157 0.14775272 0.19529805 0.21654442 0.31910157
0.33897513 0.43485147 0.23179811 0.14555289 0.29580906 0.16298226 0.118199244 0.15534778
00000000: 2eff 4c3e 446b 35ba b7f3 393d 400a ac3e
00000010: 7d4c 173e 36fc 473e d2bd 5d3e 4861 a33e
00000020: 268e ad3e daa4 de3e 7c5c 6d3e d10b 153e
00000030: 4974 973e d2e4 263e 7212 f23d 7d13 1f3e

classifier.weight f4 [2, 16]
-0.426958 -0.21558292 0.48665556 0.22378665 -0.21477318 -0.15361024 -0.26674578 0.34471926
0.22878662 0.29944736 0.093159646 0.24183445 0.29917765 -0.4826986 -0.40442497 -0.36189452
0.21821125 0.18991467 -0.43500876 -0.26622105 0.38786575 0.49754018 0.33521393 -0.37206793
0.03046838 -0.10910005 -0.034074094 -0.55558586 0.08013484 0.2230604 0.09096559 0.39666703
00000000: 3d9a dabe c5c1 5cbe eb2a f93e 5428 653e
00000010: 80ed 5bbe 014c 1dbe e792 88be 0b7f b03e
00000020: 0a47 6a3e 2a51 993e 7cca be3d 73a3 773e
00000030: d02d 993e 4524 f7be ca10 cfbe 3d4a b9be
00000040: c572 5f3e fe78 423e 78b9 debe 204e 88be
00000050: 5796 c63e 96bd fe3e 29a1 ab3e b07f bebe
00000060: d398 f93c d96f dfbd 4791 0bbd e03a 0ebf
00000070: bc1d a43d f269 643e 2b4c ba3d f117 cb3e

classifier.bias f4 [2]
0.16685218 -0.024717651
00000000: 4cdb 2a3e ac7c cabc
