o02_test/run_outputs/79Bcnn_train_weights.pth (torch, 48171 bytes, 22 tensors)

features.0.weight f4 [16, 6, 5]
1.6836975 1.2707837 0.51007587 -0.45117196 -1.3424053 -0.916633 -1.309999 -0.9108846
-0.3219446 -1.0647708 1.1804134 0.5905468 0.4059802 -0.054644283 -0.47620398 -0.022217322
0.018928064 0.011112729 0.045784377 0.14643353 -0.0029975364 0.023818525 -0.09988469 0.07381878
0.010764106 -0.29051942 -0.0774669 -0.12088526 -0.12827265 -0.37769216 -3.7298934 -4.193651
-2.9751 -1.7003083 -0.41940868 0.09455599 -0.35240754 0.026920658 -0.069159694 -0.03397955
0.5015864 0.5639795 0.5623204 0.97425336 1.4011731 -0.021635273 0.0726761 -0.062203847
0.037982963 0.011743459 -0.031951226 -0.077864245 -0.031233588 0.19768344 -0.047364935 -0.033153046
0.012734903 -0.03635132 0.14119981 -0.15483226 -3.9179626 -3.9092896 -2.8588984 -1.9477912
-1.1021109 0.69099104 0.6276281 -0.46357074 -0.80761456 -1.3190672 -0.31954846 -0.65393627
-0.27153638 0.8542695 1.6743747 0.004244917 -0.032610193 0.04929236 -0.02790817 0.098934
-0.11233245 -0.09209426 0.20943557 -0.023531806 -0.046611875 -0.09201175 0.1423953 -0.079851955
-0.08254752 -0.020556662 2.9197073 2.6615267 1.8698721 0.8067704 0.3694017 -0.3855102
0.24641271 0.16707934 0.31284145 0.81341225 0.9043848 0.54773235 -0.172052 -0.80796385
-1.389032 0.02236437 -0.0414235 -0.041173227 -0.11877573 -0.08749858 -0.09583831 -0.09177823
0.08183367 -0.07848331 -0.11483479 -0.15458214 -0.041621067 -0.22072509 -0.14631549 -0.14713898
-0.5642508 0.16063157 1.1114026 1.5742576 1.7896922 0.35010782 0.38274977 0.353865
0.4304258 0.08317012 0.7792747 0.8268579 0.6378756 0.6553742 0.43547988 -0.10154525
0.0029876106 -0.0067595025 0.07387951 0.12766504 0.12130275 -0.06971338 0.12960018 -0.08337491
-0.05233438 0.22887556 0.11559018 0.11322647 0.2726728 0.28761613 -0.1374205 0.7937807
0.38657013 0.11774743 0.7465455 0.8609704 0.28564346 -0.1270831 0.46078134 0.7225137
-1.6888696 -1.6407558 -0.71301806 -0.99112546 -1.6849177 0.045572948 -0.06105669 0.045151968
0.0027867388 -0.008170042 -0.15567477 0.22068445 0.21278507 -0.11501874 -0.13358746 -0.036118608
-0.05456006 0.11665354 0.11702813 -0.21326126 3.6628113 2.766829 1.0561368 -0.5990072
-1.3299984 -1.5775214 -1.5109702 -1.2614402 -1.1651735 -1.6718545 1.4584804 1.2886931
0.9717823 0.5837318 0.13272831 -0.0070519294 -0.0008876674 0.005754466 0.043010924 0.049125783
-0.030216275 -0.057653736 0.021415845 0.08856355 0.041519724 -0.065684184 0.032417677 -0.02858206
-0.08650842 -0.13941835 1.8050883 0.9321578 -0.1133192 -0.736284 -1.6775377 1.9632099
1.8900518 0.83763725 0.66706336 0.32138327 -0.79166025 -0.75209904 -0.6117875 -0.041091878
0.079873346 0.10866577 0.058642827 0.069374524 -0.054813605 -0.18854898 -0.3084965 0.072248645
0.19131924 0.123692125 0.0009241722 0.15091728 0.0019489906 -0.10015472 -0.0285522 0.022021536
-0.10551511 0.93859047 1.4977007 1.5186898 2.0789957 -1.7839746 -2.38599 -1.4053884
-1.5613613 -1.1690795 1.4407343 1.4830638 1.1734608 0.7711483 0.60682863 -0.07582731
00000000: 6683 d73f 0aa9 a23f 5594 023f 0300 e7be
00000010: f0d3 abbf 76a8 6abf 0cae a7bf bc2f 69bf
00000020: ecd5 a4be 694a 88bf c917 973f 132e 173f
00000030: a3dc cf3e afd2 5fbd 02d1 f3be 1a01 b6bc
00000040: 070f 9b3c 2a12 363c 6688 3b3d acf2 153e
00000050: 5172 44bb 111f c33c 5890 ccbd 4d2e 973d
00000060: ef5b 303c f6be 94be f7a6 9ebd b192 f7bd
00000070: e859 03be de60 c1be 93b6 6ec0 6432 86c0
00000080: 0a68 3ec0 b4a3 d9bf bcbc d6be 92a6 c13d
00000090: c36e b4be b688 dc3c 99a3 8dbd 242e 0bbd
000000a0: f767 003f f660 103f 3bf4 0f3f ab68 793f
000000b0: a459 b33f 753c b1bc 35d7 943d 76c9 7ebd
000000c0: 0694 1b3d a367 403c 4adf 02bd 4a77 9fbd
000000d0: 95dd ffbc 876d 4a3e bc01 42bd 7dcb 07bd
000000e0: 0ea6 503c 1fe5 14bd af96 103e 598c 1ebe
000000f0: e6bf 7ac0 cd31 7ac0 31f8 36c0 3951 f9bf
00000100: f811 8dbf cae4 303f 3cac 203f 2559 edbe
00000110: d4bf 4ebf 32d7 a8bf db9b a3be 5e68 27bf
00000120: d106 8bbe 68b1 5a3f e951 d63f f218 8b3b
00000130: 4492 05bd c9e6 493d ad9f e4bc e99d ca3d
00000140: 8e0e e6bd ea9b bcbd 4776 563e c6c5 c0bc
00000150: 18ec 3ebd a870 bcbd 13d0 113e 6c89 a3bd
00000160: ad0e a9bd 7266 a8bc 7cdc 3a40 7456 2a40
00000170: f857 ef3f 8188 4e3f 3822 bd3e 9861 c5be
00000180: 9d53 7c3e d916 2b3e c12c a03e c93b 503f
00000190: c385 673f 3038 0c3f 662e 30be b8d6 4ebf
000001a0: cdcb b1bf 7c35 b73c b0ab 29bd 42a5 28bd
000001b0: b140 f3bd 7532 b3bd e046 c4bd 3af6 bbbd
000001c0: 6998 a73d dcbb a0bd 812e ebbd c84a 1ebe
000001d0: da7a 2abd c205 62be bad3 15be 9aab 16be
000001e0: be72 10bf 9a7c 243e 7142 8e3f 4681 c93f
000001f0: a214 e53f 5541 b33e c7f7 c33e cb2d b53e
00000200: c560 dc3e 1955 aa3d 8c7e 473f f6ac 533f
00000210: d14b 233f 9bc6 273f 38f7 de3e f5f6 cfbd
00000220: cacb 433b d17e ddbb 244e 973d a0ba 023e
00000230: 946d f83d e3c5 8ebd e9b5 043e 77c0 aabd
00000240: 935c 56bd 5b5e 6a3e 8bba ec3d 48e3 e73d
00000250: c59b 8b3e 6c42 933e f6b7 0cbe 3635 4b3f
00000260: 85ec c53e 9125 f13d 9b1d 3f3f 8e68 5c3f
00000270: dc3f 923e 1222 02be 88eb eb3e a8f6 383f
00000280: e12c d8bf 4904 d2bf 5a88 36bf 66ba 7dbf
00000290: 62ab d7bf b3aa 3a3d 9416 7abd 45f1 383d
000002a0: b8a1 363b a4db 05bc 3569 1fbe 1bfb 613e
000002b0: 54e4 593e f28e ebbd 27cb 08be 1bf1 13bd
000002c0: 5f7a 5fbd 0de8 ee3d 72ac ef3d 2961 5abe
000002d0: 806b 6a40 ba13 3140 7e2f 873f 8958 19bf
000002e0: 633d aabf 39ec c9bf 7967 c1bf df76 a1bf
000002f0: 6824 95bf 54ff d5bf 7caf ba3f e5f3 a43f
00000300: bac6 783f 726f 153f eee9 073e df13 e7bb
00000310: 5ab2 68ba f68f bc3b 392c 303d 1e38 493d
00000320: 1f88 f7bc 5326 6cbd 4870 af3c ce60 b53d
00000330: 9610 2a3d 6e85 86bd 66c8 043d ed24 eabc
00000340: 542b b1bd afc3 0ebe 220d e73f e5a1 6e3f
00000350: e613 e8bd 1c7d 3cbf 8eb9 d6bf 764a fb3f
00000360: 38ed f13f 656f 563f aac4 2a3f 598c a43e
00000370: 3faa 4abf 9089 40bf 1b9e 1cbf f54f 28bd
00000380: a394 a33d 298c de3d 7633 703d 3b14 8e3d
00000390: 3b84 60bd fc12 41be 41f3 9dbe 19f7 933d
000003a0: 31e9 433e 4c52 fd3d 2544 723a 0f8a 1a3e
000003b0: 4675 ff3a eb1d cdbd 4ee6 e9bc 8266 b43c
000003c0: 4e18 d8bd 7747 703f a8b4 bf3f 6d64 c23f
000003d0: 440e 0540 4859 e4bf 0fb4 18c0 c4e3 b3bf
000003e0: b0da c7bf 66a4 95bf fb69 b83f 09d5 bd3f
000003f0: f733 963f fa69 453f 1f59 1b3f 594b 9bbd

features.0.bias f4 [16]
0.0068800156 -0.075156115 -0.007237749 0.10606572 -0.07900456 -0.14201704 0.051222924 -0.11721256
0.17799771 0.28000298 -0.0024941268 0.13596326 -0.014249907 -0.1299403 -0.051589373 0.09344213
00000000: c171 e13b 73eb 99bd a42a edbb fc38 d93d
00000010: 25cd a1bd ea6c 11be 21cf 513d 230d f0bd
00000020: 0845 363e 8d5c 8f3e 8174 23bb f439 0b3e
00000030: 7178 69bc 120f 05be 614f 53bd 965e bf3d

features.1.weight f4 [16]
0.8414084 0.90771186 0.7696368 0.79898006 0.7598268 0.8630363 0.84352297 0.7793963
0.7627957 0.93309724 0.8254321 0.835601 0.8311313 0.84737813 0.77618986 0.7292372
00000000: 8a66 573f ce5f 683f eb06 453f f589 4c3f
00000010: 0284 423f f2ef 5c3f 1ff1 573f 8486 473f
00000020: 9446 433f 76df 6e3f 854f 533f f2e9 553f
00000030: 05c5 543f c6ed 583f 61b4 463f 4aaf 3a3f

features.1.bias f4 [16]
-0.053955454 -0.33304292 -0.1909109 0.006991393 -0.0073523754 -0.20635107 -0.0060323374 -0.057286054
0.031209528 -0.028411532 -0.10659028 -0.12174007 -0.10129125 -0.23359226 -0.03047474 -0.018402455
00000000: 6500 5dbd 9a84 aabe 267e 43be 0e18 e53b
00000010: 32ec f0bb b24d 53be eaaa c5bb c8a4 6abd
00000020: 20ab ff3c 4dbf e8bc 014c dabd dc52 f9bd
00000030: c971 cfbd cf32 6fbe 29a6 f9bc bfc0 96bc

features.1.running_mean f4 [16]
0.050803438 -0.06992715 0.0040773647 0.12313118 -0.11267929 -0.13989606 0.06278068 -0.120418
0.17834437 0.29363152 0.05399415 0.1356051 -0.004600303 -0.13341604 -0.04700939 0.113484904
00000000: 4417 503d f735 8fbd 6a9b 853b 332c fc3d
00000010: 66c4 e6bd ea40 0fbe 2893 803d b69d f6bd
00000020: e89f 363e df56 963e f828 5d3d 10dc 0a3e
00000030: 23be 96bb 379e 08be eb8c 40bd c66a e83d

features.1.running_var f4 [16]
1581.2788 16.564728 65.109474 1011.17755 1565.3857 22.619377 152.81795 156.10146
72.938736 991.4536 3429.3843 370.61896 156.40291 166.01288 337.8802 795.8043
00000000: eca8 c544 9084 8441 0d38 8242 5dcb 7c44
00000010: 58ac c344 7cf4 b441 65d1 1843 f919 1c43
00000020: a2e0 9142 08dd 7744 2656 5645 3a4f b943
00000030: 2567 1c43 4c03 2643 aaf0 a843 7af3 4644

features.5.weight f4 [32, 16, 3]
-0.01899875 0.048581265 -0.075503476 -0.12981388 -0.13615042 -0.24713804 -0.11058874 -0.084358335
-0.019786034 0.012867595 -0.060263842 0.059639487 0.041054726 0.048033595 0.0499101 -0.29208675
-0.29631817 -0.3421082 -0.024086902 -0.104633965 0.00046858113 -0.13575941 -0.08819173 -0.09050683
-0.20919023 -0.14989969 -0.1559628 0.09187198 0.094596796 -0.003321662 -0.04489288 -0.0473657
0.00080668356 -0.024521146 0.030428294 0.0031304972 0.0075298315 0.15632765 0.1067138 0.027071694
-0.11659205 0.036863156 0.038808618 0.2683295 0.055680048 0.021839177 0.038661517 0.09225046
-0.060635395 -0.23988546 -0.22454321 0.098006934 0.24539033 0.05023881 0.011783202 0.07368589
-0.04278913 0.04714079 -0.06438818 -0.15323281 -0.16100171 -0.105347544 -0.064272694 0.0901793
0.021206643 -0.008508879 -0.081904896 -0.18632436 -0.15398945 -0.15462562 -0.162427 -0.09299916
-0.092294246 -0.20586139 -0.17723541 0.09761921 0.04575124 -0.020721646 -0.046807393 -0.23353393
-0.23813489 -0.05404888 -0.12094922 0.06877541 -0.05960018 -0.08730142 0.0776388 0.04815601
-0.02891221 0.1842863 -0.27998844 -0.14867474 0.12523773 -0.048337333 -0.092412785 0.047359694
-0.13730799 -0.020064503 -0.14570339 -0.020019343 -0.015732968 -0.041569617 -0.0782656 -0.16579847
-0.22363092 -0.19500726 -0.24465089 -0.21256466 -0.05154336 -0.10765857 -0.0842656 0.07909152
-0.011624762 0.008725738 0.09093813 0.10817312 -0.054730605 0.18717913 -0.050519522 0.008838117
0.19908641 -0.047925577 -0.09535261 0.0059127333 -0.077396944 -0.08495522 -0.23864815 -0.18172354
-0.25081784 0.08877611 0.032085136 0.17186043 -0.09262399 -0.12170562 -0.19178627 -0.12413003
-0.08154267 -0.05756932 -0.00993636 -0.026682975 -0.1254931 -0.070831224 -0.12756087 -0.37825543
0.11811688 -0.035983536 -0.09881369 -0.008426714 -0.18649748 -0.19130047 0.013992288 0.05319859
-0.06334457 -0.0012229235 0.12306586 -0.066874966 -0.16515775 -0.15309499 0.014826696 0.107520476
-0.036658097 -0.024627542 0.05321654 -0.012791479 -0.28624535 -0.25214195 -0.06975459 0.08523437
0.098556444 -0.12587455 -0.19563307 -0.067040995 0.09047044 -0.038398273 0.12644145 0.038356498
0.009756957 -0.04716287 -0.04276491 0.31635088 -0.03243999 -0.11895498 -0.22578917 -0.0011003803
0.060446143 0.033850696 -0.20229791 -0.086547665 -0.087687 0.03201485 -0.18155728 -0.12995219
-0.11785718 -0.03239046 0.022371242 0.2598655 -0.07426647 0.19780715 0.019848732 0.05284613
0.10444765 0.0015491542 -0.14805323 -0.029027553 -0.12639119 -0.25924337 -0.24886471 -0.15577738
-0.13668948 -0.2076417 0.04065748 0.057275537 -0.028888442 -0.027388489 -0.078996666 -0.12050837
-0.20879282 -0.16327377 -0.091704 0.12870966 0.01979457 -0.017431946 -0.115173176 -0.07638296
-0.098189905 0.050751314 0.025884986 -0.008890247 0.04333593 0.064119846 0.16083787 -0.20934948
-0.22015062 -0.17234117 -0.026296219 -0.056900516 -0.13584104 0.0020539348 0.012480528 0.091929644
-0.17158216 -0.11806687 -0.047837872 0.15323593 0.14967479 -0.048760217 -0.03933059 0.038875975
-0.18623789 -0.17096502 -0.1807804 -0.15849003 -0.08954861 -0.017669508 -0.0295864 0.12587559
00000000: 44a3 9bbc 26fd 463d 91a1 9abd eeed 04be
00000010: 046b 0bbe c111 7dbe 597c e2bd 10c4 acbd
00000020: 5216 a2bc 9bd2 523c 38d7 76bd 8948 743d
00000030: 0029 283d e0be 443d 886e 4c3d 658c 95be
00000040: 04b7 97be ce28 afbe e551 c5bc 554a d6bd
00000050: e5ab f539 8404 0bbe de9d b4bd a55b b9bd
00000060: f735 56be 4e7f 19be b6b4 1fbe 6027 bc3d
00000070: f7bb c13d 3eb0 59bb 99e1 37bd 8902 42bd
00000080: 9e77 533a 92e0 c8bc c244 f93c 0729 4d3b
00000090: cebc f63b 5b14 203e c48c da3d 75c5 dd3c
000000a0: d0c7 eebd d2fd 163d c9f5 1e3d 7c62 893e
000000b0: c310 643d 13e8 b23c 8a5b 1e3d cfed bc3d
000000c0: d25c 78bd 89a4 75be a8ee 65be dcb7 c83d
000000d0: 9a47 7b3e 36c7 4d3d 550e 413c a1e8 963d
000000e0: a843 2fbd b316 413d f3dd 83bd 10e9 1cbe
000000f0: a2dd 24be 74c0 d7bd 67a1 83bd edaf b83d
00000100: 8eb9 ad3c d368 0bbc c1bd a7bd d0cb 3ebe
00000110: 69af 1dbe 2e56 1ebe 4353 26be 5876 bebd
00000120: c404 bdbd 54cd 52be 337d 35be 95ec c73d
00000130: a765 3b3d 71c0 a9bc 1cb9 3fbd 8523 6fbe
00000140: a2d9 73be 5c62 5dbd 3ab4 f7bd 1fda 8c3d
00000150: 511f 74bd 16cb b2bd 1701 9f3d 3d3f 453d
00000160: 4dd9 ecbc 8cb5 3c3e a55a 8fbe 313e 18be
00000170: 523e 003e 5efd 45bd ea42 bdbd 3dfc 413d
00000180: 779a 0cbe 505e a4bc 4533 15be 9bff a3bc
00000190: 6de2 80bc e744 2abd b749 a0bd 13c7 29be
000001a0: 81ff 64be fcaf 47be c385 7abe 8daa 59be
000001b0: 211f 53bd 197c dcbd 7193 acbd bcfa a13d
000001c0: c975 3ebc 66f6 0e3c c53d ba3d de89 dd3d
000001d0: 332d 60bd e3ab 3f3e 8fed 4ebd c0cd 103c
000001e0: 4fdd 4b3e 9c4d 44bd 3b48 c3bd 9abf c13b
000001f0: 4a82 9ebd 01fd adbd 2e60 74be bc15 3abe
00000200: 326b 80be 40d0 b53d b46b 033d 2efc 2f3e
00000210: a5b1 bdbd cc40 f9bd 9f63 44be e337 febd
00000220: d8ff a6bd cfcd 6bbd 1dcc 22bc 4196 dabc
00000230: 4381 00be f60f 91bd 519f 02be b2aa c1be
00000240: 43e7 f13d 7963 13bd d55e cabd 3310 0abc
00000250: 32f9 3ebe 45e4 43be e93f 653c c4e6 593d
00000260: ccba 81bd 814a a0ba f409 fc3d bef5 88bd
00000270: 1d1f 29be efc4 1cbe aceb 723c b233 dc3d
00000280: cd26 16bd b3bf c9bc 96f9 593d 5a93 51bc
00000290: c08e 92be c018 81be 7fdb 8ebd 5b8f ae3d
000002a0: f6d7 c93d 42e5 00be 0954 48be ca4c 89bd
000002b0: 9148 b93d 8247 1dbd de79 013e b41b 1d3d
000002c0: a5db 1f3c db2d 41bd 422a 2fbd bef8 a13e
000002d0: ccdf 04bd ab9e f3bd 4735 67be a33a 90ba
000002e0: 6096 773d 07a7 0a3d 2f27 4fbe e73f b1bd
000002f0: 3e95 b3bd 0122 033d 27ea 39be 3012 05be
00000300: 1b5f f1bd dcab 04bd e543 b73c 170d 853e
00000310: 0519 98bd f58d 4a3e cf99 a23c 2f75 583d
00000320: a6e8 d53d fd0c cb3a 449b 17be 31cb edbc
00000330: b16c 01be 8cbb 84be 64d6 7ebe 1b84 1fbe
00000340: 54f8 0bbe 07a0 54be 7588 263d c199 6a3d
00000350: 74a7 ecbc d35d e0bc 01c9 a1bd 18cd f6bd
00000360: c9cd 55be 3d31 27be 4fcf bbbd 77cc 033e
00000370: 3928 a23c 71cd 8ebc eadf ebbd ab6e 9cbd
00000380: ca17 c9bd 9ce0 4f3d c00c d43c 66a8 11bc
00000390: 0481 313d 4451 833d afb2 243e b65f 56be
000003a0: 2a6f 61be 347a 30be 2b6b d7bc 8410 69bd
000003b0: ea19 0bbe 4f9b 063b 217b 4c3c 9c45 bc3d
000003c0: 3cb3 2fbe 0bcd f1bd a5f1 43bd e1e9 1c3e
000003d0: 5944 193e cbb8 47bd 1d19 21bd 6a3c 1f3d
000003e0: 25b5 3ebe 7411 2fbe 7f1e 39be 364b 22be
000003f0: 4365 b7bd a5bf 90bc 2e5f f2bc 88e5 003e

features.5.bias f4 [32]
-0.13116977 -0.015036892 0.017585905 -0.15393247 0.09021283 -0.0798912 0.110207915 0.124769635
0.021421712 -0.096516155 0.04171287 -0.042402897 0.013997436 0.00818019 -0.021887429 0.21490483
0.07510255 0.043447997 -0.08321004 -0.039926056 0.02013293 -0.24846949 -0.1431524 0.02990089
-0.003999208 0.2953694 0.080615036 -0.1729123 -0.0275751 -0.032093987 -0.1030998 -0.10940487
00000000: 5e51 06be 4c5d 76bc 5110 903c 79a0 1dbe
00000010: 81c1 b83d ff9d a3bd b0b4 e13d 3987 ff3d
00000020: 967c af3c 43aa c5bd 1ddb 2a3d a9ae 2dbd
00000030: 8055 653c 3406 063c 444d b3bc 0310 5c3e
00000040: 5ecf 993d 87f6 313d 076a aabd 8189 23bd
00000050: d0ed a43c c96e 7ebe 8b96 12be b6f2 f43c
00000060: ca0b 83bb a83a 973e 7f19 a53d ec0f 31be
00000070: 2de5 e1bc fc74 03bd fd25 d3bd a90f e0bd

features.6.weight f4 [32]
0.8406846 0.8081961 0.9152969 0.7419573 0.7168242 0.84250647 0.7252219 0.7968753
0.66003317 0.83101463 0.9048602 0.69019175 0.84289145 0.77167004 0.7564618 0.7761886
0.7003262 0.76793146 0.83555526 0.8126875 0.81489325 0.8065994 0.8129631 0.78774536
0.9145343 0.7793227 0.8511506 0.73705363 0.78446496 0.81620634 0.697868 0.8575685
00000000: 1b37 573f f1e5 4e3f e650 6a3f eaf0 3d3f
00000010: ca81 373f 81ae 573f 24a8 393f 0500 4c3f
00000020: eff7 283f 60bd 543f eba4 673f 68b0 303f
00000030: bcc7 573f 2b8c 453f 7ba7 413f 4cb4 463f
00000040: 9448 333f 2897 443f f3e6 553f 4a0c 503f
00000050: d89c 503f 4c7d 4e3f 5a1e 503f aea9 493f
00000060: eb1e 6a3f b181 473f 01e5 593f 8caf 3c3f
00000070: b2d2 483f e6f2 503f 7aa7 323f 9c89 5b3f

features.6.bias f4 [32]
-0.1089818 -0.20836225 -0.17429024 -0.18661252 -0.13235706 -0.21159868 -0.12326307 -0.271099
-0.39321434 -0.13703914 -0.20906608 -0.38546112 -0.25705016 -0.15588988 -0.10078287 -0.19011873
-0.33584252 -0.08832587 -0.15776506 -0.17519654 -0.25678352 -0.1926738 -0.27842253 -0.15257032
-0.13451676 -0.25726402 -0.1262259 -0.18239793 -0.20004243 -0.19270603 -0.20769514 -0.19668977
00000000: da31 dfbd ea5c 55be 2479 32be 5a17 3fbe
00000010: 9c88 07be 53ad 58be 5971 fcbd 7dcd 8abe
00000020: 6453 c9be fd53 0cbe 6b15 56be 295b c5be
00000030: 149c 83be 99a1 1fbe 4067 cebd 7cae 42be
00000040: 8df3 abbe 32e4 b4bd 2a8d 21be b966 33be
00000050: 2179 83be 484c 45be 668d 8ebe 653b 1cbe
00000060: c3be 09be 1cb8 83be 5d41 01be 86c6 3abe
00000070: ecd7 4cbe bb54 45be 09ae 54be 0b69 49be

features.6.running_mean f4 [32]
-0.42791665 -0.5086419 -0.5432616 -0.5129825 -0.28977805 -0.6143126 -0.230636 -0.07946252
-0.0022977437 -0.5769777 -0.49892092 -0.44515058 -0.33486587 -0.3816444 -0.3952053 -0.08087439
-0.07191258 -0.5098068 -0.5955074 -0.36799848 -0.36372948 -0.6673213 -0.6436982 -0.2721361
-0.4199418 -0.083518974 -0.4078868 -0.6590097 -0.14200382 -0.47841156 -0.35690647 -0.5886062
00000000: e417 dbbe 5b36 02bf 3113 0bbf d252 03bf
00000010: ca5d 94be 9743 1dbf d82b 6cbe 3fbd a2bd
00000020: be95 16bb d0b4 13bf 9072 ffbe c7ea e3be
00000030: 8a73 abbe e566 c3be 5958 cabe 79a1 a5bd
00000040: e746 93bd b382 02bf 2c73 18bf 4c6a bcbe
00000050: c03a babe 92d5 2abf 68c9 24bf 6c55 8bbe
00000060: 9d02 d7be ff0b abbd 8ad6 d0be dcb4 28bf
00000070: 7369 11be 5cf2 f4be 72bc b6be e5ae 16bf

features.6.running_var f4 [32]
0.81443983 1.187786 2.0658553 0.87635404 0.7017381 1.5615416 0.79135776 0.65055364
0.30949545 1.2274804 1.1542087 0.76283485 1.2206155 1.03528 1.0612308 0.7701196
0.595224 1.3603845 1.0444024 1.1109098 1.432832 0.83483464 1.3821362 1.0173074
1.4364086 0.96618396 1.3704473 1.4543848 0.5402299 0.98680395 0.59951717 0.9749213
00000000: 217f 503f 5f09 983f f936 0440 bd58 603f
00000010: 1ca5 333f 98e0 c73f 6c96 4a3f af8a 263f
00000020: 3076 9e3e 141e 9d3f 1cbd 933f 2549 433f
00000030: 213d 9c3f 0e84 843f 69d6 873f 8f26 453f
00000040: 9a60 183f 1421 ae3f faae 853f 4b32 8e3f
00000050: 0a67 b73f b9b7 553f d7e9 b03f 2137 823f
00000060: 3ddc b73f d557 773f d16a af3f 4829 ba3f
00000070: 824c 0a3f 2f9f 7c3f f579 193f 7194 793f

features.10.weight f4 [64, 32, 3]
0.023117214 0.021293422 0.0034003896 0.07233622 0.101638004 0.122809134 -0.14895311 -0.05758621
-0.11735828 0.24447905 0.18162303 0.09500415 0.078443095 0.060856476 0.10190084 -0.16059467
-0.15939817 -0.08167064 0.0771377 0.09869119 0.14849783 0.052290462 0.013626186 -0.009473788
-0.021550804 -0.046189714 -0.018107707 -0.14656398 -0.12229684 -0.094742306 -0.17764102 -0.14795654
-0.11295227 -0.024050653 -0.010285943 -0.011943986 -0.088860504 -0.17497219 -0.18773909 0.016715845
0.08145327 0.117197484 0.084557295 0.07152158 0.003877887 -0.00481356 0.0905526 0.10383221
-0.047130775 -0.013398332 -0.009837885 -0.06399214 -0.02700557 -0.05131294 -0.103255175 -0.08087135
-0.06973245 -0.030344265 -0.0036255352 -0.05282412 0.0040226923 -0.046573497 -0.07427124 0.0023250098
0.08022892 0.09805558 0.37621868 0.3268876 0.3087298 0.14593132 0.10813899 0.121246144
-0.080276094 -0.08319934 -0.0873325 0.27746415 0.30748644 0.23607647 -0.09250856 -0.10596122
-0.10618819 -0.12958089 -0.07862292 -0.16490614 -0.07347731 -0.08340577 -0.11409178 0.07606806
0.09531314 0.13240243 -0.08350336 -0.030202022 -0.0588305 -0.048840597 -0.09930019 -0.08097655
-0.033995528 -0.036859293 -0.052396707 0.09881512 0.13268147 0.14187726 -0.09297229 -0.06563136
-0.039300326 0.19592118 0.11845765 -0.015050664 0.05042683 0.02929915 0.056521263 -0.11208711
-0.05519341 -0.06744765 0.02154484 0.035131164 0.05937543 0.028729467 0.033425912 -0.009360884
-0.12960163 -0.08126938 -0.09822827 -0.05818002 -0.07763039 -0.07131402 -0.098047346 -0.082808845
-0.078696705 -0.055151206 -0.036537092 -0.066250786 -0.17215067 -0.11973439 -0.16476667 0.032631043
0.10698765 0.15486276 -0.017509118 -0.031360157 -0.016487438 0.11882178 0.119018205 0.18902273
-0.085367315 -0.09267572 -0.069789566 -0.004468244 -0.007135665 -0.015777124 -0.08232378 -0.049923036
-0.07103877 -0.104675435 -0.057245176 -0.08837975 -0.09401598 -0.12929235 -0.17396216 0.10129126
0.08367001 0.12695754 0.23076075 0.17712845 0.2248809 -0.0025427907 0.021079779 -0.00079728273
-0.08587682 -0.10978701 -0.09083541 0.21423736 0.22207476 0.21362706 -0.09119307 -0.09113429
-0.08096005 -0.15322687 -0.07517985 -0.12670071 -0.08781175 -0.14985344 -0.14314112 0.13299212
0.14950606 0.20391719 -0.13734522 -0.13438435 -0.14241445 -0.0523033 -0.047524016 -0.07230053
-0.26513785 -0.2132444 -0.19795944 -0.09347718 -0.05477942 -0.10616353 0.11318027 0.057426494
0.153495 0.16002434 0.13146222 -0.052032627 -0.18069176 -0.05384198 -0.106626436 0.16326271
0.14035487 0.10757442 -0.07289838 -0.07975942 -0.08474037 -0.07244643 -0.088527426 -0.1074365
0.045600295 0.03868764 0.03350831 -0.08785291 -0.04445435 0.016605452 0.14610285 0.030077938
0.088747494 0.23742896 0.14591242 0.029229987 0.010930545 0.07066805 0.012747627 -0.10606719
-0.01523645 -0.073452696 -0.17642634 -0.11106868 -0.16017988 -0.024725785 -0.04487777 -0.11983767
0.13766626 0.07291217 0.07793071 -0.023780808 0.0120525025 0.25631112 0.1341451 0.08318562
0.13475266 0.12771891 0.11726291 0.0020398165 0.120797366 0.16234355 0.11053166 -0.1081146
00000000: 5060 bd3c 8b6f ae3c 12d9 5e3b 0325 943d
00000010: 9627 d03d 5b83 fb3d 2a87 18be 85df 6bbd
00000020: 8a59 f0bd b758 7a3e 63fb 393e 8991 c23d
00000030: c6a6 a03d a444 793d 63b1 d03d ee72 24be
00000040: 4639 23be f042 a7bd 5ffa 9d3d 9b1e ca3d
00000050: d10f 183e 862e 563d 5e40 5f3c f237 1bbc
00000060: 508b b0bc 6d31 3dbd 9d56 94bc de14 16be
00000070: c476 fabd 4108 c2bd 87e7 35be eb81 17be
00000080: 8553 e7bd e005 c5bc 5f86 28bc b5b0 43bc
00000090: 7ffc b5bd e92b 33be ad3e 40be abef 883c
000000a0: f9d0 a63d 3c05 f03d 602c ad3d e879 923d
000000b0: 2624 7e3b 11bb 9dbb a473 b93d fba5 d43d
000000c0: 330c 41bd ad84 5bbc 152f 21bc 500e 83bd
000000d0: c93a ddbc 842d 52bd 7377 d3bd e19f a5bd
000000e0: e3cf 8ebd 8994 f8bc 639a 6dbb 1b5e 58bd
000000f0: cad0 833b dac3 3ebd 851b 98bd 315f 183b
00000100: 0f4f a43d 5dd1 c83d bc9f c03e d05d a73e
00000110: d511 9e3e 056f 153e fa77 dd3d e64f f83d
00000120: cb67 a4bd 6a64 aabd 62db b2bd c80f 8e3e
00000130: dd6e 9d3e 08be 713e 2175 bdbd 3202 d9bd
00000140: 3279 d9bd dab0 04be 0e05 a1bd 28dd 28be
00000150: 467b 96bd a5d0 aabd f3a8 e9bd 92c9 9b3d
00000160: 8933 c33d 8194 073e cf03 abbd 3b6a f7bc
00000170: 40f8 70bd 140d 48bd e65d cbbd 09d7 a5bd
00000180: e53e 0bbd c5f9 16bd ee9d 56bd 955f ca3d
00000190: a7dd 073e 4648 113e 4268 bebd bc69 86bd
000001a0: 61f9 20bd 909f 483e ed99 f23d 0f97 76bc
000001b0: 5d8c 4e3d c504 f03c d782 673d ed8d e5bd
000001c0: 7c12 62bd fe21 8abd ce7e b03c b2e5 0f3d
000001d0: a733 733d 0f5a eb3c 9ce9 083d 655e 19bc
000001e0: 4ab6 04be 9070 a6bd e72b c9bd 2c4e 6ebd
000001f0: affc 9ebd 160d 92bd 0ccd c8bd af97 a9bd
00000200: bd2b a1bd 3be6 61bd eba7 15bd 7eae 87bd
00000210: 4448 30be 4e37 f5bd 98b8 28be 21a8 053d
00000220: 571c db3d 5894 1e3e 486f 8fbc 8273 00bd
00000230: aa10 87bc d558 f33d d1bf f33d 2d8f 413e
00000240: 0fd5 aebd c5cc bdbd d5ed 8ebd 596a 92bb
00000250: 4cd2 e9bb 073f 81bc 5f99 a8bd 197c 4cbd
00000260: c67c 91bd 1360 d6bd eb79 6abd 7100 b5bd
00000270: 738b c0bd 3765 04be 2323 32be cb71 cf3d
00000280: 2f5b ab3d 2801 023e 8c4c 6c3e 2961 353e
00000290: 2e47 663e f3a4 26bb 80af ac3c bd00 51ba
000002a0: 30e0 afbd 03d8 e0bd ea07 babd 0a61 5b3e
000002b0: 9167 633e 0dc1 5a3e 6fc3 babd 9da4 babd
000002c0: 62ce a5bd 81e7 1cbe e5f7 99bd d5bd 01be
000002d0: a6d6 b3bd 2e73 19be 9693 12be 162f 083e
000002e0: 1e18 193e abcf 503e 3aa4 0cbe 0d9c 09be
000002f0: 18d5 11be fc3b 56bd 8ba8 42bd 4d12 94bd
00000300: 26c0 87be bd5c 5abe e1b5 4abe f770 bfbd
00000310: 6360 60bd 446c d9bd 0fcb e73d 0b38 6b3d
00000320: cb2d 1d3e 6cdd 233e 089e 063e 2a20 55bd
00000330: 4307 39be 6889 5cbd f65e dabd 572e 273e
00000340: 30b9 0f3e fa4f dc3d bf4b 95bd e858 a3bd
00000350: 5c8c adbd cb5e 94bd de4d b5bd ab07 dcbd
00000360: 60c7 3a3d ee76 1e3d 0240 093d 3aec b3bd
00000370: c415 36bd 2808 883c fc9b 153e 0266 f63c
00000380: 3fc1 b53d 9420 733e 116a 153e ba73 ef3c
00000390: 0716 333c 69ba 903d 6cdb 503c c139 d9bd
000003a0: 4ea2 79bc 5e6e 96bd 1ba9 34be fa77 e3bd
000003b0: 3206 24be bb8d cabc c1d1 37bd 746d f5bd
000003c0: 62f8 0c3e fa52 953d 239a 9f3d f8cf c2bc
000003d0: dc77 453c 363b 833e 555d 093e 395d aa3d
000003e0: 9afc 093e bfc8 023e 8927 f03d 71ae 053b
000003f0: 9c64 f73d 633d 263e 6c5e e23d 306b ddbd

features.10.bias f4 [64]
0.08504725 -0.04388973 0.0060593253 -0.09739572 -0.05435645 0.008235546 0.07272707 -0.018020257
0.12502058 0.012422619 0.06295272 -0.012939359 -0.1265556 -0.0010167088 -0.082444735 0.078517154
-0.009943701 0.049467046 -0.07276866 0.09579312 0.05194483 0.01609572 -0.0815617 0.022761611
0.05594389 0.18076068 -0.041498434 -0.0007897371 0.05677186 -0.22557509 0.06381198 0.06429952
-0.031470247 -0.046948496 0.03938008 0.003676497 -0.06401266 0.008258329 0.051802546 0.036964078
-0.017240057 0.122900546 -0.08555622 -0.11729472 0.009626356 0.00020146857 -0.11284386 0.11767389
0.024058655 0.10081581 -0.045694403 -0.034506053 0.0038441296 0.19080971 0.18399218 0.043795694
-0.053425346 0.015370958 -0.0106531335 0.103657536 0.013978511 -0.056483638 0.07840937 -0.014447899
00000000: 412d ae3d b8c5 33bd 4e8d c63b 6877 c7bd
00000010: dea4 5ebd 62ee 063c eef1 943d 389f 93bc
00000020: 6505 003e 3e88 4b3c 5bed 803d 9bff 53bc
00000030: cb97 01be 1643 85ba c9d8 a8bd 9acd a03d
00000040: e8ea 22bc f59d 4a3d bc07 95bd 2f2f c43d
00000050: 1ac4 543d 2cdb 833c d209 a7bd 8f76 ba3c
00000060: 6c25 653d 5419 393e 43fa 29bd 5c06 4fba
00000070: 9c89 683d 28fd 66be dbaf 823d 77af 833d
00000080: f2e6 00bd 114d 40bd 024d 213d 62f1 703b
00000090: 1219 83bd f14d 073c e82e 543d a567 173d
000000a0: 053b 8dbc 48b3 fb3d 1938 afbd 3738 f0bd
000000b0: ddb7 1d3c 4f41 5339 af1a e7bd 02ff f03d
000000c0: a816 c53c 8578 ce3d 0e2a 3bbd 3856 0dbd
000000d0: cbed 7b3b 9f63 433e 7268 3c3e 1d63 333d
000000e0: 89d4 5abd 78d6 7b3c 7b8a 2ebc 674a d43d
000000f0: 2006 653c 635b 67bd 1795 a03d e1b6 6cbc

features.11.weight f4 [64]
0.9712874 0.80504143 0.91197234 0.8787964 0.8308051 0.8983515 0.8047455 0.9801137
0.8343235 0.89965516 0.8382309 0.90911597 0.91316867 0.8585581 1.006785 0.8326771
0.8325775 0.8812326 0.8977104 0.85743904 0.87666196 0.7813327 0.84084946 0.8762081
0.8214156 0.86529887 0.89495903 0.88315654 0.87976855 0.8413555 0.87892956 0.8700414
0.8689237 0.891391 0.8052226 0.9051297 0.9147582 0.81514424 0.89797354 0.9088783
0.8928998 0.9233492 0.92261654 0.8460675 0.92326343 0.8224866 0.91629416 0.85166496
0.9846483 0.92352754 0.8919781 0.7870673 0.8189743 0.89106065 0.83327216 0.9483418
0.89950734 0.86584914 0.8566136 0.79316556 0.918426 0.8810452 0.8610966 0.77686363
00000000: 4ba6 783f 3217 4e3f 0577 693f cdf8 603f
00000010: a5af 543f 5dfa 653f cd03 4e3f bbe8 7a3f
00000020: 3a96 553f cd4f 663f 4d96 563f d3bb 683f
00000030: 6cc5 693f 77ca 5b3f 55de 803f 542a 553f
00000040: cd23 553f 7698 613f 59d0 653f 2081 5b3f
00000050: eb6c 603f 6b05 483f e941 573f 2d4f 603f
00000060: 4b48 523f 3a84 5d3f 091c 653f 8c16 623f
00000070: 8338 613f 1363 573f 8701 613f 08bb 5e3f
00000080: c971 5e3f 3332 643f 1123 4e3f 94b6 673f
00000090: 982d 6a3f 4bad 503f 98e1 653f 40ac 683f
000000a0: 1595 643f 9d60 6c3f 9930 6c3f e197 583f
000000b0: fe5a 6c3f 7b8e 523f 4192 6a3f b706 5a3f
000000c0: e911 7c3f 4d6c 6c3f ad58 643f 3e7d 493f
000000d0: 4da8 513f 8d1c 643f 5351 553f 87c6 723f
000000e0: 1d46 663f 4aa8 5d3f 074b 5b3f e60c 4b3f
000000f0: f71d 6b3f 2e8c 613f d470 5c3f 89e0 463f

features.11.bias f4 [64]
-0.23632516 -0.4093823 0.022795575 -0.07853512 -0.34921837 0.06254461 -0.02099496 -0.25897923
-0.3454698 -0.22035639 -0.33580458 -0.34257406 0.033107407 -0.33602798 -0.1862524 -0.11326619
-0.02312376 0.032031376 -0.23092768 -0.30185232 0.0097461715 -0.36479682 -0.041968167 -0.18148966
-0.19843803 0.016572412 0.07775275 -0.035024002 -0.04416885 -0.32313162 0.038989093 -0.2884755
-0.28510594 -0.28494307 -0.3744786 0.057644438 -0.27979454 -0.36118722 -0.14296496 0.04309107
0.025069486 0.06564962 -0.2015868 0.011492232 0.04097912 -0.3510743 0.048234552 0.0019220762
-0.25646257 -0.099098556 -0.23005696 -0.37765217 -0.0029181931 -0.2004671 -0.32117903 0.048047416
-0.24704868 -0.34864238 -0.34749967 -0.36921617 -0.23744148 -0.29970652 -0.37233245 -0.36908007
00000000: 39ff 71be 8f9a d1be c9bd ba3c 05d7 a0bd
00000010: c0cc b2be 6317 803d 9ffd abbc ed98 84be
00000020: 6be1 b0be 1ba5 61be 94ee abbe de65 afbe
00000030: a29b 073d dc0b acbe f3b8 3ebe 1bf8 e7bd
00000040: 0a6e bdbc 5533 033d 4e78 6cbe 638c 9abe
00000050: 68ae 1f3c a6c6 babe d0e6 2bbd 6dd8 39be
00000060: 5733 4bbe dec2 873c d53c 9f3d 5475 0fbd
00000070: 65ea 34bd 8271 a5be 07b3 1f3d 10b3 93be
00000080: 68f9 91be 0fe4 91be a9bb bfbe 931c 6c3d
00000090: 3b41 8fbe 88ed b8be 6865 12be 4380 303d
000000a0: 865e cd3c 4f73 863d c56c 4ebe ea49 3c3c
000000b0: b9d9 273d 03c0 b3be 9891 453d 2dee fb3a
000000c0: 104f 83be 2ff4 cabd 0d94 6bbe a05b c1be
000000d0: 283f 3fbb 3f47 4dbe 9471 a4be 5ecd 443d
000000e0: 54fa 7cbe 4181 b2be 7aeb b1be e709 bdbe
000000f0: dc23 73be 2273 99be 5ca2 bebe 10f8 bcbe

features.11.running_mean f4 [64]
-0.028647318 -0.2390507 0.053863402 -0.15811846 -0.21001697 0.3825632 0.20926383 0.58241457
-0.099374294 0.36561307 -0.146789 0.815641 0.40737572 -0.12181873 -0.10244802 0.05969903
0.273683 -0.016695868 -0.17704163 0.06001956 0.6347914 -0.26323295 0.50754464 -0.110999346
-0.039220285 0.43352252 0.32508984 0.5742704 0.93456614 -0.36124226 0.6751304 -0.17238043
0.48942894 -0.082168944 -0.20642246 0.5221961 -0.15701549 -0.2088007 0.03613728 0.6846635
0.4722746 0.40074778 -0.076831155 0.23119885 0.72596335 -0.11993637 0.38035244 0.11089627
-0.16028234 0.9439663 -0.124342784 -0.27622136 0.22171834 0.16761757 0.0311751 0.7223761
-0.09339751 -0.1019265 -0.10545843 -0.11560055 0.43783477 -0.21351121 -0.12004999 -0.1894475
00000000: c8ad eabc b5c9 74be df9f 5c3d cee9 21be
00000010: b00e 57be 53df c33e 4249 563e 1f19 153f
00000020: c084 cbbd a331 bb3e db4f 16be d9cd 503f
00000030: 8d93 d03e 197c f9bd 44d0 d1bd f886 743d
00000040: 2e20 8c3e c6c5 88bc 674a 35be 12d7 753d
00000050: b081 223f 78c6 86be 72ee 013f a053 e3bd
00000060: 73a5 20bd aaf6 dd3e 2d72 a63e 6303 133f
00000070: ba3f 6f3f bff4 b8be 59d5 2c3f 7f84 30be
00000080: 6e96 fa3e 3148 a8bd 6960 53be a5ae 053f
00000090: abc8 20be dacf 55be af04 143d 1b46 2f3f
000000a0: facd f13e d02e cd3e a759 9dbd 64bf 6c3e
000000b0: bcd8 393f 33a1 f5bd 8ebd c23e 951d e33d
000000c0: 0e21 24be c7a7 713f 6ea7 febd e36c 8dbe
000000d0: 220a 633e f1a3 2b3e ec62 ff3c a4ed 383f
000000e0: 3247 bfbd d7be d0bd 97fa d7bd fbbf ecbd
000000f0: e12b e03e afa2 5abe c5dc f5bd 87fe 41be

features.11.running_var f4 [64]
0.09427749 0.13903335 0.065792285 0.0844494 0.20576464 0.13393272 0.09006917 0.2744254
0.14749421 0.15045927 0.15668572 0.20992039 0.13229579 0.13443017 0.10201868 0.098499365
0.094671726 0.07291769 0.10717966 0.103101216 0.14044678 0.17660548 0.15188693 0.12445373
0.08574113 0.08412162 0.1111575 0.13493524 0.1988023 0.1987881 0.16405867 0.117298506
0.16941063 0.09685522 0.16318098 0.14494628 0.11249686 0.21597354 0.12820283 0.16487984
0.14705105 0.16186316 0.14431512 0.1013131 0.22988057 0.16806439 0.14249405 0.081276625
0.11789874 0.17846125 0.15981402 0.14888272 0.104873076 0.12156314 0.18385753 0.21096009
0.1129032 0.13486321 0.09763228 0.1701458 0.17161694 0.10241903 0.12095835 0.16282393
00000000: 8f14 c13d c25e 0e3e 1bbe 863d cff3 ac3d
00000010: f7b3 523e a925 093e 2f76 b83d 7c81 8c3e
00000020: b908 173e ff11 1a3e 3972 203e 5ff5 563e
00000030: 8c78 073e 10a8 093e 2bef d03d 09ba c93d
00000040: 40e3 c13d df55 953d 0281 db3d bb26 d33d
00000050: 48d1 0f3e 11d8 343e 3f88 1b3e 99e1 fe3d
00000060: 0c99 af3d f547 ac3d 8ba6 e33d 772c 0a3e
00000070: d592 4b3e 1c8f 4b3e fffe 273e 333a f03d
00000080: fb79 2d3e 085c c63d ea18 273e cc6c 143e
00000090: c164 e63d 2b28 5d3e 9a47 033e 43d6 283e
000000a0: 8d94 163e 75bf 253e 58c7 133e 3e7d cf3d
000000b0: d065 6b3e 1219 2c3e f6e9 113e 5c74 a63d
000000c0: e574 f13d 8cbe 363e 49a6 233e b674 183e
000000d0: b2c7 d63d 18f6 f83d 2645 3c3e ec05 583e
000000e0: cb39 e73d 9519 0a3e 6ff3 c73d b33a 2e3e
000000f0: 5abc 2f3e 12c1 d13d 03b9 f73d 51bb 263e

embedding_layer.0.weight f4 [16, 64]
0.13265817 -0.06586342 -0.0910518 -0.13111703 0.0076047815 -0.120029606 -0.11105127 -0.20956206
0.058680754 -0.22373608 -0.06754301 -0.34923503 -0.06177055 0.08484505 0.11279351 -0.093706995
-0.10419043 -0.11821037 -0.10482579 0.083262175 -0.14426515 0.12943901 -0.09121401 -0.17505307
-0.12929828 0.032392416 -0.07107387 -0.2212419 -0.2480532 -0.08373122 -0.10971547 -0.033792492
-0.2023219 0.024688855 -0.055345513 -0.025848396 -0.0996533 0.19638613 -0.20421116 -0.07636804
-0.12004911 0.016429957 -0.06939841 -0.06522512 -0.24363615 0.19515006 -0.122661896 -0.24991262
0.27662903 -0.3100406 0.07349752 0.0960563 -0.08368821 -0.14321744 0.03386626 -0.0415466
-0.03350643 -0.118769296 -0.044666447 0.0761156 -0.2743822 0.20727123 -0.012992134 0.06850111
0.13142474 0.080240205 0.04338407 -0.051160768 0.096052974 -0.00010240555 0.025687322 -0.27306014
0.10222799 -0.120329775 0.044317443 -0.2272946 0.02932345 0.14171238 0.08605152 -0.10218322
-0.124696516 0.010772156 0.11607477 0.1433251 0.047092486 0.24070455 0.0037591094 -0.13029371
-0.14525695 0.0045001404 -0.010181181 -0.16558275 -0.06693597 0.16684231 0.08437726 0.12275658
-0.22807238 -0.04484671 0.24203834 -0.033558026 0.13800187 0.2397859 -0.17241426 0.058510594
0.007934708 0.09374029 -0.16490796 0.013103478 0.058705095 0.20035943 -0.030479744 -0.027212098
0.15461595 -0.13092612 0.19724676 0.17832485 0.04122691 -0.11026593 0.1712486 0.07461467
0.051980276 0.05920495 0.13390116 0.17666839 -0.19684877 0.17149025 0.19230773 0.15461312
0.14020409 0.21750678 -0.08892015 -0.06650161 -0.048883036 -0.13326187 -0.08040221 -0.3137587
0.049766958 -0.18419872 0.0051376936 -0.20098719 -0.011063893 -0.16292101 0.09422904 -0.12418842
-0.14542633 -0.022196235 0.10466186 -0.035878073 -0.1740195 0.09056659 -0.112377055 -0.12534834
-0.17896956 -0.04846245 -0.030603766 -0.19298232 -0.27877936 0.19227758 -0.055857167 0.15757002
-0.28710803 0.19184767 0.11740561 -0.046012565 0.090605095 0.11414827 -0.10565173 -0.105138816
-0.04690552 -0.035656493 -0.1408874 -0.113541275 -0.1722205 -0.021872295 -0.10748607 -0.21721314
0.013812702 -0.2853109 0.2744579 0.19583242 -0.019187853 -0.16930407 0.050334763 -0.107588634
0.06785328 0.04491254 0.12706804 -0.04210715 -0.21937318 -0.07313047 0.15019721 -0.059506595
-0.02357163 -0.15449876 0.10102829 0.12350649 -0.17724973 0.08665558 0.10518969 0.07869017
-0.11633159 0.073981665 -0.20895413 0.0009191631 0.13351138 -0.039019097 -0.0016966694 0.07057938
0.16799873 0.16050518 0.019166563 -0.09323567 0.04762873 -0.141675 0.0042323126 0.084157765
0.12163028 0.14048982 0.10164263 0.113780335 -0.0022363528 -0.16311763 0.12975967 -0.01887912
0.07334589 -0.06554929 -0.19082566 0.09569016 -0.037538897 -0.1070641 0.21208031 0.092263736
0.14609794 0.0799176 0.05588682 0.051407862 0.06520289 -0.10880037 0.12158351 0.14058751
-0.0119366925 0.0022877639 -0.10027899 -0.17658758 0.12391971 0.18977752 -0.10018711 0.06663638
-0.03645009 -0.063713536 -0.16481642 -0.13253559 -0.024746088 -0.13823459 -0.16054764 -0.20661636
00000000: 8bd7 073e 67e3 86bd 5e79 babd 8b43 06be
00000010: 8831 f93b 15d2 f5bd d96e e3bd 7097 56be
00000020: 3b5b 703d 121b 65be fd53 8abd efce b2be
00000030: 1e03 7dbd 3ec3 ad3d 4900 e73d 74e9 bfbd
00000040: cb61 d5bd 4718 f2bd e7ae d6bd 5c85 aa3d
00000050: 3eba 13be a98b 043e 69ce babd 1d41 33be
00000060: c566 04be e9ad 043d 2d8f 91bd 3d8d 62be
00000070: a801 7ebe 467b abbd 81b2 e0bd ff69 0abd
00000080: 792d 4fbe 4840 ca3c fab1 62bd 04c0 d3bc
00000090: 0817 ccbd 7219 493e bb1c 51be d966 9cbd
000000a0: 4fdc f5bd 1e98 863c c120 8ebd bf94 85bd
000000b0: c17b 79be 6bd5 473e 2936 fbbd 18e9 7fbe
000000c0: 52a2 8d3e a4bd 9ebe de85 963d 2ab9 c43d
000000d0: b964 abbd 98a7 12be 59b7 0a3d c52c 2abd
000000e0: 0a3e 09bd 513d f3bd 2af4 36bd 7fe2 9b3d
000000f0: d37b 8cbe e93e 543e f6dc 54bc 4f4a 8c3d
00000100: 3594 063e fa54 a43d 7fb3 313d f48d 51bd
00000110: 6cb7 c43d 90c2 d6b8 386e d23c 8ace 8bbe
00000120: e95c d13d 756f f6bd 3586 353d eabf 68be
00000130: bb37 f03c 0d1d 113e c83b b03d 7045 d1bd
00000140: e360 ffbd b27d 303c 9cb8 ed3d d1c3 123e
00000150: 0de4 403d 417b 763e 645b 763b b76b 05be
00000160: 3dbe 14be ea75 933b f8ce 26bc 868e 29be
00000170: ba15 89bd b6d8 2a3e fccd ac3d cd67 fb3d
00000180: ce8b 69be 2fb1 37bd e6d8 773e 2474 09bd
00000190: 5d50 0d3e 6f8a 753e 5d8d 30be cea8 6f3d
000001a0: 9400 023c e9fa bf3d a2dd 28be f8af 563c
000001b0: c174 703d 062b 4d3e a8b0 f9bc e8eb debc
000001c0: a553 1e3e 7f11 06be 0efb 493e ca9a 363e
000001d0: 8cdd 283d 1bd3 e1bd cb5b 2f3e 93cf 983d
000001e0: 45e9 543d e480 723d 631d 093e 8fe8 343e
000001f0: b992 49be 249b 2f3e 51ec 443e e752 1e3e
00000200: a991 0f3e 19ba 5e3e c51b b6bd ff31 88bd
00000210: 9439 48bd cd75 08be eaa9 a4bd fba4 a0be
00000220: 70d8 4b3d 979e 3cbe 195a a83b 96cf 4dbe
00000230: 5545 35bc c4d4 26be 28fb c03d 8056 febd
00000240: a4ea 14be e1d4 b5bc f558 d63d e3f4 12bd
00000250: 2b32 32be fa7a b93d f125 e6bd 515b 00be
00000260: cc43 37be 9080 46bd c0b4 fabc 289d 45be
00000270: 2bbc 8ebe 6ae4 443e 7cca 64bd 095a 213e
00000280: d3ff 92be b773 443e 5a72 f03d ac77 3cbd
00000290: 2a8f b93d 91c6 e93d ef5f d8bd 0553 d7bd
000002a0: 0120 40bd 8b0c 12bd c944 10be 5488 e8bd
000002b0: 925a 30be 872d b3bc a821 dcbd 1f6d 5ebe
000002c0: ac4e 623c 4514 92be bf85 8c3e 4b88 483e
000002d0: d82f 9dbc 0c5e 2dbe d32b 4e3d 6e57 dcbd
000002e0: a9f6 8a3d 36f6 373d 201e 023e 8c78 2cbd
000002f0: 5da3 60be 6ec5 95bd 4ccd 193e 30bd 73bd
00000300: 4a19 c1bc ec34 1ebe ece7 ce3d f8f0 fc3d
00000310: f480 35be 7b78 b13d b16d d73d 5028 a13d
00000320: 423f eebd b383 973d 12f8 55be fef3 703a
00000330: 35b7 083e 7dd2 1fbd c762 deba ec8b 903d
00000340: dc07 2c3e 785b 243e 3203 9d3c 58f2 bebd
00000350: 5816 433d 4013 11be 36af 8a3b e85a ac3d
00000360: 4c19 f93d 90dc 0f3e 032a d03d aa05 e93d
00000370: c68f 12bb 4f08 27be b8df 043e 62a8 9abc
00000380: 5f36 963d b53e 86bd cd67 43be 34f9 c33d
00000390: 63c2 19bd 6c44 dbbd 952b 593e c5f4 bc3d
000003a0: b39a 153e d7ab a33d 94e9 643d 0d91 523d
000003b0: 1889 853d bad2 debd c600 f93d 2cf6 0f3e
000003c0: 1e92 43bc 4fee 153b 125f cdbd 60d3 34be
000003d0: 9ec9 fd3d 0a55 423e e62e cdbd a878 883d
000003e0: b14c 15bd 3e7c 82bd a3c5 28be 69b7 07be
000003f0: 4fb8 cabc 5e8d 0dbe 9a66 24be 3d93 53be

embedding_layer.0.bias f4 [16]
0.25152904 0.05993146 0.24353673 0.39672127 0.17147179 0.1721411 0.15086645 0.15702146
0.39600033 0.4901221 0.32028076 0.24989985 0.23746295 0.21311961 0.05366952 0.14201637
00000000: 6ac8 803e b17a 753d b161 793e 0d1f cb3e
00000010: 4d96 2f3e c245 303e bc7c 1a3e 3cca 203e
00000020: 8ec0 ca3e 49f1 fa3e d7fb a33e bfe5 7f3e
00000030: 7d29 733e 073c 5a3e 92d4 5b3d bd6c 113e

classifier.weight f4 [2, 16]
-0.42857015 -0.20965712 -0.2426466 0.26247826 -0.16079192 -0.0049174586 -0.21180807 0.6025246
0.25212651 0.3191304 0.13039303 0.18274848 0.28062397 -0.4435957 -0.43819574 -0.34486535
0.22181772 0.18423538 0.29380754 -0.30452394 0.33222127 0.3455743 0.27962095 -0.6295738
0.0046666814 -0.13059728 -0.071866035 -0.49350637 0.09509517 0.18641952 0.12772274 0.3793094
00000000: 8c6d dbbe 5bb0 56be 5a78 78be 8d63 863e
00000010: a3a6 24be a222 a1bb 37e4 58be 0d3f 1a3f
00000020: ba16 813e 0f65 a33e c085 053e 6b22 3b3e
00000030: f2ad 8f3e fa1e e3be 315b e0be 3192 b0be
00000040: 2f24 633e 33a8 3c3e f16d 963e 90ea 9bbe
00000050: e818 aa3e 1def b03e 7a2a 8f3e c02b 21bf
00000060: f6ea 983b 4bbb 05be 802e 93bd deac fcbe
00000070: 42c1 c23d c2e4 3e3e c0c9 023e d734 c23e

classifier.bias f4 [2]
0.18610552 -0.04531786
00000000: 7292 3e3e 389f 39bd
