o02_test/run_outputs/93Acnn_train_weights.pth (torch, 48171 bytes, 22 tensors)

features.0.weight f4 [16, 6, 5]
0.45852426 0.20743744 -0.102005795 -0.14537269 -0.5319659 -0.24502186 -0.59093004 -0.34490627
-0.2294402 -0.66156834 0.6633108 0.35639903 0.3081558 0.048237998 0.036469117 -0.074138075
0.03737393 0.021133652 0.016454283 0.10060943 -0.056683846 0.031700622 -0.06686291 0.086795025
-0.08102719 -0.24263291 -0.09015125 -0.10493223 -0.066095635 -0.41450724 -1.293516 -1.5483876
-0.97526306 -0.5761915 -0.053864986 0.41524404 0.036589645 0.020493262 -0.0071534417 0.21122245
-0.16013548 -0.1778916 0.106684625 0.4489277 0.702419 -0.025712948 0.08487265 -0.03757184
0.0793285 0.011622033 -0.19094774 -0.04942515 -0.06283366 0.22688816 0.08737516 0.020490726
0.012665915 -0.05769633 0.06330125 -0.240279 -1.3102851 -1.5239867 -1.1596212 -0.83620435
-0.34742156 0.6295909 0.68635416 0.08743478 -0.10604311 -0.28456852 -0.32196575 -0.44842052
-0.20642632 -0.06076387 0.35639682 0.01889306 -0.042876836 0.043100357 -0.017587442 0.16523185
-0.22299291 -0.17127317 0.13364673 -0.034900595 0.11519443 -0.12479053 0.06360724 -0.14205629
-0.09695975 0.03309545 0.8725061 0.5007594 0.19782178 -0.10085662 -0.39826995 -0.2853003
0.15692733 0.16637696 0.35591453 0.36490184 0.21987477 0.08122326 -0.29645705 -0.649195
-0.68297476 -0.049463548 -0.100598134 -0.071309365 -0.10268943 -0.07243393 0.047314692 -0.09153152
-0.054496847 -0.23358245 -0.12333354 -0.13833663 -0.04980957 -0.23426944 -0.13234794 -0.11135972
-0.42796636 -0.057290517 0.4629536 0.59533656 0.68729913 0.009907059 0.14609991 0.22070248
0.4046938 0.09992361 0.37810183 0.564545 0.4331398 0.71702355 0.5976331 -0.05965637
-0.026718771 -0.036444068 0.10856495 0.039386872 -0.068977855 -0.24120113 0.045012213 -0.1981037
-0.15765274 0.10320272 0.12388751 0.14791232 0.18478908 -0.03351234 0.03853055 0.3097605
0.35663468 0.2532744 0.6349502 0.2511097 0.15872392 -0.07556355 0.16435802 0.2624518
-0.51339144 -0.2852258 0.059986044 -0.2759016 -0.3256978 0.026911885 -0.12005023 0.116062775
0.05151835 -0.063428074 -0.09810284 0.088788904 0.16301589 -0.024839366 -0.060298696 -0.11229627
-0.12910794 0.11830412 0.18418391 -0.1433481 0.7708944 0.45459768 -0.0012603425 -0.40022182
-0.44144017 -0.30579838 -0.4139255 -0.44778344 -0.4868401 -0.44197625 0.6046513 0.4698179
0.314357 0.15002789 -0.14141123 -0.07018702 0.011044912 0.035285622 0.060074784 0.052550133
-0.07468385 -0.03568707 0.09586169 0.03439652 -0.017237222 -0.20298566 -0.054792184 -0.114592284
-0.18980487 -0.24048196 0.498342 0.14073886 -0.42706418 -0.6710206 -0.84440166 1.056952
0.81664586 0.3075036 0.20652197 0.061799686 -0.7059591 -0.60574454 -0.68715286 -0.46900186
-0.47056067 0.2091605 0.15068106 0.041309997 -0.1327305 -0.15075748 -0.2759873 0.07617554
0.069275945 0.12357761 0.10978762 0.07262205 0.025590219 -0.059671186 -0.012947616 -0.010575643
0.45728406 0.46475163 0.43874684 0.2688634 0.31540293 -0.9679583 -1.0063423 -0.5532921
-0.54633015 -0.44092107 0.9412852 0.9530766 0.88516253 0.61522394 0.48313293 -0.14149119
00000000: b1c3 ea3e 7b6a 543e 6ae8 d0bd 94dc 14be
00000010: eb2e 08bf 03e7 7abe 3147 17bf 8e97 b0be
00000020: 5ff2 6abe 8b5c 29bf bdce 293f ef79 b63e
00000030: 99c6 9d3e 3595 453d a460 153d b4d5 97bd
00000040: 6815 193d 7b20 ad3c 22cb 863c 510c ce3d
00000050: 522d 68bd 83d8 013d 6cef 88bd 97c1 b13d
00000060: 95f1 a5bd c374 78be 38a1 b8bd b6e6 d6bd
00000070: 265d 87bd 4b3a d4be ef91 a5bf 9131 c6bf
00000080: d7aa 79bf 4981 13bf 88a1 5cbd de9a d43e
00000090: 06df 153d 7ce1 a73c 6b67 eabb b34a 583e
000000a0: 8efa 23be 3729 36be 787d da3d dad9 e53e
000000b0: bbd1 333f f6a3 d2bc b6d1 ad3d eee4 19bd
000000c0: fb76 a23d 576a 3e3c ce87 43be 0772 4abd
000000d0: efae 80bd 5f55 683e bff1 b23d 2bdc a73c
000000e0: b384 4f3c fd52 6cbd 16a4 813d b30b 76be
000000f0: 6cb7 a7bf ff11 c3bf 786e 94bf 7d11 56bf
00000100: 3de1 b1be df2c 213f e8b4 2f3f 0211 b33d
00000110: 212d d9bd f7b2 91be b2d8 a4be 6097 e5be
00000120: 6c61 53be 89e3 78bd a579 b63e 9ec5 9a3c
00000130: 9f9f 2fbd 008a 303d 8a13 90bc 8a32 293e
00000140: 4158 64be 3c62 2fbe b0da 083e edf3 0ebd
00000150: 0feb eb3d 2d92 ffbd 8344 823d 3477 11be
00000160: d592 c6bd 188f 073d 8f5c 5f3f c531 003f
00000170: cb91 4a3e ea8d cebd 0aea cbbe e212 92be
00000180: 8fb1 203e b95e 2a3e 6e3a b63e 6ad4 ba3e
00000190: da26 613e 6158 a63d 38c9 97be a531 26bf
000001a0: 6fd7 2ebf 4a9a 4abd 6506 cebd a50a 92bd
000001b0: d64e d2bd 3e58 94bd 0dcd 413d e174 bbbd
000001c0: 1638 5fbd 3d30 6fbe 4c96 fcbd 1ea8 0dbe
000001d0: 1f05 4cbd 54e4 6fbe 3886 07be 9110 e4bd
000001e0: 681e dbbe 76a9 6abd 4108 ed3e fa67 183f
000001f0: d6f2 2f3f 3851 223c 379b 153e d5ff 613e
00000200: 0734 cf3e c0a4 cc3d 9096 c13e 0586 103f
00000210: 80c4 dd3e db8e 373f 7cfe 183f 3d5a 74bd
00000220: 53e1 dabc 6046 15bd 4d57 de3d 2154 213d
00000230: 4344 8dbd 6efd 76be ba5e 383d b2db 4abe
00000240: b86f 21be f35b d33d bcb8 fd3d 5476 173e
00000250: 5939 3d3e 3c44 09bd 36d2 1d3d ee98 9e3e
00000260: d298 b63e 2fad 813e 198c 223f 7391 803e
00000270: 8688 223e 10c1 9abd 784d 283e 1560 863e
00000280: 9f6d 03bf 1e09 92be edb3 753d f942 8dbe
00000290: ddc1 a6be 5076 dc3c e5dc f5bd 52b2 ed3d
000002a0: e804 533d 94e6 81bd 24ea c8bd f5d6 b53d
000002b0: a3ed 263e ed7b cbbc c4fb 76bd 96fb e5bd
000002c0: df34 04be 6e49 f23d b59a 3c3e d8c9 12be
000002d0: 5659 453f 07c1 e83e 1432 a5ba e0e9 ccbe
000002e0: 7204 e2be 9b91 9cbe 0bee d3be df43 e5be
000002f0: 1b43 f9be b64a e2be 6dca 1a3f f98b f03e
00000300: 67f3 a03e e9a0 193e 1bce 10be 36be 8fbd
00000310: b8f5 343c a887 103d fa10 763d cf3e 573d
00000320: d9f3 98bd 9b2c 12bd 2253 c43d 5ee3 0c3d
00000330: 1335 8dbc 79db 4fbe c56d 60bd 5caf eabd
00000340: 355c 42be e740 76be af26 ff3e d91d 103e
00000350: 28a8 dabe 02c8 2bbf b52a 58bf 344a 873f
00000360: b40f 513f 1d71 9d3e 7f7a 533e ab21 7d3d
00000370: bcb9 34bf 1312 1bbf 40e9 2fbf 0321 f0be
00000380: 54ed f0be 2c2e 563e 234c 1a3e ac34 293d
00000390: 81ea 07be 2b60 1abe 354e 8dbe ec01 9c3d
000003a0: 8ce0 8d3d 4216 fd3d 55d8 e03d dfba 943d
000003b0: 94a2 d13c c669 74bd 3d22 54bc 7645 2dbc
000003c0: 2321 ea3e edf3 ed3e 6da3 e03e 77a8 893e
000003d0: 7e7c a13e 1dcc 77bf d3cf 80bf 8da4 0dbf
000003e0: 4bdc 0bbf 68c0 e1be 11f8 703f d4fc 733f
000003f0: 039a 623f 517f 1d3f 335d f73e 11e3 10be

features.0.bias f4 [16]
0.07529447 -0.030915255 -0.13852805 0.03464442 -0.11207095 -0.1205874 0.11611927 -0.038227256
0.17327087 0.21662517 0.025843304 0.066686586 0.034197856 -0.0023740819 -0.05830035 0.061720964
00000000: fd33 9a3d fd41 fdbc 4cda 0dbe 4fe7 0d3d
00000010: 7485 e5bd 87f6 f6bd f1cf ed3d 2f94 1cbd
00000020: eb6d 313e fdd2 5d3e 56b5 d33c fa92 883d
00000030: 0d13 0c3d 7c96 1bbb 59cc 6ebd 1fcf 7c3d

features.1.weight f4 [16]
0.9986062 0.9493903 0.9063108 0.9424426 0.93914104 0.9282812 1.0232687 0.9175894
0.90199715 0.98829013 0.979542 0.9781513 0.92976487 0.9736242 0.9585029 0.8479415
00000000: a8a4 7f3f 3e0b 733f fc03 683f eb43 713f
00000010: 8c6b 703f d6a3 6d3f 78fa 823f 24e7 6a3f
00000020: 49e9 663f 9500 7d3f 44c3 7a3f 2068 7a3f
00000030: 1205 6e3f 703f 793f 7260 753f b212 593f

features.1.bias f4 [16]
-0.008268109 -0.16872314 -0.07647072 -0.012459085 -0.014678338 -0.18619946 -0.05351773 0.039139774
-0.016335798 0.006176428 0.005301389 -0.24208404 -0.013433254 -0.06260368 -0.0346943 -0.04356711
00000000: f676 07bc c2c5 2cbe ae9c 9cbd 3121 4cbc
00000010: 697d 70bc 12ab 3ebe 6835 5bbd 0751 203d
00000020: a7d2 85bc a263 ca3b 46b7 ad3b e1e4 77be
00000030: 2717 5cbc 5c36 80bd 9c1b 0ebd 6d73 32bd

features.1.running_mean f4 [16]
0.04101921 -0.038005702 -0.14836302 0.006085451 -0.0924468 -0.12220822 0.08595425 -0.039516617
0.16478129 0.2028134 -0.018552907 0.058423433 0.020854484 -0.012014418 -0.06527869 0.060662705
00000000: c203 283d deab 1bbd 7aec 17be 7768 c73b
00000010: bf54 bdbd 4e48 fabd c808 b03d 2ddc 21bd
00000020: 6dbc 283e 51ae 4f3e 44fc 97bc 694d 6f3d
00000030: 06d7 aa3c 1fd8 44bc d5b0 85bd 7579 783d

features.1.running_var f4 [16]
1113.5046 119.81838 238.9359 1098.6272 541.03815 26.888903 860.4931 290.4692
206.03976 996.0823 1708.2266 79.97273 426.305 194.4296 458.34125 867.7763
00000000: 2630 8b44 03a3 ef42 97ef 6e43 1254 8944
00000010: 7142 0744 791c d741 8f1f 5744 0f3c 9143
00000020: 2e0a 4e43 4405 7944 4087 d544 0af2 9f42
00000030: 0a27 d543 fa6d 4243 ae2b e543 aff1 5844

features.5.weight f4 [32, 16, 3]
0.015710007 0.10004099 -0.05734719 -0.04700738 -0.05458313 -0.07160797 0.01715681 0.08432583
0.10164036 0.05308799 -0.12907776 -0.042249028 -0.03726903 -0.029624676 -0.0012158634 -0.21950637
-0.16909412 -0.20547403 -0.10038257 -0.17069675 0.084621355 -0.11903072 0.0012660305 -0.09707467
-0.13649598 -0.02497213 -0.07626006 0.056554433 0.079584055 -0.11335214 0.055336766 0.022518208
0.03693175 0.0075541926 0.015214795 -0.086034074 0.044045568 0.15560189 0.144173 -0.06185417
-0.16491248 -0.07377445 -0.06394226 0.17731735 -0.03441724 -0.0054866183 0.025811777 0.07120446
-0.013981807 -0.12728241 -0.0832872 0.08336974 0.1313584 -0.035037164 0.0019521671 0.09112555
-0.062763974 0.13786155 0.00837049 -0.034105808 -0.01728883 -0.008261771 0.00454036 0.06990082
0.05450145 0.1322941 -0.105900876 -0.2643441 -0.2072981 -0.21313083 -0.16073519 -0.11120334
-0.12157756 -0.1737358 -0.12698618 -0.04137988 -0.0016510518 0.04362837 -0.0021473262 -0.119235195
-0.14196871 0.101916954 -0.023593819 -0.023224762 0.0018358806 -0.14183062 -0.009820205 0.107848935
-0.021775471 0.095456555 -0.10494174 -0.05994042 0.025550477 0.0067585153 0.025763215 0.09869679
-0.112973765 0.010376908 -0.025777603 -0.056769576 0.03736079 -0.029325401 0.012307243 0.025214488
-0.027602 -0.14757013 -0.21922289 -0.18855521 -0.104810484 -0.1878149 -0.1820756 0.015062483
0.07412055 0.07113905 0.034016334 -0.030618923 -0.010664389 0.15321755 -0.0328538 -0.072794236
0.085068114 0.023462512 -0.002724873 -0.05131421 -0.12446627 -0.14875323 -0.15132718 -0.11003205
-0.028519044 0.029976081 -0.040903006 0.0088343 -0.12684809 -0.021983562 -0.08989655 -0.10449154
-0.016777514 -0.011121487 -0.11865238 -0.11799497 -0.18445912 -0.0673535 -0.14557074 -0.1073266
-0.04374693 -0.18033916 -0.013867216 -0.00012105189 -0.2345216 -0.091095515 -0.025898142 -0.078211114
-0.019550633 -0.059407026 0.12563758 -0.018402463 0.020883111 -0.0028977147 0.006146697 0.10876131
-0.011105025 -0.14646311 -0.12921658 -0.015902733 -0.22597909 -0.08779218 -0.121752255 0.05179789
-0.019803759 -0.053411055 -0.052996248 -0.016736867 0.072520405 -0.062095456 -0.093182914 -0.03137804
0.035032764 0.09161044 -0.10997397 0.22234906 -0.11824539 -0.08581087 -0.12562016 -0.032593545
0.10783867 0.036372997 -0.0444783 0.06117327 -0.033146203 0.1287635 -0.1019993 -0.022610983
-0.17007294 -0.118503936 -0.025842845 0.1858661 0.017702512 0.1395559 -0.0022357588 0.047714066
0.1084071 0.07814902 -0.16641316 0.109566435 0.00051440514 -0.061922994 -0.07077064 -0.10752547
0.007878443 -0.1564272 0.014255365 -0.019406676 -0.16633649 0.02498903 -0.012771655 0.00436541
-0.045023076 -0.1856332 0.03325937 0.0354175 -0.049467646 -0.12350648 -0.053621728 -0.065961614
-0.045431472 0.10708373 0.106584854 0.18775257 -0.0014353312 0.065973654 0.078002624 -0.1821977
-0.20108888 -0.078469336 0.04786153 -0.12832838 -0.18246438 0.065418184 0.057505753 0.07049452
-0.16978881 -0.15366884 0.012602205 0.10364311 0.051787857 0.027157648 -0.006724295 0.087772936
-0.11524502 -0.07642959 0.10397971 -0.08299701 -0.0983181 0.013414707 -0.009808194 0.053717803
00000000: 46b2 803c 4ae2 cc3d e3e4 6abd cf8a 40bd
00000010: 8f92 5fbd 33a7 92bd 708c 8c3c 05b3 ac3d
00000020: d228 d03d cb72 593d f62c 04be 510d 2dbd
00000030: 69a7 18bd 73af f2bc 9b5d 9fba 47c6 60be
00000040: 0227 2dbe c967 52be 6095 cdbd 21cb 2ebe
00000050: f64d ad3d 61c6 f3bd eff0 a53a 16cf c6bd
00000060: 9ac5 0bbe 5a92 ccbc 3c2e 9cbd 9fa5 673d
00000070: f7fc a23d 2b25 e8bd cea8 623d 1b78 b83c
00000080: bf45 173d 2989 f73b 7a47 793c a232 b0bd
00000090: 2069 343d 1a56 1f3e 16a2 133e cc5a 7dbd
000000a0: d1de 28be 0f17 97bd 29f4 82bd ae92 353e
000000b0: 18f9 0cbd 17c9 b3bb 3873 d33c a5d3 913d
000000c0: f313 65bc 5256 02be 7b92 aabd c1bd aa3d
000000d0: d182 063e 2183 0fbd dcdf ff3a 08a0 ba3d
000000e0: 668a 80bd 942b 0d3e 6124 093c 88b2 0bbd
000000f0: 4ea1 8dbc 615c 07bc 4dc7 943b 2928 8f3d
00000100: ea3c 5f3d 1b78 073e 8fe2 d8bd 1c58 87be
00000110: f445 54be f83e 5abe c497 24be 94be e3bd
00000120: a8fd f8bd cce7 31be aa08 02be f37d 29bd
00000130: 1b68 d8ba a9b3 323d 28ba 0cbb 9531 f4bd
00000140: 3f60 11be d6b9 d03d d347 c1bc db41 bebc
00000150: eea1 f03a 0c3c 11be ede4 20bc e7df dc3d
00000160: 7962 b2bc ba7e c33d b2eb d6bd 1684 75bd
00000170: 3c4f d13c 8976 dd3b 610d d33c 8b21 ca3d
00000180: ca5e e7bd e803 2a3c 8d2b d3bc 3787 68bd
00000190: a107 193d d33b f0bc 52a4 493c 9d8e ce3c
000001a0: 971d e2bc a01c 17be f77b 60be 9e14 41be
000001b0: e1a6 d6bd 8d52 40be 0772 3abe a2c8 763c
000001c0: 84cc 973d 5ab1 913d b654 0b3d 89d4 fabc
000001d0: b0b9 2ebc 10e5 1c3e b591 06bd 2515 95bd
000001e0: 3138 ae3d 7434 c03c c893 32bb d92e 52bd
000001f0: 2ce8 febd c452 18be 83f5 1abe 7c58 e1bd
00000200: c5a0 e9bc 6690 f53c e989 27bd bdbd 103c
00000210: 77e4 01be df16 b4bc af1b b8bd a9ff d5bd
00000220: ff70 89bc e636 36bc 0500 f3bd 59a7 f1bd
00000230: dae2 3cbe a2f0 89bd 7f10 15be 0cce dbbd
00000240: fb2f 33bd d4aa 38be 5233 63bc 3ddd fdb8
00000250: 6e26 70be 4990 babd 5728 d4bc 262d a0bd
00000260: a628 a0bc c854 73bd 23a7 003e c3c0 96bc
00000270: 0f13 ab3c 96e7 3dbb 3b6a c93b 40be de3d
00000280: daf1 35bc 6dfa 15be 5a51 04be 7346 82bc
00000290: 1067 67be 63cc b3bd 3f59 f9bd 062a 543d
000002a0: 7e3b a2bc 8dc5 5abd 9812 59bd c11b 89bc
000002b0: 9485 943d ce57 7ebd afd6 bebd 4286 00bd
000002c0: 847e 0f3d 419e bb3d 083a e1bd 79af 633e
000002d0: a42a f2bd 9cbd afbd 92a2 00be cf80 05bd
000002e0: 85da dc3d dafb 143d e12e 36bd d390 7a3d
000002f0: 50c4 07bd 94da 033e 02e5 d0bd ab3a b9bc
00000300: 9a27 2ebe 31b2 f2bd 60b4 d3bc af53 3e3e
00000310: dc04 913c bee7 0e3e cf85 12bb d36f 433d
00000320: 8b04 de3d 980c a03d 3668 2abe 5e64 e03d
00000330: 25d9 063a f7a2 7dbd 33f0 90bd 5036 dcbd
00000340: 9614 013c 742e 20be 568f 693c c0fa 9ebc
00000350: 1d54 2abe cbb5 cc3c 3440 51bc b70b 8f3b
00000360: 1e6a 38bd a116 3ebe fa3a 083d f111 113d
00000370: 969e 4abd f7f0 fcbd 75a2 5bbd e216 87bd
00000380: 5a16 3abd b74e db3d 2949 da3d 3642 403e
00000390: b921 bcba 321d 873d d7bf 9f3d 0992 3abe
000003a0: 3eea 4dbe 88b4 a0bd 740a 443d 8468 03be
000003b0: f1d7 3abe f8f9 853d 278b 6b3d 6e5f 903d
000003c0: 1edd 2dbe 5d5b 1dbe 7b79 4e3c d742 d43d
000003d0: 811f 543d b779 de3c 7a57 dcbb 4cc2 b33d
000003e0: 9505 ecbd 1e87 9cbd 50f3 d43d 56fa a9bd
000003f0: 005b c9bd 5cc9 5b3c 8cb2 20bc 3307 5c3d

features.5.bias f4 [32]
-0.069119096 -0.09237745 0.00270932 -0.11779165 0.0040122014 -0.07857977 0.092511036 0.21027942
0.032240584 -0.06575379 -0.1101999 -0.00042535542 0.007624393 0.010143076 0.07098107 0.22688977
0.09281826 -0.04873199 0.008349286 0.15042658 0.03979382 -0.18710366 -0.038382687 -0.054093402
0.033737656 0.07125875 -0.029154325 -0.18768029 0.078342475 -0.045727015 -0.026345395 0.005717962
00000000: 508e 8dbd 6330 bdbd d98e 313b c03c f1bd
00000010: c978 833b 6eee a0bd 6d76 bd3d 7d53 573e
00000020: b40e 043d eca9 86bd 7cb0 e1bd 3d02 dfb9
00000030: 0bd6 f93b 252f 263c 865e 913d cb55 683e
00000040: 8017 be3d 329b 47bd 72cb 083c 6d09 1a3e
00000050: d8fe 223d 1a98 3fbe 2a37 1dbd 0b91 5dbd
00000060: 7f30 0a3d 1cf0 913d 0dd5 eebc 432f 40be
00000070: 0572 a03d 404c 3bbd 4cd2 d7bc be5d bb3b

features.6.weight f4 [32]
0.90089804 0.9844784 1.133954 0.81811243 0.9162354 0.8963811 1.0324007 1.0174416
0.8638098 1.0744941 1.0566174 0.9112759 0.8423746 0.91579556 1.0043778 0.9657371
0.88851386 0.9205866 1.0280931 0.87831515 0.97534394 0.9664174 0.976395 0.95544964
1.0780616 0.8078712 0.9702204 0.9255168 0.9851286 1.0054615 0.87173706 1.0624282
00000000: 41a1 663f c706 7c3f 6825 913f d16f 513f
00000010: 678e 6a3f 3b79 653f b525 843f 873b 823f
00000020: a422 5d3f 0689 893f 3d3f 873f 6149 693f
00000030: dda5 573f 9471 6a3f 748f 803f 8c3a 773f
00000040: a575 633f 90ab 6b3f 8e98 833f 43d9 603f
00000050: 24b0 793f 2167 773f 06f5 793f 5998 743f
00000060: ecfd 893f a6d0 4e3f 5d60 783f abee 6c3f
00000070: 6331 7c3f f6b2 803f 292a 5f3f a6fd 873f

features.6.bias f4 [32]
-0.03118923 -0.03544249 -0.014549823 -0.056166247 -0.057348832 -0.106032364 -0.021243498 -0.038295057
-0.14464422 -0.005467546 -0.057968084 -0.08260796 -0.114552625 -0.24333698 -0.06007474 -0.09348696
-0.11401379 -0.07333727 -0.022407014 -0.027883563 -0.011868155 -0.064354986 -0.12417636 -0.061883565
-0.010606595 -0.16326539 -0.054632023 -0.06416186 -0.021090634 -0.075792514 -0.16125344 -0.005180278
00000000: 8e80 ffbc 252c 11bd 6162 6ebc 940e 66bd
00000010: 9ce6 6abd 7f27 d9bd d806 aebc 47db 1cbd
00000020: 9d1d 14be 1a29 b3bb f16f 6dbd 5d2e a9bd
00000030: 919a eabd 542d 79be ee10 76bd 1776 bfbd
00000040: 1080 e9bd da31 96bd ea8e b7bc 126c e4bc
00000050: a672 42bc 8ccc 83bd 2d50 febd 9f79 7dbd
00000060: 49c7 2dbc 0b2f 27be d4c5 5fbd 4b67 83bd
00000070: 44c6 acbc 1b39 9bbd 9f1f 25be 52bf a9bb

features.6.running_mean f4 [32]
-0.28620446 -0.41119516 -0.59860754 -0.42390376 -0.20403844 -0.33028904 -0.13081296 -0.031128688
-0.004718947 -0.5827924 -0.6186155 -0.013047715 -0.32356268 -0.16069452 -0.17149338 0.006277199
0.27959037 -0.39228216 -0.64094216 0.024631105 -0.2999105 -0.5279446 -0.35329613 -0.3256653
-0.4630746 0.1749419 -0.5268043 -0.69523454 0.20947139 -0.29851618 -0.2519484 -0.48443744
00000000: 6489 92be 2c88 d2be 583e 19bf ea09 d9be
00000010: 74ef 50be a51b a9be d5f3 05be 9701 ffbc
00000020: 66a1 9abb e231 15bf 965d 1ebf 15c6 55bc
00000030: 02aa a5be 1b8d 24be f69b 2fbe f6b0 cd3b
00000040: 7826 8f3e 35d9 c8be c914 24bf 2cc7 c93c
00000050: de8d 99be 6127 07bf 3be3 b4be 9abd a6be
00000060: 1d18 edbe f823 333e a6dc 06bf e4fa 31bf
00000070: ab7f 563e 1dd7 98be 61ff 80be 2f08 f8be

features.6.running_var f4 [32]
0.37057838 0.7785117 1.3575867 0.822134 0.4893169 0.45111334 0.45350543 0.5306355
0.21795544 1.0868691 1.2902508 0.3261604 1.2184963 0.47403923 0.58452845 0.6239926
0.26580837 0.6128145 1.5016174 0.64321506 1.281032 0.85947734 0.59227604 0.68728864
1.3969456 0.3673889 1.3225056 1.3316047 0.26601654 0.61274236 0.5027055 0.94330764
00000000: 73bc bd3e 8b4c 473f 67c5 ad3f 6077 523f
00000010: bf87 fa3e 54f8 e63e dd31 e83e bad7 073f
00000020: b62f 5f3e 871e 8b3f f026 a53f 7ffe a63e
00000030: b0f7 9b3f 45b5 f23e a8a3 153f fbbd 1f3f
00000040: 0918 883e 69e1 1c3f 0035 c03f bea9 243f
00000050: dbf8 a33f b506 5c3f 679f 173f 26f2 2f3f
00000060: 1dcf b23f 661a bc3e dd47 a93f 0672 aa3f
00000070: 5233 883e afdc 1c3f 4fb1 003f 9c7c 713f

features.10.weight f4 [64, 32, 3]
0.02724739 -0.011386953 0.01569017 0.040618088 0.15308632 0.13182293 -0.099605195 -0.03170812
-0.122401595 0.07904622 0.026421467 0.0043982947 0.09463209 0.053114872 0.09349887 0.07424903
-0.013600524 0.10085327 0.058244534 0.060285997 0.11644468 0.12118046 0.015312151 0.01702183
-0.024766196 -0.08158934 -0.024302946 -0.09090358 -0.058784083 -0.0028182887 -0.11131632 -0.11014813
-0.033677455 -0.051949233 -0.027072227 -0.081867285 -0.03543802 -0.07098825 -0.07648353 0.002916615
0.03402471 0.09660817 0.10177598 0.15745805 0.10012783 0.035668273 0.097045004 0.05514748
-0.108239874 -0.06576982 -0.024605593 -0.016924381 0.017231386 0.0029963062 -0.021033516 -0.017193306
-0.019431168 -0.042920053 0.017048154 0.020253658 -0.08839892 -0.10052616 -0.036034804 0.029530117
0.1351036 0.13524488 0.1388797 0.08586515 0.023948058 0.1625388 0.049114127 0.11861997
-0.0231552 -0.11594973 -0.074090034 -0.02914459 0.05874601 -0.047704354 -0.00055190496 0.00091136247
-0.01498445 -0.012913525 -0.030023796 -0.07908874 -0.043613527 -0.07455332 -0.10744616 -0.061827082
0.015259261 0.015438842 -0.02118923 -0.006917433 -0.0078035523 0.038383268 -0.075726114 -0.05045631
0.013873576 0.023055233 0.08425645 0.049095236 0.12723193 0.054842476 -0.092526264 -0.055025607
-0.009958707 0.07898578 0.05890223 0.016461821 -0.04854954 0.011545598 0.10510794 0.019689769
0.10617294 0.09443257 0.013987151 0.13404249 0.053049956 0.073969945 0.08073873 0.03461099
-0.055130985 0.018134374 -0.011403876 -0.021365665 -0.11014427 -0.11062992 -0.09267204 -0.070522666
-0.066214055 -0.043791514 0.0035303892 -0.07571355 -0.002351734 0.020528883 0.031835105 0.077834
0.076130934 -0.028082334 0.026736706 0.069968835 0.062435724 0.08955766 0.07326429 0.13714416
-0.017503997 -0.050576627 -0.037698653 -0.027643777 -0.052298624 0.014953388 -0.09324961 -0.015541185
-0.07500405 -0.06465499 0.028345501 0.055191953 -0.029862553 -0.050760094 -0.085287996 0.0245167
0.010235269 0.049414057 0.11018878 0.14079544 0.09015427 0.016854212 0.09645191 0.036321614
-0.0601528 -0.078323275 -0.049773283 -0.045554597 0.07423777 0.04713774 -0.117013596 -0.13356264
-0.060784657 -0.069957115 -0.014717399 -0.069304325 -0.028655998 -0.095206924 -0.0994112 0.04609461
0.17847013 0.11416944 -0.11231439 -0.05626299 -0.055331845 -0.06396572 -0.028666502 -0.019839646
-0.07823125 -0.07150164 -0.03414237 -0.022600975 0.022257878 -0.020275261 0.21986432 0.10254957
0.19769365 -0.018660558 0.021477064 -0.017412893 9.917072e-05 0.01944403 -0.04369223 0.08317805
0.07246922 0.045433283 0.03740268 -0.037178297 -0.056632336 0.0417969 0.06064354 -0.020707712
-0.04832946 -0.03240879 -0.092473455 0.11446378 0.09723489 0.042348396 0.16052008 0.04612988
0.05579951 0.09959225 0.109461434 0.011485884 -0.07422677 -0.037201777 -0.05882176 0.026151227
0.028283304 -0.07929486 -0.04461748 -0.040735878 -0.033204447 0.006787102 -0.012827606 -0.070759386
0.06409996 -0.007027351 -0.011479718 0.04961456 0.07799313 0.14744963 0.15827383 0.09838999
0.13628426 -0.032644313 -0.04604707 -0.07354249 -0.02944104 -0.039510038 0.016999884 -0.05366657
00000000: eb35 df3c 5890 3abc ac88 803c 275f 263d
00000010: a9c2 1c3e 97fc 063e cffd cbbd 60e0 01bd
00000020: b0ad fabd fce2 a13d d571 d83c 921f 903b
00000030: 78ce c13d fb8e 593d 567c bf3d e00f 983d
00000040: bbd4 5ebc 298c ce3d d291 6e3d 73ee 763d
00000050: 8c7a ee3d 762d f83d d1df 7a3c 5d71 8b3c
00000060: 7ae2 cabc 5018 a7bd f916 c7bc a82b babd
00000070: 94c7 70bd 0ab3 38bb d0f9 e3bd 5895 e1bd
00000080: 5ff1 09bd b8c8 54bd 93c6 ddbc 09aa a7bd
00000090: 7527 11bd 4a62 91bd 66a3 9cbd ae24 3f3b
000000a0: 7f5d 0b3d 81da c53d ed6f d03d af3c 213e
000000b0: d20f cd3d e518 123d 88bf c63d 53e2 613d
000000c0: deac ddbd 54b2 86bd ab91 c9bc 00a5 8abc
000000d0: d628 8d3c ad5d 443b 7b4e acbc fad8 8cbc
000000e0: 1d2e 9fbc f0cc 2fbd 92a8 8b3c 00eb a53c
000000f0: 7e0a b5bd a9e0 cdbd 3b99 13bd 25e9 f13c
00000100: 9958 0a3e a27d 0a3e 7b36 0e3e 11da af3d
00000110: b82e c43c 9270 263e e52b 493d 07ef f23d
00000120: f9af bdbc 0d77 edbd 84bc 97bd a3c0 eebc
00000130: a89f 703d a465 43bd b7ad 10ba 80e8 6e3a
00000140: 5781 75bc 4093 53bc 77f4 f5bc 47f9 a1bd
00000150: 19a4 32bd 69af 98bd bb0c dcbd 653e 7dbd
00000160: fb01 7a3c 32f3 7c3c 0995 adbc a2ab e2bb
00000170: f1b4 ffbb c637 1d3d 4b16 9bbd 47ab 4ebd
00000180: ff4d 633c 54de bc3c a58e ac3d 1618 493d
00000190: 1649 023e 81a2 603d 697e bdbd 8862 61bd
000001a0: d829 23bc 4cc3 a13d 7743 713d f1da 863c
000001b0: e2db 46bd bf29 3d3c d542 d73d 704c a13c
000001c0: 3371 d93d dd65 c13d 5d2a 653c 6f42 093e
000001d0: e94a 593d 8e7d 973d 595a a53d 41c4 0d3d
000001e0: 07d1 61bd 8a8e 943c 53d7 3abc 0c07 afbc
000001f0: 5293 e1bd f191 e2bd d7ca bdbd 306e 90bd
00000200: 3c9b 87bd bb5e 33bd 1a5e 673b b50f 9bbd
00000210: 8d1f 1abb 302c a83c 8765 023d 6f67 9f3d
00000220: 89ea 9b3d ec0c e6bc f006 db3c d24b 8f3d
00000230: 9abc 7f3d 026a b73d 970b 963d 856f 0c3e
00000240: 8b64 8fbc 7029 4fbd e769 1abd 3475 e2bc
00000250: 1537 56bd 0eff 743c a7f9 bebd 74a0 7ebc
00000260: b99b 99bd d669 84bd d334 e83c f510 623d
00000270: 50a2 f4bc d1e9 4fbd 79ab aebd 3fd7 c83c
00000280: d4b1 273c 6566 4a3d a8aa e13d ae2c 103e
00000290: cda2 b83d d811 8a3c 9488 c53d f9c5 143d
000002a0: c862 76bd f467 a0bd 12df 4bbd 7597 3abd
000002b0: f909 983d 8113 413d d3a4 efbd a5c4 08be
000002c0: 55f9 78bd ad45 8fbd 3f21 71bc 6def 8dbd
000002d0: fcbf eabc d9fb c2bd 1998 cbbd b4cd 3c3d
000002e0: e0c0 363e abd1 e93d 1605 e6bd 0574 66bd
000002f0: a5a3 62bd 7600 83bd 03d6 eabc c186 a2bc
00000300: b537 a0bd 746f 92bd dfd8 0bbd ae25 b9bc
00000310: 2756 b63c 4e18 a6bc 1d24 613e 8205 d23d
00000320: 3470 4a3e 07de 98bc abf0 af3c 7ca5 8ebc
00000330: e0f9 cf38 1649 9f3c a0f6 32bd 4159 aa3d
00000340: be6a 943d 4018 3a3d 8d33 193d 4548 18bd
00000350: 4ff7 67bd 3a33 2b3d 5c65 783d 38a3 a9bc
00000360: 1df5 45bd 14bf 04bd b962 bdbd fc6b ea3d
00000370: 1623 c73d 8375 2d3d 605f 243e aff2 3c3d
00000380: 078e 643d 06f7 cb3d 512d e03d 4a2f 3c3c
00000390: 3404 98bd e460 18bd 16ef 70bd 193b d63c
000003a0: 63b2 e73c 5865 a2bd d2c0 36bd aada 26bd
000003b0: 6301 08bd 5766 de3b e12a 52bc 4cea 90bd
000003c0: d746 833d b145 e6bb 6d15 3cbc a338 4b3d
000003d0: ddba 9f3d 09fd 163e 8912 223e b180 c93d
000003e0: 1a8e 0b3e 0bb6 05bd da9b 3cbd 729d 96bd
000003f0: 562e f1bc 47d5 21bd 5743 8b3c 7ad1 5bbd

features.10.bias f4 [64]
0.062135343 -0.08959188 0.060124308 -0.042642858 -0.09261652 0.059816174 0.08409307 -0.040174153
0.052769598 0.03260357 0.02090185 -0.012144906 -0.013969339 -0.02252246 -0.040295552 0.10737259
0.028232068 0.073371425 -0.11371196 0.08482506 0.031219004 0.026818272 -0.0022905944 0.031960357
0.07050169 0.0311057 -0.08646491 0.0117838 0.0021289606 -0.13794439 0.09367318 0.05632313
-0.07630321 -0.074992366 0.040682487 0.045512114 0.013531004 -0.015227292 0.038294833 -0.073701866
0.06293082 0.07262868 -0.04445068 -0.0013882747 0.10100586 -0.04032732 -0.061381303 0.058156457
-0.008612119 0.06464703 -0.03903659 -0.0031424582 0.020429429 0.06782356 0.054437194 0.051462125
-0.063234724 -0.027465172 -0.03940351 0.04971704 0.076956645 -0.07058418 -0.06923889 0.06312979
00000000: a181 7e3d f37b b7bd e844 763d 47aa 2ebd
00000010: bbad bdbd ce01 753d fd38 ac3d a78d 24bd
00000020: ef24 583d 528b 053d 5b3a ab3c 6efb 46bc
00000030: a8df 64bc 0681 b8bc f30c 25bd 29e6 db3d
00000040: f046 e73c c243 963d d1e1 e8bd c3b8 ad3d
00000050: ffbe ff3c feb1 db3c cc1d 16bb dde8 023d
00000060: 3163 903d 62d1 fe3c 8414 b1bd d710 413c
00000070: 0886 0b3b 4b41 0dbe b9d7 bf3d 15b3 663d
00000080: db44 9cbd 9995 99bd aea2 263d e96a 3a3d
00000090: 25b1 5d3c e47b 79bc 0bdb 1c3d 01f1 96bd
000000a0: e0e1 803d 58be 943d eb11 36bd c5f6 b5ba
000000b0: 29dc ce3d 432e 25bd f66a 7bbd 7735 6e3d
000000c0: d819 0dbc a965 843d d5e4 1fbd b3f1 4dbb
000000d0: 9e5b a73c 14e7 8a3d 89f9 5e3d f3c9 523d
000000e0: 3581 81bd a4fe e0bc 9365 21bd 18a4 4b3d
000000f0: 729b 9d3d 708e 90bd 1fcd 8dbd 314a 813d

features.11.weight f4 [64]
0.9838715 0.97033405 1.0747331 1.0274634 0.9788085 1.1025506 1.0222603 1.0992206
0.9966688 1.0615948 0.96694994 1.053016 1.0618334 0.97013533 0.95579743 0.9900288
1.0125637 1.0306243 0.9959377 0.964759 1.0461166 0.95310116 1.0388505 1.0616333
0.94037586 1.0298699 1.0719471 1.0141854 1.0811535 0.9706315 1.0612004 1.0029126
1.0367279 0.9621491 0.9602164 1.0364367 0.99019206 0.9662064 1.0594349 0.98436767
1.0294437 1.0838518 1.0365802 1.0990409 1.0439086 0.9678953 1.0177095 1.0060465
1.0089463 1.0512251 1.0876632 0.9322882 1.0330255 0.95964414 0.96889484 1.0665445
0.9581247 0.9624271 0.99495053 0.97088796 1.0915266 0.96551764 0.97278786 0.9273802
00000000: 01df 7b3f d067 783f db90 893f ec83 833f
00000010: 3293 7a3f 6120 8d3f 6dd9 823f 43b3 8c3f
00000020: b025 7f3f 57e2 873f 088a 773f 3ac9 863f
00000030: 28ea 873f ca5a 783f 24af 743f 8772 7d3f
00000040: b09b 813f 7feb 833f c6f5 7e3f 72fa 763f
00000050: 26e7 853f 70fe 733f 0ef9 843f 9ae3 873f
00000060: 79bc 703f c7d2 833f 9035 893f d4d0 813f
00000070: 3d63 8a3f 4e7b 783f 6ad5 873f 715f 803f
00000080: 80b3 843f 674f 763f bed0 753f f5a9 843f
00000090: 3a7d 7d3f 4d59 773f 909b 873f 85ff 7b3f
000000a0: d0c4 833f a8bb 8a3f a9ae 843f 5fad 8c3f
000000b0: cc9e 853f fdc7 773f 4e44 823f 22c6 803f
000000c0: 2725 813f 8b8e 863f 8c38 8b3f 71aa 6e3f
000000d0: 2e3a 843f 3dab 753f 7e09 783f 8884 883f
000000e0: a947 753f 9f61 763f 14b5 7e3f 1d8c 783f
000000f0: 25b7 8b3f 2a2c 773f a008 793f ca68 6d3f

features.11.bias f4 [64]
-0.100565456 -0.13884053 0.08021494 0.035480376 -0.111702695 0.12384852 0.05135378 -0.0037899257
-0.09457279 0.017919306 -0.1299814 -0.0219472 0.058772437 -0.12343226 -0.12632543 0.041182343
0.05993818 0.07196121 -0.10655731 -0.13784868 0.08071742 -0.12088988 0.07716821 -0.008742153
-0.024837127 0.044630278 0.08824259 0.086609066 0.09606324 -0.109961174 0.09769629 -0.094687745
-0.018890735 -0.15176353 -0.1378287 0.074482314 -0.11941385 -0.12026493 0.09065824 -0.10791779
0.03720547 0.109017126 -0.06895811 0.10078472 0.05477941 -0.12059726 -0.041290794 0.032862622
-0.09486669 0.063256346 0.106185466 -0.12111296 0.048848696 -0.0716473 -0.11325372 0.09013024
-0.13616231 -0.11260877 -0.120478846 -0.14792444 -0.03124183 -0.13128279 -0.13445821 -0.13772543
00000000: 43f5 cdbd 362c 0ebe bb47 a43d df53 113d
00000010: 62c4 e4bd 4ba4 fd3d 5758 523d 6760 78bb
00000020: 61af c1bd 82cb 923c d819 05be 9dca b3bc
00000030: 5ebb 703d 0dca fcbd 745b 01be d1ae 283d
00000040: bd81 753d 6660 933d b83a dabd 3428 0dbe
00000050: 2d4f a53d 1d95 f7bd 5e0a 9e3d 3f3b 0fbc
00000060: 3b77 cbbc 3dce 363d 88b8 b43d 1860 b13d
00000070: cebc c43d 5333 e1bd fe14 c83d a6eb c1bd
00000080: bec0 9abc e667 1bbe f722 0dbe 2f8a 983d
00000090: 408f f4bd 764d f6bd 07ab b93d 0104 ddbd
000000a0: c364 183d 5f44 df3d e939 8dbd 3868 ce3d
000000b0: 6060 603d b2fb f6bd 8920 29bd f59a 063d
000000c0: 7849 c2bd 8b8c 813d c477 d93d 120a f8bd
000000d0: 9215 483d d2bb 92bd 91f1 e7bd 3496 b83d
000000e0: 226e 0bbe 6d9f e6bd 9dbd f6bd 8179 17be
000000f0: deee ffbc ff6e 06be 6aaf 09be e507 0dbe

features.11.running_mean f4 [64]
0.025951082 -0.17736894 0.8459612 0.71968615 -0.37853175 0.94180787 0.63570863 0.4737614
0.04486308 -0.21674106 -0.029753944 0.0068383254 0.88926536 -0.17466635 -0.16538271 0.097653575
0.056088276 0.41344097 0.11848046 0.27657583 0.70600593 -0.08404838 0.7347107 -0.1365208
-0.20257598 0.1184887 0.82050467 0.6122572 1.0250762 -0.31793445 0.7028328 0.023019461
0.25550103 -0.10609967 -0.067297354 0.48342144 0.047960337 0.05418096 0.8497252 -0.26948622
0.8197799 0.53345096 0.06339829 0.5164456 0.8180472 0.023951154 -0.15897623 -0.006548756
-0.052183356 0.87191683 0.8977741 0.17096406 0.56946784 -0.16601844 -0.0016939157 1.0516862
-0.044417556 0.04655579 -0.08284158 -0.080127254 0.85543156 0.1370848 -0.34498608 -0.14473857
00000000: 5d97 d43c 34a0 35be ea90 583f 5a3d 383f
00000010: eace c1be 521a 713f cdbd 223f db90 f23e
00000020: 59c2 373d 5ef1 5dbe 8bbe f3bc 0814 e03b
00000030: e5a6 633f bcdb 32be 165a 29be 99fe c73d
00000040: d2bc 653d 89ae d33e e2a5 f23d 599b 8d3e
00000050: cebc 343f 8f21 acbd 0016 3c3f 1ccc 0bbe
00000060: 1470 4fbe 34aa f23d 980c 523f e3bc 1c3f
00000070: b235 833f 4ec8 a2be daec 333f 4f93 bc3c
00000080: 08d1 823e c94a d9bd 32d3 89bd 0483 f73e
00000090: 0f72 443d dbec 5d3d 9787 593f 19fa 89be
000000a0: 18dd 513f 3e90 083f f6d6 813d c735 043f
000000b0: 8b6b 513f 3635 c43c aaca 22be f296 d6bb
000000c0: 37be 55bd f135 5f3f 86d4 653f 3411 2f3e
000000d0: a5c8 113f bd00 2abe 6106 deba a79d 863f
000000e0: 2fef 35bd 49b1 3e3d d9a8 a9bd c219 a4bd
000000f0: 90fd 5a3f f55f 0c3e 04a2 b0be 5936 14be

features.11.running_var f4 [64]
0.33340544 0.26294002 0.25543672 0.36159712 0.39166445 0.25993752 0.40492383 0.52318513
0.33277714 0.47282228 0.28301457 0.43090978 0.22788334 0.277552 0.28066728 0.23973687
0.17833044 0.1824972 0.32302254 0.28430507 0.18150295 0.3708103 0.20801826 0.37330863
0.2269639 0.18117385 0.31622127 0.319796 0.4122929 0.3357642 0.52734965 0.3542509
0.5398683 0.3462724 0.31304666 0.20056702 0.30721453 0.3220834 0.3621066 0.45215058
0.2468026 0.54315513 0.3053577 0.3491868 0.24085885 0.29722768 0.43240464 0.30869928
0.3224656 0.35372105 0.42751956 0.2934659 0.26677915 0.23469397 0.36620805 0.27023157
0.3187455 0.33104867 0.2613628 0.35178694 0.41708827 0.28303352 0.39854008 0.35970953
00000000: 1eb4 aa3e 13a0 863e 9ac8 823e 4223 b93e
00000010: 3e88 c83e 8816 853e 2d52 cf3e 76ef 053f
00000020: c461 aa3e c315 f23e 49e7 903e 35a0 dc3e
00000030: 405a 693e 4c1b 8e3e 9fb3 8f3e 957d 753e
00000040: 419c 363e 8ce0 3a3e 3663 a53e 6f90 913e
00000050: e9db 393e d9da bd3e bd02 553e 4f22 bf3e
00000060: 3969 683e a385 393e c1e7 a13e 4dbc a33e
00000070: 0e18 d33e 49e9 ab3e 6300 073f 6060 b53e
00000080: cf34 0a3f 9e4a b13e a747 a03e 7161 4d3e
00000090: 394b 9d3e 1ee8 a43e 0966 b93e 4880 e73e
000000a0: d2b9 7c3e 370c 0b3f d857 9c3e 9dc8 b23e
000000b0: b4a3 763e 3a2e 983e 2464 dd3e d50d 9e3e
000000c0: 361a a53e ed1a b53e d8e3 da3e 2a41 963e
000000d0: 4797 883e 9e53 703e 9f7f bb3e cb5b 8a3e
000000e0: 9c32 a33e 367f a93e 58d1 853e 6b1d b43e
000000f0: 988c d53e c5e9 903e 720d cc3e d92b b83e

embedding_layer.0.weight f4 [16, 64]
0.07638795 -0.01005115 -0.02367123 -0.1152518 -0.0017432823 -0.16762982 -0.06577739 -0.10923288
0.09003129 -0.12052455 0.008816303 -0.12530954 -0.13076751 0.06773938 0.1360711 -0.058162086
-0.19183393 -0.08476973 -0.025594398 0.050946433 -0.12268037 0.12192559 0.046557255 -0.22384328
-0.039332878 -0.05885799 -0.049906734 -0.07252879 -0.10580296 -0.030315839 -0.15527867 0.053642336
-0.16308221 0.07147513 -0.0046053575 -0.002957056 -0.023809403 0.15088451 -0.117391504 0.09176162
-0.06910779 -0.019059464 0.15296632 0.017373957 -0.10867756 0.12759201 0.1563148 -0.21235232
0.10787257 -0.06435741 0.012500652 0.100013986 -0.05433427 0.005084891 -0.028091375 -0.09987906
0.036972273 -0.025178932 0.047626533 0.09261987 -0.112874486 0.0900029 0.006770929 0.07332796
0.08128025 0.01111465 -0.02520116 0.018548323 -0.014466703 -0.16338462 0.007031641 -0.20580265
0.09005469 -0.04013606 -0.05852639 -0.11053785 -0.004887929 0.11861049 0.12710066 -0.20736064
-0.16728562 -0.07009477 0.12254984 0.14188625 -0.071060576 0.13812886 -0.068590745 -0.13261883
-0.13433093 -0.17349502 -0.12665544 -0.18942359 -0.018982245 0.09044515 0.013375931 0.12402361
-0.20666204 0.002884541 0.14051694 -0.17165269 0.13694665 0.07558292 -0.13704574 0.082837194
-0.04092889 -0.03335618 0.019743567 0.00020822923 0.053529464 0.12748621 0.041847672 -0.1984315
0.1763071 -0.037520148 0.08484683 0.047618665 -0.022539606 0.09202247 0.091059394 -0.06250019
0.06436791 0.042520165 0.1247181 0.06546061 -0.13333395 0.114550225 0.151409 0.08027147
-0.0468014 -0.072807156 0.06250018 0.117103815 -0.04310676 0.013014254 0.078370206 -0.22217841
-0.111771144 -0.21184528 -0.055696577 -0.1981631 0.18246979 -0.06920039 0.02838126 0.055418245
-0.089861624 0.13134755 -0.072173096 -0.17565046 -0.0025808418 0.032597683 0.15721293 -0.12067411
0.032365862 -0.07721577 0.22342949 0.10744065 0.10827564 0.025540857 0.2585207 -5.2643598e-05
-0.075718425 0.06667315 -0.039266426 0.047301523 -0.061544158 -0.13987865 0.14783745 -0.11571575
0.12676844 0.02016155 -0.19137917 0.12684248 0.11606727 -0.14149652 0.028344186 -0.100346856
-0.057892885 0.18858533 0.22565329 -0.04854133 0.019500762 -0.16113697 -0.15480839 0.028821517
-0.05721283 -0.19604188 -0.082797796 -0.022319026 -0.021750996 -0.15235755 0.06334066 -0.03852486
0.017479496 -0.11516847 0.025795212 0.090115 -0.03364918 0.077833384 0.12730563 -0.015314883
-0.049385827 0.057226676 -0.122998886 -0.08500208 0.14556079 -0.013792592 0.017143765 0.03283125
0.13400784 0.07465773 -0.09728175 -0.121169835 0.057119425 -0.09978957 0.029407931 0.031895075
0.10047004 0.07673702 0.02067096 0.13431068 0.0422757 -0.08350147 0.14875478 -0.066192985
0.041710094 -0.04875045 -0.08881862 0.036205295 -0.071708895 0.0063102227 0.19099665 -0.021000702
0.14731956 0.13353404 -0.07966226 0.12022974 0.049166225 -0.029183185 0.0095703835 0.04495649
-0.052364063 0.029571587 0.1323788 -0.11613624 0.1328802 0.03242671 -0.030174002 0.041045263
-0.013123509 -0.026082944 -0.14307238 -0.04678117 -0.091367096 -0.15304038 -0.05278437 -0.076108925
00000000: 4971 9c3d 94ad 24bc 2bea c1bc 2309 ecbd
00000010: d97e e4ba 27a7 2bbe 4cb6 86bd 7db5 dfbd
00000020: 5362 b83d 93d5 f6bd 4172 103c 2551 00be
00000030: ebe7 05be f2ba 8a3d 3956 0b3e 5e3b 6ebd
00000040: 1d70 44be c19b adbd 58ab d1bc 35ad 503d
00000050: d93f fbbd 20b4 f93d d2b2 3e3d 2c37 65be
00000060: 831b 21bd 1315 71bd 016b 4cbd f989 94bd
00000070: 39af d8bd ec58 f8bc 5f01 1fbe 11b8 5b3d
00000080: 06ff 26be 8e61 923d 8ae8 96bb 2bcb 41bb
00000090: f00b c3bc 7881 1a3e f56a f0bd 84ed bb3d
000000a0: 6388 8dbd 9822 9cbc 34a3 1c3e d453 8e3c
000000b0: 5792 debd 7ba7 023e fd10 203e e372 59be
000000c0: 4bec dc3d d1cd 83bd 89cf 4c3c 22d4 cc3d
000000d0: 9d8d 5ebd 289f a63b e21f e6bc 658d ccbd
000000e0: 3d70 173d 0c44 cebc 0a14 433d 7daf bd3d
000000f0: bd2a e7bd 7153 b83d abde dd3b f82c 963d
00000100: 4276 a63d 391a 363c aa72 cebc a7f2 973c
00000110: c005 6dbc 4c4e 27be ae69 e63b eebd 52be
00000120: 986e b83d b665 24bd 5eb9 6fbd ab61 e2bd
00000130: ec2a a0bb 0eea f23d ad26 023e 5956 54be
00000140: ec4c 2bbe d98d 8fbd 69fb fa3d a14a 113e
00000150: 3588 91bd a771 0d3e 4e79 8cbd 3bcd 07be
00000160: 0c8e 09be aea8 31be f7b1 01be 42f8 41be
00000170: a780 9bbc 4f3b b93d b926 5b3c 1700 fe3d
00000180: 379f 53be 910a 3d3b ace3 0f3e b9c5 2fbe
00000190: be3b 0c3e 38cb 9a3d b855 0cbe 8ca6 a93d
000001a0: 0da5 27bd 7da0 08bd 43bd a13c 1c58 5a39
000001b0: b641 5b3d bf8b 023e 7768 2b3d a131 4bbe
000001c0: d989 343e baae 19bd 2dc4 ad3d ca0b 433d
000001d0: fba4 b8bc 4776 bc3d 597d ba3d 1a00 80bd
000001e0: 53d3 833d a029 2e3d 346c ff3d 3610 863d
000001f0: b288 08be 4f99 ea3d f60a 1b3e 5e65 a43d
00000200: d3b2 3fbd eb1b 95bd 1800 803d 20d4 ef3d
00000210: b790 30bd bd39 553c 8f80 a03d bd82 63be
00000220: 45e8 e4bd f8ed 58be 1822 64bd 45eb 4abe
00000230: 5cd9 3a3e efb8 8dbd d17f e83c 3efe 623d
00000240: 5f09 b8bd f97f 063e 7dcf 93bd b7dd 33be
00000250: 5723 29bb 2685 053d 6dfc 203e fd23 f7bd
00000260: 1192 043d 4d23 9ebd b3ca 643e d809 dc3d
00000270: 9ebf dd3d 0f3b d13c d35c 843e a2cd 5cb8
00000280: 4312 9bbd ef8b 883d d5d5 20bd 3ebf 413d
00000290: ba15 7cbd 593c 0fbe b362 173e 61fc ecbd
000002a0: 96cf 013e d629 a53c e7f8 43be ffe2 013e
000002b0: adb4 ed3d 77e4 10be 1132 e83c a782 cdbd
000002c0: 1721 6dbd 831c 413e a811 673e 46d3 46bd
000002d0: 10c0 9f3c 1701 25be 1786 1ebe 1a1b ec3c
000002e0: 0058 6abd 34bf 48be e491 a9bd 64d6 b6bc
000002f0: 252f b2bc 9e03 1cbe bfb8 813d 3ecc 1dbd
00000300: 2931 8f3c 72dd ebbd 7b50 d33c 378e b83d
00000310: b9d3 09bd 1c67 9f3d 685c 023e 46eb 7abc
00000320: cb48 4abd 8566 6a3d d7e6 fbbd 9215 aebd
00000330: e30d 153e 53fa 61bc 1571 8c3c 107a 063d
00000340: 5a39 093e 27e6 983d a73b c7bd e427 f8bd
00000350: 0ff6 693d 795e ccbd e7e8 f03c 69a4 023d
00000360: 3dc3 cd3d 4c28 9d3d 2556 a93c bd88 093e
00000370: 4929 2d3d d202 abbd 2c53 183e 3090 87bd
00000380: 34d8 2a3d 8dae 47bd 89e6 b5bd 014c 143d
00000390: 1ddc 92bd fcc5 ce3b a094 433e aa09 acbc
000003a0: f0da 163e 26bd 083e f825 a3bd 033b f63d
000003b0: 8662 493d 9311 efbc 19cd 1c3c 4c24 383d
000003c0: b37b 56bd 1d40 f23c 4f8e 073e d6d8 edbd
000003d0: bf11 083e dfd1 043d 782f f7bc 141f 283d
000003e0: fc03 57bc e6ab d5bc 9181 12be 9d9d 3fbd
000003f0: ac1e bbbd 9eb6 1cbe 6c34 58bd ffde 9bbd

embedding_layer.0.bias f4 [16]
-0.029890485 -0.06584629 -0.03615908 0.16049261 0.024041906 -0.04389015 0.025323143 0.12409401
0.19129357 0.21193592 0.09333273 0.11571867 0.09394079 0.05856185 -0.12077543 -0.048233084
00000000: e4dc f4bc 6bda 86bd 8b1b 14bd 2d58 243e
00000010: 88f3 c43c 28c6 33bd 7b72 cf3c 0025 fe3d
00000020: 76e2 433e bb05 593e 3b25 bf3d e9fd ec3d
00000030: 0764 c03d 8dde 6f3d 1c59 f7bd 0e90 45bd

classifier.weight f4 [2, 16]
-0.2530252 -0.2231529 0.26572338 0.24054064 -0.09600806 0.05775712 -0.10155775 0.3496259
0.23226434 0.22792241 0.12058644 -0.043479647 0.31698075 -0.30969378 -0.19779317 -0.23249966
0.011707195 0.19348612 -0.20600668 -0.2895976 0.2961172 0.33984867 0.1807076 -0.38123134
0.067461744 -0.0078716045 -0.052273918 -0.3192359 0.12154867 0.009526645 -0.16458204 0.27271092
00000000: 858c 81be 3282 64be e50c 883e 4950 763e
00000010: e09f c4bd bb92 6c3d 82fd cfbd 2a02 b33e
00000020: b4d6 6d3e 7e64 693e 06f6 f63d b717 32bd
00000030: 4d4b a23e 2f90 9ebe 4b8a 4abe 6414 6ebe
00000040: 89cf 3f3c 3a21 463e 6af3 52be 2346 94be
00000050: ac9c 973e a500 ae3e 6a0b 393e c130 c3be
00000060: 6229 8a3d e7f7 00bc 2d1d 56bd e372 a3be
00000070: 82ee f83d a515 1c3c 3288 28be c4a0 8b3e

classifier.bias f4 [2]
0.17000358 -0.0056849616
00000000: 6b15 2e3e ea48 babb
