o02_test/run_outputs/93Bcnn_train_weights.pth (torch, 48171 bytes, 22 tensors)

features.0.weight f4 [16, 6, 5]
1.1187359 0.5616002 -0.0692993 -0.43437642 -1.0157102 -0.22885968 -0.76756454 -0.47362593
-0.5966604 -1.1850188 1.1731471 0.68973047 0.5105092 0.20323704 0.1041526 -0.07477697
0.031106956 0.008277465 0.017932627 0.13151476 -0.008945137 0.058515884 -0.07108256 0.107863195
-0.032786906 -0.22704926 -0.03159634 -0.1309205 -0.045939784 -0.34862292 -1.890162 -2.2237437
-1.6315773 -1.1586528 -0.57023793 0.40721065 -0.094640724 -0.16812 -0.27385724 -0.0046269144
-0.5824491 -0.46482798 0.11854978 0.7993965 1.1735106 -0.050471786 0.082825094 -0.01969829
0.06246007 0.0075444584 -0.18416764 -0.094343744 -0.044870656 0.25237647 -0.0054142824 0.0005798001
0.022761855 -0.03140482 0.091785625 -0.1879406 -2.3152907 -2.5122085 -1.9608775 -1.3434211
-0.54143023 0.85647964 0.6826289 0.038522974 -0.25541365 -0.31678432 -1.0613056 -1.1772207
-0.79273653 -0.120106526 0.51401615 0.07453474 -0.039825723 -0.0009795763 -0.021846907 0.13662146
-0.16392401 -0.14768058 0.18339662 0.026239984 0.08572098 -0.11095699 0.075514756 -0.14027911
-0.09044145 0.02413349 1.5572774 1.2331305 0.7514337 0.201468 -0.31096062 -0.2598129
0.17086895 0.38349667 0.75640297 0.7298459 0.7037987 0.54983425 -0.07793644 -0.66064703
-0.88801104 9.781301e-05 -0.032243498 -0.03683501 -0.115227915 -0.11151125 -0.043537676 -0.12588626
-0.062149536 -0.17893632 -0.10427793 -0.16882889 -0.04486538 -0.2307927 -0.1568842 -0.13218097
-0.9634741 -0.5003742 0.22487602 0.52005875 0.6834745 -0.038648203 0.019909617 -0.039464455
0.14344347 -0.10656316 0.20861381 0.4154862 0.27741516 0.54135984 0.4232282 -0.13058054
-0.030828146 -0.056099176 0.058754686 0.05818471 -0.054101188 -0.17835301 0.097351186 -0.16658016
-0.16331054 0.066358484 0.13639535 0.17653126 0.24590987 0.0963808 0.7047638 0.9571848
0.7359337 0.54253453 0.92926145 0.21188398 -0.19765618 -0.48581776 -0.13337122 0.17386517
-0.91037357 -0.32003525 0.09856725 -0.47825974 -0.8570227 0.04468089 -0.13594863 0.10772423
0.046794437 -0.06693828 -0.10720828 0.09464062 0.14378107 -0.047856804 -0.099606134 -0.09205811
-0.10099601 0.1245178 0.17238626 -0.19442898 1.5806801 0.9984993 0.2532499 -0.46383464
-0.69054073 -0.26134917 -0.48600748 -0.63916945 -0.9207739 -0.91410315 1.172153 0.89374614
0.58693695 0.27628803 0.0024975168 -0.05464561 0.025913347 0.039940313 0.051128305 0.088320345
-0.014038684 -0.030304788 0.07068317 0.025990726 0.044280797 -0.22057353 -0.05145506 -0.10279847
-0.1616917 -0.23631607 0.6448719 0.12481087 -0.66698533 -1.0824788 -1.2643719 1.3827093
1.0208101 0.5239015 0.48660874 0.50339913 -1.131417 -0.9852653 -0.7687636 -0.24937193
-0.25427255 0.21889997 0.08470816 0.019543735 -0.06330397 -0.15677331 -0.30707616 0.06646787
0.07669312 0.12769814 0.09448609 0.12025751 0.029126694 -0.06579417 -0.004604292 -0.0021520567
0.8732845 1.2377418 1.4564904 1.1745988 0.97825277 -1.1962296 -1.288632 -0.6838777
-0.9096609 -0.71186095 1.4272918 1.5010319 1.4415387 0.89660436 0.5940026 -0.12407533
00000000: bd32 8f3f 08c5 0f3f cbec 8dbd 9666 debe
00000010: cb02 82bf 315a 6abe 1c7f 44bf 197f f2be
00000020: bcbe 18bf b2ae 97bf af29 963f 2d92 303f
00000030: bbb0 023f 5f1d 503e f54d d53d ab24 99bd
00000040: 04d4 fe3c 349e 073c 72e7 923c ceab 063e
00000050: a08e 12bc 5aae 6f3d bc93 91bd 61e7 dc3d
00000060: 904b 06bd 9a7f 68be 2a6b 01bd 0610 06be
00000070: 5b2b 3cbd b47e b2be d4f0 f1bf d151 0ec0
00000080: 86d7 d0bf bc4e 94bf 1dfb 11bf ea7d d03e
00000090: ffd2 c1bd a627 2cbe 0437 8cbe 5f9d 97bb
000000a0: 621b 15bf effd edbe 3aca f23d 40a5 4c3f
000000b0: 9835 963f 81bb 4ebd 34a0 a93d 4f5e a1bc
000000c0: 21d6 7f3d 8137 f73b 7196 3cbe 4b37 c1bd
000000d0: 4bca 37bd 7d37 813e 4b6a b1bb bafd 173a
000000e0: 1277 ba3c 57a2 00bd 1afa bb3d 8073 40be
000000f0: b92d 14c0 06c8 20c0 09fe fabf 39f5 abbf
00000100: 2c9b 0abf 4042 5b3f c5c0 2e3f 44ca 1d3d
00000110: 94c5 82be 8e31 a2be ddd8 87bf 2baf 96bf
00000120: c8f0 4abf 69fa f5bd 9096 033f aba5 983d
00000130: 4c20 23bd 2065 80ba 49f8 b2bc 7fe6 0b3e
00000140: b2db 27be 9439 17be 53cc 3b3e 3cf5 d63c
00000150: 7b8e af3d 6b3d e3bd 7ba7 9a3d 54a5 0fbe
00000160: 5e39 b9bd 99b3 c53c de54 c73f 38d7 9d3f
00000170: f55d 403f a14d 4e3e 3b36 9fbe 3206 85be
00000180: 45f8 2e3e ad59 c43e a0a3 413f 2ed7 3a3f
00000190: 272c 343f f0c1 0c3f 249d 9fbd 2a20 29bf
000001a0: b154 63bf f620 cd38 c211 04bd 4fe0 16bd
000001b0: 9dfc ebbd 0360 e4bd 9054 32bd 54e8 00be
000001c0: 8390 7ebd 153b 37be ab8f d5bd 7be1 2cbe
000001d0: c3c4 37bd ec54 6cbe 40a6 20be 735a 07be
000001e0: 3da6 76bf 8618 00bf e645 663e 9222 053f
000001f0: 2ff8 2e3f 944d 1ebd 7e19 a33c 7ba5 21bd
00000200: d8e2 123e c93d dabd dc9e 553e 9bba d43e
00000210: 5c09 8e3e 8f96 0a3f 5eb1 d83e e8b6 05be
00000220: 4f8b fcbc 40c8 65bd c1a8 703d 1753 6e3d
00000230: 3599 5dbd 2ca2 36be 0f60 c73d fd93 2abe
00000240: e13a 27be f5e6 873d 39ab 0b3e 9cc4 343e
00000250: cccf 7b3e 4c63 c53d 676b 343f 100a 753f
00000260: 2766 3c3f 8be3 0a3f 14e4 6d3f 1df8 583e
00000270: 6266 4abe 1bbd f8be 7792 08be b609 323e
00000280: 3e0e 69bf a9db a3be a0dd c93d 76de f4be
00000290: d765 5bbf 4f03 373d 1e36 0bbe 859e dc3d
000002a0: 86ab 3f3d f016 89bd 0490 dbbd f1d2 c13d
000002b0: 583b 133e 7f05 44bd 4dfe cbbd f688 bcbd
000002c0: ffd6 cebd 3003 ff3d 0686 303e 6418 47be
000002d0: ba53 ca3f a69d 7f3f f9a9 813e bc7b edbe
000002e0: 47c7 30bf 8fcf 85be f9d5 f8be 9ca0 23bf
000002f0: d7b7 6bbf aa02 6abf 1c09 963f 8ccc 643f
00000300: 8041 163f a075 8d3e 61ad 233b 13d4 5fbd
00000310: 3a48 d43c 7498 233d ea6b 513d 4ce1 b43d
00000320: 8202 66bc bf41 f8bc 56c2 903d 81ea d43c
00000330: c85f 353d 07de 61be 8ac2 52bd 0188 d2bd
00000340: 8292 25be d7fc 71be 5316 253f d79c ff3d
00000350: 8dbf 2abf aa8e 8abf f0d6 a1bf 9efc b03f
00000360: e8a9 823f 691e 063f c824 f93e c4de 003f
00000370: 46d2 90bf 593a 7cbf b1cd 44bf 5b5b 7fbe
00000380: 0330 82be 5027 603e 797b ad3d 2f1a a03c
00000390: 83a5 81bd 2f89 20be 1639 9dbe 4e20 883d
000003a0: 4811 9d3d 4dc3 023e ec81 c13d 9249 f63d
000003b0: 1b9b ee3c 18bf 86bd 9adf 96bb 8509 0dbb
000003c0: 938f 5f3f 536e 9e3f 476e ba3f 4159 963f
000003d0: c66e 7a3f 0d1e 99bf e5f1 a4bf 9c12 2fbf
000003e0: 89df 68bf 853c 36bf 7fb1 b63f d021 c03f
000003f0: 5784 b83f dd87 653f 8e10 183f 351b febd

features.0.bias f4 [16]
0.12650117 -0.06824304 -0.1001287 0.026630798 -0.123111516 -0.06306992 0.07719509 -0.045804545
0.20820737 0.17764854 0.034696247 0.13123538 0.016489549 -0.0063227247 -0.013071634 0.06736283
00000000: 8689 013e 02c3 8bbd 4710 cdbd d528 da3c
00000010: e421 fcbd cd2a 81bd 7618 9e3d 8c9d 3bbd
00000020: 5034 553e 80e9 353e a71d 0e3d 9162 063e
00000030: 1715 873c dc2e cfbb 682a 56bc 86f5 893d

features.1.weight f4 [16]
0.9961704 0.9777012 0.853057 0.88801897 0.88385856 0.9683929 0.98874366 0.83769333
0.8699504 0.9251871 0.9421269 0.94528323 0.8779532 0.9458012 0.8651567 0.77967674
00000000: 0605 7f3f a04a 7a3f f261 5a3f 3655 633f
00000010: 8e44 623f 99e8 773f 4e1e 7d3f 1273 563f
00000020: 12b5 5e3f 10d9 6c3f 3b2f 713f 15fe 713f
00000030: 8ac1 603f 0720 723f e97a 5d3f e598 473f

features.1.bias f4 [16]
-0.031424623 -0.12498584 -0.20459618 -0.0014953683 0.0067575136 -0.12096068 -0.01186059 -1.891375e-05
-0.020949509 -0.03973614 -0.0368503 -0.28330216 -0.020957585 0.02817956 -0.07374979 -0.01630133
00000000: 1bb7 00bd 93f8 ffbd a981 51be 3c00 c4ba
00000010: 226e dd3b 3cba f7bd ec52 42bc f8a8 9eb7
00000020: 4e9e abbc 5dc2 22bd 57f0 16bd fb0c 91be
00000030: 3eaf abbc d2d8 e63c 210a 97bd 5e8a 85bc

features.1.running_mean f4 [16]
0.13981809 -0.059597664 -0.08627827 -0.0029661711 -0.13719675 -0.06456293 0.093579486 -0.04130596
0.21444352 0.15695578 0.046219397 0.13371599 0.040015977 -0.007280712 0.012251802 0.09504172
00000000: 792c 0f3e ae1c 74bd a9b2 b0bd 1864 42bb
00000010: 4e7d 0cbe 9239 84bd 9aa6 bf3d 7030 29bd
00000020: 1597 5b3e 04b9 203e 8d50 3d3d d8ec 083e
00000030: cbe7 233d 0a93 eebb c8bb 483c 3ca5 c23d

features.1.running_var f4 [16]
704.55493 68.42314 155.46947 1054.5956 723.1383 19.009619 708.333 238.72699
86.23356 1281.8407 844.2374 61.69005 573.3891 241.91405 595.4098 670.4403
00000000: 8423 3044 a6d8 8842 2f78 1b43 0fd3 8344
00000010: dac8 3444 b313 9841 5015 3144 1cba 6e43
00000020: 9577 ac42 e73a a044 320f 5344 9cc2 7642
00000030: e758 0f44 ffe9 7143 3ada 1444 2e9c 2744

features.5.weight f4 [32, 16, 3]
0.09330773 0.12826727 -0.017769454 -0.113981605 -0.16583823 -0.18254012 -0.042893562 0.051850095
0.07719693 0.11314812 -0.05509633 -0.05747556 -0.051261533 -0.07336585 -0.06161549 -0.25952598
-0.26849893 -0.30346945 -0.033443335 -0.07366523 0.059958182 -0.13174438 -0.016367668 -0.103236035
-0.08150913 -0.10124146 -0.115632236 0.065133676 0.05675262 -0.0644631 0.08666625 0.06631936
0.005474261 -0.03402099 0.016792959 -0.17127472 -0.002761549 0.12219457 0.09733106 0.0442632
-0.13437584 0.06582812 -0.094108514 0.13008235 -0.028238 -0.0020523956 -0.06819497 0.04178621
0.091607146 -0.0067056986 -0.027891494 0.1374926 0.18910049 -0.027275149 0.052745648 0.10044351
0.042170018 0.03568542 -0.027059654 -0.053338576 0.036087096 0.077421054 0.08580754 0.2448379
0.14534228 0.21188848 0.0062972484 -0.14023426 -0.1197255 -0.006042436 -0.07749808 -0.04062929
0.03729068 -0.03187812 0.024761975 -0.08120167 -0.06912422 -0.017677972 0.07706597 -0.007396119
-0.024050321 0.24866685 -0.026049992 0.05117011 0.11749024 -0.09555678 0.01779797 0.196721
-0.011086433 0.14611745 -0.04287793 -0.03653177 -0.018928053 -0.024704713 -0.054082498 -0.0021477642
-0.10441373 -0.0004762899 -0.07689917 0.005887553 0.05062273 -0.0133617725 0.020958852 0.030487923
0.0074609974 -0.2071649 -0.22150823 -0.23180903 -0.24360743 -0.30952138 -0.19127393 0.0399191
0.068162516 0.052281044 0.09470445 -0.052773993 -0.076519705 0.12011035 -0.00935347 -0.059294008
0.102571145 -0.006100129 0.031025507 -0.13693503 -0.1806782 -0.11880463 -0.056586254 -0.034314286
-0.023819309 0.0746611 -0.033706233 0.036623426 -0.07525686 -0.07706407 -0.15362558 -0.027164327
-0.008510089 0.0034418239 -0.12596796 -0.19187826 -0.19146223 -0.04643044 -0.111690626 -0.046815295
-0.06587111 -0.1866344 -0.05736438 -0.07082532 -0.28266296 -0.1939567 -0.05092743 -0.05336978
-0.02184256 0.010891426 0.116179325 -0.002977245 0.05084316 -0.026861906 -0.009235558 0.12764841
-0.021414055 -0.079387106 -0.11677271 -0.09557949 -0.17938614 -0.15504313 -0.08816838 0.061227582
0.015075675 0.0008709619 -0.04441375 -0.053919517 0.040258307 -0.032735884 -0.11247327 -0.09950614
0.009284242 -0.0046381634 -0.050985742 0.2906709 -0.06535052 -0.062870584 -0.01395901 -0.05050505
0.16550475 0.006618737 -0.027541537 0.05537199 -0.0361535 0.05497617 -0.093946524 -0.08495057
-0.13588756 -0.1114945 -0.068907134 0.23403323 -0.045653902 0.12313981 0.061475504 0.06662352
0.108455956 0.07399449 -0.14876778 0.034713786 -0.013374599 -0.10202954 -0.09138475 -0.18396607
-0.0639434 -0.23300634 0.009575657 -0.038627587 -0.15335587 -0.0574371 -0.020480556 -0.015470746
-0.06678778 -0.18617323 -0.046189256 0.09725288 0.0030873124 -0.06760517 -0.024907742 -0.059162676
-0.03756975 0.054023746 0.002466797 0.18652001 0.051221326 0.09853741 0.10412371 -0.18997736
-0.25955158 -0.13218506 0.041815415 -0.049247585 -0.116376504 0.062085167 0.04232639 0.05795062
-0.20824158 -0.18123984 0.007845635 0.03390871 0.10804591 0.08621821 0.05505052 0.123988
-0.09231787 -0.1682181 0.06997678 -0.05971604 -0.046670187 0.037299775 -0.00491386 0.101069905
00000000: 2018 bf3d 7f58 033e 3f91 91bc 306f e9bd
00000010: 7fd1 29be cceb 3abe 29b1 2fbd c460 543d
00000020: 6d19 9e3d 34ba e73d b0ac 61bd 7e6b 6bbd
00000030: 9df7 51bd d640 96bd 8660 7cbd 97e0 84be
00000040: b178 89be 5960 9bbe e1fb 08bd ccdd 96bd
00000050: b696 753d 00e8 06be 7d15 86bc 6a6d d3bd
00000060: 42ee a6bd af57 cfbd 98d0 ecbd ce64 853d
00000070: 6f75 683d 3b05 84bd 137e b13d 72d2 873d
00000080: 6e61 b33b 9859 0bbd 6391 893c a462 2fbe
00000090: 1bfb 34bb 2641 fa3d 8255 c73d 544d 353d
000000a0: d299 09be e5d0 863d f7bb c0bd 4f34 053e
000000b0: 6153 e7bc 7c81 06bb cea9 8bbd 0428 2b3d
000000c0: 879c bb3d 7abb dbbb b47c e4bc dcca 0c3e
000000d0: 8fa3 413e 2270 dfbc d20b 583d 54b5 cd3d
000000e0: 78ba 2c3d e02a 123d 35ac ddbc 8d79 5abd
000000f0: 10d0 133d ee8e 9e3d ddbb af3d c9b6 7a3e
00000100: 9bd4 143e 4bf9 583e 2659 ce3b 9299 0fbe
00000110: a532 f5bd a1ff c5bb 50b7 9ebd e66a 26bd
00000120: 1dbe 183d a292 02bd a0d9 ca3c 104d a6bd
00000130: 0091 8dbd 65d1 90bc c3d4 9d3d 255b f2bb
00000140: 2e05 c5bc 86a2 7e3e cb66 d5bc c097 513d
00000150: b99e f03d 46b3 c3bd 0ccd 913c 3b71 493e
00000160: dfa3 35bc d09f 153e c5a0 2fbd 56a2 15bd
00000170: 010f 9bbc 8a61 cabc 9c85 5dbd 81c1 0cbb
00000180: ded6 d5bd 8cb6 f9b9 507d 9dbd 60ec c03b
00000190: c859 4f3d 56eb 5abc e6b1 ab3c cfc1 f93c
000001a0: 627b f43b 0923 54be 0ed3 62be 595f 6dbe
000001b0: 3a74 79be 9679 9ebe 50dd 43be 3682 233d
000001c0: ca98 8b3d a624 563d 68f4 c13d 8b29 58bd
000001d0: 5db6 9cbd 6afc f53d 4c3f 19bc 46de 72bd
000001e0: d210 d23d 97e3 c7bb 3429 fe3c b238 0cbe
000001f0: b503 39be d84f f3bd fdc6 67bd 238d 0cbd
00000200: b620 c3bc ebe7 983d 8c0f 0abd 7202 163d
00000210: 4520 9abd c4d3 9dbd 0650 1dbe b987 debc
00000220: e66d 0bbc 3990 613b bffd 00be bc7b 44be
00000230: ad0e 44be d82d 3ebd 0ebe e4bd 65c1 3fbd
00000240: 6fe7 86bd 171d 3fbe eaf6 6abd de0c 91bd
00000250: 33b9 90be 969c 46be 4899 50bd 459a 5abd
00000260: 2bef b2bc f471 323c 6def ed3d e21d 43bb
00000270: eb40 503d 800d dcbc bd50 17bc 44b6 023e
00000280: 876c afbc b595 a2bd 8826 efbd 2ebf c3bd
00000290: 00b1 37be a0c3 1ebe a091 b4bd c6c9 7a3d
000002a0: f7ff 763c 4451 643a 31eb 35bd b6da 5cbd
000002b0: e5e5 243d 1016 06bd 6358 e6bd e0c9 cbbd
000002c0: ef1c 183c bcfb 97bb 6dd6 50bd d1d2 943e
000002d0: 7ed6 85bd 4bc2 80bd 55b4 64bc 62de 4ebd
000002e0: 147a 293e fde1 d83b ca9e e1bc bdcd 623d
000002f0: b115 14bd b12e 613d 0967 c0bd 90fa adbd
00000300: 1c26 0bbe 3a57 e4bd 2f1f 8dbd 68a6 6f3e
00000310: 96ff 3abd ba30 fc3d bdcd 7b3d e971 883d
00000320: 281e de3d 6c8a 973d 9556 18be 0b30 0e3d
00000330: 2221 5bbc ddf4 d0bd ee27 bbbd 9a61 3cbe
00000340: c2f4 82bd 3799 6ebe 37e3 1c3c f637 1ebd
00000350: 5209 1dbe 2a43 6bbd d7c6 a7bc 0379 7dbc
00000360: 08c8 88bd 32a4 3ebe f230 3dbd 852c c73d
00000370: 8254 4a3b 9474 8abd 520b ccbc 9054 72bd
00000380: bde2 19bd 0148 5d3d fca9 213b 1aff 3e3e
00000390: 74cd 513d fbcd c93d d03e d53d 6d89 42be
000003a0: f2e3 84be 855b 07be a446 2b3d d6b7 49bd
000003b0: ce56 eebd 044d 7e3d 705e 2d3d a15d 6d3d
000003c0: 483d 55be f096 39be fa8a 003c dce3 0a3d
000003d0: 2d47 dd3d 2c93 b03d a77c 613d 6ced fd3d
000003e0: 2711 bdbd 5e41 2cbe fc4f 8f3d ce98 74bd
000003f0: 3d29 3fbd a6c7 183d 7204 a1bb bdfd ce3d

features.5.bias f4 [32]
-0.011709947 -0.026634373 -0.0042007356 -0.17123988 -0.14053714 -0.1434624 -0.1494422 0.15435712
-0.15062883 -0.0047537587 0.0012541816 0.0026454946 0.0021848783 0.018969594 0.090727046 0.06786425
0.088194065 0.011133581 -0.097988 0.07042036 -0.0080435155 -0.095904246 0.032587 -0.0700348
-0.01503831 0.13875954 -0.048122156 -0.17121 -0.037422784 0.015011094 0.15048532 0.12197487
00000000: 14db 3fbc 5430 dabc 53a6 89bb 8259 2fbe
00000010: f8e8 0fbe cfe7 12be 6007 19be cb0f 1e3e
00000020: 723e 1abe 6bc5 9bbb 5a63 a43a 0960 2d3b
00000030: 2d30 0f3b 1f66 9b3c 1acf b93d 69fc 8a3d
00000040: 179f b43d a069 363c efad c8bd 8d38 903d
00000050: f3c8 03bc 7269 c4bd f279 053d 686e 8fbd
00000060: 3e63 76bc fb16 0e3e bd1b 45bd ad51 2fbe
00000070: a248 19bd 17f1 753c d318 1a3e f6cd f93d

features.6.weight f4 [32]
0.88841236 0.84889805 1.046739 0.8300275 0.8748371 0.76446706 0.91891307 0.9541405
0.8147396 1.0687739 1.0756009 0.8741274 0.7449183 0.9582031 0.9211725 0.89526016
0.82659787 0.94816715 1.0179919 0.86481124 0.954392 0.95655555 0.9484262 0.9022548
0.9768762 0.8385785 0.9734573 0.8868698 0.91825044 0.9225043 0.8710563 1.0361407
00000000: fe6e 633f 6251 593f 8bfb 853f af7c 543f
00000010: 53f5 5f3f 1db4 433f e33d 6b3f 8d42 743f
00000020: c692 503f 95cd 883f 4aad 893f d0c6 5f3f
00000030: f7b2 3e3f cc4c 753f f6d1 6b3f c52f 653f
00000040: eb9b 533f 15bb 723f 8f4d 823f 4564 5d3f
00000050: 0953 743f d3e0 743f 0fcc 723f 2cfa 663f
00000060: 8f14 7a3f 15ad 563f 7f34 793f e609 633f
00000070: 7612 6b3f 3e29 6c3f 8cfd 5e3f 42a0 843f

features.6.bias f4 [32]
-0.08454525 -0.15733229 -0.1266849 -0.122373216 -0.061137043 -0.135567 -0.036695763 -0.12693453
-0.077348806 -0.01903943 -0.076337956 -0.16939327 -0.062192313 -0.089303724 -0.08883336 -0.09872839
-0.20670766 -0.13181974 -0.12623836 -0.018946245 -0.14188729 -0.13969532 -0.15604356 -0.13047385
-0.0033630498 -0.35541552 -0.05605552 -0.0112952 -0.11842795 -0.123667374 -0.075315066 -0.08036451
00000000: 0f26 adbd b71b 21be b0b9 01be cf9e fabd
00000010: d66a 7abd 13d2 0abe 4c4e 16bd 20fb 01be
00000020: 0d69 9ebd 94f8 9bbc 1357 9cbd 6e75 2dbe
00000030: 5ebd 7ebd dfe4 b6bd 44ee b5bd 1c32 cabd
00000040: 2cab 53be c1fb 06be a144 01be 2835 9bbc
00000050: e74a 11be 4a0c 0fbe e2c9 1fbe f09a 05be
00000060: 9d66 5cbb 06f9 b5be 799a 65bd 810f 39bc
00000070: 5a8a f2bd 5245 fdbd c93e 9abd 2696 a4bd

features.6.running_mean f4 [32]
-0.39153346 0.2658388 -0.5805166 -0.525121 -0.48511052 -0.47148213 -0.45614877 -0.22217678
-0.50964713 -0.5468903 -0.46832287 0.0781185 -0.24939132 -0.3179912 -0.23873535 -0.21444637
0.15708019 -0.5108641 -0.73723716 -0.23981728 -0.25052467 -0.45104256 -0.25666386 -0.41106516
-0.56307137 -0.025490144 -0.51781166 -0.4238954 0.098723315 -0.3284289 0.15198779 -0.40157223
00000000: 1377 c8be 061c 883e bc9c 14bf 546e 06bf
00000010: 6860 f8be 1b66 f1be 558c e9be 4f82 63be
00000020: 3c78 02bf 0101 0cbf 04c8 efbe 98fc 9f3d
00000030: 7060 7fbe becf a2be 0a77 74be d497 5bbe
00000040: a1d9 203e fdc7 02bf 93bb 3cbf a992 75be
00000050: c544 80be 0def e6be 7269 83be 2277 d2be
00000060: 7225 10bf b5d0 d0bc 4e8f 04bf d108 d9be
00000070: 732f ca3d d527 a8be b0a2 1b3e e09a cdbe

features.6.running_var f4 [32]
0.7091354 0.60217774 1.1357591 0.9779634 0.71976393 0.8049944 0.75510055 1.0241566
0.9268377 1.4928919 1.1601791 0.24014565 0.7499 0.9529884 0.8097267 0.73896563
0.2944436 0.9159081 1.2370516 1.0473509 0.9096255 0.88511753 0.835444 0.70616746
2.2380764 0.4558255 1.4819038 0.66868246 0.31231177 0.74651515 0.18403052 0.97229695
00000000: e689 353f 5228 1a3f 8e60 913f cf5b 7a3f
00000010: 7342 383f 1d14 4e3f 454e 413f 9017 833f
00000020: 3c45 6d3f 1517 bf3f c080 943f bee8 753e
00000030: 72f9 3f3f 0cf7 733f 404a 4f3f da2c 3d3f
00000040: 50c1 963e f478 6a3f b557 9e3f 980f 863f
00000050: 37dd 683f 1097 623f a8df 553f 64c7 343f
00000060: a53c 0f40 f661 e93e 06af bd3f c62e 2b3f
00000070: 54e7 9f3e 9e1b 3f3f 7f72 3c3e 74e8 783f

features.10.weight f4 [64, 32, 3]
0.038179368 -0.021910515 -0.016590836 -0.14580522 -0.06735408 -0.058805097 -0.008442427 0.07217423
-0.038800176 0.0041996427 -0.02705395 -0.07165409 -0.013888903 -0.035208497 -0.002769222 0.060988143
0.015415753 0.14308892 -0.04049181 -0.022759104 -0.021824501 -0.009879749 -0.064477734 -0.044498723
0.14843732 0.07663758 0.11236892 0.0798397 0.10247433 0.101754434 0.083518654 0.08938591
0.13203838 0.07025465 0.07770504 0.07365562 0.047581773 0.006856969 0.042553704 -0.057416365
-0.06017002 -0.04831128 -0.124366805 -0.007817242 -0.09199571 -0.08490801 0.022356065 -0.09245665
0.02442528 0.06444607 0.14477463 0.04272552 0.08182929 0.048553485 0.024743186 0.023061054
0.024901602 0.090949155 0.12670845 0.11658597 0.15857607 0.13321869 0.15190233 -0.06508612
0.1343781 0.10901122 0.045638543 -0.01546395 -0.040603258 0.044521987 0.028735409 0.05514089
0.11279957 0.008913236 0.034706615 -0.115924396 -0.014262455 -0.071644306 0.12281729 0.11985143
0.07852013 0.11890788 0.08102425 -0.03430167 0.08685112 0.052421536 0.09637234 -0.10006169
-0.06792909 -0.08030462 0.07635125 0.010074773 0.061039917 0.10682998 -0.015962321 0.006610192
0.041358653 0.043171626 0.08485769 0.018249042 0.047256295 0.020654716 -0.08910051 -0.06585058
-0.019873677 0.10184047 0.08047874 0.05348381 0.021542182 -0.025565023 0.09893644 0.067299746
0.08381712 0.070976585 0.08562242 0.13850535 0.093487605 0.07265934 0.07910639 0.049728125
-0.02426907 0.048726458 -0.007854936 -0.06679408 -0.09193661 -0.07669147 -0.09693404 -0.07775511
-0.060616363 -0.058985356 -0.007038789 -0.117418006 0.03815949 0.0719483 0.1162532 0.12770575
0.11645561 0.07194376 -0.0037941728 0.04568823 0.03430268 0.079936564 0.09059758 0.09409652
-0.04825782 -0.03942976 -0.016288346 -0.0449189 -0.06277498 0.010154764 -0.051234618 -0.004064615
-0.057715308 -0.061784636 -0.031755414 -0.05376251 -0.12346265 -0.061791897 -0.07717806 0.11283507
0.08574034 0.13260189 0.0904852 0.118984036 0.109754525 0.0859966 0.09617987 0.11282872
-0.07491922 -0.100907296 -0.07755382 0.05763405 0.23733397 0.20648548 -0.10024351 -0.11840152
-0.092073254 -0.09173123 -0.0016453381 -0.11396879 -0.050039046 -0.101722695 -0.09372486 -0.039731324
0.030170666 0.03707684 -0.081307806 -0.05635232 -0.07011768 -0.054531947 -0.019911654 -0.008798478
-0.059006885 0.0006166785 0.021698592 -0.07611122 -0.02275984 0.045694232 0.20967954 0.089715324
0.18729173 -0.04016791 -0.01775714 0.012536144 0.044669896 0.06537969 0.009121566 0.12282081
0.05914149 -0.010666223 0.059865963 -0.028064327 -0.012675883 0.05698258 0.07260913 0.06987166
-0.07466267 -0.023082612 0.004907574 0.12545528 0.11961233 0.100960284 0.092531696 0.020405488
0.040579982 0.11630464 0.113503255 0.057857282 -0.03300649 -0.07143967 -0.0024118659 0.0017209759
-0.011960977 -0.0010927727 0.0024231165 0.0029201275 0.057902575 -0.08076159 -0.073833995 -0.05910231
0.04507854 0.029331073 0.011342501 0.16097054 0.15410312 0.24979943 0.29237777 0.2013158
0.25458163 0.06609702 0.04911301 0.0034710441 -0.112477295 -0.11437608 -0.084852144 0.007457298
00000000: f861 1c3d ae7d b3bc 81e9 87bc f74d 15be
00000010: f0f0 89bd 9ddd 70bd 1b52 0abc 15d0 933d
00000020: efec 1ebd 289d 893b 3fa0 ddbc 61bf 92bd
00000030: 488e 63bc c936 10bd d67b 35bb b4ce 793d
00000040: 5b92 7c3c e785 123e bdda 25bd 4d71 babc
00000050: 4cc9 b2bc acde 21bc e70c 84bd 4b44 36bd
00000060: f4ff 173e 2af4 9c3d ad21 e63d ff82 a33d
00000070: 10de d13d a164 d03d d40b ab3d f60f b73d
00000080: 1235 073e ace1 8f3d d223 9f3d c2d8 963d
00000090: 1be5 423d 6db0 e03b cb4c 2e3d 6c2d 6bbd
000000a0: d774 76bd 0ce2 45bd 06b4 febd e413 00bc
000000b0: 3f68 bcbd 40e4 adbd 1124 b73c ea59 bdbd
000000c0: 8617 c83c 4dfc 833d cd3f 143e f400 2f3d
000000d0: 1d96 a73d 05e0 463d 39b2 ca3c 89ea bc3c
000000e0: 72fe cb3c 8d43 ba3d dcbf 013e a0c4 ee3d
000000f0: c461 223e 7b6a 083e 498c 1b3e df4b 85bd
00000100: 6a9a 093e 4641 df3d 7bef 3a3d 825c 7dbc
00000110: 9a4f 26bd b05c 363d 8566 eb3c 6adb 613d
00000120: 7603 e73d d208 123c 8628 0e3d c569 edbd
00000130: 12ad 69bc 40ba 92bd a287 fb3d ab74 f53d
00000140: 29cf a03d f985 f33d 0bf0 a53d e87f 0cbd
00000150: 00df b13d f7b7 563d dd5e c53d 25ed ccbd
00000160: 681e 8bbd c076 a4bd 0b5e 9c3d a910 253c
00000170: fe04 7a3d adc9 da3d 6ac3 82bc 4f9a d83b
00000180: b167 293d bbd4 303d dec9 ad3d 047f 953c
00000190: d18f 413d 1434 a93c 547a b6bd abdc 86bd
000001a0: 1fce a2bc bd91 d03d 0ad2 a43d d711 5b3d
000001b0: 3b79 b03c bd6d d1bc 309f ca3d 73d4 893d
000001c0: 4fa8 ab3d 2c5c 913d cf5a af3d 59d4 0d3e
000001d0: 6e76 bf3d 6cce 943d 8802 a23d b8af 4b3d
000001e0: eecf c6bc 6595 473d fdb1 00bc 56cb 88bd
000001f0: 4349 bcbd 6b10 9dbd 5b85 c6bd 123e 9fbd
00000200: dd48 78bd a19a 71bd a4a5 e6bb da78 f0bd
00000210: 204d 1c3d a159 933d 2816 ee3d 4cc5 023e
00000220: 4780 ee3d 4057 933d a8a7 78bb 9523 3b3d
00000230: f880 0c3d c8b5 a33d 398b b93d adb5 c03d
00000240: fea9 45bd 1a81 21bd 236f 85bc e1fc 37bd
00000250: 2b90 80bd 2b60 263c 64db 51bd 7630 85bb
00000260: e366 6cbd e311 7dbd f711 02bd 1436 5cbd
00000270: fcd9 fcbd 8019 7dbd 880f 9ebd 1316 e73d
00000280: a298 af3d cac8 073e 4e50 b93d e7ad f33d
00000290: fbc6 e03d fc1e b03d f4f9 c43d be12 e73d
000002a0: 3f6f 99bd 7ca8 cebd 8ad4 9ebd ae11 6c3d
000002b0: ad07 733e ee70 533e 784c cdbd 7f7c f2bd
000002c0: e790 bcbd 95dd bbbd 63a8 d7ba 7868 e9bd
000002d0: bef5 4cbd fd53 d0bd d2f2 bfbd 50bd 22bd
000002e0: 7928 f73c e2dd 173d b584 a6bd b1d1 66bd
000002f0: dc99 8fbd e45c 5fbd c41d a3bc 7e27 10bc
00000300: 34b1 71bd 98a8 213a 3fc1 b13c 33e0 9bbd
00000310: d872 babc e029 3b3d 3cb6 563e abbc b73d
00000320: 67c9 3f3e 1b87 24bd 6c77 91bc 6664 4d3c
00000330: c8f7 363d c9e5 853d 9f72 153c 7a89 fb3d
00000340: 593e 723d 62c1 2ebc 0336 753d 29e7 e5bc
00000350: 82ae 4fbc 9166 693d 18b4 943d df18 8f3d
00000360: bee8 98bd bf17 bdbc b7cf a03b 5977 003e
00000370: 4ff7 f43d 44c4 ce3d 4281 bd3d 6929 a73c
00000380: 3237 263d 2131 ee3d 6574 e83d c2fb 6c3d
00000390: d031 07bd f64e 92bd 6510 1ebb 5e92 e13a
000003a0: f9f7 43bc 5e3b 8fba 26cd 1e3b 9c5f 3f3b
000003b0: 402b 6d3d 5566 a5bd 4736 97bd 4415 72bd
000003c0: 46a4 383d b847 f03c e6d5 393c 76d5 243e
000003d0: 35cd 1d3e 6ccb 7f3e 8ab2 953e bb25 4e3e
000003e0: 8658 823e e05d 873d b92a 493d 757a 633b
000003f0: 7f5a e6bd 023e eabd f6c6 adbd 5a5c f43b

features.10.bias f4 [64]
0.11126157 -0.089176886 0.07140186 -0.05913695 -0.08367424 0.051850494 0.11677797 -0.010480318
0.10051513 -0.02304838 0.04301255 -0.03589928 0.025595514 -0.028174518 -0.08568582 0.071139745
0.054476 0.10235918 -0.11401085 0.10100518 0.11066085 0.052606132 -0.10182499 0.10451733
0.10483768 0.098432645 -0.073904924 -0.018129352 0.04975983 -0.12619102 0.12623811 0.064054385
-0.11447259 -0.022493614 -0.031010738 0.043689266 0.11139861 0.095007256 -0.025692021 -0.14257349
0.0617052 0.0451741 -0.032136194 0.021412961 0.09597704 -0.00263479 -0.064070456 0.056842003
0.034540042 0.12076 -0.08547136 -0.007669048 0.011543741 0.062081788 0.0024873293 0.04778536
-0.008274623 -0.015130669 0.024984844 0.04393256 0.083532065 -0.04965281 -0.039264694 0.078686744
00000000: 1bdd e33d 5fa2 b6bd 233b 923d 9639 72bd
00000010: 665d abbd 2f61 543d 4a29 ef3d a4b5 2bbc
00000020: e0da cd3d f5cf bcbc ed2d 303d 200b 13bd
00000030: afad d13c 3fce e6bc 0c7c afbd b7b1 913d
00000040: 3a22 5f3d b1a1 d13d 857e e9bd cedb ce3d
00000050: 28a2 e23d 8779 573d 9f89 d0bd 2f0d d63d
00000060: 23b5 d63d 0e97 c93d 775b 97bd 0284 94bc
00000070: f7d0 4b3d 3838 01be 9044 013e f22e 833d
00000080: 9b70 eabd 8744 b8bc 3b0a febc 84f3 323d
00000090: f424 e43d 2a93 c23d 1378 d2bc c9fe 11be
000000a0: 97be 7c3d 7a08 393d 3ea1 03bd 3c6a af3c
000000b0: 9c8f c43d 71ac 2cbb 5f37 83bd 29d3 683d
000000c0: dc79 0d3d 0551 f73d 9c0b afbd a34c fbbb
000000d0: f621 3d3c 7949 7e3d 7602 233b 95ba 433d
000000e0: 4992 07bc a0e6 77bc 04ad cc3c a1f2 333d
000000f0: dc12 ab3d bf60 4bbd 04d4 20bd 8426 a13d

features.11.weight f4 [64]
0.97440076 0.89560825 1.0369748 1.0040575 0.9463008 1.0639884 1.0129145 1.014113
0.9172298 1.0129867 0.9088033 0.9914175 1.0596349 0.95226836 0.9366424 0.92212635
0.97523147 0.9969199 0.91695946 0.9407796 0.99389726 0.8964407 0.94080687 0.99102557
0.90173256 0.9957985 1.0335891 0.9925502 1.0252521 0.93863356 1.0428079 0.9385125
0.94523597 0.92559737 0.9153016 1.0628738 1.0089906 0.9474439 0.9997557 0.9358457
0.995787 1.0247768 0.97240984 1.0103549 1.04872 0.9396106 0.9939344 0.91782963
0.96696424 1.0369467 1.0576661 0.9252714 1.0252862 1.0249137 0.94563365 1.0411586
0.93149745 0.935899 0.9266633 0.91097 1.000766 0.90152067 0.9434274 0.9044041
00000000: 5472 793f 9546 653f 97bb 843f f584 803f
00000010: c540 723f c630 883f 2fa7 813f 74ce 813f
00000020: 92cf 6a3f 8ca9 813f 55a7 683f 8acd 7d3f
00000030: 1ea2 873f dcc7 733f ccc7 6f3f 7910 6c3f
00000040: c5a8 793f 2436 7f3f dbbd 6a3f efd6 703f
00000050: 0d70 7e3f 237d 653f b8d8 703f dab3 7d3f
00000060: f2d7 663f a7ec 7e3f a64c 843f c517 7e3f
00000070: 763b 833f 4a4a 703f bb7a 853f 5b42 703f
00000080: fcfa 713f f3f3 6c3f 3551 6a3f 400c 883f
00000090: 9b26 813f af8b 723f fdef 7f3f 9593 6f3f
000000a0: e6eb 7e3f e32b 833f daef 783f 4f53 813f
000000b0: 753c 863f 528a 703f 7c72 7e3f e2f6 6a3f
000000c0: f88a 773f abba 843f 9a61 873f 96de 6c3f
000000d0: 943c 833f 5f30 833f 0c15 723f af44 853f
000000e0: 9e76 6e3f 1497 6f3f ce39 6d3f 5435 693f
000000f0: 1a19 803f 0fca 663f 7584 713f 0787 673f

features.11.bias f4 [64]
-0.1078942 -0.26341322 0.034450114 0.11937024 -0.21357341 0.12512429 0.05769622 -0.117883965
-0.25122073 -0.13211389 -0.23834293 -0.14202902 0.08465444 -0.20133643 -0.20361106 -0.061780695
0.09185107 0.03384234 -0.2207336 -0.23952067 0.07884878 -0.22919118 -0.12800314 -0.09093611
-0.06499431 0.09437112 0.07776284 0.061745342 0.058261476 -0.1843475 0.06105401 -0.22811846
-0.080947675 -0.2563576 -0.2185179 0.09 -0.11131381 -0.18692581 0.12546043 -0.18933547
0.056910194 0.06591419 -0.226315 0.09759882 0.098216414 -0.22036083 -0.005375881 0.041801892
-0.1752489 0.08330068 0.09795083 -0.15238552 0.04981446 -0.07893716 -0.2425971 0.076809935
-0.2531736 -0.20610766 -0.22055404 -0.20062684 -0.13166782 -0.24943681 -0.20088191 -0.22204225
00000000: a2f7 dcbd 19de 86be 901b 0d3d 6278 f43d
00000010: fdb2 5abe 9520 003e df52 6c3d 266d f1bd
00000020: 01a0 80be dd48 07be 2b10 74be 0e70 11be
00000030: 4f5f ad3d 232b 4ebe 6b7f 50be c10d 7dbd
00000040: 6a1c bc3d 449e 0a3d fd07 62be e844 75be
00000050: 787b a13d 18b1 6abe 4113 03be b63c babd
00000060: bd1b 85bd a545 c13d 2042 9f3d afe8 7c3d
00000070: 96a3 6e3d 97c5 3cbe c513 7a3d e397 69be
00000080: e5c7 a5bd 4e41 83be 28c3 5fbe ec51 b83d
00000090: 7ff8 e3bd 7b69 3fbe b378 003e 28e1 41be
000000a0: aa1a 693d 05fe 863d 1fbf 67be e4e1 c73d
000000b0: b025 c93d 45a6 61be 2928 b0bb 7638 2b3d
000000c0: 7374 33be 8c99 aa3d 729a c83d f30a 1cbe
000000d0: 3f0a 4c3d cea9 a1bd 606b 78be 874e 9d3d
000000e0: f89f 81be e30d 53be ebd8 61be 1f71 4dbe
000000f0: eed3 06be 5d6c 7fbe fdb3 4dbe 0b5f 63be

features.11.running_mean f4 [64]
0.7310028 -0.19427131 0.901574 -0.2719092 -0.436078 0.6770957 0.88923866 0.45217672
0.010818442 0.69007957 -0.195667 0.33397123 0.38218826 -0.25302008 -0.0853578 -0.0044431277
0.09051098 0.5933493 -0.14608315 0.15974805 0.93839455 -0.15323406 -0.23673138 0.5016057
-0.4769959 -0.33146843 0.36929497 0.3094926 0.54475254 -0.37148055 1.0218449 0.16604355
-0.06159467 -0.18077312 -0.17772943 0.36257547 0.020215098 -0.13930443 0.5227532 -0.24065654
-0.45911723 0.4174932 -0.13424942 0.6834669 -0.29100356 -0.06289926 -0.047114126 0.30817887
-0.18716517 1.2993486 0.3979528 -0.24831903 0.8198743 0.76094836 -0.1971909 0.68211645
0.09747873 -0.09841215 -0.12102399 -0.19614534 0.70653874 -0.20489894 -0.15849012 -0.0700818
00000000: 0023 3b3f 0fef 46be 8ecd 663f af37 8bbe
00000010: 9e45 dfbe 2556 2d3f 25a5 633f b583 e73e
00000020: d63f 313c 0ea9 303f ee5c 48be 47fe aa3e
00000030: 2eae c33e d98b 81be 12d0 aebd a897 91bb
00000040: d25d b93d bde5 173f d296 15be fe94 233e
00000050: a03a 703f 64e9 1cbe b669 72be 3b69 003f
00000060: ce38 f4be 3bb6 a9be 3b14 bd3e d075 9e3e
00000070: e774 0b3f b332 bebe d0cb 823f 5207 2a3e
00000080: b14a 7cbd 971c 39be b4fe 35be 7ea3 b93e
00000090: 229a a53c d2a5 0ebe 27d3 053f ab6e 76be
000000a0: 6a11 ebbe abc1 d53e ae78 09be b0f7 2e3f
000000b0: 6bfe 94be 54d1 80bd befa 40bd 9fc9 9d3e
000000c0: 3aa8 3fbe 0e51 a63f 78c0 cb3e 5847 7ebe
000000d0: 48e3 513f 83cd 423f 69ec 49be 2f9f 2e3f
000000e0: eea2 c73d 4f8c c9bd 6ddb f7bd 53da 48be
000000f0: b9df 343f 07d1 51be 3c4b 22be 0c87 8fbd

features.11.running_var f4 [64]
0.42473075 0.36248648 0.29962605 0.34151456 0.4602022 0.2670293 0.3209305 0.5150789
0.29774213 0.4943381 0.4167003 0.4290746 0.2903603 0.28083915 0.3622423 0.33009982
0.20879078 0.27555445 0.35894182 0.28775197 0.28632584 0.38905117 0.4262107 0.4324516
0.25569522 0.3717825 0.31092995 0.19452508 0.28532773 0.3328225 0.33144566 0.35314357
0.51442695 0.42595026 0.39716205 0.24222697 0.24563426 0.38187292 0.25398338 0.34994745
0.2407258 0.31737944 0.259205 0.29717544 0.22595243 0.33973455 0.38140345 0.23538342
0.35253933 0.3638774 0.31935397 0.34281293 0.34793815 0.51537675 0.39078084 0.2592152
0.35774034 0.45992175 0.3241104 0.45861766 0.40932563 0.33103192 0.38731602 0.4108758
00000000: 4f76 d93e d497 b93e 9668 993e ffda ae3e
00000010: 9f9f eb3e 10b8 883e 0151 a43e 36dc 033f
00000020: a871 983e e219 fd3e be59 d53e aaaf db3e
00000030: 1baa 943e 26ca 8f3e d377 b93e d802 a93e
00000040: 40cd 553e 7915 8d3e 39c7 b73e 3a54 933e
00000050: 4d99 923e b731 c73e 4a38 da3e 4c6a dd3e
00000060: 7cea 823e 475a be3e 3632 9f3e 9531 473e
00000070: 7a16 923e b667 aa3e 3fb3 a93e 3ccf b43e
00000080: 7cb1 033f 2716 da3e d358 cb3e 590a 783e
00000090: 8c87 7b3e d984 c33e 1c0a 823e 502c b33e
000000a0: d380 763e 8f7f a23e 85b6 843e 6127 983e
000000b0: 1360 673e b0f1 ad3e 5047 c33e 5a08 713e
000000c0: 0980 b43e 234e ba3e 5d82 a33e 2d85 af3e
000000d0: f324 b23e bbef 033f 6d14 c83e dbb7 843e
000000e0: be29 b73e dd7a eb3e ccf1 a53e efcf ea3e
000000f0: 2193 d13e 047d a93e 494e c63e 505e d23e

embedding_layer.0.weight f4 [16, 64]
-0.12208497 -0.017120069 -0.022975815 -0.12607314 0.02053317 -0.15507154 0.03211654 -0.074934006
0.12638262 -0.20378686 0.05470257 -0.1571986 -0.07382351 0.07201811 0.109585516 0.0004604711
-0.13512957 0.08312062 -0.0034777273 0.0572839 -0.09496184 0.14156684 0.19087376 -0.18905966
-0.036719155 0.048023175 0.028182194 -0.012817841 -0.10753289 -0.013928665 -0.11081277 0.03149641
-0.15550965 0.06491378 0.028641999 0.028321808 -0.0422062 0.2041917 -0.088301234 0.11721517
-0.015291703 0.037342146 0.18484804 0.034639012 -0.07773609 0.17351462 0.16001174 -0.029520445
0.18088914 -0.119660705 0.008429591 0.10456188 -0.006672146 -0.19661652 0.014687234 -0.09593399
0.030778345 0.0034180784 0.016611136 0.07426381 -0.1376903 0.12266724 0.0065678875 0.07676177
-0.13388257 0.019062953 0.0040066303 0.004342019 0.026982298 -0.14233622 0.06826377 -0.1833138
0.10456083 -0.1417744 0.009025668 -0.14113645 0.0041695386 0.13282701 0.11173975 -0.1266787
-0.118467204 0.048604805 0.1505059 0.18906789 -0.039786376 0.17712553 0.015894147 -0.13505107
-0.09873582 -0.060459707 -0.035851534 -0.080411315 -0.018658321 0.11697984 0.0016148268 0.13445571
-0.18190794 0.013194729 0.17060006 -0.09923602 0.16060273 0.119726546 -0.12102142 0.13630351
0.017132647 0.0061494494 0.06721321 0.021167122 0.052140843 0.17742936 0.067658395 -0.08537553
0.24389063 -0.05298676 0.038654126 0.05380722 -0.002444216 -0.058005538 0.14948457 -0.063878775
0.07710517 0.08957497 0.14131194 0.07522883 -0.15239808 0.13907282 0.20496574 0.1152966
-0.06870427 0.10044753 -0.15287143 0.06146973 -0.18277285 -0.2463765 -0.04371753 -0.162703
0.08309565 -0.08253328 0.062713854 -0.06400625 -0.020076882 -0.24284656 0.07249266 -0.050373524
-0.16068688 0.023234004 0.0790747 -0.086639605 -0.09446563 0.12293061 0.22262183 -0.06779366
-0.09818484 -0.014604777 -0.08137443 -0.0991115 -0.079243064 0.1397736 -0.07079943 0.13669695
-0.09664445 0.23241286 0.10946709 -0.111288235 0.14737388 -0.037949763 0.007490312 -0.026866766
0.0313615 -0.06568192 -0.073209874 -0.062635966 -0.07270917 -0.085906945 0.047276925 -0.025624977
0.023865057 -0.09710815 -0.04034743 0.101822264 -0.08159813 -0.101447105 -0.0875827 -0.14826222
0.011669697 -0.0661278 0.08929047 0.0030222642 -0.13392448 -0.067565136 0.024711559 -0.18165186
0.09811251 -0.118542135 0.04667934 0.12137654 -0.043781072 0.0844463 0.14427319 0.090648085
-0.07548091 0.083669506 -0.064230464 0.016069118 0.16595885 -0.019179253 -0.013824998 0.01856268
0.17696996 0.11749123 -0.07773814 -0.08818832 0.08167115 -0.051179364 -0.07400624 0.0742619
0.1028519 0.12592667 0.07113881 0.18219115 0.038175415 -0.052379847 0.16565736 -0.073256426
0.033821475 -0.054991078 -0.09732828 0.12408134 -0.040374376 -0.016529443 0.18770695 -0.039354425
0.15180317 0.12489872 -0.07523604 0.089968644 0.10213816 -0.04364341 0.03818397 0.08139655
-0.06747001 -0.0009304608 0.13637131 -0.05005219 0.16313438 0.15614784 -0.036452226 0.06990321
-0.07660236 -0.048796054 -0.1050717 -0.03361838 -0.043245047 -0.11019516 -0.108502485 -0.11526545
00000000: af07 fabd 633f 8cbc c737 bcbc 5119 01be
00000010: 2e35 a83c 13cb 1ebe a28c 033d 0077 99bd
00000020: 726a 013e 81ad 50be cd0f 603d abf8 20be
00000030: c830 97bd 3b7e 933d 5f6e e03d 636b f139
00000040: 685f 0abe 253b aa3d 95ea 63bb 86a2 6a3d
00000050: 5a7b c2bd e6f6 103e 6974 433e db98 41be
00000060: d366 16bd f3b3 443d 58de e63c ec01 52bc
00000070: 343a dcbd 0e35 64bc cef1 e2bd 6102 013d
00000080: ec3d 1fbe 84f1 843d a0a2 ea3c 2303 e83c
00000090: 69e0 2cbd a117 513e 47d7 b4bd 820e f03d
000000a0: 0d8a 7abc 14f4 183d ce48 3d3e a3e1 0d3d
000000b0: 1934 9fbd d1ad 313e 1eda 233e dcd4 f1bc
000000c0: 013b 393e ac10 f5bd 441c 0a3c 8a24 d63d
000000d0: 04a2 dabb d755 49be b9a2 703c 0a79 c4bd
000000e0: de22 fc3c d701 603b 1414 883c a017 983d
000000f0: b0fe 0cbe f638 fb3d 6f37 d73b 4635 9d3d
00000100: 8318 09be e929 9c3c 0d4a 833b 7f47 8e3b
00000110: fb09 dd3c 96c0 11be e0cd 8b3d 9db6 3bbe
00000120: fd23 d63d 4f2d 11be 65e0 133c 1386 10be
00000130: a0a0 883b ce03 083e cfd7 e43d 10b8 01be
00000140: ef9e f2bd d515 473d 381e 1a3e 039b 413e
00000150: 0af7 22bd 6560 353e 7134 823c d44a 0abe
00000160: 0136 cabd 99a4 77bd 0fd9 12bd b0ae a4bd
00000170: 56d9 98bc 2093 ef3d 99a8 d33a c2ae 093e
00000180: 1346 3abe b42e 583c c8b1 2e3e 413c cbbd
00000190: 0b75 243e 3133 f53d 14da f7bd 2693 0b3e
000001a0: c459 8c3c 5281 c93b 14a7 893d ac66 ad3c
000001b0: a391 553d 0bb0 353e 7c90 8a3d 5ed9 aebd
000001c0: 77be 793e a508 59bd ca53 1e3d f664 5c3d
000001d0: 242f 20bb 3797 6dbd 7c12 193e e0d2 82bd
000001e0: 51e9 9d3d 1573 b73d 14b4 103e 9311 9a3d
000001f0: 3e0e 1cbe 1b69 0e3e 8ae2 513e a020 ec3d
00000200: d3b4 8cbd 6fb7 cd3d 548a 1cbe afc7 7b3d
00000210: ce28 3bbe 1f4a 7cbe 2711 33bd 9d9b 26be
00000220: 0d2e aa3d 3507 a9bd 1f70 803d b515 83bd
00000230: 4678 a4bc c5ac 78be 0877 943d 7854 4ebd
00000240: 1a8b 24be 3d55 be3c ebf1 a13d 1b70 b1bd
00000250: 3277 c1bd 0bc3 fb3d faf6 633e 67d7 8abd
00000260: 2215 c9bd e048 6fbc a3a7 a6bd f8fa cabd
00000270: 304a a2bd d020 0f3e 4bff 90bd 49fa 0b3e
00000280: 87ed c5bd a3fd 6d3e 4830 e03d 16eb e3bd
00000290: 2ee9 163e 3671 1bbd 4b71 f53b b117 dcbc
000002a0: eb74 003d 3e84 86bd 0fef 95bd 4947 80bd
000002b0: 8ce8 94bd fbef afbd 73a5 413d 79eb d1bc
000002c0: a780 c33c a3e0 c6bd 5943 25bd 3188 d03d
000002d0: ec1c a7bd 80c3 cfbd 8f5e b3bd 0dd2 17be
000002e0: 4232 3f3c 036e 87bd ecdd b63d 2e11 463b
000002f0: 8023 09be 975f 8abd e56f ca3c f202 3abe
00000300: 36ef c83d 38c6 f2bd d632 3f3d 4394 f83d
00000310: c853 33bd 2ff2 ac3d 5abc 133e b4a5 b93d
00000320: bc95 9abd eb5a ab3d 438b 83bd 62a3 833c
00000330: 1ef1 293e cf1d 9dbc 3f82 62bc c310 983c
00000340: 9d37 353e 3e9f f03d 2d35 9fbd 149c b4bd
00000350: 3443 a73d 74a1 51bd 9590 97bd 9f16 983d
00000360: 04a4 d23d ecf2 003e 39b1 913d 5190 3a3e
00000370: d35d 1c3d 408c 56bd 15a2 293e 7707 96bd
00000380: 6388 0a3d 533e 61bd 0d54 c7bd 5c1e fe3d
00000390: 9a5f 25bd c168 87bc 4036 403e 1b32 21bd
000003a0: 4a72 1b3e e6ca ff3d 5a15 9abd 7b41 b83d
000003b0: d02d d13d 6fc3 32bd cb66 1c3d 3cb3 a63d
000003c0: b72d 8abd 2bea 73ba eca4 0b3e 8603 4dbd
000003d0: b30c 273e 38e5 1f3e ee4e 15bd 6a29 8f3d
000003e0: b3e1 9cbd 5fde 47bd d52f d7bd 6db3 09bd
000003f0: b821 31bd 00ae e1bd 8d36 debd 4b10 ecbd

embedding_layer.0.bias f4 [16]
0.05169522 0.01245082 0.14523117 0.2997385 0.015475482 0.07940808 0.11432485 0.20219433
0.31891003 0.33901328 0.16783981 0.2950131 0.16923046 0.14457792 0.0055604856 0.015002009
00000000: 5ebe 533d 86fe 4b3c 7bb7 143e 5377 993e
00000010: e08c 7d3c b4a0 a23d 2623 ea3d 080c 4f3e
00000020: 2d48 a33e 2693 ad3e 33de 2b3e f50b 973e
00000030: c04a 2d3e 3c0c 143e bc34 b63b fdca 753c

classifier.weight f4 [2, 16]
-0.26393434 -0.22761999 -0.19074817 0.26710504 -0.067458 0.038738485 -0.1610745 0.42031357
0.2639859 0.2928722 0.10597434 -0.01709777 0.3234919 -0.37045312 -0.21325825 -0.18458521
0.03229377 0.19913928 0.2480653 -0.3141971 0.25954717 0.34290248 0.2370473 -0.45064688
0.02371718 -0.08165112 -0.04040458 -0.33105707 0.09743231 0.0823363 -0.1345774 0.22318159
00000000: 6722 87be 3715 69be 7d53 43be fec1 883e
00000010: 6b27 8abd 3fac 1e3d b7f0 24be 5733 d73e
00000020: 2929 873e 58f3 953e 1309 d93d 9f10 8cbc
00000030: bba0 a53e 08ac bdbe 5f60 5abe e803 3dbe
00000040: 7946 043d 2beb 4b3e d404 7e3e 71de a0be
00000050: 5ee3 843e ea90 af3e 87bc 723e 30bb e6be
00000060: 884a c23c b438 a7bd 467f 25bd 5080 a9be
00000070: 978a c73d ef9f a83d a8ce 09be b789 643e

classifier.bias f4 [2]
0.18937089 -0.031648677
00000000: 71ea 413e 0ba2 01bd
