o02_test/pkls/15Acnn_train_weights.pth (torch, 48171 bytes, 22 tensors)

features.0.weight f4 [16, 6, 5]
000000 e6 b1 43 40 3b 91 f1 3f b1 4f ee 3e 4c 88 4c bf
       3.057733 1.8872446 0.46545175 -0.7989547
000010 c7 76 02 c0 4e 43 5b bf d1 f5 68 bf 63 6c 5f bf
       -2.0384996 -0.85649574 -0.91000086 -0.8727476
000020 c3 79 37 bf 35 14 86 bf be 88 80 3f f3 6e 02 3f
       -0.7167017 -1.0474917 1.004173 0.50950545
000030 01 ec f6 3e 57 14 f8 3d 8f 4c 42 be 0c 83 f4 bc
       0.48226932 0.121132545 -0.18974517 -0.029847644
000040 a2 f7 8b 3c 4f d7 d0 3c d9 29 db 3c c5 b2 a9 3d
       0.017085854 0.025493292 0.026753353 0.08286051
000050 87 b1 de bd bc 84 0e 3d 3d a7 57 bd 7a 2d d3 3d
       -0.108737044 0.034794554 -0.052649725 0.10311408
000060 2e a1 25 3d e0 c3 8d be 99 00 07 bd 70 0b 2f 3c
       0.040436916 -0.27688503 -0.032959554 0.010683879
000070 c0 35 24 bd 15 8b cd be 14 41 37 c0 9b c3 6e c0
       -0.040090322 -0.40145174 -2.863347 -3.7306888
000080 d2 79 1b c0 54 80 14 bf 35 37 90 3f 15 25 87 bd
       -2.4293103 -0.58008313 1.1266848 -0.0659887
000090 6b db a7 be be d7 68 3e 10 23 da 3e 55 bc 96 3f
       -0.3278459 0.22738549 0.42604876 1.1776224
0000a0 dd b3 d4 3e a0 ba 4c 3f 56 25 48 3f 6b a3 30 3f
       0.41543475 0.7997227 0.7818197 0.68999356
0000b0 df 4a 3b 3f a4 48 a0 bd 53 13 c8 3d a4 52 97 bd
       0.7316112 -0.07826355 0.09769311 -0.07388809
0000c0 96 11 4b 3d 20 c7 2b bc 9e 03 e4 bb 55 b7 e3 bd
       0.049577318 -0.010484487 -0.006958439 -0.11118952
0000d0 5f 19 ae bd dc 11 5e 3e 40 d1 0f 3d 68 16 b0 bd
       -0.08500933 0.216865 0.035111666 -0.08598024
0000e0 0d 67 b0 3c 1b 25 f2 bc e1 fc 11 3e b0 d5 18 be
       0.021533513 -0.029558709 0.14256622 -0.14925265
0000f0 98 95 3b c0 da 7d 2a c0 7a b8 b9 bf ba ed b2 be
       -2.9310055 -2.6639314 -1.4509423 -0.34946996
000100 08 13 55 3e ca 58 76 3f 8e a8 93 3f 81 b4 31 3f
       0.20808041 0.9622923 1.1535814 0.6941605
000110 ec 6d 10 3f 51 53 b9 3e 54 44 9e be 98 e7 88 be
       0.5641773 0.36196378 -0.30911505 -0.26739192
000120 0e 83 47 be 91 cd 93 bd 04 d6 67 3e e4 9a 8c bd
       -0.19483587 -0.07216943 0.22640234 -0.068654805
000130 a9 9a 76 3c 9a 5d fa 3d 2a 81 59 bd 87 8f 26 3e
       0.015051522 0.12224884 -0.053101696 0.16265689
000140 bb e1 cc bd 43 c3 ad bd 4e d0 c0 3d 6a 3e 73 bd
       -0.10003992 -0.08484509 0.09414731 -0.059385695
000150 e8 c6 d7 3d 49 58 d6 bd 10 8d 01 3e 70 64 c8 bc
       0.10535985 -0.10466058 0.12651467 -0.024461955
000160 29 a0 d9 3c 2a 23 57 3e 59 92 7b 40 91 54 4a 40
       0.026565628 0.21009508 3.9308074 3.1614115
000170 f0 76 ed 3f f6 a8 cd 3e 14 ce e0 be a1 f0 dc be
       1.8551922 0.4016797 -0.43907225 -0.43152335
000180 6f 0c ce 3e db 23 93 3e aa 67 72 3f 30 f4 80 3f
       0.4024386 0.28738293 0.9468943 1.007452
000190 b8 02 64 3e 5c 65 52 3d 98 92 9a bd 4f 47 97 be
       0.22266662 0.051366195 -0.07547492 -0.29546592
0001a0 2f c9 3a bf de 46 07 bd bc a7 8d bd 69 5d b2 ba
       -0.7296323 -0.03302657 -0.069167584 -0.0013608161
0001b0 d2 65 5a bd 8f 6b 8f bd f4 c3 87 ba 78 ea c5 bd
       -0.05331976 -0.07002937 -0.0010358081 -0.09663862
0001c0 95 04 43 bc 06 18 07 be 54 50 71 bd 36 12 41 be
       -0.011902948 -0.13192758 -0.058914497 -0.18854603
0001d0 b1 f9 eb bd 70 59 82 be f5 38 59 be dd 23 e1 bc
       -0.11522234 -0.2545886 -0.21213134 -0.027482921
0001e0 88 73 09 bf ec bb c6 3e 23 00 d1 3f ba 69 11 40
       -0.5369191 0.38815248 1.6328167 2.272078
0001f0 87 39 25 40 aa 80 6a 3f a7 c7 57 3f d0 bf 17 3f
       2.5816362 0.91602576 0.8428902 0.5927706
000200 93 76 b0 be fb c3 74 bf dc 9e 55 3f a2 62 9a 3f
       -0.34465465 -0.9561154 0.83445525 1.206135
000210 72 20 4f 3f 4f d7 91 3f 8b bb ac 3f f2 74 57 37
       0.8090888 1.1393832 1.3494734 1.2842227e-05
000220 06 c1 83 bd 69 1a 85 bd 49 c1 54 3a 28 b9 b2 bd
       -0.06433301 -0.06499178 0.000811596 -0.08726722
000230 74 27 8f 3c b4 e4 06 be e1 6f a1 3d 4c 12 31 bd
       0.017474867 -0.13173181 0.07882667 -0.04323034
000240 00 12 db 3c aa b3 7e 3e 3e e7 da 3d e1 46 ea 3d
       0.026741982 0.24873224 0.10688637 0.114393
000250 9c 6b 90 3e bc 9a 43 3e 55 d9 d1 bf 74 6c 3f 3c
       0.282071 0.19101995 -1.639445 0.011683572
000260 ca c8 94 3c 6b 03 46 3e e2 4b ab 3f d8 75 7c 3e
       0.01816215 0.19337241 1.3382533 0.24654329
000270 f8 ff 30 3e b7 42 3a 3e 2d 12 87 3f a5 3a 9e 3f
       0.17285144 0.18189512 1.0552422 1.2361647
000280 1d b5 5f bf 60 ea 90 bf 89 31 3e bf 4e 3e 80 bf
       -0.8738573 -1.1321526 -0.74294335 -1.0019014
000290 bd 05 ad bf 85 aa 2e 3d 04 a0 52 bd 4c 77 6c bb
       -1.3517376 0.04264309 -0.051422134 -0.0036081849
0002a0 a0 e1 c2 3c 2f 02 ac 3b ca db 46 be 90 05 0f 3e
       0.023789227 0.0052492837 -0.1941978 0.13966966
0002b0 64 ca 59 3e 29 51 bc bd 22 bf 9f bd 3d 81 9d bd
       0.21268612 -0.091951676 -0.078001276 -0.07690666
0002c0 fe c7 88 bd 26 5a 28 3e 28 4b 01 3e 82 43 69 be
       -0.066787705 0.16440639 0.12626326 -0.22779658
0002d0 e5 26 e9 3f 95 54 7b 3f 64 ea a6 3e 7b 2d 80 bf
       1.8214995 0.98175937 0.326007 -1.001388
0002e0 90 e5 0e c0 2a 22 7b 3e 9b 60 9d 3e ca 6b f5 3d
       -2.2327614 0.24524751 0.30737767 0.1198345
0002f0 17 6a e5 be 4b 1d 26 bf ab 1e d6 3e 15 fa 0b 3e
       -0.44807503 -0.6488845 0.41820273 0.13669617
000300 7b bf 04 3d d8 b6 dc 3d 46 b9 6b bd e9 54 25 3c
       0.032409173 0.10777062 -0.057549737 0.010091045
000310 0c bd d6 bc 09 10 ef 3c 96 40 95 3c f6 07 67 3c
       -0.026213191 0.02918245 0.018219274 0.014101019
000320 78 6f 0c be af cd 66 bc 8f 5f 37 3d 0a fb c8 3c
       -0.13714397 -0.014087125 0.044768866 0.024533767
000330 bb 7a 9d 3d 81 9d cb be 19 2b 4b bd bd b7 b2 bd
       0.076894246 -0.39768603 -0.049601648 -0.087264515
000340 4c da e5 bd 3d 12 e0 be 34 fd 28 40 1b 95 f0 3f
       -0.112232774 -0.43763915 2.6404543 1.8795503
000350 0a a3 e4 3e 7d 3f 4b bf ba 02 ea bf 48 73 26 40
       0.4465564 -0.7939375 -1.8282082 2.6007862
000360 46 6c 21 40 0a 88 c5 3f ff 10 6e 3f 4c b3 e8 3e
       2.5222335 1.5432141 0.92994684 0.45449293
000370 1b ac 16 bf 21 ff 29 bf d8 f1 18 bf e5 68 4e be
       -0.5885636 -0.6640492 -0.59744024 -0.20157202
000380 ac 50 c8 be 2e 6a 02 3e 79 fb d1 3d ba 62 91 3d
       -0.39124048 0.12735817 0.10253043 0.07098909
000390 58 9b 52 bd 9a 78 fe bd ba aa 9e be b1 ea f1 3c
       -0.05141768 -0.12425347 -0.3098963 0.029530855
0003a0 db 79 e2 3d 39 c3 e2 3d ea f5 89 3d 61 13 95 3d
       0.11058398 0.11072392 0.067363575 0.07279087
0003b0 5d 23 96 bb e6 b5 55 bd 11 36 f7 3c 7c 15 51 bc
       -0.0045818524 -0.052175425 0.030177148 -0.01276147
0003c0 df af 1f bf cb 7f 31 3e 62 a5 88 3f 09 cd c6 3f
       -0.62377733 0.17333905 1.0675471 1.5531322
0003d0 26 1a 08 40 cf fb 1b c0 8f e6 35 c0 e2 6e f3 bf
       2.126596 -2.4372442 -2.8421972 -1.9018214
0003e0 bc 7f f9 bf 43 a5 d2 bf b9 59 9d 3f 69 6c 9f 3f
       -1.9492106 -1.6456684 1.2293006 1.2454959
0003f0 fb 74 91 3f 53 a9 8d 3f 2c 26 99 3f 5e b7 85 bd
       1.1363825 1.1067299 1.1964774 -0.06529115

features.0.bias f4 [16]
000000 ee 41 74 3d 6d f9 cf bd 5a e6 6c be c4 a9 a3 bd
       0.059633188 -0.10154996 -0.23134747 -0.079913646
000010 27 e5 0c bd 5f 34 aa be 83 4a b9 3d e1 32 8f bb
       -0.034398224 -0.3324308 0.09047415 -0.004370079
000020 ea 91 2d 3e f2 8a 56 3e 66 b8 04 3d 8e bc a5 3d
       0.16950193 0.20951441 0.03240242 0.080926046
000030 72 fe 24 3d bd 84 ac bc 7c af 44 3d 42 7c 7e 3d
       0.04028172 -0.021059388 0.048018917 0.06213022

features.1.weight f4 [16]
000000 22 90 4c 3f b4 b0 46 3f 90 74 2c 3f 57 30 4c 3f
       0.7990743 0.7761338 0.6736536 0.7976126
000010 7d b6 24 3f 18 a0 5d 3f f9 ef 4e 3f f2 ea 4e 3f
       0.64340955 0.8657241 0.8083492 0.8082725
000020 eb c6 3a 3f 96 af 5c 3f c2 0e 51 3f 59 b3 4a 3f
       0.72959775 0.8620542 0.81663144 0.7917991
000030 8c cc 58 3f d9 df 45 3f 8f bb 45 3f 5d 77 38 3f
       0.84687114 0.7729469 0.77239317 0.72057134

features.1.bias f4 [16]
000000 10 59 8c bd aa 27 da be b9 45 94 bc 39 87 66 3b
       -0.06852925 -0.42608386 -0.018099653 0.0035175814
000010 af a2 8d 3b ec a3 95 be 34 fe ac be b4 f9 11 be
       0.004322372 -0.29226625 -0.33787692 -0.1425541
000020 90 d9 16 be 9e 1f 97 b9 63 52 2e bc f7 4c f6 be
       -0.14731431 -0.0002882452 -0.01063976 -0.48105595
000030 90 38 33 be 1f 7f b8 be 8b c2 54 3b cf 87 83 bc
       -0.17502046 -0.36034486 0.003246459 -0.01605597

features.1.running_mean f4 [16]
000000 a0 ef fb ba 3b ef dd bd b6 e2 62 be d3 55 15 be
       -0.0019221194 -0.10836645 -0.22156796 -0.1458352
000010 04 6e 44 3d fa a5 ae be 40 68 df 3a f0 6d 16 bc
       0.04795648 -0.34111005 0.0017044619 -0.009181485
000020 e3 59 2c 3e 0b 8c 24 3e 0e db 12 bd e3 c2 b0 3d
       0.16831164 0.16069047 -0.035853438 0.08630922
000030 32 c1 23 3c 7a 21 20 bc c6 c0 92 3d bb e4 58 3d
       0.009994792 -0.009773606 0.07165675 0.05295251

features.1.running_var f4 [16]
000000 5b ec 55 44 2d 8b d8 41 48 88 51 43 70 35 92 44
       855.69305 27.067957 209.53235 1169.6699
000010 cc 01 ba 44 f1 76 b0 41 48 26 d3 44 f3 d3 7b 43
       1488.0562 22.058077 1689.1963 251.82793
000020 bb 18 a7 42 bc e6 bd 44 85 25 6f 44 76 97 cb 41
       83.5483 1519.2104 956.58624 25.448956
000030 71 8e b6 43 48 19 66 43 9f 67 90 44 98 c4 a8 43
       365.11282 230.09875 1155.2382 337.5359

features.5.weight f4 [32, 16, 3]
000000 cd 49 9f 3d 54 b6 fe 3d 43 9a 52 bd 16 84 0f be
       0.07777748 0.1243712 -0.051416647 -0.1401523
000010 0c 81 c9 bd d0 6b f5 bd 31 8c e5 bd 6f 5d de 3c
       -0.09839067 -0.11983454 -0.1120838 0.027144162
000020 7b f4 06 3e f6 01 85 3d dd 13 f0 bc ac a1 56 3d
       0.131792 0.06494515 -0.029306347 0.052400276
000030 4d 1a 9b 3d 7b a4 90 3d 18 b1 d3 3d 93 f9 5f be
       0.07573376 0.07062622 0.10336512 -0.21872549
000040 d2 24 7c be fa 1b a1 be c6 cb d5 bc 5d 5b 08 bc
       -0.24623421 -0.31466657 -0.026098143 -0.008322564
000050 6a 0a bb 3d b1 8c 55 be 4c 6a 33 be 90 f6 3a be
       0.09132846 -0.20854451 -0.17521018 -0.18258119
000060 5c c5 32 be 8a 46 1f be 6c 4b 07 be 40 41 44 3d
       -0.17458099 -0.15554252 -0.13212365 0.04791379
000070 d4 da a6 3d 73 2a ee bc d6 54 ff 3d 7c b0 b6 3d
       0.08147207 -0.029072976 0.12467353 0.089203805
000080 af 23 5e 3d ff 7b 1c be f8 2f 32 be 76 4d 0b be
       0.05423325 -0.15281676 -0.17401111 -0.13603768
000090 1f 49 ba bd 76 d0 6a 3d 2d a7 a8 3d 82 5a 05 3e
       -0.09095978 0.05732771 0.08235011 0.13022807
0000a0 c9 62 bf bd 06 ac 09 3e ee de 61 3b a6 a3 50 3e
       -0.09345014 0.13444528 0.0034465152 0.20374927
0000b0 3d 4b 29 3c e4 d3 a3 bd e3 74 50 bd 22 18 b0 ba
       0.01033288 -0.07999399 -0.05089272 -0.0013434927
0000c0 ba 5e 23 be 99 65 4b be c9 28 d9 bd 19 66 71 bc
       -0.15954104 -0.19862975 -0.10603482 -0.014733815
0000d0 6e 20 80 3e 6a b4 91 3b 75 d1 6b bd 28 1e 7c 3c
       0.25024742 0.004446556 -0.0575728 0.015388049
0000e0 67 e0 59 3b 9c 1f 12 3d 54 06 14 bd 87 74 30 be
       0.0033245326 0.035674676 -0.036138847 -0.17231952
0000f0 a7 fd 0d bd 72 09 52 3c 71 65 5b bc 80 7c 2f 3e
       -0.03466573 0.012819635 -0.013390885 0.17137337
000100 97 ea db bc 7d 88 18 3e 60 fa 8a be fc de a4 be
       -0.02684526 0.14895816 -0.27144146 -0.32201374
000110 97 f6 70 be 86 2d 87 bd f8 38 62 bd 81 cb 84 bd
       -0.23531567 -0.0660048 -0.05523011 -0.06484128
000120 d4 b1 cf bd 0a 05 35 be 0e ba 12 be f6 01 cb 3d
       -0.1014134 -0.17677703 -0.14328787 0.099124834
000130 c6 c6 9a 3d 3e 38 87 3d 77 e9 94 bd eb 09 0d be
       0.07557444 0.06602524 -0.072710924 -0.13773315
000140 29 c4 38 be c2 7d d5 bd 69 c8 69 be 38 c1 7a be
       -0.18043579 -0.10424377 -0.22830357 -0.2448777
000150 f7 4d 2b 3d d6 52 82 bd f5 af ff 3d 1a eb b3 3d
       0.0418224 -0.06363456 0.12484733 0.087850764
000160 25 6f 79 3a 1f 6b 4e 3d 70 90 29 be d5 fb 7c bd
       0.0009515158 0.050395127 -0.16559005 -0.061763603
000170 fa bd 55 3d c0 01 07 be 2a 18 0f be da 7f 9b bd
       0.05218313 -0.13184261 -0.13974062 -0.07592745
000180 c3 81 8b 3b 93 29 d7 3d 63 cf 40 3d 9c e8 06 bd
       0.004257412 0.105059765 0.04707278 -0.032936677
000190 d3 14 2f 3d 38 6f 96 bd c6 7c 23 bb f4 b2 ca bd
       0.04274447 -0.07345432 -0.0024946197 -0.09897414
0001a0 c4 cf 1e be 4d 93 85 be d6 d5 b9 be 38 84 81 be
       -0.15508944 -0.26088944 -0.36295956 -0.25296187
0001b0 c6 cb 7b bd 57 66 24 be 45 cd d1 bd a2 9c 05 be
       -0.06147363 -0.16054665 -0.1024423 -0.13048032
0001c0 f0 77 be 3d 51 02 2f 3e 42 ca 45 3e 00 7a a5 bc
       0.0930022 0.17090727 0.19315436 -0.020199776
0001d0 08 a7 4b bd 0b 5c 07 3e 42 d4 5f bd 9e 08 f5 bd
       -0.04971984 0.13218705 -0.054645784 -0.11964534
0001e0 7b 80 74 3d f6 4f 48 bd f2 bf 6c bd 43 d7 06 be
       0.05969284 -0.04890438 -0.05780024 -0.13168053
0001f0 d8 a1 e8 bd f1 bf dc bd 94 0b 14 be 0f 9e 79 bd
       -0.11358994 -0.107787974 -0.14457542 -0.060941752
000200 24 0a 90 bd 51 c0 8c 3d e4 7c b5 3d da 05 b3 3d
       -0.07033184 0.06872619 0.088617116 0.087413505
000210 79 f6 54 bd ec 96 38 be b3 fb de bd 3e 2f 5f bd
       -0.051992867 -0.18026322 -0.108878516 -0.054488413
000220 36 bc 0e 3d d0 d7 5d bd 64 a6 08 be b0 b1 dc bd
       0.03484746 -0.054160893 -0.13344723 -0.10776079
000230 4f 6d 03 be bc 33 96 bd 0a bc 73 be 3c fe 35 be
       -0.12834667 -0.07334086 -0.238022 -0.17772764
000240 7a 28 08 3e ba 8d e9 bd ee d2 68 3e a3 b0 ae 3d
       0.1329669 -0.11403985 0.22736713 0.085297845
000250 f8 c9 fc bd 02 64 5a bd 02 7a b8 bd be 03 04 be
       -0.1234321 -0.05331803 -0.09007646 -0.12892053
000260 5c 7e 58 bd 85 90 bc bd 4c 20 95 bd ff 4b b7 3c
       -0.05285488 -0.092072524 -0.07281551 0.022375105
000270 9f 2a 4e 3b 29 0d 2b bd 56 be 38 3c 03 1d 10 3e
       0.003145851 -0.041760597 0.011275848 0.14073567
000280 45 3d 95 bd 88 2d c8 bd 93 f7 e8 bd 8c 2d ba bd
       -0.07287077 -0.097743094 -0.11375346 -0.090907186
000290 5c 36 9b be 73 32 d8 3b 8d 84 8b be 4d f7 42 3d
       -0.3031491 0.006597811 -0.27249566 0.047599126
0002a0 a1 bd 18 be cc 64 21 3c 50 46 94 bb de 5c ac 3d
       -0.14916088 0.009850692 -0.0045249835 0.084161505
0002b0 3f 32 64 3c f7 d5 52 bd 26 1a 9e 3d 8b 5a 38 bd
       0.013927995 -0.051473584 0.07719831 -0.045008224
0002c0 43 ba 9a 3e 28 e6 26 3d 2f 1a bd bd 17 29 19 3e
       0.3022023 0.040746838 -0.0923351 0.14957081
0002d0 2d 87 4b be 2b 0f 21 be a0 dc ac be 21 50 5d be
       -0.19875784 -0.15728442 -0.33762074 -0.21612598
0002e0 9b 03 a4 bd ae 6d da bd 2e 32 31 bd 6a 01 78 3d
       -0.080085 -0.10665451 -0.043260746 0.060548224
0002f0 7a 4a fe bd cc 4d 50 be bf d8 68 bd fe 36 50 be
       -0.12416549 -0.20342177 -0.05684733 -0.20333478
000300 be 8f 06 be 91 af b2 bd a6 43 96 bc 33 0d 60 bd
       -0.13140771 -0.08724893 -0.018342804 -0.054700088
000310 27 60 be bd 2e 60 c6 3d 8c a2 bc 3d 5b 01 c9 bc
       -0.09295683 0.096863136 0.09210691 -0.02453678
000320 92 69 a2 bd 77 47 30 3e d0 dc 25 be 28 9a 5b 3d
       -0.07930292 0.17214762 -0.16197515 0.05361381
000330 2e 27 9b bc e0 42 66 bd 2c 3f 99 bd 09 e2 6f be
       -0.01893958 -0.05621612 -0.07482752 -0.2342607
000340 37 b5 d0 3c ad 18 b6 bd e1 9b 22 be aa 0e 44 be
       0.025477035 -0.08891425 -0.15879776 -0.19146219
000350 e6 f7 76 be 4f 70 7a 3d 72 13 f8 3d 6a 5c b3 3d
       -0.24118003 0.061142262 0.12113084 0.08757861
000360 d6 07 65 be 2a 5c 11 be 5b 46 db 3c df 57 62 bd
       -0.2236627 -0.14195314 0.026766947 -0.05525958
000370 70 6b 9a bd a4 23 02 be 59 f7 37 bd 15 67 86 bd
       -0.07540023 -0.12708908 -0.044913623 -0.0656263
000380 69 48 52 bd 3f e7 db ba 88 32 bb 3d 6c d2 53 3e
       -0.051338587 -0.0016777291 0.091404974 0.20685738
000390 a3 fc 01 3d 4b 06 30 3e 25 7d 29 3e 1f 80 4c be
       0.031735074 0.171899 0.16551645 -0.1997075
0003a0 24 7e 97 be 77 e4 45 be 57 ae d6 3d 7c e0 d4 3c
       -0.29588425 -0.19325434 0.104824714 0.025985949
0003b0 ae b1 ba bd da 0c 91 3d e8 33 69 3d 2e 14 2c ba
       -0.09115921 0.07082529 0.056934267 -0.00065642863
0003c0 0b df d7 bd f2 2e 9d bd e3 84 36 bc b7 76 39 3e
       -0.10540589 -0.0767497 -0.011140081 0.18111692
0003d0 6d be b1 bd c6 3f 04 be 90 25 d5 3b d7 c5 55 3d
       -0.08678899 -0.12914953 0.006504722 0.052190628
0003e0 96 60 67 3d 0d 1d 8a be 91 fd 90 be 42 1d b3 bd
       0.056488596 -0.2697529 -0.28318456 -0.08745815
0003f0 e3 be 8d bd 35 f3 35 3d 75 b1 0e 3c 97 84 08 3e
       -0.069211744 0.044421393 0.008709301 0.13331829

features.5.bias f4 [32]
000000 ec 8c 09 3d 4c 91 2a be 5b ad a4 bc d4 ce 0f be
       0.03358166 -0.16656989 -0.020102194 -0.14043742
000010 f0 44 6a bd 2f f2 a3 bc 53 20 3d bd c9 4c bc 3d
       -0.05719465 -0.020012943 -0.046173405 0.09194333
000020 a7 2a 57 3c 5d 31 6f be 6b b6 b8 bd 45 02 39 bd
       0.013132728 -0.23358674 -0.090191685 -0.04516818
000030 32 35 a5 3c 62 17 13 3e e8 7d 44 3d bd 6a c0 3d
       0.020166967 0.14364389 0.047971636 0.09395359
000040 3c 73 8c 3d 49 60 c7 3d 9f 3b ed 3c a7 aa 49 3c
       0.06857917 0.09735162 0.028959094 0.012308753
000050 48 ee 1a 3e bd 1f 0f 3c b2 79 d0 bd 48 52 74 bd
       0.1512996 0.008735594 -0.101794615 -0.059648782
000060 22 de 09 3e 21 06 cf 3d d6 93 93 bd 94 3c 57 bd
       0.13463643 0.10108591 -0.07205932 -0.052548006
000070 69 86 8b bd 23 bb 1a 3c 44 fb 06 3e 02 70 34 bd
       -0.06812746 0.009444031 0.13181788 -0.04405213

features.6.weight f4 [32]
000000 fc 2f 45 3f cd 9b 6b 3f 4c 12 62 3f 74 58 39 3f
       0.77026343 0.9203461 0.8830917 0.72400594
000010 59 29 2d 3f f3 32 61 3f 11 83 52 3f 16 fd 47 3f
       0.67641217 0.8796837 0.8223124 0.78120553
000020 5d 3d 29 3f 08 d8 5c 3f 54 96 68 3f 77 cf 4e 3f
       0.6610926 0.8626714 0.9085438 0.80785316
000030 d4 9c 36 3f 77 4d 58 3f d2 26 50 3f b2 10 58 3f
       0.7133305 0.844932 0.81309235 0.84400475
000040 51 9a 2c 3f b5 00 4d 3f 58 43 61 3f 58 de 57 3f
       0.6742297 0.80079204 0.87993383 0.84323645
000050 c5 53 30 3f cc bb 67 3f f8 0a 4f 3f d5 32 58 3f
       0.6887782 0.9052093 0.8087611 0.84452564
000060 36 44 6d 3f ef 7d 01 3f 01 45 3c 3f 4e c7 41 3f
       0.92682207 0.50582784 0.7354279 0.7569474
000070 3f c2 3e 3f 89 e0 4a 3f b9 23 28 3f a7 f6 4b 3f
       0.74515146 0.79248863 0.6567951 0.79673237

features.6.bias f4 [32]
000000 1e 7c d8 bd 3c 89 00 be 72 f0 76 be b2 24 26 3d
       -0.105705485 -0.12552351 -0.2411516 0.04056234
000010 0b 73 12 be e3 e1 26 be 7e 01 f0 bd f4 09 fd be
       -0.14301698 -0.16297106 -0.117190346 -0.49421656
000020 23 9f b8 be 08 00 6f bd f4 5f 06 be dd 04 21 3d
       -0.36058912 -0.05834964 -0.1312254 0.03931128
000030 0d 82 9e bb 06 41 03 be 7c 70 42 be 07 a5 c7 bd
       -0.0048372806 -0.12817773 -0.18988222 -0.09748273
000040 09 71 29 be 96 ee 44 be 18 9e 55 be 44 1e 22 bd
       -0.16547026 -0.19231638 -0.20861089 -0.039579645
000050 2a f3 a7 be 4f 83 21 be 51 95 89 be 68 7c 4c be
       -0.32802707 -0.15772747 -0.26871732 -0.19969332
000060 8d f8 29 bd 39 e8 e9 be 9a 64 65 be 90 ce 2a be
       -0.041496802 -0.45684984 -0.22401658 -0.1668036
000070 a9 9b f5 bd e4 c5 cb be c1 3d e4 bd 5d cf 9a be
       -0.119925804 -0.39799416 -0.11144591 -0.3023633

features.6.running_mean f4 [32]
000000 a1 78 0d be 0d 51 12 bf c6 fa 16 bf 1e 21 01 bf
       -0.13815548 -0.57154924 -0.589764 -0.5044116
000010 32 d7 92 be 8f dd 22 bf de 95 ab be 34 0a 36 be
       -0.28679806 -0.6361932 -0.33512777 -0.1777733
000020 84 ea 10 3e 02 15 2e bf 02 db 28 bf 7e 25 f7 be
       0.1415196 -0.68000805 -0.6595918 -0.48270792
000030 66 1d 4c be 59 2a 2d be dc 7d 50 be dc b3 53 be
       -0.1993309 -0.16910686 -0.20360512 -0.2067408
000040 1e cc 61 3d d6 61 a6 be bf 9e 09 bf b1 a2 6d be
       0.055126302 -0.32496518 -0.5375785 -0.23206593
000050 1d 6a 05 3e 2f f2 b8 be 3c 7b 01 bf 34 ab ac be
       0.1302876 -0.3612227 -0.50578666 -0.33724368
000060 3d ab 96 be 15 41 36 3e 67 7e b4 be cc a0 dc be
       -0.2942752 0.17798264 -0.35252687 -0.43091428
000070 d1 d3 02 be 50 8a 74 be 08 82 81 3d 21 c6 fd be
       -0.12776114 -0.23880887 0.063236296 -0.49565223

features.6.running_var f4 [32]
000000 98 a8 0a 3f d2 d1 86 3f 49 8f 88 3f f8 4c 48 3f
       0.54163504 1.0532782 1.0668727 0.78242445
000010 4c d8 1e 3f fb 98 f3 3f 53 e7 1b 3f ba 08 08 3f
       0.6204879 1.9031061 0.6089985 0.53138316
000020 47 f3 d1 3e 4a 11 60 3f b5 7f ab 3f c5 df 84 3f
       0.41005918 0.8752638 1.3398348 1.0380789
000030 76 61 0e 3f 84 0f 66 3f 7c df 25 3f 16 ff 57 3f
       0.55617464 0.89867425 0.64794135 0.84373605
000040 c0 ad a1 3e 8e 49 70 3f 7a 06 86 3f 6b 4f 52 3f
       0.31577873 0.93862236 1.0470726 0.8215243
000050 11 55 99 3e a5 1a 66 3f 06 42 3b 3f 30 c4 1b 3f
       0.29947713 0.89884406 0.7314762 0.60846233
000060 bc c4 ba 3f f1 c3 99 3e f9 ee 02 3f 57 af 7f 3f
       1.4591289 0.30032304 0.51145893 0.9987692
000070 e2 cc da 3e 1e 63 0a 3f ae 0b 96 3e 8e 97 46 3f
       0.42734438 0.5405749 0.29305786 0.77575004

features.10.weight f4 [64, 32, 3]
000000 f3 71 23 be 7b 04 02 be 77 6a 17 be 02 71 8c 3d
       -0.15961437 -0.12697022 -0.14786707 0.06857492
000010 3f dd 66 3d 39 b0 e2 3d 4d f5 85 bd 3e d3 6d bc
       0.05636334 0.11068768 -0.06540928 -0.014515696
000020 2f ec 88 bd a7 d7 1e be c3 be 3c be d3 e0 46 be
       -0.066856734 -0.15511952 -0.18432145 -0.19421701
000030 8d dd 3a bd 49 f4 13 bd 1a 2a 6e 3d 41 d5 32 bd
       -0.045621444 -0.03612164 0.05814562 -0.043660406
000040 2f a9 ec bd dc 50 93 bd df 9d de 3d 48 19 87 3d
       -0.11555707 -0.07193157 0.10869955 0.06596619
000050 58 10 f0 3d 60 0d 3e bd 59 91 ab bd b2 83 e5 bd
       0.11721867 -0.046399474 -0.08377332 -0.112067595
000060 3f 67 99 bd f9 c4 81 bd b9 9a b4 bd 23 d4 14 be
       -0.07490396 -0.06336398 -0.088185735 -0.14534049
000070 2d 15 13 be f9 c7 bf bd b3 5e cb bd 0a 1e c2 bd
       -0.14363547 -0.09364314 -0.09930172 -0.09478386
000080 11 10 09 bd 2c be 14 be 51 88 22 be 3e 0f 33 be
       -0.033462588 -0.1452567 -0.15872313 -0.17486283
000090 ee 52 2d be 95 5a dc bd 0f b3 ff bd 1c 4c ef 3d
       -0.16926166 -0.10759465 -0.124853246 0.116844386
0000a0 88 45 89 3d 02 ce c5 3d 24 4c 4c 3c 8e 67 70 bc
       0.06702715 0.096584335 0.012469325 -0.014673127
0000b0 b6 05 87 bd 39 a2 55 3d 81 28 1e 3c ce 42 33 3d
       -0.06592886 0.05215666 0.009653212 0.04376488
0000c0 54 41 c3 bd 20 d5 47 bd ba 88 7f bd 3f 65 40 3e
       -0.09533945 -0.048787236 -0.062386252 0.18788622
0000d0 51 6c 6e 3e c4 4c 5a 3e da 0e 6d bd 80 f0 5a bd
       0.23283507 0.21318346 -0.05787549 -0.053452015
0000e0 dd 84 34 bd 89 57 44 be 60 63 2d be 3f 1a 2f be
       -0.04407202 -0.19174017 -0.1693244 -0.17099856
0000f0 25 1b c1 bd 19 c7 8a bd fd 11 28 bd af 9c cb 3d
       -0.094290055 -0.06776256 -0.04103278 0.099419944
000100 6a 5a 4f 3d d5 12 92 3d 2c b8 ad 3e e5 98 89 3e
       0.050623335 0.07132498 0.33929574 0.26874462
000110 8f 31 8a 3e 61 a6 1b 3d 86 de 13 bd dd 97 05 3d
       0.26990935 0.03800047 -0.036100887 0.03261553
000120 85 06 47 be 03 48 2f be 71 62 20 be d1 2b d6 bc
       -0.19436081 -0.17117314 -0.15662552 -0.02614394
000130 a4 0b 65 3c 42 80 de bc ea 85 b0 bc c8 5b 91 bd
       0.013979826 -0.027160767 -0.02154823 -0.07097584
000140 e7 b5 c9 bd ff 86 0d bd 42 74 22 bd 1d 45 30 bd
       -0.09849148 -0.03455257 -0.039661653 -0.04303466
000150 1b 1d e1 bd 09 c2 f4 bd 32 8b 1f be 19 7b 90 bd
       -0.109918796 -0.11951072 -0.15580443 -0.07054729
000160 c0 04 0a bd db bc 23 bd 73 36 90 bd 46 45 36 bd
       -0.033695936 -0.03997503 -0.07041635 -0.044499658
000170 e4 e5 c9 bd ed 22 5f 3d 47 ff d9 bc 2f c5 76 bd
       -0.09858301 0.054476667 -0.026610984 -0.060246643
000180 4a b0 02 bd 52 ff c4 bd 12 12 15 be 52 42 6b 3d
       -0.031906404 -0.09619011 -0.14557675 0.057436295
000190 42 97 84 3d 8a 68 fb 3d 72 2d 87 bd a3 1c 67 bd
       0.06474163 0.122757986 -0.06600465 -0.056423794
0001a0 25 a7 5f ba 8b 8f 19 be e1 da 30 be 0f 90 2b be
       -0.00085316814 -0.14996164 -0.17270996 -0.16754173
0001b0 c3 ac 96 bd 80 93 4d bd 7e c4 23 3d a3 06 03 be
       -0.073571704 -0.050189495 0.03998231 -0.127955
0001c0 18 2e b3 bd d8 eb f1 bd 4c 01 fd 3d 68 ac e7 3d
       -0.08749026 -0.11812562 0.12353763 0.11312181
0001d0 76 0f e6 3d 64 9d bf bc a2 18 e3 bc c8 e9 92 bd
       0.11233418 -0.02339048 -0.027721707 -0.071734965
0001e0 39 4c da bd 48 89 19 bd 20 da aa bd c3 a9 8e bd
       -0.106590696 -0.037484437 -0.08342385 -0.06965973
0001f0 f2 9c e9 bd 2e 3c d8 bd 32 a7 58 bd 64 cb 98 bd
       -0.11406888 -0.10558353 -0.052893825 -0.07460669
000200 a6 c7 41 bd dc e0 c4 bd 73 77 08 be a3 77 0f be
       -0.04730954 -0.09613201 -0.13326816 -0.14010482
000210 36 eb 07 be ab 71 d6 bd f4 af cc bd c8 59 df 3d
       -0.1327332 -0.10470899 -0.09994498 0.10905796
000220 09 49 fc 3c e7 33 97 3d 3b 00 b7 bc 71 c1 92 bd
       0.030796545 0.073829465 -0.022338977 -0.07165802
000230 1b e7 d1 bd 03 6b a6 3d 65 7c 0e bc 9b 5d 8e 3d
       -0.10249158 0.081258796 -0.00869665 0.069514476
000240 5a 8e fd bd d9 63 ed bd f3 ab f1 bd 5d 26 3a 3e
       -0.12380667 -0.1159131 -0.11800375 0.18178697
000250 bd 7b ba 3d dc 50 b2 3d 10 a6 93 bd e3 27 7a bd
       0.091056325 0.08706829 -0.07209408 -0.061073195
000260 b0 0f ab bd 94 66 23 be a1 43 1e be a2 df 37 be
       -0.083526015 -0.15957099 -0.15455486 -0.17956403
000270 79 39 ed bd 00 c4 bc bd f4 16 19 be 3b 63 90 3d
       -0.11583228 -0.092170715 -0.14950162 0.07050177
000280 b9 29 89 bb 31 b1 96 3d 3f 7f 6e 3e 0c cb 42 3e
       -0.004185882 0.07358015 0.23290728 0.19022769
000290 88 7e 50 3e ee 7a ac 3d 0d c3 90 3d fb 2f dd 3d
       0.20360768 0.084218845 0.07068453 0.10800167
0002a0 dd 4d db bd 0b 25 f7 bd 8c f0 dc bd b8 81 81 bd
       -0.107082106 -0.12067612 -0.10788068 -0.0632357
0002b0 4f 16 a0 3b 7e 71 7e bc 27 bb c3 bd 8b 16 08 be
       0.004885472 -0.015529988 -0.09557181 -0.1328985
0002c0 2e 08 1d be d2 d5 87 bd 77 b6 8a 3c 40 a4 1f 3c
       -0.15335152 -0.0663258 0.01693271 0.00974375
0002d0 f4 bf d6 bd 84 92 06 be e6 d8 29 be 2b dd 11 bd
       -0.10485831 -0.13141829 -0.16586646 -0.035611313
0002e0 85 1a 68 3c 97 1f 18 3a ac 4d 15 be 4b 70 d7 bd
       0.014166479 0.0005803047 -0.1458041 -0.10519465
0002f0 73 4b 1d be 91 b0 1f 3d f1 3f 8f 3a 0b 96 b2 3b
       -0.15360813 0.038986746 0.001092909 0.0054500154
000300 92 5a 7d bd d8 c8 bc bd 14 76 a7 bd e1 ea 58 bd
       -0.061853953 -0.092179954 -0.081768185 -0.052958373
000310 e0 f9 6a bd 77 71 80 3c e3 35 82 3e 81 a0 c8 3d
       -0.057367206 0.015679104 0.25431737 0.09796239
000320 d5 a6 4f 3e 60 99 52 3e e4 b7 da 3d db 2f 74 3d
       0.20278485 0.2056632 0.106796056 0.05961595
000330 3e 13 8e 37 90 a6 44 3c 0f 32 92 b9 36 15 c3 3e
       1.693668e-05 0.012002602 -0.00027884587 0.3810212
000340 7b 08 76 3e 48 2c 07 3e 8d be cb 3c 02 b7 a2 bb
       0.24026673 0.13200486 0.024871135 -0.004965664
000350 15 26 53 b9 ef cd 19 bd 9b 56 34 bd ed 43 99 3c
       -0.00020136715 -0.03754991 -0.044027906 0.018709147
000360 5d 61 ab bd df 68 33 bd 0e 0a a5 3a b8 ae b2 3d
       -0.0836818 -0.043801185 0.0012591498 0.08724731
000370 9c 2b 09 3e 0a d1 0d 3e 33 37 8f 3e 8a d5 c4 3d
       0.13395542 0.13849273 0.279718 0.09611042
000380 21 d7 14 3e 7b 57 1f 3e 32 8c 14 3e b5 06 d2 3d
       0.1453519 0.15560715 0.14506605 0.102551855
000390 dc 6f e0 bd 5a 42 19 be c7 23 03 be f1 d3 7b bc
       -0.109588355 -0.14966717 -0.12806617 -0.015370355
0003a0 21 0c 40 bc ac 43 73 3c 80 26 3a be 0b 58 08 be
       -0.011721642 0.014847677 -0.18178749 -0.13314836
0003b0 e1 ba 1c be f9 a8 38 bd 07 e6 42 bd cb 07 30 be
       -0.15305664 -0.04508302 -0.047582652 -0.17190473
0003c0 15 e9 86 3d 5a 1f b0 3c 1c ff 99 3c 86 6c a6 3c
       0.065874256 0.021499325 0.018798403 0.02031542
0003d0 62 2d b6 ba 69 20 22 3e 62 cd 93 3e da 47 e0 3d
       -0.0013899023 0.15832676 0.28867632 0.109512046
0003e0 18 e1 3c 3e cd f7 bb bd a0 cd e1 bd 21 d7 36 be
       0.18445241 -0.091781236 -0.11025548 -0.17855503
0003f0 06 92 9b bc aa b7 ab bc ad 0f 86 bc d6 9a 4e bd
       -0.018990528 -0.020961601 -0.016364897 -0.05044063

features.10.bias f4 [64]
000000 f5 f4 91 bc da 39 c6 bc 8d b7 43 3e d4 f1 4a bc
       -0.017817 -0.024197508 0.19112988 -0.012386758
000010 0b 13 72 bc fb 8c 0b 3d 6f 32 a2 3d dc 05 28 3d
       -0.014775048 0.034069996 0.07919776 0.041021213
000020 db d5 7b 3d 2e 98 f1 3c ac 6f de bc 1b 99 0c 3d
       0.061483245 0.02949151 -0.027152859 0.0343257
000030 63 a0 28 bd 39 5e 2a be 85 4c 34 be 4f 8d c8 3d
       -0.04116858 -0.16637506 -0.17607315 0.097925775
000040 a5 fc 87 bc f6 31 ba 3d cf 5e 09 be 79 83 9c 3d
       -0.016599962 0.090915605 -0.13415073 0.07642264
000050 44 b2 74 3d 75 d1 09 3d 71 7c ab 3d 75 09 d7 3d
       0.05974032 0.03364702 0.08373345 0.10499851
000060 80 74 54 bc cf 6a fa 3c 26 eb a7 3b 58 18 ad ba
       -0.012967229 0.030568508 0.0051244674 -0.0013206108
000070 5b a6 b0 3c 7f 36 06 be 65 bc d4 3c dc d6 fd 3d
       0.0215637 -0.13106726 0.02596874 0.12394497
000080 12 60 c7 bd 40 57 a3 bd 9c 88 94 3b 8e 51 11 3c
       -0.09735121 -0.07975626 0.0045328867 0.008869542
000090 f6 c7 42 bc 04 d4 9f bd cd 2d d2 bb c7 b8 ee bd
       -0.011888495 -0.07804111 -0.0064141513 -0.11656337
0000a0 f2 98 ce 3d 7c b5 4e 3d 4e 6f a1 bd 18 e2 5c bc
       0.10087766 0.050466046 -0.07882558 -0.013481639
0000b0 84 81 0f 3d 7b d6 78 bd a6 76 ee bd bb 0e 10 3d
       0.035035625 -0.06075142 -0.11643724 0.035170298
0000c0 ef 5f 5e 3b 5a bc 16 3d da fd 9f bd 0c 1f c4 b9
       0.0033931693 0.03680072 -0.0781209 -0.00037407165
0000d0 1f d6 0c 3d 3d b5 98 3d 46 3c 50 3d f6 b7 df 3d
       0.03438389 0.074564435 0.05083873 0.1092376
0000e0 24 21 93 3c 6f 0d ab bc ea f7 72 bd 2a e9 97 3d
       0.017960139 -0.02088043 -0.05931846 0.074175194
0000f0 d7 6a 2a 3c a8 f2 78 38 80 8e 1c be b2 f2 8c 3c
       0.010401449 5.93538e-05 -0.15288734 0.01720557

features.11.weight f4 [64]
000000 f8 eb 4d 3f d1 b3 3e 3f 38 a1 58 3f 4c 44 54 3f
       0.80438185 0.7449313 0.84621 0.8291671
000010 04 e4 4c 3f 13 a7 5f 3f 3b 53 58 3f 1f 2e 5f 3f
       0.80035424 0.8736431 0.84502 0.8717975
000020 0e de 45 3f 8e 76 78 3f 87 d6 43 3f 43 f5 59 3f
       0.77291954 0.970559 0.7649922 0.85139865
000030 6f af 5f 3f f8 57 44 3f 9c 83 71 3f a5 5a 54 3f
       0.87377065 0.7669673 0.94341445 0.8295081
000040 53 88 43 3f 78 9b 51 3f 35 e7 46 3f 10 6d 58 3f
       0.7637989 0.8187785 0.77696544 0.84541416
000050 2c 2d 55 3f a4 ca 3f 3f f1 ae 58 3f 11 2f 5e 3f
       0.8327205 0.7491858 0.8464194 0.8679057
000060 d9 0e 56 3f f2 8f 58 3f f5 10 60 3f 74 83 57 3f
       0.83616406 0.84594643 0.87525874 0.84184957
000070 84 a8 56 3f 04 ca 46 3f 9c 24 57 3f 56 e6 78 3f
       0.83850884 0.77652 0.84040236 0.97226465
000080 a1 c2 4c 3f 24 79 48 3f a1 f0 43 3f 49 43 5b 3f
       0.7998448 0.78309846 0.76539046 0.85649544
000090 98 49 4f 3f c9 d6 87 3f 6b 6a 5e 3f 74 0e 6b 3f
       0.8097167 1.0612422 0.8688113 0.9181893
0000a0 7b 56 48 3f 90 bf 57 3f 6f 47 63 3f fa b8 5a 3f
       0.7825696 0.84276676 0.88780874 0.854385
0000b0 4f ac 63 3f a5 e1 57 3f a6 0e 55 3f cf a0 48 3f
       0.889348 0.8432868 0.83225477 0.78370374
0000c0 d8 5e 57 3f b6 2a 5f 3f 18 ef 66 3f 4f dd 3d 3f
       0.84129095 0.87174547 0.9020858 0.74165815
0000d0 71 f7 55 3f 20 38 4b 3f 6f bf 4d 3f 69 96 68 3f
       0.8358069 0.79382515 0.8037023 0.9085451
0000e0 41 90 48 3f e5 9a 5b 3f a0 08 54 3f 26 3e 42 3f
       0.78345114 0.85783225 0.8282566 0.7587608
0000f0 f0 89 68 3f 15 08 53 3f 6b 13 4a 3f 7d a7 39 3f
       0.90835476 0.8243421 0.7893588 0.7252119

features.11.bias f4 [64]
000000 52 2c dc be f8 ae f5 be 9d 31 fa bd 52 2d 49 be
       -0.43002564 -0.47985053 -0.12216494 -0.19646195
000010 f8 b6 cf be be c2 34 bd 87 ca 3c 3b 9c 48 70 be
       -0.40569282 -0.044131033 0.002880724 -0.23465198
000020 16 83 e6 be ed bd 0c be bf c6 ee be 5b 49 81 be
       -0.45021886 -0.13744326 -0.46636006 -0.25251278
000030 33 13 74 bd 94 de e1 be 75 8c 98 be f6 33 2a be
       -0.059588622 -0.44115126 -0.2979466 -0.16621384
000040 1c 7d fe bd 6c ec ac bc 62 f7 dc be f4 38 c5 be
       -0.124262065 -0.021108828 -0.43157488 -0.38520014
000050 41 d0 32 bd 22 75 e1 be 28 59 3d bc a8 5f 34 be
       -0.043655638 -0.44034678 -0.011556901 -0.17614615
000060 bc 07 38 be 20 91 cb bc ad 25 8e bd b0 28 9a bd
       -0.179717 -0.024849474 -0.0694078 -0.07527292
000070 e2 a5 90 bc dc 66 e2 be 48 03 09 bd 97 6d 97 be
       -0.017657224 -0.442191 -0.033450395 -0.29575798
000080 7b fa 88 be d2 00 e3 be 91 c2 de be 26 e9 f6 3b
       -0.267536 -0.44336563 -0.43507817 0.0075351177
000090 6d 8a c6 be 44 ea 88 be f2 d9 b3 3b ac a5 8b 3d
       -0.38777485 -0.2674123 0.0054886276 0.06818709
0000a0 b1 f6 ab bd bf 9e f0 3b ae b9 4b be 72 83 a5 bd
       -0.08396662 0.0073431428 -0.1989505 -0.08081712
0000b0 53 c9 4c bb 6b 59 d7 be a7 a6 18 bc 3d be e0 bd
       -0.0031247928 -0.42060408 -0.009317077 -0.10973785
0000c0 ab 3e f9 be f5 67 25 3d a7 ee c1 bb f0 99 ea be
       -0.48680624 0.040382344 -0.005918342 -0.4582057
0000d0 78 a7 1a bc 8c c7 cb be bf 28 da be 89 39 85 bd
       -0.009439342 -0.3980068 -0.42609212 -0.065051146
0000e0 67 46 de be 0a e5 b1 be fa 18 ed be 48 9f f0 be
       -0.43413088 -0.34745055 -0.46308118 -0.46996522
0000f0 87 db 59 be 01 0e d0 be 57 e5 cd be 3b 58 ee be
       -0.2127515 -0.40635684 -0.40214035 -0.4655169

features.11.running_mean f4 [64]
000000 c3 0a 44 bf c4 94 3c bf 93 b1 25 3f a8 90 68 be
       -0.7657892 -0.736645 0.6472408 -0.22711432
000010 a2 f1 2f bf 06 dc 16 3f 3f db b6 3e df 0d 92 be
       -0.6872808 0.5892948 0.35714146 -0.28526208
000020 cc 15 e3 be d2 ea 3a be 58 c2 3a bf eb c5 23 be
       -0.44352567 -0.1825364 -0.72952795 -0.15993468
000030 2a a0 d0 3e a0 03 40 bf ae 79 bb be a9 e1 8e be
       0.40747195 -0.7500553 -0.36616272 -0.2790654
000040 f4 d2 92 be 2e f5 ba 3d 1f 61 b3 be a2 84 ad 3c
       -0.2867657 0.091287956 -0.35035035 0.021181408
000050 32 c1 a5 3e 8b 3d 2d bf 19 f4 1d 3f 78 4a ea 3c
       0.3237396 -0.6767203 0.6170059 0.028599963
000060 c8 46 01 bf 11 3d 42 be f5 4d 46 3f b5 08 f4 bd
       -0.5049863 -0.18968607 0.77462703 -0.11915723
000070 47 02 4b 3f 30 97 35 bf b4 11 07 3f 7f de 78 be
       0.7930035 -0.7093382 0.5276139 -0.24303626
000080 9f fb 98 be 2d ac c6 be f4 43 ac be f4 ec fa 3c
       -0.29879472 -0.38803235 -0.33645594 0.030630566
000090 a2 d5 7b be b7 b6 05 bf 26 ad ce bd 56 1b 8e 3c
       -0.24593213 -0.52231926 -0.10091619 0.01734702
0000a0 87 a8 39 bd 6b e9 8c 3e 58 6a 59 be 97 24 31 3f
       -0.045326736 0.27521834 -0.21231973 0.69196457
0000b0 d8 25 7f 3e 42 e1 53 be 5a a7 ad 3e 80 eb 35 be
       0.2491678 -0.20691398 0.33916742 -0.17765617
0000c0 7a b4 99 bd 6f 84 06 3f a8 a2 4b 3e 44 07 3d bf
       -0.07505126 0.5254583 0.19886267 -0.7383921
0000d0 89 02 52 3e 9b 9d e7 be 4d 23 4e be 13 08 84 3f
       0.2050878 -0.4523743 -0.20130654 1.0314964
0000e0 e3 1a 9e bd 0a fb af bd 1e 0a f2 3c 34 ce 13 bf
       -0.07719972 -0.08592804 0.02954584 -0.57736516
0000f0 4b 63 92 be 1e 12 85 bd 95 f6 27 bf 9f fb 1c bf
       -0.2859138 -0.06497596 -0.6561063 -0.61321443

features.11.running_var f4 [64]
000000 da b0 25 3e 06 50 5d 3e e7 2a 65 3e a2 97 24 3e
       0.16180745 0.21612558 0.22379647 0.16073468
000010 9d 00 77 3e 8c a9 2f 3e 09 98 65 3e 2e bf 47 3e
       0.24121328 0.17154521 0.22421278 0.19506523
000020 29 f6 5d 3e d9 ea 4b 3e 98 c8 82 3e 61 c5 2b 3e
       0.21675934 0.19913806 0.25543666 0.16774513
000030 a9 a9 7f 3e 99 c6 3d 3e b3 97 36 3e d4 99 44 3e
       0.24967064 0.1853279 0.17831306 0.19199306
000040 19 46 17 3e d3 06 2c 3e 6d c0 47 3e eb fe 5d 3e
       0.14772834 0.16799478 0.19506998 0.21679275
000050 7f b8 46 3e 8e 1b 61 3e 9e 42 6e 3e ed 42 4b 3e
       0.19406317 0.21983168 0.232676 0.19849749
000060 42 d7 63 3e 08 a1 61 3e f1 8f 64 3e 75 47 03 3e
       0.22250083 0.22034085 0.22320534 0.12820227
000070 67 26 a7 3e b9 4e 90 3e 58 4f 64 3e bb a7 08 3e
       0.32646486 0.2818506 0.22295892 0.13345234
000080 06 98 37 3e ca 41 55 3e fe e7 43 3e cd e3 2f 3e
       0.17929086 0.20825878 0.19131467 0.17176743
000090 49 59 23 3e 62 53 14 3e d0 27 0e 3e 2b c0 3d 3e
       0.15952028 0.14484933 0.13882375 0.18530338
0000a0 f3 3b 64 3e 8d 53 35 3e 8a 75 38 3e c7 c7 3f 3e
       0.22288494 0.17707653 0.18013588 0.18728553
0000b0 07 d8 5d 3e 51 5f 2d 3e 42 aa 78 3e 25 1e 49 3e
       0.21664439 0.16930892 0.24283698 0.19640405
0000c0 62 bc 2b 3e df 27 78 3e 78 b2 32 3e ce e9 63 3e
       0.16771081 0.2423396 0.17450893 0.22257158
0000d0 41 49 5b 3e d9 aa 12 3e bb 71 53 3e fe 40 75 3e
       0.21414663 0.14322986 0.20648853 0.23950574
0000e0 de 38 44 3e 26 06 39 3e 54 9d 1e 3e d8 51 75 3e
       0.19162318 0.18068752 0.15489703 0.23957002
0000f0 e9 b4 3c 3e 1b c0 26 3e e1 da 42 3e 45 e6 6c 3e
       0.18428387 0.1628422 0.19028808 0.23134716

embedding_layer.0.weight f4 [16, 64]
000000 97 d1 46 3e 1c 0e de 3d f0 2c 60 be 62 08 56 be
       0.1941589 0.10842535 -0.21892142 -0.20901635
000010 09 0a a9 bc 24 51 3c be 31 fd 04 be 9d 17 14 be
       -0.020634668 -0.18390328 -0.1298721 -0.14462133
000020 df 32 17 3d f8 c8 cd bd 55 f1 41 3e fe 5e 2b be
       0.03691375 -0.10048097 0.18939717 -0.16735455
000030 43 55 2d be 48 2b 77 3d d4 f6 36 3e 7d c5 d1 bd
       -0.16927056 0.06034401 0.17867595 -0.10242746
000040 89 ee b8 bd 2a 6d 08 bd bd 41 61 bd 32 13 cf 3c
       -0.09029872 -0.033307232 -0.054994334 0.025277708
000050 90 58 e8 bd d8 14 83 3e 92 04 01 bd 52 67 01 be
       -0.11345017 0.2560184 -0.0314985 -0.1263707
000060 e7 6b b5 bd 94 f8 c8 bd 57 ef 24 be 1b a1 b2 bd
       -0.08858471 -0.098130375 -0.16106926 -0.08722135
000070 ba 7f bc bd 3e 62 ba 3d 40 40 13 be 85 ab c5 3c
       -0.092040494 0.091007695 -0.14379978 0.024129638
000080 e6 53 1e be 0d 18 84 3d 41 22 6b 3b 64 ee 81 bc
       -0.15461692 0.064499 0.0035878571 -0.015860744
000090 bd 91 c9 bd 09 59 77 3e ca 0c 79 bb bc e7 25 3e
       -0.098422505 0.24155058 -0.0038002008 0.16201681
0000a0 89 ff 5d be e9 b6 9a bc 59 90 a9 bd cb 17 d0 bd
       -0.2167951 -0.018886046 -0.08279485 -0.10160788
0000b0 bb 69 16 be e9 1a 7b 3e 24 3e a0 bd b9 50 22 be
       -0.1468877 0.24521984 -0.078243524 -0.15851106
0000c0 95 53 0d 3e 43 b3 13 39 05 31 9e bc f3 a9 39 3e
       0.13801415 0.00014085793 -0.019310484 0.18131237
0000d0 5a c7 bb bd d8 4a cf 3c ed f5 99 bd 6c 20 3d be
       -0.09168883 0.025304243 -0.0751761 -0.18469399
0000e0 0c 1b 0a 3d a7 7e 0f be 10 fb 0b bd 53 c5 36 3e
       0.0337172 -0.14013158 -0.03417498 0.1784871
0000f0 9c cd c6 bd e1 b7 25 3e 2f 1b da 3b 9a 73 8b 3e
       -0.097071856 0.16183425 0.0066560726 0.27236634
000100 d4 aa d6 3d 96 76 0d 3e 56 9b ab bd f0 4b 16 be
       0.10481802 0.13814768 -0.08379237 -0.14677405
000110 ae 0a 79 3d 90 e1 8a bd c0 3c 65 3c 7e d0 38 be
       0.0608012 -0.06781304 0.013991535 -0.18048283
000120 9a 9e 0e 3e aa 2b b6 bd 14 0d b5 3d 07 1d 39 be
       0.13927689 -0.08895047 0.08840385 -0.1807748
000130 80 ec 88 bd 63 d6 32 3e e6 a8 10 3e 03 3f fd bd
       -0.06685734 0.17464595 0.1412693 -0.12365534
000140 9f 00 ea bd 00 7d 4f 3c 46 b3 cc 3d e4 c8 2a 3e
       -0.114259 0.01266408 0.09995131 0.16678196
000150 f4 be 76 bd 64 1b 76 3e 6c b6 d1 bc bb 62 04 be
       -0.0602407 0.24033886 -0.02559968 -0.12928288
000160 79 7d 1c be 28 43 7d bd bc f5 6e bd 91 b6 1e be
       -0.15282239 -0.061831623 -0.05833982 -0.15499331
000170 15 39 76 bc 3d 9e 68 3e 2c c8 03 bd a5 c0 ae 3d
       -0.015028258 0.22716613 -0.03217332 0.08532838
000180 09 0b f3 bd 63 a5 c0 3c ae e0 4b 3e 76 36 6b bc
       -0.11867339 0.023516363 0.19909927 -0.014356246
000190 4d 01 d3 3d 68 ed 2e 3e 1b bb 87 3d 7f 30 10 3e
       0.103029825 0.17082751 0.066274844 0.14081
0001a0 5c 71 13 bd 2d b8 cf 3b 09 62 ec bd ad b7 ea bd
       -0.03599678 0.006339094 -0.11542136 -0.114608146
0001b0 aa d6 24 3d aa 8f 69 3e 85 68 d8 3b 80 df c6 bd
       0.040243782 0.2280871 0.0066042566 -0.09710598
0001c0 e6 1e 5d 3e 2e 7a b6 3d 7d ba 1a 3d 32 f9 d1 3d
       0.21593818 0.08910023 0.037775505 0.10252608
0001d0 19 e7 12 bc 0e 8e d8 3d a9 af df 3d 23 86 92 bd
       -0.008966231 0.1057397 0.109221764 -0.07154491
0001e0 82 68 30 3d c5 64 e9 3c e4 d5 33 3e 70 9b 29 3e
       0.043068416 0.028490433 0.17562062 0.16563201
0001f0 ca 81 25 be 69 1d 1d 3e 23 0d 78 3e 60 f2 7c 3e
       -0.16162792 0.1534325 0.24223761 0.24701834
000200 04 99 97 3e 2d cb a3 3d 61 8e 88 bd 94 16 ce bd
       0.2960893 0.07997737 -0.066677816 -0.100629
000210 00 52 99 bd b1 4f 0b be be 15 a3 3c 16 8b 50 bd
       -0.074863434 -0.13604619 0.019907828 -0.050913893
000220 c5 36 54 3d 44 50 70 bd c6 2c 98 3c 2d 47 89 bd
       0.051810045 -0.058670297 0.018576037 -0.06703029
000230 7a cc 4d bd 8a 5c 0f be f1 ab d4 3d 99 f5 e5 bd
       -0.050243832 -0.14000145 0.10384358 -0.11228485
000240 ab b8 ea bd 7b f2 94 bd de 4f 53 3e 7d 3b 9c bd
       -0.11461004 -0.07272812 0.20635936 -0.07628534
000250 77 33 30 be d2 ea 4b 3c 17 44 36 bd c4 03 dd bd
       -0.17207132 0.012446122 -0.04449853 -0.10791734
000260 bf ef bb bd 42 20 43 be 5f 3b 87 bd 7e e2 4b bd
       -0.09176587 -0.19055274 -0.06603121 -0.049776547
000270 5f 30 41 bd 6e 91 1b 3e 62 3a fb bc 6d e9 a1 3e
       -0.04716527 0.15192196 -0.030667488 0.31623402
000280 15 90 19 be 8f ac 93 3e 35 d2 df 3d 67 ba 3c bc
       -0.14996369 0.2884259 0.10928766 -0.011519051
000290 b6 0a 46 3d 28 b4 b0 bd 5d 3f 27 3d 4c f9 64 3d
       0.04835006 -0.08628112 0.040831912 0.05590181
0002a0 32 8b c9 bd 49 bd 6b bd 57 20 a6 bd 37 5f aa bd
       -0.098410025 -0.057553563 -0.08111637 -0.08318942
0002b0 ca bc 5f bc 30 4f 42 be 23 26 be bd 71 b1 cc bd
       -0.013655851 -0.1897552 -0.09284618 -0.09994782
0002c0 f3 19 2c be 10 bd 30 bd f5 40 67 3d 77 e9 78 3e
       -0.16806774 -0.043149054 0.056458432 0.2430781
0002d0 60 41 11 be bd 49 3b be 09 79 a3 bd d2 21 11 be
       -0.14185095 -0.18289848 -0.0798207 -0.14173058
0002e0 74 2c 91 bd 9d 3e 4a be 3b 32 de bb 5f c2 62 be
       -0.07088557 -0.19750448 -0.0067808903 -0.22144459
0002f0 10 d6 a3 bd 21 c7 4f bd 6f 9f 5b 3d a7 d4 c7 bc
       -0.079998136 -0.050727013 0.053618845 -0.024393393
000300 5d c7 2f bc 1c 1e 23 be 5f c8 8c 3d 7b 92 9b 3d
       -0.010728684 -0.15929455 0.06874155 0.07596298
000310 72 b6 b2 bd f7 cf fe 3c 5d 99 21 3e 48 ed 04 3e
       -0.08726205 0.031105025 0.1578116 0.1298114
000320 ef ed 26 be 80 a1 c3 3d fb f9 1c be 5b e0 78 3d
       -0.16301702 0.09552288 -0.15329735 0.060760837
000330 2a 1a 14 3e 86 77 b0 bd 76 3a 5b bd 0a 08 08 3d
       0.14463106 -0.08616547 -0.05352255 0.03321079
000340 a8 e9 ff 3d a5 7f 01 3e 9b d1 11 be 0f 33 e5 bd
       0.12495738 0.12646349 -0.14240114 -0.11191379
000350 b9 33 83 3d 4d bb 02 be 52 ef 24 3d 88 7a 2f 3d
       0.0640635 -0.12766762 0.040267296 0.042841464
000360 56 e3 0a 3e 7b 28 1f 3e 49 25 ab 3c e1 10 46 3e
       0.13563284 0.15542786 0.020891802 0.19342376
000370 c1 66 06 bd 39 f1 23 be 0e e9 0b 3e 98 19 7c 3c
       -0.032812838 -0.16009988 0.13663122 0.015386961
000380 6e ba fc 3d 05 1a f2 bd b1 82 2e be 60 e4 02 3e
       0.12340246 -0.11821369 -0.17042042 0.1278243
000390 ff 48 b6 bc 8a 55 cb 3b 9b 0b 2e 3e c5 9c 0c 3d
       -0.022251604 0.0062052654 0.16996615 0.034329195
0003a0 5b b5 03 3e 46 7f c1 3d b6 6e ce 3d c4 5a 87 3d
       0.1286215 0.094481036 0.1007971 0.06609109
0003b0 05 fc ed 3d 38 ec 32 be ba 29 07 3c c5 8f 98 3d
       0.116203345 -0.17472923 0.0082496945 0.07449297
0003c0 e6 02 6a be 40 fb 1b 3c 5a 17 42 3e 4c 05 dc bd
       -0.22852668 0.009520352 0.1895422 -0.10743198
0003d0 0c 0d fe 3d 3c ea a3 bb 61 3e a1 bd ca c9 71 3d
       0.12404832 -0.005002288 -0.07873226 0.05903033
0003e0 b7 35 fd bd 95 b3 69 bd 4a 2c 6c be 33 c4 ef bd
       -0.12363761 -0.05705603 -0.2306377 -0.11707344
0003f0 33 dd e3 3c 76 66 ba bd 0f 14 b6 bd 81 af 08 be
       0.027815437 -0.09101574 -0.088905446 -0.133482

embedding_layer.0.bias f4 [16]
000000 18 30 08 3e dd 25 30 3d 68 dc 9b 3d 48 6d c8 3e
       0.13299596 0.04300486 0.076103985 0.39145875
000010 f1 47 e8 3d 38 6c 00 3e 3f 50 2c 3e 07 b4 3f 3e
       0.11341847 0.12541282 0.16827486 0.18721019
000020 73 d3 df 3e e7 2c f7 3e 68 c9 b0 3e 43 e7 d8 3e
       0.4371601 0.48276445 0.3452866 0.4236394
000030 29 00 78 3e c1 ad ed 3d 02 23 84 3d 5d 73 16 3e
       0.24218811 0.116054066 0.0645199 0.14692445

classifier.weight f4 [2, 16]
000000 f7 25 99 be d7 5d 45 be 46 28 a1 be b6 e7 7d 3e
       -0.29911777 -0.19274078 -0.3147604 0.24795422
000010 9e a6 5b be b4 c0 50 bd 67 bd b0 be 34 cd 2c 3f
       -0.21450278 -0.050965026 -0.34519503 0.67500615
000020 28 c5 96 3e e2 88 b2 3e 3f 30 28 3e 31 97 dc 3d
       0.29447293 0.34870058 0.16424654 0.10771025
000030 d6 20 9d 3e 08 47 e0 be cf d7 cc be ca ff ca be
       0.30689114 -0.43804193 -0.400084 -0.39648277
000040 e5 91 c8 3d 66 0c 2c 3e 3b a8 ba 3e d4 db 93 be
       0.09793452 0.16801605 0.36456475 -0.28878653
000050 14 39 c3 3e 5e c3 c3 3e 28 82 d2 3e 2f 83 33 bf
       0.38129485 0.3823499 0.41114926 -0.70122045
000060 21 0a 37 bd f3 4c 29 be 35 c9 db bd 35 ec d1 be
       -0.044687394 -0.1653326 -0.107317366 -0.41000524
000070 16 3a 70 3d b9 5a 40 3e f2 cb c8 3d 89 23 dc 3e
       0.058649145 0.18784608 0.098045245 0.4299586

classifier.bias f4 [2]
000000 f8 8e 1f 3e 9d 8e 9a bc
       0.15581882 -0.018866831
