o02_test/pkls/15cnn_train_weights.pth (torch, 48140 bytes, 22 tensors)

features.0.weight f4 [16, 6, 5]
0	0x3ffe4e09	1.9867564
1	0x3fc9720d	1.573793
2	0x3f3783ec	0.7168567
3	0xbe82a26c	-0.25514543
4	0xbf9c851f	-1.2228125
5	0xbf26793b	-0.65028733
6	0xbf97892a	-1.1838734
7	0xbfa7d46f	-1.3111705
8	0xbf6da157	-0.9282431
9	0xbfb68f62	-1.4262507
10	0x3fb3f67b	1.4059595
11	0x3f6eadab	0.93233746
12	0x3f7ccd96	0.987512
13	0x3f263011	0.64917094
14	0x3eea4131	0.45752862
15	0x3d6124c1	0.054966692
16	0x3c140334	0.009033967
17	0xbd34b631	-0.044119064
18	0xbc374379	-0.01118552
19	0x3d92ca69	0.07167513
20	0xbe031587	-0.12801181
21	0x3ba62398	0.005070161
22	0xbd6310ae	-0.05543583
23	0x3daf9103	0.08572581
24	0x3c74f197	0.014950178
25	0xbe7e2f7c	-0.24822801
26	0x3ccae3c7	0.024766816
27	0x3d3f2547	0.04666641
28	0x3d125879	0.035728905
29	0xbec5ca67	-0.38630983
30	0xc05d45c3	-3.457383
31	0xc078dc20	-3.8884354
32	0xc014e222	-2.326302
33	0xbf5b9de4	-0.85787797
34	0x3f05312f	0.52028173
35	0x3f1c694e	0.6109818
36	0x3ee0afd0	0.43884134
37	0x3f34f085	0.70679504
38	0x3ef835fa	0.4847868
39	0x3f4df181	0.8044663
40	0xbf73eafa	-0.9528042
41	0xbf6b426f	-0.91898245
42	0xbf1a2255	-0.60208637
43	0x3e7a0919	0.24417533
44	0x3f3358a7	0.7005715
45	0xbd3a47eb	-0.045478743
46	0x3dadaab3	0.08479824
47	0xbdc0a9a3	-0.09407356
48	0x3d026201	0.031831745
49	0x3c95fe23	0.018309658
50	0xbdae0484	-0.08496955
51	0xbd358852	-0.04431946
52	0xbce7c82a	-0.028293688
53	0x3e44aa6e	0.19205639
54	0xbd4c9e83	-0.049955856
55	0xbc8dd59a	-0.017313767
56	0x3c5c8ca0	0.013461262
57	0xbd21a011	-0.03945929
58	0x3de0d0aa	0.109772995
59	0xbe16505e	-0.14679095
60	0xc0237336	-2.553907
61	0xc037c2b1	-2.871258
62	0xbfff95f3	-1.9967636
63	0xbf5e2b36	-0.86784685
64	0xbe6c3b9f	-0.23069619
65	0x3f03c8d8	0.5147834
66	0x3f8a2b3b	1.0794443
67	0x3f775f01	0.9662934
68	0x3f6752cb	0.9036071
69	0x3f5272ea	0.82206595
70	0xbf751106	-0.957291
71	0xbfb4d057	-1.412608
72	0xbf9b8b40	-1.2151871
73	0xbf9e736d	-1.2378975
74	0xbf58ef5a	-0.8474022
75	0xbd025395	-0.03181799
76	0xbc857983	-0.016293293
77	0x3d7589c4	0.059945837
78	0xbd81849a	-0.0632412
79	0x3d89fa01	0.067371376
80	0x3d7f2210	0.062288344
81	0xbe05aa02	-0.13053134
82	0x3e203e14	0.15648681
83	0xbd85bcc1	-0.065301426
84	0x3deaa858	0.1145789
85	0xbdf92e3e	-0.12167023
86	0x3d6b52a3	0.057451855
87	0xbde863be	-0.11347149
88	0xbc83c121	-0.016083302
89	0x3e14b4d4	0.14522105
90	0x404c7a0e	3.1949496
91	0x4010caef	2.262386
92	0x3f85d6fc	1.0456233
93	0xbe9c13e2	-0.3048392
94	0xbfb0b498	-1.3805113
95	0xbf97c0b5	-1.1855685
96	0xbf1de169	-0.61672074
97	0xbf1c0d4c	-0.6095779
98	0x3e02bd62	0.12767556
99	0x3f1327b8	0.5748248
100	0x3e8c749e	0.27432722
101	0x3db6eb3e	0.08931588
102	0xbee6b6dd	-0.4506139
103	0xbf69c54d	-0.9131668
104	0xbfb735b2	-1.4313262
105	0x3d8d09f4	0.06886664
106	0xbc73ecad	-0.014887971
107	0xbc5a710b	-0.013332616
108	0xbdb44027	-0.088012986
109	0xbdc3357c	-0.09531686
110	0xbd96cdd4	-0.07363477
111	0xbd87919f	-0.06619572
112	0x3dac714a	0.08420046
113	0xbe1d0665	-0.1533447
114	0xbe4485ac	-0.19191617
115	0xbde85bd8	-0.11345643
116	0xbd8073ab	-0.06272062
117	0xbe61f139	-0.22064675
118	0xbe2bfa99	-0.16794814
119	0xbdd7a739	-0.10529942
120	0xbed54005	-0.41650406
121	0x3f06f1d6	0.5271276
122	0x3fba9097	1.4575375
123	0x3fe12d43	1.7591938
124	0x3ffe2733	1.9855713
125	0x3fa4278c	1.2824569
126	0x3faeb320	1.3648415
127	0x3f7f7a7f	0.9979629
128	0x3f4b172b	0.79332227
129	0x3ea7c217	0.32765266
130	0x3ea11dff	0.31468198
131	0x3ef319ff	0.4748077
132	0x3e389f89	0.18029608
133	0x3e37c8de	0.17947719
134	0x3c9c5a86	0.019086134
135	0x3c42eb84	0.011896972
136	0x3d234a15	0.039865572
137	0xbcabeb0d	-0.020986104
138	0x3ca97fc2	0.020690802
139	0xbce48798	-0.027896687
140	0xbe826196	-0.25465077
141	0xbe9802f5	-0.29689756
142	0xbd273e22	-0.04083074
143	0xbe41af3e	-0.18914506
144	0xbd99809b	-0.07495233
145	0x3c90a9cb	0.017659089
146	0x3d812598	0.063059986
147	0x3dff0c33	0.12453499
148	0x3e42da71	0.19028641
149	0x3cf8bc78	0.030363306
150	0xbebb7282	-0.366108
151	0x3f062dca	0.5241362
152	0x3ebee481	0.3728371
153	0x3ef894ed	0.4855112
154	0x3f9ad212	1.2095358
155	0x3f2153ca	0.63018477
156	0x3e90f242	0.28309828
157	0x3c798441	0.015229286
158	0x3f02eba2	0.511408
159	0x3f224351	0.63383967
160	0xbfc3d3c6	-1.5299003
161	0xbf4099bd	-0.75234586
162	0x3d396285	0.04525997
163	0xbeb1f314	-0.34755766
164	0xbf7dd13f	-0.9914741
165	0x3d61e93c	0.05515407
166	0xbda743a4	-0.08167198
167	0x3d1f6dc8	0.038923055
168	0x3d05b58c	0.03264384
169	0xbca2339c	-0.0198
170	0xbe4c2fd8	-0.19940126
171	0x3e32d1ae	0.17462799
172	0x3e36da73	0.1785677
173	0xbe022b77	-0.12711893
174	0xbd75a381	-0.059970383
175	0xbd95bfdf	-0.07311987
176	0xbd987526	-0.07444219
177	0x3e1f8c3a	0.15580836
178	0x3e1a9acd	0.15098114
179	0xbe5d2457	-0.21595894
180	0x40270226	2.6095061
181	0x3fe0a1c6	1.7549369
182	0x3f72988a	0.94764006
183	0xbdf43a87	-0.11925226
184	0xbf75fe41	-0.96091086
185	0xbf833b84	-1.0252538
186	0xbfa38017	-1.2773465
187	0xbfac6ff6	-1.3471668
188	0xbfe5dd65	-1.7958189
189	0xbfdbd99b	-1.7175783
190	0x3fa941f0	1.3223248
191	0x3f8e74ae	1.1129358
192	0x3f6a1e81	0.91452795
193	0x3f23c310	0.63969517
194	0x3e502d04	0.20329672
195	0x3d4286c1	0.047491793
196	0xbd2e2be6	-0.042522334
197	0x3c2dae38	0.010600619
198	0x3cbe39d0	0.023220927
199	0x3c8e1483	0.017343765
200	0xbd8c9473	-0.06864252
201	0xbd238069	-0.039917383
202	0x3d0fe6f2	0.035132356
203	0x3d566821	0.0523454
204	0x3c8b6b0b	0.017018816
205	0xbe416f6e	-0.18890163
206	0xbb12ac03	-0.002238036
207	0x3bcc3aae	0.006232581
208	0x3cb2303d	0.021751517
209	0xbe893c23	-0.26803693
210	0x3fa074ed	1.2535683
211	0x3f7b624f	0.9819688
212	0x3e5a3a61	0.21311332
213	0xbf0988c1	-0.53724295
214	0xbfb2ad7c	-1.3959193
215	0x3fd6b281	1.6773225
216	0x3fc8274a	1.563699
217	0x3f698240	0.9121437
218	0x3f3200bf	0.6953239
219	0x3ee81a0f	0.4533238
220	0x3de4b639	0.11167569
221	0x3dc7dacb	0.09758528
222	0x3e4702bf	0.19434641
223	0x3f0606e5	0.5235427
224	0x3ebba6db	0.36650738
225	0x3e529d2c	0.20567769
226	0x3ddd6bdc	0.10811588
227	0x3db2e375	0.0873479
228	0xbda1f7ec	-0.079086155
229	0xbe28ab79	-0.16471662
230	0xbe989531	-0.29801324
231	0x3cf16e9e	0.029471692
232	0x3d9c7593	0.07639613
233	0x3df9c3eb	0.121955715
234	0x3daf68ec	0.08564934
235	0x3e25d0d3	0.16192941
236	0x3d12c03e	0.035827868
237	0xbce1a39e	-0.027543839
238	0x3d06719f	0.0328232
239	0xbc3c623b	-0.011498029
240	0x3ee390cc	0.4444641
241	0x3f66e075	0.90186244
242	0x3fa5d07e	1.2954252
243	0x3fb438ca	1.4079831
244	0x3fe6cea6	1.8031814
245	0xbfb8d896	-1.4441097
246	0xc00be1eb	-2.185664
247	0xbffc7939	-1.9724494
248	0xc013471f	-2.301216
249	0xc00bf4b2	-2.18681
250	0x3f9e7f4d	1.2382599
251	0x3f9c1250	1.2193089
252	0x3f88eca9	1.0697223
253	0x3f8e47c3	1.111565
254	0x3f95567b	1.1667017
255	0xbdfe01e0	-0.124027014

features.0.bias f4 [16]
0	0x3dd4c5d9	0.10389299
1	0xbde14f32	-0.110014334
2	0xbdd4aa98	-0.10384101
3	0x3d091310	0.033465445
4	0xbe14690a	-0.14493194
5	0xbe2267c8	-0.15859902
6	0xba045de9	-0.0005049394
7	0xbddecb6e	-0.10878645
8	0x3e22273a	0.15835276
9	0x3e277eca	0.1635696
10	0xbb7b0418	-0.0038302
11	0x3d279f80	0.040923595
12	0xbd70f392	-0.058826037
13	0xbd7c0096	-0.061523996
14	0x3d0ee7ac	0.03488891
15	0xbd969367	-0.073523335

features.1.weight f4 [16]
0	0x3f694506	0.91120946
1	0x3f664e73	0.89963454
2	0x3f4f1e5a	0.8090569
3	0x3f658cbb	0.8966786
4	0x3f4bee3e	0.79660404
5	0x3f5c3c97	0.8602995
6	0x3f6664f0	0.8999777
7	0x3f4afb1d	0.7928942
8	0x3f50630a	0.8140112
9	0x3f4ae6ee	0.7925862
10	0x3f5fe659	0.8746086
11	0x3f4b19cc	0.7933624
12	0x3f556974	0.83364034
13	0x3f4eb76e	0.8074864
14	0x3f5a9342	0.8538095
15	0x3f4243c9	0.7588468

features.1.bias f4 [16]
0	0xbde806a1	-0.11329389
1	0xbebf6118	-0.37378764
2	0x3ad96a6a	0.00165875
3	0x3afa05b7	0.001907519
4	0xbcdf35d1	-0.027247341
5	0xbe2e54d5	-0.17024548
6	0xbdd05c07	-0.10173803
7	0xbcbfb5db	-0.023402145
8	0xbde6a38b	-0.11261662
9	0xbc268bd5	-0.0101651745
10	0xbbae5948	-0.0053207017
11	0xbd820930	-0.063494086
12	0xbd1b73dd	-0.037952293
13	0x3c4cf32b	0.012509148
14	0xbaa419e6	-0.0012519925
15	0xbda32eb3	-0.079678915

features.1.running_mean f4 [16]
0	0x3decf02c	0.11569247
1	0xbdd99e58	-0.10625905
2	0xbde1e178	-0.11029333
3	0x3d8795dd	0.06620381
4	0xbe00ea2b	-0.12589328
5	0xbe202ec8	-0.15642846
6	0x3bf0a81c	0.007344259
7	0xbdee0c8f	-0.11623489
8	0x3e276733	0.16347961
9	0x3e4daaf7	0.20084749
10	0x3c519526	0.012791907
11	0x3d2e35f7	0.042531934
12	0xbd808093	-0.062745236
13	0xbd3fbfb9	-0.0468137
14	0x3cc18748	0.023624077
15	0xbdcdf477	-0.100563936

features.1.running_var f4 [16]
0	0x43e5e632	459.7984
1	0x41a66a43	20.801886
2	0x4235be12	45.435616
3	0x44739083	974.258
4	0x444a7023	809.75214
5	0x41767b76	15.405142
6	0x4391b2a4	291.39563
7	0x43cebf0b	413.49252
8	0x42909dc8	72.30817
9	0x44a03d0f	1281.9081
10	0x44b0a4b6	1413.1472
11	0x42120d64	36.513077
12	0x434f113a	207.06729
13	0x43d06d2a	416.85284
14	0x43fd9d58	507.22925
15	0x443ad8e3	747.38885

features.5.weight f4 [32, 16, 3]
0	0x3e2a6988	0.1664182
1	0x3e23c9d6	0.15994963
2	0xbdd1da7b	-0.1024675
3	0xbde51fc6	-0.11187701
4	0xbd938a1b	-0.07204076
5	0xbd89175c	-0.066939086
6	0xbcdad9b4	-0.026715137
7	0x3dbe1b5a	0.09282561
8	0x3d85865d	0.065197684
9	0x3dbbb456	0.09165256
10	0xbd9303d9	-0.07178468
11	0xbd4a629c	-0.049410447
12	0xbd2fbc09	-0.042903934
13	0xbd1fbc27	-0.038997795
14	0xbd727609	-0.0591946
15	0xbe85470d	-0.2603077
16	0xbe97d2ab	-0.29652914
17	0xbe8eb8a7	-0.27875254
18	0x3dbc78a1	0.09202696
19	0x3bbd96f4	0.0057858173
20	0xbc8f8fc1	-0.017524602
21	0xbdec287e	-0.11531161
22	0xbe443a62	-0.19162896
23	0xbde22793	-0.110427044
24	0xbdbd28f5	-0.092363276
25	0xbdda9ed0	-0.10674822
26	0xbe3000d5	-0.17187817
27	0x3c93a6c2	0.018023852
28	0x3cee3330	0.029077142
29	0xbd95ed51	-0.07320655
30	0x3e0d40f3	0.13794307
31	0x3da20561	0.07911182
32	0xbd01674e	-0.03159266
33	0xbe5a9b76	-0.21348366
34	0xbe8762e4	-0.26442635
35	0xbe39dccb	-0.18150632
36	0x3d516523	0.051121842
37	0x3e002ebe	0.1251783
38	0x3e07ec03	0.13273625
39	0x3c375901	0.011190654
40	0xbdbe1eef	-0.09283244
41	0x3d06660f	0.032812174
42	0xbdfc2b03	-0.12312891
43	0xbe02538a	-0.1272718
44	0xbe4c6751	-0.19961287
45	0xbc81136a	-0.015756328
46	0xbc3ec21f	-0.011642962
47	0x3cfc806a	0.030822951
48	0xbe173a39	-0.14768304
49	0xbe39bda4	-0.18138748
50	0xbd898276	-0.067143366
51	0x3d03954b	0.0321248
52	0x3e797995	0.24362786
53	0x3d6ed0b5	0.058304507
54	0xbccb87e2	-0.024845067
55	0x3daf7208	0.085666716
56	0xbe1336d5	-0.14376386
57	0x3e05f8fe	0.13083264
58	0x3bad0919	0.0052806255
59	0xbcefc311	-0.02926782
60	0x3d8c8792	0.068617955
61	0x3d1b0239	0.037843917
62	0x3c60a5d3	0.013711411
63	0x3ce68182	0.028137926
64	0x3d9832fb	0.07431599
65	0x3c9e2001	0.01930237
66	0xbe3dfa48	-0.18552506
67	0xbe813766	-0.25237578
68	0xbe2e88d5	-0.17044385
69	0xbdf6de0c	-0.12054071
70	0xbdc32ca2	-0.095299974
71	0xbbdfe62c	-0.0068328585
72	0xbe50efae	-0.2040393
73	0xbe75554c	-0.2395832
74	0xbe3558d6	-0.1770967
75	0xbc6b8e9a	-0.014377261
76	0xbab1ff86	-0.001358018
77	0x3d23eb0c	0.04001908
78	0xbd8e0318	-0.06934184
79	0xbe122277	-0.1427096
80	0xbe0ab549	-0.13545717
81	0xbd256c9e	-0.04038679
82	0xbe5b69dc	-0.21427101
83	0xbe37f8a2	-0.1796594
84	0x3cab496e	0.020909037
85	0xbd16d11c	-0.036820516
86	0x3dcbf7c8	0.0995937
87	0x3d40d0af	0.047074016
88	0xbd8b86d4	-0.06812826
89	0x3ceee974	0.029164053
90	0xbe49afaa	-0.19695917
91	0xbd5aa46c	-0.05337946
92	0x3d8b1667	0.06791382
93	0x3d78b461	0.060718898
94	0x3db75741	0.08952189
95	0x3e451604	0.1924668
96	0xbc702a57	-0.014658532
97	0x3a7d2baf	0.00096576934
98	0xbbeeb2de	-0.007284506
99	0xbb144f01	-0.0022630098
100	0x3b5352d8	0.0032245424
101	0xbc218b24	-0.009859834
102	0xbdde95c4	-0.10868409
103	0xbdd2ab72	-0.10286607
104	0xbd94d083	-0.07266333
105	0xbd9d96dd	-0.076947905
106	0xbdbfd5d2	-0.09366955
107	0xbd6b9c5d	-0.057522167
108	0xbe3fd493	-0.18733434
109	0xbeaac1e5	-0.33351055
110	0xbe321d37	-0.17393957
111	0xbddc1b98	-0.107474506
112	0x3dbdaed0	0.092618585
113	0x3e09349f	0.1339898
114	0x3da07a06	0.07835774
115	0x3c689e96	0.014197966
116	0xbc267768	-0.010160305
117	0x3dbdebd7	0.092734985
118	0xbd4a8a3e	-0.049448244
119	0xbd146a3b	-0.03623412
120	0x3d0a3b66	0.033748053
121	0xbb9d16c7	-0.004793975
122	0xbc8183b6	-0.015809875
123	0x3d1bcb40	0.03803563
124	0xbad3fbb3	-0.0016173035
125	0x3de26d0a	0.11055954
126	0xbd86dc0d	-0.0658494
127	0xbbd23e80	-0.006416142
128	0xbd27a071	-0.040924493
129	0x3d45245c	0.048130378
130	0x3c8776b4	0.016536094
131	0x3e099249	0.1343471
132	0xbd9b81cd	-0.07593117
133	0xbe56e4dc	-0.2098574
134	0xbe19d5b2	-0.15022925
135	0xbdf4a425	-0.119453706
136	0xbe1049be	-0.1409063
137	0xbe2018fe	-0.15634534
138	0xbe6b8fe8	-0.23004115
139	0xbe565204	-0.20929724
140	0xbdf5f764	-0.12010077
141	0xbe2df307	-0.16987239
142	0xbe44c929	-0.19217362
143	0xbd328b85	-0.043590087
144	0xbbccc21c	-0.0062487256
145	0xbdf6bd1b	-0.12047788
146	0x3e10fecf	0.14159702
147	0xbd5a2746	-0.05326011
148	0xbe614a7c	-0.2200107
149	0xbe45654b	-0.19276921
150	0x3cbe0ea2	0.023200337
151	0xbd76f819	-0.060295198
152	0xbde3e4f9	-0.111276574
153	0xbcade262	-0.021226112
154	0x3e35efd2	0.17767265
155	0x3df0510f	0.11734211
156	0x3db706f0	0.0893687
157	0xbbf86ee5	-0.007581579
158	0x3c9bec4b	0.019033572
159	0x3d39308d	0.045212317
160	0xbcee492f	-0.029087631
161	0xbdc6fbc9	-0.09715993
162	0xbdb69c75	-0.089165606
163	0x3cc59d26	0.024122786
164	0xbd8f33a5	-0.06992272
165	0xbdb16897	-0.08662527
166	0xbe5e6603	-0.21718602
167	0x3e327e8c	0.17431086
168	0xbe1bf0a0	-0.1522851
169	0xbdd5f5c0	-0.10447264
170	0xbc9766d8	-0.018481657
171	0xbce4702a	-0.027885515
172	0x3d8ee503	0.06977274
173	0xbdde5ef5	-0.10857955
174	0xbd4e8636	-0.050420962
175	0x3d44c3bf	0.04803824
176	0x3e47f8e0	0.19528532
177	0xbd0944e8	-0.03351298
178	0xbdcf6598	-0.10126799
179	0x3d63e3ea	0.055637278
180	0xbe289435	-0.16462786
181	0xbe3a4211	-0.18189265
182	0xbe5d4af8	-0.2161063
183	0x3d232bbe	0.039836638
184	0x3e095eed	0.13415118
185	0x3d9bbe4e	0.07604657
186	0xbe0feb7e	-0.14054677
187	0x3d5fa871	0.054603998
188	0xbc5ca2e6	-0.013466572
189	0x3db89b01	0.0901394
190	0xbe5e8216	-0.21729311
191	0xbdbdcbf3	-0.09267416
192	0xbe3947e0	-0.18093824
193	0xbe80d47a	-0.25162107
194	0xbe403ac6	-0.1877242
195	0xbcac5b05	-0.021039495
196	0xbcb40c2d	-0.021978462
197	0x3cb4d3c7	0.02207364
198	0x3d061bb1	0.032741252
199	0x3d59a230	0.05313319
200	0x3df44392	0.119269505
201	0x3e88a909	0.26691464
202	0xbd953a66	-0.07286529
203	0x3e6ce41d	0.23133893
204	0xbc813c16	-0.015775722
205	0xbcdcdead	-0.026961649
206	0xbcdf09f7	-0.027226431
207	0xbe914066	-0.28369445
208	0x3dd7a3ce	0.1052929
209	0xbd6c3ee9	-0.057677183
210	0xbdb092ad	-0.08621726
211	0xbe3551da	-0.17707005
212	0xbe9c424a	-0.30519325
213	0xbe60265b	-0.21889631
214	0xbdbc87ea	-0.09205611
215	0x3cba14f9	0.022715079
216	0x38ab94bf	8.1816215e-05
217	0xbc7f96ec	-0.015599947
218	0x3ba04cb8	0.004891958
219	0x3d18bd97	0.037290182
220	0xbd63c922	-0.055611737
221	0xbe15c62d	-0.1462638
222	0xbd9c551b	-0.0763342
223	0xbe3b04bd	-0.18263526
224	0xbe5477b0	-0.20748782
225	0xbd35e1df	-0.04440486
226	0xbdb82d94	-0.08993068
227	0x3e1f3452	0.15547302
228	0xbe5d271d	-0.21596952
229	0x3c14dfbe	0.009086547
230	0x3d9d7bf0	0.07689655
231	0xbc1689de	-0.009188144
232	0xbc8a85ed	-0.016909564
233	0xbd7fd461	-0.0624584
234	0x3c991980	0.018688917
235	0xbdbd6044	-0.09246877
236	0xbd80fe2a	-0.06298478
237	0x3d9ad27e	0.075596794
238	0x3da5ab60	0.08089328
239	0x3da367b5	0.07978765
240	0xbd7196d8	-0.058981746
241	0x3cf7cefa	0.030250061
242	0x3d1481fe	0.036256783
243	0x3d8838f4	0.06651488
244	0xbc7db5f8	-0.015485279
245	0xbd5af32d	-0.053454567
246	0xbe173e60	-0.14769888
247	0xbe0dad73	-0.13835697
248	0xbdd1ea54	-0.10249773
249	0xbe22f1da	-0.15912572
250	0xbe1af271	-0.15131547
251	0xbdbdf0d6	-0.092744514
252	0xbc8197fd	-0.015819544
253	0x3d81c4a1	0.06336332
254	0xbd69d11c	-0.057084188
255	0x3e122e3d	0.14275451

features.5.bias f4 [32]
0	0xbdc03f3e	-0.093870625
1	0x3e5f529a	0.21808854
2	0xbc2a0abe	-0.010378538
3	0x3c0d3f5d	0.008621064
4	0xbda284d8	-0.07935494
5	0xbd5cb756	-0.05388578
6	0x3dc623dd	0.09674809
7	0x3d6ae5f5	0.05734821
8	0x3d841d31	0.0645088
9	0x3d99e8e1	0.07515121
10	0x3c2428bc	0.010019477
11	0xbdb8161e	-0.089885935
12	0x3d5d6fbb	0.054061633
13	0xbd42e26e	-0.04757922
14	0xbd3d39d6	-0.046197735
15	0x3d760214	0.060060576
16	0x3da5a661	0.08088375
17	0x3db2bc9e	0.08727382
18	0xbd79ed02	-0.061017044
19	0x3e2c709e	0.16839835
20	0xbda83c70	-0.082146525
21	0xbe516eb9	-0.20452394
22	0xbd43877d	-0.047736634
23	0x3d5bc312	0.05365283
24	0x3dc32eb1	0.0953039
25	0x3cfaaf25	0.030601094
26	0xbe4c180d	-0.1993105
27	0xbe06a82a	-0.13150087
28	0x3c67dcec	0.014151793
29	0xbd82ad8e	-0.06380759
30	0x3d8bc2c7	0.0682426
31	0x3c38cb1a	0.011278892

features.6.weight f4 [32]
0	0x3f699e77	0.91257423
1	0x3f705756	0.93883264
2	0x3f7acb3f	0.9796638
3	0x3f2166a4	0.6304724
4	0x3f42c85d	0.7608698
5	0x3f5cb94e	0.8622025
6	0x3f43d989	0.7650381
7	0x3f4ddc52	0.8041431
8	0x3f56ea4d	0.83951265
9	0x3f59aaf0	0.85026455
10	0x3f6a3ef9	0.9150234
11	0x3f3a59f3	0.727935
12	0x3f5d7f54	0.8652241
13	0x3f6ed939	0.93300205
14	0x3f64e107	0.89405864
15	0x3f44ab47	0.7682385
16	0x3f2aed0c	0.66767955
17	0x3f67b0f6	0.90504396
18	0x3f581608	0.84408617
19	0x3f533873	0.8250801
20	0x3f2f9937	0.6859316
21	0x3f7c862b	0.98642224
22	0x3f552727	0.83262867
23	0x3f5b148d	0.85578233
24	0x3f6718e6	0.90272367
25	0x3f1ce5ab	0.61287946
26	0x3f51c753	0.8194477
27	0x3f2dc663	0.6788084
28	0x3f35735d	0.70879155
29	0x3f578fbf	0.84203714
30	0x3f66b667	0.90122074
31	0x3f70f538	0.94124174

features.6.bias f4 [32]
0	0xbe2dd25c	-0.16974777
1	0xbe0fb2d1	-0.14033057
2	0xbe1517fe	-0.14559934
3	0x3d1fd704	0.039023414
4	0xbe303b4a	-0.17210117
5	0xbe64b1bc	-0.22333425
6	0xbeb6068e	-0.35551876
7	0xbee78761	-0.45220473
8	0xbc1fbcc3	-0.009749594
9	0xbe74b10b	-0.23895662
10	0xbe320a81	-0.1738682
11	0xbe7a053f	-0.24416064
12	0x3d3c395e	0.045953147
13	0xbe0718d9	-0.13193072
14	0xbe469cad	-0.19395705
15	0xbde29a3a	-0.11064573
16	0xbee023ec	-0.43777406
17	0xbe794514	-0.24342757
18	0xbe8850e1	-0.26624206
19	0xbdaaa12c	-0.08331522
20	0xbd940afc	-0.072286576
21	0xbe47ce67	-0.1951233
22	0xbe6150eb	-0.22003524
23	0xbe30bd27	-0.17259656
24	0xbd96d478	-0.07364744
25	0xbea44a74	-0.32088053
26	0xbe087222	-0.13324788
27	0xbe068f52	-0.1314061
28	0xbeba30b8	-0.36365294
29	0xbe207d64	-0.15672833
30	0xbd6bf587	-0.0576072
31	0xbe17516f	-0.14777158

features.6.running_mean f4 [32]
0	0xbf06b157	-0.5261435
1	0xbdf69a57	-0.12041157
2	0xbf0b3a29	-0.5438562
3	0xbe7acbba	-0.24491778
4	0xbedbf432	-0.42959744
5	0xbf3155d0	-0.69271564
6	0xbe229d9e	-0.15880439
7	0xbe1de8fc	-0.15420908
8	0xbe6de710	-0.23232675
9	0xbf06524c	-0.52469325
10	0xbf050fdd	-0.5197733
11	0x3c129201	0.008945943
12	0xbeafac76	-0.34311265
13	0xbe9c74e0	-0.3055792
14	0xbeae1224	-0.33998215
15	0xbea74a2f	-0.32673785
16	0x3ed83aea	0.42232448
17	0xbebf3846	-0.3734762
18	0xbf1c10fb	-0.6096341
19	0xbdfe764c	-0.12424907
20	0xbdb82a91	-0.08992494
21	0xbf44a8a5	-0.7681983
22	0xbec8b9e9	-0.39204338
23	0xbe88d6f3	-0.26726493
24	0xbedb6546	-0.42850703
25	0xbdf679ab	-0.12034925
26	0xbf2c6f77	-0.6735758
27	0xbed71240	-0.4200611
28	0x3e4b38a0	0.1984582
29	0xbec7eee7	-0.39049456
30	0xbe856dfc	-0.26060474
31	0xbf0ab9ee	-0.54189956

features.6.running_var f4 [32]
0	0x3f8264ba	1.0186989
1	0x3f6954db	0.91145104
2	0x3f844ec9	1.0336543
3	0x3f1580f3	0.58399886
4	0x3f9835fa	1.1891472
5	0x3fce1605	1.610047
6	0x3f2c568f	0.6731958
7	0x3f17d15a	0.5930382
8	0x3f365a62	0.71231663
9	0x3faa29b2	1.3293974
10	0x3f9e8d19	1.238681
11	0x3ec3ee2e	0.38267654
12	0x3fc5d8b0	1.5456753
13	0x3f4f56e5	0.80991966
14	0x3f6265ba	0.8843647
15	0x3f95eacf	1.1712283
16	0x3f05d70b	0.52281255
17	0x3f7e35f9	0.99301106
18	0x3f938ad6	1.1526744
19	0x3f546838	0.82971525
20	0x3e8ea74f	0.2786202
21	0x3fcb6fce	1.5893495
22	0x3f611dd2	0.8793613
23	0x3f8c286c	1.0949836
24	0x3fe95d00	1.8231506
25	0x3efdbeb5	0.4955956
26	0x3fad5881	1.3542634
27	0x3f3be17a	0.73390925
28	0x3ec2f6ef	0.3807902
29	0x3f633d71	0.8876563
30	0x3f8b9aab	1.0906576
31	0x3fa4d802	1.287842

features.10.weight f4 [64, 32, 3]
0	0x3e4de51e	0.20106933
1	0x3e17bd9d	0.14818425
2	0x3e4626a7	0.19350682
3	0x3e1ee73b	0.15517895
4	0x3e43b102	0.19110492
5	0x3e0eeca2	0.13957456
6	0xbd960f21	-0.07327104
7	0xbd49999f	-0.04921877
8	0xbdd0356e	-0.10166441
9	0x3d9a9166	0.07547264
10	0x3bfbe09a	0.0076866867
11	0xbd447902	-0.047966965
12	0x3e55168d	0.20809384
13	0x3e01e16f	0.12683652
14	0x3dae1cb2	0.08501567
15	0xbd3a1ac5	-0.045435686
16	0xbda7b455	-0.081886925
17	0xbcacbd8b	-0.021086475
18	0x3e48e4d3	0.1961854
19	0x3e663638	0.2248162
20	0x3e6a3a7d	0.22873874
21	0x3e75500d	0.23956318
22	0x3e3cc055	0.18432744
23	0x3e17cdf2	0.14824656
24	0x3d5233fe	0.051319115
25	0xbc12e699	-0.008966112
26	0xbd87661a	-0.06611271
27	0xbca906ae	-0.020633068
28	0x3b798257	0.0038072073
29	0x3c321cad	0.010871095
30	0xbd532d27	-0.051556733
31	0xbd5d4f33	-0.05403061
32	0xbd377e91	-0.044798438
33	0xbcb87f65	-0.022521684
34	0xbcb29009	-0.021797197
35	0xbd302588	-0.043004543
36	0xbd42cc41	-0.047558073
37	0xbd5f21ae	-0.05447548
38	0xbe0f80ec	-0.14014024
39	0x3d83b823	0.06431606
40	0x3d2fea44	0.042948022
41	0x3d5e86c5	0.054327745
42	0x3e428de5	0.18999441
43	0x3e10c208	0.14136517
44	0x3d645687	0.05574658
45	0x3cccdbe0	0.025007188
46	0x3cbbc4fd	0.02292108
47	0xbb75728c	-0.0037452308
48	0xbdb591a9	-0.08865673
49	0xbd507eee	-0.0509023
50	0xbd3e53b3	-0.04646654
51	0x3d5cfae9	0.053950224
52	0x3d8f03cc	0.06983146
53	0x3d3f162e	0.04665201
54	0x3cba15a2	0.022715393
55	0x3cce55bd	0.025187368
56	0xb8e1c324	-0.00010765184
57	0xbbd62645	-0.006535324
58	0x3ced7ce7	0.028990222
59	0xbc542a9e	-0.012949614
60	0xbd0e91be	-0.03480696
61	0xbcae7b65	-0.021299073
62	0xbcda6618	-0.02666001
63	0x3df08712	0.117445126
64	0x3df6aaf5	0.12044326
65	0x3dd82c0a	0.10555275
66	0x3e01e253	0.12683992
67	0x3e141d48	0.14464295
68	0x3dc0207b	0.09381195
69	0x3e4cf1ec	0.20014161
70	0x3e08bb04	0.13352591
71	0x3d9681df	0.0734899
72	0xbdcef18f	-0.101046674
73	0xbdf15827	-0.11784392
74	0xbe12d8e7	-0.14340554
75	0x3dac8196	0.08423154
76	0x3de1671b	0.11005994
77	0x3c9d82ee	0.019227471
78	0x3e4e600c	0.20153826
79	0x3e0f3252	0.1398404
80	0x3db0f3e1	0.08640266
81	0x3d209c23	0.039211404
82	0x3d460b49	0.048350606
83	0xbd057a92	-0.032587595
84	0xbd184f23	-0.037184846
85	0xbd206487	-0.03915837
86	0xbd6c6492	-0.0577131
87	0x3d3f47c8	0.046699315
88	0x3e1c8289	0.1528417
89	0x3dff0777	0.12452596
90	0xbdb90218	-0.090336025
91	0xbdad4c57	-0.08461826
92	0xbe246e0c	-0.16057605
93	0xbc4477d2	-0.011991458
94	0xbd5570c3	-0.05210949
95	0xbd8a4514	-0.06751457
96	0x3e162bcf	0.14665149
97	0x3e243e0d	0.16039295
98	0x3e23c71d	0.15993924
99	0x3d852fff	0.06503295
100	0x3e1b2c33	0.1515358
101	0x3e16d0be	0.14728066
102	0xbd06910b	-0.032853168
103	0xbd12ded6	-0.035857044
104	0xbd0b6187	-0.034028556
105	0x3d67a796	0.056556307
106	0x3c969855	0.018383184
107	0xbd01670b	-0.03159241
108	0x3dbc0aee	0.09181772
109	0x3da18699	0.078870006
110	0xbc85116f	-0.016243665
111	0xbd334be2	-0.04377354
112	0xbcbbf126	-0.022942137
113	0xbcf549ea	-0.029942472
114	0x3e118fe5	0.14215048
115	0x3e781a1e	0.24228713
116	0x3e1b929e	0.15192649
117	0x3e5e1515	0.2168773
118	0x3e62b308	0.22138608
119	0x3e2a2d27	0.16618787
120	0x3b9bb4ef	0.0047517936
121	0xbbb030f8	-0.0053769313
122	0xbdaf4be8	-0.085594
123	0x3ca83053	0.020530855
124	0x3c12dfdc	0.008964505
125	0xbc833fbe	-0.016021606
126	0xbd684b1e	-0.056712262
127	0xbd6c354a	-0.057668008
128	0xbd8e40fa	-0.06945987
129	0xbd63dd5a	-0.05563102
130	0xbcc0a91c	-0.023518138
131	0xbd9262ff	-0.07147788
132	0xbd88c39c	-0.066779345
133	0xbd62d577	-0.055379357
134	0xbe1a856b	-0.15089957
135	0x3df064ba	0.11737962
136	0x3e181528	0.1485182
137	0x3dfb7b20	0.122793436
138	0x3de0d480	0.10978031
139	0x3d4341a2	0.047670014
140	0xbd11b5a6	-0.035573624
141	0x3dc8e2d2	0.098088875
142	0x3d6434f9	0.05571458
143	0x3dbb3c4d	0.09142361
144	0xbd86e4e3	-0.065866254
145	0xbd6da3cb	-0.058017533
146	0xbd8a7499	-0.067605205
147	0x3d8435a8	0.064555466
148	0x3d781c36	0.06057378
149	0x3dac4dd3	0.08413281
150	0xbd0a755c	-0.03380333
151	0x3d1de0b1	0.03854436
152	0xbd4af286	-0.049547695
153	0x3d44ebbd	0.04807638
154	0x3d8680bf	0.06567525
155	0xbc9ee3ff	-0.019395826
156	0x3d0882f8	0.033328027
157	0x3ccce76d	0.025012696
158	0xbcbe738b	-0.023248455
159	0x3e2e23cd	0.17005844
160	0x3ddbddcc	0.10735664
161	0x3ddac0ad	0.10681281
162	0x3df4fcde	0.11962293
163	0x3e1af472	0.15132311
164	0x3de7efb3	0.11325016
165	0x3e00a149	0.12561525
166	0x3e09669a	0.13418046
167	0xbd36dfc2	-0.044646986
168	0xbd705ff9	-0.058685277
169	0xbdb0cc91	-0.08632768
170	0xbdeb40b1	-0.11486948
171	0x3e07d07d	0.13263126
172	0x3e58d23f	0.21173953
173	0x3e32bdb5	0.1745518
174	0x3e43f79c	0.19137424
175	0x3e08c766	0.13357314
176	0x3e1679c5	0.14694889
177	0x3d95b533	0.07309952
178	0x3d8aeb53	0.06783166
179	0x3c41c140	0.01182586
180	0x3cd6bc7d	0.026212925
181	0xbc8746e8	-0.016513303
182	0x3b22f78f	0.0024866795
183	0x3d1994f7	0.03749558
184	0x3e0328a9	0.1280848
185	0x3dbecd5d	0.09316514
186	0xbdceae29	-0.10091812
187	0xbdba86d6	-0.09107749
188	0xbe06bdcf	-0.13158344
189	0xbd1a17a1	-0.03762019
190	0xbc191f46	-0.009345835
191	0xbd0a6de7	-0.033796217
192	0x3cacc15b	0.021088293
193	0xbd6617e5	-0.05617513
194	0xbd079c34	-0.03310795
195	0xbdb860d2	-0.09002842
196	0xbd2427f8	-0.04007718
197	0x3a42a262	0.00074247096
198	0x3e1acf6f	0.15118192
199	0x3dd6814c	0.1047388
200	0x3e42f7ef	0.19039892
201	0x3cca3b85	0.024686584
202	0xbd8f3bc8	-0.06993824
203	0xbe10bfb6	-0.14135632
204	0xbdcc781a	-0.09983845
205	0xbcaa0376	-0.020753603
206	0xbd677a8d	-0.056513358
207	0x3e7aba8a	0.24485222
208	0x3e3ec006	0.18627939
209	0x3dfc025f	0.1230514
210	0xbbad38da	-0.0052863183
211	0xbce0c660	-0.027438343
212	0xbcd59dda	-0.026076246
213	0xbdd2d9a0	-0.10295415
214	0xbd88d7eb	-0.06681808
215	0xbd94709f	-0.07248043
216	0x3e05b4b0	0.13057208
217	0x3cd88d4a	0.02643456
218	0xbe38e6e1	-0.18056823
219	0x3e04e43b	0.12977688
220	0x3e33646d	0.17518778
221	0x3df5e9ee	0.12007509
222	0x3e6326b4	0.22182733
223	0x3dd02c83	0.1016474
224	0x3de3ba70	0.111195445
225	0x3d963af6	0.07335465
226	0x3db06721	0.0861342
227	0xbcd0d3fd	-0.025491709
228	0x38f898e0	0.00011854037
229	0x3a04c3f3	0.0005064599
230	0xbd152ccd	-0.03641968
231	0xbe5528f2	-0.208164
232	0xbe0d1695	-0.13778146
233	0xbe462cc7	-0.19353019
234	0xbe4443fd	-0.1916656
235	0xbe34b8fd	-0.17648692
236	0xbe2b8960	-0.16751623
237	0xbcfb9588	-0.03071095
238	0xbd19b3b3	-0.03752489
239	0xbdf60882	-0.120133415
240	0x3d673a8c	0.05645232
241	0x3c18d74f	0.009328677
242	0x3d52fe9a	0.05151234
243	0x3e32372e	0.17403862
244	0x3e7a8713	0.24465589
245	0x3eaa90fb	0.33313736
246	0x3e7d7207	0.24750529
247	0x3e5ad43d	0.21370025
248	0x3e851c99	0.2599838
249	0xbdc60954	-0.09669748
250	0xbd65acf9	-0.056073163
251	0xbe0b98e7	-0.13632546
252	0xbd5edabc	-0.05440782
253	0xbdc4d033	-0.09610023
254	0xbd14eec7	-0.03636053
255	0x3b65dbca	0.0035073631

features.10.bias f4 [64]
0	0xbb7c1c26	-0.0038468926
1	0xbdbc87ab	-0.09205564
2	0x3e020a19	0.12699164
3	0xbe07b431	-0.13252331
4	0xbd92e3e9	-0.07172377
5	0x3b821cfd	0.003970741
6	0x3c24219a	0.010017777
7	0x3ae1017e	0.0017166582
8	0x3dd5375f	0.10410952
9	0x3c3bdb6e	0.01146589
10	0xbc36c1be	-0.01115459
11	0xbc9ce66f	-0.019152848
12	0x3d982ca2	0.07430388
13	0xbd013f09	-0.031554256
14	0xbde9b7fe	-0.11412047
15	0x3d295d7d	0.041348923
16	0x3d99457b	0.074839555
17	0x3de4fe8c	0.111813635
18	0xbe1ab790	-0.15109086
19	0x3d87520b	0.06607445
20	0x3c1e5842	0.009664597
21	0x3c8086ea	0.015689332
22	0x3c5f8dba	0.01364463
23	0x3d91bd48	0.07116181
24	0x3d3b76cf	0.0457676
25	0x3da1f3e0	0.079078436
26	0xbdd32819	-0.103103824
27	0xbda128c0	-0.078691006
28	0x3ce1c973	0.027561879
29	0xbe0624ed	-0.13100024
30	0x3e0fb837	0.14035116
31	0x3c189a12	0.009314077
32	0xbd162c54	-0.03666337
33	0xbe062239	-0.13098992
34	0x3d237469	0.03990594
35	0x3c124dd8	0.008929692
36	0x3b2491c3	0.0025111295
37	0xbc789b42	-0.015173735
38	0xbc8e6513	-0.01738218
39	0xbda8d2a4	-0.082433015
40	0xbc87616b	-0.016525945
41	0x3da2398d	0.07921133
42	0xbd98bca8	-0.07457858
43	0xbd0ef3af	-0.034900364
44	0x3d7dbc62	0.061947234
45	0xbd96a353	-0.073553704
46	0xbdbe80e1	-0.093019255
47	0x3dd99538	0.10624164
48	0x3d9ad06d	0.07559285
49	0x3da9f924	0.08299473
50	0xbd2c8e0a	-0.042127647
51	0xbca92961	-0.020649614
52	0x3cd771bd	0.026299352
53	0x3dac4ca6	0.08413057
54	0x3d590962	0.052987464
55	0x3bbfbcaf	0.0058513503
56	0x3aaae1fc	0.0013037319
57	0xbcd1da37	-0.025616748
58	0xbcc30007	-0.023803724
59	0x3c9d20cc	0.019180678
60	0x3dc07f33	0.09399261
61	0x3b4f50d0	0.0031633861
62	0xbd265bbe	-0.040614836
63	0xbbf4dd50	-0.0074726716

features.11.weight f4 [64]
0	0x3f6d58f4	0.92713857
1	0x3f5fb9cb	0.8739287
2	0x3f6915a3	0.9104864
3	0x3f67a459	0.9048515
4	0x3f528445	0.8223308
5	0x3f5e961a	0.86947787
6	0x3f6e5a73	0.93106765
7	0x3f6b0e80	0.91819
8	0x3f4aad4f	0.791707
9	0x3f63ec11	0.89032084
10	0x3f51a058	0.8188529
11	0x3f638fe8	0.8889146
12	0x3f66141e	0.89874446
13	0x3f6426c0	0.8912163
14	0x3f7b1398	0.9807677
15	0x3f65b8e4	0.89735246
16	0x3f5f72a8	0.87284327
17	0x3f62a497	0.88532394
18	0x3f69ec0c	0.91375804
19	0x3f504f8c	0.8137138
20	0x3f540b08	0.8282933
21	0x3f58c94b	0.8468215
22	0x3f6d3b26	0.9266838
23	0x3f758037	0.95898765
24	0x3f5e151c	0.8675096
25	0x3f634110	0.8877115
26	0x3f5f669c	0.87265944
27	0x3f533af9	0.8251186
28	0x3f77d947	0.96815914
29	0x3f52e649	0.8238264
30	0x3f70f89e	0.9412936
31	0x3f5bd37f	0.8586959
32	0x3f59c80f	0.8507089
33	0x3f62016a	0.8828341
34	0x3f532357	0.824758
35	0x3f6e1a69	0.9300905
36	0x3f6f7297	0.93534225
37	0x3f51c372	0.8193885
38	0x3f5c7119	0.86110073
39	0x3f5a88d7	0.8536505
40	0x3f64720d	0.8923653
41	0x3f6c9ed8	0.92429876
42	0x3f69884e	0.9122361
43	0x3f721c57	0.94574493
44	0x3f692c42	0.9108316
45	0x3f58ff89	0.84764916
46	0x3f7007e7	0.9376206
47	0x3f5552b7	0.8332934
48	0x3f56c57d	0.83895093
49	0x3f6186a3	0.88096064
50	0x3f6c3f02	0.9228364
51	0x3f436b3a	0.7633549
52	0x3f662b96	0.89910257
53	0x3f7370fb	0.9509427
54	0x3f5fb208	0.8738103
55	0x3f76ce36	0.964084
56	0x3f61b448	0.8816571
57	0x3f5693d2	0.83819306
58	0x3f5a0934	0.8517029
59	0x3f600101	0.8750153
60	0x3f6fca95	0.9366849
61	0x3f540db7	0.8283343
62	0x3f5ab644	0.85434365
63	0x3f4cd755	0.8001607

features.11.bias f4 [64]
0	0xbe8e9fc5	-0.2785627
1	0xbe948f85	-0.29015747
2	0xbc84495c	-0.016148262
3	0xbc842d63	-0.016134923
4	0xbec0e81a	-0.3767708
5	0xbd4f326b	-0.05058519
6	0x3c1f2c00	0.00971508
7	0xbe271aab	-0.16318767
8	0xbecc5a11	-0.39912465
9	0xbe100597	-0.14064632
10	0xbeca87bc	-0.39556682
11	0xbe34054b	-0.17580144
12	0x382d08e6	4.12547e-05
13	0xbe9c7f5e	-0.30565923
14	0xbe57abd9	-0.21061648
15	0xbd57a48b	-0.052647155
16	0xbd01d26a	-0.031694807
17	0x3bfd5473	0.0077310144
18	0xbea07e6b	-0.3134645
19	0xbebfbc5f	-0.37448403
20	0xbd5e78c4	-0.05431439
21	0xbeaed483	-0.3414651
22	0x3d07589a	0.03304348
23	0xbe0dfbca	-0.13865581
24	0xbd9d786b	-0.076889835
25	0x3a1dba4b	0.00060168345
26	0xbe9e2001	-0.30883792
27	0xbd97a01b	-0.074035846
28	0x3d133977	0.035943475
29	0xbed35731	-0.4127746
30	0x3ce09db9	0.027418958
31	0xbed2d9dd	-0.41181841
32	0xbe158fda	-0.14605656
33	0xbe837283	-0.25673303
34	0xbeb86b23	-0.3601924
35	0xbc45183f	-0.0120297065
36	0xbe838a44	-0.25691426
37	0xbeb34e85	-0.35020843
38	0xbd478e1b	-0.048719507
39	0xbe396f9a	-0.18108979
40	0xbc2a72bf	-0.010403334
41	0x3cb0e409	0.02159311
42	0xbe737314	-0.23774368
43	0xbb851100	-0.0040608644
44	0xb9e92cf8	-0.00044474727
45	0xbec44f8d	-0.38341942
46	0xbe7d33b7	-0.24726759
47	0xbd15359c	-0.03642808
48	0xbeb18017	-0.34668037
49	0xbdf9cb3b	-0.12196966
50	0x3c4c6494	0.012475152
51	0xbee52253	-0.4475275
52	0xbcdf25b8	-0.027239665
53	0xbe8e9632	-0.27848965
54	0xbe99292e	-0.2991423
55	0xbccb870d	-0.02484467
56	0xbec6e9ad	-0.38850155
57	0xbeaa2710	-0.33232927
58	0xbea70e32	-0.32628018
59	0xbea7ba06	-0.32759112
60	0xbe8c8a71	-0.27449372
61	0xbebc6f32	-0.36803585
62	0xbecc5d03	-0.39914712
63	0xbeafa3d3	-0.34304675

features.11.running_mean f4 [64]
0	0x3e20f62a	0.15718904
1	0x3e126444	0.14296061
2	0x3eba2735	0.36358038
3	0xbc284e6e	-0.010272605
4	0xbe7ef52b	-0.24898212
5	0x3f4e3f29	0.80565125
6	0x3dae1665	0.08500365
7	0xbea687a8	-0.32525373
8	0xbe0bb872	-0.13644579
9	0xbec71302	-0.3888169
10	0xbe859824	-0.26092637
11	0xbda5eb69	-0.081015415
12	0x3e87d29a	0.26527864
13	0xbe459aef	-0.19297384
14	0xbd1cf2ba	-0.03831742
15	0x3f1ee6d3	0.6207096
16	0x3e66f625	0.22554834
17	0x3d9c1141	0.076204784
18	0xbd8d3130	-0.068941474
19	0x3ca37d54	0.019957222
20	0xbeae934c	-0.34096754
21	0xbe2218de	-0.15829799
22	0x3f3b801c	0.73242354
23	0x3f787bc5	0.9706386
24	0x3ec3887d	0.3819007
25	0xbecddd90	-0.402081
26	0xbe6986ea	-0.22805372
27	0xbf0481a4	-0.51760316
28	0x3e181d08	0.14854825
29	0xbe91da9d	-0.284871
30	0x3ef33e95	0.47508684
31	0x3bb7198c	0.005587762
32	0xbecde6ee	-0.40215248
33	0x3dbfe372	0.093695536
34	0xbd840b7b	-0.06447502
35	0x3ef6216f	0.48072383
36	0x3e99eb6e	0.3006243
37	0xbe1a993a	-0.15097514
38	0x3e7cfd92	0.24706104
39	0xbea2d4fc	-0.3180312
40	0x3e7199b4	0.2359379
41	0x3e2bce70	0.16777968
42	0x3e6196b6	0.22030148
43	0x3e544192	0.20728138
44	0x3e6efe58	0.23339212
45	0xbe8d4e6c	-0.27598894
46	0xbe58d1a8	-0.21173728
47	0xbe796382	-0.24354365
48	0xbce8ddf6	-0.028426152
49	0xbe62353b	-0.22090618
50	0xbe799445	-0.24372967
51	0xbd13be51	-0.03607017
52	0x3e480aaa	0.19535318
53	0x3e4ab1de	0.19794413
54	0xbe2274d6	-0.15864882
55	0x3eb7a556	0.3586833
56	0x3e2381f3	0.1596754
57	0xbda74738	-0.08167881
58	0xbe44511f	-0.1917157
59	0xbe3cedd2	-0.18450096
60	0x3f8663f0	1.0499249
61	0xbdc9f6d7	-0.09861534
62	0xbe36ce0d	-0.1785204
63	0xbe86bbae	-0.26315063

features.11.running_var f4 [64]
0	0x3e461299	0.19343032
1	0x3e3c2ac0	0.18375683
2	0x3e4fb08b	0.2028219
3	0x3e2c472b	0.16824023
4	0x3e8a6552	0.27030426
5	0x3e74f052	0.239198
6	0x3e48a015	0.19592316
7	0x3e6f427e	0.23365209
8	0x3ead791d	0.33881465
9	0x3e3a1c31	0.18174817
10	0x3e8cf30d	0.27529183
11	0x3e3a7e95	0.1821235
12	0x3e418d12	0.1890147
13	0x3e837ca3	0.25681028
14	0x3e5f5d11	0.21812846
15	0x3e694855	0.22781499
16	0x3e3ac4eb	0.1823918
17	0x3e315539	0.17317666
18	0x3e3e91a7	0.1861025
19	0x3e486db2	0.19573095
20	0x3e34b706	0.17647943
21	0x3e776285	0.24158676
22	0x3e62a49d	0.22133107
23	0x3e82eddd	0.255721
24	0x3e308200	0.17237091
25	0x3e225c81	0.158556
26	0x3e70d9b7	0.23520552
27	0x3e3b6232	0.18299177
28	0x3e514d38	0.20439613
29	0x3e8a2599	0.2698181
30	0x3e5da3b9	0.21644486
31	0x3e4c6d85	0.19963653
32	0x3e6745d0	0.22585225
33	0x3e6f43ac	0.23365659
34	0x3e88bfe1	0.26708892
35	0x3e65406c	0.22387856
36	0x3e5c682c	0.21524113
37	0x3ea338fe	0.3187942
38	0x3e333670	0.17501235
39	0x3e45742e	0.192826
40	0x3e495888	0.19662678
41	0x3e53aae8	0.20670664
42	0x3e3c6ecf	0.18401645
43	0x3e33ea67	0.17569886
44	0x3e56d05b	0.20977919
45	0x3ec7bb84	0.3901025
46	0x3e7cc5bc	0.24684805
47	0x3e1be099	0.15222396
48	0x3e9f9a6f	0.3117251
49	0x3e55b873	0.20871143
50	0x3e5972b6	0.21235165
51	0x3e2f9de4	0.17150074
52	0x3e74a308	0.23890316
53	0x3e4e669e	0.20156333
54	0x3e8cb29c	0.27480018
55	0x3e359d78	0.17735851
56	0x3e3f08ff	0.18655775
57	0x3e8a6b23	0.27034864
58	0x3e66e5ef	0.2254865
59	0x3e807938	0.25092483
60	0x3eb74581	0.35795215
61	0x3e725dd2	0.23668602
62	0x3e80f987	0.25190374
63	0x3eae4777	0.34038898

embedding_layer.0.weight f4 [16, 64]
0	0x3db55c11	0.08855451
1	0xbe01f85c	-0.12692398
2	0x3d290540	0.041264772
3	0xbd4dd9e5	-0.05025663
4	0xbcc0c6b3	-0.023532247
5	0xbe2a9540	-0.16658497
6	0xbd174dbb	-0.036939364
7	0xbe127e3a	-0.14305964
8	0x3e5905d1	0.21193625
9	0xbe26a1a3	-0.16272597
10	0x3ca12534	0.01967106
11	0xbde20ce7	-0.11037617
12	0xbdd8d282	-0.10587026
13	0x3e0e2a0b	0.13883226
14	0x3e410cb2	0.18852499
15	0xbe090f96	-0.13384852
16	0xbde70f2a	-0.11282189
17	0x3c58c173	0.013229716
18	0xbd5067d9	-0.050880287
19	0x3dd77bba	0.10521646
20	0xbd992c21	-0.0747912
21	0x3e8598db	0.26093182
22	0x3cb7966e	0.022410598
23	0xbe49f774	-0.19723302
24	0xbd70dabb	-0.058802348
25	0xbcc13c80	-0.023588419
26	0x3e3164ea	0.17323652
27	0xbdbe2abd	-0.092854954
28	0xbc931b55	-0.017957369
29	0xbdd0d408	-0.10196692
30	0xbe0d1e4d	-0.1378109
31	0xbcaffcae	-0.021482792
32	0xbe19de43	-0.15026192
33	0xbbfe946f	-0.0077691595
34	0xbd1a46a7	-0.037665036
35	0xbd258ac7	-0.04041555
36	0xbd2bef82	-0.04197646
37	0x3e5f65cb	0.21816175
38	0xbe423069	-0.1896378
39	0xbe157811	-0.14596583
40	0xbdd50bb4	-0.10402623
41	0x3cb033f7	0.021509154
42	0xbd91e9c5	-0.07124666
43	0xbdba21aa	-0.09088452
44	0xbd9ada05	-0.07561115
45	0x3e59198a	0.21201149
46	0x3e6fd4b7	0.23420988
47	0xbe3483e0	-0.17628431
48	0x3e2ee441	0.1707926
49	0xbe56052b	-0.20900409
50	0xbd35b7ff	-0.044364925
51	0x3dd13c8f	0.10216629
52	0xbd4f495f	-0.05060708
53	0x3daa0ea9	0.083035775
54	0xbd1bfe18	-0.03808412
55	0xbda0be88	-0.07848841
56	0xbda6e2c0	-0.08148718
57	0x3b2b1e7d	0.0026110702
58	0x3da9b04d	0.0828558
59	0x3e51fc9a	0.20506516
60	0xbe703b93	-0.23460226
61	0x3e33212e	0.17493126
62	0x3bab295b	0.005223436
63	0x3e3c6dbc	0.18401235
64	0x3d84fc5a	0.06493445
65	0xbd24cb6c	-0.04023306
66	0x3cea69f7	0.028614981
67	0x3d861b87	0.06548219
68	0x3dfa4989	0.12221057
69	0xbd2f5d19	-0.042813394
70	0x3be41dc2	0.006961555
71	0xbe50a45d	-0.203752
72	0x3e5812fd	0.21100993
73	0xbde2a3d2	-0.110664025
74	0x3d8664a2	0.06562163
75	0xbdc586ff	-0.09644889
76	0x3c73f37a	0.014889592
77	0x3e80cfcb	0.25158533
78	0x3dae8fb6	0.085235044
79	0xbd8d621d	-0.06903479
80	0xbdd97722	-0.10618426
81	0x3d13cfc0	0.036086798
82	0x3db73a3c	0.08946654
83	0x3e6ca357	0.23109184
84	0xbb59dbd8	-0.003324261
85	0x3e8cb779	0.2748373
86	0xbdf3e47e	-0.11908816
87	0xbe64ec10	-0.22355676
88	0xbdcd6de1	-0.10030723
89	0xbd8c0051	-0.06835998
90	0x3dc6e284	0.09711173
91	0xbe0a05cc	-0.13478774
92	0x3db41cfe	0.08794592
93	0x3dd7ffad	0.10546813
94	0xbd1c168e	-0.038107447
95	0x3e03fdbd	0.12889762
96	0xbe1a7617	-0.1508411
97	0xbd31b2c9	-0.043383393
98	0x3e33c853	0.17556886
99	0xbe14c7a3	-0.1452928
100	0x3de28ef3	0.11062422
101	0x3e4d5d6d	0.2005517
102	0xbd0fa886	-0.035072826
103	0xbdc2372d	-0.0948318
104	0x3d272bf9	0.04081342
105	0x3c62d9d6	0.013845881
106	0xbe2204c2	-0.15822127
107	0x3d233d59	0.039853428
108	0x3d85b0a5	0.06527833
109	0x3e4a0ffc	0.1973266
110	0x3de20ea9	0.110379525
111	0xbdd698c6	-0.10478358
112	0x3e6509bb	0.22366993
113	0xbdc3acea	-0.09554465
114	0x3d4ac4f0	0.04950422
115	0x3d22d81c	0.03975688
116	0xbcc4c46a	-0.024019439
117	0x3dda875d	0.1067035
118	0x3e2b51e7	0.16730462
119	0xbdfd45fc	-0.12366864
120	0x3d606642	0.05478502
121	0x3e332cc3	0.17497544
122	0x3e5119e8	0.20420039
123	0x3e6051af	0.2190616
124	0xbe3add50	-0.18248487
125	0x3e30d734	0.17269593
126	0x3e800b93	0.2500883
127	0x3e4aa5af	0.19789766
128	0x3da472ac	0.080296844
129	0x3bc22a81	0.005925477
130	0xbda09002	-0.07839967
131	0xbd80472c	-0.06263575
132	0xbd5a439b	-0.05328713
133	0xbe87dbe9	-0.26534966
134	0xbdb0c27f	-0.08630847
135	0xbda1b9c6	-0.078967616
136	0x3e25716c	0.16156548
137	0xbd7136c5	-0.058890123
138	0x3dcff667	0.101544194
139	0xbddde19d	-0.10834048
140	0xbda8f199	-0.08249206
141	0x3e21f56a	0.15816274
142	0x3d38374d	0.044974614
143	0xbe09c440	-0.1345377
144	0xbe542053	-0.20715456
145	0xbca69c9e	-0.020338353
146	0x3e00a6b1	0.12563588
147	0x38ce128e	9.8263015e-05
148	0xbdb8d826	-0.09025602
149	0x3e6780f7	0.2260779
150	0xbb9df44d	-0.0048203827
151	0xbdbc7b6f	-0.092032306
152	0xbe0efb02	-0.1396294
153	0xbe050a92	-0.12992314
154	0x3e7d9534	0.24763948
155	0xbdebb80b	-0.11509713
156	0xbd28e47a	-0.041233517
157	0x3dddb0ef	0.10824763
158	0x3c8163d0	0.015794665
159	0x3d991027	0.07473784
160	0xbdd8a685	-0.10578636
161	0x3e212024	0.15734917
162	0x3e0d7ea6	0.13817844
163	0xbdb4dcf9	-0.0883121
164	0x3d046c30	0.03232974
165	0xbd5a1d30	-0.05325049
166	0xbdccddb0	-0.10003221
167	0xbddf9d33	-0.10918655
168	0xbd8ab2d1	-0.06772388
169	0xbdf1b194	-0.118014485
170	0xbd4de5f3	-0.050268125
171	0xbe055020	-0.13018847
172	0xbcd07b00	-0.025449276
173	0x3d5fdad7	0.05465206
174	0x3db9fc24	0.09081295
175	0xbd73c11d	-0.05951034
176	0xba4b6306	-0.0007758591
177	0xbdab51d3	-0.08365216
178	0xbb6da424	-0.0036261166
179	0x3d98fa8f	0.07469665
180	0xbe257f41	-0.16161825
181	0xbf0cc38a	-0.5498587
182	0xbcb774db	-0.022394588
183	0xbd690ccd	-0.056896973
184	0x3ce0bc68	0.02743359
185	0x3d0e1252	0.03468544
186	0x3d7e7002	0.062118538
187	0x3dca1415	0.098671116
188	0xbe3389ba	-0.17533007
189	0x3dc53628	0.0962947
190	0x3daaa3de	0.083320364
191	0x3d1b1ac1	0.03786731
192	0xbce25190	-0.027626783
193	0xbdb9b4f8	-0.0906772
194	0x3d3c2dba	0.045942046
195	0x3df551c6	0.11978488
196	0xbdcde6f7	-0.10053819
197	0xbc94ec2a	-0.018179018
198	0x3e286561	0.16444923
199	0x3d94986d	0.072556354
200	0xbdb279ff	-0.08714675
201	0x3db0edbc	0.08639094
202	0xbe4cecb9	-0.20012178
203	0xbd81a556	-0.063303635
204	0x3df460bc	0.11932513
205	0xbb355495	-0.0027668823
206	0xbcb20e6a	-0.021735389
207	0x3d4576c6	0.048208974
208	0x3e1bfe21	0.15233661
209	0x3e0a9b5b	0.13535826
210	0xbc905c63	-0.017622178
211	0xbe403ab3	-0.18772392
212	0x3d2d8df5	0.04237171
213	0xbe00af35	-0.12566836
214	0x3d9b9ee7	0.075986676
215	0x3d2ef8a0	0.042717576
216	0x3e0c7c56	0.13719305
217	0x3df12bad	0.117759086
218	0xbe080824	-0.13284355
219	0x3d746c5d	0.059673656
220	0x3d8b333d	0.06796882
221	0xbe2d0240	-0.1689539
222	0x3e27411a	0.16333428
223	0xbdd6e139	-0.104921766
224	0x3d8eb6a2	0.06968428
225	0xbc5017b1	-0.012700961
226	0xbe0f5437	-0.13996969
227	0x3da844f1	0.082162745
228	0xbd2fc1c4	-0.0429094
229	0xbd27b74c	-0.04094629
230	0x3e069299	0.1314186
231	0x3d264c2d	0.04059999
232	0x3e12db8e	0.14341566
233	0x3ded7652	0.115948334
234	0x3d67409d	0.056458104
235	0x3db7e11b	0.08978482
236	0x3d982566	0.07429008
237	0xbda16e5f	-0.0788238
238	0xbd8912ea	-0.06693061
239	0x3e09d211	0.1345904
240	0xbdb64667	-0.08900147
241	0x3c6befba	0.014400417
242	0x3de35d0c	0.11101732
243	0xbdc08e0e	-0.09402095
244	0x3ddfe6ef	0.10932719
245	0xbc579e26	-0.013160264
246	0x3c06b590	0.008221999
247	0x3df1a0f7	0.1179828
248	0xbdf2ab74	-0.11849108
249	0xbe023bf7	-0.12718187
250	0xbe2c555f	-0.16829441
251	0xbd85b0b2	-0.065278426
252	0xbdc4a62d	-0.09602008
253	0xbe14b509	-0.14522184
254	0xbe495576	-0.19661507
255	0xbde66fdd	-0.11251805

embedding_layer.0.bias f4 [16]
0	0x3de3766a	0.1110657
1	0xbd2412e3	-0.040057074
2	0x3e05d5e3	0.13069873
3	0x3ec79fbe	0.3898906
4	0x3dad6f53	0.08468499
5	0x3df407fe	0.11915587
6	0x3db7c6a8	0.089734375
7	0x3e89c473	0.2690769
8	0x3ee1358b	0.43986163
9	0x3d741a0f	0.059595164
10	0x3e66bde4	0.22533375
11	0x3e1fdf62	0.15612558
12	0x3e67850e	0.2260935
13	0x3e0bafa7	0.13641225
14	0x3ca799bc	0.020459048
15	0x3d904a59	0.07045431

classifier.weight f4 [2, 16]
0	0xbeace5f7	-0.337692
1	0xbe70619f	-0.2347474
2	0xbe204d67	-0.15654527
3	0x3e9039a6	0.28168982
4	0xbe14f72b	-0.14547412
5	0xbda589cb	-0.080829225
6	0xbe7bcda1	-0.2459016
7	0x3eae822f	0.34083697
8	0x3ea7d64f	0.32780692
9	0x3f04448b	0.5166709
10	0x3e19560a	0.14974228
11	0x3d8aa6bc	0.06770083
12	0x3ea61ed5	0.32445398
13	0xbecdbcd1	-0.40183118
14	0xbe9f8c4e	-0.3116173
15	0xbe88315a	-0.26600152
16	0x3e008e2c	0.12554234
17	0x3e55ab2a	0.20866075
18	0x3e560f84	0.20904356
19	0xbea64de8	-0.32481313
20	0x3ea48c00	0.32138062
21	0x3edc5920	0.43036747
22	0x3ea188c0	0.31549644
23	0xbebcbb4f	-0.36861655
24	0xbd83b590	-0.06431115
25	0xbea57d3e	-0.32322115
26	0xbdb7ad4c	-0.08968601
27	0xbec5edea	-0.38658077
28	0x3d7a2035	0.06106587
29	0x3e0d40f1	0.13794304
30	0xbbe43e57	-0.0069654393
31	0x3e9a4b83	0.30135736

classifier.bias f4 [2]
0	0x3e1de93b	0.15421002
1	0xbc1fcb3b	-0.009753044
