o02_test/pkls/27cnn_train_weights.pth (torch, 48140 bytes, 22 tensors)

features.0.weight f4 [16, 6, 5]
00000000: e366 393f 0b7d f03e 90cc 023e d172 1fbd
00000010: 9743 dabe 2ff6 dbbe cebd 43bf e583 b7be
00000020: b523 f5bd 79e5 0abf f7e8 c33e 3c72 0d3d
00000030: 3f5c a83c b686 9cbe 4bf2 c5be d127 cfbd
00000040: 4ad8 e33b cadf 203c 5adc 103d 2916 d13d
00000050: 7d43 34bd f94f 5e3c 85f0 abbd 95c3 8b3d
00000060: 92f8 50bd 4dfe 83be 185f f5bd dfbf 3fbe
00000070: 8198 fabd 4e4f b1be 9171 bbbf 0888 e3bf
00000080: 770f 9fbf d871 76bf 202d e6be 7a90 233e
00000090: 9e82 8dbe f8b1 05be b811 a1be 3675 0dbe
000000a0: d284 953e 900a bd3e e862 133f c2e4 5b3f
000000b0: 1599 893f d1fa 68bc a26f c83d 1b4e 6abd
000000c0: 2982 6c3d 999e 6dbc 8ffe c6bd 3004 9abb
000000d0: c75a cdbd 0f08 2f3e 72df 73bb 1e96 763d
000000e0: 7ccc 173d 6e6a 4abd 35f2 753d 02ee 98be
000000f0: 212f adbf 0430 d7bf 9bab bcbf 8636 afbf
00000100: a8fa 7abf 0617 ff3e 30c9 073f 75e1 06bd
00000110: f15a 61be 3ce5 f5be 39c7 2abd a7bb 1cbe
00000120: d3dc c53d 0fde 473e 9859 fd3e 4e22 2e3d
00000130: 9393 6fbd b735 cd3c 5d04 81bc 1e1d 203e
00000140: eb73 6fbe 1365 17be 73fe 193e eb7a aebd
00000150: c675 1f3d 0fc5 18be 94a6 a33d fa52 f1bd
00000160: 297c 76bd 38a0 8f3d d3e8 b53f 7450 953f
00000170: af4d 573f 5cf2 903e 3a4e a0be cce6 91bd
00000180: 9af3 7f3e ce1b 803e c17b ba3e 6a4b c43e
00000190: 7bf9 db3d 3ae3 903d 4002 84be 605c 10bf
000001a0: 75dd 21bf 1a55 22bd af8d 8cbd aa68 f63c
000001b0: d2f9 33bd 35c3 fcbd cd21 0b3e 1cdc 9abd
000001c0: a14d 9dbd f16b 75be 1305 e6bd 89a9 36be
000001d0: e030 6abd 0f6b 6fbe 772a d3bd 550f 27bd
000001e0: 112a 94be bbfc afbc 0d59 d73e c702 fd3e
000001f0: c904 143f e183 8d3e 51f6 ca3e 429d 913e
00000200: acc1 973e d099 bdbd e19c ba3e fb2a 0d3f
00000210: 7b25 d23e 0589 4f3f 0536 473f e3e3 3d3d
00000220: fecd 03bc 3e20 22bd 1f8e 3b3d 7ef9 7bbd
00000230: fa2b 963d a018 dfbd 9890 193e e641 8dbd
00000240: 2452 debc 6ad3 aa3e 5f2a 653e dae2 3d3e
00000250: 1a7e 913e eb3d f73d 351f 413d 54ac ab3e
00000260: b23b ab3e 717d 373e 86f8 143f e453 833e
00000270: c19c ac3e a4a9 223e b4f7 983e 1d83 c83e
00000280: 9306 09bf d501 b2be a8ad 073d 9447 bdbe
00000290: b47d efbe 70b1 bd3c 65e3 efbd 049d f73d
000002a0: 5908 123d 4d78 69bd a16d e3bd 925a a83d
000002b0: a300 2f3e de00 01bd f9d3 72bd 6b88 6abd
000002c0: aae2 d5bd 0e1b 0c3e 09d9 563e 4cd4 ffbd
000002d0: 7d9f 923f d40d 4c3f 75fe a73e 39a5 c0bd
000002e0: 4771 17be def4 ddbe 3451 08bf b2fe 0ebf
000002f0: c2c7 01bf 7dc7 ccbe a97d ee3e a67b 8c3e
00000300: 3329 433d 3b38 37be 6430 efbe 1578 cfbd
00000310: 5057 2bbc cabf 1a3d a787 a43d e779 763d
00000320: 9876 97bd 1b2f 9abd 2d46 233d 0e05 aa3c
00000330: 3c36 663c 5fc2 2dbe b0d0 adbd d36e 25be
00000340: 73ca 46be 751d 3cbe 1dac 303f b8df d83e
00000350: 6ef6 debd c907 c7be 6765 3bbf 5e9f 753f
00000360: abae 543f bf7e fe3e c41e a63e 3548 0ebe
00000370: 4d6a 26bf cfb9 0ebf ad7f 0fbf cef7 85be
00000380: 2fea a4be 1202 393e 6a73 d13d d5e9 1f3d
00000390: 6431 febd f0ff 6bbe 0383 84be 7bac c03d
000003a0: 6377 d83d 8ce7 163e 5d84 f33d aa1a 283d
000003b0: fb0e 213c a5ee 24bd 19ed b33c 0b66 e93c
000003c0: 13a3 f9bd 009e fdbd ce7e b1bd 0547 2abe
000003d0: fe65 833d cd57 53bf 69b4 72bf f260 24bf
000003e0: d270 46bf c2ad 17bf 293c 3d3f 5003 3d3f
000003f0: 105f 363f f8cc 0c3f c1da fc3e fffc 24be
0.7242262 0.469704 0.12773347 -0.038927857 -0.42629692 -0.4296126 -0.76461494 -0.35842815
-0.11969701 -0.542564 0.38263676 0.03453277 0.020551799 -0.30571526 -0.38661417 -0.10115016
0.006953274 0.0098189805 0.035366394 0.10209305 -0.044009674 0.013568872 -0.08395485 0.06824414
-0.051018305 -0.25779954 -0.11981028 -0.18725537 -0.12236119 -0.34630817 -1.4644033 -1.7775888
-1.2426594 -0.9626746 -0.44956303 0.15973082 -0.27638716 -0.13056171 -0.3145883 -0.13814244
0.29202896 0.3692212 0.57572794 0.8589593 1.0749842 -0.014219956 0.09786917 -0.057203393
0.057741318 -0.014503145 -0.09716522 -0.004700206 -0.1002708 0.17092918 -0.0037212041 0.060201757
0.037060246 -0.049417906 0.06004544 -0.29869086 -1.3530008 -1.6811528 -1.473987 -1.3688514
-0.9803872 0.49822253 0.5304136 -0.032929856 -0.22007348 -0.48026454 -0.0416939 -0.15305959
0.096612595 0.19518302 0.49482417 0.042513184 -0.058490347 0.025050027 -0.01574915 0.15636107
-0.23384063 -0.1478465 0.15038471 -0.085195385 0.038930677 -0.14918922 0.07990757 -0.11783405
-0.060177002 0.07012981 1.4211677 1.1665177 0.8410291 0.28309906 -0.31309682 -0.07124099
0.2499527 0.25021213 0.36422542 0.38338786 0.10740944 0.0707459 -0.25782967 -0.56390953
-0.6322854 -0.03963194 -0.068629615 0.030079205 -0.04393942 -0.1234192 0.13587113 -0.07561514
-0.07680822 -0.23966958 -0.112314366 -0.1783811 -0.057175517 -0.23380683 -0.10310834 -0.040786106
-0.28938344 -0.021482816 0.42060128 0.4941618 0.578198 0.27639678 0.3964105 0.2844029
0.29639947 -0.09257853 0.36447814 0.5514371 0.4104422 0.8106845 0.778168 0.046359908
-0.008044718 -0.03958153 0.045789834 -0.06151723 0.073326066 -0.10893369 0.14996564 -0.06897335
-0.027138777 0.3336442 0.22379445 0.18543568 0.2841652 0.12072357 0.047148902 0.33529913
0.3344398 0.17918946 0.58191717 0.2564994 0.33713344 0.15885025 0.29876482 0.39162531
-0.53525656 -0.34767023 0.033124596 -0.36968672 -0.4677559 0.023155898 -0.11713294 0.12090495
0.035652492 -0.056999493 -0.111048944 0.082204 0.17090087 -0.031494968 -0.059284184 -0.057259005
-0.10443623 0.13682196 0.2098123 -0.12491664 1.1454922 0.797086 0.32811323 -0.09406514
-0.14789306 -0.4335088 -0.53248906 -0.55857384 -0.5069543 -0.39995947 0.46580246 0.27438086
0.047646713 -0.17892544 -0.46716607 -0.10130326 -0.010457829 0.03778056 0.08033686 0.06017485
-0.07395667 -0.07528516 0.039861847 0.020754363 0.014051016 -0.16968678 -0.084870696 -0.16155557
-0.19413166 -0.18370612 0.69012624 0.42358184 -0.108868465 -0.38873127 -0.732016 0.959463
0.8307902 0.49706075 0.32445347 -0.13894732 -0.6500595 -0.5575227 -0.5605419 -0.26165622
-0.32209918 0.18067196 0.102270916 0.03904136 -0.12411764 -0.23046851 -0.25881204 0.09407898
0.10569646 0.14736766 0.11890481 0.041041054 0.009830232 -0.04026665 0.021963643 0.02849104
-0.12189307 -0.12383652 -0.08666764 -0.16628654 0.06415938 -0.8255585 -0.94806534 -0.64210427
-0.775159 -0.5924951 0.7391992 0.7383318 0.71238804 0.5500026 0.49385646 -0.16112135

features.0.bias f4 [16]
00000000: 7bf0 003e 66e4 cdbd c1c5 e6bd 1eff 2b3d
00000010: 96f9 72bd 4bd8 0ebe 821d cc3d b14e 34bd
00000020: 40ff 363e 9d3a 363e 369a 8c3d d942 873d
00000030: 607a 7b3c 6999 b03d 5deb 483d 8a1a 8dbd
0.12591736 -0.10053329 -0.11268187 0.041991346 -0.059320055 -0.13949697 0.09966566 -0.04402036
0.17870808 0.17795797 0.06865351 0.06604547 0.015349001 0.08623011 0.049052585 -0.068898275

features.1.weight f4 [16]
00000000: 18df 783f 5bf2 7b3f b5f4 5d3f 1620 743f
00000010: 1291 7c3f 4ddf 6b3f 249b 7e3f b1a7 663f
00000020: 8344 663f 99c5 833f 5c23 7c3f faf6 623f
00000030: 0de1 6f3f 91ef 773f 4409 6c3f 72ff 5e3f
0.97215414 0.9841668 0.8670152 0.9536146 0.9865886 0.92137605 0.99455476 0.90099627
0.8994829 1.0294677 0.98491454 0.88658106 0.93702775 0.96849924 0.9220164 0.8710853

features.1.bias f4 [16]
00000000: c6ae eebb c0d1 f6bd ff49 f7bd 7a56 90ba
00000010: d102 423b 3285 9fbe ecef 49bc a985 c9bc
00000020: a152 5bbd 3645 11bc af6a aabb 6511 9dbd
00000030: 2a41 44be 0a8c bbbd dcfe 45bd d408 78bd
-0.007284018 -0.120517254 -0.120746605 -0.00110121 0.002960373 -0.31156307 -0.012325268 -0.024599867
-0.053545598 -0.008866599 -0.005200706 -0.07669333 -0.19165483 -0.0915757 -0.048338756 -0.060555294

features.1.running_mean f4 [16]
00000000: 2854 e03d 0781 debd 11b3 00be a3ee 4b3d
00000010: b601 3bbd 39ad 0ebe 928d ac3d 3baa 22bd
00000020: 6542 393e 013d 363e f1f1 453d e65b 983d
00000030: 4c2a 103c 4f7e c63d 5dca 3f3d 3cb7 cdbd
0.109535515 -0.10864454 -0.12568308 0.04978813 -0.04565593 -0.13933267 0.0842544 -0.039713126
0.18091734 0.17796709 0.048326436 0.07439403 0.008799147 0.0969206 0.046823848 -0.10044715

features.1.running_var f4 [16]
00000000: 4270 b844 03ab ba42 2d68 4043 b7da 4544
00000010: fa96 dc44 ef08 c841 5931 6744 f017 9a43
00000020: cf97 1543 7941 8144 36ad 2545 19d9 c542
00000030: 789f c142 60fd fc42 ec42 0d44 8f61 6e44
1475.508 93.33401 192.40694 791.4174 1764.718 25.004362 924.77106 308.187
149.593 1034.046 2650.8257 98.92402 96.81146 126.49487 565.04565 953.52435

features.5.weight f4 [32, 16, 3]
00000000: 5390 3b3c ef0e ca3d cb5a b9bd 0d96 2bbd
00000010: 1257 83bd 2c8a cebd 1abd 123d 9ee3 603d
00000020: 1019 913d 75e5 c43d 2205 9bbd 3858 8fbb
00000030: 8242 e73b 470d 873d e1d7 053e 2b14 73be
00000040: 0358 b8bd 5d68 16be 0305 c8bd 6fcc 04be
00000050: 350f 453d 6df6 d6bd 0795 79bc 58e5 b3bd
00000060: b498 07be ea87 88bd 01e2 e5bd c176 b43d
00000070: 82e5 273e 4e2e 9ebd b82c 273d 1020 243c
00000080: 6b9f ed3b d891 a9bc 41bd cb3d 27f3 c2bc
00000090: b55c eabd 3766 2ebd 8a29 eebc ab4e 94bd
000000a0: 1f6a 37be ffee 76bd a131 8bbd 1041 823e
000000b0: 986e 94bd eb30 ee3c 4bb6 873c 3261 6c3d
000000c0: 8e75 f4bc dddd 0bbe 4863 92bd 4272 053e
000000d0: 9031 443e b014 823c 6a5f 943c eaec dc3d
000000e0: 5c2f 2ebb e113 1c3e 9623 1e3d b01d 71bd
000000f0: 8a77 5dbd 82c6 5cbd 65fa 89bb e847 e93d
00000100: 788c 9b3d 2be8 6f3d eb50 d5bd 5f6b 5fbe
00000110: 896f 51be 4165 50be 0f08 42be a8a1 a7bd
00000120: 6a81 e3bd 17c3 09be 09e9 07be f7cb 54bd
00000130: 1fa6 31bd 1f9e 9a3d 0870 53bc 7e47 e7bd
00000140: b783 febd 6b32 6c3d ed5b 77bd 1d41 74bd
00000150: 9030 ca3c c668 aabd 4bb8 ff3c 3478 f03d
00000160: 5e17 fdbc 4999 1e3d 39ba d9bd 79d4 3abd
00000170: 96e3 b03c 9eec 7e3d d263 933d 1848 d83d
00000180: 2275 fcbd 9cd1 48bc 3c89 e4bd 9a7b b9bd
00000190: cdb1 9cbd 3625 d9bd ffa0 003c bad1 3f3b
000001a0: 7f5a f5bb 2e9e 16be 0c2c 4dbe 7476 38be
000001b0: 7ce5 31bd ef70 e2bd 990d a0bd a066 513d
000001c0: 3765 1e3e 4857 193e 43a7 f73c 8072 8c3a
000001d0: 8b0c 22bd 68ba a53d d11d 023d 0150 873b
000001e0: 1fd8 c43b dca1 c2bd 97ef 98bc 37b5 5cbd
000001f0: 8ed6 fbbd 8f57 fabd 4490 23be 1c3d c2bd
00000200: 6a5d cbbd 5d24 6ebd f265 6cbc 81f6 b83d
00000210: e8e8 37bd 33cc f63c 3dd2 18bd 28a1 b8bd
00000220: d6fd 30bd 2e75 37bd 4ff4 10be 7e4b 38be
00000230: 0f97 83be d431 14be 8f6f 50be cffb 27be
00000240: d2f1 b43c 98b5 27be 41ac ff3d f976 ba3d
00000250: 6984 f7bd 9ab2 cfbd 196b 643c 16d5 0bbd
00000260: c777 dfbc 421b a23c 3fc5 443e 4b45 e43c
00000270: c356 523d 074e 11bd 62f7 1b3c f16a d53c
00000280: 1dd8 edbd 94dc 02be b486 64bd 17a9 cd3d
00000290: 6b77 13be 7faa 85bd 3cad 30be f10e 46bb
000002a0: 99e5 60bc b67d 9ebd b49e 5dbc efcf 483d
000002b0: 9f25 033e 0c31 82bd 99be 66bb 81a7 803d
000002c0: 8644 0f3e 27d4 be3c e74d cabd 63da d63d
000002d0: 91a8 f4bd dd78 f6bd baea 38be b4de 8aba
000002e0: e248 8a3d 9e7b 95bc 772d ccbd bcd2 823d
000002f0: 627c d1bc 5291 223e 67bc fcbd 8908 0abd
00000300: c3b1 5bbe 1ea3 11be baeb 83bd 8382 553e
00000310: 4519 6a3b b131 083e ca9c 983c eb7d 593d
00000320: 3ce2 cb3d ee3f a03d a016 12be 8880 9c3d
00000330: 9c21 a8bc 431f d8bd 591f 08be 479d d4bd
00000340: 45c5 903d 6863 f1bd 145d 4bbd 7be5 40bd
00000350: 855c 3bbe da8f 25bd 50b0 66bd b091 dcbc
00000360: a885 03be a483 62be 7656 aebb 7135 9f3d
00000370: b543 ea3c 51d5 a5bd ca36 f0bd a4db 01be
00000380: 345e bcbd 35f5 813d a911 043d 7b27 463d
00000390: e7a1 a7bd 52db 923c c658 e83c 34d4 f0bd
000003a0: e12c 26be 8acb 84bd 764a b33d de26 9bbd
000003b0: bcce 04be 7b54 dc3d 316c 9b3d 8207 c23d
000003c0: 4b15 0ebe 39a6 9ebd 7608 653c cdd5 f6bc
000003d0: 2d75 9cbd 5707 10be 298f 18bc d1fb 2d3d
000003e0: 0874 05be 2252 f0bd abc9 adbc e916 d7bd
000003f0: 5178 1abe d934 963c bd2d 743c 6f9b ef3c
0.011447984 0.098661296 -0.090505205 -0.041891146 -0.06413092 -0.10084948 0.035824873 0.054904573
0.070848584 0.09614078 -0.075693384 -0.00437453 0.007057489 0.06594329 0.13070633 -0.23738162
-0.09001162 -0.14688249 -0.09766581 -0.1296861 0.048110206 -0.10496221 -0.015233285 -0.08783978
-0.13241845 -0.066665486 -0.112247474 0.08811713 0.16396144 -0.07723676 0.04081413 0.01001741
0.00725167 -0.020699427 0.09948207 -0.023797585 -0.11443464 -0.04257795 -0.029072542 -0.07241567
-0.17911576 -0.06028652 -0.06796575 0.25440264 -0.072476566 0.02907606 0.016566416 0.05770988
-0.02984121 -0.13658853 -0.07147843 0.13031867 0.19159532 0.015879005 0.018111903 0.10787375
-0.0026578521 0.15241958 0.038608156 -0.058866203 -0.05406908 -0.05390025 -0.0042107576 0.11390668
0.07595152 0.058571022 -0.104158245 -0.21818303 -0.20452704 -0.20351125 -0.18948387 -0.0818513
-0.11108668 -0.13453327 -0.1327249 -0.05195233 -0.043371316 0.075496905 -0.012905128 -0.11292933
-0.12427466 0.05766527 -0.0603904 -0.05963241 0.02468136 -0.08320765 0.031215807 0.11741677
-0.030894931 0.038720403 -0.10631222 -0.045612786 0.021592896 0.062237374 0.071967736 0.10560626
-0.12327029 -0.012257006 -0.11158988 -0.09056778 -0.076511 -0.106028005 0.007850884 0.0029269294
-0.0074875946 -0.14708778 -0.20036334 -0.18013936 -0.043431744 -0.110566966 -0.078150935 0.05112326
0.15468298 0.14974701 0.030231124 0.0010715276 -0.039562743 0.08092195 0.031766716 0.0041294103
0.006007209 -0.095035285 -0.018668933 -0.053883757 -0.122967824 -0.12223732 -0.15973002 -0.09484312
-0.09929927 -0.058140147 -0.0144286025 0.09031392 -0.04489985 0.030126667 -0.037309874 -0.09015113
-0.043210827 -0.044789486 -0.14155696 -0.17997548 -0.25701186 -0.14472133 -0.20355056 -0.16404651
0.022087965 -0.16377866 0.12484027 0.091047235 -0.12085802 -0.101414874 0.01394155 -0.03413876
-0.027278794 0.019788388 0.19215868 0.027865073 0.051352274 -0.035474803 0.00951943 0.02605197
-0.11613486 -0.12779456 -0.055792525 0.10042017 -0.14401023 -0.0652666 -0.17253584 -0.0030221308
-0.013726615 -0.07738821 -0.013526607 0.049026426 0.1280732 -0.06357011 -0.003520882 0.06281949
0.13990983 0.023294521 -0.0987814 0.10490873 -0.11946214 -0.120347716 -0.18058291 -0.0010594935
0.067521825 -0.018247422 -0.09969609 0.06387851 -0.025572006 0.15875748 -0.123406224 -0.033699546
-0.2145453 -0.1422238 -0.06441446 0.20850568 0.0035720628 0.13300206 0.01862945 0.0530986
0.0995526 0.078246936 -0.14266443 0.07641703 -0.020523839 -0.10552838 -0.13293208 -0.10381561
0.07068876 -0.11786538 -0.049649313 -0.04709385 -0.18297012 -0.04042039 -0.05632049 -0.026924938
-0.12843955 -0.2212053 -0.0053203655 0.07773865 0.028596738 -0.080973275 -0.117292 -0.12681442
-0.09197655 0.06345598 0.032243405 0.048377495 -0.08185177 0.017926846 0.028362643 -0.117592245
-0.16228057 -0.064841345 0.08754437 -0.07575773 -0.12969488 0.10758301 0.07588995 0.09474088
-0.1387531 -0.07746548 0.013979068 -0.030131245 -0.07639537 -0.140653 -0.009311476 0.04247648
-0.13032544 -0.117344156 -0.021214327 -0.10502417 -0.1508496 0.018335747 0.014903483 0.029248921

features.5.bias f4 [32]
00000000: a2b6 ccbc 39c0 b4bd 578d 9ebc e4fe bbbd
00000010: cb47 d7bd eac0 37bd 0862 873d bf70 d63d
00000020: ca74 263d 4b1d 64bd 71ed 8ebd 5294 abbd
00000030: ec8b a5bc 2308 b43d 9dc1 f93d 1129 1f3e
00000040: d403 803d 5e09 bbbc 3d35 97bd a30b f93d
00000050: 01d6 083c aca7 fabd d708 9bbd 7b15 bcb9
00000060: e213 a3bc bab6 4d3d 430e 0fbe 07c7 03be
00000070: 6428 b1bb 2c03 5dbd 51d5 363d 1f9f 57bd
-0.02498943 -0.08825726 -0.019354505 -0.09179476 -0.1051174 -0.04486171 0.06610495 0.10470723
0.040638722 -0.055692 -0.06978882 -0.08377899 -0.020208322 0.087906145 0.12195132 0.1554301
0.0625073 -0.022831615 -0.07383201 0.12160423 0.008351804 -0.12239012 -0.075700454 -0.00035874158
-0.019906942 0.05022309 -0.13970284 -0.12868892 -0.0054064263 -0.053958103 0.044637028 -0.052641984

features.6.weight f4 [32]
00000000: 58d8 553f ee4f 7d3f ea0f 8f3f 4ca5 4c3f
00000010: cb63 673f c773 713f 77b4 743f 1927 6e3f
00000020: 74d2 5b3f fc4a 823f b982 883f 45de 663f
00000030: 16cb 5e3f 3d5d 803f dab6 6d3f 5e5a 693f
00000040: 1997 633f 62fe 7d3f 6fc6 813f 7425 563f
00000050: b3d5 693f 6d42 723f 0640 673f 8fcb 6e3f
00000060: f183 883f dd3b 493f 1e07 623f dd0b 523f
00000070: bb0d 7a3f cf83 803f 3368 753f 3ff5 803f
0.8353324 0.9895009 1.1176732 0.79939723 0.90386647 0.9431729 0.9558787 0.9302841
0.85868 1.0179133 1.0664893 0.90182906 0.87028635 1.0028454 0.92857134 0.91153514
0.8890243 0.9921628 1.0138682 0.836509 0.91341704 0.9463261 0.90332067 0.93279356
1.0665265 0.7860697 0.8829211 0.8204935 0.976772 1.0040225 0.9586212 1.0074843

features.6.bias f4 [32]
00000000: 0685 c8bd 9ccc d1bd 77f2 28bd 8a3c c7bd
00000010: 45ee aebd 4668 98bd eaf2 76bd d4c0 34be
00000020: b1df a4bd b403 4ebd ac4b 34bc 358a 25be
00000030: a509 93bc 2a8a 4cbd 8c3e cabd 31fc 09be
00000040: 5c76 21be 2cff 6b3c 594c aebd 4ffd 99bd
00000050: 8fae e6bd c471 cabd a479 24be f625 f9bd
00000060: e527 963c b859 80be 6084 f8bd f15f 41be
00000070: e32c 8dbd 4a66 18be 57ec 7dbd 1e9f 9ebd
-0.09790997 -0.10244104 -0.041246857 -0.09728344 -0.0854154 -0.074417636 -0.060290255 -0.17651683
-0.08050478 -0.0502965 -0.01100437 -0.16166003 -0.017948935 -0.04993645 -0.09875211 -0.1347511
-0.15767807 0.014404099 -0.08510656 -0.07519018 -0.11263763 -0.0988498 -0.16062027 -0.121654436
0.01832957 -0.2506845 -0.121346235 -0.18884255 -0.06893327 -0.1488277 -0.06199297 -0.07745193

features.6.running_mean f4 [32]
00000000: 118c 51be 9557 acbe 3a85 32bf 0dac 61be
00000010: 5ea5 debe 1c98 16bf e82a 0dbe 8e88 9e3d
00000020: 03f5 d83c 2e7d 03bf b69c 34bf c63c 89be
00000030: 1a69 a0be 56b8 1abe 595e ddbd e242 fabd
00000040: 992c 353e a06a c1be 722b 2fbf bbb4 32bc
00000050: ae59 423d 9c28 b8be 4a77 b2be 985d 85be
00000060: 0b1a 16bf 4c58 d33d a35a 56bf fac9 e1be
00000070: a9d7 d63d 8e97 a6be 2646 0fbe 6dff fdbe
-0.20463587 -0.3366057 -0.6973454 -0.22038288 -0.4348554 -0.5882585 -0.13785899 0.077408895
0.026484018 -0.51362884 -0.7055162 -0.2680418 -0.31330186 -0.15109381 -0.10809011 -0.12219788
0.17692794 -0.3777666 -0.6842567 -0.010907347 0.047448806 -0.35968482 -0.34856635 -0.2604797
-0.5863349 0.10319576 -0.8373205 -0.44099408 0.10490353 -0.32537502 -0.13991603 -0.49608937

features.6.running_var f4 [32]
00000000: 8956 bc3e f7c2 df3e 3c09 ed3f e06b 8a3e
00000010: 89cb 293f b2ee b93f 3979 bc3e 0c4a de3e
00000020: 9e31 703e 02c4 823f e122 b63f 7c15 f43e
00000030: cd27 6c3f 37f4 e93e 5ea9 143f 6108 0f3f
00000040: 4273 813e c3dd 433f 9bd8 a33f e1dc a23e
00000050: b259 9b3e 81c0 fd3e 30cf ce3e c662 1e3f
00000060: bc49 eb3f 04d2 f73e 010b f73f 271b 133f
00000070: ba2a 7e3e 02eb e73e 2609 d13e 90ce 403f
0.3678477 0.43703434 1.8518443 0.27035427 0.66326195 1.4525969 0.36811236 0.43415868
0.23456427 1.0216067 1.4229394 0.4767264 0.9224823 0.45694134 0.58070934 0.5587216
0.25283247 0.76510257 1.2800478 0.31809142 0.3034187 0.4956093 0.40392447 0.61869466
1.8381877 0.48402417 1.9300233 0.57463306 0.24820986 0.45296484 0.40827292 0.7531519

features.10.weight f4 [64, 32, 3]
00000000: 99eb a43b 467d 0bbd 43e1 893b 1c44 173d
00000010: ccb0 c53d 184a 853d 63e5 b5bd ba51 c7bc
00000020: 2ae0 fdbd 1cf4 4a3c a1e6 11bd 8484 60bd
00000030: f063 b93d 47f4 703c eec4 223d 5cc0 8dbd
00000040: e371 3cbe 80fb b8bd 3f1d 483d 194f d73c
00000050: 76c8 5f3d b128 0c3e 19c9 d33c 5087 0f3c
00000060: 3106 0abd 0cd8 b2bd 8321 81bd 31f6 3ebd
00000070: efba b0bc de30 f6b9 b91c aabd 9d88 a1bd
00000080: ee68 a9bc d2de 6fbd 27fb 49bd d5de c9bd
00000090: 143a ae3b a06e a8bc b806 91bd caaa 9c3d
000000a0: 2950 6a3d 7e86 cc3d 575e e93d 1a9e f93d
000000b0: 297c 213d deaa 6f3d 76ea cf3d 855c ab3d
000000c0: c9f5 d5bd a6d5 5dbd 7b17 43bc 961e 6dbd
000000d0: dee6 46bc ac62 9bbc 088e 89bc 0777 b5bb
000000e0: 2d60 d2bc 0a7d 42bd a2aa 99b9 541c dabc
000000f0: b776 83bd 6c61 92bd 72dd 0ebc d0a4 8a3d
00000100: 128b 563e 3226 423e d300 383e 0060 0d3e
00000110: 1527 a13d a02f 043e 2bf4 443c b678 493d
00000120: 3703 8abd 5bba 0cbe 019a d4bd 7bdd e93b
00000130: 9cb3 c73d 3e6f 8a3b cbc9 eb3c 6228 d83c
00000140: 5a89 7c3c bb25 b43d b4f4 d63d b457 f13c
00000150: ebe4 4bbd 6496 97bd e94f b0bd 3e95 bbbb
00000160: 8692 9d3d 7189 113d e6eb bebb ca78 c2bb
00000170: fc1d fbbc 2a54 e43c d01f 84bd c153 33bd
00000180: e1a5 f1bb 16b3 043b a9d7 7d3d c859 c53d
00000190: 8238 153e bcbc ab3d 1f05 bebd dd78 75bd
000001a0: a065 9ebc 2eff 083d 7ef2 1a3d 7da9 ebbc
000001b0: c5aa 82bd 3030 6abd 4003 80bc 4cd3 abbd
000001c0: e011 a9bc e0c2 62bd 7069 913d 85b6 1e3e
000001d0: a84f 8c3d 92c5 393d dd49 253d 88e8 01bb
000001e0: 5997 b73c 5fa5 df3c 7777 1abd abb2 f8bc
000001f0: 2e8e a6bd afdf 96bd 0728 a5bd 2099 9dbd
00000200: ff0a 95bd a00c 1bbd 6447 24bc 7d2a b4bd
00000210: f024 07bc b8c0 073b 791e ddb9 ca21 2a3e
00000220: 7f87 123e eb0c 703d f784 9a3c e7ca 823c
00000230: f514 26bc cccb da3d 3ec4 ca3d 755c 103e
00000240: c051 2cbd 9abd 3fbd d4af 05bd e9ce 83bd
00000250: c99d 68bd c70b 57bc 1e3b 99bd 1e38 40bc
00000260: 1472 81bd d01c 47bd 63f2 bf3c f03a 3e3d
00000270: 1679 3b3d e074 c93c 15ba 9f3b 76eb 8d3d
00000280: 68de 873d 28b6 c83d b425 ff3d cd0a 253e
00000290: b8a0 083e a114 ad3d 42ea 173e 7494 9e3d
000002a0: ade0 38bd c82a 68bd 0dd1 b6bc df55 b5bc
000002b0: 8287 de3d 7cde b43d ccfd a0bd 699c b8bd
000002c0: f3b6 1abd 8a61 433d 5dbb de3d 57a0 223d
000002d0: 9c93 a839 850a 8abd 9883 16bd 1f54 9a3d
000002e0: e08d 463e 9fae 0c3e ca3c e3bd 36dc 94bd
000002f0: 9896 b6bd 8ed8 98bd ae8f e6bc 7ca0 ffbb
00000300: 91b3 10be 488b bcbd 9721 59bd 2f59 11bd
00000310: aca8 b0bc fc46 c93b 2eb0 383e 6c3f b13d
00000320: e280 393e 744e debd 3455 86bd 5b26 8abd
00000330: 5e2d e8bc 557c 9a3c d94b c43c 52f1 313e
00000340: eec8 293e da78 063e f59b 2c3d 89a6 c9bc
00000350: d92f 8ebd aa53 83bd 8bab 1abc dc4c 8bbd
00000360: d274 77bd e51e 1bbd 1b35 ddbd 9d0a cb3d
00000370: b849 dd3d 5225 373d 4200 3f3e 7a98 a03d
00000380: e14b a33d e0cc 9c3d f3d8 e73d fcd8 163d
00000390: 4222 a6bd 08cf 98bd e041 0bbd 5095 313d
000003a0: 79f7 763d 16a6 8b3c 9ae4 8bbd 769f 05bd
000003b0: 8d47 11bd 0ac7 0ebd 8b02 88ba 0190 7cbc
000003c0: 9de7 3d3d f8a4 f33c 4e49 d73c c1a0 843c
000003d0: 4111 9b3d 2e18 333e 0e0c 1a3e 3888 c83d
000003e0: 2481 0c3e 382f acbd 3e49 0dbd 745a 98bd
000003f0: c08c 53bd 474f 28bd 6792 a0bc d2aa ee3a
0.0050329682 -0.034055017 0.0042077615 0.03693019 0.09652862 0.06508273 -0.08881643 -0.024330962
-0.123962715 0.012387302 -0.035620335 -0.054813877 0.09052265 0.014706678 0.039738588 -0.06921455
-0.1840282 -0.09032345 0.048856016 0.026282834 0.054634534 0.13687398 0.025852727 0.008760288
-0.03369731 -0.08732614 -0.0630522 -0.046621505 -0.021573512 -0.00046957185 -0.0830626 -0.07887385
-0.020679917 -0.058562107 -0.049311783 -0.09856955 0.005316982 -0.020560563 -0.070813596 0.07649763
0.057205353 0.0998659 0.11394947 0.121883586 0.03942505 0.05851256 0.10152142 0.08367256
-0.104472704 -0.05415883 -0.011907454 -0.057890497 -0.012140004 -0.018967949 -0.016791359 -0.005537871
-0.025680626 -0.047482528 -0.00029309565 -0.026624836 -0.064191274 -0.07147488 -0.008719789 0.06769717
0.20951489 0.18959883 0.17969064 0.13806152 0.078687824 0.12908792 0.012021105 0.049187385
-0.067388944 -0.13742964 -0.103809364 0.007136998 0.09751055 0.004224687 0.028782746 0.026386444
0.015413607 0.08796259 0.10495892 0.029460765 -0.04977886 -0.074017316 -0.08608992 -0.005724578
0.07693963 0.035531465 -0.005826461 -0.0059348093 -0.030653946 0.027872164 -0.0645138 -0.043781046
-0.0073745106 0.0020248345 0.061973248 0.09636265 0.14572337 0.083856076 -0.092783205 -0.059929717
-0.019335568 0.033446483 0.037828915 -0.028767342 -0.06380228 -0.05717486 -0.01562655 -0.08389911
-0.020638406 -0.05536163 0.07100189 0.15499313 0.06851131 0.045354433 0.040353645 -0.0019822437
0.022411035 0.027300535 -0.037711587 -0.030358633 -0.081325874 -0.07366883 -0.08064275 -0.07695222
-0.07277488 -0.037853837 -0.0100267865 -0.087971665 -0.008248553 0.0020714235 -0.0004217511 0.16614452
0.143095 0.05860607 0.01886223 0.015965892 -0.0101368325 0.106834024 0.099007115 0.1409777
-0.04207015 -0.046811678 -0.032638386 -0.06435949 -0.0567911 -0.0131253665 -0.07481979 -0.011732129
-0.06320587 -0.048611462 0.023431009 0.046442926 0.045769773 0.024591863 0.0048744776 0.06929676
0.066342175 0.098003685 0.12458363 0.16117401 0.1334256 0.084512 0.14835456 0.07743159
-0.045136143 -0.056681424 -0.02231648 -0.022135673 0.1086569 0.08831498 -0.07860908 -0.09014208
-0.03777213 0.047700442 0.108755805 0.039703693 0.00032153435 -0.06740288 -0.03674659 0.07535576
0.19390059 0.13738488 -0.11095579 -0.072685644 -0.08915442 -0.074631795 -0.028144684 -0.0078011137
-0.14130999 -0.09206253 -0.05301055 -0.035485443 -0.021564804 0.006142495 0.18035957 0.08654675
0.18115571 -0.108548075 -0.0655922 -0.06745597 -0.028341945 0.018858114 0.023961948 0.17377213
0.16580555 0.13132039 0.04214092 -0.024615543 -0.0694272 -0.06412442 -0.009440313 -0.06801769
-0.060414143 -0.03787126 -0.10801145 0.09914134 0.10805076 0.044713326 0.18652442 0.078415826
0.07973457 0.07656264 0.11320677 0.036828026 -0.08112003 -0.07461363 -0.03399837 0.043355286
0.060294602 0.01704697 -0.06830712 -0.032622777 -0.035468627 -0.034857787 -0.0010376734 -0.015415193
0.04636346 0.02974175 0.026280072 0.016189935 0.0757165 0.17489693 0.15043661 0.09791607
0.13721138 -0.08407444 -0.034493677 -0.074391276 -0.0516479 -0.04109123 -0.01960106 0.0018208867

features.10.bias f4 [64]
00000000: c254 963d 33d2 70bd f48a f43d 978d 18bd
00000010: 13fb 52bd c6dc a23d e872 a83d d596 27bd
00000020: 7349 7e3d b451 6d3c 0f04 b33b 1729 a2bc
00000030: 2874 e7bc dab0 02bd 2085 99bd 3f67 233d
00000040: 25e7 2f3d 782d c93d 450d 8abd 488a 0b3e
00000050: c7b7 b83b 6357 083d 7ba0 b0bc 79db 953d
00000060: b3c8 943d fa7e cb3d 8041 a6bd 1bb3 ad3c
00000070: 5fdc 803c 6758 a9bd ed67 fa3d f681 853d
00000080: 7cd4 d6bd f9bf cdbd 844d 163a b345 a83d
00000090: ccc5 043d 8269 8e3c 9653 aabc 68df bebd
000000a0: acb9 af3d 1d0c eabc 7435 98bd 6d4d bb39
000000b0: 8e1f c73d aa33 bcbc cfe6 74bd ea29 8d3d
000000c0: cf2a 113d be9d 9c3d c773 62bc 1504 863c
000000d0: 2c55 79bc d104 c43d 363d 8d3d 9eb7 fc3c
000000e0: 132f aebc 9a50 50bb 9401 8cbd 9987 463d
000000f0: a7cb 953d f839 83bd c62c a2bd 7fec ac3d
0.07340385 -0.05879421 0.11940566 -0.037244406 -0.051508974 0.079522654 0.08225042 -0.04091533
0.062081765 0.014484812 0.0054631303 -0.019794984 -0.02825363 -0.03190694 -0.07496095 0.039893385
0.042945046 0.098231256 -0.06740812 0.13626969 0.0056371423 0.033286463 -0.021560898 0.07317252
0.07264843 0.09936328 -0.08117962 0.021203568 0.015730081 -0.082688145 0.122268535 0.06518929
-0.10489747 -0.100463815 0.00057335966 0.08216419 0.032415196 0.017384294 -0.02079181 -0.09319955
0.08580336 -0.02857023 -0.074320704 0.00035725106 0.097228155 -0.022973854 -0.05979043 0.0689276
0.035441216 0.076472744 -0.013821549 0.016359368 -0.01521806 0.09571231 0.06896441 0.030849274
-0.021262681 -0.0031786324 -0.068362385 0.04846916 0.07314234 -0.06407541 -0.07918696 0.084435456

features.11.weight f4 [64]
00000000: 0e8b 743f ecae 753f 6f8d 833f 6b46 813f
00000010: 76cc 733f 109e 843f 1e07 843f 18ad 843f
00000020: 3d74 733f b68e 823f 8f36 773f 1360 843f
00000030: ae01 863f ffef 793f 8662 713f e842 833f
00000040: d70e 833f fa99 833f 0707 783f 5c6a 763f
00000050: 97cd 803f f26b 6d3f 0011 803f 44a9 843f
00000060: 316d 793f 0350 843f b93e 813f 1f9d 7a3f
00000070: 1dc1 863f ae93 713f db82 7a3f d729 7a3f
00000080: 4d20 7c3f c901 7c3f 5c66 723f df9e 843f
00000090: 29fc 7c3f 578c 7c3f d9d1 793f bee0 753f
000000a0: de1e 813f 907e 8a3f fe15 7a3f 97f9 883f
000000b0: e4c8 863f 23c7 763f 5b4e 853f 3ba3 813f
000000c0: 3cb5 863f 168a 853f 8b57 873f 083a 6d3f
000000d0: 6e90 843f 242a 813f 059a 793f 46a9 863f
000000e0: 5925 743f 7ada 7c3f d1ef 753f 1f7a 723f
000000f0: 578e 8e3f 2c15 773f e2d2 703f a8da 673f
0.9552468 0.95970035 1.0277537 1.0099615 0.9523386 1.0360737 1.0314672 1.0365324
0.9509924 1.0199802 0.96567625 1.034182 1.0469263 0.9763183 0.9429096 1.0254793
1.0238904 1.0281365 0.9688572 0.9625604 1.0062741 0.92742836 1.0005188 1.0364156
0.9743224 1.0336918 1.0097266 0.97896 1.0527683 0.94365966 0.9785592 0.9772009
0.9848679 0.98440224 0.9468744 1.0360984 0.98822266 0.9865164 0.9758583 0.96046054
1.0087545 1.0819874 0.9768981 1.0701169 1.0530057 0.9639761 1.0414537 1.0127939
1.0524058 1.0432765 1.0573591 0.92666674 1.0356576 1.0090985 0.9750064 1.0520408
0.9536949 0.9877087 0.96069056 0.9471759 1.1137189 0.9651668 0.9407178 0.9056802

features.11.bias f4 [64]
00000000: 71f4 1bbe 4d27 11be 2f13 3c3d fb85 bb3c
00000010: 9e01 3fbe 90e7 3d3d 5045 823d 0573 adbd
00000020: 034e 2cbe ace9 28bd 53e5 12be 538e 61bd
00000030: 4983 783d c6cf 06be 0fb2 09be 9214 bf3c
00000040: d5c7 503d d4a8 2b3d dd4f d8bd 0a8e 12be
00000050: a519 653d 70ae 31be c72b 623d 61da 6dbd
00000060: e291 e43c 84ca 833d d048 b73d dd53 9f3d
00000070: a98d b23d 2190 21be e216 343d f9f2 e9bd
00000080: 571e afbc 1335 fcbd 3073 15be 1550 5b3d
00000090: cb7b ecbd c2c6 06be 6205 cabd 490b 1cbe
000000a0: 1a20 f03c 6000 e93d 4fbc 18bd e400 a43d
000000b0: 0068 983d d2f0 fcbd e096 993d edcd 9a3d
000000c0: abcd b1bd 9b24 9d3d 64f5 bf3d d5f4 0cbe
000000d0: eca4 913d 0542 f0bc 75c3 01be b16a a83d
000000e0: 77b7 04be 3601 08be fc99 14be 2f78 17be
000000f0: 24e7 91bd 7435 f6bd 033a 25be 309f 33be
-0.15229966 -0.14175148 0.045916732 0.022891035 -0.1865296 0.046363413 0.063608766 -0.08469204
-0.16826634 -0.041238472 -0.14345293 -0.05506737 0.06067208 -0.13165197 -0.1344683 0.023325238
0.050971825 0.041909054 -0.10562108 -0.14311996 0.05593266 -0.17351699 0.05521753 -0.05806959
0.027901594 0.06435111 0.08949435 0.077796675 0.08718426 -0.15777637 0.043967135 -0.114232965
-0.021376772 -0.123148106 -0.14594722 0.05354317 -0.11547049 -0.13161758 -0.09864308 -0.1523868
0.029312182 0.11377025 -0.03728896 0.080079824 0.074417114 -0.1235062 0.0749948 0.075588085
-0.08681806 0.076729976 0.093729764 -0.13765271 0.071115345 -0.029328356 -0.12672217 0.08223475
-0.12960611 -0.13281712 -0.14511865 -0.1479194 -0.07124165 -0.12021914 -0.16135411 -0.17541194

features.11.running_mean f4 [64]
00000000: 8a98 dfbc 8a8c 993c 2f8e 3e3f 0ac0 1c3f
00000010: 7aab 7fbe 7e63 5d3f ce55 6e3e eef8 5d3f
00000020: 83dc 53be 56a2 5d3e e1e5 a3be d742 c93e
00000030: 0b1e 153f cbdc b1be 94bf d7be 1b76 633e
00000040: 7de0 1b3f cb68 543f 631d adbd 63ec 94bd
00000050: 8cdc 1a3e a3b3 fbbe 17e9 013f 6197 203f
00000060: 0a55 253e bea5 083d 54a9 353e 76a2 ad3e
00000070: a8da 0a3f 6333 ccbe 3b7a 1b3f f575 abbe
00000080: 4ecb 2f3e 974e 08be 8668 73be 7576 683f
00000090: 9928 c1be 0f3a 5dbd a726 00be b831 bfbe
000000a0: 1a44 373f fa55 073f 9e83 ffbe 6aee 223f
000000b0: 7e31 1f3f 8693 abbe 843b 373f 9f6d c53d
000000c0: 2201 fabc b800 5c3f 34b0 343f abd7 c4be
000000d0: c653 093f 59e3 b63e 72cb 82be a54a 2d3f
000000e0: c80b e2bd 4bf0 8abe 4f49 a53d 9642 88be
000000f0: a7a7 713f a0be 31be 1ed7 90be 19c5 3abe
-0.027294416 0.018743772 0.74435705 0.6123053 -0.24967757 0.8647994 0.2327492 0.8670796
-0.20689587 0.21643957 -0.3201132 0.39308807 0.58248967 -0.34738764 -0.4213835 0.22213022
0.60889417 0.829724 -0.08452871 -0.0727165 0.15123194 -0.4916049 0.5074629 0.62730986
0.16145721 0.03336119 0.17740375 0.3391301 0.5423989 -0.39882955 0.60733384 -0.33488432
0.17167398 -0.1331123 -0.23770341 0.9080575 -0.37726286 -0.054010447 -0.12514745 -0.3734262
0.7158829 0.52865565 -0.49905103 0.6364504 0.62184894 -0.3351099 0.7157519 0.09640049
-0.030518118 0.85938597 0.70581365 -0.38445792 0.53643453 0.35720327 -0.2554584 0.67692024
-0.11037403 -0.27136454 0.08070623 -0.266133 0.9439644 -0.17357874 -0.2828912 -0.1823925

features.11.running_var f4 [64]
00000000: 49a5 c83e 1c8c b53e 88a5 c53e 6ee1 663e
00000010: 1c7a 043f db55 5c3e bfbd 1b3f 1e32 2f3f
00000020: e722 f63e ded1 1b3f b87b de3e 7606 513f
00000030: 1836 a83e 5bc8 b63e 7345 8e3e 4fdf cb3e
00000040: b0ad a23e 67f2 b03e 6e9b dc3e 5fd7 ca3e
00000050: c842 993e 70c1 ee3e 9b7a bd3e 2f35 1a3f
00000060: 3639 a43e 2b96 d83e fb89 b43e 7db6 5f3e
00000070: 1cfc ca3e 5e9a f33e 1989 9a3e d802 c23e
00000080: 520a 0d3f 89b4 003f 4789 dd3e fd83 b23e
00000090: 6e14 a83e 02f3 d83e 0840 ac3e 0ee1 fb3e
000000a0: 6c8c 9a3e befd a63e 160d 983e f05e 873e
000000b0: 89de b63e 7bc8 c43e da7c c93e ea68 c83e
000000c0: f03b d43e 3e4e be3e 1109 c23e 1531 b43e
000000d0: 7f9d bd3e fba9 133f 795a ed3e e845 da3e
000000e0: 6e48 cb3e 183e e03e a4bb b53e 3b2a 033f
000000f0: 5b81 3b3f e6c6 b23e 614d cb3e 1250 e43e
0.39188603 0.35458457 0.38602853 0.22546932 0.51748824 0.21517126 0.60836405 0.6843585
0.48073503 0.60867107 0.43453765 0.81650484 0.3285377 0.35699734 0.2778736 0.39818808
0.31773138 0.34559938 0.43087333 0.3961744 0.29933763 0.46631956 0.37007603 0.602374
0.32074898 0.4230207 0.3526152 0.21846958 0.3964547 0.4757871 0.30182722 0.37892795
0.5509387 0.50275475 0.43268797 0.34866324 0.32828087 0.423729 0.33642602 0.4919514
0.30185258 0.32615465 0.29697484 0.2643962 0.35716656 0.38434204 0.39353067 0.39142543
0.4145198 0.3716907 0.37897542 0.35193697 0.37034222 0.57681245 0.46358088 0.4263146
0.39703697 0.43797374 0.3549472 0.51236314 0.73244256 0.34917372 0.39707473 0.4459234

embedding_layer.0.weight f4 [16, 64]
00000000: ae35 c33d 9799 6bbc d503 91bd 59c6 27be
00000010: fd67 97bb 7d57 3dbe 63a3 9ebd dfa9 15be
00000020: f9d4 a83d be27 2fbe b82b 103d ff86 39be
00000030: 7988 fabd fd3a 8f3d e0ab 153e de37 2abd
00000040: 5fb9 2ebe 726f 0bbd 7b6c b43c 9e23 973d
00000050: 3a4a 38be a033 063e 6ae0 cdbc 2040 4bbe
00000060: 1c7c a4bd 29fc dbbc 98c6 8ebd 559f e3bd
00000070: 48bb 09be 85e1 52bd 0bd5 69be 76a2 593d
00000080: a2c9 2fbe c0aa a23d ac25 96bc f1a9 b93c
00000090: 39a1 37bc ad0e 223e 17ae 22bd f64f 933d
000000a0: 158e 0bbe 34cc b1bd 195d f73d 62c1 6dbc
000000b0: ee78 c4bd 1e8f 383e 9816 c23d 9c7f 27be
000000c0: b342 0d3e 2ec7 e4bd 1e05 18bc 764e fd3d
000000d0: a277 86bd 0c8e 32be c39f 39bc 791b 43bd
000000e0: b828 553d 5652 40bc a611 1fbc 1ee8 ae3d
000000f0: 39df 4ebe 6bdf dc3d 7492 06bd 207e 783d
00000100: 4bf9 b53d 95fd d3bc cf69 953c 3441 303c
00000110: cb13 b8bb d996 07be abe1 d63c 502e 38be
00000120: 8dab 8a3d daf7 51bd 83b0 09bd d571 c8bd
00000130: a25d 653c 92b2 f03d 5f24 053e c3f9 33be
00000140: 8d54 adbd ee26 203d 8476 303e 5658 2d3e
00000150: 18fd aebb e5ca 093e 23d9 4abd 708e 10be
00000160: 86af 08be 1926 06be 3ee9 f4bd 6bf0 50be
00000170: eae2 ecbb 301a 6d3d cb0a 0d3d 287b 083e
00000180: 2aae 40be 06c6 9f3a 77c2 fd3d af97 81bd
00000190: 2b79 253e 4b0d aa3d db32 ccbd 5114 9b3d
000001a0: 956c 00bd 55c8 90bc aab8 89bc cc40 163d
000001b0: b597 6f3d 442d 063e 9ff1 643c 8b57 09be
000001c0: 8705 413e b932 20ba 6649 733d 7045 943d
000001d0: bdb1 26bc d55e 8fbd 88dd f73d f1ca 25bd
000001e0: 4ca7 633d 84a4 963d 46ed cc3d d3ea 6d3d
000001f0: ccbc 71be 11de 063e 385c 0e3e 2e6e e23d
00000200: cc15 38bd 1971 35be f6ae 18ba 339f f63d
00000210: 8bcd e5bd 499e 1cbd 165d cf3d 85a1 6dbe
00000220: 01fe 79bd 0a69 0ebe 1ef5 9bbd f56f 10be
00000230: 7e40 643e 0173 47be b3f3 95bb a371 babc
00000240: 74f4 093c 4ffd 213e 3d04 a6bd dbe6 13be
00000250: e632 76bd bc12 cf3b 1e92 273e 41a7 11be
00000260: de88 943d 73fc 44bc 1ef8 e63d cf7f 9bbb
00000270: 9b0e a93d 4531 b53b d2ec 043e 347c 06bc
00000280: aca1 fbbc f5c3 5b3d 2955 a8bd c5f3 113e
00000290: e11d 16bd 6cfb 39be 7da8 f8bd b721 debd
000002a0: 071d c13d 7021 923c 464e 76be f86c e13d
000002b0: 90b4 373e 88a9 58be 3e48 fa3d f0d2 a53d
000002c0: 5014 52be 0ab8 1b3e cc73 513e 14bb b53c
000002d0: 8b76 8c3d e71a 31be 6df4 2dbe 77e1 d23d
000002e0: dee9 10be 2620 27be c1eb bfbd 52f4 11be
000002f0: e515 02bd 09a9 35be ca31 e1bd 2ff1 3fbd
00000300: 1437 083c 1e67 b8bd 09af eb3c 67ad b13d
00000310: dfc5 dcbc e31f f23c 9c2c 143e 8f92 fc3c
00000320: 66c4 e1bb 6eb1 8c3d af6f b7bd 7279 6bbd
00000330: 8c8f 0a3e b82b e3bc f5e2 d23c ab7b 803d
00000340: 3a82 343e b5fd 083e c23f 4fbd 3f24 39bd
00000350: aaee 7f3d e542 adbd c430 80bb e4be 993d
00000360: 00a2 1f3e fbe4 153e fbe2 783d 5abd 003e
00000370: d4df 243d a9c2 81bd 0766 f23d 88c6 31bd
00000380: 1649 8d3c b761 a3bd a7c9 f3bd a306 ac3d
00000390: 4c08 bebc d119 d5ba 4127 9f3c f5bc 1dbd
000003a0: 0f37 153e 170f 1b3e ab9d 043d dd87 ec3d
000003b0: 15b8 be3d 7057 53bb 94c0 a23d f79c fc3d
000003c0: 67d4 70bd 3a73 f93c cac2 063e fc9f 9ebd
000003d0: 36ce 2f3e aefe 1b3e 889b f8bc 0451 8b3d
000003e0: 59b5 afbc a9d4 08bd 6f8e f7bd 003a 90bd
000003f0: 6bf5 91bd 0d41 acbd 232f a0bd 57c3 71bd
0.09531723 -0.01437988 -0.07080809 -0.16384257 -0.0046205507 -0.18490405 -0.07746007 -0.14615582
0.08243746 -0.17105004 0.035197943 -0.18117903 -0.12233061 0.06993673 0.14616346 -0.041557185
-0.17062901 -0.03404183 0.022024384 0.0737984 -0.17997065 0.13105631 -0.025131423 -0.1984868
-0.080314845 -0.026853638 -0.069714725 -0.111143745 -0.13450348 -0.051484603 -0.22835176 0.05313345
-0.1716676 0.07942724 -0.01832851 0.022664042 -0.011207872 0.15825911 -0.039716806 0.07192986
-0.13628419 -0.08681527 0.12078304 -0.014511438 -0.09593378 0.18023345 0.09476966 -0.16357273
0.13794975 -0.11170803 -0.009278564 0.12368481 -0.06565787 -0.17436999 -0.011329594 -0.04763362
0.052040786 -0.01173838 -0.009708798 0.085403666 -0.2020234 0.10784801 -0.032854512 0.060667157
0.088854395 -0.025877753 0.01823893 0.010757733 -0.005617594 -0.13241138 0.026230654 -0.17986417
0.06771002 -0.05126176 -0.0336156 -0.09787337 0.013999375 0.117528096 0.13002156 -0.17575745
-0.084633924 0.039099626 0.1723271 0.16928229 -0.0053402297 0.13456304 -0.049523484 -0.14116836
-0.13348207 -0.1310047 -0.1195855 -0.20404212 -0.0072291987 0.057886302 0.03443412 0.1332823
-0.18816438 0.0012189753 0.12390607 -0.063277595 0.16159503 0.08303317 -0.099706374 0.075722344
-0.031353552 -0.01767365 -0.016811687 0.03668289 0.05849429 0.13103205 0.013973623 -0.13412301
0.18849765 -0.0006111074 0.05939617 0.07239807 -0.010174212 -0.0700051 0.121028006 -0.040476743
0.05557947 0.073555976 0.10006194 0.058085274 -0.23607177 0.13170649 0.13902366 0.11056171
-0.044942662 -0.17718925 -0.0005824411 0.120420836 -0.11220845 -0.03823689 0.101251766 -0.23206146
-0.061033253 -0.13907257 -0.07615112 -0.14105208 0.22290227 -0.19477464 -0.0045761704 -0.022759264
0.008420099 0.15819286 -0.08106277 -0.14443533 -0.060107134 0.006319372 0.16364333 -0.14223959
0.07252668 -0.012023079 0.11277793 -0.0047454606 0.08254739 0.005529555 0.12980965 -0.008208323
-0.03071674 0.053653676 -0.08219368 0.14253147 -0.03664959 -0.18162316 -0.121415116 -0.10846274
0.09429365 0.01783821 -0.24053296 0.11007112 0.17939973 -0.21158421 0.1222081 0.08096874
-0.20515561 0.15206924 0.20454329 0.022183932 0.06858548 -0.17295419 -0.16987772 0.1029691
-0.14151713 -0.16320857 -0.09371138 -0.14253357 -0.03175916 -0.17740263 -0.10995825 -0.04686087
0.008313913 -0.09004043 0.028769987 0.08675652 -0.026949821 0.02955622 0.14470142 0.030831603
-0.0068898676 0.068697795 -0.08956849 -0.057488866 0.13531321 -0.027730808 0.025742987 0.06273588
0.17627802 0.13378032 -0.050597914 -0.045200583 0.062483467 -0.08460025 -0.0039120633 0.075071126
0.15589142 0.1463813 0.06076334 0.12572232 0.04025252 -0.063359566 0.118358664 -0.043402225
0.017246764 -0.07977622 -0.119036965 0.08399703 -0.023197316 -0.0016258304 0.019427897 -0.03851028
0.14571784 0.15142475 0.032376926 0.11549351 0.093124546 -0.0032248162 0.079468876 0.12334626
-0.058796313 0.030450452 0.13160244 -0.07745358 0.17168507 0.15233871 -0.0303476 0.06802562
-0.021448778 -0.033405934 -0.12087714 -0.070423126 -0.07126888 -0.08410845 -0.078214906 -0.05902418

embedding_layer.0.bias f4 [16]
00000000: 46bf a93c 3566 8abc 58b4 6ebc 6b2a 473e
00000010: 06b4 203d 8713 2abd 50ca 063d a0d1 1a3e
00000020: 85bc 663e 921a 583e 4f50 f43d 2e75 b13d
00000030: dc5b cd3d 400d c53d 1528 1bbe 2ca0 1dbd
0.02072109 -0.01689444 -0.0145693645 0.19449775 0.039234184 -0.04152253 0.032907784 0.15119028
0.22532852 0.21103886 0.1192938 0.086649284 0.100272864 0.09621668 -0.15152009 -0.03848283

classifier.weight f4 [2, 16]
00000000: 2ab1 95be 339c 61be d4a1 7b3e 57ad 693e
00000010: 5d4b a4bd 98c7 7d3d 4f69 e9bd 67bb 9f3e
00000020: c6f4 743e 9936 663e d1ba dc3d cf88 423d
00000030: f7bc a63e 6c23 a4be 5ecc 40be 1380 54be
00000040: 3c3b 5c3d 9d92 433e 892c 3fbe 98ac 8dbe
00000050: be5e 8e3e a48d a93e dfd6 443e d9ba afbe
00000060: bf01 6a3d d269 edbb 81d1 24bd a8ee cfbe
00000070: 5507 dd3d c6f9 c23c dc16 2ebe 3935 7d3e
-0.29236728 -0.22032242 0.24573451 0.2282003 -0.08022187 0.061957926 -0.11397039 0.31197664
0.23921499 0.22481765 0.1077782 0.047493752 0.32566044 -0.32058275 -0.1882796 -0.20751981
0.053767428 0.19098897 -0.18669333 -0.2767074 0.27806658 0.33115876 0.19222592 -0.3432224
0.05713057 -0.007245281 -0.04023886 -0.40611768 0.10792414 0.023800742 -0.17000908 0.24727334

classifier.bias f4 [2]
00000000: 67c5 313e 5c89 36bc
0.1736046 -0.011141147
