o02_train/run_outputs/15Acnn_train_weights.pth (torch, 48171 bytes, 22 tensors)

features.0.weight f4 [16, 6, 5]
2.3801746 1.4041123 0.27640137 -0.61119926 -1.6561632 -0.7367258 -0.78702164 -0.54681927
-0.30727664 -0.649172 0.7830542 0.3626174 0.36139488 0.042812914 -0.18712197 -0.026756315
0.0328691 0.041002598 0.040978294 0.06179476 -0.11884789 0.03857973 -0.02216119 0.1332553
0.035047255 -0.2956501 -0.085086 -0.04311501 -0.05200062 -0.4203286 -2.6393476 -3.3246443
-2.2039988 -0.68507355 0.81668293 0.26466292 -0.06293877 0.3119958 0.4374406 1.0424505
0.24098533 0.4974125 0.51973075 0.49287197 0.60323393 -0.09500051 0.11206475 -0.054938916
0.041973703 -0.05097239 -0.022304256 -0.117568284 -0.10358704 0.21976581 0.051553935 -0.067629755
0.016253043 -0.035630357 0.12352297 -0.15688226 -2.6476402 -2.4839504 -1.4203378 -0.53549933
0.0065142466 0.9717512 1.1688948 0.6644684 0.43052185 0.2247005 -0.3049444 -0.30309474
-0.21808763 -0.14281934 0.1262709 -0.046193592 0.031185465 0.12289643 -0.050132446 0.18187092
-0.07601685 -0.05872902 0.12450902 -0.05508494 0.09298115 -0.12893538 0.113850385 -0.02612828
0.03524274 0.20357056 3.5739121 2.8898432 1.7684598 0.46684727 -0.39381725 -0.5331236
0.19686806 0.14594337 0.7890582 0.8150589 0.23834671 0.08793301 -0.03131742 -0.26559114
-0.6127183 -0.013947787 -0.077082455 -0.008924511 -0.06303919 -0.07812029 0.04428569 -0.08038247
0.0014673261 -0.13843998 -0.05982951 -0.13469455 -0.0972707 -0.27739987 -0.21374796 -0.061437175
-0.25405556 0.5674287 1.6198009 2.0701556 2.2596164 0.8305446 0.7929582 0.46411127
-0.23706435 -0.7986944 0.65943575 0.9088398 0.5345174 0.8737955 0.98987335 0.0029353946
-0.054939214 -0.06989937 -0.002556624 -0.09831487 0.012941214 -0.15229881 0.076022215 -0.084648356
-0.014326947 0.22925945 0.12805136 0.14362869 0.27586293 0.1512517 -1.4813938 -0.09626053
-0.017502312 0.23255596 1.2574477 0.2755477 0.17523684 0.09723049 0.74816364 0.9323382
-0.72541857 -0.8596138 -0.46861342 -0.7964928 -1.0589525 0.040882997 -0.062790945 0.0131436875
0.0094948 0.0060132486 -0.2048365 0.13630281 0.21290818 -0.08191372 -0.08442319 -0.06342213
-0.071204826 0.15244542 0.13404512 -0.23158573 1.5743601 0.7860042 0.084515095 -1.0603342
-1.9288956 0.104421444 0.15788656 -0.02028983 -0.4987383 -0.53677386 0.38302064 0.13738652
0.0761003 0.14502543 -0.048868883 0.00712265 -0.016962366 0.02245081 0.002597064 -0.0059213107
-0.14050269 -0.025178492 0.063974775 0.04848991 0.07537298 -0.34862038 -0.055477105 -0.07366423
-0.13474807 -0.4320395 2.2082915 1.5593333 0.2877616 -0.72913295 -1.587462 2.2680314
2.1680918 1.3274561 0.8401438 0.34741405 -0.72648185 -0.7692687 -0.74018216 -0.37719357
-0.47353795 0.16795415 0.12571532 0.051750947 -0.073119834 -0.11509314 -0.3080652 0.025108876
0.08274276 0.1121672 0.098600335 0.06863779 0.011908967 -0.047931656 0.027423317 0.0049148235
-0.5369766 0.040816095 0.7501582 1.1012806 1.5483458 -2.0289092 -2.3612921 -1.6516113
-1.6863133 -1.401584 1.175443 1.1815778 1.0817629 1.0419806 1.0964156 -0.098379284
00000000: c854 1840 f4b9 b33f 7b84 8d3e 8e77 1cbf
00000010: 28fd d3bf 109a 3cbf 407a 49bf 59fc 0bbf
00000020: 5d53 9dbe 2330 26bf 3d76 483f fda8 b93e
00000030: c008 b93e 985c 2f3d e79c 3fbe 0f30 dbbc
00000040: c0a1 063d 57f2 273d dbd8 273d 811c 7d3d
00000050: 8666 f3bd c705 1e3d 628b b5bc 1474 083e
00000060: b68d 0f3d 735f 97be 9241 aebd 5d99 30bd
00000070: 9afe 54bd 4f35 d7be 12eb 28c0 f9c6 54c0
00000080: 510e 0dc0 fb60 2fbf 2212 513f e681 873e
00000090: 0be6 80bd eabd 9f3e 37f8 df3e 056f 853f
000000a0: dcc4 763e daac fe3e 130d 053f b759 fc3e
000000b0: 8a6d 1a3f a18f c2bd 3482 e53d a107 61bd
000000c0: 9eec 2b3d 6dc8 50bd 6ab7 b6bc a4c7 f0bd
000000d0: 7125 d4bd 4a0a 613e 382a 533d 7881 8abd
000000e0: 1a25 853c 23f1 11bd 9cf9 fc3d bea5 20be
000000f0: f072 29c0 0bf9 1ec0 a1cd b5bf 7c16 09bf
00000100: 7675 d53b b0c4 783f 589e 953f 9a1a 2a3f
00000110: 5c6d dc3e e317 663e ac21 9cbe 3c2f 9bbe
00000120: 5d52 5fbe 3c3f 12be 294d 013e 7e35 3dbd
00000130: a978 ff3c 20b1 fb3d ae57 4dbd 5f3c 3a3e
00000140: b9ae 9bbd d78d 70bd 96fe fe3d bfa0 61bd
00000150: e76c be3d a307 04be 642a e93d fa0a d6bc
00000160: b15a 103d cd74 503e faba 6440 31f3 3840
00000170: e45c e23f 9b06 ef3e 6aa2 c9be ca7a 08bf
00000180: c897 493e 2e72 153e b8ff 493f b3a7 503f
00000190: 2911 743e 3916 b43d b246 00bd 90fb 87be
000001a0: 1bdb 1cbf 4285 64bc 68dd 9dbd 1d38 12bc
000001b0: b11a 81bd 88fd 9fbd e964 353d 909f a4bd
000001c0: 4b53 c03a 36c3 0dbe ca0f 75bd 5eed 09be
000001d0: dc35 c7bd 5b07 8ebe bfe0 5abe 8ca5 7bbd
000001e0: 9213 82be 0243 113f a355 cf3f 6e7d 0440
000001f0: 8e9d 1040 929e 543f 4fff 4a3f fe9f ed3e
00000200: ffc0 72be 3c77 4cbf c8d0 283f baa9 683f
00000210: 22d6 083f 10b1 5f3f 5768 7d3f c05f 403b
00000220: f107 61bd 6727 8fbd 088d 27bb 4e59 c9bd
00000230: 6307 543c 38f4 1bbe 89b1 9b3d 1e5c adbd
00000240: 92bb 6abc fdc2 6a3e e51f 033e 6613 133e
00000250: e83d 8d3e bae1 1a3e 509e bdbf 3e24 c5bd
00000260: 0261 8fbc 2623 6e3e 0cf4 a03f 9714 8d3e
00000270: 4971 333e c720 c73d a787 3f3f b7ad 6e3f
00000280: 08b5 39bf a60f 5cbf 19ee efbe f4e6 4bbf
00000290: c18b 87bf ee74 273d 8a98 80bd 9f58 573c
000002a0: 1490 1b3c c90a c53b a9c0 51be f792 0b3e
000002b0: 9a04 5a3e 61c2 a7bd 11e6 acbd 76e3 81bd
000002c0: d6d3 91bd a71a 1c3e 2043 093e cf24 6dbe
000002d0: a284 c93f 9237 493f 4016 ad3d 08b9 87bf
000002e0: 0de6 f6bf e9da d53d 04ad 213e dc36 a6bc
000002f0: a05a ffbe 036a 09bf 481b c43e 0daf 0c3e
00000300: 79da 9b3d 8c81 143e bd2a 48bd 1e65 e93b
00000310: a9f4 8abc c3ea b73c 8133 2a3b 8e07 c2bb
00000320: f0df 0fbe 2043 cebc 3505 833d 5b9d 463d
00000330: 265d 9a3d 5f7e b2be f63b 63bd 46dd 96bd
00000340: 66fb 09be 4834 ddbe a654 0d40 3c98 c73f
00000350: 7d55 933e 75a8 3abf f431 cbbf 6d27 1140
00000360: 04c2 0a40 15ea a93f aa13 573f 41e0 b13e
00000370: b7fa 39bf cbee 44bf 947c 3dbf 841f c1be
00000380: 9173 f2be 2cfc 2b3e 84bb 003e cdf8 533d
00000390: dabf 95bd f4b5 ebbd b9ba 9dbe 21b1 cd3c
000003a0: 0975 a93d ebb7 e53d f9ee c93d f891 8c3d
000003b0: d41d 433c fc53 44bd dda6 e03c 870c a13b
000003c0: 4c77 09bf c72e 273d 5e0a 403f c3f6 8c3f
000003d0: 3230 c63f a6d9 01c0 691f 17c0 0068 d3bf
000003e0: 1dd9 d7bf 1b67 b3bf eb74 963f f13d 973f
000003f0: 3577 8a3f 9f5f 853f 5957 8c3f 147b c9bd

features.0.bias f4 [16]
0.06105646 -0.07131833 -0.20262969 -0.055730335 -0.03931811 -0.32259437 0.10311003 -0.014701172
0.23488002 0.13472182 0.0599888 0.07324505 0.056424048 -0.023645736 0.008008534 0.064816
00000000: 5716 7a3d 580f 92bd 287e 4fbe 7e45 64bd
00000010: 070c 21bd 172b a5be 5a2b d33d 2fdd 70bc
00000020: 6384 703e 84f4 093e d1b6 753d 8001 963d
00000030: e71c 673d b4b4 c1bc 3a36 033c 40be 843d

features.1.weight f4 [16]
0.8534774 0.8338196 0.75279087 0.837224 0.7014558 0.91738594 0.8482785 0.8557429
0.7849852 0.91955745 0.8806862 0.82791233 0.8888801 0.83097064 0.8376855 0.79357225
00000000: 7f7d 5a3f 3475 553f e7b6 403f 5054 563f
00000010: 9b92 333f ced9 6a3f c828 593f f711 5b3f
00000020: caf4 483f 1e68 6b3f a774 613f 10f2 533f
00000030: a58d 633f 7eba 543f 8f72 563f 8d27 4b3f

features.1.bias f4 [16]
-0.06603533 -0.3578902 -0.036119454 0.009082768 -0.0047562304 -0.2612563 -0.3299186 -0.08532787
-0.14165992 -0.011465833 -0.0130094625 -0.4598517 -0.15266293 -0.30383807 0.00399943 -0.009141135
00000000: 883d 87bd 623d b7be fef1 13bd e4cf 143c
00000010: 27da 9bbb 63c3 85be 17eb a8be 61c0 aebd
00000020: 4c0f 11be 30db 3bbc a425 55bc af71 ebbe
00000030: ac53 1cbe aa90 9bbe a70d 833b b3c4 15bc

features.1.running_mean f4 [16]
0.055151388 -0.07573322 -0.18984935 -0.070056506 -0.032877006 -0.32255268 0.090408824 -0.009644739
0.23442134 0.16268414 0.055762164 0.072675 0.06205955 -0.035982534 -0.01954569 0.06460784
00000000: 6ce6 613d 051a 9bbd de67 42be c979 8fbd
00000010: 0aaa 06bd a025 a5be 4328 b93d f804 1ebc
00000020: 260c 703e ac96 263e de66 643d a1d6 943d
00000030: 2832 7e3d 6c62 13bd 481e a0bc 1d51 843d

features.1.running_var f4 [16]
1037.5377 32.987633 256.168 999.3426 1224.6451 15.283987 1298.7124 287.431
93.14982 1074.2363 1024.8917 25.081598 311.19193 180.091 772.0822 325.56094
00000000: 35b1 8144 56f3 0342 8115 8043 edd5 7944
00000010: a514 9944 368b 7441 cc56 a244 2bb7 8f43
00000020: b54c ba42 9047 8644 891c 8044 1da7 c841
00000030: 9198 9b43 4c17 3443 4305 4144 cdc7 a243

features.5.weight f4 [32, 16, 3]
0.07295028 0.14710912 -0.02551025 -0.1630379 -0.11476188 -0.13462068 -0.12971753 0.024169378
0.107185625 0.08106135 -0.03542891 0.050941203 0.05717454 0.048506852 0.0908897 -0.20032853
-0.15688188 -0.26720423 -0.035260506 -0.046954468 0.10488646 -0.18291482 -0.1126533 -0.17482686
-0.1867027 -0.12866339 -0.13099718 0.08255366 0.091688804 -0.06398999 0.12816036 0.08536497
0.068827115 -0.16146137 -0.12733063 -0.095889956 -0.048175335 0.058226045 0.07693252 0.11252056
-0.12321299 0.112803444 0.008371593 0.22238323 -0.022992449 -0.067565836 -0.04983698 0.025119329
-0.15180498 -0.19295679 -0.13263364 -0.002485954 0.2474007 -0.0019858729 -0.03562855 0.050412964
0.011853361 0.03220164 -0.029448526 -0.16482547 -0.0048674843 -0.0008283284 -0.003855586 0.1711909
-0.0044398895 0.16377111 -0.240511 -0.29924592 -0.21150576 -0.08716796 -0.058038075 -0.064148955
-0.08217109 -0.16739312 -0.13780384 0.07878715 0.06332035 0.05963779 -0.093104236 -0.18151516
-0.16807795 -0.07764638 -0.20520285 -0.18232228 0.049959075 -0.04274008 0.09562433 0.113583796
0.023284476 0.043415494 -0.13972409 -0.02576923 0.085849665 -0.09082246 -0.11929435 -0.050059114
-0.025513433 0.08341975 0.020910596 -0.06351845 -0.0010678486 -0.03285297 -0.0015055634 -0.04963074
-0.1082994 -0.1637406 -0.31977153 -0.18556824 -0.06582312 -0.14840916 -0.09764723 -0.05308878
0.113368705 0.13500032 0.22063467 0.0061086724 -0.0017349963 0.16586511 -0.020716751 -0.07743734
0.0707235 -0.02218647 -0.04629406 -0.1058325 -0.19348297 -0.13706394 -0.12839499 -0.08423464
-0.06590769 0.055267643 0.07834808 0.10302676 -0.045254357 -0.17890145 -0.1490118 -0.08724513
0.022487221 -0.02834833 -0.09701995 -0.1847768 -0.16141929 -0.031054875 -0.20467678 -0.21211432
0.10171106 -0.17789668 0.15593238 0.043593124 -0.17646997 -0.106532514 -0.05044168 -0.13007641
-0.048991468 -0.12318018 -0.1231791 -0.07935442 0.04611631 -0.017782187 0.014070286 0.16130345
-0.10086222 -0.11701323 -0.09444454 -0.046041694 -0.32133666 -0.0064127035 -0.29217842 -0.031159071
-0.10726409 -0.040416103 -0.022792181 0.038013674 0.0055696894 -0.09657844 0.0134244105 -0.05728185
0.19733879 0.080281176 -0.11759087 0.11593118 -0.13768496 -0.11454385 -0.30491215 -0.15104853
-0.030258682 -0.030135732 -0.05057972 0.04915721 -0.054307222 -0.14924358 -0.17962676 -0.21443823
-0.13610315 -0.09455222 -0.042874686 0.03958038 -0.06407621 0.09383651 0.079800695 0.040607978
0.002917994 0.10321762 -0.18649244 0.059969865 -0.01871271 -0.096491635 -0.09687113 -0.19280967
0.081224196 -0.10065035 -0.1173806 -0.17928496 -0.2428026 0.034355503 0.08691494 0.08560647
-0.22501065 -0.17161185 -0.008395462 -0.02541078 -0.075981446 -0.15973777 -0.06130884 -0.057674307
-0.052329622 -0.051674586 0.07825272 0.2196592 0.052223932 0.16635448 0.18017977 -0.19478127
-0.24971892 -0.12861206 0.06464207 -0.001155335 -0.07767692 0.05309602 0.066609055 0.015620153
-0.09200536 -0.05170563 0.025960647 0.1274821 -0.06028608 -0.116172165 0.025156459 0.076968476
0.052472595 -0.22254585 -0.23674878 -0.08688561 -0.10164359 0.04531384 0.00014649944 0.15230547
00000000: f566 953d c6a3 163e dffa d0bc 68f3 26be
00000010: 4708 ebbd 01da 09be acd4 04be dcfe c53c
00000020: 2384 db3d 7e03 a63d e81d 11bd b9a7 503d
00000030: da2f 6a3d 1faf 463d 6124 ba3d ec22 4dbe
00000040: a5a5 20be fece 88be 526d 10bd 5453 40bd
00000050: b6ce d63d 064e 3bbe c6b6 e6bd d005 33be
00000060: fe2e 3fbe 56c0 03be 2024 06be e511 a93d
00000070: 57c7 bb3d 2f0d 83bd 783c 033e d4d3 ae3d
00000080: 3bf5 8c3d 2156 25be f662 02be f461 c4bd
00000090: 8053 45bd 6f7e 6e3d cc8e 9d3d 2e71 e63d
000000a0: 1857 fcbd 7e05 e73d 0229 093c 6eb8 633e
000000b0: a95a bcbc f55f 8abd dc21 4cbd 0dc7 cd3c
000000c0: c472 1bbe 7796 45be 1dd1 07be 63eb 22bb
000000d0: 9c56 7d3e 6b25 02bb 3eef 11bd d37d 4e3d
000000e0: 9934 423c dee5 033d 093e f1bc 02c8 28be
000000f0: 6b7f 9fbb 2e24 59ba 00ae 7cbb ab4c 2f3e
00000100: 7e7c 91bb 9db3 273e 8448 76be c336 99be
00000110: f794 58be 1e85 b2bd 55b9 6dbd 8760 83bd
00000120: 5149 a8bd 1a69 2bbe 731c 0dbe 285b a13d
00000130: 1aae 813d c146 743d 6fad bebd 1cdf 39be
00000140: a01c 2cbe 1105 9fbd b220 52be b1b2 3abe
00000150: e3a1 4c3d 3910 2fbd b0d6 c33d 9f9e e83d
00000160: 16bf be3c 72d4 313d d513 0fbe fe19 d3bc
00000170: f3d1 af3d 2001 babd 9950 f4bd c90a 4dbd
00000180: 8c01 d1bc f9d7 aa3d b34c ab3c f615 82bd
00000190: 0ef7 8bba d690 06bd 5356 c5ba 9a49 4bbd
000001a0: 13cc ddbd 9eab 27be 18b9 a3be 9a05 3ebe
000001b0: 46ce 86bd 92f8 17be 45fb c7bd 9f73 59bd
000001c0: da2d e83d 863d 0a3e 0eee 613e 422b c83b
000001d0: d168 e3ba 8bd8 293e 2db6 a9bc 7897 9ebd
000001e0: 7bd7 903d 66c0 b5bc d79e 3dbd b6be d8bd
000001f0: 6620 46be 7d5a 0cbe fa79 03be 3683 acbd
00000200: 9cfa 86bd 5360 623d f574 a03d b2ff d23d
00000210: a25c 39bd f131 37be 8d96 18be 93ad b2bd
00000220: 1f37 b83c c23a e8bc 65b2 c6bd 2136 3dbe
00000230: 194b 25be cb66 febc ca96 51be 7f34 59be
00000240: e34d d03d 8c2a 36be bdac 1f3e b48e 323d
00000250: 8bb4 34be b82d dabd ef9b 4ebd c032 05be
00000260: 47ab 48bd e445 fcbd 5345 fcbd 9284 a2bd
00000270: 75e4 3c3d f3ab 91bc 0f87 663c bb2c 253e
00000280: da90 cebd a2a4 efbd 246c c1bd 3796 3cbd
00000290: 3d86 a4be a821 d2bb 6998 95be 4f41 ffbc
000002a0: 46ad dbbd 5b8b 25bd abb6 babc 3ab4 1b3d
000002b0: f181 b63b ebca c5bd 0ff2 5b3c 60a0 6abd
000002c0: 2e13 4a3e 756a a43d 7bd3 f0bd 546d ed3d
000002d0: 49fd 0cbe f795 eabd 721d 9cbe 77ac 1abe
000002e0: 0ee1 f7bc 36df f6bc ae2c 4fbd 1259 493d
000002f0: 4071 5ebd 4fd3 18be 14f0 37be b295 5bbe
00000300: a05e 0bbe 98a4 c1bd 5e9d 2fbd 091f 223d
00000310: 633a 83bd 5b2d c03d 8c6e a33d 8d54 263d
00000320: d13b 3f3b c263 d33d e0f7 3ebe f6a2 753d
00000330: 664b 99bc 689d c5bd 5f64 c6bd e66f 45be
00000340: df58 a63d c521 cebd 3d65 f0bd 7a96 37be
00000350: 3fa1 78be 5bb8 0c3d 7600 b23d 7252 af3d
00000360: 3169 66be 04bb 2fbe 1f8d 09bc 452a d0bc
00000370: 299c 9bbd 4c92 23be fa1e 7bbd e53b 6cbd
00000380: 9657 56bd bba8 53bd f642 a03d 57ee 603e
00000390: c3e8 553d d458 2a3e 0c81 383e be74 47be
000003a0: 51b6 7fbe e1b2 03be 1063 843d 9c6e 97ba
000003b0: 1415 9fbd 367b 593d 546a 883d aceb 7f3c
000003c0: 4e6d bcbd 48c9 53bd 6cab d43c ab8a 023e
000003d0: 89ee 76bd aceb edbd eb14 ce3c a6a1 9d3d
000003e0: 81ed 563d 0fe3 63be 466e 72be 15f1 b1bd
000003f0: 842a d0bd 019b 393d a59d 1939 f7f5 1b3e

features.5.bias f4 [32]
0.0034976623 -0.031090962 0.016253939 -0.09096177 -0.042427372 -0.09053313 0.098435074 0.12555353
0.06720997 -0.082452945 -0.15099522 0.030157626 0.03287492 0.07689283 0.055611685 0.09799156
0.06962814 0.1046702 -0.0045024 0.046287917 0.026418576 -0.04065886 -0.01322892 -0.046704292
0.045017064 0.1096633 -0.012703511 -0.014898824 -0.09904362 0.002546994 0.110096045 0.018166082
00000000: 0939 653b 79b2 febc fb26 853c 2a4a babd
00000010: 53c8 2dbd 6f69 b9bd 5498 c93d 1b91 003e
00000020: 61a5 893d 17dd a8bd 7e9e 1abe 200d f73c
00000030: daa7 063d fd79 9d3d 14c9 633d cdaf c83d
00000040: 3399 8e3d 545d d63d de88 93bb 6698 3d3d
00000050: c56b d83c e889 26bd 1dbe 58bc 004d 3fbd
00000060: d063 383d 2797 e03d 6322 50bc 321a 74bc
00000070: 62d7 cabd 78eb 263b 097a e13d 09d1 943c

features.6.weight f4 [32]
0.7864399 0.9719409 0.9742912 0.73563194 0.6868962 0.9010997 0.86725605 0.8337318
0.73026973 0.92811155 0.9730227 0.84802884 0.83556646 0.91233957 0.8574027 0.9076734
0.7448431 0.8436516 0.9495754 0.9329909 0.75317836 0.978877 0.8856486 0.8814342
0.9628961 0.58331156 0.7731728 0.8260697 0.81362367 0.821794 0.72542965 0.84443647
00000000: 2054 493f 1ed1 783f 266b 793f 6052 3c3f
00000010: 6ed8 2f3f 78ae 663f 7e04 5e3f 726f 553f
00000020: f5f2 3a3f b898 6d3f 0418 793f 6b18 593f
00000030: afe7 553f 168f 693f be7e 5b3f 495d 683f
00000040: 0aae 3e3f 8df9 573f 6017 733f 7ed8 6e3f
00000050: 4cd0 403f af97 7a3f deb9 623f aca5 613f
00000060: 5c80 763f e853 153f a7ee 453f 4e79 533f
00000070: a449 503f 1761 523f c2b5 393f fd2c 583f

features.6.bias f4 [32]
-0.10284846 -0.11604333 -0.18680441 -0.006155121 -0.14574808 -0.17474607 -0.10827284 -0.3781796
-0.21166067 -0.030096434 -0.09939808 0.07034485 0.023059003 -0.11539986 -0.18099532 -0.071416445
-0.15729405 -0.19667897 -0.16052568 0.011349727 -0.27318805 -0.15421516 -0.25666726 -0.20368977
0.003131075 -0.35521957 -0.19070363 -0.16673668 -0.11966439 -0.3785798 -0.10240269 -0.28115165
00000000: 37a2 d2bd 20a8 edbd a849 3fbe e6b0 c9bb
00000010: fc3e 15be a2f0 32be 27be ddbd c2a0 c1be
00000020: 93bd 58be cc8c f6bc 3891 cbbd f610 903d
00000030: 3ce6 bc3c c356 ecbd d656 39be c942 92bd
00000040: b111 21be 3666 49be d860 24be 35f4 393c
00000050: 4edf 8bbe 94ea 1dbe e469 83be 0d94 50be
00000060: b932 4d3b 57df b5be d047 43be 05bd 2abe
00000070: 9b12 f5bd 36d5 c1be 80b8 d1bd 1cf3 8fbe

features.6.running_mean f4 [32]
-0.1443695 -0.3963271 -0.54908764 -0.6205195 -0.29657593 -0.697031 -0.21552156 -0.16435443
0.069949634 -0.62920934 -0.84015733 -0.34730208 -0.2058846 -0.23604533 -0.21311852 -0.195685
0.11193095 -0.32056826 -0.632099 -0.21864885 0.081445396 -0.48875698 -0.36411032 -0.31426305
-0.44684094 0.16798118 -0.34616265 -0.38107926 -0.08803095 -0.29354414 0.07631945 -0.46524182
00000000: 99d5 13be 63eb cabe 0291 0cbf 5eda 1ebf
00000010: cdd8 97be a070 32bf afb1 5cbe 874c 28be
00000020: c141 8f3d dd13 21bf 8d14 57bf 94d1 b1be
00000030: 6ad3 52be deb5 71be be3b 5abe a661 48be
00000040: 0e3c e53d 8621 a4be 3dd1 21bf 7ce5 5fbe
00000050: d8cc a63d 5b3e fabe ab6c babe 16e7 a0be
00000060: 56c8 e4be 4203 2c3e 3b3c b1be d21c c3be
00000070: 9249 b4bd 6b4b 96be 5f4d 9c3d 2d34 eebe

features.6.running_var f4 [32]
0.4357437 0.95060176 0.9761976 1.3171939 0.6701174 1.588721 0.60048974 0.66111916
0.3629755 0.92660004 1.8089896 0.7534052 0.60658735 0.83824605 0.6729245 0.7258159
0.270701 0.92953515 1.2119861 0.81549764 0.28511283 1.1366754 0.5812364 0.64713115
1.6973128 0.34396294 0.66654336 1.0519457 0.30559152 0.6279273 0.29011315 0.7849841
00000000: cc19 df3e a35a 733f 16e8 793f cf99 a83f
00000010: d08c 2b3f 365b cb3f b2b9 193f 1b3f 293f
00000020: edd7 b93e a935 6d3f f98c e73f 2adf 403f
00000030: 4f49 1b3f 4b97 563f c844 2c3f 12cf 393f
00000040: 5299 8a3e 04f6 6d3f 5c22 9b3f 74c4 503f
00000050: 4ffa 913e 947e 913f e9cb 143f 63aa 253f
00000060: 8c41 d93f e91b b03e 96a2 2a3f 28a6 863f
00000070: 7e76 9c3e d8bf 203f b689 943e b8f4 483f

features.10.weight f4 [64, 32, 3]
-0.104184724 -0.07774892 -0.11955449 0.10534678 0.11647228 0.15701532 -0.06670687 -0.011357324
-0.08665387 -0.109455265 -0.14045301 -0.15381446 -0.04338804 -0.04407008 0.021638269 -0.032059085
-0.12502798 -0.07849621 0.0500848 0.034731325 0.0950725 -0.043305777 -0.09567968 -0.096521616
-0.052004766 -0.060874112 -0.071965955 -0.111432746 -0.0967178 -0.05941001 -0.085981816 -0.090240285
-0.034340665 -0.13573195 -0.14782274 -0.1473784 -0.16766953 -0.13931565 -0.16068695 0.099063754
0.06461733 0.11788919 -0.024915127 -0.023029307 -0.07170108 0.059492417 0.06113268 0.046615172
-0.10341475 -0.06836904 -0.0784001 0.18849806 0.21965946 0.1928874 -0.03932296 -0.037711084
-0.03683003 -0.15315774 -0.1545656 -0.19000942 -0.09103856 -0.07641747 -0.046867583 0.12041861
0.11867701 0.14064276 0.31138656 0.24598457 0.22784963 0.03893803 -0.039120205 0.03495354
-0.17126076 -0.1796937 -0.16513233 -0.033774864 0.021939348 -0.042124365 -0.0019723887 -0.05353344
-0.09101316 0.043206725 0.029130787 -0.009623078 -0.090335816 -0.10469664 -0.15092765 -0.093266845
-0.049230754 -0.030945813 -0.08245672 -0.05439933 -0.073898904 0.03034049 -0.047857493 -0.054806553
-0.061845794 -0.09441048 -0.11225846 0.09125699 0.08191383 0.13823374 -0.07738719 -0.061950378
-0.016054654 -0.08816539 -0.11885568 -0.1376601 -0.028128907 -0.016830843 0.058684926 -0.11701253
-0.08863919 -0.122798644 0.078160144 0.10846486 0.11288021 -0.043044787 -0.047110077 -0.08219453
-0.09218662 -0.01625824 -0.06880734 -0.054663546 -0.10003328 -0.08457419 -0.06674087 -0.08282211
-0.06490664 -0.113240354 -0.13823548 -0.13633567 -0.16039166 -0.09809877 -0.090493426 0.10783798
0.046273552 0.08024724 -0.0763601 -0.10282325 -0.13031463 0.103680804 0.016539562 0.084788986
-0.10041521 -0.107360795 -0.10133439 0.096791156 0.052684013 0.068096735 -0.08696598 -0.068707615
-0.11187792 -0.117399246 -0.11303996 -0.13324952 -0.10477557 -0.09369014 -0.14782257 0.124479115
0.052477278 0.11428343 0.19122915 0.1836123 0.20221426 -0.033102196 0.024067776 0.014299877
-0.07062773 -0.09709338 -0.10390088 -0.07964388 0.009566361 0.008572465 -0.1121871 -0.15777318
-0.13895085 -0.06946616 0.0324669 0.0057008504 -0.06816802 -0.12910526 -0.13683312 -0.08212276
-0.025763782 -0.006381643 -0.16209623 -0.10116026 -0.103412695 -0.036788963 -0.039211877 -0.034373652
-0.0778508 -0.06222004 -0.06424002 -0.05011025 -0.016606016 0.02484632 0.25962523 0.114991546
0.20225905 0.122770704 0.07024246 0.018258898 0.062326163 0.0534611 0.013345431 0.30770594
0.22443919 0.10518047 0.058378518 0.019617965 0.034839112 -0.008798459 0.0025870914 0.017173946
-0.058349326 -0.019867502 -0.0153277945 0.06455422 0.08747987 0.07617591 0.2538061 0.06627659
0.112862684 0.11199866 0.07536527 0.030462237 -0.13287668 -0.12585227 -0.1073086 -0.002766848
0.015946189 0.025500366 -0.11818188 -0.09647702 -0.117345944 -0.016945738 -0.019013481 -0.16343206
0.10240416 0.035866883 0.034677662 0.044133607 0.0273514 0.15869218 0.2748919 0.10758157
0.16194858 -0.062485814 -0.09686774 -0.13530467 0.027835319 0.014900523 0.046595175 -0.082656026
00000000: cd5e d5bd d33a 9fbd fcd8 f4bd 0dc0 d73d
00000010: 0589 ee3d a0c8 203e 9d9d 88bd 1214 3abc
00000020: 9677 b1bd 152a e0bd ead2 0fbe 8a81 1dbe
00000030: a8b7 31bd d482 34bd bd42 b13c 6350 03bd
00000040: 5607 00be 9fc2 a0bd b825 4d3d 6f42 0e3d
00000050: 5fb5 c23d 6661 31bd b5f3 c3bd 20ad c5bd
00000060: f302 55bd 2257 79bd e362 93bd da36 e4bd
00000070: fb13 c6bd e957 73bd 3c17 b0bd e6cf b8bd
00000080: cca8 0cbd 51fd 0abe d85e 17be 5dea 16be
00000090: 90b1 2bbe c3a8 0ebe 1f8b 24be f0e1 ca3d
000000a0: 1756 843d e36f f13d cf1a ccbc f5a7 bcbc
000000b0: 04d8 92bd 52ae 733d 4366 7a3d 8def 3e3d
000000c0: 1dcb d3bd 1105 8cbd 3b90 a0bd a305 413e
000000d0: 69ee 603e 4684 453e 1d11 21bd f076 1abd
000000e0: 16db 16bd 62d5 1cbe 7246 1ebe d491 42be
000000f0: 6d72 babd c380 9cbd 39f8 3fbd 089e f63d
00000100: ef0c f33d a804 103e 0f6e 9f3e 61e3 7b3e
00000110: 6a51 693e 7c7d 1f3d 823c 20bd 712b 0f3d
00000120: fb5e 2fbe a001 38be 7318 29be 8357 0abd
00000130: 26ba b33c 998a 2cbd 3143 01bb e145 5bbd
00000140: 1c65 babd 89f9 303d b0a3 ee3c 1daa 1dbc
00000150: fc01 b9bd 316b d6bd c78c 1abe b002 bfbd
00000160: 30a6 49bd 1382 fdbc 12df a8bd d5d1 5ebd
00000170: 4f58 97bd 9f8c f83c 3806 44bd d67c 60bd
00000180: 0452 7dbd 485a c1bd c3e7 e5bd f2e4 ba3d
00000190: 70c2 a73d 258d 0d3e 2d7d 9ebd aebf 7dbd
000001a0: 0d85 83bc 0e90 b4bd 9b6a f3bd c5f6 0cbe
000001b0: 986e e6bc d6e0 89bc 9b5f 703d 44a4 efbd
000001c0: 7788 b5bd db7d fbbd 6d12 a03d d322 de3d
000001d0: bd2d e73d bb4f 30bd 7ff6 40bd 9b55 a8bd
000001e0: 57cc bcbd 0030 85bc ddea 8cbd e2e6 5fbd
000001f0: 40de ccbd 3c35 adbd 70af 88bd a39e a9bd
00000200: c6ed 84bd 8fea e7bd 9a8d 0dbe 949b 0bbe
00000210: b63d 24be 02e8 c8bd 9e54 b9bd 29da dc3d
00000220: 5689 3d3d aa58 a43d af62 9cbd ff94 d2bd
00000230: 3371 05be 9a56 d43d fa7d 873c d9a5 ad3d
00000240: 7da6 cdbd fadf dbbd 6888 cfbd 713a c63d
00000250: 31cb 573d 4d76 8b3d 381b b2bd 94b6 8cbd
00000260: 4020 e5bd 046f f0bd 7f81 e7bd 9072 08be
00000270: 9394 d6bd 9ee0 bfbd cd5e 17be e8ee fe3d
00000280: 6af2 563d 6e0d ea3d 93d1 433e dd04 3c3e
00000290: 4111 4f3e 2b96 07bd c929 c53c 084a 6a3c
000002a0: 45a5 90bd e5d8 c6bd fcc9 d4bd 551c a3bd
000002b0: 3abc 1c3c 8673 0c3c 5ac2 e5bd 4b8f 21be
000002c0: 2249 0ebe 4644 8ebd 03fc 043d 33ce ba3b
000002d0: ad9b 8bbd 2b34 04be fb1d 0cbe fa2f a8bd
000002e0: 910e d3bc 1a1d d1bb 8efc 25be 1c2d cfbd
000002f0: 09ca d3bd 06b0 16bd a29c 20bd 63cb 0cbd
00000300: 3d70 9fbd 71da 7ebd 4690 83bd 6840 4dbd
00000310: 5709 88bc 828a cb3c 99ed 843e b080 eb3d
00000320: ff1c 4f3e 356f fb3d 47db 8f3d af93 953c
00000330: b849 7f3d 07fa 5a3d cba6 5a3c a28b 9d3e
00000340: 63d3 653e dc68 d73d 501e 6f3d dbb5 a03c
00000350: 75b3 0e3d 6927 10bc 318c 293b 60b0 8c3c
00000360: b4ff 6ebd 2cc1 a2bc 6e21 7bbc 0135 843d
00000370: a528 b33d 1e02 9c3d e0f2 813e 05bc 873d
00000380: 8d24 e73d 8e5f e53d 1b59 9a3d f18b f93c
00000390: d310 08be 6bdf 00be 9cc4 dbbd 0254 35bb
000003a0: 95a1 823c 25e6 d03c 5709 f2bd be95 c5bd
000003b0: 1253 f0bd cad1 8abc 29c2 9bbc bc5a 27be
000003c0: 46b9 d13d 27e9 123d 2a0a 0e3d 71c5 343d
000003d0: 0b10 e03c 3480 223e a2be 8c3e ba53 dc3d
000003e0: d9d5 253e 20f1 7fbd 9862 c6bd 4f8d 0abe
000003f0: e506 e43c 5321 743c 95da 3e3d 9047 a9bd

features.10.bias f4 [64]
0.017693039 -0.03529166 0.15166739 -0.023016814 -0.013574394 0.02251152 0.08331346 -0.011098018
0.07667616 -0.01861605 -0.015129203 0.036542915 -0.052959565 -0.11122076 -0.11520969 0.08496134
-0.033087887 0.13992245 -0.14432156 0.0662688 0.08671326 0.06499017 0.044481132 0.07149635
-0.008629662 0.021708861 -0.049795114 -0.004980505 0.044334468 -0.1410364 0.05094363 0.1470488
-0.118709676 -0.044766985 0.022238787 0.07631541 0.00521506 -0.09432161 -0.0030002433 -0.11461598
0.12426459 0.032672096 -0.0665698 -0.06837009 0.08933498 -0.051719006 -0.10389812 0.014971249
-0.019241469 0.047392733 -0.07653189 -0.017288117 0.03512147 0.0666536 0.05094404 0.05838377
0.04346546 0.010947708 -0.042678528 0.045576315 0.063924894 -0.013140204 -0.15014002 0.020245498
00000000: fef0 903c fd8d 10bd b24e 1b3e c28d bcbc
00000010: 2367 5ebc 146a b83c 3fa0 aa3d 76d4 35bc
00000020: 6408 9d3d b080 98bc 7ae0 77bc 06ae 153d
00000030: 21ec 58bd b6c7 e3bd 0ff3 ebbd 3600 ae3d
00000040: 2a87 07bd d547 0f3e 08c9 13be f0b7 873d
00000050: b996 b13d 9119 853d d931 363d ae6c 923d
00000060: 6d63 0dbc c8d6 b13c f6f5 4bbd 8133 a3bb
00000070: 0f98 353d d96b 10be 45aa 503d f693 163e
00000080: 0f1e f3bd 965d 37bd 1e2e b63c 414b 9c3d
00000090: 18e3 aa3b b02b c1bd bb9f 44bb c8bb eabd
000000a0: 6f7e fe3d 2dd3 053d bf55 88bd 9e05 8cbd
000000b0: 42f5 b63d 4fd7 53bd 8ac8 d4bd f849 753c
000000c0: 49a0 9dbc e21e 423d c0bc 9cbd cf9f 8dbc
000000d0: 88db 0f3d af81 883d b3aa 503d d223 6f3d
000000e0: d708 323d 045e 333c aecf 2ebd 3bae 3a3d
000000f0: 0eeb 823d 034a 57bc 4ebe 19be e3d9 a53c

features.11.weight f4 [64]
0.85262984 0.81827563 0.8979865 0.8675985 0.85245323 0.9151801 0.86112833 0.95933944
0.8317185 1.0045991 0.8269571 0.93987954 0.93475246 0.82571656 0.9732673 0.8862022
0.8631194 0.90431076 0.82413113 0.902991 0.8962164 0.8223086 0.90814763 0.91054463
0.9199123 0.895668 0.93560696 0.89302564 0.9167072 0.8230539 0.9092782 0.95681953
0.899762 0.87358516 0.8195625 0.9344918 0.8606774 1.0661635 0.92323315 0.8753453
0.8596479 0.9260695 0.9484497 0.8862395 0.94625247 0.86281174 0.90164024 0.866211
0.8843905 0.92331415 0.9532982 0.8149531 0.9053618 0.8517085 0.90710026 0.9717273
0.84240836 0.90056854 0.85177153 0.80376863 0.9749904 0.88304394 0.8542234 0.7872995
00000000: f345 5a3f 837a 513f 71e2 653f ef1a 5e3f
00000010: 603a 5a3f 3e49 6a3f e872 5c3f 4597 753f
00000020: 81eb 543f b496 803f 76b3 533f f29b 703f
00000030: f04b 6f3f 2962 533f 0c28 793f 26de 623f
00000040: 65f5 5c3f e980 673f 42fa 523f 6b2a 673f
00000050: 706e 653f d182 523f 5d7c 683f 7419 693f
00000060: 5f7f 6b3f 804a 653f f083 6f3f 549d 643f
00000070: 53ad 6a3f a9b3 523f 75c6 683f 20f2 743f
00000080: cd56 663f 47a3 5f3f d9ce 513f db3a 6f3f
00000090: 5b55 5c3f 0c78 883f 0259 6c3f a116 603f
000000a0: e311 5c3f e412 6d3f 99cd 723f 98e0 623f
000000b0: 9a3d 723f 3be1 5c3f e5d1 663f 01c0 5d3f
000000c0: 6a67 623f 515e 6c3f 5a0b 743f c4a0 503f
000000d0: cac5 673f 9109 5a3f b937 683f 1fc3 783f
000000e0: 13a8 573f a98b 663f b30d 5a3f c8c3 4d3f
000000f0: f998 793f 2b0f 623f 62ae 5a3f 768c 493f

features.11.bias f4 [64]
-0.37274352 -0.4051322 -0.09603261 -0.15302782 -0.36552575 -0.031281557 -0.03178456 -0.16661294
-0.38890505 -0.09191227 -0.40594035 -0.17098777 -0.043107994 -0.38065004 -0.26009363 -0.11907147
-0.035165295 0.019909505 -0.37949446 -0.3161177 -0.0024787346 -0.3745312 0.029148476 -0.13253224
-0.094458155 0.0022248472 -0.033999227 -0.052566174 0.02051762 -0.39446467 0.003085317 -0.27261773
-0.19175561 -0.3514102 -0.38403434 0.051429994 -0.34055728 -0.22867455 0.04342335 0.010124392
-0.028008955 0.053604007 -0.1390618 -0.07277733 0.028147187 -0.3829719 0.022006469 -0.046691783
-0.40356418 0.05385298 0.03355028 -0.38580787 0.016313955 -0.3421328 -0.3211479 -0.03172037
-0.37301373 -0.30864778 -0.40365908 -0.43484223 -0.14416955 -0.35051864 -0.33235908 -0.3972883
00000000: 3dd8 bebe 7d6d cfbe bfac c4bd 53b3 1cbe
00000010: 3126 bbbe 1721 00bd 8730 02bd 959c 2abe
00000020: 901e c7be 803c bcbd 6ad7 cfbe 6b17 2fbe
00000030: 0292 30bd 90e4 c2be fe2a 85be bedb f3bd
00000040: 7c09 10bd 4219 a33c 194d c2be 2eda a1be
00000050: 4472 22bb 8ec2 bfbe c9c8 ee3c 88b6 07be
00000060: 4773 c1bd bece 113b c642 0bbd a14f 57bd
00000070: 9114 a83c 46f7 c9be 0833 4a3b 8d94 8bbe
00000080: 955b 44be 0aec b3be 26a0 c4be 42a8 523d
00000090: 865d aebe a929 6abe afdc 313d c7e0 253c
000000a0: 0973 e5bc e08f 5b3d 3766 0ebe 480c 95bd
000000b0: ee94 e63c e514 c4be e946 b43c e23f 3fbd
000000c0: f79f cebe f194 5c3d 056c 093d 9c88 c5be
000000d0: d8a4 853c 082c afbe 7f6d a4be 38ed 01bd
000000e0: a8fb bebe 1507 9ebe 67ac cebe a4a3 debe
000000f0: 2fa1 13be 2e77 b3be f82a aabe 5f69 cbbe

features.11.running_mean f4 [64]
-0.73903954 -0.8422578 0.7298839 -0.22166626 -0.6516806 0.85139805 0.6701808 -0.29553792
-0.47753602 -0.47293252 -0.74485713 -0.35684323 0.56839174 -0.56829494 -0.10880782 -0.49017972
-0.34673297 -0.011061031 -0.3053755 -0.064308055 0.15410909 -0.74385524 0.84368116 -0.27568355
-0.693237 0.0074255364 0.7905171 -0.2058954 0.9343846 -0.88320667 0.40465036 -0.35125428
-0.45263994 -0.3669482 -0.36333615 0.45102042 -0.19327733 -0.46429676 -0.0045825886 0.51428246
-0.06824475 0.635611 -0.25934643 0.72724736 0.2421365 -0.2631311 0.6415842 -0.4577153
-0.19443363 0.8558135 0.34135464 -0.7365246 0.54470414 -0.4597221 -0.23183776 1.1473442
-0.05560461 -0.13837951 0.019965094 -0.57486653 -0.26381537 -0.3338617 -0.7532978 -0.698472
00000000: b231 3dbf 359e 57bf acd9 3a3f 7bfc 62be
00000010: 8ad4 26bf 39f5 593f f890 2b3f bf50 97be
00000020: 9a7f f4be 3624 f2be f5ae 3ebf 28b4 b6be
00000030: 1f82 113f c77b 11bf a2d6 debd d6f8 fabe
00000040: fc86 b1be 5439 35bc 2d5a 9cbe f1b3 83bd
00000050: c6ce 1d3e 4c6d 3ebf 7dfb 573f 6526 8dbe
00000060: fb77 31bf ea51 f33b 545f 4a3f 3ed6 52be
00000070: d433 6f3f d519 62bf 552e cf3e 9ad7 b3be
00000080: 6cc0 e7be a2e0 bbbe 3207 babe 26ec e63e
00000090: 7eea 45be 4eb8 edbe 8a29 96bb 04a8 033f
000000a0: e7c3 8bbd 67b7 223f 0ec9 84be e22c 3a3f
000000b0: a1f2 773e 1fb9 86be dd3e 243f a959 eabe
000000c0: 9c19 47be 9816 5b3f 09c6 ae3e e08c 3cbf
000000d0: bb71 0b3f b260 ebbe e166 6dbe 2ddc 923f
000000e0: a9c1 63bd 5cb3 0dbe d68d a33c 742a 13bf
000000f0: cf12 87be ecef aabe 20d8 40bf 10cf 32bf

features.11.running_var f4 [64]
0.25027257 0.30347753 0.19943486 0.17420612 0.35519648 0.28075355 0.28189173 0.24662155
0.33669233 0.30408108 0.39054227 0.24697103 0.26478946 0.24353376 0.2529538 0.27905253
0.18832713 0.2244622 0.24946874 0.26453742 0.22466905 0.330391 0.39362156 0.27292967
0.29352164 0.29664063 0.34593216 0.17956378 0.35230812 0.42137775 0.26164714 0.22882123
0.2552286 0.2702775 0.2780461 0.3424214 0.23981218 0.22232348 0.1663444 0.3799691
0.2473973 0.3346502 0.25912327 0.29410312 0.29046658 0.25886416 0.2950495 0.2058906
0.25232312 0.43891308 0.27491695 0.3651483 0.36443824 0.1950064 0.24107103 0.31821293
0.24629426 0.2518895 0.24147439 0.41739064 0.26610577 0.22178808 0.28589734 0.35355246
00000000: ba23 803e 6861 9b3e a738 4c3e 1763 323e
00000010: 50dc b53e eebe 8f3e 1d54 903e 5c8a 7c3e
00000020: f062 ac3e 84b0 9b3e 28f5 c73e f9e5 7c3e
00000030: 7c92 873e ea60 793e 2983 813e f9df 8e3e
00000040: d4d8 403e 6bd9 653e bc74 7f3e 7371 873e
00000050: a50f 663e 0229 a93e c488 c93e 70bd 8b3e
00000060: 7848 963e 48e1 973e 051e b13e 91df 373e
00000070: bb61 b43e d3be d73e 9df6 853e 1d50 6a3e
00000080: 53ad 823e d061 8a3e 0f5c 8e3e dc51 af3e
00000090: 5391 753e c4a8 633e 3056 2a3e 4f8b c23e
000000a0: b855 7d3e 4557 ab3e ceab 843e af94 963e
000000b0: 09b8 943e d889 843e ba10 973e fcd4 523e
000000c0: 7f30 813e 37b9 e03e eac1 8c3e b8f4 ba3e
000000d0: a697 ba3e c2af 473e 53db 763e ceec a23e
000000e0: 9034 7c3e a9f7 803e 1045 773e 3ab4 d53e
000000f0: 043f 883e 6a1c 633e 2361 923e d404 b53e

embedding_layer.0.weight f4 [16, 64]
0.15686288 0.101096086 -0.15197247 -0.19799437 0.006378929 -0.17816035 -0.08167023 -0.14931978
0.030978931 -0.07452919 0.12111775 -0.19824715 -0.2068282 0.07927637 0.17076948 -0.058248848
-0.081576034 -0.014404879 -0.033343054 0.03570257 -0.12456679 0.23600905 -0.047739375 -0.14893937
-0.053180203 -0.023845293 -0.11525374 -0.04652173 -0.07823414 0.053960685 -0.14789295 0.054210253
-0.21049488 0.06872067 0.06009911 -0.009969481 -0.038214326 0.21882796 -0.050593678 0.06708214
-0.14644626 0.014247113 -0.070308775 -0.049685653 -0.1807317 0.21080738 -0.036891483 -0.13430288
0.16239882 -0.04473935 0.016281132 0.18700658 -0.06023134 0.046295024 -0.044591904 -0.21226053
0.033613086 -0.04997823 0.006623086 0.13552088 -0.0901016 0.17815296 0.020826349 0.2005791
0.07969667 0.086909674 -0.062245097 -0.092291914 0.056296706 -0.052359518 0.07170042 -0.20959982
0.10996669 -0.048085846 0.0572269 -0.20073813 -0.059272114 0.14580606 0.14329346 -0.14244571
-0.12059433 0.02718016 0.10018368 0.13313295 -0.016654726 0.20136961 -0.067308776 -0.08388086
-0.104725376 -0.040031955 -0.086419605 -0.14743595 -0.0057809073 0.14953414 -0.0041304473 0.113303944
-0.1627742 -0.005881825 0.1847557 0.0054191523 0.106213644 0.14371632 0.047044843 0.12659453
-0.013339969 0.030612992 -0.12368311 -0.019503692 0.039715406 0.19861181 -0.024362577 -0.095645644
0.18638867 0.066660926 0.044138413 0.08292653 0.02751769 0.12071965 0.116657756 -0.05037009
0.04157298 0.05685661 0.1339274 0.1361912 -0.16207315 0.16384979 0.20712088 0.19220914
0.24808118 0.10581919 -0.11641543 -0.017476622 -0.07916237 -0.122068785 -0.027482959 -0.14141485
0.029617993 -0.0981063 -0.013486921 -0.022759363 -0.055555556 -0.15406673 0.10618205 -0.059954327
-0.089701235 -0.034651615 0.17784597 -0.14260492 -0.15611914 0.01957495 -0.06038613 -0.10114384
-0.0659732 -0.20852748 -0.031795885 -0.07781029 -0.05410689 0.122913085 -0.05863109 0.2589874
-0.13114028 0.3013065 0.05930871 -0.010499294 0.050672088 -0.11441231 -0.051881563 -0.02378388
-0.07590074 -0.0570376 -0.057754815 -0.034224637 -0.054489054 -0.15635954 -0.115951985 -0.10153392
-0.14041062 -0.08440002 0.050953828 0.24646945 -0.096754454 -0.08699237 -0.13325904 -0.15262991
-0.030756352 -0.1584059 0.0028083487 -0.14703496 -0.05500672 -0.0311821 -0.008807931 -0.0376517
0.008718589 -0.08059281 0.04492812 0.044206977 -0.057362955 0.039815936 0.08936732 0.15628166
-0.086362936 0.10306901 -0.15124346 0.03412537 0.15072672 -0.045011457 -0.055980753 0.027916586
0.15506278 0.13460344 -0.08935727 -0.06268968 0.07839614 -0.10715563 0.037658773 0.04368973
0.11877365 0.118371174 0.036946476 0.17772312 0.007554987 -0.10047599 0.13179246 -0.018322438
0.11133982 -0.08317522 -0.10103672 0.097010784 -0.016588666 0.0045496714 0.17855495 0.017363742
0.14016993 0.093393445 0.111952625 0.054293167 0.1078392 -0.10640791 0.040144023 0.102883056
-0.15780088 0.019392872 0.15800652 -0.068076715 0.12236609 -0.003698323 -0.06002017 0.05496834
-0.08885297 -0.07326788 -0.1872294 -0.1031225 0.017453006 -0.101447366 -0.049832717 -0.14024687
00000000: aaa0 203e 770b cf3d ac9e 1bbe 09bf 4abe
00000010: 5606 d13b ab6f 36be b942 a7bd 49e7 18be
00000020: 87c7 fd3c c3a2 98bd 950c f83d 4d01 4bbe
00000030: c6ca 53be a65b a23d 32de 2e3e 5896 6ebd
00000040: 5611 a7bd 7102 6cbc ba92 08bd dc3c 123d
00000050: e01c ffbd 5bac 713e 5d8a 43bd 9083 18be
00000060: 7cd3 59bd 3457 c3bc 270a ecbd 928d 3ebd
00000070: 3939 a0bd e105 5d3d 4071 17be 920b 5e3d
00000080: f88b 57be 6cbd 8c3d 7c2a 763d 0957 23bc
00000090: a086 1cbd 7014 603e 513b 4fbd 5c62 893d
000000a0: 02f6 15be b96c 693c 0cfe 8fbd 2f83 4bbd
000000b0: bb11 39be e4dd 573e 861b 17bd b286 09be
000000c0: e04b 263e 9c40 37bd 0260 853c a77e 3f3e
000000d0: 23b5 76bd da9f 3d3d 00a6 36bd d35a 59be
000000e0: e0ad 093d f9b5 4cbd 7906 d93b fcc5 0a3e
000000f0: 3087 b8bd bb6d 363e 059c aa3c 9c64 4d3e
00000100: 0238 a33d b3fd b13d b7f4 7ebd 8b03 bdbd
00000110: 6097 663d ef76 56bd abd7 923d 56a1 56be
00000120: 3736 e13d aaf5 44bd c166 6a3d 4c8e 4dbe
00000130: 51c7 72bd 2f4e 153e 85bb 123e 4add 11be
00000140: 29fa f6bd eda8 de3c 1a2d cd3d 0154 083e
00000150: 7e6f 88bc d633 4e3e 2fd9 89bd bac9 abbd
00000160: 427a d6bd 8cf8 23bd c3fc b0bd 73f9 16be
00000170: c46d bdbb 7a1f 193e b458 87bb e60b e83d
00000180: 48ae 26be 53bc c0bb 9930 3d3e 2593 b13b
00000190: 8a86 d93d 5f2a 133e 18b2 403d ffa1 013e
000001a0: e38f 5abc 19c8 fa3c 924d fdbd 35c6 9fbc
000001b0: 9fac 223d e560 4b3e 0794 c7bc dde1 c3bd
000001c0: acdc 3e3e 8685 883d 7bca 343d 62d5 a93d
000001d0: c76c e13c dd3b f73d 43ea ee3d de50 4ebd
000001e0: 6e48 2a3d 7ae2 683d 4424 093e b575 0b3e
000001f0: 81f6 25be 3dc8 273e 7f17 543e 79d2 443e
00000200: fe08 7e3e bbb7 d83d 376b eebd 222b 8fbc
00000210: e11f a2bd 33ff f9bd f123 e1bc 0ecf 10be
00000220: 6fa1 f23c f5eb c8bd 3ff8 5cbc d871 babc
00000230: 398e 63bd abc3 1dbe fa75 d93d ab92 75bd
00000240: 48b5 b7bd daee 0dbd 411d 363e 0607 12be
00000250: b2dd 1fbe a55b a03c 7257 77bd 8024 cfbd
00000260: f51c 87bd 3a88 55be 673c 02bd 005b 9fbd
00000270: 309f 5dbd dbb9 fb3d 2727 70bd ff99 843e
00000280: a349 06be d844 9a3e b1ed 723d 3b05 2cbc
00000290: 898d 4f3d 0051 eabd c381 54bd 69d6 c2bc
000002a0: d971 9bbd 42a0 69bd 5090 6cbd 222f 0cbd
000002b0: ea2f 5fbd b71c 20be 3c78 edbd 04f1 cfbd
000002c0: cdc7 0fbe ebd9 acbd f6b4 503d 7d62 7c3e
000002d0: 3327 c6bd 0e29 b2bd 0f75 08be 044b 1cbe
000002e0: bff4 fbbc 2835 22be 460c 383b 5590 16be
000002f0: ba4e 61bd 9a71 ffbc 244f 10bc ab38 1abd
00000300: 6ad8 0e3c d80d a5bd 8c06 383d 6012 353d
00000310: 6bf5 6abd 0916 233d 3706 b73d 4d08 203e
00000320: 0ddf b0bd d815 d33d 91df 1abe 0bc7 0b3d
00000330: 1b58 1a3e ef5d 38bd 134c 65bd 53b1 e43c
00000340: c7c8 1e3e 7cd5 093e f200 b7bd 7263 80bd
00000350: 288e a03d 6974 dbbd 1640 1a3d 01f4 323d
00000360: 993f f33d 966c f23d 3055 173d 0dfd 353e
00000370: d38f f73b 5bc6 cdbd 9af4 063e f018 96bc
00000380: 2206 e43d c557 aabd 57ec cebd 97ad c63d
00000390: f4e4 87bc 6915 953b 1cd7 363e 683e 8e3c
000003a0: b588 0f3e 1045 bf3d 6b47 e53d 8362 5e3d
000003b0: ccda dc3d 64ec d9bd 0f6e 243d 5ab4 d23d
000003c0: 8e96 21be cddd 9e3c 76cc 213e ce6b 8bbd
000003d0: 139b fa3d 905f 72bb b6d7 75bd 7b26 613d
000003e0: 8cf8 b5bd 780d 96bd 10b9 3fbe e431 d3bd
000003f0: 9bf9 8e3c a3c3 cfbd 641d 4cbd e09c 0fbe

embedding_layer.0.bias f4 [16]
0.11698121 0.021826426 0.09722186 0.36272445 0.12799752 0.11750666 0.18457252 0.1454981
0.37465766 0.43631285 0.2856532 0.3602837 0.21733703 0.10131038 0.029498713 0.096876845
00000000: d893 ef3d 55cd b23c 411c c73d 05b7 b93e
00000010: c811 033e 55a7 f03d 9400 3d3e 74fd 143e
00000020: 21d3 bf3e 6664 df3e 2341 923e 1b77 b83e
00000030: 998d 5e3e d17b cf3d 49a7 f13c 5e67 c63d

classifier.weight f4 [2, 16]
-0.27502468 -0.18244691 -0.23313457 0.23338868 -0.18006697 0.0012517085 -0.2920775 0.596371
0.25679752 0.3041295 0.14587623 0.060650952 0.30806774 -0.38629764 -0.36205956 -0.32011235
0.061139934 0.15615112 0.28606904 -0.27686584 0.35741228 0.3511337 0.36222026 -0.6244018
0.00884575 -0.10909354 -0.08533221 -0.3821147 0.080594175 0.12025543 0.040886823 0.35574484
00000000: 09d0 8cbe 5dd3 3abe d4ba 6ebe 71fd 6e3e
00000010: 7a63 38be 5e10 a43a 2f8b 95be c5ab 183f
00000020: f77a 833e ddb6 9b3e 9460 153e 226d 783d
00000030: 0ebb 9d3e cec8 c5be df5f b9be c4e5 a3be
00000040: de6d 7a3d 14e6 1f3e a477 923e 5cc1 8dbe
00000050: befe b63e ccc7 b33e ef74 b93e ccd8 1fbf
00000060: c4ed 103c 6f6c dfbd a7c2 aebd 8aa4 c3be
00000070: 8f0e a53d 7b48 f63d f178 273d 3024 b63e

classifier.bias f4 [2]
0.17948231 -0.033847783
00000000: 36ca 373e f9a3 0abd
