o02_train/run_outputs/15cnn_train_weights.pth (torch, 48140 bytes, 22 tensors)

features.0.weight f4 [16, 6, 5]
0	0x3f9ea53f	1.2394179
1	0x3f667c07	0.90033
2	0x3ec032c9	0.37538746
3	0x3c9bea3f	0.019032596
4	0xbee4a309	-0.44655636
5	0xbf598099	-0.8496185
6	0xbf96643f	-1.1749343
7	0xbf4ffc78	-0.8124461
8	0xbef928dd	-0.4866399
9	0xbf913cd1	-1.1346685
10	0x3f66fa74	0.9022591
11	0x3eeedce2	0.46652895
12	0x3ec4de19	0.38450697
13	0xbd4ac15a	-0.0495008
14	0xbea023f0	-0.31277418
15	0xbd86a567	-0.06574517
16	0xba952867	-0.0011379839
17	0x3c103f1e	0.008804111
18	0x3d361174	0.04445024
19	0x3df95466	0.12174301
20	0xbb0656ca	-0.0020498508
21	0x3d0bf533	0.034169387
22	0xbd844809	-0.06459052
23	0x3db98599	0.09058685
24	0xbc43ad2e	-0.011943145
25	0xbe809ff3	-0.25122032
26	0xbda3b6be	-0.0799384
27	0xbdc9a333	-0.09845581
28	0xbd99554d	-0.07486973
29	0xbec4d123	-0.3844081
30	0xc015d9a7	-2.3414094
31	0xc0195fc0	-2.396469
32	0xbfbb7a35	-1.464667
33	0xbf85ee8e	-1.0463426
34	0xbf03f1e0	-0.51540947
35	0x3f054a74	0.5206673
36	0xbe070f23	-0.13189368
37	0xbd073704	-0.03301145
38	0xbf06ff8f	-0.527337
39	0xbe69ada9	-0.22820152
40	0x3e00e9e2	0.12589219
41	0x3ecac7ff	0.3960571
42	0x3f4af556	0.792806
43	0x3fa13926	1.2595565
44	0x3fb2735a	1.3941453
45	0xbc2a8f0b	-0.010410081
46	0x3ddb6330	0.10712278
47	0xbdbaebf2	-0.09127034
48	0x3dc410f4	0.09573546
49	0x3c19fa2a	0.009398023
50	0xbccde81d	-0.025135094
51	0x3d3485c0	0.044072866
52	0xbd15ec16	-0.036602102
53	0x3e1b60df	0.15173672
54	0xbde5454d	-0.11194859
55	0x3d8d859f	0.06910252
56	0x3d048edd	0.032362808
57	0xbd6e685d	-0.058204997
58	0x3d8e643b	0.06952711
59	0xbe8baaca	-0.2727874
60	0xbfffee18	-1.9994535
61	0xbffa20b9	-1.9541236
62	0xbf96d3d2	-1.1783392
63	0xbf157e01	-0.5839539
64	0xbe25e9ac	-0.1620242
65	0x3f85450d	1.0411698
66	0x3fa20bbf	1.2659835
67	0x3f219106	0.63111913
68	0x3f315fd5	0.69286853
69	0x3e8aa646	0.27079982
70	0xbf0d8699	-0.55283505
71	0xbf34c8fc	-0.7061918
72	0xbed3f78e	-0.41399807
73	0xbe22bbb1	-0.15891911
74	0x3e3e67b5	0.18594249
75	0x3cbc3245	0.02297319
76	0xbd6841e2	-0.056703456
77	0x3da545f8	0.08069986
78	0xbd95ac8b	-0.073083006
79	0x3df7abdc	0.120933264
80	0xbe21bd27	-0.15794812
81	0xbdba60c9	-0.091004916
82	0x3e26c271	0.16285111
83	0xbdbcd3e0	-0.092200994
84	0x3d0a2875	0.03372999
85	0xbde2137f	-0.11038875
86	0x3dfd1123	0.12356784
87	0xbd197751	-0.037467305
88	0x3c649f3d	0.013953981
89	0x3e656fdd	0.22405954
90	0x3fb1cedb	1.3891252
91	0x3f7148d3	0.94251746
92	0x3ec5ad43	0.3860875
93	0xbe5dd06e	-0.21661541
94	0xbf03e3e5	-0.51519614
95	0xbe83cd80	-0.25742722
96	0x3de0cdda	0.10976763
97	0x3e415f5f	0.18884037
98	0x3ed186f4	0.40923274
99	0x3f1e2bb6	0.6178545
100	0x3f132199	0.5747314
101	0x3ed99bfe	0.42501825
102	0xbd5619d3	-0.05227072
103	0xbf0de8e0	-0.55433464
104	0xbf50ca48	-0.81558657
105	0x3ccdf69e	0.02514201
106	0xbdcfb95d	-0.10142777
107	0xbdb29a63	-0.08720853
108	0xbdf50314	-0.11963478
109	0xbe468679	-0.19387235
110	0xbd7a4f87	-0.061111
111	0xbe05f69c	-0.13082355
112	0x3bc9ccf6	0.0061584665
113	0xbdcb868c	-0.09937772
114	0xbcb6568f	-0.022258071
115	0xbe025142	-0.1272631
116	0xbce23777	-0.027614338
117	0xbe4e8293	-0.20166998
118	0xbdff4f1d	-0.124662615
119	0xbdd451de	-0.103671774
120	0xbd849add	-0.0647485
121	0x3e57b69d	0.21065755
122	0x3f2b68fb	0.6695706
123	0x3f45b58e	0.77230155
124	0x3f596716	0.8492292
125	0x3f3802c5	0.71879226
126	0x3f84da2b	1.037908
127	0x3f82994f	1.0203036
128	0x3f599a6f	0.8500127
129	0x3efa4e89	0.48888043
130	0x3ea0a768	0.3137772
131	0x3ee651ee	0.44984382
132	0x3e8958e1	0.26825622
133	0x3f18aaf4	0.59635854
134	0x3f225abc	0.634197
135	0xbc86019a	-0.016358186
136	0xbd0caa8b	-0.03434233
137	0xbd65a706	-0.05606749
138	0x3d156414	0.036472395
139	0xbd36a3b0	-0.0445897
140	0x3cfae9f8	0.030629143
141	0xbde3cc4a	-0.111229494
142	0x3e31b139	0.17352761
143	0xbbdd1b8a	-0.0067476677
144	0x3d3c7fd6	0.04602035
145	0x3ebe687e	0.37189096
146	0x3e0c79f6	0.137184
147	0x3db811b9	0.08987755
148	0x3e88ce6a	0.2671998
149	0x3e6e5bc4	0.23277193
150	0xbe4da684	-0.20083052
151	0x3f06a553	0.52596015
152	0x3f15f309	0.5857397
153	0x3f15efc4	0.5856898
154	0x3f8bd1e3	1.0923427
155	0x3d5b6576	0.053563558
156	0xbddef78b	-0.10887059
157	0xbeda0fd4	-0.425902
158	0xbe3da953	-0.18521623
159	0xbde9420f	-0.11389553
160	0xbf4d66cf	-0.80235
161	0xbea7ebd9	-0.32797125
162	0x3e6a247a	0.22865477
163	0xbe83c6cc	-0.25737607
164	0xbf335f3f	-0.7006721
165	0x3d2f8ef6	0.042860948
166	0xbda6cc68	-0.08144456
167	0x3d4366ea	0.04770557
168	0xbbb2e551	-0.0054594656
169	0x3ba9d11d	0.005182399
170	0xbe47958b	-0.1949064
171	0x3e0b13e5	0.13581808
172	0x3e7b5525	0.24544199
173	0xbd6225e4	-0.055211917
174	0xbe006577	-0.12538706
175	0xbd2bf54f	-0.04198199
176	0xbda1336c	-0.07871136
177	0x3dfcd27c	0.12344834
178	0x3e08017b	0.13281815
179	0xbe553003	-0.20819096
180	0x40206ddc	2.5067053
181	0x3fbbe1d9	1.4678298
182	0x3e489c86	0.19590959
183	0xbf275c9c	-0.65375686
184	0xbf729c50	-0.94769764
185	0xbf762f65	-0.9616607
186	0xbf8bc3d8	-1.0919142
187	0xbf8a28f5	-1.0793749
188	0xbf8a36d0	-1.0797977
189	0xbf812996	-1.0090816
190	0x3f8dfe10	1.1093159
191	0x3f6dbe3e	0.9286841
192	0x3ee3b4f2	0.44473988
193	0x3e5b8e25	0.21440943
194	0xbd9db4e9	-0.077005215
195	0xbd3cc3cd	-0.046085168
196	0xbc982491	-0.018572124
197	0x3d0fda4c	0.035120293
198	0x3d883af5	0.0665187
199	0x3d8519fc	0.06499097
200	0xbd5205fa	-0.05127523
201	0xbc4bb659	-0.012433612
202	0x3de718b4	0.112840086
203	0x3df3617e	0.118838295
204	0x3d93def0	0.07220256
205	0xbe326386	-0.17420778
206	0xbd65a98f	-0.056069907
207	0xbdc1a1ea	-0.09454711
208	0xbdf5ebb0	-0.120078444
209	0xbdf8c9b7	-0.12147849
210	0x3fbbbfbf	1.4667891
211	0x3f87c84c	1.0608001
212	0x3eba612a	0.36402255
213	0xbe0e4cc9	-0.13896479
214	0xbf5746ac	-0.8409221
215	0x3fd1ae5b	1.6381334
216	0x3fbab4a3	1.4586376
217	0x3f663279	0.89920765
218	0x3f45fa7a	0.7733532
219	0x3e71f15b	0.23627226
220	0xbf4063d0	-0.751523
221	0xbf2b697c	-0.6695783
222	0xbf16b355	-0.5886739
223	0xbe5be066	-0.2147232
224	0xbe4f3114	-0.20233566
225	0x3e0711f1	0.13190438
226	0x3d8bc71f	0.06825089
227	0x3d58fbd5	0.05297454
228	0xbd919f92	-0.07110514
229	0xbe33ef85	-0.17571838
230	0xbe87ae2e	-0.26500076
231	0x3dde3428	0.10849792
232	0x3e16f7d6	0.1474298
233	0x3e2f9b7d	0.17149158
234	0x3df222bb	0.118230306
235	0x3e2d6564	0.16933209
236	0x3cf2069b	0.029544165
237	0xbdc572da	-0.09641047
238	0xbd275c9a	-0.040859796
239	0xbb7b5bf3	-0.0038354367
240	0xbee47c28	-0.44625974
241	0xbdd221b0	-0.10260332
242	0x3e49466d	0.19655772
243	0x3e6ebd29	0.23314346
244	0x3f11d70e	0.5696877
245	0xbfba461a	-1.4552643
246	0xbfd0eab6	-1.6321628
247	0xbf7d66bf	-0.98984903
248	0xbf990760	-1.1955376
249	0xbf8bae00	-1.0912476
250	0x3f73fa61	0.9530392
251	0x3f855f4d	1.0419708
252	0x3f733986	0.9500965
253	0x3f51ae64	0.81906724
254	0x3f4bf165	0.79665214
255	0xbe19da61	-0.15024711

features.0.bias f4 [16]
0	0x3da45329	0.08023674
1	0x3d11910a	0.03553871
2	0xbe083d61	-0.13304664
3	0xbc42c284	-0.011887196
4	0xbe071a3e	-0.13193604
5	0xbddb70f0	-0.107149005
6	0x3e024f61	0.12725593
7	0xbb3b830d	-0.0028612048
8	0x3dbcc209	0.09216697
9	0x3da6df9c	0.08148119
10	0x3d6eddcf	0.058317002
11	0x3e0cb4c1	0.13740827
12	0x3d2848dc	0.04108511
13	0xbd59d10d	-0.053177882
14	0xbbf31761	-0.0074185585
15	0xbdac18e9	-0.08403189

features.1.weight f4 [16]
0	0x3f63acb4	0.889354
1	0x3f6d7fb4	0.92772985
2	0x3f63de5c	0.8901117
3	0x3f59920f	0.8498849
4	0x3f683446	0.9070476
5	0x3f6f4c58	0.93475866
6	0x3f685aba	0.9076344
7	0x3f54a8a4	0.83069825
8	0x3f5f3ac1	0.87199026
9	0x3f71ddeb	0.94479245
10	0x3f5ef55c	0.8709314
11	0x3f64efba	0.89428294
12	0x3f579ca2	0.8422338
13	0x3f7b2fbf	0.9811973
14	0x3f61523b	0.880161
15	0x3f41a77c	0.75646186

features.1.bias f4 [16]
0	0xbc8d112a	-0.017220099
1	0xbdccd8ed	-0.10002313
2	0xbd9eeff8	-0.07760614
3	0xbab2907e	-0.0013623384
4	0xbcaa7bf5	-0.02081106
5	0xbe253c2d	-0.16136236
6	0xbdb29925	-0.08720616
7	0xbd1d53bd	-0.038409937
8	0xbd890a50	-0.0669142
9	0x3b3c049e	0.0028689275
10	0xbd31db32	-0.04342193
11	0xbe774f5b	-0.24151365
12	0xbeb7e778	-0.35918784
13	0xbe4a288c	-0.1974203
14	0xbd533b29	-0.05157009
15	0xbdacf256	-0.084446594

features.1.running_mean f4 [16]
0	0x3d8ccdc7	0.068751864
1	0x3d0d64ab	0.034519833
2	0xbe03043a	-0.12794581
3	0xbcca7ef8	-0.024718747
4	0xbdf5f699	-0.120099254
5	0xbddf91a9	-0.10916454
6	0x3df740bc	0.12072894
7	0x3a91eba1	0.0011132845
8	0x3dad788b	0.08470257
9	0x3dad03be	0.084479794
10	0x3d36fdcd	0.044675637
11	0x3e0d6f8b	0.13812082
12	0x3d25857e	0.04041051
13	0xbd616584	-0.055028453
14	0xbc1c29f3	-0.009531486
15	0xbdb3eb11	-0.0878507

features.1.running_var f4 [16]
0	0x44aa7344	1363.602
1	0x42db171a	109.54512
2	0x43022744	130.15338
3	0x44912900	1161.2812
4	0x4502dcb4	2093.794
5	0x41a2f99f	20.371885
6	0x441b9f8b	622.49286
7	0x4381e9d4	259.82678
8	0x4312a8f0	146.65991
9	0x448a02d9	1104.089
10	0x453d6007	3030.0017
11	0x41a0303a	20.023548
12	0x437cfbb1	252.98317
13	0x42c03c70	96.11804
14	0x443edbe5	763.43585
15	0x443caafb	754.6716

features.5.weight f4 [32, 16, 3]
0	0x3c85be4a	0.016326088
1	0x3dcbcc02	0.09951021
2	0x3c9f0980	0.01941371
3	0xbce1dd75	-0.02757142
4	0xbd2f7aa6	-0.042841576
5	0xbd23cecc	-0.03999214
6	0x3c169e87	0.009193069
7	0x3e060d2a	0.13090959
8	0x3e5bbd63	0.21458964
9	0x3d85873e	0.06519936
10	0xbd5b2055	-0.05349763
11	0x3cc87250	0.024468571
12	0x3c3df9c8	0.011595197
13	0x3a807f6c	0.00098036
14	0x3ddb57f6	0.107101366
15	0xbe44afd7	-0.19207703
16	0xbe6f7ccd	-0.23387451
17	0xbe4812af	-0.19538377
18	0xbd321d2f	-0.043484863
19	0xbd8e891a	-0.06959744
20	0x3d936e5b	0.07198783
21	0x3c3e8d77	0.011630408
22	0x3db85b0c	0.09001741
23	0xbca74485	-0.020418415
24	0xbe31da79	-0.17368497
25	0xbd9dca20	-0.07704568
26	0xbdc6aec5	-0.097013034
27	0x3d8f80d2	0.070069924
28	0x3e1454a9	0.1448542
29	0xbd5a0a71	-0.053232614
30	0x3d928a8c	0.07155332
31	0x3cc3a29e	0.023881253
32	0x3d885f30	0.066587806
33	0xbd915b78	-0.070975244
34	0xbd5fab45	-0.054606695
35	0xbdb02b42	-0.08602001
36	0xbe1f3992	-0.15549305
37	0xbdaf252a	-0.0855201
38	0xbd7965b8	-0.060888022
39	0xbe3b6674	-0.18300802
40	0xbe2c62b6	-0.1683453
41	0xbe0ab2d7	-0.13544784
42	0x3d1df580	0.038564205
43	0x3e863ee8	0.2621987
44	0xbd3cd3e6	-0.04610052
45	0xba9679dd	-0.001148041
46	0x3c5691ab	0.013096253
47	0x3d978e21	0.07400156
48	0xbd17122c	-0.036882564
49	0xbe18fbad	-0.14939757
50	0xbde68e3c	-0.11257598
51	0x3dbbf4f3	0.0917758
52	0x3daedebd	0.08538578
53	0xbc86bc52	-0.01644722
54	0x3c5dbe2e	0.013534112
55	0x3d8436e7	0.06455784
56	0x3d952897	0.072831325
57	0x3d8517a1	0.064986475
58	0xbc75b5e5	-0.01499698
59	0xbb93c144	-0.004509123
60	0xbd9093be	-0.070594296
61	0xbd142fdc	-0.036178455
62	0x3a0c9bc8	0.00053637894
63	0x3e5f1cb8	0.21788299
64	0x3d5ac166	0.053407095
65	0x3e254a9b	0.16141741
66	0xbe2c1f81	-0.16808893
67	0xbe86b403	-0.26309213
68	0xbe59f3c4	-0.21284395
69	0xbdcc1b66	-0.09966163
70	0xbda7190e	-0.08159076
71	0x3d0a8bff	0.033824917
72	0x3c1a16bd	0.009404835
73	0xbd21be77	-0.039488282
74	0xbd9fcb40	-0.07802439
75	0xbdc1bf04	-0.094602615
76	0xbdb8b3f9	-0.09018702
77	0xbd52bcd7	-0.051449623
78	0xbcd5d9f3	-0.026104903
79	0xbe1db3e2	-0.15400651
80	0xbe2268c6	-0.1586028
81	0x3e335a67	0.17514955
82	0xbd7eba52	-0.062189408
83	0x3d780a26	0.060556553
84	0x3d80624a	0.06268747
85	0xbb9115b8	-0.004427638
86	0x3d6fa097	0.05850276
87	0x3e3d9314	0.18513137
88	0xbce99376	-0.028512698
89	0x3e36cad6	0.17850813
90	0xbdac5ec7	-0.08416515
91	0xbd9f3676	-0.077740595
92	0xbd4aff5e	-0.049559943
93	0xbd6aa9ad	-0.05729072
94	0xbda33479	-0.07968993
95	0xbcd409ab	-0.025883516
96	0xbd7d73eb	-0.061878126
97	0xbc8ea827	-0.017414166
98	0xb8b0fe8c	-8.439747e-05
99	0xbe835c13	-0.25656185
100	0xbe1e47d3	-0.15457086
101	0xbdf82c65	-0.121178426
102	0xbdcbbbe7	-0.09947949
103	0xbe10d269	-0.14142765
104	0xbdbbd285	-0.09171013
105	0xbe00bd17	-0.12572132
106	0xbde9db8f	-0.114188306
107	0xbe2bd850	-0.16781735
108	0xbdbf8777	-0.0935201
109	0xbe40960c	-0.18807238
110	0xbe119829	-0.142182
111	0xbbfcf858	-0.0077200346
112	0x3db82a42	0.08992435
113	0x3e0ef760	0.13961554
114	0x3d979c51	0.07402862
115	0x3c8fecf9	0.017569052
116	0x3c75e7d9	0.01500889
117	0x3d8c7d6f	0.06859862
118	0x3d054edd	0.032545913
119	0xbb60a675	-0.0034278904
120	0x3d84a192	0.064761296
121	0xbd4733ca	-0.048633374
122	0xbc9ea97d	-0.019367928
123	0xbdab6e40	-0.08370638
124	0xbdda4fca	-0.1065975
125	0xbde2903b	-0.11062666
126	0xbdd38c7c	-0.1032953
127	0xbd309c66	-0.043117903
128	0xbcdbed1c	-0.026846461
129	0x3d87d1fb	0.066318475
130	0x3d26b156	0.040696464
131	0x3e1bc995	0.15213616
132	0xbe2bc1c4	-0.16773134
133	0xbd122328	-0.03567806
134	0xbd897f09	-0.06713683
135	0x3b388f70	0.0028161667
136	0x3c77761b	0.015103842
137	0xb986732f	-0.0002564429
138	0xbe161df3	-0.14659862
139	0xbe47642a	-0.19471803
140	0xbe0dc92a	-0.13846269
141	0xbe306a5c	-0.17228073
142	0xbe348eb2	-0.17632559
143	0xbdebda95	-0.115163006
144	0xbb3de94e	-0.0028978172
145	0xbddd1558	-0.107950866
146	0x3d99062f	0.074718826
147	0x3cced56e	0.025248256
148	0xbdde986a	-0.108689144
149	0xbdfff9ca	-0.12498815
150	0x3e15eb0a	0.14640442
151	0x3dd0d615	0.10197083
152	0x3df1dd0b	0.11809739
153	0xbb279611	-0.0025571624
154	0x3e4b9bbb	0.19883625
155	0x3d7dc06f	0.061951097
156	0x3e142073	0.14465503
157	0x3c4e0269	0.012573817
158	0x3ddff900	0.10936165
159	0xbd10d2da	-0.035357334
160	0xbe039bc9	-0.12852396
161	0xbe1a5c6b	-0.15074317
162	0xbdbcf331	-0.092260726
163	0xbd0b8083	-0.034058105
164	0xbe36b846	-0.17843732
165	0xbd1c4d48	-0.03815964
166	0xbe00011f	-0.12500428
167	0x3d796f67	0.060897257
168	0x3d0b7cd6	0.0340546
169	0xbc63ff62	-0.0139158685
170	0x3bde26cc	0.0067795273
171	0x3d6d3c6d	0.057918955
172	0x3e214243	0.15747933
173	0xbda131c3	-0.078708194
174	0x3d06ed92	0.03294141
175	0x3d975628	0.0738948
176	0x3e22d105	0.15900047
177	0xbd55bfa1	-0.052184705
178	0xbd9f3856	-0.07774417
179	0xbcf3cd1f	-0.029760895
180	0xbe59f4e8	-0.2128483
181	0xbe686afe	-0.22697064
182	0xbe6881bd	-0.22705741
183	0xbde73ceb	-0.11290916
184	0xbccb3735	-0.024806598
185	0xbd55925c	-0.052141532
186	0xbdc37bcc	-0.09545097
187	0x3d8224ef	0.06354701
188	0x3bb98e7a	0.0056627365
189	0x3c1268d2	0.008936124
190	0xbe4252e3	-0.18976931
191	0xbdc0ad56	-0.09408061
192	0xbd8b800d	-0.06811533
193	0xbdb44289	-0.08801753
194	0xbcd15877	-0.025554879
195	0x3e6c2829	0.23062195
196	0x3c874dc3	0.016516572
197	0x3e5f9506	0.21834192
198	0x3d9e9070	0.07742393
199	0x3d7c31af	0.06157082
200	0x3dabf6f0	0.08396709
201	0x3e14db83	0.14536862
202	0xbdd8ee25	-0.105922975
203	0x3da75139	0.08169789
204	0x3cb11e07	0.021620763
205	0xbd95ad93	-0.07308497
206	0xbd90dd05	-0.07073406
207	0xbe287f3a	-0.16454783
208	0xbda4894c	-0.08034
209	0xbdc8f51e	-0.098123774
210	0x3d6d8e3f	0.057996985
211	0xbc7a8f17	-0.015292904
212	0xbdf79cfa	-0.12090488
213	0xbdaebb98	-0.085318744
214	0xbde1b3c6	-0.11020617
215	0xbdc61b61	-0.09673191
216	0xbe5a7490	-0.21333528
217	0xbe757216	-0.23969302
218	0xbdd161cb	-0.10223731
219	0x3d79a505	0.06094839
220	0x3c1a925a	0.009434307
221	0xbd35561a	-0.044271566
222	0xbd7bedac	-0.06150596
223	0xbdbdc697	-0.09266394
224	0xbd9b5ef9	-0.07586474
225	0xbaaa025d	-0.0012970675
226	0xbba42888	-0.0050097145
227	0xbc353366	-0.011059618
228	0xbcf52c1c	-0.02992826
229	0xbd7085f5	-0.0587215
230	0xbb272f0d	-0.0025510222
231	0xbe12a3ff	-0.14320372
232	0xbe653af5	-0.22385772
233	0xbe161354	-0.1465581
234	0x3de0e824	0.10981777
235	0xbd308433	-0.043094825
236	0xbdcb3cf9	-0.09923739
237	0x3de921a4	0.113833696
238	0x3dadf0e0	0.08493209
239	0x3e059a24	0.13047081
240	0xbe286528	-0.16444838
241	0xbd191882	-0.037376888
242	0x3d8e719b	0.06955262
243	0xbe3ffb55	-0.1874822
244	0xbe232f83	-0.15936093
245	0xbe8cd421	-0.27505592
246	0x3c9e8b5c	0.019353561
247	0x3dd332ed	0.10312448
248	0xbc1969ad	-0.009363574
249	0xbe64f180	-0.2235775
250	0xbe342a80	-0.17594337
251	0xbe78aea7	-0.24285375
252	0xbdb6a92d	-0.089189865
253	0x3d27068d	0.04077773
254	0x3cebe957	0.028797789
255	0x3df5a600	0.119945526

features.5.bias f4 [32]
0	0xbdfad444	-0.12247518
1	0xbd4b51fc	-0.049638733
2	0xbd87fced	-0.06640039
3	0xbdd64e6c	-0.104641765
4	0xbbc31e75	-0.0059545585
5	0xbe32b90b	-0.17453401
6	0xbb24a038	-0.0025119912
7	0xbcd6b3f4	-0.026208855
8	0x3d3e7ae8	0.04650393
9	0xbe10b637	-0.1413201
10	0xbe43b662	-0.19112542
11	0xbd1e542d	-0.038654495
12	0xbc358b60	-0.011080593
13	0xbd7e500a	-0.06208805
14	0xbd1e20e0	-0.03860557
15	0x3dc63f59	0.09680051
16	0x3d8e4e61	0.06948543
17	0x3cb1cc1c	0.021703772
18	0xbc4fb938	-0.012678437
19	0x3d2b40b3	0.04180975
20	0x3cc25e48	0.023726597
21	0xbdcf26eb	-0.10114845
22	0xbd064cee	-0.03278821
23	0xbcf6d32d	-0.030129993
24	0xbc10949e	-0.008824496
25	0x3dc1f5f2	0.094707385
26	0xba4dda14	-0.00078526256
27	0xbe2d0598	-0.16896665
28	0xbdaae061	-0.08343578
29	0x3dd0d857	0.101975136
30	0xbd1d4a55	-0.038400967
31	0xbc9b00a5	-0.018921206

features.6.weight f4 [32]
0	0x3f6b9dd8	0.92037725
1	0x3f5b58f7	0.85682625
2	0x3f83614f	1.0264071
3	0x3f51d077	0.8195872
4	0x3f54f296	0.83182657
5	0x3f6eb30d	0.9324196
6	0x3f73d342	0.9524423
7	0x3f5c4460	0.8604183
8	0x3f315e68	0.6928468
9	0x3f740b8d	0.95330125
10	0x3f7ca31e	0.986864
11	0x3f55d867	0.8353333
12	0x3f4abb78	0.79192305
13	0x3f773f5b	0.9658105
14	0x3f56c591	0.8389521
15	0x3f649e5d	0.89304143
16	0x3f532fc3	0.82494754
17	0x3f822f78	1.0170736
18	0x3f78b60c	0.9715278
19	0x3f4b4aaf	0.79410833
20	0x3f66e80e	0.9019784
21	0x3f7976f3	0.9744713
22	0x3f5f6d47	0.8727612
23	0x3f74b43c	0.95587516
24	0x3f82293b	1.0168833
25	0x3f28b4b8	0.65900755
26	0x3f4a8890	0.7911463
27	0x3f1775d6	0.5916418
28	0x3f5d0400	0.8633423
29	0x3f5a50a6	0.8527931
30	0x3f6ae72c	0.9175899
31	0x3f7a2ca5	0.9772437

features.6.bias f4 [32]
0	0xbd9470ac	-0.07248053
1	0xbe86c705	-0.26323715
2	0xbe1c4a87	-0.15262805
3	0xbe2aab6b	-0.16666953
4	0xbde28f96	-0.11062543
5	0xbe0922e5	-0.13392217
6	0xbdf83551	-0.12119544
7	0xbea6fa5e	-0.3261289
8	0x3c7277f3	0.014799106
9	0xbdfb4d76	-0.12270634
10	0xbdf19e1e	-0.117977366
11	0xbe589ef7	-0.2115439
12	0xbd7955a7	-0.0608727
13	0xbe296094	-0.16540748
14	0xbdd720f9	-0.10504336
15	0xbe0e39a1	-0.13889171
16	0xbe6ebfe7	-0.23315392
17	0xbd85fa2c	-0.06541857
18	0xbdec960b	-0.11552056
19	0xbda886e9	-0.08228857
20	0xbe1a1b43	-0.15049462
21	0xbe3842af	-0.17994188
22	0xbe5940cf	-0.21216129
23	0xbe399a24	-0.18125206
24	0xbd97fa19	-0.07420749
25	0xbea4215a	-0.32056695
26	0xbe3fc844	-0.18728739
27	0xbe80f750	-0.25188684
28	0xbdd329a3	-0.10310676
29	0xbe7e5097	-0.2483543
30	0xbb0c70b4	-0.002142948
31	0xbe26afe9	-0.16278042

features.6.running_mean f4 [32]
0	0xbe7ad701	-0.2449608
1	0xbe6a7b75	-0.22898658
2	0xbf217c52	-0.6308032
3	0xbe82492a	-0.25446445
4	0xbe88a57d	-0.26688758
5	0xbf46db04	-0.7767794
6	0xbe966dd3	-0.29380664
7	0xbdcaa6d2	-0.098951
8	0xbe584ee8	-0.2112385
9	0xbf250d83	-0.6447374
10	0xbf45264a	-0.7701155
11	0xbe3b77da	-0.18307438
12	0xbe615c99	-0.2200798
13	0xbed41a57	-0.41426346
14	0xbe66ec6a	-0.22551122
15	0xbe3505a6	-0.17677936
16	0x3e3509ff	0.17679594
17	0xbeece464	-0.46267998
18	0xbf270e04	-0.6525576
19	0xbdec4546	-0.1153665
20	0x3d27fd02	0.04101277
21	0xbeff83be	-0.499052
22	0xbedf1ab2	-0.43575054
23	0xbeb21e8c	-0.3478893
24	0xbefcad49	-0.49350956
25	0xbe2f5ca3	-0.17125182
26	0xbe9f46c4	-0.31108677
27	0xbeed533a	-0.4635256
28	0xbda97a96	-0.082753345
29	0xbcea2da3	-0.028586214
30	0xbe912b8e	-0.28353542
31	0xbf0b0786	-0.54308355

features.6.running_var f4 [32]
0	0x3f0051f4	0.5012505
1	0x3ed883f7	0.4228818
2	0x3f809718	1.004611
3	0x3f1926cf	0.5982484
4	0x3f1a7ef4	0.60349965
5	0x3fd705c6	1.6798637
6	0x3f21818d	0.63088304
7	0x3ecd36bd	0.40080824
8	0x3f0fa986	0.5611805
9	0x3fac8af7	1.3479909
10	0x3fe5a04a	1.7939541
11	0x3ef54af5	0.4790875
12	0x3efb3204	0.49061596
13	0x3f42e061	0.76123625
14	0x3f20ee36	0.6286348
15	0x3f1f4e40	0.62228775
16	0x3e90be2b	0.28270087
17	0x3fac8bd8	1.3480177
18	0x3fe6e710	1.8039265
19	0x3ee444d5	0.44583765
20	0x3ea69b71	0.32540467
21	0x3f4bcb21	0.79606825
22	0x3f3ec484	0.7451861
23	0x3f286854	0.6578419
24	0x3fd702b8	1.6797705
25	0x3f1eb979	0.6200176
26	0x3f5f45f8	0.8721614
27	0x3f07dda3	0.53072566
28	0x3e9e77f1	0.30950883
29	0x3edbfec0	0.42967796
30	0x3f1b7c23	0.6073629
31	0x3f8e3b97	1.1111935

features.10.weight f4 [64, 32, 3]
0	0x3c68625b	0.014183606
1	0x3b617ca6	0.0034406572
2	0x3c9a499f	0.018833933
3	0x3beefe54	0.007293502
4	0x3d898fc2	0.06716873
5	0x3d0b5fb1	0.034026805
6	0xbdab290f	-0.08357441
7	0xbd167faa	-0.036742844
8	0xbdebc122	-0.115114465
9	0xbb85fb09	-0.0040887636
10	0xbbea6f26	-0.007154363
11	0xbce72e36	-0.028220277
12	0x3d95d3cb	0.07315787
13	0x3d053608	0.03252223
14	0x3d8c7f26	0.06860189
15	0xbd5e0312	-0.054202147
16	0xbe1e0031	-0.1542976
17	0xbdb8fc67	-0.09032517
18	0x3dcf730c	0.10129365
19	0x3d5d3321	0.05400384
20	0x3daefcb3	0.08544292
21	0x3dfc4ab6	0.123189375
22	0xbc4ad4ff	-0.012379884
23	0xbcfa402b	-0.030548176
24	0xbda83c08	-0.08214575
25	0xbd8be43c	-0.068306416
26	0xbda9e19b	-0.08294984
27	0xbd8afe5c	-0.067867965
28	0xbd4de9e7	-0.050271895
29	0xbd115e50	-0.035490334
30	0xbdad759e	-0.08469699
31	0xbdd7cc33	-0.10536995
32	0xbd7b8737	-0.061408248
33	0xbd69b71b	-0.05705939
34	0xbd777864	-0.060417548
35	0xbdfdc683	-0.12391379
36	0xbd3795c0	-0.044820547
37	0xbd2ab8a7	-0.041680004
38	0xbdde8683	-0.108655
39	0x3e34e993	0.17667226
40	0x3e0a4dab	0.1350619
41	0x3e3ce551	0.18446852
42	0x3d5d04e3	0.05395974
43	0x3d8a81f7	0.0676307
44	0xbbe39070	-0.0069447085
45	0x3e4657cb	0.19369428
46	0x3e551cb8	0.20811737
47	0x3e3dac8b	0.18522851
48	0xbe22bac3	-0.15891556
49	0xbdb4cfdf	-0.08828711
50	0xbda822a6	-0.08209734
51	0xbdc3709a	-0.095429614
52	0xbd8411bc	-0.06448695
53	0xbdc06d60	-0.093958616
54	0xbc7920d9	-0.015205585
55	0x3bdbfffc	0.0067138653
56	0x3b50f238	0.0031882655
57	0xbc52fd2b	-0.012877743
58	0x3d28c7bf	0.041206118
59	0x3cc1dd59	0.023665117
60	0xbe01d0c6	-0.12677297
61	0xbdfc9f82	-0.12335111
62	0xbdc431dc	-0.095798224
63	0x3e0780a1	0.13232662
64	0x3e462a63	0.19352107
65	0x3e477ccc	0.194812
66	0x3dda218a	0.10650928
67	0x3db79e57	0.08965748
68	0x3d9cbcd5	0.07653204
69	0x3e4ed2f4	0.2019766
70	0x3dec9ee8	0.115537465
71	0x3e2a9ba6	0.16660938
72	0xbcb5647d	-0.022142643
73	0xbdf28973	-0.118426226
74	0xbdf8ef74	-0.12155047
75	0xbd7e609e	-0.06210386
76	0xbc908ae6	-0.017644357
77	0xbda6bd77	-0.08141606
78	0x3ad3d488	0.0016161362
79	0x3d36885a	0.04456363
80	0x3d270094	0.040772036
81	0xbbecc9eb	-0.007226219
82	0x3da4d87c	0.080491036
83	0xbc90faff	-0.01769781
84	0xbda7c583	-0.08191969
85	0xbdae9547	-0.08524566
86	0xbdcf27cd	-0.10115013
87	0x3a1387aa	0.00056278205
88	0x3c993b2a	0.01870497
89	0xbb7e3646	-0.0038789674
90	0xbd5d39fa	-0.05401037
91	0xbd94efc4	-0.07272294
92	0xbdab377a	-0.08360191
93	0xbbbff8cb	-0.005858516
94	0xbdcaf51f	-0.099100344
95	0xbdcb9da5	-0.09942178
96	0xbcdb7b72	-0.026792262
97	0xb9bee006	-0.00036406534
98	0x3c71e458	0.014763914
99	0x3d1a6c48	0.03770092
100	0x3dedc738	0.116102636
101	0x3c430ab5	0.011904408
102	0xbda5da59	-0.08098287
103	0xbd88b04d	-0.06674252
104	0xbd49529b	-0.049151044
105	0x3cea059f	0.028567133
106	0x3d135bcf	0.035976227
107	0xbc9d974e	-0.019237187
108	0xbdb12ca7	-0.08651095
109	0xbda62f71	-0.081145175
110	0xbc61694f	-0.013758018
111	0xbdbb6214	-0.09149566
112	0xbd92d3ae	-0.07169281
113	0xbe00a4c2	-0.1256285
114	0x3dd5f35e	0.10446809
115	0x3e0e9f5f	0.13927983
116	0x3dd577aa	0.10423215
117	0x3d846cfe	0.06466101
118	0x3d546230	0.05185145
119	0xbc971906	-0.01844455
120	0xbdf44793	-0.11927714
121	0xbd86c5e6	-0.06580715
122	0xbde61000	-0.112335205
123	0xbccb90ff	-0.024849413
124	0xbd9eeffd	-0.07760618
125	0xbde583e2	-0.11206795
126	0xbdafdac2	-0.085866466
127	0xbdac7d2e	-0.08422314
128	0xbddec1e4	-0.108768255
129	0xbd3670a2	-0.04454101
130	0xbcb06d35	-0.021536449
131	0xbdfb21be	-0.12262295
132	0xbddae7f7	-0.10688775
133	0xbcb266f1	-0.021777602
134	0xbce9cf86	-0.028541338
135	0x3e399035	0.18121417
136	0x3e4d71f5	0.20063002
137	0x3e48187c	0.1954059
138	0x3d2bcb2e	0.041941814
139	0x3d6431d9	0.0557116
140	0x3c1d7b3d	0.009611902
141	0x3e183122	0.14862493
142	0x3df2ae04	0.11849597
143	0x3e5e01e3	0.21680407
144	0xbd23e03e	-0.040008776
145	0xbd272570	-0.040807188
146	0xbd41fdf5	-0.047361333
147	0xbdacb290	-0.084324956
148	0xbddaeab4	-0.10689297
149	0xbdb57e53	-0.08861985
150	0xbd793cf8	-0.06084916
151	0x3c8230f8	0.01589249
152	0xbd48accc	-0.048992917
153	0xbd07c6ec	-0.03314869
154	0x3c98b5f8	0.018641457
155	0x3c4c2572	0.0124600995
156	0xbd62d91d	-0.055382837
157	0xbd9d8d71	-0.076929934
158	0xbdebb6cf	-0.11509477
159	0x3e3787ca	0.17922893
160	0x3e405089	0.18780722
161	0x3e5afc03	0.21385197
162	0x3dbb6340	0.0914979
163	0x3e17e3b4	0.14832956
164	0x3dd1927b	0.10233017
165	0x3e4fdae7	0.20298348
166	0x3e5c8de9	0.2153851
167	0x3e188443	0.14894204
168	0xbd4214e6	-0.04738321
169	0xbda62665	-0.08112792
170	0xbdf8f64a	-0.12156351
171	0xbd418da5	-0.047254223
172	0x3cb4a1bb	0.022049775
173	0xbd38aa15	-0.045084078
174	0x3a077679	0.0005167495
175	0x3b9b61b7	0.004741873
176	0x3aa9c007	0.0012950905
177	0xbe03a8bb	-0.12857334
178	0x3c1e8be6	0.009676909
179	0xbd337993	-0.043817114
180	0xbd3584bb	-0.044316035
181	0xbd929aa1	-0.071583994
182	0xbda70092	-0.08154406
183	0x3b2a897d	0.002602189
184	0x3e01b44a	0.12666431
185	0x3d21f679	0.039541695
186	0xbdff6f28	-0.12472373
187	0xbdbdcc33	-0.092674635
188	0xbe025654	-0.12728244
189	0xbd6d7400	-0.057971954
190	0xbcc209de	-0.023686346
191	0xbd3c7afc	-0.046015725
192	0xbe4831b7	-0.19550215
193	0xbe1c8405	-0.15284736
194	0xbe142f3d	-0.14471145
195	0xbc89969f	-0.016795455
196	0xbd55642c	-0.052097484
197	0xbdab38a4	-0.08360413
198	0x3e322433	0.17396621
199	0x3d925973	0.07145967
200	0x3e276db2	0.16350439
201	0x3d98252e	0.074289665
202	0x3d3ac62b	0.045599144
203	0xbd1ea033	-0.038726997
204	0xbde72f4d	-0.11288319
205	0xbc37902c	-0.011203807
206	0xbd5c95b9	-0.053853724
207	0x3e3d1b7d	0.18467517
208	0x3e43fbf9	0.19139089
209	0x3e00dfad	0.12585326
210	0x3ca1904f	0.019722132
211	0xbd413a93	-0.047175
212	0xbd8e9070	-0.06961143
213	0xbda053b2	-0.078284636
214	0xbd82e299	-0.06390876
215	0xbd94d856	-0.07267825
216	0xbdcef31e	-0.10104965
217	0xbb96a299	-0.00459702
218	0xbd579d86	-0.05264046
219	0x3d26af62	0.0406946
220	0x3dc95f53	0.09832635
221	0x3ded33e6	0.115821645
222	0x3e5bc9c7	0.2146369
223	0x3ddf8fb6	0.109160826
224	0x3de2d016	0.110748455
225	0x3e21f631	0.15816571
226	0x3e04ce9f	0.12969445
227	0x3d89d601	0.06730271
228	0xbe0bb5e3	-0.13643603
229	0xbd90f24d	-0.07077465
230	0xbd48cc75	-0.04902311
231	0xbd5961a2	-0.053071626
232	0xbcdb58a1	-0.02677566
233	0xbd7a3862	-0.061088927
234	0xbdce5066	-0.100739285
235	0xbd758027	-0.05993667
236	0xbd9c3890	-0.07627976
237	0x3d99a59c	0.075022906
238	0x3cf93ee7	0.030425502
239	0xbd4740ec	-0.0486459
240	0x3db27722	0.08714129
241	0x3d43c94c	0.047799394
242	0x3cfd3292	0.030907903
243	0x3da5d1d7	0.080966644
244	0x3e0cf7d2	0.13766411
245	0x3e852bbe	0.26009935
246	0x3dac78a2	0.084214464
247	0x3d5938ad	0.053032566
248	0x3de4795f	0.11155962
249	0xbdfc8725	-0.12330464
250	0xbd49c822	-0.049263127
251	0xbdac64fc	-0.08417699
252	0x3c1fe2e8	0.0097586885
253	0xbbb4477e	-0.0055016866
254	0x3cedcc49	0.029028075
255	0xbc8723f0	-0.016496629

features.10.bias f4 [64]
0	0x3d79a421	0.06094754
1	0xbdaf84a6	-0.085702226
2	0x3c744076	0.014907947
3	0xbc3f4794	-0.01167478
4	0xbd6ab380	-0.05730009
5	0x3dc05d2a	0.0939277
6	0x3dea2995	0.114337124
7	0xbc5f5509	-0.013631114
8	0x3d9bc547	0.07605987
9	0x3c3b349e	0.011426119
10	0x3ceeef9b	0.029166987
11	0x3bbe0588	0.005798999
12	0xbd2f98cb	-0.042870324
13	0xbd303f3a	-0.043029048
14	0xbd983e58	-0.07433766
15	0x3dbb7e0d	0.09154902
16	0x3d0f7dd8	0.035032123
17	0x3db6bc46	0.08922629
18	0xbe6684cb	-0.22511594
19	0x3dc21766	0.09477119
20	0x3d753609	0.059865985
21	0x3d926d2f	0.07149731
22	0xb91c13c2	-0.0001488468
23	0x3d6132a0	0.05497992
24	0x3dcde6bd	0.100537755
25	0x3cf976aa	0.030452091
26	0xbd220ec2	-0.039564855
27	0xbd1496de	-0.03627669
28	0x3d8cbb16	0.06871621
29	0xbdb402d2	-0.087896004
30	0x3d69e7f7	0.057105985
31	0x3d3de992	0.046365328
32	0xbd9b415a	-0.07580824
33	0xbd597ebb	-0.053099375
34	0xbd0ee4e1	-0.034886245
35	0x3da149d6	0.07875411
36	0xbd2e139a	-0.042499162
37	0xbc2aa577	-0.010415426
38	0x3cde2495	0.027117053
39	0xbd9ff8bc	-0.07811114
40	0x3d8c8576	0.06861393
41	0x3dd25898	0.10270804
42	0xbd33bd62	-0.04388178
43	0x3d5cf60c	0.053945586
44	0x3ddd0b75	0.10793201
45	0xbd553ffb	-0.05206297
46	0xbdcba61a	-0.09943791
47	0x3caacb7e	0.020848986
48	0x3cd6eae4	0.026235051
49	0x3d5b5274	0.05354543
50	0xbcb9627e	-0.022629973
51	0xbd36cf2a	-0.04463116
52	0x3b8a5c33	0.004222417
53	0x3dbbd74c	0.09171924
54	0x3c83dac9	0.016095536
55	0xbd1fc83a	-0.03900931
56	0xbca3b332	-0.019982908
57	0xbd5ffc92	-0.05468423
58	0xbd2c47ce	-0.042060666
59	0x3c7f96f6	0.015599957
60	0x3d5cc18c	0.05389552
61	0xbcf4f147	-0.029900206
62	0xbdbc9c44	-0.09209493
63	0x3db2c16c	0.087282985

features.11.weight f4 [64]
0	0x3f731567	0.9495453
1	0x3f6de687	0.9292988
2	0x3f845788	1.0339212
3	0x3f7b50cd	0.9817017
4	0x3f6a8b52	0.91618836
5	0x3f7d7726	0.9900993
6	0x3f7580dc	0.9589975
7	0x3f7ee86b	0.9957339
8	0x3f681056	0.90649927
9	0x3f82c239	1.0215522
10	0x3f66146c	0.8987491
11	0x3f8426d8	1.0324354
12	0x3f7c0eae	0.984599
13	0x3f69a082	0.9126054
14	0x3f62a85a	0.88538134
15	0x3f71b40f	0.9441537
16	0x3f73bd0f	0.95210356
17	0x3f7a46fc	0.97764564
18	0x3f7b4019	0.9814468
19	0x3f7aec4f	0.9801683
20	0x3f7afb7a	0.9803997
21	0x3f6cc423	0.9248678
22	0x3f725bef	0.9467153
23	0x3f75b527	0.9597954
24	0x3f6ebdf4	0.93258595
25	0x3f7bb117	0.9831709
26	0x3f5c7040	0.8610878
27	0x3f6d0665	0.9258788
28	0x3f8386b6	1.0275486
29	0x3f70e2c1	0.94096
30	0x3f73ba24	0.95205903
31	0x3f7499f9	0.95547444
32	0x3f79069e	0.9727572
33	0x3f66b897	0.9012541
34	0x3f634a8e	0.88785636
35	0x3f80c630	1.0060482
36	0x3f71b189	0.9441152
37	0x3f6465a9	0.8921762
38	0x3f7b2cb2	0.98115075
39	0x3f724535	0.9463685
40	0x3f75d7b7	0.9603228
41	0x3f8144ee	1.0099161
42	0x3f84652e	1.0343378
43	0x3f7bcf70	0.983634
44	0x3f818f11	1.0121785
45	0x3f7bdb63	0.9838163
46	0x3f6cbccd	0.9247559
47	0x3f70b301	0.9402314
48	0x3f75e2ba	0.9604908
49	0x3f7a8146	0.97853506
50	0x3f845d7b	1.0341028
51	0x3f62488c	0.8839195
52	0x3f779872	0.9671699
53	0x3f653cc5	0.8954585
54	0x3f70aac4	0.9401057
55	0x3f80ae96	1.0053279
56	0x3f7fc89a	0.9991547
57	0x3f73a804	0.95178246
58	0x3f700e9a	0.9377228
59	0x3f5fc480	0.8740921
60	0x3f7ac121	0.9795094
61	0x3f78f7c6	0.9725307
62	0x3f747b3f	0.9550056
63	0x3f5c755b	0.8611657

features.11.bias f4 [64]
0	0xbe5eb78a	-0.21749702
1	0xbe5dcd0e	-0.21660253
2	0x3d6513c7	0.055927064
3	0x3d2b2762	0.041785605
4	0xbe71d4c6	-0.23616323
5	0x3ac255be	0.0014826579
6	0x3cf79a4f	0.030224947
7	0xbdf78247	-0.12085395
8	0xbe6330b1	-0.22186543
9	0xbdcb1e82	-0.09917928
10	0xbe81cf8b	-0.25353655
11	0xbe0ec16e	-0.13940975
12	0x3cfaafc0	0.030601382
13	0xbe7a2627	-0.24428616
14	0xbe80e504	-0.25174725
15	0x3c7b42ec	0.01533578
16	0x3d8028fe	0.06257819
17	0x3d7acbd8	0.061229557
18	0xbe2d25be	-0.16908929
19	0xbe2392b6	-0.15973935
20	0x3d73bc9f	0.059506055
21	0xbe54b448	-0.20771897
22	0x3d0390aa	0.032120384
23	0xbdd8685d	-0.10566781
24	0xbc3634d0	-0.01112099
25	0x3d31e926	0.04343524
26	0xbe556cb5	-0.2084225
27	0xbde72d89	-0.11287982
28	0x3da4a791	0.08039773
29	0xbe4f16dc	-0.20223564
30	0x3d10b6ec	0.035330698
31	0xbe2d2596	-0.16908869
32	0xbe249fc6	-0.16076574
33	0xbe85b24c	-0.26112592
34	0xbe860645	-0.26176658
35	0x3da24c1b	0.07924672
36	0xbe45134c	-0.19245642
37	0xbe7fc0c6	-0.24975881
38	0x3d65848e	0.056034617
39	0xbcc210af	-0.023689596
40	0x3cc4a937	0.02400647
41	0x3d857240	0.06515932
42	0xbdad9e29	-0.08477432
43	0x3d22ff4d	0.039794255
44	0x3d752c5e	0.059856765
45	0xbe24045f	-0.16017292
46	0xbe52e366	-0.20594558
47	0xbd83a207	-0.06427389
48	0xbe4d1445	-0.20027263
49	0xbdb2298b	-0.0869933
50	0x3de9cfd1	0.11416591
51	0xbe4fa575	-0.2027796
52	0x3d68c68a	0.056829967
53	0xbe50d1fc	-0.20392603
54	0xbe240f88	-0.1602155
55	0x3d3bd9e7	0.045862105
56	0xbe1235a2	-0.14278272
57	0xbe3a84ff	-0.18214796
58	0xbe5bcd60	-0.21465063
59	0xbe842376	-0.25808305
60	0xbe24d16d	-0.16095515
61	0xbe2de4e0	-0.1698184
62	0xbe57b220	-0.21064043
63	0xbe8d761a	-0.27629167

features.11.running_mean f4 [64]
0	0xbe25ef5e	-0.16204593
1	0xbe979ded	-0.29612675
2	0x3e8f9e1d	0.28050318
3	0xbd39816c	-0.045289442
4	0xbec2f291	-0.38075688
5	0x3f726f15	0.9470075
6	0x3f26d7ec	0.6517322
7	0x3e9fbaed	0.311973
8	0xbedb6ec9	-0.4285796
9	0x3edb1e91	0.42796758
10	0xbe0526e1	-0.13003112
11	0x3f29a11c	0.6626146
12	0x3e0919dd	0.13388772
13	0xbe64793a	-0.2231187
14	0xbef85dfd	-0.48509207
15	0x3ea31313	0.3185049
16	0x3ba369ea	0.004986991
17	0x3e49d32b	0.1970946
18	0xbed12507	-0.40848562
19	0x3db50704	0.08839229
20	0x3e308fea	0.17242399
21	0xbf044c44	-0.5167887
22	0x3ebe3014	0.37146056
23	0x3e280c6a	0.16410986
24	0x3ed72c2e	0.42025894
25	0x3edaf21c	0.4276284
26	0xbec5c7b3	-0.3862892
27	0x3f1539e8	0.5829148
28	0x3f36acf9	0.71357685
29	0xbf0c815c	-0.54884887
30	0x3f1113ba	0.56670725
31	0x3cf46e9c	0.029837899
32	0x3f613b45	0.87981063
33	0xbeeeddf7	-0.4665372
34	0xbea29f54	-0.31762183
35	0x3ec4a14a	0.38404304
36	0xbe4de76f	-0.20107816
37	0xbea0f3da	-0.31436044
38	0x3eecb7c6	0.46233958
39	0x3ef0fd65	0.47068325
40	0x3ec10b57	0.37703964
41	0x3de06364	0.10956457
42	0x3e8434b7	0.25821468
43	0x3e6a3f2f	0.22875665
44	0x3efc67bb	0.4929789
45	0xbe877031	-0.26452783
46	0xbeec310f	-0.4613118
47	0x3f0031fd	0.50076276
48	0xbf0f8b19	-0.5607162
49	0x3dd46027	0.10369902
50	0x3f1cc080	0.6123123
51	0xbef85b4b	-0.4850715
52	0x3dd2e106	0.10296826
53	0xbdd75c62	-0.105156675
54	0xbd607ce0	-0.05480659
55	0x3f5cbe88	0.8622823
56	0x3bb4a448	0.005512748
57	0xbebd7dfc	-0.3701018
58	0xbf0d22c0	-0.5513115
59	0xbf0545cb	-0.5205962
60	0x3f32c493	0.698312
61	0xbe304aac	-0.17215985
62	0xbf0c6ed7	-0.5485663
63	0xbe41c624	-0.18923241

features.11.running_var f4 [64]
0	0x3eaad1f5	0.3336331
1	0x3e8d220c	0.27565038
2	0x3eb21c21	0.34787086
3	0x3f192da5	0.59835273
4	0x3eb26a24	0.34846604
5	0x3e96b778	0.2943685
6	0x3eea6927	0.4578335
7	0x3ec8f009	0.39245632
8	0x3e7e9c45	0.248643
9	0x3eefc90d	0.46833077
10	0x3eb702f0	0.3574443
11	0x3efcf11f	0.4940271
12	0x3ed28ab5	0.4112145
13	0x3e9a1eba	0.30101568
14	0x3eb13b77	0.3461568
15	0x3e9c192e	0.3048796
16	0x3ec28666	0.37993163
17	0x3f1f199f	0.6214847
18	0x3e9a2518	0.30106425
19	0x3eac9da8	0.33714032
20	0x3ec6936a	0.38784343
21	0x3e95bdbe	0.29246324
22	0x3e851980	0.25996017
23	0x3eaf5646	0.3424551
24	0x3ec1001f	0.37695405
25	0x3ec10e7b	0.3770636
26	0x3ed60d05	0.41806808
27	0x3eb464f0	0.3523326
28	0x3edc1f56	0.42992657
29	0x3ea22c21	0.31674293
30	0x3efb7016	0.49108952
31	0x3e9af1b4	0.3026253
32	0x3f0dedda	0.5544106
33	0x3ee0755c	0.43839538
34	0x3ec5e307	0.3864977
35	0x3eb146da	0.34624368
36	0x3eb5649b	0.35428318
37	0x3ea94e92	0.33067757
38	0x3ee6594e	0.4499001
39	0x3e61d91f	0.22055481
40	0x3e99ecf5	0.30063596
41	0x3ef626e9	0.4807656
42	0x3ee9858d	0.45609704
43	0x3edc0645	0.42973533
44	0x3ecb6a68	0.3972962
45	0x3e850002	0.25976568
46	0x3ec6aff0	0.38806105
47	0x3e714992	0.23563221
48	0x3eb18443	0.3467122
49	0x3ea0d0e1	0.31409362
50	0x3f0c08d5	0.54700977
51	0x3ea7d681	0.3278084
52	0x3ef48c6f	0.47763392
53	0x3ec27323	0.37978467
54	0x3eae2c22	0.34018046
55	0x3e98e908	0.2986529
56	0x3ea19f55	0.31566873
57	0x3e95684e	0.2918114
58	0x3eb881bf	0.36036488
59	0x3ee864ea	0.4538949
60	0x3ec7f5ee	0.39054817
61	0x3e82b30a	0.2552722
62	0x3e8c12d1	0.27358106
63	0x3e9337a5	0.2875339

embedding_layer.0.weight f4 [16, 64]
0	0x3dd10d69	0.10207636
1	0xbd835890	-0.06413376
2	0xbd7a53dd	-0.061115135
3	0xbe3a7f81	-0.18212701
4	0xbcc60554	-0.024172463
5	0xbe1163dc	-0.1419825
6	0xbd94d41c	-0.07267019
7	0xbe249292	-0.16071537
8	0x3def0c96	0.116723225
9	0xbe473ba5	-0.19456346
10	0xbbc194ba	-0.005907622
11	0xbe653faf	-0.22387575
12	0xbe36029a	-0.1777443
13	0x3ca89454	0.02057854
14	0x3dd11800	0.10209656
15	0x3cbd7075	0.023124913
16	0xbe266bb8	-0.16252029
17	0xbd8602af	-0.065434806
18	0x3bc68c88	0.006059233
19	0x3d91aaf4	0.07112685
20	0xbd4f3bdc	-0.050594196
21	0x3e0bfb9c	0.136702
22	0xbcf52da8	-0.029928997
23	0xbe4746f1	-0.19460656
24	0xbda526f2	-0.08064069
25	0xbd3d5838	-0.04622671
26	0x3db46758	0.08808774
27	0xbe0e618c	-0.13904399
28	0xbe205313	-0.1565669
29	0xbd50aa62	-0.05094374
30	0xbe016094	-0.12634498
31	0x3d73f16c	0.05955641
32	0xbe5ed203	-0.217598
33	0x3d800ce0	0.06252456
34	0x3c5ec043	0.013595643
35	0xbc481037	-0.012210897
36	0xbd2a08d0	-0.04151231
37	0x3e495905	0.19662865
38	0xbd310846	-0.04322078
39	0xbe1ce454	-0.15321475
40	0xbe1d2ba5	-0.1534868
41	0xbd801f1f	-0.06255936
42	0xbd5aa279	-0.053377602
43	0x3c8ab620	0.016932547
44	0xbe16b9e6	-0.14719352
45	0x3e493ca4	0.19652039
46	0x3e46679f	0.19375466
47	0xbe11d5c3	-0.142417
48	0x3e0fe1ed	0.14051028
49	0xbe197d3b	-0.14989178
50	0xbcbac494	-0.022798814
51	0x3de59d62	0.11211659
52	0xbd8fca0e	-0.07020961
53	0xbd81abf6	-0.06331627
54	0xbc563e03	-0.013076308
55	0xbe009dd5	-0.12560208
56	0x3d39472a	0.045233883
57	0xba6ab2c3	-0.0008953029
58	0xbb9a0323	-0.004700081
59	0x3d9cfe3c	0.07665679
60	0xbe1fc790	-0.15603471
61	0x3def7a68	0.11693269
62	0xbbd796d9	-0.0065792617
63	0x3dd33522	0.10312869
64	0x3dfe8e41	0.124294765
65	0x3c7df2cc	0.015499782
66	0xbcf8c153	-0.030365622
67	0x3aaddcc8	0.001326465
68	0x3c2816f6	0.010259381
69	0xbe1ebee3	-0.15502505
70	0xbcc22402	-0.02369881
71	0xbe47fca5	-0.1952997
72	0x3dc45d2f	0.09588086
73	0xbdbaa081	-0.09112645
74	0xbd800c18	-0.06252307
75	0xbe15598f	-0.14584945
76	0x3c90f079	0.017692791
77	0x3dd25fb1	0.10272158
78	0x3e00ca19	0.12577094
79	0xbdb2587e	-0.08708285
80	0xbd7d59aa	-0.06185309
81	0x3cdeffd6	0.027221601
82	0x3dfd91b0	0.12381303
83	0x3e2f623c	0.17127317
84	0x3d02dbc3	0.031947862
85	0x3e23b9c7	0.15988837
86	0xbcab2356	-0.020890873
87	0xbdf88d47	-0.121363215
88	0xbe389e17	-0.18029056
89	0xbc36756f	-0.011136397
90	0x3cdc005a	0.026855636
91	0xbe5ca16f	-0.21545957
92	0xbcbf4190	-0.023346692
93	0x3dc3ef43	0.0956712
94	0x3c86bf8d	0.01644876
95	0x3e0d49b0	0.13797641
96	0xbe307679	-0.17232694
97	0x3cad361d	0.021143967
98	0x3e33f1c4	0.17572695
99	0xbda59a24	-0.080860406
100	0x3e155269	0.14582218
101	0x3de82c14	0.11336532
102	0xbc0606ed	-0.008180362
103	0xbe003697	-0.12520824
104	0xbd20c111	-0.039246622
105	0xbd9ebe05	-0.07751087
106	0xbdfca093	-0.123353146
107	0xbd31d7b7	-0.043418612
108	0x3d1eeacb	0.038798135
109	0x3e0c4d91	0.13701464
110	0x3dd5377a	0.10410972
111	0xbe5df75a	-0.21676388
112	0x3e3787bd	0.17922874
113	0xbe0bc558	-0.136495
114	0x3da71e9e	0.08160137
115	0x3da72633	0.08161583
116	0xbd52c556	-0.051457725
117	0x3de1932f	0.11014401
118	0x3d54ae5f	0.051924106
119	0xbd066bef	-0.032817777
120	0x3d97ef5e	0.074187025
121	0x3d7d6f60	0.061873794
122	0x3e28f06d	0.16497965
123	0x3d98d27d	0.074620225
124	0xbe16464d	-0.14675255
125	0x3e0b0dbb	0.13579457
126	0x3e171c79	0.14756955
127	0x3e2379e1	0.15964462
128	0xbd819199	-0.06326599
129	0xbe754bc9	-0.23954691
130	0x3d2a56df	0.041586753
131	0x3e26e02c	0.16296452
132	0xbe0d2099	-0.13781966
133	0x3d2c4b4b	0.042063992
134	0x3dd6c4e7	0.10486775
135	0xbe306233	-0.1722496
136	0xbdfca070	-0.123352885
137	0xbe81da8b	-0.25362048
138	0xbdd0c518	-0.10193843
139	0xbc6b99bc	-0.014379915
140	0x3e3efb6a	0.18650594
141	0xbe28f098	-0.16498029
142	0xbdd3e3b8	-0.10346168
143	0x3db39c25	0.087700166
144	0x3cef4d71	0.029211732
145	0x3e4b1c34	0.19834977
146	0xbdcc63ff	-0.0998001
147	0xbe9171d2	-0.2840715
148	0x3cbfd668	0.023417667
149	0xbe2b4868	-0.1672684
150	0x3e02cf97	0.12774502
151	0xbdc9d86e	-0.09855734
152	0x3e0029a9	0.12515892
153	0x3db3b5ba	0.08774896
154	0x3d1686b3	0.036749553
155	0xbdf06c19	-0.11739368
156	0x3dfe9629	0.124309845
157	0xbdfd6a78	-0.12373823
158	0x3e58f382	0.21186641
159	0xbdfe37b8	-0.12412971
160	0xbe378882	-0.17923167
161	0x3cc06e87	0.023490204
162	0xbd416a06	-0.047220252
163	0x3e0847e6	0.13308677
164	0xbda6fff2	-0.081542864
165	0xbe085a62	-0.13315728
166	0x3e36bee9	0.17846264
167	0xbcdd4d94	-0.027014531
168	0x3e03bde0	0.128654
169	0x3c87bf4b	0.016570708
170	0xbe8d6e23	-0.2762309
171	0x3e2b07b2	0.16702154
172	0x3e4fa5f4	0.2027815
173	0xbe7bd3b1	-0.24592473
174	0xbdba2ad2	-0.090901986
175	0xbd3f8234	-0.04675503
176	0xbe665f7f	-0.22497366
177	0xbdbc9afc	-0.092092484
178	0x3e8bad80	0.27280807
179	0xbcc872bf	-0.024468778
180	0x3da2422a	0.07922776
181	0xbe16c225	-0.14722498
182	0xbe34b2ab	-0.17646281
183	0x3e0f7fc1	0.14013578
184	0xbe8d66e0	-0.2761755
185	0xbe15164d	-0.14559288
186	0xbddd4375	-0.10803882
187	0xbe4d3182	-0.20038417
188	0xbddb1610	-0.106975675
189	0xbe8de566	-0.2771408
190	0xbe1af9c1	-0.15134336
191	0xbdd71b9c	-0.10503313
192	0xbd2cbeab	-0.042174023
193	0xbe1edeed	-0.15514727
194	0x3ce4e482	0.027940992
195	0x3dc5c42d	0.09656558
196	0xbe032d0b	-0.12810151
197	0xbcd7a743	-0.026324874
198	0x3e048343	0.12940697
199	0x3d432e61	0.047651652
200	0xbd461d0b	-0.04836754
201	0x3c35f497	0.011105678
202	0xbe0b4900	-0.13602066
203	0xbcac412d	-0.021027172
204	0x3e02d59d	0.127768
205	0xbdc2f00d	-0.09518442
206	0xbd80e52c	-0.06293711
207	0x3c79184b	0.015203546
208	0x3e2498ed	0.16073962
209	0x3dfb0eeb	0.12258705
210	0xbe198cd7	-0.14995132
211	0xbe649123	-0.2232099
212	0x3df56145	0.11981443
213	0xbe57416a	-0.21021047
214	0xbd3f78e3	-0.046746146
215	0x3da20697	0.07911413
216	0x3da8841e	0.08228324
217	0x3e34f39b	0.17671053
218	0xbd9fd2a4	-0.078038484
219	0x3d80ec57	0.06295078
220	0x3d81fb6a	0.063467816
221	0xbe5a043b	-0.21290676
222	0x3e0ed425	0.13948114
223	0xbe0b772b	-0.13619678
224	0xbabe09a5	-0.0014498724
225	0xbd85ae97	-0.06527441
226	0xbdb28e9e	-0.08718608
227	0x3dacace4	0.08431414
228	0xbdd85359	-0.10562772
229	0xbbe0b284	-0.006857218
230	0x3e4611f9	0.19342794
231	0xbc5ae662	-0.013360592
232	0x3dc5e286	0.096623465
233	0x3d983bc9	0.07433278
234	0x3d977ea1	0.073971994
235	0x3d1f57e6	0.038902186
236	0x3d9b2ba7	0.075766854
237	0xbdee457c	-0.11634347
238	0xbcfdd222	-0.030983988
239	0x3da99dcb	0.0828205
240	0xbe3bb175	-0.18329413
241	0xbd8c0511	-0.06836904
242	0x3e0589de	0.13040873
243	0xbe13f5e9	-0.14449276
244	0x3dcb6eb2	0.09933223
245	0xbc2bb433	-0.010479975
246	0xbdb366ed	-0.08759866
247	0x3d981e73	0.07427683
248	0xbe0f17d3	-0.13973932
249	0xbb838e23	-0.0040147468
250	0xbd92257d	-0.071360566
251	0xbd2af40a	-0.04173664
252	0xbd3200a5	-0.043457646
253	0xbe916f6f	-0.2840533
254	0xbe527237	-0.20551382
255	0xbded05b0	-0.115733504

embedding_layer.0.bias f4 [16]
0	0x3e07edbf	0.13274287
1	0x3a8e6155	0.0010862747
2	0x3de1c80b	0.11024483
3	0x3e775c79	0.2415637
4	0x3dfa4226	0.12219648
5	0x3d3130af	0.04325932
6	0x3e07a88f	0.13247894
7	0x3e32130e	0.17390081
8	0x3ea24540	0.3169346
9	0x3eab4126	0.33448142
10	0x3e460499	0.19337691
11	0x3e8ec3e1	0.2788382
12	0x3e363b2e	0.17796013
13	0x3e4f6336	0.2025269
14	0xbcc0adb2	-0.023520324
15	0x3df7ebdb	0.12105533

classifier.weight f4 [2, 16]
0	0xbe9421e1	-0.28932098
1	0xbe5305e7	-0.2060772
2	0x3eb74d80	0.35801315
3	0x3ea35bed	0.3190607
4	0xbe0f6978	-0.14005077
5	0x3d88e196	0.06683652
6	0xbe743ff4	-0.23852521
7	0x3ed55b9d	0.41671458
8	0x3e87b993	0.2650877
9	0x3e89c0bd	0.2690486
10	0x3e0408a5	0.12893923
11	0xbccf4374	-0.025300719
12	0x3ea6dcef	0.32590434
13	0xbebfc2ce	-0.37453312
14	0xbe94b9f8	-0.29048133
15	0xbe73aa32	-0.23795393
16	0x3d81583b	0.06315657
17	0x3e368bfc	0.17826837
18	0xbe9aa5b3	-0.30204543
19	0xbebae5ac	-0.3650335
20	0x3ea7b814	0.32757628
21	0x3e9c8f79	0.3057821
22	0x3ea01a29	0.3126996
23	0xbee485ba	-0.44633275
24	0x3c817d31	0.015806766
25	0xbd80a582	-0.06281568
26	0xbd84f3cb	-0.06491812
27	0xbea11652	-0.31462342
28	0x3dae398d	0.08507071
29	0x3dbef238	0.09323543
30	0xbd49399e	-0.049127214
31	0x3e8d2009	0.27563503

classifier.bias f4 [2]
0	0x3e41689a	0.18887559
1	0xbd0ee257	-0.034883823
