o02_train/run_outputs/15cnn_train_weights_second_drill.pth (torch, 48607 bytes, 22 tensors)

features.0.weight f4 [16, 6, 5]
00000000: 8e49 083e 88eb 053e 11f7 85bd 030d 1e3e
00000010: 9124 60bd 770d 813d 35db cbbd 8c59 f33d
00000020: 339a 2b3e 886b 0cbe 6409 133e b3c1 c83c
00000030: 3b24 063e 9337 b03c 2540 9d3d 5552 c8bc
00000040: 53e8 043e d576 913c 6d89 b5bd 48bb f33c
00000050: 5b2a a7bd 8388 46bc 5a1c 76bd d2cd 043e
00000060: ab77 0bbe e89e e7bd 6c67 9ebd 622d 04be
00000070: 91a0 8c3a 22f9 50be 18ec 043e 8006 40be
00000080: ce46 e03d 5369 a13b 532d a4bd b2dc ce3d
00000090: 4801 783c 3642 033e bee7 3d3b b47f bbbd
000000a0: 5a3b 673d 06b9 06bd 4cca bd3d 1008 2e3e
000000b0: 92e5 b63d 1004 a3bd 9941 e13d 7a31 eb3c
000000c0: 477b a33d 05b7 fbbd 0e1a 1dbe e3d8 6dbd
000000d0: ab32 0bbe d7ec 123e 2d0b 143d a3e3 c83d
000000e0: b72f a63d bf35 953c e38a 233e 0940 ebbd
000000f0: 0bd1 d53c 6416 e7bd 4d8d 5f3d 4594 a8bd
00000100: 34be 133d fc84 98bb ca03 493e c1e8 83bd
00000110: 45cd c3bd efad d8bd df72 473e 07d9 cc3d
00000120: abe4 563e 5c87 0cbe f830 4ebe 6f0d 1ebe
00000130: 06f4 01be 4390 833d 7d2d 463d 5178 023e
00000140: c776 adbd 7e10 04be 69c2 8f3d a4d7 dfbd
00000150: 43a2 903d 1d0c 94bd f4a8 9e3d 2e66 2bbe
00000160: e4f7 f3bd 77ba e03c 6cbb 19bc 028e bdbd
00000170: 7e6d 933d 552d cd3d ece8 1ebe f66c f7bd
00000180: 9fe1 163e c532 62bd 8edc 1fbd f491 17be
00000190: 3716 09be 8f33 653c 5293 11bd 6833 fbbd
000001a0: 85bb ec3c 882c efbd 8ea4 14be f823 c1bd
000001b0: 048c 16be 90df e7bd 4e43 3b3e 1378 393d
000001c0: 9668 983d 3658 18be 48cc cdbd 145c 99bd
000001d0: 65eb 273c 1e65 38be 0276 cbbd 6353 06be
000001e0: b91a 5d3c 9dc7 5bbd 7344 a03b 495d e8bd
000001f0: 20a9 06be 8495 1ebe 46f2 b2bd c510 14be
00000200: 072f 203e 221e 07bd b6c6 233e 35d9 8f3d
00000210: 75a7 0bbe 6c8d 0d3e be0d 22bd 3f88 87bd
00000220: 0c45 04be f035 1abe ffe7 8d3d 2488 f2bc
00000230: 9f67 b63d 9284 06be fa1a 1b3e 2d22 f2bd
00000240: a41d c9bc c630 823d 89b0 ed3d 8e19 293e
00000250: e7c0 383e a345 06be e512 4c3d 0695 a7bd
00000260: 7387 1abd 3e6d 1abe b1bd 1c3e b422 22be
00000270: 9be8 6b3d 65fa 333d 51ff 513d 2f18 dfbd
00000280: 16c7 1d3e de4b dd3c fb00 483c 3c13 35be
00000290: b00d 7b3d ceca c4bc 2213 a4bd d479 203e
000002a0: 76a4 253d d152 c5bd 3ad7 49bd dbf4 fc3c
000002b0: 6fdf 0b3e 5c6d 95bc c3dd a1bd bcc3 a1bd
000002c0: 05a3 1abe 80cb 493d 262c f83d 9447 45be
000002d0: 1946 173d 4c76 a03d 8fd6 753c 86ea 92bd
000002e0: fcf0 c33d 8e70 f43d 9e20 c43d 707d 21bc
000002f0: bfc0 ebbc b580 093d b99c e9bb acc8 29bd
00000300: 6a2f f43d 312d 123e 4ee3 4dbd cb72 89bc
00000310: b76f ad3c c740 97bb af30 283d 961f 3c3d
00000320: a8bd 31be b603 a6bd 148c 0a3e 8d0b 473d
00000330: 0b19 09bd dc8d f0bd c0e6 08be 8d16 44be
00000340: 6d84 bcbd 3339 ff3c bbd5 013e 986d a93d
00000350: b9e2 31be c83e fdbd dc39 27bd 86ba 273e
00000360: 1d46 baba a6b7 6dbd 1ef0 843d 8969 c4bd
00000370: 9017 ecbd 9076 0a3e b7d6 a6bd 002c 3dbd
00000380: 8e61 51be 4267 e83d ec2e 033e c1b6 823d
00000390: 5406 fdbd 125b 38be ae9c 19be 6459 fb3d
000003a0: dfe6 8b3d 1deb fd3d 859b 7e3d 7953 023d
000003b0: 638d adbc 7d78 24be 6960 37be 7f1f 49be
000003c0: de08 ad3d 2c9b a1bd ca85 ffbc 1c21 bfbd
000003d0: 1878 f9bc 03e0 f4bd 7dd0 edbd ee18 8a3d
000003e0: 2894 3bbd ba89 f33d 1750 14bd 32a6 e0bd
000003f0: 4aaa 21bc 2300 afbd f161 74bd ffec 2ebe
0.13309309 0.1307813 -0.06541265 0.15434651 -0.054722372 0.06301396 -0.0995392 0.11882314
0.16758041 -0.13712895 0.14359051 0.024506425 0.13099758 0.021510875 0.0767825 -0.024453321
0.1297925 0.017756859 -0.088641025 0.029752389 -0.081623755 -0.012117508 -0.060085632 0.12969139
-0.13619868 -0.11309606 -0.0773457 -0.12907937 0.0010729005 -0.20407537 0.12980688 -0.1875248
0.10951005 0.0049258857 -0.080164574 0.10100688 0.015137024 0.12818226 0.002897724 -0.09155217
0.056453086 -0.032891296 0.09267101 0.16995263 0.08930506 -0.07959759 0.1099884 0.028710116
0.07982498 -0.122907676 -0.1534197 -0.058068167 -0.13593547 0.1434816 0.03614347 0.09809043
0.0811457 0.018214105 0.1597095 -0.11486823 0.026100656 -0.112835675 0.054578114 -0.08231405
0.036070064 -0.004654525 0.19630352 -0.06440879 -0.095606364 -0.1058005 0.19477414 0.10002332
0.20985667 -0.1372351 -0.20135868 -0.15434812 -0.12690744 0.06424 0.048383225 0.1274121
-0.084699206 -0.12896916 0.07019503 -0.10929802 0.07062199 -0.07228873 0.07747069 -0.16738197
-0.11912516 0.027432663 -0.009383064 -0.092556015 0.07198618 0.10018412 -0.1551854 -0.120813295
0.14734505 -0.0552242 -0.039028697 -0.1480177 -0.1338738 0.013989343 -0.035540886 -0.12265664
0.02889801 -0.116784155 -0.14515898 -0.094306886 -0.14701849 -0.11321938 0.18287393 0.045280527
0.07441823 -0.148774 -0.10048729 -0.07488266 0.0102489935 -0.18007323 -0.099346176 -0.13117747
0.013495141 -0.053657163 0.0048909723 -0.11345918 -0.13150454 -0.15486723 -0.08737616 -0.14459522
0.1564294 -0.03298772 0.15993771 0.07023851 -0.13638099 0.1382348 -0.039563887 -0.06617784
-0.12916964 -0.15059638 0.06929015 -0.029605933 0.08906483 -0.13136509 0.1514701 -0.11822925
-0.024550267 0.06356959 0.11605937 0.16513655 0.18042336 -0.13112502 0.049822707 -0.08182721
-0.03772683 -0.15080735 0.15306737 -0.1583355 0.057594877 0.043939967 0.05126888 -0.108932845
0.15407977 0.027013715 0.012207265 -0.17683119 0.06129235 -0.024022486 -0.08011462 0.15671474
0.040440045 -0.096349366 -0.04927752 0.030878475 0.13659452 -0.018240623 -0.07903626 -0.078986615
-0.1510125 0.04926634 0.12117796 -0.19265586 0.036932085 0.07835063 0.015004768 -0.07173638
0.095674485 0.119355306 0.09576534 -0.009856567 -0.028778432 0.03357001 -0.0071292785 -0.04145114
0.11923106 0.14275052 -0.050265603 -0.01677837 0.021171434 -0.0046158764 0.041062053 0.04592856
-0.17357504 -0.081061766 0.13529998 0.048595 -0.03347115 -0.117458075 -0.13369274 -0.19149227
-0.09204946 0.031155204 0.12679188 0.082728565 -0.17371644 -0.1236549 -0.040826663 0.16379747
-0.0014211569 -0.05803647 0.06491111 -0.09590442 -0.11527932 0.1352179 -0.08146422 -0.04618454
-0.2044737 0.1134782 0.12810868 0.06382514 -0.123547226 -0.1800349 -0.15001175 0.12272909
0.068311445 0.1239836 0.062160034 0.031817887 -0.021185583 -0.16061588 -0.17907871 -0.19640921
0.08448957 -0.07890925 -0.031191725 -0.09332487 -0.030452773 -0.11956789 -0.116120316 0.06743036
-0.04579559 0.11891504 -0.036209192 -0.10969199 -0.00986726 -0.08544948 -0.059663717 -0.17082594

features.0.bias f4 [16]
00000000: 102e c43d 35bd 90bd 5bb4 d9bd 7c6e d33c
00000010: c1ee d6bd 5bd5 e1bd 394d c63d 0ed1 eebc
00000020: caf8 283e dfca 353e c6f4 603d 109c 813d
00000030: 3c38 2b3d d0cc 513b 73a5 2dbc 7413 2d3b
0.09579098 -0.070673384 -0.10630103 0.025809519 -0.104947574 -0.110270225 0.09682698 -0.02915242
0.16501155 0.1775317 0.054920934 0.06328595 0.041801676 0.0032012947 -0.010598528 0.00264093

features.1.weight f4 [16]
00000000: adb0 833f 3484 803f fbf1 7b3f d129 7b3f
00000010: 9b9e 7b3f 4ff1 7d3f 5af7 7f3f 0ae6 7c3f
00000020: 580c 7c3f 4fb3 7a3f ede0 803f a678 7d3f
00000030: 2a2e 773f 6c68 7e3f 3068 813f a6c7 7b3f
1.0288292 1.0040345 0.9841611 0.9811068 0.9828889 0.9919633 0.99986804 0.9878851
0.98456335 0.97929853 1.0068642 0.9901222 0.96554816 0.99378085 1.010992 0.98351514

features.1.bias f4 [16]
00000000: 3938 9fbc 4c6c 633c 9cb0 3c3c e0ea 4c3b
00000010: 6ff9 d0b9 e3fb 89bc 94f5 95bc 43a4 bfbc
00000020: df43 3d3c 7b1a 0c3b d712 b8bc 8ffa 86bb
00000030: 72d1 e8bc a118 15bc e162 8fbc 471b 8b3c
-0.019435989 0.0138808 0.011516716 0.0031267926 -0.00039858694 -0.016843742 -0.018305577 -0.023393756
0.011551826 0.0021378088 -0.022469921 -0.0041192244 -0.028420184 -0.00910011 -0.017503204 0.01698078

features.1.running_mean f4 [16]
00000000: f982 ba3d cd7b 8abd 85c0 e0bd 398c b33c
00000010: 69a6 d5bd f9a3 e5bd 11f8 bf3d 8a97 f4bc
00000020: b4be 233e 5348 313e b0bb 493d 80f2 823d
00000030: c694 333d b450 c73a 999c 25bc 90df 10bb
0.09107012 -0.067618944 -0.1097422 0.02191745 -0.10432131 -0.11212916 0.09373487 -0.029857416
0.15990716 0.17312746 0.04925126 0.063939095 0.043843053 0.0015206547 -0.010108137 -0.002210591

features.1.running_var f4 [16]
00000000: edc4 f443 d24c 1a43 18d8 9543 2f62 9544
00000010: 4443 1244 87a9 d942 01af fd43 4fe6 2d44
00000020: 0609 1a43 97a1 f943 254d 9b44 ecf5 ee42
00000030: fadc 0d43 6749 3344 a2ef 2343 3f80 9e43
489.53848 154.30008 299.68823 1195.0682 585.051 108.83111 507.36722 695.5986
154.03525 499.26242 1242.4108 119.480316 141.86319 717.1469 163.93607 317.00192

features.5.weight f4 [32, 16, 3]
00000000: f5e1 953d 1850 1b3e 1216 d4bc d9eb 87bd
00000010: f50e 20bd 80cc 99bd 45c7 253d eeb0 f23d
00000020: 9ec6 e23d 8a89 923d 9472 c6bd 9c8e 83bd
00000030: f5f2 c0bc 0ee8 7bbc 3ced 653c c8ed d6bd
00000040: 43f8 8b3d b3e0 a7bd 2c2a a6bd 1715 c6bd
00000050: 89ce 143e 7554 05be 1a20 e33d 2fa8 b0ba
00000060: 0802 583b 2a4f ee3d cf52 5fbc 307d f13d
00000070: 02be f93d 92f0 dfbd 774f 933d 9bb5 533d
00000080: 336b 5e3d b56c d33c 26b4 1b3d ba3d 94bd
00000090: 40bf d9bc 134b f43d 9455 b43d 71bd 1a3b
000000a0: 2291 0cbe 024b 183b 514a d5bd 0937 b33d
000000b0: f978 c9bd 4085 7cbc f6ba 9ebc da66 4c3c
000000c0: 8299 fc3d 60d8 563c 1d3b 9e3d b1aa d93d
000000d0: 0071 e83d fbbc 48bd 05db 27bd c0b6 7b3d
000000e0: f74b 3ebd 7d10 8e3d 44fb 04bd 7141 dabd
000000f0: 3ad7 a73d 198b d03c 53c3 973d 40e3 063e
00000100: 4705 b33d 1abd 153e 6580 bebb 6017 febd
00000110: 7a66 cbbd 9537 c3bd 6a2d 03be 4487 85bd
00000120: 2e19 00be 0947 0abe 35f2 b6bd 4950 27be
00000130: 1bd8 d5bd ac21 6c3d 438d de3d 2cfd 65bd
00000140: c4ed 35bd bec6 c03d aca8 82bd 1798 82bd
00000150: 48d6 913d 9503 07be 1552 e93b 8fe3 ff3d
00000160: 1266 ed3c 1c6e f73c 1c6b b9bd e4ed 64bc
00000170: 780a 22bc d8b3 0e3d 5fdf 633d f15c f53d
00000180: d8f1 e7bd 740f 093c 0cf2 8ebd 9278 e8bd
00000190: 459a 79bc 1b8a fbbd 4d08 b73d e38c 523c
000001a0: a444 a3bd 2409 b93d 2bc7 f5bd bbfc 08bd
000001b0: e336 fabc 515c 02be 11c3 b2bd 28c5 a7bc
000001c0: b25b e23d 4533 0b3e 6012 bd3d 89ad a0bd
000001d0: 5b09 b9bd 400e 013e 02da 653d 5770 323c
000001e0: 0c52 cc3c 2315 02be 1290 78bd 3189 0f3e
000001f0: ec3c 10bd fead b4bb 664e 02be 7199 a8bd
00000200: 04a8 d4ba fb0a ddbd 6ba9 efbc 9860 433d
00000210: 2482 0cbe 2d5a 3a3d 3a34 d9bd ddf8 76bd
00000220: bc4a 713d 8db8 043e c891 39bd f56a 6fbd
00000230: edcd edbd 0da5 78bd 92a6 09be 2b25 16bd
00000240: c952 0f3d a062 04be 3f31 133e 605a a53d
00000250: ade6 1cbe 1381 aabd f98e 443d ad95 25bd
00000260: 3ff5 47bc 11da 61bd 2c90 0c3e f6ba 74bd
00000270: 2e71 f03d 264d 813c f2be 0a3d cc09 f03d
00000280: 05d2 21bc a667 84bd f837 c03a 1f40 113e
00000290: ec3c b5bd eb09 2d3d c8bf 0dbe 3fb7 9d3d
000002a0: 582a 5b3d 5515 a13c 706f 893d a800 28ba
000002b0: aef0 983d 1b56 d9bd c114 07bc 1079 b13d
000002c0: f5a7 1e3e ed9b a03d 1b50 88bd 6007 cf3d
000002d0: c288 d8bc 19c6 34bd c3e0 00be 4402 a5bb
000002e0: 307c dc3d cdda 053d 4149 9dbd 5422 3c3d
000002f0: 5d96 31bd 0aa8 fa3d 49fd fdbd 8295 09bd
00000300: 2f6a 07be f3e1 3ebd c712 1f3d 2d54 053e
00000310: 252d 073d 3b5f 223e 0965 1c3d 1d6f d23d
00000320: a6cc ff3d a2ad 0b3e 2c60 99bd f69d 123e
00000330: 2ea5 9a3d c922 a5bd ea21 bebd b082 fcbd
00000340: bd17 b03c 14f3 febd 2f05 323d 64d7 2a3d
00000350: 839e 05be 8262 f03c 57ff bcbc 1033 6a3d
00000360: cacb 9e3d 858b 1abe 3e99 f33d b716 0a3e
00000370: 245b 8c3d aa11 08be f005 7ebd e500 42bd
00000380: 630e 12bd 114a 4f3d fefb d33c 629e b93d
00000390: dd7f a3bd 4d74 273d b8f6 273d f57e f4bd
000003a0: 6eb8 07be 7286 a7bd 02d4 963d 0051 1ebe
000003b0: 7730 0cbe 8fef a53d 2c09 a13d 22ae cb3d
000003c0: 90f7 e4bd 2744 d8bd 8484 853d 6989 073e
000003d0: 1834 b23d 9fe9 e33c 7819 453d 1037 093e
000003e0: 8f0c dbbd 19d3 6cbd f136 bb3d 6a17 d3bd
000003f0: 5278 8dbd 3491 eb3d 6057 463d daa5 bf3c
0.073184885 0.15167272 -0.02588943 -0.06636781 -0.039076764 -0.075097084 0.04047324 0.11850153
0.110730395 0.0715514 -0.09689823 -0.06423685 -0.023553351 -0.01537515 0.014033612 -0.10494572
0.068344615 -0.08197155 -0.081135124 -0.09671991 0.14531912 -0.13020499 0.11090107 -0.0013477857
0.0032960195 0.11636193 -0.013630583 0.11791456 0.12194444 -0.10934557 0.07192891 0.051686864
0.054301452 0.025808671 0.0380136 -0.07238336 -0.026580453 0.11928382 0.08805385 0.002361145
-0.13727239 0.0023238068 -0.10414565 0.087507315 -0.09837527 -0.015412629 -0.01937626 0.012475694
0.12333967 0.013113111 0.07726119 0.1062826 0.11349678 -0.04900835 -0.040980358 0.06145358
-0.046459164 0.06936739 -0.032466188 -0.10657013 0.08195348 0.025456952 0.07410302 0.13172626
0.08741241 0.14622918 -0.0058136457 -0.12406802 -0.09931655 -0.09532086 -0.12810293 -0.065199405
-0.12509605 -0.1350366 -0.08932916 -0.1633922 -0.104416095 0.0576493 0.10866787 -0.056149647
-0.044416204 0.09412907 -0.06379828 -0.06376665 0.07120949 -0.1318496 0.0071203806 0.12494575
0.028979335 0.030203871 -0.090536326 -0.013972733 -0.009890191 0.03483948 0.055632945 0.11980618
-0.11325425 0.008365501 -0.069797605 -0.11351122 -0.015234535 -0.12282201 0.0893713 0.012850973
-0.079720765 0.090349466 -0.12000879 -0.033444148 -0.03054375 -0.12730528 -0.08728612 -0.020479754
0.11052646 0.13593777 0.092320204 -0.07845599 -0.090349875 0.12603092 0.05611611 0.010891042
0.024941467 -0.12703376 -0.06068427 0.14017178 -0.03521435 -0.0055139055 -0.12725219 -0.082323916
-0.0016224389 -0.1079311 -0.02925559 0.04769954 -0.1372152 0.045496155 -0.106056646 -0.06029593
0.058909163 0.12961026 -0.045305043 -0.05845161 -0.11611543 -0.06070428 -0.13442448 -0.03665654
0.03499106 -0.12928247 0.14374255 0.08073878 -0.15322371 -0.083254 0.04798791 -0.040425945
-0.012204467 -0.055139605 0.13726872 -0.059748612 0.11740337 0.015783858 0.033873506 0.117206186
-0.009876733 -0.06465082 0.0014665117 0.14184617 -0.088495106 0.042245787 -0.1384269 0.07700967
0.05350718 0.019663492 0.06710708 -0.0006408789 0.07467781 -0.106121264 -0.008244694 0.08665669
0.15493758 0.078422405 -0.06655904 0.101088285 -0.026432399 -0.044134233 -0.1258574 -0.0050356705
0.107658744 0.032679368 -0.07679988 0.045931175 -0.04335629 0.12239082 -0.12401826 -0.033589847
-0.132241 -0.0466022 0.038836267 0.13020392 0.033002038 0.1585664 0.038182292 0.102750994
0.124902055 0.13640454 -0.074890465 0.1431807 0.07551037 -0.08063275 -0.09283812 -0.12329614
0.021495694 -0.12448707 0.043461975 0.04170932 -0.13048749 0.029343847 -0.023070974 0.057177603
0.077537134 -0.15092285 0.11894463 0.13485228 0.06853321 -0.13287988 -0.06201738 -0.047364134
-0.03565825 0.050607745 0.025876995 0.09063412 -0.07983372 0.040882397 0.041006774 -0.11938278
-0.13253948 -0.0817994 0.07364656 -0.15460587 -0.13690363 0.08102333 0.078630775 0.099453226
-0.11180031 -0.10559874 0.06519416 0.13236012 0.08701342 0.02782136 0.048119992 0.13399911
-0.10695755 -0.057818506 0.091413386 -0.103072 -0.06907715 0.11502305 0.04842317 0.023394514

features.5.bias f4 [32]
00000000: f629 a5bd a5e0 58bd d9cd 0dbd f7aa ccbd
00000010: 2d4a 0abd a5e6 f8bd 2379 4c3d 2a39 d43d
00000020: 522d 163c 6aa4 cbbd 0f9f e8bd b865 4fbd
00000030: 33e5 1a3d 12a7 4a3c 8fb5 ea3c 9ecd 0b3e
00000040: dde7 4c3d 84fb 293d 0d20 12bd afb9 683d
00000050: ab99 683d 2d3a 0fbe ce23 acbd f1d1 29bc
00000060: 0463 4b3d 1a96 883d 5b63 b7bd 7d33 2bbe
00000070: 3b1e 02bc 8f2e 97bc 452f 553d aa72 49bd
-0.08064644 -0.052948613 -0.03462014 -0.099935465 -0.033762146 -0.12153367 0.049920212 0.10362466
0.009166079 -0.09943469 -0.11358463 -0.050634116 0.037816238 0.012368934 0.028651027 0.13652655
0.05002581 0.04149963 -0.035675097 0.056817707 0.056787174 -0.13987036 -0.08405267 -0.010364995
0.049654976 0.066692546 -0.089544974 -0.1671886 -0.007941778 -0.018454818 0.052047033 -0.049181618

features.6.weight f4 [32]
00000000: 995b 7e3f a655 7d3f 69fd 773f 5275 7d3f
00000010: 5ac2 7c3f 845d 7e3f e162 823f c170 7f3f
00000020: cfdd 7d3f 5828 823f 090e 833f 5265 7e3f
00000030: 776e 7d3f 9378 7b3f 16a3 803f 743d 7a3f
00000040: 8513 7b3f a077 823f a659 7a3f fec3 803f
00000050: 88aa 783f 2335 813f e769 7d3f bb62 7e3f
00000060: 851e 793f c68e 7f3f 8095 7f3f febe 7e3f
00000070: fb69 7f3f 7415 7b3f e66b 7a3f d7b9 7d3f
0.99358517 0.98958814 0.9687105 0.9900714 0.98734057 0.99361444 1.0186425 0.99781424
0.9916658 1.0168562 1.0238658 0.9937335 0.9899668 0.98230857 1.004977 0.9775002
0.9807666 1.0192757 0.9779304 1.0059812 0.9713521 1.0094341 0.9898972 0.993694
0.97312194 0.9982723 0.99837494 0.9951018 0.9977109 0.9807961 0.9782089 0.99111694

features.6.bias f4 [32]
00000000: ed00 bbbc c473 a4bc 2154 a5bb 7b9e 7dbc
00000010: 3afb 85ba 6043 10bc 21f4 34bb c829 5bbc
00000020: ce1b e5bc cf2b 3dba 4237 c53b c3b3 8eba
00000030: bed5 c6bc d749 19bd 610f 8abc 2a48 063b
00000040: 4c86 0d3b d033 27bc 0cfd ffba 4a7e 513c
00000050: 3da0 29bd 773a b03a 0e09 ad3a 6b0f 5a3c
00000060: 66c9 63bc 47fc 333c 3d05 2d3c 17ec 903c
00000070: d6bb 3fbb 9f17 98bc 55cc 863b b04f dc3a
-0.02282759 -0.020074733 -0.0050454293 -0.015479679 -0.0010221966 -0.008805126 -0.0027611332 -0.013376661
-0.02796736 -0.0007216306 0.00601855 -0.0010887313 -0.024271842 -0.037423935 -0.016853036 0.002048979
0.002159494 -0.010205224 -0.001953037 0.012786457 -0.04141258 0.0013445158 0.0013201551 0.01330934
-0.013902998 0.010985441 0.010560331 0.017690701 -0.0029256246 -0.01856595 0.0041137137 0.0016808417

features.6.running_mean f4 [32]
00000000: fb16 0ebc 10ee 4fbd 6d21 b8be 7725 76bb
00000010: a129 1e3d 5dcc 25be 2c5e 693e 0b47 713e
00000020: 3f3a 633e 2bd1 c7be 483f 81bc b41f 173d
00000030: 8618 213e 993e d73d c802 7d3e e659 9d3c
00000040: 09a4 293e ed45 9a3d 5701 5abe 938d 31be
00000050: f625 323e 0f21 463e c269 1abe 719e 22be
00000060: cedf a8bd 0128 963e 4eef fc3b e1d5 9ebe
00000070: 4884 2c3e 003d 7cbe e0e2 043e 663b bdbe
-0.008672471 -0.050764143 -0.35963002 -0.0037558952 0.03861392 -0.1619124 0.2278983 0.23562257
0.22190188 -0.3902677 -0.015777245 0.03689547 0.15732011 0.105099864 0.24708092 0.019207906
0.1656648 0.075328685 -0.21289574 -0.17339163 0.17397293 0.19348548 -0.15079406 -0.15880753
-0.08245812 0.29327396 0.007718957 -0.31022552 0.16847336 -0.24632645 0.12977171 -0.3695938

features.6.running_var f4 [32]
00000000: 2710 893e f10e 513e 1d11 de3e 6ba8 673e
00000010: b572 8c3e 9363 af3e d181 8e3e b8e5 5d3e
00000020: 1703 8b3e 3b69 ff3e 46af 423e 9f7d ad3e
00000030: 2d23 3d3e 7363 7d3e aada b03e a4e1 573e
00000040: 0c75 6e3e 16c2 913e f630 823e 4777 a03e
00000050: dfca 983e a8c5 e53e c515 f33d 1fe2 783e
00000060: befe 663e ef58 973e d228 903e 8cb5 833e
00000070: a4bf 233f f08e 913e f030 333e 871c 053f
0.26770136 0.20415856 0.4337243 0.2262284 0.27431265 0.34255657 0.27833417 0.21669662
0.27150795 0.49884972 0.19012174 0.33884904 0.1847045 0.24744968 0.34541827 0.21082169
0.23286837 0.28468388 0.2542798 0.31341 0.29842278 0.44877362 0.118693866 0.24305008
0.22558114 0.29560038 0.28156143 0.25724447 0.63964295 0.28429365 0.17499137 0.51996654

features.10.weight f4 [64, 32, 3]
00000000: b4b5 4d3d 0dde c3bc 267f 5c3d f937 d3bd
00000010: 1d36 273c 9439 62bc 8b12 0bbd c0b3 913d
00000020: 6df5 aabd 937c 683d 1c01 d7bb a138 69bc
00000030: 9894 ea3b 13ca 10bd 91ba 013c 8dc5 b93c
00000040: af66 f4bd 8f01 e53c 76ab 5fbd 93c9 88bd
00000050: b20c b9bc d815 153d 787a cabd 6f9a d7bd
00000060: b515 b53c 1fb6 b5bd 8f84 b0bb 21f5 cf3b
00000070: 0e3f 493d c38d ce3d 6f18 abbd 5cb3 aabd
00000080: 7890 703c bd2e f4bc 8f32 4dbd c237 f5bd
00000090: 9e37 633d 4cb6 e6bc 6e5c 44bd 1dfc 9fbd
000000a0: 93b8 4bbd 3cf8 a23c 702b 19bd 62e5 6e3d
000000b0: 1f9c 1bbd dc46 fabc 3304 493d b704 0fbc
000000c0: 0528 2dbd 5c7d 4d3c 4488 653d cd7a aa3c
000000d0: 1b29 953d f61c 8e3d e111 603c 0457 b33c
000000e0: 5c6c 4e3c c2ab aabc bb58 8b3d b079 8f3d
000000f0: cde3 cf3c 153b 65bc fdc7 b43d 1bdd d9bd
00000100: 2947 493d 633e 123d 3b90 053d 75a5 17bd
00000110: d7fa d1bd dfd7 403d 1baf a9bd fa53 baba
00000120: ccb4 eb3c cc33 efbd 0341 b9bc 4db2 8cbd
00000130: 4b1f 3a3d 5e1c b8bd 9894 1d3d 36dc 0c3d
00000140: 3696 ea3c 4969 ab3d 8647 e1ba ccf6 cdbd
00000150: 75b0 863d dacd 5c3b ff5d 26bb 9d72 f7bd
00000160: bc4c bcbc 4459 90bd d340 723d 4e1d 0e3d
00000170: 41f0 263d 3bd1 af3d 97b0 5dbd 8d88 e0bc
00000180: ab36 bcbc d625 05bd aea5 b73d cf70 643d
00000190: 37bb ce3d d18d 783c a292 bcbd 36b5 a7bc
000001a0: ffe7 913d e48a 9f3d d9bf 3c3d f40c 1cbc
000001b0: 30f5 a6bd f705 22bd 906f 883d f3d0 d4bc
000001c0: 6f6a 803d d563 453d 2d6c c9bc a23d a63d
000001d0: 4ede 4bbc 5817 633c a753 ddbc 9c20 acbd
000001e0: f8cf 173d 2419 3d3d 052b 0ebd 92a1 143d
000001f0: 0aca d8bd 6e5b f6bd 5168 1fbd 4b2f 38bc
00000200: 917d 153c e062 2bbc 610e 4b3d b324 b3bd
00000210: cfa8 cf3c 133d 3d3c 3a4a 283d bf72 e43d
00000220: 9795 983d 07a2 44bd ec7c a0bd 0d98 cbbc
00000230: e410 62bd 60fd 0d3d a6d7 74ba c62d a73d
00000240: bd62 3b3d a74d 4dbc 8d9b 133c dc24 1c3d
00000250: 346b 353b 360b c23d d299 97bd 978e 863d
00000260: 2324 5ebd 82c1 96bd a7ac b9bc a07e 523d
00000270: 0375 b93d 0078 383d 52a6 223c 3ace 7c3b
00000280: 2b4a 03bd 2ef0 e4bb 6217 cc3b 1d5f c93d
00000290: a846 943d 0872 b3bd e6f1 4abb bd4d 70bd
000002a0: 0e1c 083a 6216 83bd 3ada 173d cb5d 83bd
000002b0: 1ab2 d73d d9ab a93d b6a9 6cbd 5196 abbd
000002c0: 4e74 a23c 1bb4 fbbb bc5c 533d db19 4bbd
000002d0: b2b2 6f3d 1ec4 9bbd 1cec 0fbd c8c5 3fbd
000002e0: d1a6 713d 7348 9e3b 0231 96bd 4c22 1fbd
000002f0: 75f5 fbbc 47b3 c3bd 7539 2c3c 96cf 063d
00000300: 16ff be3b f5cc a3bc 554b c33b 4dda 93bd
00000310: a470 57bd 00c2 2b35 9a36 613d dcca 87bd
00000320: 25d1 a43c 4d4c 17bd a062 49bd b2e0 dfbd
00000330: 5de8 b63d 3b2a e83d e77a 4d3c fb39 7c3d
00000340: c575 943d 4abc 293d fc76 883d 65fe a0bd
00000350: c616 b6bd 661e 9dbd 701c d23c 4706 bfbd
00000360: 8b01 92bd bfcc 34bd 7ad7 9fbd fff9 f2bc
00000370: 2099 23bb ecad 9ebd 4801 b33d 2494 83bc
00000380: 73b2 0dbc 0867 ca3d 413f e43d e71b 313c
00000390: 8367 7fbd 89e8 26bd 5880 603c 5183 763d
000003a0: 2785 3a3d 1b3c 2bbd a6bc cabd b10d cbbd
000003b0: 7002 0dbd ac65 433c 945d 12bd 8502 99bd
000003c0: 192e 323c c547 a5bd 866e a6bd aa77 92bd
000003d0: d8e8 9ebc 6ba0 be3d 7c8b 673c 9c3b 41bd
000003e0: 74d1 a4bc cff1 073d b5c1 cdbc 9b92 f1bd
000003f0: 470c 72bd 2e5b 87bd 2068 c6ba e100 c0bd
0.050222114 -0.023909593 0.053832196 -0.1031341 0.010205773 -0.013807673 -0.03395323 0.07114363
-0.083475925 0.05675943 -0.0065614115 -0.014234693 0.007158827 -0.035348963 0.007918016 0.022677207
-0.11933648 0.027954845 -0.054606877 -0.06679072 -0.022589061 0.036397785 -0.0988664 -0.10527503
0.022105077 -0.088726275 -0.005386896 0.0063463603 0.0491324 0.10085633 -0.0835427 -0.08334991
0.0146828815 -0.029807443 -0.050097045 -0.119735256 0.055472963 -0.028163098 -0.04793971 -0.07811759
-0.04973657 0.019893758 -0.03739494 0.058324225 -0.037990686 -0.030551367 0.04907627 -0.008729151
-0.042274494 0.012542095 0.056038156 0.02081051 0.07283231 0.069391176 0.013676138 0.021892078
0.012599077 -0.020833854 0.06804033 0.07005632 0.025377179 -0.013991137 0.08827207 -0.10637876
0.04914013 0.035704028 0.032608252 -0.037023026 -0.10252922 0.04708087 -0.08285352 -0.0014215701
0.028772734 -0.11679801 -0.022614008 -0.06869946 0.04544 -0.089897856 0.03847179 0.034389697
0.02863608 0.08369691 -0.0017187453 -0.100568384 0.06576625 0.0033692033 -0.0025385616 -0.120824076
-0.022985809 -0.07048276 0.059143852 0.034695916 0.040756468 0.085848294 -0.054123487 -0.027408862
-0.022975286 -0.032506786 0.08967148 0.055771645 0.10094302 0.01517053 -0.092076555 -0.02047215
0.07124328 0.07790163 0.046081398 -0.009524573 -0.081522346 -0.03955647 0.06661904 -0.025978541
0.062703006 0.04819091 -0.024587715 0.08117224 -0.012443138 0.013860546 -0.027017428 -0.08404657
0.03706357 0.046166554 -0.034708995 0.036286898 -0.10585411 -0.120291576 -0.038917843 -0.011241744
0.009124176 -0.010460585 0.04957426 -0.08747234 0.025349049 0.011550206 0.041086413 0.111546986
0.07450407 -0.048006084 -0.07836327 -0.024852777 -0.05519189 0.034665465 -0.00093399954 0.081630275
0.04574846 -0.012530721 0.009009254 0.03812109 0.0027682306 0.094747946 -0.07402386 0.065701656
-0.05423368 -0.073611274 -0.022665335 0.05139029 0.09055521 0.045036316 0.009927349 0.003857507
-0.032053154 -0.0069866395 0.0062283734 0.098325945 0.07240039 -0.08761984 -0.0030966937 -0.058667887
0.0005192169 -0.064007536 0.03707335 -0.06414374 0.10532017 0.082847305 -0.057779036 -0.0837828
0.019830849 -0.0076813824 0.05160211 -0.049585205 0.058520027 -0.07605766 -0.03513728 -0.04681948
0.05899698 0.004830414 -0.07333566 -0.038851067 -0.030756691 -0.09555679 0.010511746 0.032912813
0.0058287485 -0.019995192 0.005959908 -0.07219372 -0.052597657 6.398477e-07 0.054983713 -0.06630489
0.02011926 -0.036938 -0.04916632 -0.10931529 0.089310385 0.1133618 0.012541509 0.061578732
0.07249025 0.041439332 0.066633195 -0.07861022 -0.088910624 -0.07671814 0.025648326 -0.09327369
-0.071292005 -0.044140574 -0.07804771 -0.029660223 -0.0024963096 -0.07748017 0.08740479 -0.01606185
-0.008648503 0.09882933 0.11144877 0.010809875 -0.062354576 -0.040749107 0.013702475 0.060183827
0.04553714 -0.041805368 -0.09899263 -0.09914721 -0.034426153 0.011926096 -0.035733774 -0.07471184
0.010875248 -0.080703296 -0.081265494 -0.0715173 -0.019398138 0.09307941 0.014132377 -0.04717599
-0.020119406 0.03318959 -0.02511678 -0.11795541 -0.05909374 -0.06609188 -0.0015137233 -0.09375168

features.10.bias f4 [64]
00000000: 0805 683d 2de2 9abd 2158 bc3d e34f 72bd
00000010: 888b a3bd e7e0 9b3d 37bb 9e3d 07fc 2bbd
00000020: 7c6e b43d 31c6 353c 4948 163d 8b29 04ba
00000030: e2ad 98bc f761 1cbd 7b7c aebd 0774 9f3d
00000040: ca96 563d 3ae6 e03d 053f c9bd 0265 c73d
00000050: aece 843d fef3 033d 20c3 62bd 849d 893d
00000060: 03c1 733d 19d1 b13d c99d a4bd b2b3 8a3c
00000070: c4ce 0c3d 0ae5 c5bd fee3 c43d 24b1 6c3d
00000080: a5e3 b2bd 1997 b8bd 4b1e d6ba 4fdd 9f3d
00000090: cc15 033d 5575 1f3c 5d7d a5bb af2c cfbd
000000a0: 6613 713d 861c 853d 243b 9abd 17cc 85bc
000000b0: 0864 c73d 0126 2fbd eae0 90bd 0f64 723d
000000c0: 4493 3d3d f02b a83d e455 54bd 24ed 293d
000000d0: d156 cd3c 5e35 ab3d 8500 6d3d 6ca7 ae3c
000000e0: 9d93 66bc 5348 3abc 6be5 56bd 87f8 1c3d
000000f0: a3ec ba3d 1096 66bd e75f 90bd ab0d 9a3d
0.056645423 -0.07562671 0.09196497 -0.059158217 -0.07985598 0.07611256 0.07750552 -0.0419884
0.08810136 0.011094616 0.03669003 -0.0005041591 -0.018637601 -0.038179364 -0.085198365 0.07785802
0.052389897 0.10981412 -0.09826473 0.097360626 0.064847335 0.03221511 -0.055361867 0.06719497
0.059510242 0.0868246 -0.08037908 0.016931389 0.034376875 -0.09662826 0.096137986 0.057786122
-0.08734826 -0.090131946 -0.0016335932 0.07805883 0.03200321 0.009732564 -0.005050345 -0.101159446
0.05885639 0.06499581 -0.075308114 -0.01633267 0.09735876 -0.042760853 -0.07074149 0.059177455
0.04628302 0.082115054 -0.051839724 0.04148592 0.025065811 0.08359788 0.057861824 0.021320067
-0.01407328 -0.0113697825 -0.052464884 0.03832295 0.09127166 -0.056295455 -0.07049542 0.07522138

features.11.weight f4 [64]
00000000: cb00 7a3f 4fc5 803f 0033 783f 60c2 7e3f
00000010: 47bd 793f 00b2 833f aafb 773f 3097 793f
00000020: 638a 7c3f a7e4 803f 7817 7a3f 75a5 803f
00000030: 8d8d 823f bb97 773f 9099 7c3f 8c2a 823f
00000040: ab42 793f 374f 7b3f 1b4a 7a3f 612b 7a3f
00000050: 7222 7f3f e641 773f b73e 7b3f 2866 7e3f
00000060: 0df8 7c3f 27ff 803f af0f 7a3f c9ae 7e3f
00000070: 3894 7c3f ca25 773f bf98 773f 56ed 7b3f
00000080: 8011 7c3f 297a 773f 57cf 773f f3f7 763f
00000090: d481 7f3f c6ae 7c3f f400 7c3f 6bd0 7d3f
000000a0: 56cd 773f 195e 7a3f e5c4 7d3f c166 7d3f
000000b0: 9598 7b3f f160 793f 5b9f 7b3f bee6 803f
000000c0: 268d 763f 8cc8 803f 5d96 7a3f 83b8 783f
000000d0: 60ea 793f 58ee 7a3f cd09 813f c6ee 7a3f
000000e0: a310 7e3f f79a 7b3f de2e 7f3f 3423 7c3f
000000f0: 3cf3 7d3f e765 7c3f 48a0 773f 3cdb 723f
0.9765746 1.0060214 0.9695282 0.9951534 0.9755444 1.0288696 0.96868384 0.9749632
0.9864866 1.0069779 0.9769206 1.0050493 1.0199448 0.967159 0.9867182 1.0169234
0.9736735 0.9816775 0.97769326 0.9772244 0.99661934 0.9658493 0.9814257 0.9937463
0.98815995 1.0077866 0.9768018 0.9948545 0.98663664 0.96542037 0.9671745 0.9840902
0.984642 0.96670777 0.9680075 0.9647209 0.99807477 0.98704183 0.98438954 0.99146146
0.9679769 0.9779983 0.9912856 0.98984915 0.98279697 0.97413546 0.9829003 1.0070417
0.96309125 1.0061202 0.97885686 0.9715654 0.9762325 0.98019934 1.0081116 0.9802059
0.99244136 0.9828333 0.9968089 0.98491216 0.9919927 0.9859299 0.96728945 0.94865775

features.11.bias f4 [64]
00000000: 00f1 7bbc 2c41 973b 52cc 92bc 42fd 373c
00000010: b3ed e6bc 63aa 923c 6bdd 9cbc 873c afbc
00000020: b697 03bc 4a48 e8ba ef9c 77bc 5005 8d3c
00000030: 124f f53c ad4a efbc 9438 753b 355e 0f3c
00000040: 54fa 07bc baad 42bc 4bfc e1bb c672 82bc
00000050: 0808 c5b9 71d5 d7bc 8062 80bb f166 13bc
00000060: e385 fbbb 25a9 da3c 1d17 3dbb d97f 333c
00000070: eb04 3cbb cb89 84bc 1ccb dabc 841c cbbc
00000080: 86fe 893c c77d f8bc ae81 babc f2f2 c9bc
00000090: a2ef 323b 6878 f7bb bcfa 0ebc 210a 5e3c
000000a0: fe2d dcbc 17d9 aabb 53ba 0ebc 6790 893b
000000b0: 40ef 01b6 c035 5dbc a7a0 d2bb 2d34 293b
000000c0: 8fef 7fbc b45e 0a3d 4af6 8aba afa2 64bc
000000d0: 496f 99bc 50b8 f8bb 4cc4 2f3c e53c 913b
000000e0: a00e bb3b c526 43bc f144 12bc 6be7 69bc
000000f0: 3205 7a3b 368e bcbc f396 14bd 65ec 56bd
-0.015377283 0.0046159234 -0.017919693 0.011229815 -0.028189516 0.017903512 -0.019148549 -0.021391166
-0.008031776 -0.0017721739 -0.0151130995 0.017214447 0.02994493 -0.029210413 0.0037417756 0.008750488
-0.008299429 -0.01188224 -0.0068965307 -0.015923869 -0.00037580752 -0.026346894 -0.003917992 -0.008996711
-0.0076758726 0.026691983 -0.0028852888 0.010955774 -0.0028689455 -0.016178986 -0.026708178 -0.02479387
0.016844999 -0.030333413 -0.022766914 -0.024651978 0.0027303477 -0.0075521953 -0.008726772 0.01355222
-0.0268774 -0.0052138674 -0.008711415 0.0041981223 -1.936176e-06 -0.0135015845 -0.0064278427 0.0025818453
-0.01562108 0.033781722 -0.0010601964 -0.013954802 -0.018729823 -0.007590331 0.010727953 0.004432308
0.0057085305 -0.011911099 -0.00892757 -0.014276366 0.003815007 -0.02301703 -0.03627677 -0.052471537

features.11.running_mean f4 [64]
00000000: 0e3a 59be 3e10 b4bc df93 bdbe 2832 2dbf
00000010: 1667 8bbd a90e 6d3f f391 14bd 677f 843e
00000020: bdb3 d13e ac15 b03e a695 df3c 5e25 003f
00000030: 462d 13bf 2579 09be b72e 8cbe bf0b f53e
00000040: f016 59be 5926 113e a078 9b3d 87fb 283d
00000050: defa 723e 364c b23d bd12 37be d2ba 08be
00000060: 3aee 90bd b491 16bf ded0 c7be c68a 343e
00000070: b833 aebe 2056 c1be accc 933e 786d b93e
00000080: 3e8e 28bf 8581 11be fa09 d1be 00be 5ebe
00000090: dae4 103f 56a7 84be ddf1 a7be c237 d23d
000000a0: 4437 e3bd 6e1e 86be 30b8 953d c0d6 06bf
000000b0: f49c 463d eece a0be 0426 093e 49c2 cd3e
000000c0: 617e 56be bfe9 aa3e a01e 23bf 6fee 4ebd
000000d0: 069a 63be 7fa5 d0be d89c 283f 665e a4be
000000e0: a1af 923e 832b 97be ba44 d53e a00f e0be
000000f0: 6b36 41be f0aa 673e 3616 89be 73fc bc3d
-0.21213552 -0.021980401 -0.3702688 -0.6765466 -0.068067715 0.92600495 -0.036272 0.2587845
0.40957442 0.34391534 0.027293038 0.5005702 -0.57490957 -0.13425119 -0.2737939 0.47860524
-0.21200156 0.14174785 0.07591367 0.0412555 0.2372851 0.08705942 -0.17878242 -0.13352516
-0.07076688 -0.58816075 -0.3902654 0.17631063 -0.34023833 -0.3776102 0.2886709 0.3621633
-0.65842044 -0.14209564 -0.40827924 -0.21752167 0.565992 -0.25908917 -0.32801715 0.10264541
-0.110945255 -0.2619509 0.073105216 -0.5267143 0.048489526 -0.31407875 0.13393408 0.4018729
-0.20946647 0.3338146 -0.63718605 -0.050520357 -0.22226724 -0.40751263 0.65864325 -0.3210327
0.2864962 -0.29525384 0.41653997 -0.4376192 -0.18868415 0.22623801 -0.26774758 0.09227838

features.11.running_var f4 [64]
00000000: c890 ca3e d682 9c3e fddf 583f 61b5 993f
00000010: 297f 993e fe39 cf3f ab60 b53e 3dd0 293f
00000020: 1678 513f d546 453f 69d3 ca3e 617a a03f
00000030: 9533 c23f 40b8 c23e 91d4 913e 322b 923f
00000040: ac4d 043f e210 a43e 085f 9c3e fbd9 043f
00000050: bab5 0a3f 81f3 da3e c4d2 4a3f b215 bc3e
00000060: defa 0d3f a352 913f 7fb9 043f 6720 5a3f
00000070: 7411 873f 083c 533f ad2c ab3e b3b3 bf3e
00000080: 3013 503f 044a be3e 238e 383f 922c 693f
00000090: df65 6c3f 75a4 1b3f 70e8 173f 5f4b 033f
000000a0: 368b bd3e defb 043f be6e b83e 7501 693f
000000b0: af95 af3e a0fa ec3e 0e97 df3e d99a 883f
000000c0: c61a d33e 04fb f83e df38 a33f ab65 963e
000000d0: a324 a03e 3048 393f e3b1 993f d2a6 083f
000000e0: bd80 843f ccba d83e 5ffe 693f bd95 a13f
000000f0: bce3 333f a770 1c3f dd26 aa3e 1d4b ef3e
0.39563584 0.3056857 0.8471678 1.2008477 0.29979828 1.6189573 0.35425314 0.6633337
0.8182386 0.77061206 0.39614418 1.2537347 1.5171992 0.38031197 0.28482488 1.1419432
0.5168102 0.3204413 0.30541253 0.5189511 0.5418354 0.42763904 0.7922785 0.36735302
0.5546092 1.1353344 0.51845545 0.8520569 1.0552201 0.82513475 0.33432522 0.37441787
0.8127928 0.37165844 0.72091883 0.91083634 0.9234294 0.60797817 0.59339046 0.5128688
0.37020272 0.5194682 0.3602199 0.9101785 0.34293887 0.46284962 0.43669933 1.0672256
0.41231364 0.4862901 1.2751731 0.29374442 0.31277952 0.72375774 1.2007412 0.5337955
1.0351788 0.42330015 0.91403764 1.2623821 0.7026937 0.61109394 0.33232775 0.46736994

embedding_layer.0.weight f4 [16, 64]
00000000: 482b abbb a9f6 a5bd be52 753d c58a e7bd
00000010: 28c4 75bd 3ea3 33bd e20a b9bc 0995 8e3c
00000020: 7992 883c d738 53bd 5c1f e1bc ba1c 9cbd
00000030: b77b efbd e4bb 3b3c 1254 873d 4dbd 9c3d
00000040: adf4 00be 60fa 343d 6c0e 86bd e118 38bd
00000050: 9b09 f7bc 83ef ac3d cdc4 b03d 1601 00be
00000060: e9c2 ec3b 510d 1d3d 052e 9c3c f40c cebc
00000070: 3be0 98bd 6d3a e7bd 7b7f f6bd 6327 f9bb
00000080: e78f bdbd 3ac6 c6bc 9e3a 8bbd 415a b23d
00000090: 88d2 dbbd 061e c73d 64cf aebd 2df5 4ebc
000000a0: a0e9 2fbd 32a8 143d 9180 8f3d 666c d43d
000000b0: 5aec fcbd 6af8 903d 192a 8d3d 501a f3bd
000000c0: 10b6 c23c 050f dabc edd3 343d 085b ad3d
000000d0: 53c9 23bc 6df8 6ebd 905c 8bbd 4fae 4c3b
000000e0: f5b3 50bd c940 f2bd cee4 68bc 5c47 843d
000000f0: 3c2c 90bc a556 1c3d 0704 b2bd 8399 573d
00000100: 494e 6c3c 6d09 24bd c4a6 2d3d ec46 2a3d
00000110: 716f 77bd 7223 a0bd 81f8 843d 7c9f c4bd
00000120: 7ba6 103d 6578 a23b 21ef e2bd 3c39 17bd
00000130: 9781 fc3b 14f3 8a3d 0cae 973d 6d59 e6bd
00000140: b815 9fbd b40e 3b3d 3c61 be3d da86 893d
00000150: b608 2d3d fca8 b63d 93c8 91bd ea66 98bc
00000160: 67d8 fdbd 268c aebd 8c68 afbd cba1 f7bd
00000170: 9ad4 cd3b 7437 bf3c c827 493d c019 993d
00000180: 02ac b7bd 23da 20bd 22aa 903d 0d6d dabd
00000190: 09ca a43d 8911 643c 0fae ccbd 3037 633c
000001a0: 331a 2ebc 5e5e 653c d511 18bd 9cbb 443d
000001b0: f15d 513d 43a2 923d cf1f 5fbc cf36 11be
000001c0: 7790 df3d 60e5 abba bca2 ca3d f92d e13c
000001d0: 39c1 2c3c 793d 6e3d 047f 133d 8e8c 99bc
000001e0: d2f5 d5bb e699 60bc 3a6c 9c3d 9d9c 3e3d
000001f0: 0f71 15bd 5271 d23d 42d5 cb3d a44e 603d
00000200: 25b6 163b 12cb c3bc db81 6abd eda4 c93d
00000210: 956b 6abd f584 99bd 6652 a23c 1a89 f8bd
00000220: a7e4 343d 19a8 6cbd ad37 c53b 9e00 39bd
00000230: 1285 073e bb94 37bd 145e fb3c 2f0e 4ebc
00000240: 05bc b7bd 5770 b83d a400 8c3b d42b eebd
00000250: 1e56 dabd 46bf 173d 23c9 fb3d b2fa 8f3c
00000260: 0759 56bd ac74 a9bd 079b d43d c827 a1bd
00000270: 4f90 57bd 4609 9b3d 41f8 9c3d 6099 913d
00000280: 79fd 933c 4d05 aa3d 209c d23c 9864 e43c
00000290: 2e71 0f3c ab93 95bd 4060 7cbb ba2c aebd
000002a0: 7f6a 0c3d 8c81 8abd cd47 2ebd 1275 0ebd
000002b0: d314 c93d 9f7e c2bd 8418 3fbd 6791 2ebc
000002c0: d109 afbd 487b 893d b6cb f13d 2a2b f03d
000002d0: 28c7 4bbd b910 80bd a048 c5bd 6f07 87bd
000002e0: 4c66 89bd d198 94bd 2ba1 3a3d 7c73 aabc
000002f0: 3787 6b3d 503d 1cbd 4a6b 13bd 1a23 6bbd
00000300: 2a61 a73d b6e3 e6bd 438a fbbc cb28 363d
00000310: 59fa 25bd 71b8 aa3b 4636 963d edc0 833c
00000320: eb1f 893c 6fa6 593d 6c86 38bd 8372 1ebd
00000330: eb05 b43d 7d14 453d b33d b23d 296f bf3c
00000340: dd95 cc3d 4515 8c3d 2c96 cbbc 8c45 3dbd
00000350: 10e8 363d 10a4 bcbd e55b 3bbd ef79 623d
00000360: 1460 fc3c 3ccc 903d 884a 56bd 2fae dd3d
00000370: a202 82bd 1902 7ebd 61c0 793d 3cae b4bc
00000380: 1064 033d 352a 16bc 9fc0 89bd 2ae4 92bc
00000390: 198c 8c3d 2609 d03d 60ee b73d 976e 503b
000003a0: a299 973d 505d 333d 1572 80bb 9021 023c
000003b0: 6339 a03c a6e5 c73c 8dac 4ebc ee1e bb3d
000003c0: b38b a7bc 2133 69bd c926 2f3d 648c 24bd
000003d0: 608b 6d3d 74ca e53d 01b4 e73c d688 ecbc
000003e0: d9a1 bebb 1b57 813d c0d1 ecbd 5924 dfbc
000003f0: c969 84bd 8e7c d3bd 29c1 a4bd 3f01 45bd
-0.0052236654 -0.08103687 0.059893362 -0.11305765 -0.060001522 -0.04385685 -0.022588197 0.01740505
0.016671406 -0.05156788 -0.027480774 -0.07622667 -0.116935186 0.011458371 0.06607832 0.07653294
-0.12593336 0.04418409 -0.065457195 -0.0449456 -0.030155947 0.08444121 0.08631287 -0.12500414
0.0072253835 0.038342778 0.019064913 -0.02515266 -0.074646436 -0.11290441 -0.12036034 -0.007603572
-0.09255963 -0.024264444 -0.0679829 0.08708621 -0.10733515 0.097225234 -0.0853565 -0.012631697
-0.04294741 0.036293216 0.07006944 0.10372238 -0.12349768 0.07078631 0.06892795 -0.11870253
0.023768455 -0.02661849 0.04414742 0.084646285 -0.00999673 -0.058342386 -0.06804764 0.0031231826
-0.05095287 -0.11828763 -0.014214708 0.06458923 -0.017599218 0.03816857 -0.086921744 0.052636635
0.0144229615 -0.04004805 0.04239537 0.041571543 -0.060409013 -0.07819261 0.06492711 -0.09600732
0.03531502 0.0049582 -0.110807665 -0.036919817 0.007705878 0.06784645 0.07406244 -0.11247525
-0.077678144 0.04566832 0.0929589 0.06715174 0.042244636 0.0891895 -0.071183346 -0.01860376
-0.12394791 -0.08522825 -0.085648626 -0.120914064 0.0062814476 0.023341872 0.049110204 0.074756145
-0.08968355 -0.03927053 0.070637 -0.10665331 0.08046348 0.013920196 -0.099941365 0.013868138
-0.010626364 0.01399955 -0.03712638 0.04803048 0.05111498 0.07159855 -0.013618424 -0.14181064
0.10916226 -0.0013114624 0.0989432 0.027487742 0.010544115 0.058164094 0.036009803 -0.01874378
-0.006529548 -0.013708567 0.0763783 0.046536077 -0.036484774 0.102755204 0.09952785 0.054762498
0.002299675 -0.023900542 -0.057252746 0.0984591 -0.057231504 -0.07496063 0.019814681 -0.12135525
0.044163372 -0.057777498 0.0060186 -0.045166604 0.13234356 -0.044819575 0.030684508 -0.012576624
-0.08971409 0.09005802 0.0042725373 -0.11629453 -0.10660957 0.037047647 0.12294223 0.017575596
-0.052330997 -0.082742065 0.103811316 -0.07868916 -0.052627858 0.07570128 0.07664538 0.07109332
0.018065201 0.08301792 0.025709212 0.027879998 0.0087550115 -0.07303556 -0.0038509518 -0.08504625
0.03428125 -0.0676299 -0.042548943 -0.034779616 0.09818425 -0.09496807 -0.04665424 -0.010654784
-0.08546794 0.06712967 0.11806433 0.11726983 -0.049750477 -0.062531896 -0.09632993 -0.06593215
-0.06708965 -0.0725571 0.045563858 -0.02080702 0.057501998 -0.03814441 -0.03599099 -0.057406522
0.081728294 -0.11273901 -0.030705577 0.044472497 -0.040521953 0.0052099754 0.073345706 0.016083205
0.016738852 0.05313724 -0.04505007 -0.038683426 0.08790191 0.048115242 0.087031744 0.023368435
0.09989522 0.06839994 -0.024851881 -0.046208903 0.044654906 -0.0921098 -0.045741934 0.055292066
0.030807532 0.070702046 -0.052317172 0.108242385 -0.063481584 -0.06201372 0.060974482 -0.022055738
0.03207785 -0.009165336 -0.06726193 -0.017931063 0.06862659 0.10157995 0.08981013 0.0031804198
0.0740235 0.04379016 -0.0039198496 0.007942572 0.019558614 0.024401497 -0.0126143815 0.09136759
-0.020452356 -0.056933526 0.042761598 -0.04017295 0.057994246 0.112202555 0.028284075 -0.028873842
-0.0058176336 0.06315442 -0.11563444 -0.027239012 -0.064654894 -0.10326491 -0.08044655 -0.04809689

embedding_layer.0.bias f4 [16]
00000000: 5645 05bd 3758 4bbd 7f31 87bd 953d 593d
00000010: 49c0 f23c b50d e9bd bf2d 0f3c 1a2c 3d3d
00000020: adae 9d3d 9978 863d 368c f0bb b7a5 053d
00000030: a2ca 8cbd 26b2 513d 091a a6bd 17e8 01be
-0.032536827 -0.049644675 -0.066012375 0.053037245 0.029632704 -0.113795675 0.008738934 0.046184637
0.076993324 0.06565971 -0.007340933 0.03262874 -0.06874587 0.051195286 -0.081104346 -0.12686191

classifier.weight f4 [2, 16]
00000000: 9f79 2abe fd30 9ebd b507 3b3d d9c6 103e
00000010: bbb6 a4bb 2eb1 493e 3f24 d53b 5f68 3b3e
00000020: 0fef 3d3e 91ea 1f3e e4a1 d13d 7004 2ebe
00000030: 1f28 8c3e 6241 54be 68bb 28be ebc7 fdbd
00000040: 2cfc a9bd b6be 3e3d efa9 833c 71b5 44be
00000050: b8fb 583e 6037 5b3e f741 9a3d 0cdc 5cbe
00000060: aab9 fe3d ad13 923d 3a01 02bd 42f6 51be
00000070: 94eb 373e 7b03 d3bd 0be3 56be a974 293e
-0.16647957 -0.077241875 0.045661647 0.14138354 -0.005026666 0.19696495 0.006504565 0.18301533
0.18548225 0.15616824 0.10235956 -0.1699388 0.2737436 -0.20728067 -0.1647774 -0.12391647
-0.08300051 0.046568595 0.016072242 -0.1920984 0.21189773 0.21407843 0.07532113 -0.21568316
0.12437756 0.07132659 -0.03173945 -0.20504096 0.1796096 -0.10303398 -0.20985048 0.16548409

classifier.bias f4 [2]
00000000: 6efa 023e dbe4 2b3d
0.12790844 0.0419663
