o02_train/run_outputs/27Bcnn_train_weights.pth (torch, 48171 bytes, 22 tensors)

features.0.weight f4 [16, 6, 5]
1.1593763 0.66874945 0.04739346 -0.48813593 -1.2556993 -0.39293918 -0.5093418 0.10551355
0.40116006 0.09948746 0.0070322677 -0.332637 -0.27126268 -0.5041388 -0.5297121 -0.030534625
0.016515214 -0.0017657363 0.025926698 0.018083634 -0.17042965 0.037017267 -0.041315164 0.12917565
0.06471 -0.25026017 -0.0727585 -0.14336014 -0.10670389 -0.3978256 -2.4621193 -2.770673
-1.7394407 -0.8247601 0.23618779 0.39226443 0.02324064 0.10584287 -0.13452794 -0.025203036
0.52360356 0.61455154 0.57687026 0.88222116 1.1627069 -0.031852752 0.08326595 -0.086939774
0.048949517 0.0027727068 -0.079827696 -0.03569741 -0.07153768 0.18753983 -0.021343572 -0.011797491
0.010726423 -0.008110218 0.11818639 -0.22778235 -2.4084072 -2.697711 -2.0858028 -1.4730747
-0.6046998 0.06846223 0.27202174 -0.04311258 -0.18921398 -0.47565505 0.3825298 0.19829239
0.27203143 0.36588973 0.6288126 0.033982713 -0.042373806 0.014069854 -0.065985404 0.103206605
-0.15647309 -0.11959487 0.22888188 -0.0070411265 0.06495821 -0.19081528 0.08562315 -0.040623203
-0.009214283 0.03311952 2.6757128 2.1960418 1.4854332 0.49511826 -0.42247075 0.211955
0.4214456 0.33268172 0.4805361 0.34832302 -0.4421286 -0.39024162 -0.4740899 -0.5161791
-0.5856111 -0.030785898 -0.05022272 0.045533024 -0.033213086 -0.10610304 0.12661432 -0.087903395
-0.06702359 -0.16440289 -0.038428392 -0.16502908 -0.0593181 -0.28270712 -0.16121553 0.033190235
-0.52664644 0.28686306 1.0976629 1.3502277 1.5006466 0.4862863 0.35534388 0.10538471
-0.13557515 -0.69690394 0.7525547 0.85234153 0.5255727 0.6412853 0.44171804 -0.06755279
0.0068265283 0.0014602573 0.06954098 0.010097494 -0.13924836 -0.2477299 -0.024668358 -0.21848898
-0.17920661 0.03030206 0.069324315 0.10756808 0.17747512 -0.028539909 0.2887232 0.48758212
0.02493913 -0.14290377 0.34946695 0.27614915 0.2824084 -0.07524767 0.2942992 0.6303412
-0.76006436 -0.6870492 -0.50451916 -0.9275468 -0.93168503 0.080383375 -0.11908819 0.03735608
0.021844508 -0.0029415805 -0.13683219 0.15482558 0.15159602 -0.110364914 -0.04552634 -0.119124286
-0.07090495 0.16156971 0.12605493 -0.15772101 1.0776536 0.5784935 -0.01260929 -0.684836
-1.0338831 -0.1621415 0.11390733 0.19754504 0.32978112 0.41790128 -0.09205727 -0.26852086
-0.3027201 -0.31775838 -0.5358569 -0.0026364618 -0.004888402 0.032532997 0.019273276 -0.023045974
-0.1674265 -0.024852363 0.07895367 0.040288616 0.06822044 -0.2507149 -0.09006228 -0.103872634
-0.10265855 -0.33236596 1.0322316 0.6968971 -0.020093307 -0.401808 -0.78752416 1.5287929
1.4911968 0.9559844 0.51197565 -0.06397957 -0.93155414 -0.76575357 -0.6083704 -0.16449417
-0.10369601 0.14796244 0.09048039 0.06574137 -0.06661802 -0.15008253 -0.326284 0.09717776
0.12685281 0.12431388 0.09972585 -0.033961784 -0.016731605 -0.023359394 0.045812942 0.0057418295
-0.3489158 -0.09682116 0.30213216 0.44204617 0.7524174 -1.5347573 -1.8114438 -1.2515192
-1.2803859 -0.97448546 1.2207191 1.1639241 1.0782982 0.9039255 0.7942832 -0.098385625
00000000: 7166 943f 2a33 2b3f a51f 423d f4ec f9be
00000010: c1ba a0bf 532f c9be 3964 02bf 7d17 d83d
00000020: da64 cd3e 15c0 cb3d f06e e63b 664f aabe
00000030: f1e2 8abe 3e0f 01bf 369b 07bf c023 fabc
00000040: ea4a 873c 4770 e7ba 3a64 d43c 2124 943c
00000050: 1c85 2ebe 6b9f 173d 173a 29bd 9f46 043e
00000060: ad86 843d 1a22 80be 6902 95bd 00cd 12be
00000070: 9287 dabd ccaf cbbe 5d93 1dc0 b552 31c0
00000080: fea5 debf 7a23 53bf 36db 713e e2d6 c83e
00000090: 2863 be3c 26c4 d83d b1c1 09be 9976 cebc
000000a0: e20a 063f 4053 1d3f c5ad 133f 3fd9 613f
000000b0: 94d3 943f 0878 02bd 5787 aa3d 7b0d b2bd
000000c0: 4a7f 483d 4db6 353b b47c a3bd 7337 12bd
000000d0: 5982 92bd 710a 403e b7d8 aebc 444a 41bc
000000e0: e1bd 2f3c b8e0 04bc b50b f23d c73f 69be
000000f0: 5823 1ac0 4ca7 2cc0 cb7d 05c0 b68d bcbf
00000100: 9bcd 1abf ed35 8c3d 6f46 8b3e d196 30bd
00000110: 4fc1 41be 0f89 f3be f2da c33e 290d 4b3e
00000120: b447 8b3e e655 bb3e ddf9 203f 7531 0b3d
00000130: 2890 2dbd 3f85 663c 5b23 87bd fc5d d33d
00000140: 7b3a 20be 28ee f4bd 0360 6a3e 40b9 e6bb
00000150: cf08 853d 1565 43be 315b af3d 8464 26bd
00000160: 81f7 16bc 55a8 073d e13e 2b40 f38b 0c40
00000170: ad22 be3f 2480 fd3e 164e d8be bb0a 593e
00000180: b8c7 d73e 4255 aa3e d408 f63e 6557 b23e
00000190: ae5e e2be c0cd c7be e9bb f2be 5024 04bf
000001a0: 9cea 15bf b532 fcbc 57b6 4dbd d680 3a3d
000001b0: 720a 08bd 8d4c d9bd 2fa7 013e b206 b4bd
000001c0: aa43 89bd 3b59 28be 1767 1dbd 62fd 28be
000001d0: 89f7 72bd fdbe 90be af15 25be 7cf2 073d
000001e0: 4dd2 06bf b7df 923e 3880 8c3f 43d4 ac3f
000001f0: 3015 c03f 85fa f83e a2ef b53e f0d3 d73d
00000200: 36d4 0abe 4c68 32bf 6da7 403f 0e33 5a3f
00000210: ef8b 063f 462b 243f de28 e23e 1e59 8abd
00000220: 12b1 df3b 1b66 bf3a 806b 8e3d f66f 253c
00000230: 1f97 0ebe e8ac 7dbe 4c15 cabc 93bb 5fbe
00000240: f081 37be 073c f83c e8f9 8d3d a74c dc3d
00000250: 0abc 353e 87cc e9bc 87d3 933e 5da4 f93e
00000260: 254d cc3c 5e55 12be 55ed b23e 6c63 8d3e
00000270: d597 903e 731b 9abd 62ae 963e 0a5e 213f
00000280: 9493 42bf 75e2 2fbf 2b28 01bf b573 6dbf
00000290: e982 6ebf 0aa0 a43d 82e4 f3bd b002 193d
000002a0: 41f3 b23c 88c7 40bb bd1d 0cbe 998a 1e3e
000002b0: fd3b 1b3e 0007 e2bd d479 3abd 6ff7 f3bd
000002c0: 9d36 91bd 8872 253e 8b14 013e 9e81 21be
000002d0: 8ef0 893f 2618 143f 3297 4ebc 6951 2fbf
000002e0: 4856 84bf 6c08 26be 3f48 e93d 3f49 4a3e
000002f0: 12d9 a83e 28f7 d53e 8688 bcbd 917b 89be
00000300: 21fe 9abe 3ab1 a2be eb2d 09bf 7dc8 2cbb
00000310: e32e a0bb 5241 053d fde2 9d3c e9ca bcbc
00000320: da71 2bbe 2f97 cbbc 76b2 a13d ad05 253d
00000330: 28b7 8b3d b45d 80be 9372 b8bd 2dbb d4bd
00000340: a53e d2bd df2b aabe 2a20 843f d967 323f
00000350: b89a a4bc c7b9 cdbe 2f9b 49bf 7caf c33f
00000360: 89df be3f 65bb 743f d610 033f b907 83bd
00000370: 557a 6ebf 6d08 44bf 2abe 1bbf 2971 28be
00000380: 935e d4bd 7783 173e c84d b93d 69a3 863d
00000390: 076f 88bd 3caf 19be b20e a7be 2205 c73d
000003a0: b4e5 013e 4798 fe3d 113d cc3d 831b 0bbd
000003b0: b810 89bc 335c bfbc 5aa6 3b3d f525 bc3b
000003c0: 17a5 b2be 2c4a c6bd 11b1 9a3e e053 e23e
000003d0: 6d9e 403f ed72 c4bf 64dd e7bf c831 a0bf
000003e0: afe3 a3bf e177 79bf 8640 9c3f 77fb 943f
000003f0: ad05 8a3f a967 673f 2556 4b3f 677e c9bd

features.0.bias f4 [16]
0.103829116 -0.12667422 -0.063869834 -0.06010305 -0.03656262 -0.091174796 0.07756348 -0.013424433
0.12437734 0.15367575 0.01999538 0.034144122 0.026121195 -0.0028364547 0.0040348377 0.10143231
00000000: 5ca4 d43d e3b6 01be 30ce 82bd 9e2e 76bd
00000010: b0c2 15bd dab9 babd 9ad9 9e3d 27f2 5bbc
00000020: 8cb9 fe3d 2d5d 1d3e 5acd a33c b5da 0b3d
00000030: 1efc d53c d0e3 39bb ac36 843b bebb cf3d

features.1.weight f4 [16]
0.9140919 0.9567059 0.854257 0.92738056 0.78363454 0.85540205 0.9346824 0.8520406
0.8492721 0.9177541 0.90782285 0.77643275 0.92025703 0.9111771 0.8290941 0.79862386
00000000: ed01 6a3f aeea 743f 96b0 5a3f d068 6d3f
00000010: 469c 483f a1fb 5a3f 5947 6f3f 551f 5a3f
00000020: e569 593f eff1 6a3f 1467 683f 4cc4 463f
00000030: f795 6b3f e742 693f 833f 543f 9d72 4c3f

features.1.bias f4 [16]
-0.26430342 -0.12899877 -0.20996188 0.0016462307 -0.008479246 -0.28340372 -0.2954433 -0.04432754
-0.14932309 -0.0029618875 0.0015104958 -0.015645878 -0.07269028 -0.038999923 -0.044757765 -0.008938109
00000000: c752 87be 4118 04be 3f00 57be 56c6 d73a
00000010: 89ec 0abc 4b1a 91be 5844 97be cb90 35bd
00000020: 27e8 18be 3a1c 42bb d4fb c53a c92b 80bc
00000030: a4de 94bd 62be 1fbd eb53 37bd 2571 12bc

features.1.running_mean f4 [16]
0.108334444 -0.12652399 -0.06566423 -0.055364467 -0.027910285 -0.09052863 0.081710435 -0.013996849
0.12457783 0.16601558 0.023614138 0.030306507 0.027704127 -0.0044766674 0.003385484 0.09424849
00000000: 73de dd3d 818f 01be f87a 86bd dac5 62bd
00000010: 1ca4 e4bc 1367 b9bd cd57 a73d 0a53 65bc
00000020: a922 ff3d fdff 293e 7072 c13c 5a45 f83c
00000030: c4f3 e23c 02b1 92bb ffde 5d3b 5a05 c13d

features.1.running_var f4 [16]
1335.2444 32.895893 53.451347 747.87634 571.1292 15.640681 1094.2997 255.50891
107.24494 860.2841 1077.945 132.42706 243.62614 75.51411 136.45168 633.59753
00000000: d2e7 a644 6595 0342 2ece 5542 16f8 3a44
00000010: 45c8 0e44 3b40 7a41 97c9 8844 4882 7f43
00000020: 697d d642 2f12 5744 3dbe 8644 546d 0443
00000030: 4ba0 7343 3907 9742 a173 0843 3e66 1e44

features.5.weight f4 [32, 16, 3]
0.0103914635 -0.0036271238 -0.120947756 -0.05848196 0.034358814 0.08383837 0.03641848 0.1608311
0.16169915 -0.045928374 -0.21752635 -0.22439879 0.023096826 0.045042086 0.005782746 -0.11739113
-0.01938031 -0.057459842 -0.11399555 -0.20451935 -0.03633133 -0.069267415 -0.0053528873 -0.05626038
-0.14768872 -0.048373375 -0.09612798 0.10256485 0.089518346 -0.09965278 0.022583736 -0.025733363
-0.04640449 -0.07045128 0.0022384024 -0.14474925 -0.035848778 0.090014614 0.121674806 -0.08492109
-0.08818412 0.14359844 0.007547415 0.13097233 -0.006759513 -0.116897285 -0.1076871 -0.08158548
-0.09748826 -0.17168969 -0.14288686 0.043376584 0.20108229 0.024082428 -0.023626037 0.11109704
-0.08225615 0.13301888 -0.014418191 -0.11482357 0.08245972 0.055346012 0.05490961 0.093519576
0.05956307 0.0408145 -0.17566063 -0.25545985 -0.21918848 -0.1600638 -0.10883336 -0.0641617
-0.13369438 -0.16784179 -0.12044467 0.014559138 -0.014294567 0.04678513 -0.07272798 -0.19040944
-0.17960753 0.08025616 -0.08446701 -0.0076021403 0.09692923 -0.13119516 0.08494976 0.08225239
-0.07899479 0.08524236 -0.12070952 -0.027430337 0.0047864546 -0.009040952 -0.04375901 0.02358825
0.018922722 0.06233717 -0.040919684 -0.070772216 -0.03910076 -0.13546124 0.11137373 0.050574686
0.02956128 -0.13254766 -0.21052504 -0.14548331 -0.09752178 -0.15927047 -0.08401078 0.087500624
0.09206149 0.16406229 0.20177354 0.036960967 -0.0041135526 0.11352846 0.02673513 0.060526576
0.02934608 -0.06164128 0.03330499 -0.09857957 -0.19555064 -0.099055946 -0.08379925 -0.05756207
-0.00972813 -0.033102468 -0.031772595 -0.030818518 -0.09919698 -0.1291084 -0.15058891 0.013416711
0.026317526 -0.006284963 -0.027953818 -0.10057506 -0.14461067 -0.138371 -0.22909962 -0.2990494
-0.047285754 -0.22170505 -0.09086226 -0.014195603 -0.20159881 -0.20774798 -0.08396666 -0.05694687
-0.0041486453 0.03684893 0.19618262 0.013127311 0.101229705 0.0028267633 0.038369827 0.09403634
-0.025623634 -0.019505402 -0.045076933 -0.0067580245 -0.2290991 -0.110423185 -0.07033384 -0.036394242
0.01846318 -0.07984018 -0.046359006 0.054249726 0.12205782 -0.055895064 -0.029786684 0.03346165
-0.048492383 -0.007725573 -0.11453338 0.1774264 -0.012965965 -0.049002368 -0.14182244 -0.05616823
0.14762966 0.12291876 -0.07474395 -0.012648 -0.07100639 0.04862911 -0.07944625 -0.03989059
-0.26448685 -0.21166655 -0.13050643 0.22455236 -0.04421016 0.14558123 0.019879585 0.08445126
0.03531391 0.1365984 -0.1290285 0.0864679 0.039704237 -0.04983625 -0.04413907 -0.11267106
0.12650962 -0.16116355 -0.15039869 -0.15671203 -0.24389043 0.061109506 0.008890394 0.037140988
-0.15587826 -0.08631045 -0.058212683 0.07289307 0.027100919 -0.11963139 -0.14838058 -0.13811181
-0.09933372 0.042017907 -0.003085781 0.06512717 0.017862434 0.07280449 0.03191253 -0.14143407
-0.1337177 -0.071518585 0.06290805 -0.07474076 -0.075141475 -0.020513056 0.044189177 0.026418028
-0.1696119 -0.14774562 0.012841001 0.22189645 0.13568975 0.121371895 0.118560985 0.18811157
-0.09449535 -0.17920259 -0.058146518 -0.304566 -0.0026631479 0.0027178198 -0.043337446 -0.0016302089
00000000: f540 2a3c 0ab5 6dbb 75b3 f7bd c88a 6fbd
00000010: d4bb 0c3d 74b3 ab3d 8b2b 153d e8b0 243e
00000020: 7694 253e 641f 3cbd 3abf 5ebe ccc8 65be
00000030: 8e35 bd3c 0d7e 383d 307d bd3b c36a f0bd
00000040: 75c3 9ebc 035b 6bbd 8076 e9bd 856d 51be
00000050: 29d0 14bd 13dc 8dbd 4667 afbb 4971 66bd
00000060: b63b 17be 2923 46bd bfde c4bd 850d d23d
00000070: 6555 b73d c216 ccbd 8701 b93c c6ce d2bc
00000080: a212 3ebd c348 90bd 29b2 123b 2639 14be
00000090: 2bd6 12bd 9559 b83d a430 f93d 1ceb adbd
000000a0: e099 b4bd 780b 133e 4e50 f73b 9c1d 063e
000000b0: e87e ddbb d867 efbd 0e8b dcbd 4a16 a7bd
000000c0: eda7 c7bd 6ccf 2fbe ef50 12be a5ab 313d
000000d0: 84e8 4d3e 8348 c53c 648b c1bc d886 e33d
000000e0: ea75 a8bd 1a36 083e 473a 6cbc 9f28 ebbd
000000f0: a4e0 a83d 80b2 623d e6e8 603d 3187 bf3d
00000100: 68f8 733d 1b2d 273d 61e0 33be a2cb 82be
00000110: f272 60be c4e7 23be 06e4 debd 3667 83bd
00000120: 2ee7 08be b8de 2bbe b2ab f6bd 7389 6e3c
00000130: c233 6abc c4a1 3f3d 68f2 94bd b1fa 42be
00000140: 09eb 37be 575d a43d 0afd acbd 601b f9bb
00000150: d582 c63d 0658 06be 24fa ad3d f173 a83d
00000160: 05c8 a1bd 8c93 ae3d 8e36 f7bd 96b5 e0bc
00000170: b1d7 9c3b 8020 14bc a63c 33bd 253c c13c
00000180: d303 9b3c 4355 7f3d 669b 27bd 06f1 90bd
00000190: 1e28 20bd 5ab6 0abe e917 e43d 6727 4f3d
000001a0: 7f2a f23c 93ba 07be e093 57be 94f9 14be
000001b0: 80b9 c7bd cc17 23be d80d acbd 8733 b33d
000001c0: bc8a bc3d f2ff 273e b99d 4e3e 6264 173d
000001d0: fbca 86bb 9c81 e83d a203 db3c b7ea 773d
000001e0: 3167 f03c 917b 7cbd d06a 083d 16e4 c9bd
000001f0: 6d3e 48be d8dd cabd f19e abbd 35c6 6bbd
00000200: bc62 1fbc 7496 07bd fb23 02bd 1e77 fcbc
00000210: c927 cbbd fe34 04be fb33 1abe c4d1 5b3c
00000220: da97 d73c 17f2 cdbb 68ff e4bc 4cfa cdbd
00000230: d214 14be 21b1 0dbe 1799 6abe 011d 99be
00000240: b5ae 41bd a606 63be fe15 babd ad94 68bc
00000250: eb6f 4ebe e3bb 54be b6f6 abbd 1f41 69bd
00000260: 5cf1 87bb e7ee 163d 19e4 483e ef13 573c
00000270: 8551 cf3d 3841 393b ae29 1d3d 2096 c03d
00000280: a8e8 d1bc cbc9 9fbc 97a2 38bd 6b72 ddbb
00000290: f498 6abe 8d25 e2bd 300b 90bd 2112 15bd
000002a0: 1840 973c 4083 a3bd f1e2 3dbd f634 5e3d
000002b0: 73f9 f93d 39f2 64bd 3403 f4bc 150f 093d
000002c0: f39f 46bd ce26 fdbb 7a90 eabd 44af 353e
000002d0: 336f 54bc b5b6 48bd e739 11be a810 66bd
000002e0: 3b2c 173e d5bc fb3d 5b13 99bd 8f39 4fbc
000002f0: cc6b 91bd 512f 473d b7b4 a2bd 5164 23bd
00000300: d26a 87be 1ebf 58be 7aa3 05be 0ef1 653e
00000310: b615 35bd 3f13 153e 83da a23c c8f4 ac3d
00000320: 52a5 103d 73e0 0b3e 0c20 04be 1516 b13d
00000330: e9a0 223d 1821 4cbd 2bcb 34bd 16c0 e6bd
00000340: bd8b 013e 0f08 25be 1d02 1abe 1e79 20be
00000350: 6abe 79be f64d 7a3d 04a9 113c 2621 183d
00000360: 8d9e 1fbe 89c3 b0bd 6c70 6ebd f648 953d
00000370: bf02 de3c 4d01 f5bd 14f1 17be 2f6d 0dbe
00000380: 7a6f cbbd f81a 2c3d d03a 4abb 6561 853d
00000390: 3d54 923c 851a 953d b7b6 023d 18d4 10be
000003a0: 4bed 08be 5678 92bd f0d5 803d af11 99bd
000003b0: c6e3 99bd ff0a a8bc b6ff 343d 9f6a d83c
000003c0: beae 2dbe a14a 17be 1063 523c d338 633e
000003d0: 41f2 0a3e d491 f83d 1ad0 f23d 52a0 403e
000003e0: c786 c1bd e280 37be 0b2b 6ebd 13f0 9bbe
000003f0: 3588 2ebb 731d 323b 9b82 31bd bcac d5ba

features.5.bias f4 [32]
-0.06282601 -0.081393875 -0.011991372 -0.12518938 0.013402173 -0.13472791 0.020084687 0.12833495
-0.059997726 -0.15978009 -0.16246001 -0.1400172 0.007827455 -0.120926395 0.09378031 0.20120661
0.13163124 0.052335534 0.04622321 0.12672912 -0.0200932 0.022682305 -0.2339912 0.03865903
-0.060867682 0.03672722 -0.05690323 -0.13574003 -0.021690598 -0.088212766 -0.054402508 0.09633106
00000000: ecaa 80bd d5b1 a6bd 7677 44bc a531 00be
00000010: ca94 5b3c 1df6 09be a488 a43c 3d6a 033e
00000020: 2dc0 75bd 649d 23be eb5b 26be ab60 0fbe
00000030: ba3e 003c 42a8 f7bd e40f c03d 1b09 4e3e
00000040: 57ca 063e c95d 563d 8c54 3d3d 47c5 013e
00000050: 7f9a a4bc 3ed0 b93c 649b 6fbe ee58 1e3d
00000060: 6450 79bd 486f 163d 5c13 69bd 6fff 0abe
00000070: 7bb0 b1bc e5a8 b4bd 2ad5 5ebd 3849 c53d

features.6.weight f4 [32]
0.7648576 0.9282661 1.0033039 0.69066167 0.8262034 0.8172556 0.87492704 0.87834144
0.81809855 0.9311935 1.0182464 0.7691729 0.8695893 0.9247536 0.8765532 0.8900787
0.83223593 0.9231857 0.8926148 0.88536835 0.7989208 0.92284334 0.9876196 0.9518169
1.0135581 0.69518316 0.7974011 0.7996324 0.86530966 0.91186965 0.8860943 0.9474442
00000000: b5cd 433f d9a2 6d3f 436c 803f 34cf 303f
00000010: 1182 533f aa37 513f 38fb 5f3f fcda 603f
00000020: e86e 513f b262 6e3f e655 823f 84e8 443f
00000030: 689d 5e3f a7bc 6c3f ca65 603f 33dc 633f
00000040: 6a0d 553f e655 6c3f 6782 643f 80a7 623f
00000050: 1386 4c3f 763f 6c3f a3d4 7c3f 46aa 733f
00000060: 46bc 813f 86f7 313f 7a22 4c3f b5b4 4c3f
00000070: ef84 5d3f 4a70 693f 13d7 623f b48b 723f

features.6.bias f4 [32]
-0.105702855 -0.16797727 -0.11301065 -0.09728373 -0.1403191 -0.1797868 -0.08437238 -0.26218823
-0.124618836 -0.10835152 -0.06426884 -0.20707412 0.004359545 -0.13418631 -0.21458924 -0.16685341
-0.23335226 -0.16246963 -0.17524064 0.011163313 -0.21573663 -0.16510184 -0.21347477 -0.15925337
0.059449773 -0.28773835 -0.18085167 -0.14136873 -0.18618765 -0.30570775 -0.21252084 -0.20037456
00000000: bd7a d8bd 3c02 2cbe 2172 e7bd b13c c7bd
00000010: cfaf 0fbe 081a 38be 6dcb acbd 893d 86be
00000020: 2938 ffbd 67e7 ddbd 629f 83bd 3d0b 54be
00000030: 84da 8e3b 2368 09be 48bd 5bbe 9fdb 2abe
00000040: e5f3 6ebe 705e 26be 4872 33be 54e6 363c
00000050: 10ea 5cbe 7510 29be 2199 5abe 5113 23be
00000060: 9b81 733d 7152 93be 2e31 39be f7c2 10be
00000070: faa7 3ebe ba85 9cbe 109f 59be fd2e 4dbe

features.6.running_mean f4 [32]
-0.3098526 -0.34826872 -0.49817944 -0.31451428 -0.24372901 -0.47702193 -0.17852572 -0.07796236
-0.11270176 -0.60696226 -0.65064573 -0.38159105 -0.15259665 -0.35203522 -0.09118122 -0.025125945
0.2204999 -0.42859614 -0.5169598 -0.17179742 -0.33490115 -0.22874136 -0.54912853 -0.16288327
-0.7030693 -0.053997636 -0.31467465 -0.45868495 -0.0003691863 -0.32822156 -0.26459283 -0.34630495
00000000: 00a5 9ebe 4750 b2be 6011 ffbe 0408 a1be
00000010: 1994 79be 383c f4be 72cf 36be bbaa 9fbd
00000020: 2ed0 e6bd e161 1bbf b890 26bf e75f c3be
00000030: 4c42 1cbe f63d b4be 38bd babd edd4 cdbc
00000040: baca 613e f470 dbbe 7a57 04bf aaeb 2fbe
00000050: 2a78 abbe 2d3b 6abe b093 0cbf dfca 26be
00000060: 5afc 33bf a02c 5dbd 091d a1be c1d8 eabe
00000070: 598f c1b9 a80c a8be b678 87be e24e b1be

features.6.running_var f4 [32]
0.52032024 0.76345044 0.84632194 0.5997376 0.7300609 0.7333458 0.6053282 0.589432
0.24335386 0.80603456 0.94804007 0.48578447 0.43536922 0.76497847 0.5538594 0.48957607
0.3134981 0.82742834 0.9500788 0.82959175 1.0179908 0.743461 0.60468465 0.5650473
2.4629185 0.39537066 0.5035034 0.781312 0.23935209 0.6128386 0.7341809 0.69339246
00000000: b533 053f 7d71 433f 8ea8 583f 6788 193f
00000010: 45e5 3a3f 8dbc 3b3f caf6 1a3f 04e5 163f
00000020: c131 793e 4858 4e3f c1b2 723f beb8 f83e
00000030: b7e8 de3e a1d5 433f bbc9 0d3f b7a9 fa3e
00000040: d382 a03e 58d2 533f 5d38 733f 2060 543f
00000050: 864d 823f 7653 3e3f 9dcc 1a3f f1a6 103f
00000060: 75a0 1d40 066e ca3e 99e5 003f 1004 483f
00000070: b718 753e fee2 1c3f 48f3 3b3f 2b82 313f

features.10.weight f4 [64, 32, 3]
0.043434802 0.028707542 0.067488395 0.018622594 0.111518435 0.08019349 -0.054713827 -0.011670587
-0.10630973 0.083619975 0.060512822 0.026329339 0.08995107 0.083509006 0.122544594 0.13123493
0.027076883 0.095465384 0.06729756 0.081913695 0.089724556 0.055394955 -0.00069039344 0.0103849815
-0.0797513 -0.060043927 -0.048181783 -0.060352072 -0.030807082 -0.012052693 -0.07251667 -0.06316663
-0.04149591 -0.05440324 -0.047187246 -0.07026449 -0.07549324 -0.096198715 -0.071141295 0.04520954
0.06185244 0.05637952 0.023970783 0.09169591 0.0072264764 0.013274356 0.09215176 0.073544234
-0.13680592 -0.0673285 -0.0018380851 -0.025819758 -0.0011431859 -0.0018240673 0.010346266 0.030101674
0.0023642885 -0.11471663 -0.06194762 -0.13467905 -0.06082707 -0.038555447 -0.006576368 0.03741235
0.12048856 0.110796265 0.31425032 0.22112437 0.15412065 0.15337999 0.12027149 0.13238426
-0.08444035 -0.14285925 -0.14830637 0.044548776 0.082524076 0.02618391 0.070719816 0.12810631
0.1220286 0.0637368 0.07814976 0.03336078 -0.04117153 -0.031039061 -0.05402045 0.013577775
0.09367965 0.10505429 -0.10338188 -0.05325511 -0.08876823 0.015800476 -0.049056344 -0.030728897
0.016488701 0.03326583 0.118059136 0.088326015 0.11868613 0.09866316 -0.050176498 -0.03607562
-0.03462451 0.025808014 -0.013542898 -0.0778529 -0.021257646 0.008353425 0.12162044 0.12565953
0.12178615 0.16008975 0.0044330214 0.06341328 0.04463082 0.03470773 0.036052223 0.01748114
-0.09435559 -0.049796775 -0.08457602 0.030653944 -0.03573437 -0.033157453 -0.051646866 -0.05140375
-0.07052746 -0.06591503 -0.04036363 -0.065902255 -0.10931475 -0.101552665 -0.10022549 0.112783656
0.07986483 0.014574046 -0.037402086 0.00029763416 0.008267476 0.053210378 0.05150651 0.09081231
-0.084827386 -0.09066493 -0.05860753 0.0092508895 -0.006447025 0.029237358 -0.0130193895 0.03148319
-0.041671835 -0.15007809 -0.11644879 -0.12858054 -0.04554395 0.004231978 -0.010359482 0.07577535
0.048729748 0.07289341 0.26493064 0.23830782 0.14938866 0.013382681 0.03561239 0.034607444
-0.10417389 -0.113248274 -0.1238532 -0.024646387 0.07456797 0.059260264 -0.07220689 -0.06716408
0.08237735 -0.047530845 0.11200179 0.10277797 -0.076173335 -0.10782167 -0.091906264 7.348671e-05
0.092372596 0.07707399 -0.16040249 -0.054841634 -0.04741314 -0.009288077 0.029219912 0.024495462
-0.061937645 -0.055033777 -0.104574226 -0.089414895 -0.043343112 -0.093441665 0.1488138 0.041738663
0.13699934 -0.06348229 -0.04675944 -0.11413024 -0.07093427 0.006672146 -0.004901911 -0.03802351
0.0057325233 -0.01743172 -0.10977128 -0.16412506 -0.15661927 -0.14539869 -0.07321875 -0.14425255
-0.026411775 -0.049531803 -0.04584182 0.022783862 0.009998972 0.018230336 0.13157065 0.053986628
0.07121795 0.123428285 0.111627534 0.026866242 -0.18455443 -0.10789854 -0.051372744 -0.066461734
-0.08387447 -0.19379671 -0.1068375 -0.13940169 -0.17428768 -0.021635145 -0.071141675 -0.14849752
0.05860818 0.0025468057 -0.013001851 0.053464904 0.094057105 0.18609113 0.1303806 0.08097705
0.08292499 -0.12100366 -0.109609514 -0.12870775 -0.039067935 0.031448167 0.06359163 -0.11318444
00000000: b1e8 313d 142c eb3c 5b37 8a3d 698e 983c
00000010: c763 e43d 7c3c a43d 9b1b 60bd fd35 3fbc
00000020: eab8 d9bd f340 ab3d 4bdc 773d a0b0 d73c
00000030: 4438 b83d c506 ab3d a9f8 fa3d 7362 063e
00000040: 57d0 dd3c 5b83 c33d 4ed3 893d 5ec2 a73d
00000050: 82c1 b73d d2e5 623d 85fb 34ba c525 2a3c
00000060: a654 a3bd 9ff0 75bd 435a 45bd bc33 77bd
00000070: 225f fcbc a978 45bc 9f83 94bd 825d 81bd
00000080: 9ef7 29bd efd5 5ebd 6a47 41bd d4e6 8fbd
00000090: 339c 9abd d503 c5bd 87b2 91bd a32d 393d
000000a0: fc58 7d3d 36ee 663d 605e c43c 11cb bb3d
000000b0: 14cc ec3b af7c 593c 10ba bc3d 5c9e 963d
000000c0: da16 0cbe 86e3 89bd e7eb f0ba f583 d3bc
000000d0: f4d6 95ba 8b15 efba 6383 293c c997 f63c
000000e0: 2ef2 1a3b 8df0 eabd cabc 7dbd 4ee9 09be
000000f0: ce25 79bd 51ec 1dbd 937e d7bb b13d 193d
00000100: b5c2 f63d 27e9 e23d 6be5 a03e 6d6e 623e
00000110: ced1 1d3e a50f 1d3e e650 f63d bd8f 073e
00000120: 10ef acbd b249 12be a0dd 17be c778 363d
00000130: 6202 a93d a47f d63c 8dd5 903d 4d2e 033e
00000140: 21ea f93d 7088 823d fb0c a03d 50a5 083d
00000150: 7aa3 28bd a145 febc 8c44 5dbd 5175 5e3c
00000160: 1edb bf3d b426 d73d e1b9 d3bd 0822 5abd
00000170: 1ecc b5bd 0070 813c 4eef 48bd 2bbb fbbc
00000180: 5013 873c c041 083d fdc8 f13d 45e4 b43d
00000190: b711 f33d e90f ca3d df85 4dbd 08c4 13bd
000001a0: 6ed2 0dbd 546b d33c 08e3 5dbc 5771 9fbd
000001b0: 8424 aebc cedc 083c 2314 f93d e4ac 003e
000001c0: 046b f93d 91ee 233e e142 913b d2de 813d
000001d0: cfce 363d b129 0e3d 7fab 133d 9c34 8f3c
000001e0: 813d c1bd b4f7 4bbd 3136 adbd fb1d fb3c
000001f0: 345e 12bd 1cd0 07bd aa8b 53bd bd8c 52bd
00000200: b370 90bd 76fe 86bd 5554 25bd c3f7 86bd
00000210: 69e0 dfbd d8fa cfbd 0643 cdbd 1efb e63d
00000220: 2c90 a33d fbc7 6e3c ee32 19bd c80b 9c39
00000230: 4f74 073c 20f3 593d 7df8 523d cefb b93d
00000240: fbb9 adbd 89ae b9bd 730e 70bd 0b91 173c
00000250: 9141 d3bb 2f83 ef3c 474f 55bc 84f4 003d
00000260: 16b0 2abd 12ae 19be b47c eebd 9eaa 03be
00000270: 4b8c 3abd 68ac 8a3b d1ba 29bc 1b30 9b3d
00000280: d898 473d 2449 953d fda4 873e f706 743e
00000290: 57f9 183e 0843 5b3c 4cde 113d 89c0 0d3d
000002a0: 1f59 d5bd b6ee e7bd bfa6 fdbd 38e7 c9bc
000002b0: 18b7 983d e4ba 723d 35e1 93bd 528d 89bd
000002c0: 75b5 a83d b4af 42bd 3261 e53d 427d d23d
000002d0: c400 9cbd 9cd1 dcbd 5a39 bcbd e11c 9a38
000002e0: d82d bd3d f8d8 9d3d 8d40 24be 9fa1 60bd
000002f0: 4834 42bd 052d 18bc 995e ef3c b5aa c83c
00000300: 54b2 7dbd 196b 61bd 032b d6bd 281f b7bd
00000310: 8c88 31bd 585e bfbd a562 183e 29f6 2a3d
00000320: 8e49 0c3e 0103 82bd d486 3fbd 1ebd e9bd
00000330: fd45 91bd 04a2 da3b 36a0 a0bb 8abe 1bbd
00000340: e4d7 bb3b f7cc 8ebc c4cf e0bd 6610 28be
00000350: cd60 20be 65e3 14be b6f3 95bd f1b6 13be
00000360: 825d d8bc dce1 4abd a2c4 3bbd 39a5 ba3c
00000370: bad2 233c c957 953c 75ba 063e 1521 5d3d
00000380: b7da 913d f8c7 fc3d fa9c e43d 9816 dc3c
00000390: d6fb 3cbe e9f9 dcbd 3a6c 52bd 171d 88bd
000003a0: 61c6 abbd a572 46be 9fcd dabd 51bf 0ebe
000003b0: 7878 32be 303c b1bc bab2 91bd bc0f 18be
000003c0: 220f 703d 4fe8 263b b705 55bc 04fe 5a3d
000003d0: 03a1 c03d ac8e 3e3e 7e82 053e 4cd7 a53d
000003e0: 94d4 a93d c4d0 f7bd f47a e0bd f7cb 03be
000003f0: b305 20bd cbcf 003d 543c 823d 3ecd e7bd

features.10.bias f4 [64]
0.0917701 -0.05993129 0.0914052 -0.08875124 -0.08004098 0.028165778 0.07702172 -0.026960451
0.05450761 0.049057808 0.015281695 0.01613519 -0.043489397 -0.02989523 -0.10699401 0.055633385
0.08353306 0.055187177 -0.066910565 0.08424173 0.038512357 0.02795261 -0.0355087 0.038384557
0.028826509 -0.0030625758 -0.026588855 -0.022864476 0.033538327 -0.111748286 0.047015533 0.039258476
-0.09548428 -0.10054127 -0.0016647258 0.084024176 0.008097181 0.02664964 -0.007579494 -0.09902883
0.036246575 0.02783357 -0.086692706 0.11353305 0.09529496 -0.0032023126 -0.06131023 -0.029355343
0.05526563 0.049565375 -0.051345304 0.006150438 0.017700791 0.023022287 0.015926179 0.045030434
0.0017226308 -0.03344305 0.003617545 0.047755674 0.11926895 0.0028859035 -0.049622726 0.107803
00000000: f6f1 bb3d 837a 75bd a632 bb3d 36c3 b5bd
00000010: 86ec a3bd ebbb e63c 90bd 9d3d 2adc dcbc
00000020: 5f43 5f3d d7f0 483d 1360 7a3c f22d 843c
00000030: f021 32bd d7e6 f4bc ad1f dbbd d5df 633d
00000040: 6213 ab3d f30b 623d 6808 89bd ee86 ac3d
00000050: 22bf 1d3d dffc e43c 9271 11bd 2039 1d3d
00000060: 9225 ec3c 7fb5 48bb dfd0 d9bc 484e bbbc
00000070: 7c5f 093d 49dc e4bd 5c93 403d 7fcd 203d
00000080: 438d c3bd 95e8 cdbd ee32 daba de14 ac3d
00000090: 0aaa 043c 5950 da3c 675d f8bb a1cf cabd
000000a0: 4a77 143d 3a03 e43c f28b b1bd 0484 e83d
000000b0: 012a c33d e4dd 51bb 7020 7bbd 9e7a f0bc
000000c0: 375e 623d 1005 4b3d 744f 52bd 9d89 c93b
000000d0: 4001 913c 3c99 bc3c 9e77 823c d571 383d
000000e0: e6c9 e13a 94fb 08bd 5514 6d3b 749b 433d
000000f0: 4743 f43d 6d21 3d3b 3341 4bbd d2c7 dc3d

features.11.weight f4 [64]
0.9828015 0.8604813 0.9748799 0.9560991 0.90753067 0.9540298 0.953838 0.9632575
0.88792133 1.0377488 0.8712334 0.9693363 0.98601216 0.93122256 0.88830066 0.930947
0.9174405 0.95242584 0.95208806 0.9199637 0.94321907 0.870665 0.91980225 1.0165704
0.9170382 0.9362225 0.9910651 0.9439264 0.97816235 0.90349364 0.9562261 0.9331995
0.9514514 0.8975686 0.862768 0.9751046 1.0049762 0.9446384 0.9691846 0.90816456
0.9656241 1.0199529 0.97082204 0.96951956 1.0015223 0.92695993 0.99215627 0.94008774
0.9350156 0.93926406 0.9909563 0.8827249 0.93768966 0.8417197 0.909129 1.0302714
0.95115364 0.919905 0.8778724 0.89247465 1.0165832 0.945688 0.9147751 0.8664906
00000000: e198 7b3f 8148 5c3f bb91 793f e9c2 743f
00000010: ee53 683f 4c3b 743f ba2e 743f 0b98 763f
00000020: d04e 633f f4d4 843f 2709 5f3f 6c26 783f
00000030: 4b6b 7c3f 9a64 6e3f ac67 633f 8b52 6e3f
00000040: 61dd 6a3f 2ed2 733f 0bbc 733f be82 6b3f
00000050: ce76 713f e7e3 5e3f 2978 6b3f fb1e 823f
00000060: 04c3 6a3f 47ac 6f3f 71b6 7d3f 29a5 713f
00000070: d968 7a3f 5c4b 673f 3ccb 743f 2ae6 6e3f
00000080: 5292 733f 0ec7 653f 5dde 5c3f 74a0 793f
00000090: 0fa3 803f d2d3 713f 7b1c 783f 797d 683f
000000a0: 2433 773f d18d 823f cb87 783f 6f32 783f
000000b0: e231 803f 3f4d 6d3f f4fd 7d3f 97a9 703f
000000c0: 2f5d 6f3f 9c73 703f 50af 7d3f 42fa 613f
000000d0: 6e0c 703f f17a 573f aebc 683f efdf 833f
000000e0: ce7e 733f e57e 6b3f 3fbc 603f 3879 643f
000000f0: 661f 823f 9c18 723f b32e 6a3f 54d2 5d3f

features.11.bias f4 [64]
-0.18786497 -0.3322951 0.05001541 0.028459368 -0.30219394 0.058686238 0.015449694 -0.15798634
-0.2929153 -0.042472325 -0.2980728 -0.16032887 0.04927309 -0.1890148 -0.18699221 -0.05484374
0.0081898775 0.040877435 -0.1909614 -0.25224724 0.030066712 -0.32195535 -0.22409967 -0.056830686
-0.060912788 0.022980211 0.057654686 0.034950294 0.04316132 -0.2924554 0.056854818 -0.23560083
0.017936155 -0.309424 -0.33040062 0.07434242 -0.15769464 -0.2559486 0.07879676 -0.26350802
0.03889273 0.07687604 -0.15336297 0.042427678 0.06731375 -0.25836217 0.072745115 0.06060496
-0.26465693 0.0049518677 0.0746706 -0.25060433 0.028450405 -0.27457258 -0.2554704 0.05347128
-0.22990513 -0.28484324 -0.2980973 -0.27991253 -0.12921154 -0.22973673 -0.30834067 -0.29472715
00000000: ad5f 40be 9522 aabe f5dc 4c3d 9f23 e93c
00000010: 2ab9 9abe fb60 703d b720 7d3c 2cc7 21be
00000020: fff8 95be 76f7 2dbd ff9c 98be 402d 24be
00000030: 94d2 493d 198d 41be e37a 3fbe d4a3 60bd
00000040: d62e 063c 196f 273d 638b 43be 8d26 81be
00000050: 774e f63c 55d7 a4be 627a 65be 4bc7 68bd
00000060: b07f 79bd ff40 bc3c 5227 6c3d 0a28 0f3d
00000070: edc9 303d b7bc 95be 99e0 683d 5841 71be
00000080: d8ee 923c d36c 9ebe 452a a9be d740 983d
00000090: b47a 21be b20b 83be 3260 a13d 86ea 86be
000000a0: fc4d 1f3d 2f71 9d3d 2f0b 1dbe a5c8 2d3d
000000b0: cbdb 893d 0c48 84be 64fb 943d e83c 783d
000000c0: 1d81 87be 4743 a23b e6ec 983d 364f 80be
000000d0: d310 e93c c794 8cbe 04cd 82be b304 5b3d
000000e0: 406c 6bbe f9d6 91be 36a0 98be b250 8fbe
000000f0: 0850 04be 1b40 6bbe d4de 9dbe 7ae6 96be

features.11.running_mean f4 [64]
0.046484962 -0.2801365 -0.124358244 -0.026726179 -0.2352716 0.60370404 0.39612547 0.19584568
-0.049034074 -0.3222444 -0.20357688 0.19562168 0.2681778 0.06835289 -0.20133443 -0.25752094
0.12859136 0.07644072 -0.05774997 0.0051650954 -0.00975257 -0.254652 -0.17336601 -0.2515141
-0.5296004 -0.17904948 0.18899995 0.06261391 0.680824 -0.27528527 0.11712597 -0.117747806
0.20120901 -0.32540667 -0.1435088 0.52882123 0.15656106 -0.04989625 0.32202983 -0.05058851
0.29782254 0.28570428 0.019114856 0.4324464 0.40640292 -0.062387474 0.28413302 -0.08967077
0.00995166 0.07653456 0.30644 -0.3851311 0.35120338 -0.23023127 0.05576745 0.504137
-0.009625342 -0.24494289 -0.24073644 -0.085293904 0.3343076 -0.009403443 -0.22335029 -0.09286656
00000000: 0467 3e3d 0d6e 8fbe 89af febd dcf0 dabc
00000010: 0aeb 70be 598c 1a3f f5d0 ca3e c58b 483e
00000020: f4d7 48bd 38fd a4be 7576 50be 0d51 483e
00000030: 9a4e 893e 9afc 8b3d 9d2a 4ebe c9d9 83be
00000040: 74ad 033e f48c 9c3d 3c8b 6cbd f63f a93b
00000050: 3ec9 1fbc bf61 82be dc86 31be 75c6 80be
00000060: e493 07bf bf58 37be 3489 413e b93b 803d
00000070: 7b4a 2e3f 31f2 8cbe bedf ef3d c325 f1bd
00000080: bc09 4e3e b49b a6be f9f3 12be d460 073f
00000090: 8b51 203e 0360 4cbd 18e1 a43e e635 4fbd
000000a0: 327c 983e d547 923e c296 9c3c 9d69 dd3e
000000b0: 0b14 d03e 028a 7fbd e279 913e 4fa5 b7bd
000000c0: 4a0c 233c 27be 9c3d b4e5 9c3e e72f c5be
000000d0: eed0 b33e bfc1 6bbe 696c 643d 1f0f 013f
000000e0: 9cb3 1dbc 4fd2 7abe 9d83 76be 92ae aebd
000000f0: 5e2a ab3e e610 1abc f0b5 64be d330 bebd

features.11.running_var f4 [64]
0.14986062 0.16828236 0.29755643 0.19533585 0.2083234 0.17367764 0.19551226 0.18271865
0.17522259 0.21367162 0.21999775 0.17141469 0.17081207 0.17179705 0.1323407 0.22464181
0.18410687 0.20361532 0.1816861 0.1689067 0.17237751 0.17402105 0.17556766 0.17712258
0.21150896 0.20471808 0.21552145 0.14793588 0.210519 0.18676786 0.2023479 0.17467417
0.15869729 0.19044273 0.18822059 0.17693229 0.17698944 0.15686251 0.14843272 0.18255028
0.17592688 0.21038319 0.21279569 0.19227922 0.20661613 0.18089792 0.18474267 0.19710237
0.19917446 0.12343961 0.21200767 0.17747137 0.2095566 0.13979301 0.18629721 0.19084905
0.16829035 0.20675333 0.17112923 0.16679876 0.18243453 0.16812015 0.19303913 0.2030094
00000000: 1075 193e 3652 2c3e 5159 983e 1f06 483e
00000010: bb52 553e 8dd8 313e 5e34 483e 991a 3b3e
00000020: 8d6d 333e bccc 5a3e 1747 613e 5587 2f3e
00000030: 5ce9 2e3e 91eb 2f3e 5284 073e 8108 663e
00000040: 8386 3c3e 8980 503e ec0b 3a3e e1f5 2c3e
00000050: bb83 303e 9332 323e 02c8 333e 9f5f 353e
00000060: ce95 583e 9ea1 513e a8b1 5c3e 817c 173e
00000070: 4b92 573e 1340 3f3e 4a34 4f3e c9dd 323e
00000080: 8b81 223e 6b03 433e e6bc 403e bd2d 353e
00000090: b83c 353e 91a0 203e bffe 173e 76ee 3a3e
000000a0: 2d26 343e b16e 573e 1de7 593e d8e4 443e
000000b0: 2e93 533e 4e3d 393e 2f2d 3d3e 34d5 493e
000000c0: 64f4 4b3e e8cd fc3d 8a18 593e 0ebb 353e
000000d0: 0196 563e e625 0f3e b2c4 3e3e ef6d 433e
000000e0: 4e54 2c3e 25b7 533e 803c 2f3e 4bcd 2a3e
000000f0: 1ed0 3a3e b027 2c3e 0dac 453e b2e1 4f3e

embedding_layer.0.weight f4 [16, 64]
0.09950131 0.055997297 -0.07738821 -0.18553497 0.022142524 -0.13064796 -0.09795154 -0.16338903
0.10455646 -0.1056138 0.04790528 -0.19938137 -0.19257529 0.042712074 0.08755906 -0.077488646
-0.14846438 -0.058087822 -0.013083814 0.05327372 -0.16931921 0.16918764 0.20637706 -0.16226314
-0.10699532 -0.043414716 -0.03006474 -0.09919301 -0.11223922 -0.08794917 -0.10173545 0.03360777
-0.1541281 0.093804285 0.01001584 -0.04222761 -0.058814596 0.2033687 -0.09703908 0.08511436
-0.050528225 0.005124269 0.13628763 0.06163406 -0.11455078 0.16221082 -0.0028757735 -0.14437915
0.11943908 -0.14331979 -0.044796914 0.16600507 -0.05299451 0.047134046 -0.013089914 -0.12431268
-0.014755838 -0.026990253 0.06562523 0.06831771 -0.17116092 0.1367754 0.03715546 0.08891061
0.095072664 0.086496554 -0.017613094 0.008106465 0.0737153 -0.09764103 0.007842651 -0.1969718
0.08599655 -0.047904573 0.01345183 -0.14091969 -0.034837723 0.07904555 0.07352703 -0.17951195
-0.15173234 -0.03488772 0.12153244 0.18101512 -0.038500253 0.1739421 0.0653927 -0.11429414
-0.15794247 -0.11216231 -0.07153623 -0.16090304 -0.03144331 0.104367785 0.04503947 0.12453336
-0.19558328 0.03276495 0.1764549 -0.09717962 0.11609337 0.10964773 -0.1246102 0.094529316
0.039870173 0.071228616 -0.0012209306 0.050275676 0.005851795 0.13510957 -0.024186052 -0.071065076
0.18308383 -0.092501104 0.10174914 0.09065889 0.028535964 0.15936433 0.10173818 -0.07971651
0.048107646 0.07434102 0.17426251 0.07139298 -0.19498213 0.15479884 0.20813088 0.11238029
0.14969322 0.0798921 -0.2031486 -0.054155298 -0.042659916 -0.14059803 -0.00759164 -0.11881487
0.100356065 -0.028589979 0.11048251 -0.10959853 -0.053291157 -0.10299362 0.1259695 -0.12117526
-0.12078866 -0.030283583 0.12298265 -0.0072690477 -0.1910189 0.21055111 0.1846423 -0.08717653
-0.05940306 -0.086277656 0.00037367592 -0.12739877 -0.11255892 0.1274671 0.09045368 0.09039584
-0.041372728 0.24152721 0.082330264 -0.033337116 0.105069 -0.21443282 -0.050499536 -0.05074456
-0.046807706 -0.10892502 -0.035038147 -0.028364861 0.0031523365 -0.02254042 -0.1091952 -0.08811582
-0.112929225 -0.06662518 0.02712576 0.19666964 -0.020715311 0.030335676 -0.11998216 -0.098130316
0.031005634 -0.090574145 0.12770116 -0.058114354 -0.065590955 -0.05255848 0.046191014 -0.13358931
-0.016777277 -0.12423515 0.06445845 0.08238089 -0.097672634 0.06202772 0.13328014 0.06779474
-0.09572798 0.07922651 -0.09407266 -0.010081975 0.13552757 -0.0030307074 -0.0017655148 0.02547671
0.15334688 0.122721046 -0.03652038 -0.07071498 0.0683691 -0.081345715 -0.059373744 0.04786598
0.10822108 0.07926025 0.06746353 0.14590293 0.056706067 -0.069339976 0.15641466 -0.051438227
0.12040957 -0.045648314 -0.13065739 0.08125611 -0.003294582 -0.010420119 0.19389278 -0.092857696
0.16692525 0.13413975 -0.034429558 0.085156836 0.10794518 -0.03343414 0.100676194 0.12443427
-0.040550966 -0.0007633495 0.13692966 0.009603202 0.116853796 -0.013601727 -0.052066386 0.10714317
-0.048831824 -0.034261443 -0.08161758 -0.036862932 -0.034884166 -0.07028572 -0.08190733 -0.08291485
00000000: 58c7 cb3d 6c5d 653d b67d 9ebd e1fc 3dbe
00000010: 3d64 b53c 94c8 05be d19a c8bd 744f 27be
00000020: b321 d63d 0c4c d8bd 5438 443d a12a 4cbe
00000030: 7532 45be dbf2 2e3d 2a52 b33d 5eb2 9ebd
00000040: 0c07 18be 7fed 6dbd 7e5d 56bc 8b35 5a3d
00000050: 0462 2dbe 863f 2d3e 8254 533e 4f28 26be
00000060: 5d20 dbbd a1d3 31bd 544a f6bc b425 cbbd
00000070: addd e5bd b21e b4bd ad5a d0bd 4da8 093d
00000080: c2d3 1dbe 761c c03d 7a19 243c dcf6 2cbd
00000090: 93e7 70bd e23f 503e 6dbc c6bd 7050 ae3d
000000a0: aff6 4ebd 7ce9 a73b fc8e 0b3e ff73 7c3d
000000b0: 9999 eabd 981a 263e 7977 3cbb 21d8 13be
000000c0: 7a9c f43d 6cc2 12be f87c 37bd 3cfd 293e
000000d0: c510 59bd a10f 413d 1477 56bc a597 febd
000000e0: 78c2 71bc aa1a ddbc 8566 863d 28ea 8b3d
000000f0: cf44 2fbe da0e 0c3e 5330 183d c416 b63d
00000100: 75b5 c23d 1b25 b13d 5649 90bc fbd0 043c
00000110: 0cf8 963d 05f8 c7bd 767e 003c fab2 49be
00000120: f61e b03d 9637 44bd 1065 5c3c 404d 10be
00000130: 00b2 0ebd a2e2 a13d 5795 963d fbd1 37be
00000140: b95f 1bbe 6de6 0ebd 00e6 f83d 075c 393e
00000150: 71b2 1dbd e11d 323e 9cec 853d 0c13 eabd
00000160: acbb 21be 5ab5 e5bd 9681 92bd c4c3 24be
00000170: b3ca 00bd c7be d53d 4f7b 383d 590b ff3d
00000180: fc46 48be 8a34 063d 98b0 343e 1c06 c7bd
00000190: 5cc2 ed3d fd8e e03d a233 ffbd 9698 c13d
000001a0: e84e 233d 4fe0 913d a207 a0ba deed 4d3d
000001b0: 6ac0 bf3b 2a5a 0a3e d421 c6bc 918a 91bd
000001c0: 547a 3b3e 3871 bdbd da61 d03d 5eab b93d
000001d0: 41c4 e93c 6730 233e 1b5c d03d 6942 a3bd
000001e0: 860c 453d 1b40 983d df71 323e 7c36 923d
000001f0: 65a9 47be 9683 1e3e 4320 553e a327 e63d
00000200: 2e49 193e 789e a33d 3006 50be f2d1 5dbd
00000210: 2abc 2ebd eef8 0fbe 4bc3 f8bb 3655 f3bd
00000220: 7b87 cd3d 8835 eabc a744 e23d 3275 e0bd
00000230: d447 5abd 52ee d2bd 26fe 003e bc2a f8bd
00000240: 0c60 f7bd 4715 f8bc 54de fb3d 3131 eebb
00000250: 759a 43be b69a 573e df12 3d3e 9c89 b2bd
00000260: 9f50 73bd 57b2 b0bd efe9 c339 d374 02be
00000270: 4b85 e6bd bc86 023e c73f b93d 7421 b93d
00000280: 7376 29bd e952 773e c59c a83d 808c 08bd
00000290: 6a2e d73d 4794 5bbe 9ad8 4ebd 87d9 4fbd
000002a0: 70b9 3fbd 1514 dfbd 2984 0fbd 6d5d e8bc
000002b0: 6e97 4e3b b0a6 b8bc bca1 dfbd 1176 b4bd
000002c0: 7047 e7bd c872 88bd d836 de3c c463 493e
000002d0: 28b3 a9bc 8682 f83c 35b9 f5bd 8cf8 c8bd
000002e0: 87ff fd3c f07e b9bd 18c4 023e 5109 6ebd
000002f0: 8d54 86bd 9047 57bd ca32 3d3d a3cb 08be
00000300: 8070 89bc 006f febd cb02 843d 50b7 a83d
00000310: 9708 c8bd c710 7e3d 977a 083e f8d7 8a3d
00000320: 080d c4bd 8241 a23d 2ba9 c0bd de2e 25bc
00000330: bdc7 0a3e d59e 46bb d968 e7ba 89b4 d03c
00000340: f706 1d3e 2c55 fb3d 6596 15bd 04d3 90bd
00000350: 1905 8c3d 9598 a6bd e231 73bd 1e0f 443d
00000360: 03a3 dd3d 3353 a23d 522a 8a3d 9467 153e
00000370: 9f44 683d 1e02 8ebd 2a2b 203e e4b0 52bd
00000380: 4b99 f63d baf9 3abd 0dcb 05be 9a69 a63d
00000390: eae9 57bb 26b9 2abc d48b 463e 2d2c bebd
000003a0: 74ee 2a3e ee5b 093e 0206 0dbd b566 ae3d
000003b0: 5d12 dd3d 3df2 08bd 522f ce3d 65d7 fe3d
000003c0: c518 26bd 851b 48ba 4a37 0c3e c056 1d3c
000003d0: 0b51 ef3d c7d9 5ebc 9043 55bd e16d db3d
000003e0: e103 48bd ba55 0cbd 1e27 a7bd 96fd 16bd
000003f0: b3e2 0ebd f6f1 8fbd 08bf a7bd 43cf a9bd

embedding_layer.0.bias f4 [16]
0.03611153 -0.057555217 0.071895145 0.33306852 0.012491295 -0.018120907 0.11762342 0.11608073
0.3514303 0.33955616 0.20514274 0.29097444 0.21635978 0.089404315 -0.05886121 0.043742333
00000000: afe9 133d 05bf 6bbd c33d 933d f587 aa3e
00000010: 4aa8 4c3c 4c72 94bc 8ce4 f03d bcbb ed3d
00000020: acee b33e 4eda ad3e f010 523e 9afa 943e
00000030: 6b8d 5d3e 9c19 b73d 7418 71bd 292b 333d

classifier.weight f4 [2, 16]
-0.27316928 -0.21351774 -0.18924686 0.24888985 -0.13386135 0.043990646 -0.19134265 0.4854542
0.26162854 0.3231491 0.13509502 0.023648206 0.30907127 -0.401103 -0.3289346 -0.2861105
0.048470993 0.18582003 0.24484916 -0.29465365 0.32010698 0.32617664 0.26500517 -0.51473284
0.017296268 -0.11823698 -0.071480826 -0.3613412 0.099142134 0.121519506 -0.008554895 0.32371685
00000000: d8dc 8bbe 65a4 5abe eec9 41be fbdc 7e3e
00000010: f312 09be 892f 343d 54ef 43be 748d f83e
00000020: 2df4 853e cd73 a53e 5956 0a3e e2b9 c13c
00000030: 973e 9e3e 5f5d cdbe 1e6a a8be 137d 92be
00000040: 8589 463d 9b47 3e3e bdb9 7a3e d8dc 96be
00000050: 10e5 a33e a000 a73e c2ae 873e 88c5 03bf
00000060: e7b0 8d3c 3b26 f2bd 8a64 92bd b701 b9be
00000070: 080b cb3d 38df f83d d529 0cbc 37be a53e

classifier.bias f4 [2]
0.2007713 -0.047757067
00000000: fe96 4d3e ea9c 43bd
