o02_train/run_outputs/27cnn_train_weights.pth (torch, 48140 bytes, 22 tensors)

features.0.weight f4 [16, 6, 5]
0.7679045 0.5413223 0.0710084 -0.12655546 -0.5050649 -0.51498425 -0.77339745 -0.3456785
-0.059885375 -0.33703986 0.29623356 0.07502024 0.09635644 -0.11608068 -0.08307772 -0.03332264
0.055059344 0.015777227 -0.0039381385 0.020398377 -0.16080214 0.0031277821 -0.02256324 0.14843984
-0.028332766 -0.23618272 -0.08995779 -0.12633193 -0.04934214 -0.42468727 -1.6144693 -2.0884147
-1.6462355 -1.1533514 -0.4591236 0.5501256 0.5156859 0.65567106 0.6736112 0.93619436
-0.48584372 -0.55549806 -0.42502978 -0.12461692 0.2837353 -0.08451474 0.10416964 -0.042546973
0.0034397175 -0.0013227148 -0.087569095 -0.06960596 -0.16100326 0.18633392 0.09321502 -0.020556137
0.017652687 -0.01898072 0.118609965 -0.1604446 -1.490135 -1.679124 -1.2303077 -0.83119094
-0.3206712 0.42348164 0.7991118 0.6227545 0.6429356 0.6257184 -0.481939 -0.7451958
-0.6216169 -0.73386616 -0.4432955 -0.033726767 -0.056480724 0.015046449 -0.06772503 0.07943526
-0.110725954 -0.08860751 0.19098228 -0.021925181 0.17902103 -0.14709559 0.075458676 -0.09032494
0.004192448 0.15866499 1.8111078 1.3938487 0.83954936 0.12531628 -0.65525895 -0.60280806
-0.25414318 -0.18090652 0.18357395 0.27441183 0.055574507 0.013566996 -0.25601268 -0.5532213
-0.6544709 -0.028832104 -0.055078782 0.015382431 -0.06871307 -0.101410575 0.094847485 -0.08751631
-0.028363716 -0.21332784 -0.16761586 -0.16444264 -0.09191126 -0.26733032 -0.14128809 -0.046579696
-0.27038637 0.2851983 0.87059206 0.9967379 1.1247365 0.6400078 0.66397095 0.46949688
0.4405771 0.037536193 0.12682986 0.29789302 0.15232886 0.44332182 0.31167328 0.04717051
0.017288612 -0.02702164 0.062310405 -0.059138104 -0.17860943 -0.28778452 0.0033201033 -0.19084626
-0.1372087 0.022892263 0.07431161 0.1318014 0.18273562 -0.08502126 -0.26276317 0.27412066
0.18793623 0.0058983606 0.49033147 0.34238264 0.09193696 -0.3102758 -0.5308761 -0.6874268
-0.24013469 0.24180417 0.7534094 0.55727214 0.5709876 0.07954866 -0.16236928 0.08465151
0.049795702 -0.028693253 -0.130839 0.10665812 0.12528042 -0.08808604 -0.03856786 -0.050690036
-0.075752646 0.110723 0.13835809 -0.2061172 0.8527797 0.5481338 0.13912822 -0.16070049
-0.163991 -0.43295985 -0.4764095 -0.45072132 -0.3284321 -0.1261207 0.26743641 0.15961213
0.00037994713 -0.16362928 -0.35013285 -0.0241748 0.013134753 0.03850184 0.040028233 -0.023338703
-0.17138149 -0.051452078 0.10400426 0.04633886 0.0116171455 -0.21232101 -0.10641504 -0.10973062
-0.13047364 -0.25416967 0.74898726 0.61057305 0.09091121 -0.21743178 -0.5341363 0.94294256
0.7816532 0.47014552 0.35257128 -0.025241902 -0.19686879 -0.17786004 -0.33223715 -0.10513951
-0.19128422 0.23222412 0.14106743 0.035915114 -0.12704018 -0.16645896 -0.2732127 0.08062314
0.08198476 0.13891907 0.09182691 0.106780276 0.057874974 -0.035327032 -0.028109092 -0.052808188
0.21074398 0.21667482 0.26207945 0.28410438 0.48766953 -0.80650556 -1.0754374 -0.93727046
-1.0550678 -0.7826052 0.74120456 0.6919239 0.6235197 0.5110267 0.47095653 -0.16496944
00000000: 6495 443f 1994 0a3f da6c 913d c197 01be
00000010: ef4b 01bf 02d6 03bf 60fd 45bf c6fc b0be
00000020: 5e4a 75bd 7d90 acbe edab 973e 36a4 993d
00000030: 8656 c53d b5bb edbd a724 aabd 527d 08bd
00000040: e885 613d 3e3f 813c 800b 81bb 7f1a a73c
00000050: 51a9 24be 7afb 4c3b 8bd6 b8bc 9d00 183e
00000060: 1e1a e8bc e2d9 71be ca3b b8bd 285d 01be
00000070: fc1a 4abd 9c70 d9be eea6 cebf 96a8 05c0
00000080: d8b7 d2bf 05a1 93bf 4012 ebbe 08d5 0c3f
00000090: fe03 043f 0fda 273f c971 2c3f 6faa 6f3f
000000a0: 82c0 f8be 1f35 0ebf 819d d9be 2837 ffbd
000000b0: c145 913e 1016 adbd e456 d53d bc45 2ebd
000000c0: e26c 613b f25e adba 6d57 b3bd 928d 8ebd
000000d0: 0ade 24be 52ce 3e3e 84e7 be3d 5865 a8bc
000000e0: 5e9c 903c 747d 9bbc c8e9 f23d 974b 24be
000000f0: bebc bebf 89ed d6bf b97a 9dbf eec8 54bf
00000100: 042f a4be 96d2 d83e 9792 4c3f d76c 1f3f
00000110: 6d97 243f 152f 203f b5c0 f6be 27c5 3ebf
00000120: 4922 1fbf a7de 3bbf a1f7 e2be 1425 0abd
00000130: 5558 67bd 6285 763c 6cb3 8abd f4ae a23d
00000140: 4ac4 e2bd db77 b5bd dc90 433e 709c b3bc
00000150: 4a51 373e 3aa0 16be 148a 9a3d 48fc b8bd
00000160: ce60 893b 1379 223e 61d2 e73f a269 b23f
00000170: b5ec 563f e952 003e 0dbf 27bf a151 1abf
00000180: 0e1f 82be 8f3f 39be cffa 3b3e b57f 8c3e
00000190: 18a2 633d 1b48 5e3c 1814 83be e99f 0dbf
000001a0: 688b 27bf 4e31 ecbc 4a9a 61bd 9806 7c3c
000001b0: 70b9 8cbd 59b0 cfbd 663f c23d c03b b3bd
000001c0: 065b e8bc 9d72 5abe 7ea3 2bbe a763 28be
000001d0: f83b bcbd 85df 88be d3ad 10be 5aca 3ebd
000001e0: 1570 8abe 8305 923e 1fdf 5e3f 372a 7f3f
000001f0: 5ef7 8f3f 8dd7 233f 00fa 293f e561 f03e
00000200: 5293 e13e 8dbf 193d b0df 013e 6f85 983e
00000210: 19fc 1b3e 14fb e23e a493 9f3e dd35 413d
00000220: d9a0 8d3c 7d5c ddbc 3239 7f3d cc3a 72bd
00000230: 64e5 36be 7e58 93be 1796 593b 346d 43be
00000240: 7080 0cbe 8e88 bb3c af30 983d f2f6 063e
00000250: 0c1f 3b3e a01f aebd e588 86be 8b59 8c3e
00000260: 5b72 403e 0947 c13b ba0c fb3e c74c af3e
00000270: 7249 bc3d 78dc 9ebe 7fe7 07bf 34fb 2fbf
00000280: dee5 75be 839b 773e 70df 403f 63a9 0e3f
00000290: 3e2c 123f 68ea a23d 2244 26be c55d ad3d
000002a0: 94f6 4b3d 1d0e ebbc a9fa 05be 936f da3d
000002b0: 8349 003e 7466 b4bd 55f9 1dbd 5ba0 4fbd
000002c0: 3424 9bbd bdc2 e23d bead 0d3e 6310 53be
000002d0: c54f 5a3f 7f52 0c3f a177 0e3e ab8e 24be
000002e0: 42ed 27be eaac ddbe f2eb f3be f2c4 e6be
000002f0: 4128 a8be c925 01be 6ded 883e 5d71 233e
00000300: a433 c739 6f8e 27be 9d44 b3be 3b0a c6bc
00000310: 2633 573c 1bb4 1d3d a5f4 233d cf30 bfbc
00000320: a17e 2fbe 6abf 52bd 2f00 d53d d1cd 3d3d
00000330: d755 3e3c ae6a 59be 21f0 d9bd 73ba e0bd
00000340: e29a 05be 8722 82be a1bd 3f3f 844e 1c3f
00000350: a82f ba3d 70a6 5ebe 28bd 08bf af64 713f
00000360: 6d1a 483f eab6 f03e 3984 b43e 1bc8 cebc
00000370: f997 49be f120 36be fd1a aabe 6253 d7bd
00000380: 03e0 43be 29cc 6d3e fb73 103e ba1b 133d
00000390: d216 02be 3874 2abe 89e2 8bbe bf1d a53d
000003a0: a0e7 a73d cd40 0e3e bf0f bc3d 9eaf da3d
000003b0: 4f0e 6d3d 14b3 10bd 0a45 e6bc 664d 58bd
000003c0: 45cd 573e 01e0 5d3e 472f 863e 2176 913e
000003d0: d2af f93e 2677 4ebf efa7 89bf f5f0 6fbf
000003e0: 760c 87bf d058 48bf 95bf 3d3f ed21 313f
000003f0: fd9e 1f3f a5d2 023f 3721 f13e c0ed 28be

features.0.bias f4 [16]
0.06441634 -0.054184828 -0.08615668 0.005299608 -0.120854884 -0.07431069 0.122669786 -0.0041302238
0.24352956 0.20539269 0.018102998 0.027025323 0.013982807 0.061359372 -0.073946126 -0.015268359
00000000: b7ec 833d e9f0 5dbd ea72 b0bd 56a8 ad3b
00000010: c482 f7bd 3430 98bd 4c3a fb3d d456 87bb
00000020: d05f 793e 7652 523e bd4c 943c 3664 dd3c
00000030: 2518 653c f753 7b3d 1171 97bd 2428 7abc

features.1.weight f4 [16]
0.9996853 0.88062453 0.92113066 0.9883137 0.89275676 0.9707887 1.0185301 0.87916577
0.91702193 0.9709677 1.0243987 0.88139653 0.9053864 0.9654582 0.8245868 0.85725015
00000000: 60eb 7f3f 9c70 613f 38cf 6b3f 2002 7d3f
00000010: b58b 643f 9c85 783f 325f 823f 0211 613f
00000020: f3c1 6a3f 5791 783f 7f1f 833f 34a3 613f
00000030: 67c7 673f 4528 773f 1f18 533f bf74 5b3f

features.1.bias f4 [16]
-0.1394762 -0.18431582 -0.0068122223 0.02564028 -0.023642257 -0.29447904 -0.15195785 -0.0047196685
-0.099779524 0.011079237 0.0033451216 -0.02421299 -0.0148448255 0.021208106 -0.015273694 -0.03951446
00000000: d9d2 0ebe 49bd 3cbe 1039 dfbb 910b d23c
00000010: 68ad c1bc f5c5 96be d79a 1bbe 73a7 9abb
00000020: 3559 ccbd b085 353c d439 5b3b 525a c6bc
00000030: b637 73bc 9fbc ad3c 843e 7abc ead9 21bd

features.1.running_mean f4 [16]
0.0916925 -0.05258779 -0.09418723 0.012998151 -0.09978673 -0.06872298 0.14619292 -0.0075456654
0.24482715 0.23407744 0.046737876 0.030942608 0.025151325 0.0650386 -0.09080006 -0.014219653
00000000: 47c9 bb3d 4b66 57bd 3ce5 c0bd 32f6 543c
00000010: fc5c ccbd a2be 8cbd 99b3 153e a141 f7bb
00000020: f8b3 7a3e ffb1 6f3e 3770 3f3d 5a7b fd3c
00000030: 270a ce3c f532 853d 62f5 b9bd 8cf9 68bc

features.1.running_var f4 [16]
1055.529 24.273027 73.63864 877.89233 498.62198 15.138721 824.3022 340.67242
114.2188 662.0358 1227.5864 491.76044 257.6602 148.25981 489.7159 663.61707
00000000: eef0 8344 292f c241 fc46 9342 1c79 5b44
00000010: 9d4f f943 3438 7241 5713 4e44 1256 aa43
00000020: 0770 e442 4b82 2544 c472 9944 56e1 f543
00000030: 81d4 8043 8342 1443 a3db f443 7ee7 2544

features.5.weight f4 [32, 16, 3]
-0.0015641347 0.054557584 -0.1462271 -0.09180802 -0.107892394 -0.15982558 0.0025428634 0.029507017
0.050959058 0.115558505 -0.06613132 -0.057811834 -0.05791186 -0.016146574 -0.014762761 -0.18458818
-0.0499628 -0.19061379 -0.20181109 -0.17333618 0.025449805 -0.13982578 0.05802534 -0.06272996
-0.08836897 -0.04823088 -0.09564279 0.12547654 0.11268797 -0.1468897 0.046198405 -0.0041833688
-0.017811684 0.06598384 0.04017935 -0.06561586 0.055608805 0.16049607 0.07526779 0.033936422
-0.07165021 0.070135355 -0.041303545 0.16126804 -0.07591661 0.06493815 -0.001388245 0.057455905
-0.03533445 -0.14220366 -0.10119698 0.07371766 0.12742488 -0.0105255665 -0.016434763 0.118730925
-0.026999064 0.12608641 0.011658067 -0.03157664 0.011482776 0.022107443 0.039434873 0.106976606
0.073205926 0.11543529 -0.13030076 -0.24911341 -0.22547284 -0.22342564 -0.2105577 -0.07781545
-0.12078504 -0.17234586 -0.11741292 -0.06710541 -0.053178098 0.06204834 -0.031596612 -0.16733895
-0.17144369 0.059249274 -0.0039078235 -0.01152717 0.04883269 -0.11738559 0.013566228 0.12290708
-0.031622563 0.0760163 -0.09412895 0.023333311 0.058987383 0.023135813 -0.0009439874 0.06823206
-0.041926928 0.009501672 -0.032166712 -0.028457446 0.019723164 -0.005879928 0.068581425 -0.0035680206
-0.06499302 -0.1382245 -0.17470658 -0.1402035 -0.14093566 -0.114101894 -0.0744816 0.031593695
0.16442458 0.17222838 0.10710439 -0.037396617 -0.08719602 0.039209224 -0.006461423 -0.038280714
0.07713162 0.04931661 0.084585436 -0.06173086 -0.053140815 -0.028667362 -0.11964826 -0.071224906
-0.052744374 -0.11434141 -0.0923897 -0.042886846 -0.15188403 -0.09762118 -0.11279551 -0.14163221
-0.06711817 -0.11401119 -0.11892581 -0.13627848 -0.12802689 -0.12718774 -0.15998258 -0.10262069
-0.0024198454 -0.10938471 0.12920149 0.0939382 -0.12333323 -0.15874332 0.057504635 -0.08969608
-0.13126755 -0.10932395 0.08900344 0.018337285 0.137379 -0.018070027 0.07199677 0.074023075
-0.032287546 -0.101291746 -0.031458758 0.10627645 -0.08027579 -0.04892014 -0.10468155 0.07903157
-0.05906764 -0.13729988 -0.04897111 0.100760646 0.09520734 -0.03440269 -0.000902087 0.052517936
0.15206352 -0.04074441 -0.060615912 0.13346797 -0.12833281 -0.092789635 -0.18795997 0.019383535
0.04882203 -0.005256435 -0.15589394 0.004103032 -0.1160857 0.002599767 -0.2138109 -0.16226931
-0.26080003 -0.19585179 -0.092496455 0.10466276 -0.01878291 0.10243797 -0.0013144417 0.05279325
0.061568074 0.2092108 -0.053553045 0.1962918 0.05564879 -0.080920726 -0.09634542 -0.1351051
0.07573013 -0.08816268 -0.104241304 -0.09274889 -0.22752735 -0.040383026 -0.01861918 0.018379133
-0.035691157 -0.13015169 -0.011437891 0.123988 0.05523368 -0.15359071 -0.1728278 -0.17158386
-0.1272841 0.052105505 0.031036932 0.090417705 -0.08882097 0.010900472 0.041340478 -0.061446972
-0.10282444 -0.039569102 0.0626725 -0.09176906 -0.12009818 0.042400997 0.06814683 0.104881905
-0.07319812 -0.07522542 0.15394111 0.16397615 0.12538378 0.039763276 0.015559509 0.08174917
-0.06287159 -0.10703377 -0.040330086 -0.18597355 -0.059570346 0.083218105 -0.059314676 0.051349748
00000000: a703 cdba c677 5f3d 8fbc 15be d805 bcbd
00000010: b0f6 dcbd 51a9 23be 2ba6 263b b3b8 f13c
00000020: 72ba 503d f0a9 ec3d dc6f 87bd 1acc 6cbd
00000030: fd34 6dbd d245 84bc 82df 71bc af04 3dbe
00000040: cba5 4cbd 4330 43be 91a7 4ebe 0a7f 31be
00000050: 1c7c d03c 7d2e 0fbe fbab 6d3d 9178 80bd
00000060: cafa b4bd be8d 45bd 5ee0 c3bd ec7c 003e
00000070: f3c8 e63d 416a 16be 8a3a 3d3d a414 89bb
00000080: cfe9 91bc 8922 873d 1a93 243d 9c61 86bd
00000090: 0fc6 633d 1559 243e 0026 9a3d eb00 0b3d
000000a0: 58bd 92bd 20a3 8f3d e82d 29bd 7323 253e
000000b0: 2b7a 9bbd 4bfe 843d c6f5 b5ba e256 6b3d
000000c0: dbba 10bd d69d 11be 5d40 cfbd 49f9 963d
000000d0: ab7b 023e 6d73 2cbc 32a2 86bc 3329 f33d
000000e0: 242d ddbc cc1c 013e 7a01 3f3c 8256 01bd
000000f0: 4122 3c3c ab1a b53c 7686 213d 8d16 db3d
00000100: fdec 953d 5669 ec3d 906d 05be 9617 7fbe
00000110: 5ae2 66be b1c9 64be 709c 57be b55d 9fbd
00000120: 265e f7bd 6f7b 30be 2f76 f0bd 906e 89bd
00000130: 47d1 59bd 6626 7e3d 736b 01bd e75a 2bbe
00000140: ef8e 2fbe 5eaf 723d 330d 80bb 75dc 3cbc
00000150: c904 483d db67 f0bd e244 5e3c b5b6 fb3d
00000160: a986 01bd 6fae 9b3d aec6 c0bd 8025 bf3c
00000170: c19c 713d 5187 bd3c ec75 77ba 40bd 8b3d
00000180: 92bb 2bbd e7ac 1b3c 3ec1 03bd 971f e9bc
00000190: 7992 a13c 69ac c0bb 6b74 8c3d 74d5 69bb
000001a0: 0f1b 85bd b98a 0dbe 48e6 32be 8291 0fbe
000001b0: 7051 10be 41ae e9bd cf89 98bd 6468 013d
000001c0: eb5e 283e a35c 303e 8c59 db3d 322d 19bd
000001d0: d493 b2bd da99 203d 58ba d3bb 3dcc 1cbd
000001e0: 2ff7 9d3d 3700 4a3d 213b ad3d 80d9 7cbd
000001f0: 2faa 59bd d1d7 eabc 260a f5bd 5dde 91bd
00000200: 7c0a 58bd d42b eabd d036 bdbd 1eaa 2fbd
00000210: 7d87 1bbe 9ded c7bd 5501 e7bd 0908 11be
00000220: 4075 89bd b37e e9bd 608f f3bd 968c 0bbe
00000230: 7b19 03be 813d 02be 79d2 23be cc2a d2bd
00000240: 4596 1ebb 1705 e0bd 654d 043e ac62 c03d
00000250: 2296 fcbd 9c8d 22be fb89 6b3d 94b2 b7bd
00000260: 006b 06be 3ce5 dfbd 7047 b63d 1338 963c
00000270: 15ad 0c3e 9807 94bc 0b73 933d 6999 973d
00000280: f23f 04bd 0c72 cfbd e6da 00bd 78a7 d93d
00000290: a267 a4bd 7c60 48bd 4863 d6bd 4edb a13d
000002a0: e9f0 71bd 5798 0cbe ee95 48bd 995b ce3d
000002b0: 11fc c23d d6e9 0cbd 097a 6cba 0c1d 573d
000002c0: 8ab6 1b3e 9ce3 26bd 6448 78bd d4ab 083e
000002d0: ad69 03be 7e08 bebd 9478 40be 38ca 9e3c
000002e0: 9cf9 473d 2c3e acbb a9a2 1fbe ba72 863b
000002f0: 57be edbd da60 2a3b 3ff1 5abe ed29 26be
00000300: 9587 85be 5f8d 48be c86e bdbd 6e59 d63d
00000310: 9ede 99bc 00cb d13d 5849 acba bc3d 583d
00000320: ce2e 7c3d 5b3b 563e 705a 5bbd b800 493e
00000330: fcef 633d c4b9 a5bd bf50 c5bd fe58 0abe
00000340: 6618 9b3d a38e b4bd 777c d5bd 21f3 bdbd
00000350: eefc 68be ac68 25bd 4087 98bc d68f 963c
00000360: e430 12bd 7c46 05be fe65 3bbc 6ced fd3d
00000370: b63c 623d e246 1dbe c5f9 30be aeb3 2fbe
00000380: c356 02be 956c 553d 2a41 fe3c eb2c b93d
00000390: c5e7 b5bd e597 323c a254 293d d2af 7bbd
000003a0: 9f95 d2bd 3613 22bd 715a 803d 6bf1 bbbd
000003b0: 09f6 f5bd abac 2d3d 9190 8b3d 53cc d63d
000003c0: e5e8 95bd c90f 9abd bda2 1d3e 5de9 273e
000003d0: 9b64 003e d1de 223d 50ed 7e3c 1c6c a73d
000003e0: d2c2 80bd 8534 dbbd 2931 25bd da6f 3ebe
000003f0: 0900 74bd 416e aa3d f2f3 72bd 1d54 523d

features.5.bias f4 [32]
-0.08853866 -0.10444311 -0.00016422248 -0.11622086 -0.12782133 -0.16126308 0.0032943396 0.072060585
0.07146482 -0.14020969 -0.031641733 -0.0278546 -0.008763148 -0.068903625 0.107836835 0.18360865
0.06262734 -0.02821611 -0.039248582 0.12880298 0.034615453 -0.08800187 -0.12819423 0.04381274
0.10363247 0.030264389 -0.09620056 -0.053520735 -0.054703552 -0.009677299 0.093152575 -0.014577486
00000000: c253 b5bd 45e6 d5bd 2333 2cb9 3405 eebd
00000010: 98e3 02be 2622 25be d9e5 573b 8094 933d
00000020: 265c 923d 2193 0fbe c39a 01bd 552f e4bc
00000030: 4f93 0fbc 581d 8dbd 8fd9 dc3d e803 3c3e
00000040: c342 803d 7925 e7bc 1fc3 20bd eee4 033e
00000050: efc8 0d3d 533a b4bd 5945 03be fd74 333d
00000060: 433d d43d 06ed f73c cd04 c5bd 8f38 5bbd
00000070: d510 60bd 898d 1ebc c7c6 be3d 68d6 6ebc

features.6.weight f4 [32]
0.83330965 1.0249518 1.1020894 0.8604716 0.8577424 0.86808866 0.8845353 0.9772231
0.8878972 1.060071 1.06788 0.8433064 0.9650191 1.0258669 1.0348604 0.9140884
0.8725078 1.0429342 1.001764 0.8325116 0.8860242 0.9292153 0.9715565 1.0158981
1.0540771 0.7732967 0.8108961 0.97879267 0.9277131 0.993973 1.0091377 1.0308238
00000000: c853 553f 9f31 833f 4411 8d3f de47 5c3f
00000010: 0295 5b3f 0f3b 5e3f e870 623f 4b2b 7a3f
00000020: 3b4d 633f 68b0 873f 4bb0 883f eee2 573f
00000030: 7e0b 773f 9b4f 833f 4e76 843f b301 6a3f
00000040: ac5c 5f3f de7e 853f ce39 803f 7b1f 553f
00000050: 7bd2 623f 0ee1 6d3f edb7 783f f308 823f
00000060: 00ec 863f c6f6 453f e396 4f3f 2892 7a3f
00000070: 9b7e 6d3f 0475 7e3f 6d2b 813f 09f2 833f

features.6.bias f4 [32]
-0.035891328 -0.064936824 -0.03113858 -0.13641477 -0.05241855 -0.20063123 -0.057528324 -0.0953553
-0.0015345522 -0.017273474 -0.07434061 -0.27036393 0.010370806 -0.07022981 0.00020323285 -0.13404465
-0.2024898 -0.079491615 -0.10232269 -0.055655155 -0.14853689 -0.2761284 -0.11870179 -0.15052116
-0.0018456272 -0.16825332 -0.19731575 -0.07520738 -0.12692162 -0.12630728 -0.06859128 -0.037363708
00000000: c902 13bd 99fd 84bd 5616 ffbc 50b0 0bbe
00000010: d5b4 56bd 4672 4dbe d2a2 6bbd a449 c3bd
00000020: 0723 c9ba 1a81 8dbc e43f 98bd 246d 8abe
00000030: 50ea 293c a6d4 8fbd e71a 5539 0043 09be
00000040: 7c59 4fbe 80cc a2bd 8f8e d1bd a9f6 63bd
00000050: 0e1a 18be b460 8dbe ed19 f3bd 3822 1abe
00000060: f9e8 f1ba 994a 2cbe 240d 4abe 5406 9abd
00000070: bef7 01be b256 01be 9679 8cbd b00a 19bd

features.6.running_mean f4 [32]
-0.27028197 -0.37032995 -0.5770471 -0.34591067 -0.37871337 -0.6208745 -0.17970458 -0.15326372
-0.45218146 -0.6700976 -0.6484395 -0.21610524 -0.48636395 -0.26062733 -0.11065487 -0.18661794
0.2414602 -0.44442198 -0.6433748 -0.08002486 0.29459357 -0.2562675 -0.5670915 -0.23749289
-0.3941668 0.16388215 -0.6462748 -0.37761855 0.10203429 -0.22606403 -0.20946334 -0.49680883
00000000: 6662 8abe e39b bdbe 5cb9 13bf 341b b1be
00000010: b8e6 c1be a2f1 1ebf 7a04 38be 2af1 1cbe
00000020: 5484 e7be 848b 2bbf 2200 26bf b14a 5dbe
00000030: b204 f9be f270 85be 059f e2bd c618 3fbe
00000040: 5841 773e 478b e3be 36b4 24bf 13e4 a3bd
00000050: f8d4 963e 7e35 83be e92c 11bf 5631 73be
00000060: 3bd0 c9be b9d0 273e 4472 25bf 3857 c1be
00000070: 5bf7 d03d 547d 67be 8f7d 56be ba5d febe

features.6.running_var f4 [32]
0.40848693 0.70441884 1.0925322 0.5357402 0.85200834 0.83824944 0.53442234 0.71492094
1.5515133 1.0832033 1.4734923 0.36920616 1.8987116 0.6049874 0.7556476 0.84896445
0.32882643 0.63953704 1.0814242 0.59276175 0.44415632 0.4958824 0.96983147 0.70408314
1.4582059 0.3235198 1.3668369 0.89183116 0.3618177 0.53198296 0.93048525 0.7829483
00000000: 3325 d13e cb54 343f 18d8 8b3f 4526 093f
00000010: 381d 5a3f 8497 563f e7cf 083f 0f05 373f
00000020: fd97 c63f 68a6 8a3f 659b bc3f 9708 bd3e
00000030: fb08 f33f 74e0 1a3f 1f72 413f bc55 593f
00000040: f05b a83e b3b8 233f 1c6c 8a3f 3cbf 173f
00000050: 7568 e33e 4ce4 fd3e e046 783f cb3e 343f
00000060: 7ea6 ba3f 63a4 a53e 83f4 ae3f 0c4f 643f
00000070: 2b40 b93e 0930 083f 4834 6e3f 4d6f 483f

features.10.weight f4 [64, 32, 3]
-0.06266749 -0.06606989 -0.036206473 0.056587208 0.10291948 0.05570767 -0.0757411 -0.0111581925
-0.107580654 -0.02763041 -0.062815286 -0.115905166 0.054025806 0.032086194 0.058121916 0.09235846
-0.011780598 0.07498386 0.009708745 0.002786301 0.0052850377 0.1183922 0.0025178061 7.5270065e-05
-0.08930884 -0.12899475 -0.10466407 -0.040193453 -0.025342783 -0.006283965 -0.07912625 -0.07583183
-0.007638206 -0.028208554 -0.02280681 -0.08244223 -0.10011602 -0.16060096 -0.15476902 0.031189207
0.040819265 0.08315025 0.054323614 0.13760966 0.069138564 0.08091964 0.12038448 0.106304705
-0.09330519 -0.04843561 -0.016572231 -0.032620717 -0.0042861444 -0.017820846 -0.016335573 -0.016017405
-0.007046536 -0.0095731 0.04493071 0.03284283 -0.08672903 -0.08892205 -0.044497743 -0.011833685
0.09401148 0.062171504 0.16614851 0.07623692 0.033836026 0.21744104 0.09930357 0.16777441
-0.028211433 -0.12196719 -0.09997125 -0.00018925146 0.08255673 -0.0064139157 0.06553299 0.05943709
0.024857825 0.14782189 0.09294997 0.054878484 -0.082548924 -0.09343789 -0.13158348 -0.011053521
0.04169235 0.017077487 -0.10519222 -0.080220826 -0.06371392 0.004348065 -0.08016191 -0.061244648
-0.05190815 -0.03537205 0.012127742 0.129373 0.11805563 0.046108887 -0.06504654 -0.046109464
-0.0048687463 -0.02347098 -0.013648079 -0.08503069 -0.002753184 0.03453226 0.10087824 0.09615065
0.14497347 0.10503362 0.078569844 0.15024707 0.054647006 0.07896902 0.05316807 -0.021116773
-0.04041403 -0.034039423 -0.11699037 0.04766402 -0.045904145 -0.055966653 -0.041047513 -0.044623036
-0.043269448 -0.018256122 0.016469084 -0.07962035 -0.060860816 -0.09924258 -0.12567776 0.12274246
0.11866237 0.008016259 0.004962367 0.061911494 0.021410128 0.06420766 0.023524974 0.061268065
-0.04363973 -0.055169504 -0.028089788 0.02072435 -0.0017479036 0.045292772 -0.016209042 0.041523945
-0.030509682 -0.11442867 -0.041449364 -0.0123818815 -0.0368099 -0.031625297 -0.044027504 0.10688702
0.08968004 0.09372863 0.10557309 0.15787962 0.118612066 0.040755548 0.090658 0.04139819
-0.05744552 -0.11684789 -0.10054151 0.0058381427 0.13100755 0.12115066 -0.04500398 -0.08583217
-0.01818668 0.085363805 0.11858227 0.03716645 -0.038064353 -0.11389913 -0.09232441 0.002955029
0.102321036 0.08071919 -0.12723194 -0.09924274 -0.08596053 -0.04907393 -0.008503136 0.00059242226
-0.13641979 -0.08367852 -0.067722216 -0.12917559 -0.113205634 -0.091343045 0.18053043 0.059331484
0.11725913 -0.04597702 -0.047540642 -0.10829429 -0.04093867 -0.028801309 -0.08867252 0.079257034
0.10884714 0.07974864 -0.05684246 -0.113977894 -0.14839263 -0.13167237 -0.05953976 -0.16333933
-0.069432035 -0.055531036 -0.10042139 0.11955454 0.122189365 0.031960938 0.099658236 0.012526458
0.008069526 0.10750518 0.09742947 0.011856446 -0.14282954 -0.103463754 -0.057350453 -0.08104271
-0.035638165 -0.17796452 -0.15512256 -0.10902841 -0.107504375 -0.032651864 -0.052777536 -0.07934104
0.04672041 -0.012696895 0.017236313 0.07390387 0.1026294 0.179268 0.114024065 0.062117472
0.07115136 -0.070278525 -0.039059363 -0.11257298 -0.06943289 -0.04810446 0.0064670932 -0.09460336
00000000: d057 80bd a74f 87bd 3d4d 14bd fdc7 673d
00000010: 73c7 d23d ba2d 643d 261e 9bbd dad0 36bc
00000020: 3f53 dcbd 2b59 e2bc 4da5 80bd b05f edbd
00000030: 2a4a 5d3d d06c 033d 3f11 6e3d 6f26 bd3d
00000040: 6903 41bc 2391 993d 6e11 1f3c 609a 363b
00000050: 1c2e ad3b 9c77 f23d c701 253b 4fda 9d38
00000060: 8ee7 b6bd 3317 04be 1e5a d6bd e4a1 24bd
00000070: ab9b cfbc b8e9 cdbb f20c a2bd b84d 9bbd
00000080: ea49 fabb a015 e7bc 59d5 babc 79d7 a8bd
00000090: a109 cdbd 9474 24be c57b 1ebe 8280 ff3c
000000a0: 1a32 273d ae4a aa3d 7082 5e3d 8ce9 0c3e
000000b0: 8598 8d3d 32b9 a53d 238c f63d 48b6 d93d
000000c0: cb16 bfbd 6b64 46bd 7dc2 87bc 4d9d 05bd
000000d0: c972 8cbb 06fd 91bc 2ed2 85bc ef36 83bc
000000e0: a1e6 e6bb 7ed8 1cbc 4409 383d 3486 063d
000000f0: fd9e b1bd c41c b6bd 4443 36bd 13e2 41bc
00000100: 1789 c03d 8ca7 7e3d d622 2a3e 1a22 9c3d
00000110: a597 0a3d dda8 5e3e ac5f cb3d 0ecd 2b3e
00000120: aa1b e7bc efc9 f9bd babd ccbd cd71 46b9
00000130: 8113 a93d d32b d2bb 2936 863d 4e74 733d
00000140: a3a2 cb3c 9f5e 173e 8e5c be3d 43c8 603d
00000150: 690f a9bd 5d5c bfbd d2bd 06be d419 35bc
00000160: 99c5 2a3d 16e6 8b3c 056f d7bd d14a a4bd
00000170: 727c 82bd 367a 8e3b ed2b a4bd abdb 7abd
00000180: a49d 54bd 48e2 10bd 70b3 463c 5b7a 043e
00000190: 26c7 f13d acdc 3c3d 1f37 85bd 47dd 3cbd
000001a0: 018a 9fbb 3646 c0bc 319c 5fbc 9224 aebd
000001b0: c36e 34bb b371 0d3d 4099 ce3d a2ea c43d
000001c0: ed73 143e de1b d73d 3ae9 a03d 5eda 193e
000001d0: 8ad5 5f3d 82ba a13d c3c6 593d 15fd acbc
000001e0: 2f89 25bd ec6c 0bbd a698 efbd 593b 433d
000001f0: fc05 3cbd 4a3d 65bd 7021 28bd a5c6 36bd
00000200: 4e3b 31bd dd8d 95bc 2cea 863c fe0f a3bd
00000210: 3149 79bd b23f cbbd acb1 00be 6660 fb3d
00000220: 4205 f33d a156 033c 5a9b a23b e896 7d3d
00000230: 4b64 af3c 4e7f 833d 72b7 c03c 39f4 7a3d
00000240: 93bf 32bd 6bf9 61bd 8e1c e6bc 1dc6 a93c
00000250: ea19 e5ba ea84 393d d3c8 84bc 0315 2a3d
00000260: 71ef f9bc 9459 eabd cfc6 29bd 60dd 4abc
00000270: fac5 16bd 8789 01bd 2f56 34bd 95e7 da3d
00000280: 2baa b73d ccf4 bf3d b436 d83d 32ab 213e
00000290: e2ea f23d 4aef 263d e7aa b93d 2691 293d
000002a0: fe4b 6bbd f24d efbd b5e8 cdbd e44d bf3b
000002b0: d826 063e d61d f83d 1856 38bd c7c8 afbd
000002c0: 3bfc 94bc 38d3 ae3d 43db f23d d93b 183d
000002d0: 5ee9 1bbd f243 e9bd 9514 bdbd 29a9 413b
000002e0: b18d d13d 1a50 a53d 1749 02be c73f cbbd
000002f0: 130c b0bd bf01 49bd bd50 0bbc c94c 1b3a
00000300: a1b1 0bbe a55f abbd f2b1 8abd 9b46 04be
00000310: 5bd8 e7bd 1012 bbbd f8dc 383e 9205 733d
00000320: 8e25 f03d 6652 3cbd fab9 42bd 66c9 ddbd
00000330: 4faf 27bd b9f0 ebbc f099 b5bd 8351 a23d
00000340: 40eb de3d 4153 a33d a4d3 68bd 3e6d e9bd
00000350: 3df4 17be 1fd5 06be f7df 73bd 6d42 27be
00000360: 6232 8ebd 8374 63bd bba9 cdbd 03d9 f43d
00000370: 6b3e fa3d 79e9 023d 9e19 cc3d c63b 4d3c
00000380: 0c36 043c ad2b dc3d 1a89 c73d 8a41 423c
00000390: e841 12be cee4 d3bd 4fe8 6abd b8f9 a5bd
000003a0: 53f9 11bd 553c 36be 73d8 1ebe 494a dfbd
000003b0: 412b dcbd f6bd 05bd 422d 58bd 8e7d a2bd
000003c0: e75d 3f3d a306 50bc 2b33 8d3c ea5a 973d
000003d0: 5d2f d23d 0892 373e 7385 e93d e46e 7e3d
000003e0: ceb7 913d 30ee 8fbd b6fc 1fbd aa8c e6bd
000003f0: d532 8ebd 2f09 45bd e9e9 d33b 68bf c1bd

features.10.bias f4 [64]
0.046117343 -0.055023525 0.13055333 -0.05027799 -0.029552637 0.021328172 0.08015828 -0.041210096
0.10921697 0.039019883 0.016213413 -0.015565657 -0.008770569 -0.022420932 -0.086552426 0.07606941
0.012345157 0.075013734 -0.041502275 0.10842482 0.013306598 0.06259669 -0.051049177 0.037241083
0.071321905 0.079633005 -0.08373326 0.04499625 0.058340687 -0.08793701 0.08759677 0.06544552
-0.062425565 -0.10155297 0.0052510775 0.0998594 -0.0014883421 -0.027818693 -0.019015023 -0.10989749
0.11313209 0.06514045 -0.08694152 -0.013503911 0.016726522 -0.058401488 -0.07533956 0.042351242
0.018469144 0.10215323 -0.068375096 0.037937313 0.0013417752 0.080901034 0.09169746 0.04960532
0.004603001 -0.020568172 -0.046598963 -0.011251228 0.08728829 -0.052512184 -0.060123913 0.0888472
00000000: 8ae5 3c3d 5960 61bd c6af 053e 4bf0 4dbd
00000010: 5f18 f2bc 6bb8 ae3c 062a a43d ebcb 28bd
00000020: 26ad df3d 50d3 1f3d fed1 843c 1907 7fbc
00000030: 6fb2 0fbc 1aac b7bc 6642 b1bd 47ca 9b3d
00000040: 5743 4a3c cda0 993d 4afe 29bd d50d de3d
00000050: eb03 5a3c b232 803d f118 51bd 1b8a 183d
00000060: 3811 923d a116 a33d 587c abbd fd4d 383d
00000070: a5f6 6e3d 5218 b4bd ef65 b33d 4d08 863d
00000080: f3b1 7fbd 01fb cfbd 3b11 ac3b 1683 cc3d
00000090: 7914 c3ba 07e4 e3bc 65c5 9bbc ef11 e1bd
000000a0: ccb1 e73d 5b68 853d 650e b2bd 823f 5dbc
000000b0: 0f06 893c 6636 6fbd a14b 9abd 7f78 2d3d
000000c0: 9a4c 973c b635 d13d 3e08 8cbd 2864 1b3d
000000d0: 81de af3a 71af a53d e1cb bb3d f32e 4b3d
000000e0: c5d4 963b 957e a8bc 8ede 3ebd 1257 38bc
000000f0: 34c4 b23d 0417 57bd 7e44 76bd 85f5 b53d

features.11.weight f4 [64]
0.9686991 0.94149804 1.0364078 1.0522068 0.9604996 1.0808611 1.0152922 0.99958676
0.9726432 1.0199791 0.93377733 1.0529051 1.0475909 0.99468493 0.9545661 0.9916496
1.0061746 1.0487126 0.97635716 0.96137077 0.996594 0.9369722 0.9724244 1.0164874
0.9439612 0.98991984 0.96657133 0.99516344 1.070652 0.964129 0.993525 0.9783488
0.9736446 0.97611886 0.9316667 1.0312496 1.0175116 0.94609046 1.0445286 0.936805
1.0042502 1.0583432 1.033463 1.0839461 1.0823116 0.96419233 1.0051231 0.9454936
0.98192286 1.0523813 1.0519148 0.94484925 1.0466061 1.007608 1.0115654 1.0591483
0.9737821 1.007838 0.9592422 0.9535011 1.0529674 0.946285 0.96739566 0.91470414
00000000: aafc 773f 0406 713f 03a9 843f b6ae 863f
00000010: 4de3 753f a859 8a3f 18f5 813f ebe4 7f3f
00000020: 25ff 783f ad8e 823f 080c 6f3f 98c5 863f
00000030: 7517 863f aca3 7e3f 725e 743f c0dc 7d3f
00000040: 54ca 803f 373c 863f 8bf2 793f 651c 763f
00000050: c920 7f3f 69dd 6f3f cef0 783f 421c 823f
00000060: 71a7 713f 636b 7d3f 3871 773f 08c3 7e3f
00000070: 200b 893f 28d1 763f a857 7e3f 1175 7a3f
00000080: c640 793f ede2 793f b581 6e3f fdff 833f
00000090: d23d 823f fc32 723f 1db3 853f 74d2 6f3f
000000a0: 458b 803f ca77 873f 8448 843f bfbe 8a3f
000000b0: 3089 8a3f 4fd5 763f e0a7 803f de0b 723f
000000c0: 4c5f 7b3f 6eb4 863f 25a5 863f a4e1 713f
000000d0: 30f7 853f 4df9 803f fa7a 813f 2c92 873f
000000e0: c949 793f d600 813f e690 753f a618 743f
000000f0: a3c7 863f bc3f 723f 3ea7 773f 0d2a 6a3f

features.11.bias f4 [64]
-0.13330851 -0.18776155 0.07007969 0.07926141 -0.1709147 0.0821464 0.042003497 -0.018465249
-0.12351741 -0.037926078 -0.20283087 -0.082140714 0.072265565 -0.09520169 -0.10612092 0.059644062
0.05079528 0.06945122 -0.1143471 -0.16167328 0.020976702 -0.18323465 -0.0017147945 -0.020374376
0.0004706634 0.0074263033 -0.10674209 0.08376917 0.096812144 -0.19060285 0.05958409 -0.11102004
0.003157246 -0.12818469 -0.18442895 0.028662384 -0.08641614 -0.15935278 0.0840977 -0.20134719
0.030904327 0.09013475 0.013399554 0.08573503 0.058873884 -0.070494495 0.035458244 0.037635405
-0.14805168 0.05913392 0.071410306 -0.12764002 0.07937014 0.015540085 -0.1023949 0.04348765
-0.11687074 -0.12199757 -0.15639237 -0.14865535 -0.069736585 -0.16184941 -0.1635012 -0.20090082
00000000: 0782 08be 9044 40be f185 8f3d ce53 a23d
00000010: 4304 2fbe 5f3c a83d dc0b 2c3d 6f44 97bc
00000020: b2f6 fcbd 6058 1bbd e5b2 4fbe 6439 a8bd
00000030: f8ff 933d 1bf9 c2bd ed55 d9bd 554d 743d
00000040: b60e 503d 713c 8e3d d02e eabd ae8d 25be
00000050: 55d7 ab3c dda1 3bbe f5c2 e0ba 2ae8 a6bc
00000060: 5fc3 f639 5958 f33b 999b dabd 2c8f ab3d
00000070: 7245 c63d 652d 43be 720e 743d 7a5e e3bd
00000080: cce9 4e3b d942 03be f1da 3cbe 60cd ea3c
00000090: f2fa b0bd 602d 23be 6a3b ac3d f52d 4ebe
000000a0: 122b fd3c 9198 b83d ce89 5b3c d995 af3d
000000b0: be25 713d 6b5f 90bd aa3c 113d 9527 1a3d
000000c0: dc9a 17be 6936 723d 913f 923d 11b4 02be
000000d0: d08c a23d d79b 7e3c 6bb4 d1bd 1b20 323d
000000e0: ed59 efbd ddd9 f9bd 5225 20be 1c39 18be
000000f0: 0ed2 8ebd dabb 25be dc6c 27be f2b8 4dbe

features.11.running_mean f4 [64]
-0.17749773 -0.04092154 -0.22525732 -0.011066985 -0.18491058 1.17137 0.31980488 0.17952603
-0.07905556 0.11172331 0.0014677476 1.0709091 0.2763232 -0.4908677 -0.13987212 -0.33094573
0.48128214 0.36958426 0.37566885 0.050645974 0.55775225 0.09702514 0.76999736 -0.26597306
-0.80520236 0.3224724 0.15252748 -0.004687157 0.56715155 -0.044262297 0.41440085 0.03510673
-0.17168005 -0.028386662 0.059568726 1.0452477 -0.016245222 0.032716535 0.774306 -0.19791305
0.7367445 0.7125504 -0.8136801 0.67054844 1.1232866 -0.20654967 0.6597794 0.27149254
-0.032857362 1.2651995 0.86146235 -0.017527254 0.6340282 -0.48491064 0.38718137 1.1799247
0.11153247 -0.25995794 -0.17127572 -0.042814214 0.9124917 -0.043364376 -0.09897162 0.011926018
00000000: f7c1 35be 589d 27bd dba9 66be 4d52 35bc
00000010: 3359 3dbe 74ef 953f 77bd a33e acd5 373e
00000020: e2e7 a1bd 31cf e43d 7061 c03a 8d13 893f
00000030: 3c7a 8d3e 0353 fbbe a33a 0fbe b871 a9be
00000040: 9d6a f63e 263a bd3e ab57 c03e 2772 4f3d
00000050: dac8 0e3f 1eb5 c63d 8c1e 453f 9f2d 88be
00000060: be21 4ebf 1a1b a53e 2a30 1c3e b996 99bb
00000070: d830 113f 624c 35bd 592c d43e 13cc 0f3d
00000080: e5cc 2fbe 258b e8bc 56fe 733d adca 853f
00000090: b314 85bc c601 063d eb38 463f b8a9 4abe
000000a0: 4a9b 3c3f b469 363f 574d 50bf 10a9 2b3f
000000b0: dbc7 8f3f c281 53be 4ee7 283f 1201 8b3e
000000c0: 7195 06bd 0ff2 a13f cc88 5c3f 5195 8fbc
000000d0: ac4f 223f 3546 f8be a33c c63e c607 973f
000000e0: 236b e43d 3519 85be e762 2fbe f55d 2fbd
000000f0: 0e99 693f d89e 31bd a2b1 cabd 5865 433c

features.11.running_var f4 [64]
0.39733213 0.34230033 0.44124162 0.38984588 0.3996453 0.28931054 0.3782751 0.4166678
0.3875944 0.38033563 0.33318293 0.4377374 0.34993026 0.30568397 0.32034728 0.37560174
0.28214246 0.31098878 0.4928284 0.41296405 0.22331843 0.30750012 0.2995189 0.4462978
0.5368664 0.22805287 0.37090003 0.3111468 0.3420531 0.3516557 0.36536592 0.40115532
0.4365527 0.46332204 0.33334783 0.39302802 0.3470807 0.38506567 0.312469 0.4247894
0.2420757 0.3585243 0.34764093 0.29739064 0.4412334 0.35885313 0.40694678 0.34298098
0.45381176 0.2592975 0.39743638 0.30747637 0.33815145 0.3195202 0.4954717 0.37114912
0.42509848 0.4837356 0.3916411 0.38766843 0.46984732 0.3458394 0.3570969 0.3744971
00000000: 1e6f cb3e fd41 af3e 6cea e13e e199 c73e
00000010: 4f9e cc3e 8320 943e 46ad c13e 7b55 d53e
00000020: c672 c63e 5abb c23e f496 aa3e 1e1f e03e
00000030: 0f2a b33e 9c82 9c3e 8f04 a43e df4e c03e
00000040: fa74 903e ec39 9f3e 0154 fc3e 0670 d33e
00000050: 96ad 643e a870 9d3e 8b5a 993e 2581 e43e
00000060: 1470 093f b186 693e 9ce6 bd3e a24e 9f3e
00000070: 9521 af3e 370c b43e 3e11 bb3e 3b64 cd3e
00000080: d683 df3e 8c38 ed3e 91ac aa3e f83a c93e
00000090: 90b4 b13e 5427 c53e f0fb 9f3e ff7d d93e
000000a0: b1e2 773e 7f90 b73e fefd b13e 9643 983e
000000b0: 58e9 e13e 99bb b73e 545b d03e 349b af3e
000000c0: 045a e83e a4c2 843e c87c cb3e 8b6d 9d3e
000000d0: 3022 ad3e 2798 a33e 77ae fd3e 4207 be3e
000000e0: 82a6 d93e 31ac f73e 2f85 c83e 7a7c c63e
000000f0: d48f f03e dd11 b13e 68d5 b63e 15be bf3e

embedding_layer.0.weight f4 [16, 64]
0.088193014 0.015513383 -0.020430261 -0.1748798 -0.042487744 -0.14301442 -0.07220251 -0.14339447
0.06815794 -0.1186339 0.044442214 -0.20126507 -0.11438175 0.032886554 0.11908089 0.0039054092
-0.085838385 -0.03318308 -0.02172931 0.04827909 -0.07587081 0.14049558 0.099303015 -0.17829773
-0.01876869 0.042594124 0.09239894 -0.06668295 -0.0956766 -0.030195752 -0.16126704 0.018878896
-0.23730266 0.061909642 -0.008627106 0.02543781 0.014008013 0.1522754 -0.049139768 0.08343527
-0.061609868 0.007729849 -0.042321753 0.015715526 -0.14067705 0.12578163 0.021339241 -0.1462603
0.13216592 -0.17907874 -0.045299675 0.12983143 0.014215039 -0.08762885 0.004866578 -0.07544579
-0.0130701875 -0.015200356 0.05258331 0.0909972 -0.19981816 0.122769065 -0.023277458 0.0993194
0.08482481 0.01588846 0.013199931 0.031630516 0.009194239 -0.05483612 0.059680585 -0.11251724
0.105564654 0.023228962 0.0028580679 -0.08493485 0.010690071 0.110485315 0.13741419 -0.05629259
-0.05413442 0.024029426 0.17502643 0.16668046 0.056498595 0.15735008 0.0016489935 -0.015633343
-0.10335038 -0.016271055 0.0021159914 -0.13243984 -0.0036910237 0.09663186 0.038667705 0.12765889
-0.095155865 0.030396344 0.13229613 -0.059870385 0.14776777 0.07378513 -0.091915876 0.073144145
0.03678076 0.02316011 -0.06639768 0.011832995 0.024678975 0.14448807 0.019542987 -0.053666323
0.17731862 0.018042767 0.053744007 0.07939496 0.0037786858 0.08164998 0.12623091 -0.013060048
0.060150933 0.10214166 0.12723526 0.09499628 -0.050975222 0.15026496 0.15294322 0.10119484
-0.0414859 -0.113560446 -0.07516754 0.13433962 -0.21873732 -0.02139169 0.06841665 -0.15237413
-0.04624327 -0.103888 -0.05282736 0.0098033855 0.1577195 -0.23741114 -0.031958308 -0.022196798
-0.076687835 0.14334626 -0.07362098 -0.18267888 -0.103094 0.07170366 0.14236693 -0.09132581
0.131203 -0.06386131 0.06777135 0.057849295 0.069115676 0.012326875 0.15780108 -0.002543267
0.034997735 -0.025607724 -0.082063556 0.08796057 -0.06327882 -0.082827054 0.22422664 -0.08365353
0.096428476 -0.0012548055 -0.13548484 0.020896522 0.19589917 -0.17350142 0.08703579 0.008809687
-0.14699547 0.1131288 0.19906093 -0.08218301 0.031844687 -0.15564458 -0.23659265 0.041907657
-0.06963847 -0.14610288 -0.0549278 -0.17846225 0.042634662 -0.14258413 -0.11307799 -0.045297887
0.019059952 -0.08455081 0.049351085 0.13602512 -0.056419663 0.083303906 0.1515042 -0.004898603
-0.03301181 0.059362672 -0.08426454 -0.02592999 0.16819529 0.0137382485 0.031704195 0.05917577
0.18501309 0.16237466 -0.060466446 -0.02906349 0.064800404 -0.08477456 -0.0050297524 0.04483467
0.13433646 0.10582765 -0.06974756 0.17294978 0.08411969 -0.072222866 0.13599592 -0.026626254
0.05976008 -0.05443661 -0.05515836 0.074488156 -0.0029058007 -0.009180287 0.18858887 -0.021347485
0.14101072 0.13145879 0.048915513 0.13764542 0.11261714 0.02005146 0.06920557 0.083037995
-0.020121183 -0.030830553 0.12894106 -0.061143667 0.17339805 0.11091266 -0.046978336 0.084307
-0.04123575 -0.0050418614 -0.077811904 -0.055923518 -0.094985746 -0.051857542 -0.066638924 -0.051329218
00000000: 8a9e b43d d82b 7e3c 5d5d a7bc b113 33be
00000010: a107 2ebd 5f72 12be e9de 93bd 00d6 12be
00000020: 6496 8b3d 55f6 f2bd 0a09 363d 6e18 4ebe
00000030: fb40 eabd 0db4 063d afe0 f33d e5f1 7f3b
00000040: 09cc afbd fbea 07bd aa01 b2bc 4cc0 453d
00000050: 2862 9bbd 13de 0f3e 615f cb3d ae93 36be
00000060: ccc0 99bc 2d77 2e3d a83b bd3d 1291 88bd
00000070: 18f2 c3bd 155d f7bc 3023 25be eaa7 9a3c
00000080: 78ff 72be f794 7d3d b558 0dbc f462 d03c
00000090: dd81 653c 15ee 1b3e c846 49bd 1ce0 aa3d
000000a0: a15a 7cbd ac4a fd3b 9359 2dbd d9bd 803c
000000b0: a50d 10be e6cc 003e a2cf ae3c 43c5 15be
000000c0: 8156 073e 6b60 37be 278c 39bd 88f2 043e
000000d0: 32e6 683c c176 b3bd d177 9f3b 5383 9abd
000000e0: 5724 56bc ea0a 79bc 9961 573d bd5c ba3d
000000f0: 229d 4cbe 596e fb3d 5eb0 bebc f867 cb3d
00000100: a1b8 ad3d 8428 823c 8644 583c 008f 013d
00000110: 6fa3 163c d79b 60bd a173 743d 706f e6bd
00000120: 4832 d83d aa4a be3c 6c4e 3b3b 53f2 adbd
00000130: 6825 2f3c 2046 e23d 4eb6 0c3e 0f93 66bd
00000140: 0ebc 5dbd 5cd9 c43c 213a 333e 48ae 2a3e
00000150: 126b 673d 6120 213e 0a23 d83a 7f11 80bc
00000160: 5da9 d3bd e04a 85bc 72ac 0a3b 4f9e 07be
00000170: 1ae5 71bb ede6 c53d 0762 1e3d 03b9 023e
00000180: 14e1 c2bd c101 f93c a378 073e a63a 75bd
00000190: 6f50 173e a91c 973d 643e bcbd 99cc 953d
000001a0: 6ca7 163d 45ba bd3c 82fb 87bd 2edf 413c
000001b0: 902b ca3c aef4 133e 9d18 a03c 38d1 5bbd
000001c0: 0393 353e 6dce 933c ad22 5c3d d399 a23d
000001d0: d4a3 773b 1b38 a73d ad42 013e d0f9 55bc
000001e0: d360 763d a62f d13d f649 023e 698d c23d
000001f0: 65cb 50bd 0fdf 193e 269d 1c3e 3e3f cf3d
00000200: 1eed 29bd 6192 e8bd 70f1 99bd 5390 093e
00000210: adfc 5fbe a03d afbc 071e 8c3d f707 1cbe
00000220: 9569 3dbd 3bc3 d4bd 8061 58bd 619e 203c
00000230: 3881 213e e81b 73be b7e6 02bd 0fd6 b5bc
00000240: 830e 9dbd 5dc9 123e 99c6 96bd 2c10 3bbe
00000250: f222 d3bd 5ed9 923d a3c8 113e 0709 bbbd
00000260: 145a 063e b8c9 82bd b5cb 8a3d 62f3 6c3d
00000270: 858c 8d3d a9f6 493c 9b96 213e f1ac 26bb
00000280: c959 0f3d 4ac7 d1bc f010 a8bd ac24 b43d
00000290: 5398 81bd 3ba1 a9bd ab9b 653e 8b52 abbd
000002a0: 4b7c c53d 4978 a4ba 8abc 0abe 2f2f ab3c
000002b0: cb99 483e 5baa 31be d23f b23d 8156 103c
000002c0: fb85 16be 13b0 e73d a1d6 4b3e 914f a8bd
000002d0: 936f 023d 4b61 1fbe 5845 72be 5da7 2b3d
000002e0: 9d9e 8ebd fe9b 15be f9fb 60bd cfbe 36be
000002f0: afa1 2e3d 9301 12be 6f95 e7bd 478a 39bd
00000300: 9e23 9c3c fa28 adbd 5d24 4a3d 2b4a 0b3e
00000310: 4e18 67bd 3d9b aa3d eb23 1b3e 7684 a0bb
00000320: 6437 07bd 4626 733d e392 acbd 216b d4bc
00000330: 633b 2c3e 6416 613c 42dc 013d 4b62 723d
00000340: 1274 3d3e 8b45 263e aaab 77bd 8e16 eebc
00000350: 13b6 843d 499e adbd 9fd0 a4bb 8fa4 373d
00000360: 7f8f 093e 2bbc d83d cfd7 8ebd bf19 313e
00000370: f246 ac3d 95e9 93bd 8442 0b3e 4d1f dabc
00000380: fcc6 743d ecf8 5ebd bced 61bd 3f8d 983d
00000390: 3f6f 3ebb ea68 16bc 711d 413e ece0 aebc
000003a0: 1d65 103e 229d 063e a25b 483d ecf2 0c3e
000003b0: d1a3 e63d f642 a43c a6bb 8d3d d30f aa3d
000003c0: 2ed5 a4bc 5b90 fcbc 2009 043e c871 7abd
000003d0: 428f 313e 2d26 e33d 5b6c 40bd 26a9 ac3d
000003e0: d1e6 28bd 3336 a5bb d95b 9fbd 0f10 65bd
000003f0: e387 c2bd 9368 54bd fd79 88bd 963e 52bd

embedding_layer.0.bias f4 [16]
-0.017497232 -0.05150366 -0.015059841 0.21136779 0.023795765 -0.030437864 0.0038143059 0.08108228
0.22595403 0.2342909 0.11665118 0.18638787 0.10124211 0.06420105 -0.1269317 -0.05593652
00000000: 5b56 8fbc 80f5 52bd 8dbd 76bc cc70 583e
00000010: 56ef c23c d458 f9bc 6ff9 793b 770e a63d
00000020: 7e60 673e f4e9 6f3e d0e6 ee3d 76dc 3e3e
00000030: 0658 cf3d d77b 833d 62fa 01be b11d 65bd

classifier.weight f4 [2, 16]
-0.25202537 -0.18099448 0.22812131 0.2350698 -0.10711778 0.020392127 -0.08771853 0.40530148
0.24316739 0.24846277 0.12747054 -0.07412257 0.3289193 -0.2945197 -0.15169108 -0.1803777
0.013746289 0.15170029 -0.16916059 -0.28350013 0.30469987 0.37217742 0.16586946 -0.43650672
0.052772872 -0.031184077 -0.060022883 -0.28400788 0.10407348 -0.0018561542 -0.20610781 0.22008047
00000000: 7809 81be 9e56 39be a298 693e 23b6 703e
00000010: 9160 dbbd 640d a73c c6a5 b3bd ad83 cf3e
00000020: df00 793e 066d 7e3e a387 023e 93cd 97bd
00000030: 1c68 a83e 49cb 96be e854 1bbe efb4 38be
00000040: 1d38 613c 5257 1b3e 6f38 2dbe ee26 91be
00000050: 9f01 9c3e 0a8e be3e afd9 293e cf7d dfbe
00000060: 5e28 583d c075 ffbc 8eda 75bd 7b69 91be
00000070: 7a24 d53d 334a f3ba ed0d 53be c65c 613e

classifier.bias f4 [2]
0.18985404 -0.027610581
00000000: 1969 423e 962f e2bc
