o02_train/run_outputs/31Acnn_train_weights.pth (torch, 48171 bytes, 22 tensors)

features.0.weight f4 [16, 6, 5]
00000000: fb41 843f 1626 f23e 89f0 7cbe b32e 31bf
00000010: af00 92bf 0944 a5be df6a 25bf 6816 76be
00000020: e4bf d6bc b275 cdbe dac5 d13e 7cd8 563e
00000030: 3059 bf3e 22a7 193e 6808 2f3d 3a06 19bd
00000040: c4da f33b 1e7f 87bb bf2e ed3c c9b1 c03d
00000050: acd0 3abe 07b6 6d3c cb8a 5fbd f6c9 f93d
00000060: 9197 253c e5c6 95be 18a5 a6bd 9e16 96bd
00000070: a84d 27bd 7479 bfbe 7a87 21c0 f4c3 2dc0
00000080: 2039 d7bf 5f5f 54bf 6d4f 0f3e 97c5 593f
00000090: 0338 f73e e367 b33e 93bb 2c3d 9a4a 013e
000000a0: 1b41 6dbe 6471 f3bd cbce 193e 6278 1b3f
000000b0: 83e0 733f 1b01 a0bd 463f df3d 1456 64bd
000000c0: e3cd 8a3c 8783 b53c e995 0bbe 9078 7bbd
000000d0: d6fd e4bc 60d6 6a3e 0d79 83bb 9efa 5cbc
000000e0: f78b c43c 5577 cfbc 40e7 cb3d bc16 3ebe
000000f0: 6229 2ec0 21ef 32c0 6d01 09c0 7d67 bdbf
00000100: 6b2c 30bf c157 313f d69f 333f 50f7 83bd
00000110: 4761 63be 7536 18bf e1c0 e0be 1cd3 fdbe
00000120: 960c a0be c696 28be 66d3 203e 7225 3d3c
00000130: cd74 82bc 0ea0 7b3d 3d5c 25bd 47b2 1c3e
00000140: 3bf8 2bbe 3881 16be b7d2 163e 5b46 97bd
00000150: 17c5 af3c 5b53 f3bd f1ab b23d 4dfd eebd
00000160: 01c8 afbd 3a60 0d3d 13bc 0540 d616 c33f
00000170: dde9 483f 55f1 933c 8b40 18bf ac56 25bf
00000180: 4116 573d b9c5 8d3d c09b 0b3f 3a7b 113f
00000190: 9296 af3e 3900 893e 7a9a d53c 5708 8bbe
000001a0: 5f87 e7be a3db 19bd 34ff 97bd 2e86 ddba
000001b0: 70b6 64bd 46a3 65bd eaee ed3c bbe0 e7bd
000001c0: a071 02bd dabe 32be 9030 9dbd c558 07be
000001d0: da51 c8bd 7dcb 98be 2ce6 63be 5466 00be
000001e0: d8b0 30bf 283c 65bd 7bfd 213f 9150 643f
000001f0: caf7 983f a95a 8abe 6b2a e4be 7a10 f1be
00000200: 6fe5 edbe 907e 55bf 5464 4c3f 4835 833f
00000210: 7201 6c3f 887b 913f b376 663f fcfb 13be
00000220: 5354 98bd f9f6 8ebd 59b6 d33d 564a bc3d
00000230: 09cb 873d 3215 0abe 9b9b a43d 5b05 38be
00000240: b902 59be 7a65 6e3d f896 a73d fd28 903d
00000250: 9d6d 9e3d 7bb0 2ebe 0ece 05bf 8ba2 933e
00000260: f6d5 803e b3b1 993e fe98 813f be84 fb3e
00000270: 2bf3 393e f898 bebd a165 3b3e 3200 c83e
00000280: ce22 27bf 7c55 18bf 1253 8cbe 8dd5 3ebf
00000290: deb0 32bf 2050 943d 07f6 dabd 477a 283d
000002a0: bdc5 e33c ff23 83bc d693 23be a0dc 0e3e
000002b0: 2fdc 323e bcbd f0bd 8881 4fbd 51db 85bd
000002c0: 74c7 a6bd 00de 103e edf5 133e 2526 56be
000002d0: 00b6 ad3f 67f2 3a3f b9af 38be 0aeb 82bf
000002e0: 94bd 87bf 1b75 c3be 7239 b6be 4c4d ebbe
000002f0: f479 0dbf 96df 9abe 79a7 0a3f 6b66 e23e
00000300: 0dea d03e ff70 883e b1fe 0dbe 44be c3bb
00000310: a0f6 1abc 7a83 bf3c bdf9 743d b4ae 853d
00000320: 9ce8 1fbe f079 62bd 015b 7d3d fb33 553d
00000330: fe6c 4e3d 6c4e 86be 298e 8abd 423e 79bd
00000340: b6eb 06be e1d3 74be 59d4 b23f 59a5 923f
00000350: 69e7 a93e 4e48 a4be 404c 61bf 164c a93f
00000360: 149a 9d3f dc9e 423f f3d8 d83e 5a73 783d
00000370: 5c95 65bf c968 63bf 486b 77bf 727b 51bf
00000380: fc57 5dbf 95ff 233e 3e52 213e 2449 2b3d
00000390: 768f f5bd d634 bebd dea7 acbe 9769 1e3d
000003a0: b064 823d b380 ef3d 8f01 093e 0878 9a3c
000003b0: 0df4 0fbc 12ac 7dbd 7692 da3c 3a82 533d
000003c0: e001 403d 1415 e13d 5594 7c3e 7c21 623e
000003d0: 9357 0d3f a72c cebf 14db dfbf 85c6 8abf
000003e0: 03d4 8fbf 4c5a 70bf 5fa2 b63f 0105 bf3f
000003f0: a2b4 c13f de22 a63f 44b5 8c3f e0de 04be
1.0332636 0.47294682 -0.24701132 -0.6921188 -1.1406459 -0.3227847 -0.646162 -0.24031985
-0.026214547 -0.40128857 0.4097126 0.2098102 0.37372732 0.15005162 0.042732626 -0.037359454
0.0074418504 -0.0041350266 0.028952954 0.0940891 -0.18243665 0.014508731 -0.054575723 0.12196724
0.010106937 -0.29253307 -0.08136958 -0.07328533 -0.040845543 -0.3739735 -2.5238938 -2.715085
-1.6814308 -0.82958025 0.13995142 0.85067123 0.4828492 0.35040197 0.042171072 0.12626114
-0.23169367 -0.11886862 0.15020292 0.60730565 0.9526445 -0.07812711 0.1090074 -0.055746153
0.016943878 0.022157444 -0.13631405 -0.061394274 -0.02795307 0.2293334 -0.004012233 -0.013487486
0.023992522 -0.025325457 0.09956217 -0.1856336 -2.7212758 -2.7958453 -2.140712 -1.4797207
-0.68817776 0.69274527 0.70165765 -0.064436555 -0.22205077 -0.59458095 -0.43897155 -0.49575126
-0.31259602 -0.16463766 0.15705642 0.011544572 -0.015924836 0.061431937 -0.04037117 0.15302382
-0.16793911 -0.1469773 0.14728819 -0.07386466 0.021456284 -0.11881133 0.087242015 -0.11669407
-0.085830696 0.034515597 2.0896041 1.5241344 0.7848185 0.018059412 -0.59473485 -0.64585376
0.052511457 0.06922478 0.5453453 0.56828654 0.34294564 0.26757982 0.026074637 -0.271548
-0.45220467 -0.037562978 -0.07421723 -0.001690095 -0.05583805 -0.056063913 0.029044587 -0.11322161
-0.031846642 -0.17455617 -0.07675278 -0.13217457 -0.09781237 -0.2984275 -0.22255772 -0.12539035
-0.6901984 -0.055965573 0.63277406 0.89185435 1.1950619 -0.27022293 -0.44563612 -0.47082883
-0.46464106 -0.83396244 0.7984059 1.0250635 0.92189705 1.1365824 0.9002487 -0.14451593
-0.074379586 -0.069807 0.103375144 0.09193866 0.06630523 -0.13484648 0.08037492 -0.17970793
-0.21192445 0.058202244 0.08183092 0.07039068 0.07735751 -0.1705951 -0.5226754 0.28834948
0.2516324 0.30018386 1.0124815 0.49124712 0.18159167 -0.0930652 0.18300487 0.3906265
-0.6528748 -0.5950544 -0.27407128 -0.745446 -0.6980113 0.07241845 -0.10691457 0.041132238
0.02780425 -0.016008375 -0.15974364 0.1395135 0.17466806 -0.11754939 -0.05066064 -0.06535972
-0.081435114 0.14147186 0.14449282 -0.20912988 1.3571167 0.73026127 -0.18035783 -1.0227978
-1.060473 -0.38175282 -0.35590702 -0.4595741 -0.5526421 -0.30248708 0.54161793 0.44218764
0.40803567 0.2664871 -0.13866688 -0.005973609 -0.009458214 0.023378123 0.05980848 0.065274626
-0.15616077 -0.05529207 0.061854366 0.052051526 0.05039691 -0.26231706 -0.06765396 -0.06085039
-0.13175854 -0.2390895 1.3971053 1.145671 0.33184364 -0.32086414 -0.88006973 1.3226345
1.2312646 0.7602365 0.4235302 0.060656883 -0.8968103 -0.88831764 -0.96648073 -0.8182899
-0.8646238 0.16015466 0.15754029 0.0418178 -0.119902536 -0.092874214 -0.33721823 0.038674917
0.06366861 0.11694469 0.13379501 0.018856063 -0.008786214 -0.061931677 0.026681166 0.051637866
0.04687679 0.109903485 0.24665959 0.22083086 0.5521175 -1.6107377 -1.7488732 -1.0841833
-1.1236576 -0.9388778 1.4268302 1.4923402 1.513325 1.2979391 1.0992818 -0.12975645

features.0.bias f4 [16]
00000000: 3dab 783d 7b65 ffbc fc07 72bd c3d5 ed3d
00000010: b613 0fbe 8e5d c6bd 777d a03d 55a8 63bc
00000020: 240d d73d 44cf 4a3e 3081 e73c 2fea b6bb
00000030: 3e73 bb3d 1921 c0bc 6c96 91bd a2e3 0fbd
0.06071018 -0.03117632 -0.059089646 0.116130374 -0.13972363 -0.09685813 0.078364305 -0.013895114
0.10500553 0.19805628 0.028259844 -0.005582116 0.0915284 -0.023453282 -0.07108769 -0.035129197

features.1.weight f4 [16]
00000000: 8c01 763f c5b4 793f 37f0 5f3f ab00 733f
00000010: 796a 443f d5e7 6a3f 7e30 7b3f bad6 593f
00000020: a66f 5d3f 2d13 763f dd0c 7b3f 98a9 6d3f
00000030: d30e 553f 0bb4 613f f6ef 5b3f 698e 453f
0.9609611 0.9754146 0.87475914 0.94922894 0.76724964 0.9176 0.9812087 0.8509327
0.86498487 0.9612301 0.980665 0.92836905 0.83225745 0.8816535 0.85913026 0.77170426

features.1.bias f4 [16]
00000000: 957a f0bd 0191 6fbe 282f 1ebe b098 adbb
00000010: ec42 5ebe 6355 8ebe 68d7 08be a96c 7abd
00000020: 34fe 9abd e807 8dbc 9507 0abb d6f0 8ebe
00000030: 1e1c fabd 8c02 33be 0319 93bb ccac 28bc
-0.11742131 -0.23395158 -0.15447676 -0.005297743 -0.21705216 -0.2779952 -0.13363421 -0.061138783
-0.07568017 -0.017215684 -0.0021061648 -0.27918118 -0.12212394 -0.1748144 -0.0044890656 -0.010295104

features.1.running_mean f4 [16]
00000000: 761f e93d dc24 d1bc e0d5 54bd f0c1 1f3e
00000010: 2638 2dbe 187b c0bd 562b 033e 4aac 1fbc
00000020: 7767 df3d 03ee 233e ec77 c33d fff7 39bb
00000030: 365b ec3d 7bc5 85bb 6c40 ccbc 5221 a8bb
0.11382954 -0.025530271 -0.05196178 0.15601325 -0.1691595 -0.09398478 0.128095 -0.009745667
0.10908406 0.16008763 0.09544358 -0.0028376577 0.115408346 -0.0040823794 -0.024933062 -0.005130925

features.1.running_var f4 [16]
00000000: 854b 8044 cb0e 1242 d106 4e43 fc4f 9e44
00000010: b197 8743 4d35 5441 20f7 5244 b8b0 8e43
00000020: 96f9 0743 69bf 8544 5097 bc44 d169 3a42
00000030: b25b 8e43 af2d 2743 0443 da43 cf17 1744
1026.36 36.514446 206.02663 1266.4995 271.1851 13.263013 843.8613 285.3806
135.97495 1069.9816 1508.7285 46.603336 284.71637 167.17845 436.52356 604.372

features.5.weight f4 [32, 16, 3]
00000000: 36e3 bf3d 96e4 183e c2e1 043d c21d 0ebe
00000010: c08b 08be af1a 09be 42a2 54bd b220 b03c
00000020: 5515 943d da5b fc3d 5b02 2dbc 439e 903c
00000030: 4b39 97bd 68c3 90bd 3ee5 70bd a530 56be
00000040: 1bf7 5ebe 5ad6 74be 73d7 92bc 9534 2dbd
00000050: e6ce dc3d d9f0 d8bd 61ce 6cbd dd09 a1bd
00000060: 83e6 afbd a1cf 5ebd 5562 ccbd daf8 073d
00000070: 8913 883d 6a44 30bd ed28 1a3e ef78 f53d
00000080: 30a0 c83d 19df febd 2153 bebd f10d 10be
00000090: 0eee 63bd 3a5c c03d 2cfb fc3d 7dbd ff3b
000000a0: 59ef e8bd 5e3f a73c 989d 90bd 7557 143e
000000b0: e0a9 cbbb fa8d 813c 567e 713a fd77 f53d
000000c0: da24 a4bd a35d 23be ec09 f2bd 2d71 db3c
000000d0: 6dd1 753e 8f90 ac3b 97c6 803c 2c6e 003e
000000e0: e770 b93a 1ffc da3d a3d7 b43b 4305 84bd
000000f0: 2cb8 4b3d 9005 213c 2457 2bbd 810a d93d
00000100: f28c 0c3d e178 f73d 2255 5cbe d60a 79be
00000110: 0e86 46be 73b8 50be 7fcd 12be 9b19 88bd
00000120: 68ff a0bd 034d f7bd 508e 03be 9681 51bd
00000130: fd6a dfbc 2849 ce3b 6949 98bd 09f0 1dbe
00000140: aa2c 29be 5655 ed3d b104 02be 3291 58bd
00000150: eef5 66bc c098 b8bd 7c2f 483d 7ef0 e23d
00000160: 451d 643b f15e 283d a2c7 0abe fffb 85bd
00000170: 97ce 323d db86 3fbc 6156 3f3c 55b1 b83d
00000180: d88e febc 3265 fc3d c0d6 d93b d8f7 83bc
00000190: 4ff9 d93c 077c 14bd aa3e 06bc 4208 9ebd
000001a0: 4acb 96bd f828 4bbe 1f70 7dbe f356 50be
000001b0: 10a6 5cbd bd57 f3bd 0214 bdbd f7aa c93d
000001c0: d6f4 d93d c368 9d3d 85da 183e c024 703d
000001d0: a412 ab3d eadf c03d 8d52 07bd 6305 d2bd
000001e0: 9fb8 c13d 814a 593d 7059 19bd 736e a6bd
000001f0: 72d8 68be f4bb 27be daaf 49be ec6b 09be
00000200: 4425 6cbd a98e f63c 33a1 d539 6f43 6bbb
00000210: 8e47 d0bd 61fe ecbc 0e1c 11be cf3a 93bc
00000220: 62fa 5d3c fd35 30bc 7b33 15be e177 3dbe
00000230: b653 67be b1bd b1bc c8a8 19be e97e 6bbe
00000240: 7eb5 a3bc 1a1c ffbd 43be bebc 1ae0 0dbd
00000250: c4ef 61be 24c0 77be 9739 a9bd fec9 09be
00000260: 6283 1cbe 0892 e8bb b74a 6e3e 249b 86bb
00000270: 2838 f93d 533e 1abd 8bbf 86bd 899e 873c
00000280: eaed 68bc aca1 1bbe c20a 89bd ec08 a43c
00000290: 8fa1 45be 54e7 8ebd 7c78 b4bd 7463 7ebd
000002a0: 88de b23d 1a3a 4dbd e6bf 06be c173 51bc
000002b0: 5920 cabc c330 68bd 1a91 41bd 504a 723d
000002c0: 8755 9a3d 3feb 743d 1bda 09bd 27f3 823e
000002d0: a400 8cbb c358 5dbd 356d 95bd 58a7 263d
000002e0: ba81 c33d c64c 003c c4d3 67bc a52c 533d
000002f0: b1d0 463b e850 913b e3bc 9ebd 2686 81bd
00000300: c796 06be 23a4 b9bd c8af 3b3c 8f1a 263e
00000310: 90ff 84bc d913 1e3e 204e 0e3d c534 b93d
00000320: b398 373e 1f49 3a3d ad93 32be 6053 973d
00000330: 4e3d f5bd a9c5 0bbe f0ef 13be a6d7 30bd
00000340: 609b b3bc 353a bbbd bf08 943c 8e1a 9cbc
00000350: f6d5 0ebe 6e09 ad3d a863 4d3d a187 cd3b
00000360: 5078 fbbd 54e0 0ebe bdfd 163d 36b9 1a3d
00000370: 5a3f 21bd a620 b2bd 0571 1cbd 0518 39bd
00000380: aeb0 a3bc 953e 5d3d 4a7c 123d bb61 373e
00000390: 2e6e 313d ecf4 f73d 060c c13d 6ecc 90be
000003a0: 3f67 49be e7c9 17be 3e43 143d e39f 03be
000003b0: 30ab 4fbe 6fe4 863c f1f9 bb3c 96c6 11bd
000003c0: 2864 58bc b2b7 b5bb 8f23 373d fdcc e63d
000003d0: a16f b0bb 4801 18bd ce13 5bbc 459e 633d
000003e0: aa21 abbd cdc8 4cbe 03c6 1dbe 75b2 efbd
000003f0: 6cb3 5cbd 4fb4 e53d 6ad3 f03c 3d8c ff3d
0.09369509 0.14930949 0.032441862 -0.13878539 -0.1333456 -0.13389085 -0.051912554 0.021499965
0.07230631 0.12322207 -0.010559644 0.01765359 -0.07383975 -0.07068521 -0.058812372 -0.20916994
-0.21773951 -0.23909894 -0.017925 -0.042286474 0.1078165 -0.10592813 -0.057814006 -0.078632094
-0.085888885 -0.05439723 -0.09979693 0.033196308 0.06644351 -0.043033995 0.15054674 0.11985957
0.09796178 -0.12444896 -0.09293199 -0.14067818 -0.05564695 0.09392591 0.12352595 0.007804571
-0.11373777 0.020415958 -0.070613086 0.14486487 -0.006215319 0.01581477 0.0009212246 0.119857766
-0.080148414 -0.15953688 -0.11818299 0.026787365 0.24005671 0.005266256 0.015719695 0.12542027
0.0014148027 0.106926195 0.00551887 -0.06446316 0.049736187 0.009827986 -0.04183115 0.105977066
0.034314103 0.12083603 -0.2151685 -0.2432054 -0.19387075 -0.20382862 -0.14336203 -0.06645509
-0.07861215 -0.12075236 -0.12847257 -0.051148973 -0.027272696 0.006295342 -0.07435877 -0.15423597
-0.16520944 0.11588542 -0.12697102 -0.052872844 -0.01409672 -0.0901351 0.04887341 0.110810265
0.0034807485 0.04110617 -0.13552716 -0.06542205 0.04365405 -0.011689867 0.011678309 0.090181984
-0.031073973 0.12323989 0.0066479146 -0.016109392 0.026608137 -0.036251094 -0.008193651 -0.07716419
-0.07362993 -0.19839847 -0.24749802 -0.20345668 -0.053869307 -0.11881969 -0.09232332 0.09847062
0.10642402 0.07685997 0.14927109 0.058628798 0.08353165 0.09417708 -0.03303771 -0.10254934
0.09459042 0.053049568 -0.03743881 -0.08126535 -0.22738817 -0.16380292 -0.19695988 -0.13420075
-0.057652727 0.030097323 0.0004074663 -0.0035898348 -0.10169898 -0.028929891 -0.14170858 -0.017972378
0.013548465 -0.010755059 -0.1457042 -0.18502761 -0.22590527 -0.021696897 -0.15005791 -0.22997631
-0.019984003 -0.12456532 -0.023284083 -0.034637548 -0.2206412 -0.2419439 -0.082629375 -0.1345596
-0.15284494 -0.0070974864 0.23270689 -0.0041078497 0.12168914 -0.037657093 -0.06579503 0.016555088
-0.014216879 -0.15198392 -0.06691505 0.020023786 -0.19299911 -0.06977716 -0.08812043 -0.062106565
0.08733851 -0.050104238 -0.13159141 -0.012783946 -0.024673628 -0.056687128 -0.04725752 0.0591529
0.07535844 0.05979466 -0.033655267 0.25576136 -0.0042725373 -0.054039728 -0.0729622 0.040686935
0.09546228 0.007830804 -0.01414961 0.05155625 0.0030336792 0.0044346936 -0.07750871 -0.06324415
-0.13143454 -0.0906451 0.011455484 0.16221069 -0.016235143 0.15437259 0.034742475 0.09043268
0.17929344 0.04547989 -0.17439146 0.073889494 -0.119745836 -0.1364962 -0.14446998 -0.04317441
-0.021924675 -0.091419615 0.018070577 -0.019055631 -0.13948807 0.08449064 0.050143868 0.0062722717
-0.12278807 -0.13952762 0.036863077 0.037774287 -0.039367057 -0.086976334 -0.03819372 -0.045188922
-0.019981708 0.05401476 0.035763063 0.17908375 0.043317966 0.12107262 0.094261214 -0.28280967
-0.19668292 -0.14823113 0.03619694 -0.1285396 -0.20280147 0.016466348 0.02294633 -0.035589777
-0.013207473 -0.00554558 0.044711646 0.11269567 -0.005384401 -0.037110597 -0.013371421 0.05557086
-0.0835603 -0.19998474 -0.15407567 -0.1170396 -0.053882048 0.11216032 0.029397685 0.1247792

features.5.bias f4 [32]
00000000: c29a 14be 8b4b aabd 4f3e 92bb e845 783c
00000010: 1ece 163d 03c9 0bbe d936 bb3d 68cd e73d
00000020: 8667 cf3d 385d 8dbd 70ae 88bd eb1b 49be
00000030: d6ef 3d3b e098 babc 4843 25bd 5034 8e3d
00000040: 688a 1c3d 4955 713d 0a36 1f3d c39a 48bc
00000050: 3951 033e 3c2f 99bd 0d92 52bd 82ae 20bd
00000060: ed98 df3d 55f0 05bd 2add b3bd fe16 10be
00000070: f6e1 933c a3fa 75bd b3d6 953c e532 26be
-0.1451216 -0.0831519 -0.004462994 0.015153386 0.036817662 -0.13650899 0.09141321 0.11318475
0.101271674 -0.06902546 -0.06673896 -0.19639556 0.0028982065 -0.022777975 -0.040347368 0.069435716
0.038217932 0.058919225 0.038869895 -0.012243929 0.12823953 -0.07479712 -0.051408816 -0.039228924
0.1091784 -0.0326999 -0.08782418 -0.14071271 0.018052083 -0.06005348 0.018290853 -0.16230352

features.6.weight f4 [32]
00000000: 2734 6b3f 9df0 783f d881 833f fc0a 673f
00000010: bc2b 4d3f 7168 6e3f 38c5 663f b138 633f
00000020: e229 643f 8f80 763f 0d3f 823f 23ee 5a3f
00000030: e95f 673f d255 793f 2f78 6c3f 75fc 773f
00000040: 6b90 563f d856 6c3f 27c0 513f 0fd1 613f
00000050: 5711 4a3f 1c17 783f 5719 803f 5819 6d3f
00000060: 654e 803f a911 503f 15fe 403f b303 6b3f
00000070: c52a 663f 2389 6d3f 3f0d 573f 3e75 7a3f
0.91876453 0.97242147 1.0274 0.90251136 0.8014486 0.93128115 0.9014468 0.8875838
0.8912641 0.96289915 1.0175492 0.8551962 0.9038072 0.97396576 0.92370886 0.96869594
0.83814114 0.92320013 0.81933826 0.88209623 0.7893271 0.9691026 1.0007733 0.92616796
1.0023924 0.8127695 0.753877 0.9180252 0.8990901 0.9278738 0.84004587 0.9783515

features.6.bias f4 [32]
00000000: 3676 bfbd c022 cebd 7dd6 1abe 3588 09be
00000010: 5b08 18be 11a2 6ebe c502 ccbd b14f 19be
00000020: 5eac 203b 70c6 1ebd cb69 aebd 4239 bebc
00000030: c870 e43d 95bb d4bd 131f 3dbe 5303 e6bd
00000040: 9ae0 2ebe ac17 64bd bdf6 7ebe d483 bfbd
00000050: ca32 7bbd 4b28 3bbe 067b 49be 276d 29be
00000060: 63e1 8dbd 8dd6 8fbe ae2e 3cbe aa09 ff3a
00000070: 03ec 38bd e939 8dbd 2d9e fbbd 4ccb 5abe
-0.09348719 -0.10065222 -0.15120883 -0.13430865 -0.14846937 -0.23304011 -0.09961466 -0.14971806
0.0024516801 -0.038763463 -0.08516272 -0.023220662 0.11154324 -0.10387341 -0.18468885 -0.11231103
-0.17077866 -0.055686638 -0.2489881 -0.09351316 -0.061327733 -0.1827709 -0.19675836 -0.16545545
-0.06927755 -0.28093377 -0.18377182 0.0019457836 -0.045146953 -0.06895811 -0.12286029 -0.21366614

features.6.running_mean f4 [32]
00000000: 0e69 97be 08c0 dfbe 6a7b 17bf 49d8 81be
00000010: d860 40be a914 27bf 41c2 42be 6546 7ebe
00000020: 8cac 81bd 96c6 41bf 38ab 34bf 7564 b2be
00000030: 2e38 bcbe 33b3 b1be f7f5 a2be 3d0b 81be
00000040: bfeb 863e a006 7cbe 90d8 bcbe 2ec1 28be
00000050: 0fe2 85be 7f86 edbe a27e d4be fe80 a8be
00000060: 9439 e5be f59b a5be f4f6 efbe 5776 2ebf
00000070: dc6e db3d 0610 d6be 8722 5dbd f3f7 22bf
-0.29572338 -0.43701196 -0.5917269 -0.25360325 -0.18786943 -0.652659 -0.19019414 -0.24831541
-0.06331739 -0.75693643 -0.7057376 -0.34842268 -0.36761612 -0.3470703 -0.3182828 -0.25203887
0.26351735 -0.24611902 -0.36883974 -0.16479942 -0.26149032 -0.46391675 -0.41502863 -0.32910913
-0.4477049 -0.32345548 -0.46868098 -0.6814932 0.10714504 -0.418091 -0.053988006 -0.6365959

features.6.running_var f4 [32]
00000000: 4f05 b63e e526 563f 7e66 803f aa06 113f
00000010: 6f10 e13e c059 4f3f 0f73 303f 670b 8e3f
00000020: 6b1b d03e 7544 df3f 875f d23f cd2c d43e
00000030: 008a 7b3f 8de7 6d3f 445e 1c3f ac3e 4c3f
00000040: fa64 8f3e ee2f 053f cddc fb3e 3229 d53e
00000050: 1a15 963f d099 4a3f dfbb 4d3f 76b8 343f
00000060: 1602 c33f d88b 2e3f 2bbc 253f cea7 cf3f
00000070: 6a45 7e3e 417d 613f 827b 803e 4868 273f
0.35550925 0.836531 1.0031278 0.56650794 0.4395785 0.8099632 0.68925565 1.109723
0.40645918 1.7442766 1.6435403 0.4144043 0.98257446 0.92931443 0.6108134 0.7978313
0.28006727 0.5202626 0.49191895 0.41632992 1.172519 0.7914095 0.80364794 0.70593965
1.5235012 0.68182135 0.64740247 1.6223085 0.24831167 0.8808175 0.2509423 0.65393496

features.10.weight f4 [64, 32, 3]
00000000: 558a 243d 489a 9dbb 978d 7ebc 8390 5b3d
00000010: 192b db3d 0739 f53d bb02 2cbd 00b2 30bc
00000020: 2530 c5bd ca4e dd3d c287 4f3d 292d 433d
00000030: 5933 013d c817 033d 05ed 843d 5056 2e3c
00000040: 712e abbd c843 93bc 0d73 7f3b 7c50 283d
00000050: 7e05 803d 9a92 a53d a705 53bc 03b6 d63b
00000060: 41d2 85bd a04f b9bd 893a 3abd 6124 aabd
00000070: db0f 68bd 3530 1fbd 596d abbd d407 98bd
00000080: 5de1 2fbd 7459 c6bd 4d86 89bd d186 c5bd
00000090: 9c85 03be 7c46 11be 1ba6 22be bcf8 e93d
000000a0: 1248 8e3d c0d2 f13d a6ae 913c 3607 893d
000000b0: 7ae6 92ba 07d2 1a3e 4156 133e 4918 0d3e
000000c0: 690f fcbd 2263 82bd dcc2 3dbd da9c 05be
000000d0: f6f7 aebd de9d 80bd bb78 22bd 0abc 32bd
000000e0: a937 57bd ec50 92bd 26e9 10b9 246b 51bd
000000f0: 4c9b d5bd a7a8 a0bd 001e 98bd a03c c73d
00000100: 4626 373e 3f90 3d3e 50b1 593e 74ab 303e
00000110: efc7 133e 0f37 9f3d d232 613c d2f9 963d
00000120: 1831 8bbd 5ec2 e2bd 144b cabd bc40 273c
00000130: e128 ce3d 5d17 a8bc 64f3 593d 56af 313d
00000140: e6d6 d63c c5de c8bd 4c6c cabd 9e90 32be
00000150: 4665 9abd 5216 9abd 58b1 dfbd 823a 673d
00000160: c98e b03d 6bbb b83d d1eb 54bd cecf 5abc
00000170: 8acb 2fbd ba82 1b3d 9ef1 15bd d7fc 31bd
00000180: 2838 8c3d 2e74 933d ded2 923d 511e e13d
00000190: f43b f63d 191b ae3d ed9f c7bc 0423 00bd
000001a0: afdd 30bd 972f 033e 6428 7c3d ca91 1dbd
000001b0: b978 7fbd 963e 3c3a 2760 ce3c 3ed0 edbc
000001c0: 6c10 9c3b 148c 06bd d7ed 4d3d a5a1 173e
000001d0: a54b d33d 07cd 103e 5629 e73d dc85 cf3d
000001e0: c294 babd a0e4 acbd 645f 9fbd 8ad0 04bc
000001f0: 408e 2abd 1319 97bd de79 58bd aee9 b7bc
00000200: 95d9 50bd 7c83 bebb c199 203d e6b1 1bbc
00000210: cc0a 8abd ed8b 37bd 2f60 a0bd 2702 f23d
00000220: 696c b93d 5bf4 ac3c 33b1 f93d f79c 023e
00000230: 0f02 bf3d 7b98 383e b3c1 143e 4c12 333e
00000240: 5c88 33b9 f5a2 9aba 9a43 89bb 38f9 bcbd
00000250: 13e3 98bd 14f7 603b f4af eebb af4d f43c
00000260: 2652 3dbd 158f b9ba 9d56 8a3d bf94 913d
00000270: 312e 74bd 2c25 443c 8b4b 083a 246b 6b3d
00000280: 49d7 633d c7af a13d bdcd f23d a144 fd3d
00000290: 43a0 ae3d 14c6 233e 06a4 473e 06a9 1a3e
000002a0: c13f 04bd ebdd 81bd 3092 87bd 06c4 f93d
000002b0: 9607 7c3e 2de5 613e 3389 df3c 7e3d 1cba
000002c0: 1abe 143d 65be c3bd f172 a7bd 1161 e5bd
000002d0: 940a c3bb ac48 02bd 2d5c 70bd 3971 5e3d
000002e0: 1555 8f3d 06fd 783d 6e50 afbd 6e1c a03b
000002f0: a036 8bbc 5338 14bc 6f88 113d 1c9a ec3b
00000300: c288 30be 0162 2cbe 9baf 1ebe f4a5 60bb
00000310: 0794 86bb c1f3 c0ba 19f0 4d3e 5cff a13d
00000320: f11c 333e 66de 06be ff22 a6bd 24a6 2ebe
00000330: 9b41 02bd 3e4e 0abd b997 24bd a6dc 883e
00000340: 4923 5f3e c3a9 323e 8aff ed3c 31e7 f3bc
00000350: a9e0 f0bc 6596 a5bc 83e5 fb3c 944c 053c
00000360: bec7 eebc 9c9a 103d 668e cebd d802 903d
00000370: 6720 fa3d 9fdd 7b3d 6884 323e 11c3 b73d
00000380: ded6 e33d 1b42 7a3d f24e 323d 5534 5cbd
00000390: ddd4 0bbe 69fd 25bd cfec 91bd 08c9 95bd
000003a0: 49d2 0dbd bf70 fdbd d3e4 01be f3ec 1fbe
000003b0: c3ba 07be 2c10 4bbd 67b2 01bd a23f 3bbd
000003c0: f94b cd3c 7192 df3b cdf3 253d 8eed 93bd
000003d0: 7dad e6bb a8e0 a93d b042 163e eb1d 8a3d
000003e0: 2747 3b3d 3e24 d2bd 76f4 c6bd e827 e1bd
000003f0: 4d7f 99bd 1be3 fabb 5226 8a3d 57b9 063d
0.040170986 -0.0048096515 -0.015536687 0.053604614 0.107015796 0.11973768 -0.04199479 -0.010784626
-0.096283235 0.108060434 0.050666578 0.04765049 0.03154311 0.0320051 0.064905204 0.010640696
-0.08358467 -0.017976657 0.0038978488 0.04109238 0.062510476 0.08084603 -0.012879766 0.006552459
-0.065342434 -0.090483904 -0.04546598 -0.0830772 -0.056655746 -0.038864333 -0.08370466 -0.07423368
-0.042939533 -0.096850306 -0.06715069 -0.09644855 -0.12843937 -0.14187044 -0.15883677 0.114243954
0.0694734 0.118077755 0.017783474 0.066908285 -0.0011207603 0.15119182 0.14388372 0.13778795
-0.12307627 -0.06366564 -0.04632841 -0.13048115 -0.085433885 -0.06280111 -0.03966592 -0.04363636
-0.052543316 -0.07144341 -0.00013819765 -0.051127568 -0.10430011 -0.07844668 -0.07427597 0.0972836
0.17885694 0.18512057 0.21259046 0.17252904 0.14431737 0.077741735 0.013745027 0.07371868
-0.06796473 -0.11072229 -0.09877601 0.010208305 0.10066391 -0.020518953 0.05321063 0.043380104
0.026225518 -0.09808115 -0.09883937 -0.1743798 -0.075388476 -0.075237885 -0.109224975 0.05645228
0.08620984 0.09020122 -0.051982705 -0.013355209 -0.04291872 0.037966467 -0.036607377 -0.043454017
0.068466485 0.07199894 0.07169126 0.109921105 0.12023154 0.08501262 -0.02436825 -0.031283394
-0.043180164 0.12811123 0.061561957 -0.038469113 -0.06237099 0.0007180957 0.025192333 -0.029029962
0.0047627 -0.032848433 0.05027565 0.14807756 0.103171624 0.14140712 0.11287181 0.101329535
-0.091104046 -0.08442044 -0.07781866 -0.00810636 -0.041639566 -0.073778294 -0.052850597 -0.022450294
-0.050988752 -0.005814014 0.03920913 -0.0095028635 -0.067403406 -0.044811178 -0.078308456 0.11816817
0.09053881 0.021112612 0.12192001 0.1275519 0.093265645 0.18026917 0.14527015 0.17487448
-0.00017121568 -0.0011797833 -0.004188967 -0.09227222 -0.07465186 0.0034326958 -0.007284159 0.029822199
-0.04622092 -0.0014157022 0.067548014 0.07108449 -0.059614364 0.011971753 0.0005199245 0.057475224
0.055625234 0.07894855 0.11855648 0.123666056 0.08526661 0.1599353 0.19496164 0.1510354
-0.032287363 -0.063411556 -0.0661968 0.12195592 0.24612269 0.2206008 0.027287101 -0.0005960091
0.036314107 -0.09557799 -0.0817622 -0.112001546 -0.0059521887 -0.031807587 -0.058681656 0.054307196
0.0699865 0.060788177 -0.085602626 0.0048862016 -0.01699382 -0.009046632 0.035530504 0.0072205197
-0.17239669 -0.1683426 -0.15496676 -0.0034278603 -0.0041070017 -0.0014721082 0.20111121 0.07910034
0.17491509 -0.13170776 -0.08112144 -0.17055565 -0.031800848 -0.033766024 -0.040183757 0.2673084
0.21790804 0.17447571 0.029052515 -0.029773327 -0.029404001 -0.020213315 0.030749088 0.008135933
-0.029147979 0.035303697 -0.10085754 0.070317924 0.122132115 0.06149065 0.17433321 0.08972753
0.11124967 0.0610982 0.04353232 -0.053760845 -0.1365542 -0.040524874 -0.07125246 -0.07313734
-0.03462437 -0.1237502 -0.12684946 -0.15617733 -0.13254838 -0.04957597 -0.03166428 -0.04571498
0.02506064 0.006822877 0.04051571 -0.07223044 -0.0070397244 0.08294803 0.14673877 0.06743988
0.045722153 -0.10260819 -0.09714596 -0.1099394 -0.07494984 -0.0076564676 0.0674559 0.032891598

features.10.bias f4 [64]
00000000: 4d3f 183d 84be 78bd ef32 cc3d a0c2 92bd
00000010: 9513 bbbd 9239 ef3d 0f99 aa3d f02c 7abd
00000020: fc14 8a3d 8221 d43c ab71 c33c a58c 26bc
00000030: f61a bcbb 1665 e8bb 5cd8 a1bd 59d0 063d
00000040: 6e9e 963d 4d40 723d 0346 0abe 977e b13d
00000050: 7699 8c3d 421b 093d 9a07 95bd 151e 1d3d
00000060: df54 873d 6ec9 bb3d 3727 35bd bb64 a03c
00000070: a292 8c3d f904 dbbd 05ec 583c f995 ec3c
00000080: e7ee 25bd 70ad c1bd 74a8 37bc 0c7a 113e
00000090: a9eb cf3c e403 b13b 83f7 38bd be15 e6bd
000000a0: 794a 713d 2c41 bd3d 92b5 8cbd 5e2c a5bd
000000b0: c4f8 c13d 81d0 dfbc 6d2c 2a3c 550e b63d
000000c0: 9eb5 c13d a659 df3d 92a5 27bd d037 203d
000000d0: 2e30 0fbd 7626 a13d f810 663d 9519 9c3c
000000e0: ccf1 0a3c d242 99bc a102 07bc ec10 f33c
000000f0: 402c 803d 9eb7 62bc d4b4 ebbd f9e5 3d3d
0.037169743 -0.060728565 0.09970652 -0.07166028 -0.09134594 0.116809025 0.08329975 -0.061078012
0.06742284 0.025894884 0.023857912 -0.010165368 -0.0057405187 -0.0070921285 -0.079025954 0.03291354
0.07354437 0.059143353 -0.1350327 0.08666723 0.06865208 0.03347326 -0.072768405 0.038358767
0.06607985 0.09169279 -0.04422685 0.019579282 0.068639055 -0.10694308 0.013239865 0.028880106
-0.04051104 -0.09456909 -0.011209596 0.14206713 0.025380926 0.005402075 -0.04515792 -0.11234616
0.058908913 0.09240946 -0.06870569 -0.08065103 0.094712764 -0.027321102 0.0103865685 0.08889452
0.09458469 0.10905771 -0.040929385 0.039115727 -0.034958057 0.07868664 0.056168526 0.019055167
0.0084805 -0.01870862 -0.008240373 0.029671155 0.0625844 -0.013837723 -0.115090996 0.046361897

features.11.weight f4 [64]
00000000: 8b2d 6f3f 6e27 7a3f b75a 813f 30b8 793f
00000010: aed1 703f 2616 7c3f d762 793f c801 7a3f
00000020: 9dde 673f fa1c 723f c890 683f 45f4 773f
00000030: edc8 833f 4b6b 733f a112 673f 4749 6c3f
00000040: 02b9 783f 759a 773f eb18 753f 4cdc 753f
00000050: d963 6a3f 4901 643f e67e 7a3f 4a68 7e3f
00000060: 0ed8 703f b9da 723f ea5f 6d3f be48 6f3f
00000070: 37da 803f cfac 693f 2648 7a3f 1cf6 773f
00000080: 3b0a 6d3f c8df 783f ccec 633f a046 823f
00000090: 0ba4 7b3f 8989 793f d43d 773f 53a6 693f
000000a0: dc87 763f 0a40 813f 9d92 823f 5bb2 823f
000000b0: c953 833f 9270 703f ebac 7b3f 45f2 683f
000000c0: f65f 773f d2e4 7a3f 4e9d 843f b42f 5d3f
000000d0: 5575 753f 34d9 703f 9f60 633f a10c 803f
000000e0: 5e1c 6c3f 253e 6e3f cd4b 6b3f 4d83 653f
000000f0: 27cf 863f 0d13 713f ddda 663f 1f47 5e3f
0.9342887 0.97716415 1.0105809 0.9754667 0.94069946 0.98471296 0.9741644 0.9765897
0.90574056 0.94575465 0.9084592 0.968571 1.0295693 0.9508559 0.902628 0.9229931
0.971573 0.9672006 0.95741147 0.9603927 0.91558605 0.8906446 0.9784988 0.9937788
0.94079673 0.94864994 0.9272448 0.9347037 1.0066594 0.9127931 0.9776634 0.9685991
0.92593735 0.97216463 0.890332 1.0177803 0.98297185 0.97475487 0.9657872 0.91269416
0.96301055 1.0097668 1.0200993 1.021068 1.0259944 0.9392177 0.98310727 0.90994674
0.966308 0.980054 1.0360506 0.86400914 0.9588216 0.94081426 0.8881931 1.0003854
0.92230785 0.93063575 0.9191254 0.89653474 1.0531968 0.94169694 0.9017771 0.8682727

features.11.bias f4 [64]
00000000: 2a50 87be e283 62be 3586 593d 9fd2 493d
00000010: c3fd 68be 626e 673d e7cd b73c 46f3 c1bd
00000020: 92f8 93be a01b debd 89c7 8ebe 72c1 0ebe
00000030: 1bfb 8e3d 9ea1 6abe e405 89be a15c 6ebe
00000040: 0f09 413d 0285 e73c b187 62be 6739 8abe
00000050: 30ca 81bc c686 93be 3f7f 5f3d d20e ffbd
00000060: 92a4 273b 64cd 033b a6c5 45be a49f cb3c
00000070: 0e7d 873d 0683 72be 2dbd b73d 4aba 4fbe
00000080: 0b2c f3bd c7e4 76be 5703 89be e3bc 643d
00000090: 92b4 4abe 6b2c 503d 7a10 5d3d c089 82be
000000a0: ff67 e73c 189f 843d 1698 42bd 5baf 803d
000000b0: a405 553d f66b 60be a317 483d df8c 92bd
000000c0: f496 72be f5de 253d d653 b03d 84aa 9ebe
000000d0: a40e 0a3d bd3f 04be 2f90 95be abb3 2e3d
000000e0: ee00 96be 4529 78be bd62 8fbe 5211 7fbe
000000f0: e997 a9bd 70ba 97be 81d8 8bbe b710 93be
-0.26428348 -0.22120622 0.053106505 0.04927313 -0.22753052 0.056501754 0.02243705 -0.09470229
-0.28900582 -0.10845113 -0.27886608 -0.13940981 0.06981488 -0.22913215 -0.26762307 -0.23277523
0.04712778 0.028261665 -0.22122075 -0.2699692 -0.01584348 -0.2881376 0.05456471 -0.124539986
0.002558027 0.0020111436 -0.19313678 0.024856396 0.06615649 -0.23682794 0.08971629 -0.20285907
-0.11873635 -0.24110709 -0.2676036 0.0558442 -0.19795445 0.05082361 0.05397079 -0.2549572
0.028247831 0.06475657 -0.04750832 0.062834464 0.052007332 -0.21916184 0.048850667 -0.07155775
-0.23690397 0.04049583 0.086097404 -0.30989468 0.03370537 -0.12914939 -0.29211566 0.042651813
-0.29297584 -0.24234493 -0.2800502 -0.24908951 -0.08280928 -0.29634428 -0.27313617 -0.2872369

features.11.running_mean f4 [64]
00000000: 77ac aebe c43a 3c3e 6ac2 8a3e b087 b8bd
00000010: 29fc 92be 2e57 033f 03b2 8e3e 454f 71be
00000020: 63ef d2bd 02b2 af3c 6530 edbe fe2f a93d
00000030: 5234 a43e ffb2 83be 4b89 efbe cde6 96be
00000040: c730 9d3e 905a 153e 1815 2fbe 41a4 3e3e
00000050: a839 50be b8ed 0cbf 1a6b 403d 3ddd 873e
00000060: cf5d 363e 1fc4 56be 18fe 04bf cffb 783e
00000070: 2480 b13e 37d5 f9be 5cc0 4b3e 68c1 a33d
00000080: b35b de3d 0497 75bd e5ec 0abf e438 c53e
00000090: 48e2 0e3e e141 083f ed04 8e3d c6ce 04bf
000000a0: e88a 903e 96fe d33e 03a6 26be 240e 1f3e
000000b0: cf5a 103f b555 3fbe e670 713e 16f0 513d
000000c0: a64e 12bd fe26 cd3e e0fa 633e 3cec 12bf
000000d0: 85db 263e fce3 cb3e bfd8 53be f869 0c3f
000000e0: 663a 68bd 2b0e 81be 0c33 73bd 0848 e9be
000000f0: dbab 053f 18a3 a13d b8eb 15bf 3a71 c7be
-0.34115955 0.18381792 0.2710145 -0.09010255 -0.28708008 0.513049 0.27870187 -0.23565395
-0.10299566 0.021447185 -0.46325985 0.08261107 0.32071167 -0.257225 -0.46784434 -0.29472962
0.30701277 0.14585328 -0.1709789 0.18617345 -0.20334494 -0.5505023 0.04697714 0.2653598
0.17809223 -0.20973252 -0.51950216 0.24314807 0.34668076 -0.48795483 0.19897598 0.07995874
0.10857334 -0.059958473 -0.5426772 0.38519967 0.13953507 0.53225523 0.06934533 -0.5187801
0.28230977 0.4140517 -0.16274266 0.15532738 0.5638856 -0.18685038 0.23578224 0.051254354
-0.035719536 0.4006881 0.2226367 -0.57391715 0.16294678 0.39822376 -0.20688151 0.54849195
-0.056696318 -0.25206122 -0.059374854 -0.45562768 0.52215356 0.07892436 -0.58562803 -0.38953573

features.11.running_var f4 [64]
00000000: 2754 603e 3b76 353e 1b7b 7d3e 8945 6d3e
00000010: 8011 3b3e 1f2f 263e 7489 7b3e fa28 673e
00000020: ced3 263e 5de5 323e ca76 503e c3be 4f3e
00000030: 752a 263e 7bf8 2e3e e7b4 4c3e 2a28 5d3e
00000040: 46ab e63d 0113 243e 2948 373e ea04 273e
00000050: 1fdd 0c3e 5992 583e 7c36 983e 1605 2f3e
00000060: 4193 203e ba15 213e 58de 513e 44b5 663e
00000070: 995b 723e afae 3b3e 189c 7e3e 5c97 363e
00000080: 5e91 6c3e dad8 433e 14c9 653e 7135 603e
00000090: cd06 413e 1f91 883e 24b7 653e 61e1 553e
000000a0: aa75 463e a5f2 863e b467 463e a995 403e
000000b0: d75c 5f3e 3f87 2a3e f83f 3b3e 1045 1e3e
000000c0: 8812 453e 3704 593e 98cf 8f3e 19b2 5d3e
000000d0: a268 113e 01fd 2f3e 9515 4f3e b2bd 433e
000000e0: 8704 293e 9fbc 553e e418 343e bf10 803e
000000f0: e29d 573e 55da 153e 9298 813e 0cad 583e
0.21907102 0.17720883 0.24753992 0.23171057 0.18268394 0.16228913 0.24564153 0.22574225
0.16291735 0.17470308 0.20357814 0.20287614 0.16227134 0.17086975 0.19990884 0.21597353
0.112631366 0.16022874 0.1789862 0.16310468 0.13756226 0.21149577 0.29729068 0.17091784
0.15681173 0.15730944 0.20494974 0.22530085 0.23667754 0.18328355 0.24864233 0.17831177
0.23102328 0.19125691 0.22439986 0.21895386 0.1885025 0.2667322 0.22433144 0.20886756
0.19380823 0.26356998 0.19375497 0.18807091 0.2181276 0.16653155 0.18286121 0.15456033
0.1924535 0.21193014 0.2808807 0.2164997 0.1420007 0.17186357 0.20223077 0.19115332
0.16505633 0.20872734 0.1758762 0.25012776 0.21056321 0.14634068 0.25311714 0.21159762

embedding_layer.0.weight f4 [16, 64]
00000000: 1330 0c3e 7af1 4cbb d136 583b 8e18 0abe
00000010: 2c2b 733c bb4d ffbd f590 42bd fe08 0cbe
00000020: 0f1e c63d 168b ffbd 88b6 e83d 1705 4abe
00000030: f30f 27be 1ae1 b83d bbb1 143e 157b 1d3e
00000040: 5e3b b2bd aa65 dab9 1ac6 83bc 6ef0 4d3d
00000050: 7e82 ddbd c6ad 223e 1093 e1ba a5ce 48be
00000060: 79de afbc 1698 49bd 3119 ef3d bcd5 b1bd
00000070: 557b a7bd 18f5 3f3c 400e 26be ff5d 303d
00000080: c2d2 41be b98f 2f3d bc99 e03c 88a3 d63a
00000090: 9428 6cbd 1657 97bc ca0c 6ebd 18ba c53d
000000a0: 1787 063c db2b 713d aef2 a0bd 26a7 423d
000000b0: 3023 45be bad2 343e 9bec a0bd 3926 64be
000000c0: 8d59 133e 3f8e 7dbd 1db2 483c fa48 2f3e
000000d0: 72ae dfbd 3d0f 11be 4f11 1e3d cf83 92bd
000000e0: 7706 923d 5771 7bba 3677 88ba de32 0b3e
000000f0: 827b e6bd 897a f83d ef15 ea3b 35a2 f93d
00000100: f347 ce3d 22da bfbb e10c 0f3d f393 723c
00000110: 0152 be3c 8b1c 33bd 5a51 0a3d 799e 13be
00000120: 6f1e d83d 6db5 a2bd 8659 ac3c 3e19 e7bd
00000130: 8ec5 96bc ea7a e43d a206 143e 64d0 81bc
00000140: 4bfe 5ebd 55ce 253d b510 223e 4b7a 2e3e
00000150: 91c6 8dbc 82cb 2f3e 5d1c 35bc aaa0 13be
00000160: e59e c2bd 218c a5bd 6b63 6f3c 7622 bbbc
00000170: 6d20 bb3c 57f3 f23d d952 4a3c fd83 fe3d
00000180: c46a 30be e32a 89bc dbe1 283e 163e 9dbd
00000190: 75eb f33d e19c f73b cf36 10bd ddc0 de3d
000001a0: 198b 973d 6f09 573d ed84 05be acf8 59bb
000001b0: 29d1 ab3c d707 3e3e df17 4fbd 24da 28be
000001c0: f7af 473e 3f0b 44bd d9ae c13d c874 d83d
000001d0: db72 69bd 1c8f 8dbd f0f8 1a3e cdb7 72bd
000001e0: 8285 993d 8936 cb3d b939 f53d a1d1 cd3d
000001f0: 194b 0ebe 36d4 063e d099 2f3e d08f 123e
00000200: 328d f43d b6eb 37bd 9782 9bbc 64fb 65bd
00000210: 4fb3 7bbe 4ac1 b6bd 0b10 5bbd 964d dabd
00000220: f1f2 623d f8a8 64bd ecc4 963d 2d26 dfbd
00000230: feb2 e0bc 91a7 44be 4d27 863d 02b5 723d
00000240: 7f22 f7bd 926e 5bbc d95b 983d 1733 9dbd
00000250: dc6b fcbd 2172 f93d 2067 8b3c fbdc 95bd
00000260: bca2 c6bd ac19 29be fe56 553e 5fd9 12be
00000270: 4823 72bc a4e6 283e e6e7 f6bc 3e61 083e
00000280: a0eb 21bc 47bc 8b3e aa02 1d3e b845 4abd
00000290: 2034 e93d 5ac9 78bd 377b 303d a3ab 76bc
000002a0: 4f68 263c a5eb 5ebd 52dc 95bd 419f 8bbd
000002b0: 273a 00be 37d2 5fbd 7fc1 38be 610b 97bd
000002c0: a072 04bd fff6 e33c 8c95 a53b 49b4 5a3e
000002d0: f01d 21be cd12 b6bd 3709 a1bd 3511 cebd
000002e0: 4202 2ebd efb0 88bd 0446 d23c fb75 72bc
000002f0: 4202 91bb 00ee d3bd a723 bf3d bdfd 9cbd
00000300: f2a1 86bc d7a1 08be 998b 453d 824f ae3d
00000310: 4510 21bd 1b66 913d 7bee 0a3e 667a 9a3d
00000320: aed5 91bd cf44 433d 700b 91bd 937e 22bd
00000330: 3875 2a3e 1dc4 02bd 06ca d43b b912 60bd
00000340: 4d6f 293e 5dc2 ef3d e6de 9bbd cd89 74bd
00000350: a568 cf3c ffa6 8bbd 7937 43bc 4fcc cb3c
00000360: db9f 2b3e 648b d23d 4056 b0bb 08e0 ea3d
00000370: 8512 513d f744 16bc 3a30 133e eaa3 c2bd
00000380: ee14 713c 7de2 37bd bb33 83bd 7c29 b13d
00000390: 2a7f a4bd 9ecc 123e a38e 2e3e 3f5e 9abc
000003a0: c933 073e 6561 b13d 4870 9f3d a488 013e
000003b0: 89a6 a13d fbc8 16bd 6e7a 4e3d 5d20 2d3d
000003c0: 2356 5abd 0075 023d 04a3 ea3d 8990 7ebd
000003d0: 36d5 f13d f7da f93d 6efd 31bd f84e 7d3d
000003e0: 0f59 1abd 25fb 19bd 55d9 eabd 0b0f 4bbd
000003f0: 9085 c4bd 9508 03be b2cc 8abd 7956 4fbd
0.13690214 -0.003127186 0.0032991657 -0.1348593 0.014841836 -0.12465998 -0.047501523 -0.13675305
0.09673702 -0.124777004 0.1136294 -0.19728504 -0.16314678 0.0902731 0.14520924 0.15378983
-0.0870273 -0.00041655946 -0.016085673 0.05027812 -0.10815905 0.15886602 -0.0017209966 -0.19610079
-0.021468388 -0.049217306 0.11674727 -0.08683345 -0.081778206 0.01171615 -0.16216373 0.04305839
-0.18928054 0.042861674 0.027417056 0.001637564 -0.057655886 -0.018474143 -0.058117665 0.09654635
0.008210919 0.058879714 -0.078587875 0.047522686 -0.19251704 0.17658511 -0.07857629 -0.22280206
0.1438963 -0.061903235 0.012249497 0.17117682 -0.10921945 -0.14165969 0.038590726 -0.07154047
0.07130139 -0.0009591779 -0.0010411504 0.13593623 -0.11254026 0.12132747 0.007143728 0.12189142
0.10072317 -0.005854861 0.03492439 0.014805782 0.023232462 -0.043728393 0.03376899 -0.14415921
0.1055268 -0.079447605 0.021038782 -0.112841114 -0.018404748 0.111562565 0.14455655 -0.015846439
-0.05444173 0.040479977 0.15826686 0.17038839 -0.017306598 0.17167476 -0.011054126 -0.14416757
-0.09502963 -0.08083368 0.014611105 -0.02284358 0.02284261 0.1186282 0.012348854 0.124275185
-0.17228228 -0.016744083 0.16492407 -0.076778576 0.11910144 0.007556543 -0.03520852 0.108766295
0.07399578 0.05249923 -0.13038988 -0.0033259792 0.020973759 0.18557678 -0.050559875 -0.16489464
0.19500719 -0.047862288 0.09457178 0.10569149 -0.0569943 -0.069120616 0.15134025 -0.059257317
0.07496168 0.09922511 0.119739 0.10049749 -0.13895835 0.1316689 0.17148519 0.14312673
0.11940993 -0.044902526 -0.018983169 -0.056147948 -0.2458012 -0.08923586 -0.053482097 -0.106593296
0.05540747 -0.055825204 0.073617786 -0.10895953 -0.0274291 -0.19204547 0.06550465 0.059254654
-0.120671265 -0.013393061 0.074393936 -0.0767576 -0.1232526 0.121799715 0.017016947 -0.07317539
-0.09699008 -0.165137 0.20833966 -0.14340733 -0.0147789195 0.16494232 -0.030139875 0.13318345
-0.0098828375 0.27292082 0.15333048 -0.049382895 0.11386895 -0.0607389 0.043086257 -0.01505557
0.010156705 -0.054423947 -0.073174134 -0.06817485 -0.12522183 -0.054643836 -0.18042563 -0.07375217
-0.032335877 0.027827738 0.005053228 0.21357836 -0.15734076 -0.08890305 -0.07863086 -0.10061876
-0.042482622 -0.066743724 0.025668152 -0.014798637 -0.004425318 -0.10348129 0.09332972 -0.07665584
-0.016434643 -0.13342987 0.048228834 0.08511259 -0.039322156 0.07099553 0.13567536 0.07542877
-0.07120834 0.047673043 -0.0708226 -0.03967149 0.16646278 -0.03192531 0.0064938096 -0.054705355
0.16546364 0.11706994 -0.07610874 -0.05970173 0.025318453 -0.06818961 -0.011915081 0.024877695
0.16760199 0.10280493 -0.0053813756 0.11468512 0.051043052 -0.009171716 0.14373866 -0.095039204
0.014714463 -0.04489373 -0.06406351 0.08650491 -0.08032067 0.14335868 0.17046599 -0.018843768
0.13203348 0.08661155 0.07785088 0.1264978 0.07893092 -0.036812764 0.050409727 0.042267192
-0.053304803 0.03184986 0.11456874 -0.06214956 0.11808245 0.12199967 -0.04345458 0.06184289
-0.03768259 -0.037593026 -0.11467234 -0.049574893 -0.095957875 -0.12796243 -0.06777324 -0.050619576

embedding_layer.0.bias f4 [16]
00000000: a9ee 113d 8fb9 90bd 55cf c23d 322a 8e3e
00000010: cbe1 15bc 6ccd 4a3c d084 4b3d 1dd1 2a3e
00000020: 2347 8b3e 1302 983e 250b 313e 358d 483e
00000030: 7469 163e a36e f43d 9cfa c2bd 1667 823b
0.035627995 -0.070666425 0.09512202 0.27766567 -0.0091480715 0.012378078 0.049687207 0.16681333
0.2720271 0.29689083 0.17289408 0.19585116 0.14688665 0.11935165 -0.09520456 0.003979574

classifier.weight f4 [2, 16]
00000000: c822 90be 9dfb 55be 6e27 4bbe 49fc 773e
00000010: 9914 8cbd 8d41 3c3d 6aa0 25be b59a c73e
00000020: 1266 5e3e 3b35 713e 00d8 f43d c6a6 0f3d
00000030: 9bf9 a33e 2936 c8be 249f 4fbe 7a8b 67be
00000040: 479a 553d fd1f 393e 519c 823e 91ce 93be
00000050: 9054 843e 97ea a93e 9fa7 723e 70fa d6be
00000060: 2e67 8a3d 91b7 d8bc 15c5 5fbd 6764 c2be
00000070: 0d7a c53d e5ad d83d 9505 11be c74f 873e
-0.28151536 -0.20896764 -0.1983926 0.24217333 -0.06839866 0.04596095 -0.16174474 0.3898522
0.21718624 0.23555462 0.11955261 0.035071157 0.3202637 -0.3910382 -0.20275551 -0.226118
0.052149083 0.18078609 0.25509885 -0.28868535 0.25845766 0.3318679 0.23696755 -0.41987944
0.06757961 -0.026454719 -0.05463131 -0.37967226 0.0964242 0.10580043 -0.14162286 0.26428053

classifier.bias f4 [2]
00000000: 8203 3c3e eaba e0bc
0.18360713 -0.027432878
