o02_train/run_outputs/31cnn_train_weights.pth (torch, 48140 bytes, 22 tensors)

features.0.weight f4 [16, 6, 5]
0	0x3f3b1917	0.7308516
1	0x3eb6afbb	0.35680947
2	0xbdedc735	-0.11610261
3	0xbecc1b34	-0.39864504
4	0xbf38756d	-0.7205418
5	0xbeb9000b	-0.36132845
6	0xbf4afbdd	-0.7929056
7	0xbeab2097	-0.33423302
8	0xbd4f1977	-0.050561395
9	0xbf31d1f6	-0.69461
10	0x3f5585b6	0.8340715
11	0x3f01a701	0.5064545
12	0x3ecd8d9f	0.4014711
13	0xbdecf526	-0.11570196
14	0xbea6f2c7	-0.326071
15	0xbd8ece7e	-0.06972979
16	0x3b19fccd	0.0023496628
17	0xba1d21f4	-0.0005994134
18	0x3d359b2e	0.044337444
19	0x3e0beb8d	0.13664074
20	0xbcb5072f	-0.022098152
21	0x3cfe281a	0.031024981
22	0xbd969edd	-0.073545195
23	0x3daff559	0.08591718
24	0x39c320e9	0.00037217818
25	0xbe7a8360	-0.24464178
26	0xbd9f07ed	-0.077651836
27	0xbe02a261	-0.12757255
28	0xbd8b8e03	-0.06814196
29	0xbebf6293	-0.37379894
30	0xc0078578	-2.1175213
31	0xc00e60da	-2.2246614
32	0xbfb459a5	-1.4089857
33	0xbf7a8609	-0.9786077
34	0xbf02771d	-0.50963
35	0x3ebffdee	0.3749842
36	0xbe4e611f	-0.20154236
37	0xbd836cb4	-0.06417218
38	0xbef496dd	-0.4777135
39	0xbdd0f9cf	-0.10203897
40	0xbe4ddf51	-0.2010472
41	0x3e030731	0.12795712
42	0x3f15c163	0.5849821
43	0x3f87422a	1.0567067
44	0x3fa960cf	1.3232669
45	0xbbf5d960	-0.0075027198
46	0x3dc52ab4	0.096272856
47	0xbda644a5	-0.08118562
48	0x3d9b351c	0.07578489
49	0x3ad554a3	0.0016275834
50	0xbdc35932	-0.09538497
51	0x3d610f33	0.054946136
52	0xbd80bb08	-0.062856734
53	0x3e03c648	0.12868607
54	0xbde48aa5	-0.11159257
55	0x3d161660	0.036642432
56	0x3d2544bb	0.04034875
57	0xbd475ab3	-0.048670482
58	0x3da97332	0.08273925
59	0xbe8cda22	-0.27510172
60	0xc015d91c	-2.3413763
61	0xc0137740	-2.3041534
62	0xbfc303e2	-1.523556
63	0xbf53ee28	-0.8278527
64	0xbe8462d7	-0.2585666
65	0x3ed833aa	0.42226917
66	0x3f0f4c64	0.5597594
67	0xbe0c2e0c	-0.1368944
68	0xbdd832e9	-0.10556585
69	0xbea1946b	-0.31558546
70	0xbefceef1	-0.49401048
71	0xbf2cbf8f	-0.67479795
72	0xbeb4c15e	-0.35303777
73	0x3df68af9	0.12038226
74	0x3f4f2e5f	0.8093013
75	0x3c9f9b58	0.019483253
76	0xbd04e0f3	-0.03244109
77	0x3d1063d0	0.03525144
78	0xbd65c563	-0.056096446
79	0x3e0fed79	0.14055432
80	0xbe3ed6f1	-0.18636681
81	0xbdffe07f	-0.12493991
82	0x3e493b77	0.1965159
83	0xbc8fddc6	-0.017561805
84	0x3deae851	0.11470092
85	0xbdb0d9d9	-0.08635301
86	0x3dade46a	0.08490832
87	0xbe1c40f2	-0.1525915
88	0xbdf90fe0	-0.12161231
89	0x3d0a3c71	0.033749048
90	0x3fc5fd46	1.5467918
91	0x3f8e1e95	1.1103083
92	0x3f131129	0.5744806
93	0xbd55e6c3	-0.052222025
94	0xbef0c58e	-0.47025722
95	0xbebfb3d0	-0.37441874
96	0x3e29d94c	0.16586798
97	0x3e5778d2	0.21042183
98	0x3ec1a7c3	0.37823305
99	0x3ede5294	0.43422377
100	0x3f2dc411	0.678773
101	0x3f1fb06c	0.62378573
102	0x3e830482	0.25589377
103	0xbe903cc5	-0.28171363
104	0xbf20d5e7	-0.6282639
105	0x3c1fb01a	0.009746576
106	0xbd88e5c1	-0.06684447
107	0xbd0d952e	-0.034566097
108	0xbdb090ad	-0.08621345
109	0xbdd02246	-0.10162787
110	0x3b906749	0.004406844
111	0xbe0b4a2b	-0.13602512
112	0xbd785048	-0.060623437
113	0xbe573459	-0.21016063
114	0xbe05124f	-0.12995265
115	0xbe2ee03f	-0.1707773
116	0xbd86c920	-0.0658133
117	0xbe70b029	-0.235047
118	0xbe2b4a4b	-0.1672756
119	0xbe0e518c	-0.13898295
120	0x3c02a828	0.007974662
121	0x3ed7d6fa	0.42156202
122	0x3f73ef0d	0.9528664
123	0x3f8302bd	1.0235211
124	0x3f89ecd1	1.0775396
125	0x3f0c3070	0.5476141
126	0x3f28cb33	0.6593506
127	0x3f03a2fc	0.5142057
128	0x3ed86d11	0.4227071
129	0xbc8dbe51	-0.017302664
130	0x3e5101d6	0.20410857
131	0x3ecace71	0.39610627
132	0x3ebbeca5	0.36703983
133	0x3f2de801	0.67932135
134	0x3f0022e1	0.5005322
135	0xbd28389c	-0.041069612
136	0x3c95f1ed	0.018303836
137	0xbc2e1bdb	-0.010626758
138	0x3d99b95b	0.07506057
139	0xbb44d8be	-0.0030036415
140	0xbe2d1868	-0.16903841
141	0xbe85a884	-0.2610513
142	0x3d1d7c52	0.03844864
143	0xbe2f00d4	-0.1709016
144	0xbe039cd1	-0.1285279
145	0x3da66b97	0.0812599
146	0x3dd5d056	0.104401276
147	0x3e0b93bc	0.13630575
148	0x3e53e58c	0.20693034
149	0xbbff8773	-0.007798129
150	0xbeee4522	-0.4653712
151	0x3cf0c264	0.029389568
152	0x3e2e72b8	0.17035949
153	0x3dccfa84	0.100087196
154	0x3f1af5b0	0.6053114
155	0x3de14541	0.10999537
156	0x3d6a8270	0.0572533
157	0x3cc25ed1	0.023726853
158	0x3ed757ae	0.42059082
159	0x3f1931a9	0.598414
160	0xbf3cda3f	-0.7377052
161	0xbefb521e	-0.49086088
162	0x3db27dcb	0.08715399
163	0xbe9b492b	-0.3032926
164	0xbeedc741	-0.4644108
165	0x3cc8db7d	0.024518723
166	0xbde37817	-0.1110689
167	0x3de4625b	0.11151572
168	0x3cd79131	0.02631435
169	0xbd7fc9f2	-0.06244845
170	0xbe0d3bbd	-0.1379232
171	0x3dab6020	0.08367944
172	0x3e4c5d5a	0.19957486
173	0xbc9e51b6	-0.019326072
174	0xbdc812fe	-0.097692475
175	0xbda92a0f	-0.08259975
176	0xbe0ba488	-0.13636982
177	0x3ddafbd4	0.10692564
178	0x3e45c480	0.1931324
179	0xbe01bf57	-0.12670647
180	0x3f5c15a2	0.8597051
181	0x3f0dae1e	0.55343807
182	0x3de90ef3	0.113798045
183	0xbee8334b	-0.45351633
184	0xbee08b9e	-0.4385652
185	0xbe90de8b	-0.28294787
186	0xbed4067c	-0.41411197
187	0xbec8b222	-0.39198405
188	0xbf1a7b29	-0.6034418
189	0xbf360c88	-0.7111287
190	0x3f449ad4	0.7679875
191	0x3f3cd968	0.73769236
192	0x3f05969c	0.52182937
193	0x3e4763d2	0.19471672
194	0xbe46f804	-0.19430548
195	0xbd8e3c1f	-0.06945061
196	0xbc35a3d7	-0.011086426
197	0x3c2668d1	0.010156826
198	0x3d410e15	0.04713257
199	0x3dbbbf5d	0.09167359
200	0xbd381729	-0.044943962
201	0xbce7baec	-0.028287373
202	0x3d285e7f	0.041105743
203	0x3c077ce3	0.008269521
204	0x3c01feb8	0.007934265
205	0xbe853d94	-0.26023543
206	0xbd77e72f	-0.06052321
207	0xbe08ca40	-0.13358402
208	0xbe330192	-0.17481068
209	0xbe94f0ce	-0.2908997
210	0x3eeb32b1	0.45937112
211	0x3e8cc06b	0.27490553
212	0xbe1c91a9	-0.1528994
213	0xbeb9e05c	-0.36303985
214	0xbf4498e0	-0.7679577
215	0x3f8374ea	1.0270054
216	0x3f3fa6e2	0.7486402
217	0x3e8d664b	0.27617106
218	0x3ec5a1a4	0.38599885
219	0x3dd528a6	0.10408144
220	0xbf5da08c	-0.865731
221	0xbf5b53d0	-0.8567476
222	0xbf712ede	-0.9421214
223	0xbf24a572	-0.6431495
224	0xbf212811	-0.6295176
225	0x3e28c5c7	0.16481696
226	0x3dddb75c	0.10825989
227	0x3cc5f8a8	0.02416642
228	0xbe0bee2d	-0.13665076
229	0xbe1ff5f5	-0.15621169
230	0xbe9c609c	-0.30542457
231	0x3dabfb8d	0.08397589
232	0x3dc379e5	0.09544734
233	0x3dfa3870	0.12217796
234	0x3db1508a	0.0865794
235	0x3e264a13	0.16239195
236	0x3cd6e475	0.026231984
237	0xbdab960d	-0.08378229
238	0xbc4471fc	-0.011990067
239	0x3d44bfe1	0.048034552
240	0xbe9c9500	-0.30582428
241	0xbdac6dbc	-0.08419368
242	0x3da04ac5	0.07826761
243	0x3d4e845f	0.050419208
244	0x3ed420c2	0.41431242
245	0xbf95db6d	-1.1707588
246	0xbfa42c5e	-1.282604
247	0xbf0b4228	-0.5439782
248	0xbf46ec11	-0.7770396
249	0xbf547573	-0.82991713
250	0x3f999b70	1.2000561
251	0x3fa9203b	1.3212961
252	0x3fac6f07	1.3471383
253	0x3f99b432	1.2008116
254	0x3f8a5426	1.080693
255	0xbe11b314	-0.14228469

features.0.bias f4 [16]
0	0x3e1a1f39	0.15050973
1	0xbdd87cd7	-0.10570686
2	0xbe0f8147	-0.14014159
3	0x3d0764b1	0.03305501
4	0xbdef47b2	-0.11683597
5	0xbda27bfd	-0.07933805
6	0x3e1815b2	0.14852026
7	0x3d2a9dee	0.04165452
8	0x3e431114	0.19049484
9	0x3e4f3195	0.20233758
10	0x3da99938	0.08281177
11	0x3d9c42dd	0.07629941
12	0x3d5aeca8	0.05344835
13	0xbd1e1702	-0.03859616
14	0xbda44b37	-0.080221586
15	0xbb474c1c	-0.0030410355

features.1.weight f4 [16]
0	0x3f775443	0.9661295
1	0x3f779432	0.96710503
2	0x3f5959df	0.8490276
3	0x3f6b3db3	0.9189102
4	0x3f636278	0.88822126
5	0x3f5af233	0.85525817
6	0x3f76eda2	0.9645635
7	0x3f58c997	0.846826
8	0x3f5d9c7e	0.86566913
9	0x3f4cbc43	0.79974765
10	0x3f6ee6a7	0.933207
11	0x3f712f8c	0.94213176
12	0x3f6ef88a	0.9334799
13	0x3f72ef17	0.9489607
14	0x3f706420	0.9390278
15	0x3f54a579	0.8306499

features.1.bias f4 [16]
0	0xbd52f91c	-0.0515071
1	0xbd903064	-0.0704048
2	0xbe2ba998	-0.16763914
3	0xbb32f711	-0.0027307908
4	0x3b2f7890	0.0026774742
5	0xbe5ea651	-0.21743132
6	0xbe395e75	-0.18102439
7	0xbd23e002	-0.040008552
8	0xbd1f076a	-0.03882543
9	0xbc8a03d0	-0.016847521
10	0xbd3b24cf	-0.0456894
11	0xbeb06f2f	-0.34459826
12	0xbd517b2c	-0.051142856
13	0x3b626a9a	0.0034548403
14	0xbd711718	-0.058859915
15	0xbd655b5c	-0.05599533

features.1.running_mean f4 [16]
0	0x3e061255	0.1309293
1	0xbdddaca3	-0.108239435
2	0xbe1545e9	-0.1457745
3	0x3d0d069a	0.034430124
4	0xbd9ef564	-0.07761648
5	0xbda523fc	-0.08063504
6	0x3e0509c1	0.12992002
7	0x3d15e01f	0.03659069
8	0x3e45489f	0.19265984
9	0x3e75826d	0.23975535
10	0x3d4a547c	0.049396977
11	0x3d96ab0b	0.073568426
12	0x3d56cf51	0.052443806
13	0xbd321031	-0.043472473
14	0xbdea4ace	-0.11440049
15	0xbd1d8974	-0.038461164

features.1.running_var f4 [16]
0	0x446976a7	933.85394
1	0x42915add	72.67747
2	0x4300edcc	128.9289
3	0x4490eab4	1159.3345
4	0x43ff6e57	510.86203
5	0x4180cd14	16.100136
6	0x44703d62	960.9591
7	0x438a11f7	276.14035
8	0x42df9720	111.795166
9	0x44101398	576.30615
10	0x45201754	2561.458
11	0x422cd3dd	43.206898
12	0x4279d02b	62.45329
13	0x431c0423	156.01616
14	0x43bb945d	375.1591
15	0x443b5993	749.3996

features.5.weight f4 [32, 16, 3]
0	0x3b64dce6	0.0034921705
1	0x3d9623fa	0.07331081
2	0xbd5f53c7	-0.054523256
3	0x3ca1922f	0.019723026
4	0x3cd1831e	0.025575217
5	0xbb087ca1	-0.0020826238
6	0xbd8e2158	-0.069399536
7	0x3de0bb55	0.10973231
8	0x3da9ecb2	0.08297099
9	0x3dc269b7	0.0949282
10	0xbde24514	-0.11048332
11	0xbd4578da	-0.048210956
12	0xbd032a6b	-0.032022875
13	0x3c98a553	0.01863352
14	0x3d5f656d	0.054540087
15	0xbe7603f0	-0.2402494
16	0xbe051843	-0.12997536
17	0xbe5a8a84	-0.21341902
18	0xbdf64578	-0.12024969
19	0xbddc6aaf	-0.10762536
20	0x3d887834	0.06663552
21	0xbd3e956e	-0.046529226
22	0xbcb21951	-0.021740587
23	0xbdd2788b	-0.10276898
24	0xbe32bf4c	-0.17455786
25	0xbcf4fc2e	-0.029905405
26	0xbd805d2e	-0.062677726
27	0x3e04a9ef	0.1295545
28	0x3dedc1ca	0.11609228
29	0xbdccc860	-0.09999156
30	0xbbc47187	-0.005994979
31	0xbc64c653	-0.0139633
32	0x3cb406d0	0.021975905
33	0xbe00cefe	-0.12578961
34	0xbdb01487	-0.08597665
35	0xbe2a2257	-0.16614662
36	0xbe3d4549	-0.18483461
37	0xbdac27f1	-0.08406056
38	0xbb34d21b	-0.0027591053
39	0x3c10c1f5	0.008835305
40	0xbe27fe8a	-0.16405693
41	0xbc6c9e8c	-0.014442097
42	0x3b5e8718	0.0033955034
43	0x3e75babe	0.23997018
44	0xbc8c0489	-0.017092006
45	0x3c8d735d	0.017266924
46	0x3db23a2f	0.08702504
47	0x3dbffc74	0.093743235
48	0xbce28378	-0.02765058
49	0xbe2b8891	-0.16751315
50	0xbe19d979	-0.15024365
51	0x3c961e18	0.018324897
52	0x3e28d262	0.16486505
53	0x3c4b725e	0.012417404
54	0xbd12a970	-0.03580612
55	0x3de26863	0.110550664
56	0xbd0ff981	-0.035150055
57	0x3e27f4d7	0.16401993
58	0x3da2670c	0.07929811
59	0xbd3f9490	-0.04677254
60	0x3c2457af	0.010030671
61	0x3cda4e25	0.02664859
62	0x3d1e1f3e	0.038604014
63	0x3da6f6bb	0.08152529
64	0xbd2b0cf8	-0.041760415
65	0x3e4a3d24	0.19749886
66	0xbd9b3933	-0.07579269
67	0xbe8f966c	-0.2804445
68	0xbe483676	-0.19552025
69	0xbe6f040e	-0.2334139
70	0xbe05afea	-0.13055387
71	0xbd5ccadd	-0.053904403
72	0xbe0e829f	-0.13917015
73	0xbe48ff90	-0.1962874
74	0xbe0794f8	-0.13240421
75	0xbcc33e53	-0.02383343
76	0xbcd19158	-0.025582
77	0x3d327709	0.043570552
78	0x3c8a1cb6	0.016859394
79	0xbe0d93dc	-0.13825935
80	0xbe23ddbb	-0.16002552
81	0x3da81f21	0.08209062
82	0xbd50288b	-0.050819915
83	0x3cc53fea	0.024078328
84	0xbcaef20f	-0.021355657
85	0xbdb6a917	-0.0891897
86	0xbb94a8df	-0.0045367326
87	0x3e0e14f4	0.1387518
88	0xbb297761	-0.002585851
89	0x3cca3d5e	0.024687465
90	0xbe03e493	-0.12880163
91	0xbdb452b8	-0.0880484
92	0x3d15a24a	0.036531724
93	0xbd5dfaa7	-0.05419412
94	0xbd6f2fdb	-0.058395248
95	0x3c1426e3	0.009042474
96	0xbdc8c9c4	-0.09804109
97	0x3c88931d	0.016671712
98	0xbda23c0c	-0.07921609
99	0xbe022fa7	-0.1271349
100	0xbdec3e9e	-0.11535381
101	0xbe0c433d	-0.13697524
102	0xba4373bc	-0.00074559054
103	0x3c0c9288	0.008579858
104	0xbbe2356c	-0.006903341
105	0xbe48aa65	-0.1959625
106	0xbe6cd048	-0.23126328
107	0xbe524920	-0.20535707
108	0xbdf36b6c	-0.118857235
109	0xbe5113ea	-0.20417753
110	0xbe2fde6f	-0.17174695
111	0xbc4a89d0	-0.012361959
112	0x3d809324	0.06278065
113	0x3e08c9c4	0.13358217
114	0x3d261225	0.040544648
115	0xbcf0c5a5	-0.02939112
116	0xbcbbc56c	-0.022921287
117	0x3e269fd3	0.16271906
118	0xbb5cf46e	-0.0033715027
119	0xbd674c1f	-0.05646908
120	0x3d5516ee	0.05202382
121	0xbd313a94	-0.043268755
122	0xbd38055b	-0.044926982
123	0xbdbf38f7	-0.09337037
124	0xbdf572ff	-0.119848244
125	0xbd726052	-0.05917389
126	0xbe125a10	-0.14292169
127	0xbda9ab0e	-0.08284579
128	0xbd9b7a25	-0.075916566
129	0x3b916b4f	0.004437841
130	0x3d0049d9	0.031320427
131	0x3d5aadec	0.05338852
132	0x3d9527dc	0.07282993
133	0x3dc20da3	0.09475257
134	0xbb5771f0	-0.0032874309
135	0xbd458447	-0.048221853
136	0xbcd34072	-0.025787566
137	0xbd19c758	-0.037543625
138	0xbdeb75db	-0.114970885
139	0xbe06762e	-0.1313102
140	0xbe452af6	-0.1925467
141	0xbd480201	-0.048830036
142	0xbdf54437	-0.119759016
143	0xbe126ab4	-0.14298517
144	0xbb96676b	-0.004589965
145	0xbe1e0472	-0.15431383
146	0xbc9636f7	-0.018336756
147	0x3d265f79	0.040618394
148	0xbe03894f	-0.12845348
149	0xbd595b2a	-0.053065456
150	0x3c86f977	0.016476376
151	0xbd2887ea	-0.041145243
152	0xbc19747c	-0.009366151
153	0xbcd81b3d	-0.026380176
154	0x3e34da1f	0.17661332
155	0x3d3747cd	0.04474621
156	0x3c621461	0.013798804
157	0xbc2a1d05	-0.010382895
158	0xbc881112	-0.016609702
159	0x3daf1d8c	0.085505575
160	0xbd174e94	-0.036940172
161	0xbd40fff3	-0.047119092
162	0xbdd06c3c	-0.10176894
163	0x3c2ae906	0.010431534
164	0xbe5a807d	-0.21338077
165	0xbd952b98	-0.072837055
166	0xbd5ae763	-0.053443324
167	0x3c4222ea	0.0118491445
168	0x3cc09315	0.023507634
169	0xbd274291	-0.040834967
170	0xbdd276e6	-0.10276584
171	0xbcb5f6ec	-0.022212468
172	0x3d1e296d	0.038613725
173	0xbda75b4d	-0.08171711
174	0xbce31c09	-0.02772333
175	0x3d1f6d2b	0.03892247
176	0x3da6480e	0.08119212
177	0x3e043be6	0.12913474
178	0xbd21e52b	-0.039525192
179	0x3e7f6e69	0.24944462
180	0xbe1bffb6	-0.15234265
181	0xbe3343af	-0.17506288
182	0xbe708e55	-0.23491795
183	0xbc9585cf	-0.018252281
184	0x3e4532e1	0.1925769
185	0xbd261362	-0.04054583
186	0xbda170d8	-0.07882851
187	0x3d4363bf	0.047702547
188	0xbd0b9851	-0.034080807
189	0x3ca7363c	0.020411603
190	0xbe010cdd	-0.12602563
191	0xbdc98700	-0.09840202
192	0xbddb7571	-0.107157595
193	0xbd90451c	-0.070444316
194	0x3ce2187d	0.027599568
195	0x3e73dfcd	0.23815842
196	0xbcd3a046	-0.02583326
197	0x3e2c5c2c	0.16832036
198	0x3d46d88f	0.04854637
199	0x3d060ef4	0.032729104
200	0x3df19ff9	0.117980905
201	0x3da3f81d	0.08006308
202	0xbdf8bfe0	-0.12145972
203	0x3df1351d	0.11777709
204	0x3d206e1b	0.039167505
205	0xbc0c50b4	-0.008564163
206	0xbd607a9a	-0.054804422
207	0xbda73793	-0.08164897
208	0xbc449676	-0.011998763
209	0xbe70030a	-0.2343866
210	0xbcd052d1	-0.025430115
211	0xbd9a0b18	-0.07521647
212	0xbe10a2f4	-0.14124662
213	0xbd25fd1c	-0.040524587
214	0xbd887b3c	-0.0666413
215	0xbd72f2eb	-0.059313696
216	0xbe329f5a	-0.174436
217	0xbe3d246d	-0.18470927
218	0xbd24556e	-0.040120535
219	0x3dbcfdd9	0.09228105
220	0x3c84c12e	0.016205397
221	0xbdb6c5eb	-0.089244686
222	0xbd8932f9	-0.066991754
223	0xbdf65e9e	-0.120297655
224	0xbd8e9c10	-0.0696336
225	0x3d2fbb30	0.042903125
226	0x3d236a8b	0.03989653
227	0x3de7b100	0.11313057
228	0xbdbf4793	-0.093398236
229	0xbdfa9e59	-0.12237234
230	0xbd88d2f5	-0.06680862
231	0xbe1669e3	-0.1468883
232	0xbe341283	-0.17585187
233	0xbdba9fc1	-0.09112502
234	0x3e23b356	0.1598638
235	0xbdab897a	-0.08375831
236	0xbe23d673	-0.15999775
237	0x3d85239a	0.06500931
238	0x3d4dac6f	0.050213274
239	0x3d1de257	0.038545933
240	0xbdb45970	-0.08806121
241	0xbe2d12fe	-0.16901776
242	0x3cdf0630	0.02722463
243	0x3dc97eb9	0.098386236
244	0x3d77871a	0.060431577
245	0x3d0755b1	0.033040706
246	0xbb35f838	-0.0027766358
247	0x3cdf6244	0.027268536
248	0xbd95f158	-0.07321423
249	0xbd4d830d	-0.050173808
250	0x3e1684a0	0.1469903
251	0xbc9ed866	-0.019390296
252	0x3c101ca8	0.008795895
253	0x3d86a4f9	0.06574435
254	0x3d19763f	0.037466284
255	0x3c1fc88b	0.009752403

features.5.bias f4 [32]
0	0xbd88c83b	-0.06678816
1	0xbc55ac62	-0.013041588
2	0x3d33917a	0.04383991
3	0xbdca8d55	-0.09890238
4	0x3c0ea0c8	0.008705325
5	0xbe29adc1	-0.16570188
6	0x3d5e782d	0.054313827
7	0x3d3acd89	0.04560617
8	0x3c4da2b7	0.012551001
9	0xbdbfce4b	-0.09365519
10	0xbb8a7eb4	-0.00422653
11	0xbe499a6a	-0.1968781
12	0xbc75eab4	-0.015009571
13	0x3d2d66d0	0.042334378
14	0x3c649213	0.013950842
15	0x3e4770e9	0.19476666
16	0x3de1f068	0.11032182
17	0xba07e5bb	-0.0005184074
18	0x3bda1374	0.006655151
19	0x3e2eb46c	0.17061013
20	0xbce49499	-0.027902888
21	0xbd24e5db	-0.04025827
22	0xbcb58e40	-0.022162557
23	0x3ce5380b	0.027980825
24	0x3d42fb2e	0.047602825
25	0x3da8fda4	0.08251503
26	0xbdf220f9	-0.11822695
27	0xbe4efd03	-0.20213704
28	0xbd443915	-0.047906
29	0x3b60126d	0.003419067
30	0x3ab2f948	0.0013654614
31	0xbe0088d8	-0.12552202

features.6.weight f4 [32]
0	0x3f47603e	0.7788123
1	0x3f7280e8	0.94727945
2	0x3f88f6c2	1.0700305
3	0x3f5df74e	0.8670548
4	0x3f55cc97	0.83515304
5	0x3f639c0e	0.88909996
6	0x3f72df1e	0.948717
7	0x3f768113	0.962907
8	0x3f5efd45	0.8710521
9	0x3f82fce9	1.0233432
10	0x3f7c340f	0.98516935
11	0x3f5e2be3	0.86785716
12	0x3f401d34	0.7504456
13	0x3f7f69d7	0.99770874
14	0x3f71d72b	0.94468945
15	0x3f66c476	0.90143526
16	0x3f5c22ee	0.859908
17	0x3f71c25d	0.944372
18	0x3f69c8ee	0.9132222
19	0x3f463018	0.77417135
20	0x3f5fa2f6	0.87358034
21	0x3f6f214d	0.9341019
22	0x3f6411eb	0.8908984
23	0x3f7170eb	0.94312924
24	0x3f85bcf6	1.0448291
25	0x3f408cbf	0.7521476
26	0x3f457815	0.77136356
27	0x3f67c1f0	0.905303
28	0x3f66a2db	0.9009225
29	0x3f6a4de9	0.9152513
30	0x3f6d53d7	0.92706054
31	0x3f827f2c	1.019506

features.6.bias f4 [32]
0	0xbdbaee0f	-0.09127437
1	0xbdf74210	-0.12073147
2	0xbdfb4530	-0.12269056
3	0xbdc5d833	-0.09660377
4	0xbdee2767	-0.11628609
5	0xbde23c77	-0.11046689
6	0xbcadc84e	-0.021213677
7	0xbdd7aaa8	-0.10530597
8	0xbd20115f	-0.039079066
9	0xbdc11405	-0.094276465
10	0xbd961f90	-0.07330239
11	0xbdeb8c59	-0.115013786
12	0xbe3d8b80	-0.18510246
13	0xbdc2be87	-0.095089965
14	0xbd60948b	-0.05482916
15	0xbe85c7e9	-0.26129082
16	0xbe635184	-0.22199064
17	0xbe2c7d47	-0.16844665
18	0xbe38e56e	-0.1805627
19	0xbd881d25	-0.06646184
20	0xbdd49f42	-0.103819385
21	0xbe316eac	-0.17327374
22	0xbe50cba8	-0.20390189
23	0xbe052a95	-0.13004525
24	0xbdbbc5a0	-0.09168553
25	0xbe933de9	-0.2875817
26	0xbe1aa170	-0.15100646
27	0xbde8234f	-0.113348596
28	0xbddb8042	-0.107178226
29	0xbe2896cc	-0.16463774
30	0x3c2e96cb	0.010656069
31	0xbe0ae55c	-0.13564056

features.6.running_mean f4 [32]
0	0xbea1da5e	-0.31611913
1	0xbea01435	-0.31265417
2	0xbf093d12	-0.5360881
3	0xbea8549e	-0.32877058
4	0xbe948d50	-0.29014063
5	0xbf1408d9	-0.57826
6	0xbe49d230	-0.19709086
7	0xbdf33cc6	-0.11876826
8	0xbe54f5c7	-0.20796882
9	0xbf1ac641	-0.6045876
10	0xbf09194f	-0.5355424
11	0xbe7b5132	-0.24542692
12	0xbeb4a53c	-0.35282314
13	0xbe480995	-0.19534905
14	0xbe214ea9	-0.15752663
15	0x3c5bf755	0.013425668
16	0x3eba2694	0.36357558
17	0xbeff4fe8	-0.4986565
18	0xbf1b6fdb	-0.6071755
19	0xbdde5622	-0.10856272
20	0xbe1e5cf5	-0.15465148
21	0xbea176c5	-0.31535926
22	0xbec850c3	-0.39124116
23	0xbe816e5a	-0.25279504
24	0xbec01a06	-0.37519854
25	0x3cae411c	0.021271281
26	0xbefc8c6b	-0.4932588
27	0xbf1b773d	-0.6072882
28	0x3d7d0130	0.06176871
29	0xbe782f77	-0.24236856
30	0xbe2a4b80	-0.16630363
31	0xbf21421b	-0.62991494

features.6.running_var f4 [32]
0	0x3f06aed1	0.526105
1	0x3f3d302e	0.7390164
2	0x3fa3e14d	1.2803131
3	0x3ec5b195	0.38612047
4	0x3f1c563b	0.6106908
5	0x3f69f1d3	0.9138462
6	0x3f268a58	0.65054846
7	0x3eb5b01d	0.35485926
8	0x3ee21c43	0.44162187
9	0x3f744e63	0.9543211
10	0x3fcf5b28	1.6199694
11	0x3e8bfb59	0.273402
12	0x3f8bac95	1.0912043
13	0x3f171009	0.5900884
14	0x3ee487c3	0.44634828
15	0x3ed02b38	0.40657973
16	0x3eaacd4e	0.3335976
17	0x3f63fe14	0.8905957
18	0x3f8e4076	1.1113422
19	0x3f5a6034	0.85303044
20	0x3ecbb224	0.39784348
21	0x3f20e491	0.62848765
22	0x3f25c10a	0.6474768
23	0x3f315abf	0.6927909
24	0x3fac401c	1.3457065
25	0x3eeb7cfb	0.4599379
26	0x3fb0b7f6	1.380614
27	0x3f818637	1.0119084
28	0x3e95d429	0.29263428
29	0x3eff43b7	0.4985635
30	0x3ec8c2a4	0.39211
31	0x3f6cfde3	0.925749

features.10.weight f4 [64, 32, 3]
0	0x3c385ae0	0.011252135
1	0xbd3a0f62	-0.045424826
2	0x3cd66540	0.026171327
3	0x3db765c6	0.089549586
4	0x3e125aa5	0.1429239
5	0x3d98d7cc	0.07463035
6	0xbddd9f96	-0.10821454
7	0xbd8442d4	-0.06458059
8	0xbe091c89	-0.13389792
9	0x3e35ef09	0.17766966
10	0x3e0cb989	0.13742651
11	0x3ddfed88	0.10933977
12	0x3deb57c4	0.11491349
13	0x3db9aec1	0.09066535
14	0x3e1b187a	0.15146056
15	0x3e140340	0.14454365
16	0x3d98942d	0.07450137
17	0x3e0f924f	0.14020656
18	0x3de83da8	0.11339885
19	0x3d9699bc	0.07353541
20	0x3d7ddcc0	0.0619781
21	0x3e2664e5	0.16249426
22	0x3da90ab4	0.082539946
23	0x3cb1a310	0.0216842
24	0x3ce5e227	0.02806194
25	0xbc9d2e40	-0.019187093
26	0x3ca22a73	0.019795632
27	0xbdf90ac0	-0.121602535
28	0xbddf102c	-0.108917564
29	0xbdcb45be	-0.09925412
30	0xbe00e0ab	-0.12585704
31	0xbdd97158	-0.10617322
32	0xbd9ba877	-0.076004915
33	0xbd0db486	-0.03459599
34	0xbd2d0407	-0.04224017
35	0xbdc0f2de	-0.09421323
36	0xbd84b3d3	-0.06479611
37	0xbd32faf5	-0.043696363
38	0xbd8f96e6	-0.070112035
39	0x3e0ef0b9	0.13959016
40	0x3e1ee3e3	0.1551662
41	0x3e18a450	0.1490643
42	0x3d0dc520	0.03461182
43	0x3d2ae5a3	0.041722905
44	0x3be48a13	0.0069744675
45	0x3d171415	0.036884386
46	0x3e115242	0.14191535
47	0x3ce78167	0.028259946
48	0xbdc4ad15	-0.09603325
49	0xbd221055	-0.039566357
50	0xbd285c4d	-0.04110365
51	0xbdeb0c14	-0.11476913
52	0xbdb09b10	-0.08623326
53	0xbdac3b6f	-0.084097736
54	0xbd199c1b	-0.03750239
55	0xbcc0bc33	-0.02352724
56	0xbd0a0dbe	-0.03370451
57	0xbce4d352	-0.027932797
58	0x3d29ba6d	0.041437555
59	0xbcacea80	-0.021107912
60	0x3c76f877	0.015073887
61	0x3b71da9d	0.0036903985
62	0x3c04467a	0.008073444
63	0xbc8a0f70	-0.016853064
64	0x3d882944	0.06648496
65	0x3d1b9429	0.037983093
66	0x3de9264e	0.11384259
67	0x3da941d8	0.08264512
68	0x3d3955be	0.045247786
69	0x3db04046	0.08606009
70	0x3cc717e2	0.02430338
71	0x3d94e80a	0.072708204
72	0xbdbc374f	-0.09190237
73	0xbe161127	-0.1465498
74	0xbddc485a	-0.107559875
75	0xbcdbd2e1	-0.026833953
76	0x3d3f9ff0	0.046783388
77	0xbd1fe28e	-0.03903442
78	0x3bbb6558	0.005718868
79	0xbca991b4	-0.02069936
80	0xbd91ba8e	-0.071156606
81	0xbe2bba86	-0.16770372
82	0xbe047f2e	-0.1293914
83	0xbe463e11	-0.19359614
84	0xbcb1fde3	-0.021727508
85	0xbd16df11	-0.036833826
86	0xbd873149	-0.06601197
87	0x3dbf28d5	0.0933396
88	0x3dfb3582	0.12266065
89	0x3dda58b3	0.10661449
90	0xbd6c14aa	-0.057636894
91	0xbc34f717	-0.011045239
92	0xbbe3507b	-0.0069370843
93	0xbd4990e6	-0.04921045
94	0xbdcb84ea	-0.09937461
95	0xbdde907e	-0.108674034
96	0xbd832be5	-0.064048566
97	0xbd3cb5c7	-0.046071794
98	0x3c4c072e	0.012452884
99	0x3ddd82be	0.10815953
100	0x3e075019	0.13214149
101	0x3d6b1539	0.057393286
102	0xbe0726a4	-0.13198334
103	0xbde4cc25	-0.1117175
104	0xbd981aa7	-0.074269585
105	0x3e07e119	0.13269462
106	0x3e016606	0.12636575
107	0x3daf972e	0.08573757
108	0x3cb4ea5f	0.022084413
109	0x3d37a7ad	0.044837642
110	0x3e0810c0	0.1328764
111	0x3db99031	0.090607055
112	0x3e084c34	0.13310319
113	0x3de913f5	0.113807596
114	0x3d2ab240	0.0416739
115	0x3dbf0140	0.0932641
116	0x3d3f58ca	0.046715535
117	0x3e0fd260	0.14045095
118	0x3daa6861	0.0832069
119	0x3cf4611e	0.029831465
120	0xbc23fb6b	-0.010008673
121	0x3c6e925b	0.014561261
122	0xbd734aa9	-0.059397373
123	0xbdb9bba3	-0.09068992
124	0xbe0c60e2	-0.13708833
125	0xbe1a687e	-0.15078923
126	0xbdd74ef0	-0.10513103
127	0xbdaee480	-0.08539677
128	0xbda2b60f	-0.07944881
129	0xbd3a6564	-0.04550685
130	0xbcbf2452	-0.023332749
131	0xbdd1a006	-0.102356
132	0xbda5bcb0	-0.0809263
133	0xbd1a95be	-0.03774046
134	0xbc0c3dda	-0.008559668
135	0x3e20ac7f	0.15690802
136	0x3e0f4197	0.13989864
137	0x3d88dd9c	0.06682894
138	0x3d12211c	0.035676107
139	0x3d43d048	0.047806054
140	0x3d369006	0.044570945
141	0x3de774b8	0.11301559
142	0x3dfbbe8f	0.122922055
143	0x3e0a71f5	0.13520034
144	0xbd0bf98e	-0.03417354
145	0xbd2e65de	-0.042577617
146	0xbd2e23a3	-0.042514455
147	0xbdd66df0	-0.10470188
148	0xbdda01e4	-0.10644892
149	0xbd5f3192	-0.054490633
150	0xbdb1eabf	-0.086873524
151	0xbd0ebc3f	-0.034847494
152	0xbdbc6c29	-0.092003174
153	0x3acde6e3	0.0015709068
154	0x3d24a3c7	0.040195253
155	0x3cc1d585	0.023661384
156	0x3cb1fae8	0.021726087
157	0x3c1860f4	0.009300459
158	0xbd2e9621	-0.042623643
159	0x3d933a45	0.071888484
160	0x3d9088e9	0.070573635
161	0x3dc2958c	0.0950118
162	0x3d912cf2	0.07088651
163	0x3de981db	0.11401721
164	0x3dd4916f	0.10379302
165	0x3c6e4d43	0.014544788
166	0x3d7137bf	0.058891054
167	0x3d42972f	0.04750746
168	0xbe03f4a8	-0.12886298
169	0xbe09ef72	-0.13470247
170	0xbdde2f5f	-0.10848879
171	0xbd2bba33	-0.04192562
172	0x3d82e47f	0.063912384
173	0x3d1abc75	0.037777383
174	0xbc805c49	-0.015669005
175	0xbd211c17	-0.03933343
176	0xbd489f84	-0.04898025
177	0xbe4ea511	-0.20180155
178	0xbdfb4b76	-0.122702524
179	0xbe2784c6	-0.16359243
180	0xbc797611	-0.015225903
181	0xbd875223	-0.06607463
182	0xbd8026b0	-0.06257379
183	0x3b259f4c	0.002527195
184	0x3d654a89	0.055979285
185	0x3d3b5a43	0.045740377
186	0xbda52ed4	-0.080655724
187	0xbca6a3dc	-0.020341806
188	0xbcc91713	-0.024547135
189	0xbdce82d1	-0.10083545
190	0xbd87c1ce	-0.06628762
191	0xbd823199	-0.06357116
192	0xbdc1ccae	-0.09462868
193	0xbdbdc252	-0.09265579
194	0xbd2b7e7d	-0.041868676
195	0xbb7bd4ba	-0.0038426355
196	0x3ce67203	0.028130537
197	0xbd8c535f	-0.06851839
198	0x3e2b16fd	0.16707988
199	0x3d955617	0.07291811
200	0x3e3b7266	0.18305358
201	0xbdceb674	-0.10093394
202	0xbd857648	-0.06516701
203	0xbd5ab1ac	-0.053392097
204	0xbd305df3	-0.043058347
205	0xbc4e067a	-0.012574786
206	0xbcdd22fb	-0.026994219
207	0x3bd73d80	0.0065686107
208	0x3d82150d	0.06351671
209	0x3c8dd841	0.017315032
210	0xbcfdb567	-0.030970288
211	0xbdc2e877	-0.095169954
212	0xbe1db272	-0.15400103
213	0xbd97fd72	-0.07421388
214	0xbdbb9acf	-0.09160387
215	0xbda51716	-0.08061044
216	0xbe2a3e15	-0.16625245
217	0xbde86589	-0.11347491
218	0xbdbf103f	-0.093292706
219	0x3d5bd185	0.05366661
220	0x3d8fb4a5	0.07016877
221	0x3b126fda	0.00223445
222	0x3da09b68	0.078421414
223	0x3c0cacd1	0.0085861245
224	0x3d60d19d	0.054887403
225	0x3dfe61c3	0.1242099
226	0x3ded76b4	0.115949064
227	0xbd3bded3	-0.0458668
228	0xbe1188b6	-0.14212307
229	0xbd5678ce	-0.052361302
230	0xbc9aee17	-0.018912358
231	0xbbcc4ca2	-0.0062347213
232	0x3b9fafa3	0.0048732325
233	0xbdb6b624	-0.08921459
234	0xbd8126a3	-0.063061975
235	0xbda99188	-0.08279711
236	0xbda6841a	-0.08130665
237	0xbd768fa1	-0.06019557
238	0xbddfcd1d	-0.10927794
239	0xbe2e70d0	-0.17035222
240	0x3da36d18	0.07979792
241	0x3d2f4eca	0.04279975
242	0x3d35a278	0.044344395
243	0x3d0ca933	0.03434105
244	0x3d79ab8a	0.060954608
245	0x3e29edc6	0.1659461
246	0x3dfc70c5	0.123261966
247	0x3d9a90d3	0.07547154
248	0x3e08902e	0.1333625
249	0xbdac4844	-0.08412221
250	0xbd8185d4	-0.06324354
251	0xbdcfbf2f	-0.10143887
252	0xbe188c5f	-0.14897297
253	0xbdc17a55	-0.09447161
254	0xbd37722d	-0.04478662
255	0xbdc674a9	-0.0969022

features.10.bias f4 [64]
0	0x3d9b6bfc	0.07588956
1	0xbde506e4	-0.11182955
2	0x3ddb0273	0.106938265
3	0xbd94daa3	-0.07268264
4	0xbd3f296a	-0.046670355
5	0x3d7204ea	0.059086718
6	0x3defa915	0.11702172
7	0xbcf68f72	-0.030097697
8	0x3d8afb10	0.067861676
9	0xbac61ff2	-0.0015115722
10	0x3da0c8a8	0.07850772
11	0xbc8c883d	-0.017154807
12	0xbd7cc57c	-0.061711773
13	0xbd099075	-0.03358503
14	0xbdc50bee	-0.09621416
15	0x3ced1a04	0.02894307
16	0x3b8afb80	0.004241407
17	0x3e320e26	0.1738821
18	0xbdd84cbf	-0.10561513
19	0x3df95a67	0.12175446
20	0x3c03047a	0.007996673
21	0x3d6a5ee9	0.05721942
22	0xbcee23dd	-0.029069835
23	0x3d117caa	0.03551928
24	0x3d018619	0.031622026
25	0x3e31e8cd	0.17373963
26	0xbdb9df1b	-0.09075757
27	0xbb9b83f0	-0.004745953
28	0x3c9b6426	0.018968653
29	0xbdb19b30	-0.08672178
30	0x3d737c03	0.05944444
31	0x3cbad3b4	0.022806026
32	0xbd8806d6	-0.06641929
33	0xbdb73588	-0.08945757
34	0x3c676b8c	0.014124762
35	0x3d8cda2e	0.06877552
36	0x3dc2d362	0.09512974
37	0x3ccb9e3d	0.024855727
38	0x397a9d12	0.00023900371
39	0xbd0da556	-0.034581505
40	0x3ddaca71	0.10683144
41	0x3d409817	0.047020044
42	0xbd5176f0	-0.05113882
43	0xbcf61d6b	-0.030043324
44	0x3d8a00d4	0.06738439
45	0x3d1d3026	0.038375996
46	0xbd9ba55f	-0.075999014
47	0x3d3293d0	0.043597996
48	0x3cae43c8	0.021272555
49	0x3d762081	0.060089592
50	0xbd443269	-0.047899637
51	0x3d4b8839	0.04969046
52	0x3d2be4b2	0.041966148
53	0x3d9c3ddb	0.076289855
54	0x3cf0f872	0.029415343
55	0x3c66871d	0.014070299
56	0xbc5aadaa	-0.013347069
57	0xbc88788f	-0.01665905
58	0xbd3c6862	-0.045997985
59	0x3d1cea81	0.038309578
60	0x3dc66a6e	0.096882686
61	0xbd0dd0d5	-0.034622986
62	0xbdb53e08	-0.08849722
63	0x3d26ba67	0.04070511

features.11.weight f4 [64]
0	0x3f798918	0.97474813
1	0x3f6dd2e8	0.9289994
2	0x3f825c71	1.0184461
3	0x3f873313	1.0562462
4	0x3f741046	0.9533733
5	0x3f828832	1.0197814
6	0x3f7d51e8	0.98953104
7	0x3f7e0454	0.99225354
8	0x3f6dcee3	0.9289381
9	0x3f87a02e	1.0595758
10	0x3f646c20	0.89227486
11	0x3f83657b	1.0265344
12	0x3f8128de	1.0090597
13	0x3f7ecd24	0.9953177
14	0x3f7d1f6c	0.9887607
15	0x3f750ee9	0.95725876
16	0x3f74670b	0.9546973
17	0x3f7c937e	0.98662555
18	0x3f758283	0.9590227
19	0x3f6dd4fe	0.92903125
20	0x3f81eef5	1.0151049
21	0x3f622153	0.883321
22	0x3f7e3396	0.99297464
23	0x3f865e23	1.0497478
24	0x3f6dba3f	0.92862314
25	0x3f785052	0.9699756
26	0x3f828004	1.0195317
27	0x3f7582dc	0.959028
28	0x3f7bc708	0.9835057
29	0x3f6fc955	0.93666583
30	0x3f8391ff	1.027893
31	0x3f7ba96b	0.98305386
32	0x3f727ba2	0.947199
33	0x3f6eb353	0.9324238
34	0x3f6247a3	0.8839056
35	0x3f82ff6a	1.0234196
36	0x3f854599	1.0411865
37	0x3f7c6cb5	0.98603374
38	0x3f82db9d	1.0223271
39	0x3f69e768	0.9136872
40	0x3f76699f	0.96254915
41	0x3f83eccc	1.030664
42	0x3f7efec0	0.9960747
43	0x3f84ae00	1.03656
44	0x3f8724a3	1.0558056
45	0x3f8550c5	1.0415274
46	0x3f67c75c	0.90538573
47	0x3f740c83	0.9533159
48	0x3f7ca0cb	0.9868285
49	0x3f828f9c	1.0200076
50	0x3f85805e	1.04298
51	0x3f6a0260	0.91409874
52	0x3f83b175	1.028853
53	0x3f83cdb9	1.0297157
54	0x3f78df9e	0.9721621
55	0x3f82dbf7	1.0223378
56	0x3f76146f	0.9612493
57	0x3f7a769f	0.9783725
58	0x3f7bb7ee	0.9832753
59	0x3f697e60	0.9120846
60	0x3f86d87c	1.0534816
61	0x3f6e1c9f	0.9301242
62	0x3f6da31b	0.92827004
63	0x3f654cb2	0.8957015

features.11.bias f4 [64]
0	0xbe1919d9	-0.14951266
1	0xbe3937be	-0.1808767
2	0x3d6ccd34	0.057812884
3	0x3dd76674	0.10517588
4	0xbe30a9e7	-0.17252313
5	0x3d695af6	0.056971513
6	0x3d363aaf	0.04448956
7	0xbdc40bf2	-0.09572591
8	0xbe40e29a	-0.18836442
9	0xbd0d62a0	-0.034517884
10	0xbe724c7c	-0.23661989
11	0xbda2de77	-0.07952588
12	0x3d9c0c7f	0.07619571
13	0xbe045f96	-0.12927088
14	0xbd391c33	-0.04519291
15	0xbd934e4c	-0.07192668
16	0x3cbf2df4	0.023337342
17	0x3d404846	0.046943925
18	0xbe5e98ca	-0.21737972
19	0xbe40cc0b	-0.18827836
20	0x3d9dbc02	0.07701875
21	0xbe76cec3	-0.24102311
22	0x3d679104	0.056534782
23	0xbd88a4c9	-0.06672055
24	0xbd744d0f	-0.0596438
25	0x3d1b44c6	0.037907384
26	0x3dbfd7b8	0.09367317
27	0x3d9c280e	0.07624827
28	0x3cbf7749	0.02337231
29	0xbe2860e4	-0.16443211
30	0x3dd661ba	0.104678586
31	0xbdfc8c5a	-0.123314574
32	0xbd7ccec3	-0.06172062
33	0xbe44e873	-0.19229297
34	0xbe7182b6	-0.23585019
35	0x3dde5ec0	0.10857916
36	0xbddb30f8	-0.107026994
37	0xbe3fa581	-0.18715478
38	0x3de460e6	0.111512944
39	0xbe474d9f	-0.19463204
40	0x3d2b46ee	0.04181569
41	0x3dadd2d4	0.08487478
42	0xbc68b922	-0.014204295
43	0x3da5e908	0.08101088
44	0x3dc38e6e	0.09548651
45	0xbe0995b6	-0.13436016
46	0xbe48280c	-0.19546527
47	0x3c3e48fb	0.01161408
48	0xbe393d27	-0.18089734
49	0x3db74678	0.08948988
50	0x3e0fb7e4	0.14034992
51	0xbe3a0b83	-0.18168454
52	0x3db090dd	0.086213805
53	0xbcad8840	-0.021183133
54	0xbe2a740f	-0.16645835
55	0x3d792569	0.060826693
56	0xbe4e9bd7	-0.20176636
57	0xbe1d2332	-0.15345457
58	0xbdeb3eb1	-0.11486567
59	0xbe437f27	-0.19091474
60	0xbd975569	-0.073893376
61	0xbe5e95cf	-0.21736835
62	0xbe5a689c	-0.21328968
63	0xbe4dd4f6	-0.2010077

features.11.running_mean f4 [64]
0	0x3ca0bea2	0.01962215
1	0xbe93eeea	-0.28893214
2	0xbc5f3298	-0.013622902
3	0xbe43b268	-0.19111025
4	0xbe8bca98	-0.27303004
5	0x3eca1eab	0.39476523
6	0x3d07a6ac	0.033117935
7	0x3e3ee520	0.18642092
8	0xbebe0802	-0.37115484
9	0x3e8d9220	0.27650547
10	0xbb963972	-0.0045844847
11	0x3e9457df	0.2897329
12	0x3b7bc8ae	0.0038419175
13	0xbe55be03	-0.20873265
14	0xbe278b07	-0.16361628
15	0xbe258f49	-0.1616794
16	0x3e26f9cf	0.16306232
17	0x3d9096a1	0.0705998
18	0x3a492b1e	0.00076739665
19	0x3e57dae7	0.21079598
20	0x3d0db601	0.0345974
21	0xbe86d2e8	-0.26332784
22	0x3e8017c8	0.25018144
23	0x3e9db089	0.30798748
24	0x3d27f05d	0.041000713
25	0x3e4f36c2	0.20235732
26	0xbddda458	-0.10822362
27	0x3dc6bc84	0.09703925
28	0x3e8d07ff	0.27545163
29	0xbe8d2ff8	-0.2757566
30	0x3e8655c5	0.26237312
31	0xbcd0e24b	-0.02549853
32	0xba4235ee	-0.0007408549
33	0xbe3de0d5	-0.18542798
34	0xbe04db87	-0.12974368
35	0x3d448889	0.047981773
36	0x3d8f2fe7	0.069915585
37	0x3caff8e0	0.021480978
38	0x3e323dd7	0.17406403
39	0xbd76781d	-0.060173143
40	0x3e3b75ea	0.183067
41	0x3e0166ee	0.12636921
42	0xbf372d1d	-0.7155321
43	0xbd01ac34	-0.031658366
44	0xbd8c393f	-0.06846856
45	0x3e9fb3b8	0.31191802
46	0xbe350b15	-0.17680009
47	0xbbb013d1	-0.005373456
48	0x3cdc1d23	0.026869362
49	0x3e8ce3ef	0.2751765
50	0xbe2c9400	-0.16853333
51	0xbe8dedc0	-0.2772045
52	0x3e995b68	0.2995255
53	0xbc0c0e22	-0.008548291
54	0xbe0c98de	-0.13730189
55	0x3ef89bec	0.4855646
56	0x3dd4fac1	0.1039939
57	0xbce09a14	-0.02741722
58	0xbe571539	-0.2100419
59	0xbdfdd752	-0.12394585
60	0x3f12e635	0.5738252
61	0xbdc81ab2	-0.09770717
62	0xbe60711f	-0.21918152
63	0xbd13f6d9	-0.036124084

features.11.running_var f4 [64]
0	0x3e9dafb3	0.3079811
1	0x3e9a4edc	0.3013829
2	0x3e657b1d	0.22410245
3	0x3e60d30d	0.2195551
4	0x3eb28ab2	0.3487144
5	0x3e6e9675	0.23299582
6	0x3e63b595	0.22237237
7	0x3f0ce018	0.5502944
8	0x3e895ed0	0.2683015
9	0x3f143f0c	0.579087
10	0x3ea9e17b	0.3317984
11	0x3f14cace	0.58121955
12	0x3e4c9c64	0.19981533
13	0x3e9db46f	0.30801722
14	0x3ed0b858	0.40765643
15	0x3ea6c973	0.3257557
16	0x3e2a29d2	0.16617516
17	0x3e8ffd1b	0.28122792
18	0x3ed80703	0.4219285
19	0x3eca4df9	0.39512613
20	0x3e4fe4a6	0.20302066
21	0x3ebfcfcc	0.37463224
22	0x3e9dbaf8	0.30806708
23	0x3ef53791	0.47893956
24	0x3e7d492f	0.24734949
25	0x3e3d99e8	0.18515742
26	0x3e53be35	0.20678027
27	0x3e74d35b	0.2390875
28	0x3e7ed4b5	0.24885829
29	0x3eab52fa	0.33461744
30	0x3e4b5ca7	0.19859563
31	0x3eaeecdb	0.3416508
32	0x3ea022b9	0.3127649
33	0x3eb5f1ef	0.35536143
34	0x3ec0d174	0.376598
35	0x3ec80da0	0.39072895
36	0x3eb1137d	0.3458518
37	0x3eadf69e	0.33977216
38	0x3ea1286e	0.31476158
39	0x3ebf8fd9	0.37414435
40	0x3e6d975c	0.2320227
41	0x3e68c745	0.22732265
42	0x3e9dc80e	0.30816692
43	0x3e435f79	0.19079389
44	0x3e7ae5e5	0.2450176
45	0x3eca87fd	0.39556876
46	0x3ebb058a	0.36527663
47	0x3e6fb42f	0.23408578
48	0x3eb16942	0.34650618
49	0x3e827bf1	0.25485185
50	0x3e96f3f9	0.2948301
51	0x3e91004b	0.28320536
52	0x3e61b523	0.22041754
53	0x3ec91723	0.39275464
54	0x3e9091b6	0.2823617
55	0x3e9b3fb0	0.30322027
56	0x3eb38019	0.35058668
57	0x3ec10e06	0.37706012
58	0x3e9d569c	0.3073014
59	0x3ea03e14	0.31297362
60	0x3f121c31	0.57074267
61	0x3e9ae1f5	0.30250517
62	0x3edb5c05	0.42843643
63	0x3ea685fa	0.3252409

embedding_layer.0.weight f4 [16, 64]
0	0x3dad3ee0	0.08459258
1	0xbe021f69	-0.12707295
2	0x3cc4ea34	0.024037458
3	0xbdbf50e6	-0.09341602
4	0xbcc505e6	-0.024050664
5	0xbe03e2a9	-0.12879433
6	0xbd8fab0e	-0.07015048
7	0xbe33b530	-0.17549586
8	0x3df6b907	0.1204701
9	0xbe5b6792	-0.21426228
10	0xbcd1c7c7	-0.025607957
11	0xbe89d5d6	-0.26920956
12	0xbca09702	-0.019603256
13	0x3ca882ac	0.020570122
14	0xbdde2554	-0.108469635
15	0xbc924afa	-0.017858017
16	0xbe0049c3	-0.12528138
17	0xbceb5686	-0.028727781
18	0xbd4259d9	-0.047448967
19	0x3d3afd1e	0.045651548
20	0xbc9c9dfa	-0.019118298
21	0x3df62c5c	0.1202018
22	0x3c8a2f0b	0.016868135
23	0xbe8380f4	-0.2568432
24	0xbdf812a6	-0.12112932
25	0xbb8e81a5	-0.004348951
26	0x3cdf8ac9	0.027287858
27	0xbd7e1d36	-0.062039576
28	0xbd3f8ace	-0.046763234
29	0xbc1e78b5	-0.0096723335
30	0xbd028252	-0.031862564
31	0x3cba9321	0.022775235
32	0xbe5cc732	-0.21560362
33	0x3c888632	0.016665552
34	0xbcd9604e	-0.02653518
35	0x3c0b0305	0.008484607
36	0xbda277fa	-0.0793304
37	0x3e689efd	0.22716899
38	0xbd9e5102	-0.07730295
39	0x3d93d7eb	0.072189175
40	0xbd417bed	-0.047237325
41	0xbd9396f9	-0.0720653
42	0xbc28a668	-0.010293581
43	0x3c92568f	0.01786354
44	0xbd978f82	-0.07400419
45	0x3e39d00f	0.18145774
46	0x3e089a7e	0.13340184
47	0xbe417e28	-0.18895781
48	0x3e066a4d	0.13126488
49	0xbe223568	-0.15840685
50	0x3c82e070	0.01597616
51	0x3dbf6cb8	0.09346908
52	0xbdb9382b	-0.09043916
53	0xbe0e8f31	-0.1392181
54	0xbc7edc6e	-0.015555484
55	0x3d3a2aaa	0.045450844
56	0xbbdfea47	-0.006833348
57	0xbd874a97	-0.06606024
58	0xbce55e1f	-0.027998982
59	0x3ddd1497	0.10794943
60	0xbe6972b6	-0.22797665
61	0x3dcab97d	0.0989866
62	0x3bfd9ee4	0.0077398885
63	0x3d54cb14	0.051951483
64	0x3dac6bcc	0.08418998
65	0x3c7a9e5f	0.015296548
66	0x3c083254	0.00831278
67	0x3cbd33c5	0.023095975
68	0x3cdd3c57	0.027006311
69	0xbd6c4a5e	-0.05768811
70	0x3d802968	0.062578976
71	0xbe0a6d39	-0.13518228
72	0x3d9ede1d	0.077572085
73	0x3c90f332	0.01769409
74	0xbc0635d8	-0.008191548
75	0xbdc4e76a	-0.09614451
76	0x3d2aaf16	0.04167088
77	0x3dc587e5	0.096450604
78	0x3d5e3f87	0.054259803
79	0xbdaa391e	-0.083116755
80	0xbd767489	-0.06016973
81	0x3cbbdf2b	0.022933563
82	0x3e24b3d9	0.16084231
83	0x3e0dae3d	0.13835998
84	0x3d34f62d	0.044180084
85	0x3e21678e	0.15762159
86	0x3c4f6328	0.012657918
87	0xbd8af352	-0.06784691
88	0xbdbb8a20	-0.09157205
89	0xbd365d55	-0.044522602
90	0xbd507818	-0.05089578
91	0xbe135237	-0.14386831
92	0x3d4ebac4	0.050471082
93	0x3db54e29	0.088527985
94	0x3d2ac0d0	0.041687787
95	0x3e001f95	0.12512048
96	0xbe09956c	-0.13435906
97	0x3bd41e0a	0.0064733075
98	0x3e24cea5	0.16094454
99	0xbdbeaa42	-0.09309818
100	0x3e25f445	0.16206463
101	0x3de25730	0.11051786
102	0xbd579e3b	-0.052641135
103	0x3df652fa	0.12027545
104	0x3c75ab70	0.014994487
105	0xbc19f15f	-0.009395926
106	0xbda711b5	-0.08157674
107	0x3cc7d806	0.024395
108	0x3d6af400	0.057361603
109	0x3e390ea6	0.18071994
110	0x3da0e235	0.078556456
111	0xbde7036a	-0.11279948
112	0x3e4816f0	0.1954
113	0xbd268f2f	-0.040663894
114	0x3da1238a	0.07868107
115	0x3d9f1f40	0.07769632
116	0xbc78b2cc	-0.015179347
117	0x3c1adbbb	0.009451802
118	0x3e236883	0.15957837
119	0x3ce89d6b	0.028395375
120	0x3dca1eaf	0.09869134
121	0x3d873912	0.06602682
122	0x3e11515b	0.14191191
123	0x3dbb14d4	0.09134832
124	0xbdc21633	-0.094768904
125	0x3e2cef8c	0.16888255
126	0x3e36a1d3	0.17835169
127	0x3dccb1c7	0.09994846
128	0x3dcc22c8	0.099675715
129	0x3e139556	0.14412436
130	0xbda5f6fb	-0.081037484
131	0x3c85e871	0.016346188
132	0xbdde20e2	-0.10846116
133	0xbe7fa330	-0.24964595
134	0xbca274c1	-0.019831063
135	0xbe6c8c60	-0.23100424
136	0x3e02aa1a	0.12760201
137	0xbe506ce9	-0.20354046
138	0x3bf49234	0.007463718
139	0xbe732f94	-0.23748618
140	0xbc94a2bb	-0.018144002
141	0xbe1c73dd	-0.15278573
142	0xbdcc0c7b	-0.09963318
143	0xbd530134	-0.05151482
144	0xbe41909f	-0.18902825
145	0xbc1e667c	-0.009667989
146	0x3de5adf3	0.11214819
147	0xbd19cf29	-0.03755108
148	0xbe061619	-0.13094367
149	0x3dec5f01	0.11541558
150	0xba90613e	-0.0011015309
151	0xbe6ea261	-0.2330413
152	0xbddba440	-0.107246876
153	0xbdca6556	-0.098826095
154	0xbbbf3301	-0.0058349376
155	0xbe2178c4	-0.15768725
156	0xbe0ed030	-0.13946605
157	0x3e0d31d6	0.13788542
158	0xbb637ab1	-0.003471058
159	0x3e2ff379	0.17182721
160	0xbe1c215b	-0.15247099
161	0x3e4e70af	0.20160173
162	0x3d772c56	0.060345016
163	0xbd3f817f	-0.046754356
164	0x3ddf2546	0.10895781
165	0xbb2a1130	-0.0025950186
166	0xbdb1ddae	-0.0868486
167	0x3d37bca6	0.044857644
168	0x3cc3f0a3	0.023918455
169	0xbe03f98c	-0.12888163
170	0xbe1831e1	-0.14862777
171	0xbe2da155	-0.16956075
172	0xbc40f6d3	-0.0117775975
173	0xbdaf5bb3	-0.08562412
174	0x3d908ba0	0.07057881
175	0xbdae914e	-0.085238084
176	0x3cb9c89a	0.022678662
177	0xbe2e1e8f	-0.17003845
178	0xbcf48ab3	-0.029851293
179	0x3deb1298	0.11478156
180	0xbd4851fa	-0.048906304
181	0xbe2fa272	-0.17151812
182	0xbd9598fa	-0.073045686
183	0xbd4da90b	-0.05021004
184	0xbd9c8247	-0.07642036
185	0xbbc48ca2	-0.00599821
186	0x3e042ff2	0.12908915
187	0xbda5c3ab	-0.08093961
188	0xbe59e1a7	-0.21277486
189	0xbd4accda	-0.049511768
190	0x3dbf6a90	0.09346497
191	0xbd83702f	-0.06417882
192	0xbcf6917c	-0.03009867
193	0xbd60e5fc	-0.05490683
194	0x3d9d4792	0.076796666
195	0x3e248cf9	0.16069402
196	0xbd9763ed	-0.07392106
197	0x3db412db	0.08792659
198	0x3e1d7942	0.15378287
199	0x3d3dbb9b	0.046321493
200	0x3b619f59	0.0034427254
201	0x3dbf3d04	0.0933781
202	0xbdce971f	-0.10087418
203	0xbd1de1dd	-0.038545478
204	0x3e0df27f	0.13862036
205	0xbc8eb79a	-0.017421532
206	0x3db6bbf8	0.08922571
207	0x3d34e64d	0.044164944
208	0x3e2882f1	0.164562
209	0x3e07131d	0.13190885
210	0xbd935608	-0.071941435
211	0xbc3f9a07	-0.011694438
212	0x3e00d3fd	0.12580867
213	0xbd80321f	-0.0625956
214	0x3d07f034	0.03318806
215	0x3d2698ad	0.040672947
216	0x3dc9d95e	0.098559126
217	0x3e0fd1eb	0.14044921
218	0x3dd680d6	0.10473792
219	0x3e265088	0.16241658
220	0x3c9ad5e8	0.018900827
221	0xbd4e9bf7	-0.05044171
222	0x3e4ae96b	0.19815604
223	0xbd7525ca	-0.05985049
224	0x3d78e535	0.060765464
225	0xbd27fc38	-0.04101202
226	0xbdaff535	-0.085916914
227	0x3e107b4d	0.14109536
228	0xbd6670bb	-0.056259852
229	0xbcb867ba	-0.022510398
230	0x3e4ff651	0.20308806
231	0xbd88b1d6	-0.066745445
232	0x3e133521	0.14375736
233	0x3e1a3c9a	0.1506218
234	0x3d7fe557	0.062474575
235	0x3e11cd07	0.14238368
236	0x3e02d8e9	0.12778057
237	0xbd7a1d08	-0.061062843
238	0xbd687432	-0.056751437
239	0x3dddd3df	0.10831427
240	0xbd5e211c	-0.054230794
241	0x3d5184e7	0.051152136
242	0x3e3024f2	0.17201594
243	0xbd61b826	-0.05510726
244	0x3e36980e	0.17831442
245	0x3e18ab7a	0.14909163
246	0xbd4633b5	-0.048389155
247	0x3d825c63	0.063652776
248	0xbd865cfe	-0.065607056
249	0xbca0e9f7	-0.019642813
250	0xbd9e74f4	-0.07737151
251	0xbd165e1f	-0.036710855
252	0xbd7f1c75	-0.062282998
253	0xbda7e233	-0.08197441
254	0xbd8ae3b4	-0.06781712
255	0xbd85c068	-0.06530839

embedding_layer.0.bias f4 [16]
0	0x3e094076	0.13403496
1	0xbc6382b8	-0.013886146
2	0x3e390e98	0.18071973
3	0x3e729bcb	0.23692243
4	0x3db1eae5	0.08687381
5	0x3d74edde	0.05979716
6	0x3e1d960f	0.15389274
7	0x3df442e0	0.11926818
8	0x3e74e379	0.23914899
9	0x3e8b76d4	0.27239096
10	0x3e1e002f	0.15429758
11	0x3e00f65c	0.12593979
12	0x3deb2db4	0.114833266
13	0x3e3cede1	0.18450119
14	0xbd4ffad1	-0.050776307
15	0x3d55c985	0.052194137

classifier.weight f4 [2, 16]
0	0xbe9db71c	-0.30803764
1	0xbe38cc3a	-0.18046656
2	0xbe53d3a4	-0.20686203
3	0x3e764b64	0.24052197
4	0xbdbc719a	-0.09201355
5	0x3d3773cc	0.044788167
6	0xbe4f2fbd	-0.20233054
7	0x3ee4a31b	0.4465569
8	0x3e6fc64c	0.23415488
9	0x3e92e708	0.28691888
10	0x3e054138	0.1301316
11	0x3caa23c8	0.020769015
12	0x3e9e428e	0.30910152
13	0xbebbf0fa	-0.36707288
14	0xbe888852	-0.26666504
15	0xbe833430	-0.25625753
16	0x3d9caaf3	0.076497935
17	0x3e1ba601	0.15200044
18	0x3e873f3d	0.26415434
19	0xbe933e52	-0.28758484
20	0x3e916988	0.28400826
21	0x3eac64ec	0.33670747
22	0x3e8e792d	0.27826825
23	0xbef42884	-0.4768716
24	0x3d5ad42d	0.053425003
25	0xbd9b30d2	-0.07577671
26	0xbd844728	-0.064588845
27	0xbebcd1c8	-0.368788
28	0x3de4ac6e	0.11165701
29	0x3da1eef7	0.07906907
30	0xbda5f1aa	-0.081027344
31	0x3e96f607	0.2948458

classifier.bias f4 [2]
0	0x3e1e14f9	0.15437688
1	0x3b573c4d	0.0032842339
