o02_train/run_outputs/42Acnn_train_weights.pth (torch, 48171 bytes, 22 tensors)

features.0.weight f4 [16, 6, 5]
00000000: d74b b63f 4f42 8b3f db49 e73e 9c60 14bf
00000010: 92e5 e8bf 280b 2f3e fa6c 78be 4d90 11be
00000020: e58d 88be b98b 40bf 9670 b03d f77e a5be
00000030: 54c3 e4bd 9fb5 92bd c1ae dd3d 3563 3e3d
00000040: 998e bc3c 1daf abbc a6bd 15bd 73fb 563c
00000050: 9f96 f2bd 6b43 833c decd d1bd 4d4c dc3d
00000060: 97c0 a43d 5ed7 a0be 581d 503d 0f4c c43d
00000070: 79af bc3c 84ee 02bf 892d 07c0 2aa8 20c0
00000080: 640b bfbf 8ab3 7abe 463d 8e3f 27ce 863e
00000090: 8303 bb3d 8074 f33e eee9 323f fd11 9f3f
000000a0: bb3c 103f 4376 173f dc26 d23e 0e7b 713e
000000b0: 1025 673e 543f f7bd f580 f63d b1ca 8dbd
000000c0: 9e3c ab3c 8b6d 67bc 8d6f ebba 1d75 13be
000000d0: 4c3d f1bd 5024 883e 680e a83d 1826 37bd
000000e0: 61a3 cc3b 303e 83bd 3722 f13d c4aa 07be
000000f0: 6171 32c0 7a86 39c0 e8ae 01c0 8222 c1bf
00000100: 258e 53bf 9332 423f c2eb 413f 0ba8 40bc
00000110: 48a4 d5be d48c 8fbf 97ae 17bf b394 29bf
00000120: c292 f4be 9f44 85bd e0d8 973e ee27 f1b9
00000130: bbd0 26bc 7b94 7d3d 10ed 16bd 06a6 0b3e
00000140: 8b15 61be 525e 1cbe 40fd 683e 4d01 c6bc
00000150: db87 a9bc 4c75 eabd d47b bb3d f64d cfbd
00000160: 1f0e 51bd d17c c23c e253 2f40 0bf0 0c40
00000170: 2dd3 ba3f 2ce2 c13e 9579 e2be f656 ebbe
00000180: a60f 99bd d0f0 0d3e b6ae 273f 1ed6 273f
00000190: 68a9 4a3e 4b15 713e ee31 b03e 124b a73e
000001a0: 89d3 663d d80b 363d a1ed 8cbd a124 e5bb
000001b0: 5076 44bd 9f33 cdbd 91d8 d93d 239b 23bc
000001c0: 192f 9bbc 7b0b 66be 6f76 fdbd 87b6 95bd
000001d0: 3c27 3dbd 7a45 84be 03ab 5bbe 6f8d cebd
000001e0: 2420 0abe 4578 2b3f 3d94 c03f 0132 eb3f
000001f0: bc14 0140 2ebb 553f db4e 213f 0fb1 d53d
00000200: 6fba b4be 1e2a 86bf a36f 2c3f bf50 523f
00000210: af0a e13e f1da 023f f2a5 ff3e 39af 26bd
00000220: 403b 68bc 5471 84bc 0413 f53c 0fd3 1a3c
00000230: 029f 65be e8ff 92be b5dd 81bc cf12 3fbe
00000240: 6f7f 1cbe c3e0 663d b368 e73d ee3a 053e
00000250: d85e 213e 4865 d9bc 739b 6abf f769 04bc
00000260: 3317 37be 867f 913d 7e19 913f 5c7d 133e
00000270: d30d d93d d7d6 45be 66ff a63e 65fa 433f
00000280: bb65 0ebf cb96 27bf f66c 9ebe bd06 7cbf
00000290: 2071 9cbf 32b8 a13d 56ad 01be 4491 383d
000002a0: 7448 543d 8523 1ebd 03e6 2ebe a848 013e
000002b0: c180 363e 8ee1 afbd 05aa 9cbd 25fd 85bd
000002c0: 92ab 2bbd 917f 3b3e 1098 fd3d e467 43be
000002d0: abf4 fe3f 65ea d73f 5345 4c3f b6b2 a1be
000002e0: b81a 5dbf c367 99be 4a1a e7be 53d2 29bf
000002f0: cf6d 59bf 0a9d 1cbf 98f9 a13e 0981 433e
00000300: 530a 7b3e e691 e53d dc6d 69be e682 75bc
00000310: cefa 92bc 9d26 20bc 1dcc ef3c 53b2 953d
00000320: 5e91 08be 34f8 89bd 1722 69bc 857e e33c
00000330: 30f0 aa3d 915f 9dbe 3024 a8bd 1a94 b0bd
00000340: 7081 d7bd ea47 80be 9e5c ae3f 3391 713f
00000350: 9c40 9fbd 5d3b 3dbf 670d a1bf 8b0d c73f
00000360: ff2c d13f 1d58 7c3f 8543 103f c249 503e
00000370: b9dc 87bf 5120 77bf c285 6fbf 981d 4ebf
00000380: f00a 70bf 0852 273e decb 113e faaf 713d
00000390: c1e1 dabd daf9 00be 6342 a0be 35b7 513d
000003a0: 7dff ba3d 375f b93d 941f 4d3d 7378 48bc
000003b0: c997 22bd adba efbc 5699 8f3d 6ff0 153d
000003c0: 0407 ad3d 16d6 a63e ebb0 353f 4d17 4f3f
000003d0: 6aa6 8c3f b92e d7bf 7a22 06c0 1232 cdbf
000003e0: 0c3f d3bf 861a c4bf 7b76 a73f 3d12 ae3f
000003f0: df1e a73f 89d2 9b3f 8817 993f 8c6f bbbd
1.4241894 1.0879611 0.45173535 -0.57959914 -1.8195059 0.170941 -0.24260321 -0.14215203
-0.26670757 -0.752132 0.08615224 -0.3232343 -0.111700684 -0.07163548 0.10824347 0.04648133
0.023017215 -0.020957524 -0.036557816 0.013121474 -0.11845135 0.016023358 -0.10244344 0.10756741
0.08044546 -0.31414312 0.050809234 0.095848195 0.02303289 -0.51145196 -2.1121542 -2.510264
-1.4925351 -0.24482551 1.1112449 0.26329157 0.09131529 0.4754982 0.698882 1.2427365
0.5634267 0.5916483 0.41045272 0.23582098 0.22572732 -0.12072626 0.12036315 -0.06923426
0.020902928 -0.014125238 -0.0017962322 -0.14400144 -0.117792696 0.26590204 0.08205873 -0.044714063
0.006245062 -0.06408346 0.11774104 -0.13248736 -2.78817 -2.8988328 -2.0263004 -1.5088656
-0.8263877 0.7585842 0.7575036 -0.011758815 -0.417269 -1.1214852 -0.5925078 -0.6624252
-0.47768217 -0.06507229 0.2965765 -0.00045996852 -0.010181601 0.06190918 -0.036847174 0.13637552
-0.21980874 -0.15270355 0.22752857 -0.024170542 -0.020694664 -0.11448154 0.09154478 -0.10122292
-0.051038858 0.023741158 2.7394948 2.202151 1.4595696 0.37867868 -0.44233385 -0.45964783
-0.07473688 0.13861394 0.6550096 0.6556109 0.19791186 0.23543279 0.34413093 0.32674462
0.05635408 0.04444489 -0.068812616 -0.006992892 -0.047964394 -0.100196116 0.1063701 -0.009985718
-0.018943356 -0.22465317 -0.12376105 -0.07310205 -0.046179995 -0.25834256 -0.21451955 -0.1008557
-0.13488823 0.6698039 1.5045239 1.8374635 2.0168905 0.8348874 0.6301095 0.10434162
-0.35298488 -1.0481603 0.67357844 0.8215446 0.43953463 0.5111533 0.49931294 -0.04069445
-0.014174283 -0.01616732 0.029916294 0.009449734 -0.22423938 -0.28710866 -0.015852788 -0.18659519
-0.15282987 0.056366693 0.11299267 0.13010761 0.15758836 -0.026537552 -0.91643447 -0.008081905
-0.17879944 0.07104401 1.1335905 0.1440329 0.1059834 -0.19320236 0.3261673 0.76553947
-0.5562398 -0.65464467 -0.30942506 -0.9844778 -1.2222023 0.078964606 -0.12663779 0.04506041
0.05182691 -0.038608093 -0.1707993 0.12625372 0.17822553 -0.08587943 -0.07649616 -0.06542424
-0.04191167 0.18310381 0.12382519 -0.190826 1.9918417 1.6868407 0.7979328 -0.31581658
-0.86368895 -0.29961976 -0.45137244 -0.66336554 -0.8493318 -0.6117712 0.31635737 0.19092192
0.24515657 0.112094685 -0.22795814 -0.014984822 -0.017941859 -0.009774831 0.029272133 0.07309403
-0.13336703 -0.06736794 -0.014229319 0.02777029 0.083465934 -0.30736974 -0.08210027 -0.08621998
-0.10522735 -0.25054866 1.3622015 0.9436218 -0.07775995 -0.73918706 -1.2582215 1.5551008
1.6341857 0.9857195 0.56353027 0.20340636 -1.0614234 -0.96533686 -0.93563473 -0.80513906
-0.9376669 0.16339886 0.14237925 0.059005715 -0.106875904 -0.12595311 -0.3130065 0.05120011
0.09130762 0.09051364 0.050078943 -0.012235749 -0.039695535 -0.029263819 0.070116684 0.03660625
0.08448604 0.3258521 0.7097308 0.8089493 1.0988286 -1.6811134 -2.0958543 -1.6030905
-1.6503615 -1.5320594 1.3083032 1.3599316 1.3056296 1.2173625 1.1960306 -0.09152135

features.0.bias f4 [16]
00000000: 84a2 e53d 38be c23c 0491 8cbd d775 f3bb
00000010: 6f3f fcbd 913c b1bd 588c d43d 9050 de3b
00000020: 7138 693e 195b e33d 76ac ba3d 7159 663d
00000030: 2cae 4e3c a768 7abc 190e 273d 6035 a7bc
0.11212638 0.023772344 -0.06863597 -0.007429819 -0.123167865 -0.0865413 0.10378331 0.006784506
0.22775437 0.1110136 0.091149256 0.05623764 0.012614768 -0.01528374 0.04078493 -0.020411193

features.1.weight f4 [16]
00000000: 141f 623f 042a 6f3f 8a4c 4f3f 012e 693f
00000010: c59d 383f af8d 3d3f 6f91 683f 334d 553f
00000020: 3cac 503f 8c4c 683f 3bf7 683f f9b2 333f
00000030: 2b6c 693f 60fb 5e3f 6a4d 533f 4787 4c3f
0.8832867 0.93423486 0.80976164 0.9108582 0.7211574 0.74044317 0.90846914 0.8332092
0.8151281 0.907418 0.91002244 0.70194966 0.91180676 0.8710232 0.8254 0.79893917

features.1.bias f4 [16]
00000000: 07ca 8abe 3efb cbbe b2eb 50be 0712 4b3b
00000010: 99e7 bebe acc5 eebe b994 3dbe 7f0f a9bd
00000020: 01c2 08be 0745 cc3b 3041 0e3a 54b1 45be
00000030: d4d5 55bd ec91 75bb e778 4cbc e98f 94bc
-0.2710726 -0.3984012 -0.2040241 0.0030986087 -0.3728607 -0.46635187 -0.18513764 -0.08254909
-0.13355257 0.0062338146 0.0005426584 -0.19305927 -0.052205876 -0.003747101 -0.012479997 -0.018135028

features.1.running_mean f4 [16]
00000000: e918 ba3d a24c d33c 40b4 a6bd 9e48 14bd
00000010: a6ea 0fbe e57f b2bd 5e8f 953d 93ea c9ba
00000020: 3cff 663e 2691 843d b860 873d 0007 783d
00000030: 00d0 53b7 576c 00bc bccb 8b3d ad87 ccbc
0.090867825 0.025793377 -0.08139849 -0.036202066 -0.14054355 -0.087158 0.07302736 -0.0015404992
0.22558302 0.06472997 0.066102445 0.06055355 -1.2625009e-05 -0.00783833 0.068259686 -0.024967039

features.1.running_var f4 [16]
00000000: 2893 2a44 937a 4942 269a 2a43 bc96 7844
00000010: 7625 3244 0cad 3e41 c614 9644 1390 8a43
00000020: 80b9 da42 2fd6 8844 1e62 7144 4d3a eb42
00000030: 35a5 3543 e1eb 0043 f0de 2044 6e0c ca43
682.2993 50.3697 170.60214 994.3552 712.5853 11.917248 1200.6492 277.12558
109.362305 1094.6932 965.5331 117.61387 181.64534 128.9214 643.4834 404.0971

features.5.weight f4 [32, 16, 3]
00000000: 3e84 373d bfdc e13d 6fc0 edbb 9f9b 2ebe
00000010: 6436 50be 6961 2cbe 4393 89bd d572 71ba
00000020: 7416 403d 76dd 6b3d 6c38 f2bd 187c aabd
00000030: 9e2b ec3a 8eb3 8fbd 8ec4 2dbd 9b48 3bbe
00000040: aea0 36be 15a7 90be 6da0 6abd fb6a bebd
00000050: 3e39 d13d 7410 19be 7f26 bfbd 56d0 1abe
00000060: 3748 29be accf 03be 9e7e d3bd e96d d43d
00000070: 74ba c83d eeb9 81bd af2d a33d 1ca4 c03d
00000080: 7e9d 473d 5601 8c3c 2135 debc c58e 12be
00000090: efab 2fbd 4076 0c3e b549 173e 9d5d d73c
000000a0: 152b 37bd d408 6ebc b1b9 793d c1ad 803e
000000b0: 2795 cdbc 3fbd ebbd b7b9 f8bc dce7 eebc
000000c0: c4f4 51be b63e 8dbe a93a c4bd 4387 903c
000000d0: a740 463e d135 21bd 2cf8 c93b e63e c43d
000000e0: fbe8 d8bd 667c c73d 8d54 973d e619 03bd
000000f0: 1a99 93bc 0403 7bbc a877 e9bc 837e bb3d
00000100: 03ce ad3c a86d d93d 978c 6dbe 1e76 9abe
00000110: 1915 4fbe c765 1abe e9a5 03be fad3 853d
00000120: 90b8 9dbb e13e d9bc ad66 23be dcac 9abc
00000130: 856a aabc 663f 093d 2ce0 7dbd d942 56be
00000140: d5dc 3fbe 9cd6 cabc 0d3a 6bbd 174b 95bc
00000150: e2ba 523d b75a 28be 5825 3b3e 7ec5 183e
00000160: 7d0a 97bd b3f3 163c ac13 75bd 78fc bcbc
00000170: 08b5 ce3d a39e 143d 5c3b 62bc 5b90 afbd
00000180: 1885 79bc aa0e ee3c aaa2 3abc 7f76 a4bc
00000190: a53f 9a3d 8ca2 80bd 6635 12bc 54fc f1bd
000001a0: c744 03be e72d 40be a34f 87be 976a 35be
000001b0: 9125 653d 0916 68bd 9354 67bd 6d8a a83d
000001c0: 0a17 053e 0163 af3d aa0d ea3d be0d 793c
000001d0: d458 723c 29dd 343e 8e57 27bd 44ef 98bd
000001e0: 800f f23d b26c 4cbd 3eda dbbd 5bcb b4bd
000001f0: d8cf 7cbe ae05 3bbe cd52 d8bd 88f6 24b9
00000200: b94b 1d3d 23fe 88bd a8b1 e73b 5f8f af3d
00000210: ad80 10bd 2f7b 13be 3858 08be 261e 4abd
00000220: ebaa 993a 1b5d 6ebc a244 bbbd 993b 2abe
00000230: 0cfc 68be 6bad fdbd fc6f 61be 6cdb 6cbe
00000240: 5006 103d ce19 02bd 75f6 bf3d 909e a73d
00000250: 49ac 80be 52be 30be 8f3e c5bd 8e05 f2bd
00000260: 25f7 18be 210e 153d 60c3 643e d185 263d
00000270: 32a4 893a 5b53 fbbd d81b f6bd f237 803d
00000280: 93b6 1dbd 40a8 90bd 2bad 44bd 468a b23d
00000290: a8bb a9bd 26cb 54be 8f67 34be e9a4 03be
000002a0: 7984 143e 5bcc 57bd cb08 a0bd 75a7 133d
000002b0: 5f12 813d 0982 90bd f4e9 38bc 94df ad3d
000002c0: cf68 033e 9ac6 f8ba 5b5e f3bd 9e1a ec3d
000002d0: 5a7e 613c ccd2 dbbc 8a4e 29be 712f 61bd
000002e0: 7e85 f53d d797 da3d 2fea ebbd bc99 02bd
000002f0: c1d5 19bd 6be5 47bd 56ac 6cbe 6783 2dbe
00000300: 4120 3abe ffb7 1fbe f4d7 1ebe 385d b93d
00000310: ee57 9dbd 0248 933e 092d 17bc a2a0 d53d
00000320: ba79 1b3e b559 aa3d 4f9d 2fbe 23ef 983d
00000330: 0fe6 1d3c 6f97 51bd 87fe 0fbd 5970 0abe
00000340: 7926 073e c2f2 07be f666 f0bd 8594 83bd
00000350: 4cbb 5abe c1bb b4bc 4dda d8bd 7d2e 26bd
00000360: 1b52 61be 1547 8cbd a6f3 b83c 4c62 a83d
00000370: 4945 02bc c8ee dfbd 42a3 84be 8f96 33be
00000380: 56db 19be eb54 673c 6e6c 8a3d 64b1 b23c
00000390: 4595 10be 085e a33d fe42 873d 0875 ccbd
000003a0: 423f 1bbe c5a8 bfbd fe98 9c3d 1c91 573b
000003b0: b61f a6bc 8dd4 81bd 3b39 4d3c 5d87 323b
000003c0: 85c9 e6bd 6a49 02be 3c42 80bd 9575 983d
000003d0: af81 babd 792b 04be 786a c6bd da35 5dbe
000003e0: 8b61 9ebe b092 3cbe 9ad7 a7bd 4d41 19bc
000003f0: 1d4c 74bc 3c5c 093e f6b7 073d fd8a a63d
0.04480385 0.11028432 -0.007255606 -0.17051552 -0.20333248 -0.16834034 -0.06717541 -0.0009210532
0.046896413 0.05758425 -0.11827168 -0.0832445 0.001801837 -0.07016669 -0.042423777 -0.18289416
-0.17834732 -0.28252473 -0.0572819 -0.09297749 0.10215996 -0.14947683 -0.093335144 -0.15118536
-0.16531454 -0.1287219 -0.10326885 0.10372526 0.09801188 -0.063342914 0.07967698 0.094063014
0.04873418 0.01709048 -0.027124943 -0.14312275 -0.042888578 0.13716984 0.14774211 0.026289755
-0.04471882 -0.014528472 0.060968105 0.25132564 -0.025095535 -0.11510705 -0.030361993 -0.029163294
-0.20503527 -0.27586907 -0.09581501 0.017642623 0.193606 -0.039357964 0.0061636176 0.095823094
-0.105913125 0.09740524 0.07389174 -0.03200712 -0.01801734 -0.015320543 -0.02849944 0.091549896
0.021216398 0.106166184 -0.23198162 -0.3016824 -0.20222892 -0.15077887 -0.12856258 0.06534572
-0.0048132613 -0.02651924 -0.15957136 -0.018881254 -0.020802746 0.033507727 -0.061981365 -0.20923938
-0.18736584 -0.024760537 -0.05742841 -0.018224282 0.051447757 -0.16440855 0.18275964 0.14919087
-0.07375047 0.009213376 -0.059833214 -0.023069605 0.10093123 0.0362841 -0.013808098 -0.085724555
-0.015229486 0.029059727 -0.011391321 -0.020076035 0.075316705 -0.06281003 -0.008923864 -0.11815706
-0.12819205 -0.1876751 -0.26427945 -0.17716442 0.05594403 -0.05666164 -0.05647714 0.082295276
0.1299707 0.08563805 0.114283875 0.01520103 0.014791686 0.17662491 -0.040854983 -0.07467511
0.11819363 -0.049908347 -0.10734986 -0.088278495 -0.24688661 -0.18263885 -0.10562668 -0.00015732099
0.038402293 -0.06689098 0.007070739 0.08572268 -0.035278965 -0.1440246 -0.13314903 -0.049345158
0.0011723911 -0.014548565 -0.0914395 -0.16624297 -0.22752398 -0.123865925 -0.22015375 -0.23130578
0.03516227 -0.03176289 0.0937318 0.0818454 -0.25131443 -0.17260101 -0.09631073 -0.11817466
-0.14938028 0.036390428 0.22340155 0.04065496 0.0010501205 -0.12271758 -0.120170295 0.06260671
-0.038504194 -0.07063341 -0.04801671 0.0871778 -0.08287746 -0.2078062 -0.1761763 -0.12855877
0.1450366 -0.052685123 -0.07814177 0.03604837 0.06302332 -0.07056052 -0.0112862475 0.0848991
0.1283295 -0.0018980086 -0.11883231 0.11528514 0.013763035 -0.026833914 -0.16533867 -0.054976884
0.11988352 0.106734924 -0.11519276 -0.031884894 -0.037557367 -0.048802774 -0.23112616 -0.16944657
-0.18176366 -0.15597533 -0.15512067 0.09050983 -0.07682787 0.28765875 -0.009227046 0.10431029
0.15183154 0.083178915 -0.17149852 0.07467487 0.00963737 -0.05116981 -0.035154846 -0.1351942
0.1319827 -0.13276199 -0.11738388 -0.06424812 -0.2136051 -0.022062184 -0.105885126 -0.04057168
-0.22003977 -0.06849495 0.022577118 0.08221874 -0.007951089 -0.10934216 -0.25905806 -0.17537902
-0.15025076 0.014119367 0.067589626 0.021813102 -0.14119442 0.079769194 0.066045746 -0.099832594
-0.1516085 -0.09358362 0.076463684 0.0032892888 -0.020278793 -0.06339369 0.012525852 0.0027241327
-0.112689056 -0.12723318 -0.06262633 0.07444302 -0.091067664 -0.12907209 -0.09688276 -0.21602574
-0.30933794 -0.18415332 -0.081954196 -0.009353948 -0.014910725 0.13414091 0.033134423 0.08131979

features.5.bias f4 [32]
00000000: 365a 70be c39b 06be b3bf abbd 54a7 b53d
00000010: bc08 83bd 7fea 173d af55 3a3e dce9 433e
00000020: 85d6 66bd 6d35 0bbe 6b4a 6abe ce8e 24be
00000030: c59a 083d e68f f8bd af5f 843d c1e8 143e
00000040: 129b 413e bf7f bcbc 6e37 56bd 2c5d cd3c
00000050: 9672 493d e19c 90be e167 1cbe 60ad b33d
00000060: 9df5 963d 9811 353c 1b9d b83d bedd 89be
00000070: 0e84 17bd d645 dbbd fc33 453d c6a3 5b3d
-0.23471913 -0.13145356 -0.08386173 0.08869806 -0.0639815 0.037088867 0.18196748 0.19132179
-0.056356926 -0.13594599 -0.2287995 -0.160701 0.033350725 -0.121368214 0.06463563 0.14541914
0.18906811 -0.023010133 -0.052298956 0.025068842 0.049181543 -0.2824469 -0.15274002 0.08773303
0.07371066 0.011051558 0.090143405 -0.26926988 -0.03699117 -0.107066795 0.04814528 0.053622983

features.6.weight f4 [32]
00000000: 56e4 493f 6f01 483f d5a9 763f 6b4f 403f
00000010: 3407 5f3f 94fc 683f c3e2 473f 8000 5e3f
00000020: d59c 463f 0f79 693f 15ad 713f c9f9 443f
00000030: fb7e 623f 064b 6e3f 4809 5f3f fa13 653f
00000040: c851 483f 62e0 433f 3c89 613f 67c2 453f
00000050: 112c 433f f840 6d3f 9b64 5b3f 762a 683f
00000060: 4702 6a3f 0396 443f 2741 633f af14 403f
00000070: 79fb 563f f431 6d3f abcd 683f 43f0 613f
0.7886404 0.7812719 0.96352893 0.7512118 0.87120366 0.91010404 0.78080386 0.8671951
0.77583057 0.91200346 0.9440473 0.7694364 0.88475007 0.93083227 0.8712354 0.89483607
0.7824979 0.76514256 0.8810003 0.7724976 0.76239115 0.9267726 0.85700387 0.9068979
0.91409725 0.767914 0.8877129 0.7503156 0.83977467 0.9265435 0.90938824 0.88257235

features.6.bias f4 [32]
00000000: f51c d6bc ef72 87be 54fb 47be b0b1 57be
00000010: 631a 02be 892a b0bd d8dd 19be ab49 a2be
00000020: 1ff0 d7bd d94d dfbd 13d3 77be efce 14be
00000030: dacf c73c bc5c c8bd 6b0b 0ebe a765 32be
00000040: 7db5 26be c6cb 3fbe b478 77be f239 673d
00000050: 73f8 50be 11b9 26be 0c76 75be ec6c 41be
00000060: 3d3b 7e3d a1f3 3cbe 136a 54be 63ec 48be
00000070: 2612 42be 8111 4cbe a590 e7bd 2b49 86be
-0.026136855 -0.26454875 -0.19529468 -0.21063876 -0.12705378 -0.08601863 -0.15026033 -0.3169683
-0.10543846 -0.1090352 -0.24201612 -0.14532064 0.024391104 -0.09783313 -0.13871543 -0.1742159
-0.1628017 -0.18730077 -0.24167138 0.056451745 -0.20407276 -0.16281535 -0.23970813 -0.18889207
0.062068213 -0.18452312 -0.20743589 -0.19621424 -0.18952236 -0.19928552 -0.11306886 -0.26227698

features.6.running_mean f4 [32]
00000000: 148e debe 42be dfbe 812d 2abf 5847 21be
00000010: d91f dabe 4af8 20bf 7bbe e8bd e860 e7bd
00000020: bdf8 7ebe 7610 11bf 58c1 5cbf 34a7 54be
00000030: 4cf7 d6be 148d d0be 66ce 18be 7ef5 59be
00000040: 4959 0d3e cbd9 c6bd ad39 35bf 92bf 31be
00000050: 33f6 2a3d 0593 2abf ca21 40bf 32e7 68be
00000060: 0aa2 e9be d2ec 8fbe 5272 62be 9e21 35bf
00000070: a0b3 b7bd a42a b4be 3eb8 9ebe eff3 cfbe
-0.43467772 -0.43699843 -0.66475683 -0.15749872 -0.42602423 -0.6287886 -0.11364456 -0.1129778
-0.24899574 -0.5666574 -0.8623252 -0.20766908 -0.41985548 -0.40732634 -0.14922485 -0.21285054
0.13803591 -0.097095095 -0.7079113 -0.17358235 0.0417387 -0.66630584 -0.7505156 -0.22744444
-0.45631438 -0.28110367 -0.22113922 -0.7075442 -0.089698076 -0.35188782 -0.3099994 -0.40615794

features.6.running_var f4 [32]
00000000: cd3d fd3e 84ea 803f e6c6 a73f 2fc3 f33e
00000010: b6c2 733f a0f9 0940 1a20 6c3f fad1 773f
00000020: 27cf e73e 9186 573f a970 bb3f db33 603e
00000030: fbf5 d53f ac16 5a3f c84e 093f 797b 963f
00000040: d9e0 a33e a624 823e cc5b a93f 87d7 0b3f
00000050: 85f0 603e 9d46 863f 030e 913f babb 873f
00000060: 4975 ef3f 1ba0 123f 65f7 f23e ea60 9c3f
00000070: a0b2 a83e 855f 073f 86d9 973f 1360 363f
0.49461213 1.0071568 1.3107574 0.4760985 0.9521898 2.155861 0.92236483 0.96804774
0.45275232 0.8418971 1.4643756 0.21894781 1.6715692 0.85190845 0.53635836 1.1756431
0.32007483 0.25418586 1.3231139 0.54625744 0.21966751 1.04903 1.1332401 1.0604165
1.8707668 0.5727555 0.47454372 1.2217076 0.3294878 0.52880126 1.1863258 0.7124035

features.10.weight f4 [64, 32, 3]
00000000: 44c0 67bb 87d6 17bc 48be a03c 00b0 10bd
00000010: 3a98 aa3d 2e1d a53d 5214 d4bd 1640 59bd
00000020: a726 06be b814 593e a1a2 b83d fb8a 783c
00000030: 7a19 293d 87f0 983d f9ce 023e 6e0b 11bd
00000040: 1e76 c3bd fc2e 82bd 7238 a23c de35 0a3d
00000050: 43f4 963d ddc4 1e3e e7ec 1a3e 0f57 243e
00000060: be4b 37be 3f59 b4bd 0905 5fbc 2676 43bd
00000070: 156e 37bd a6c2 36bd 907a 96bd 07cf 6fbd
00000080: ce2f 0cbd 87e8 52bd a1a7 71bd cb04 e6bd
00000090: 796a c4bd 3718 b0bd 3568 d4bd e7f9 ef3c
000000a0: e0d3 2b3d 9f8d a03d 79e1 ee3c afe1 c43d
000000b0: a6e2 a43d b867 483e c940 673e 98e9 5c3e
000000c0: 5b7f 24be fba2 21bd 991a f63a e4a0 cdbd
000000d0: c963 05bd 6a0f 6abd 2853 483b a773 fd3b
000000e0: a309 3c3c 8a87 7dbd e270 19bd c525 afbd
000000f0: 6fc4 c3bd 0bf1 b5bd 9367 80bd 895f 373d
00000100: c0da c53d 3743 c23d 744c 9e3c 3b9e ffbc
00000110: bba9 c6bd 886d 3d3e 0aef eb3d 9383 363e
00000120: 082f a1bd f462 e8bd 97bf 02be 1cb5 123e
00000130: 7415 253e 76e2 e93d a555 fa3c f5d5 013e
00000140: 09dc 2f3e 64d9 0a3e 0017 503e 79d9 433e
00000150: fd6f aabd f0e3 58bd bfda 76bd b3bf 7fbc
00000160: 9f1b 823d 2b96 923d d4a6 f0bd 4548 2bbc
00000170: 02be 1ebd 5b54 5a3c a756 32bd a25f 07bd
00000180: eca9 91bd 2ec6 60bd 1036 1ebd ab18 593d
00000190: 680d 2e3e 7989 263e f8da 78bd 2c47 69bd
000001a0: d802 20bd f5b2 1a3e 9f9e 993d 6603 c9bc
000001b0: 22dc c03d 2856 ed3d 8e8f 3b3e 5804 87bd
000001c0: ed57 3bbd 505a 94bd e508 853d cfeb 5b3e
000001d0: b6bf 2f3e c883 123e a975 2e3e c8b2 0c3e
000001e0: c3a8 12be 6340 4dbd e451 debb d9e8 9c3c
000001f0: 33b9 bcbc c147 5abd 2576 83bd cbe3 00bd
00000200: c4d3 fdbc 5b1c 2dbc 9ab9 89bc c686 e5bd
00000210: f6e5 c1bd f054 b8bd 53cf acbd af9f 923d
00000220: 8d83 9d3d 6506 293d 88cf bdba 172c 913c
00000230: 09f2 263d a7be c43d aa53 f13d 5def 333e
00000240: 97b6 cfbd 10a1 4ebd 8397 18bd b0fd afbc
00000250: eeaa ddbb ea25 9f3b 659b 84bc 7e75 213d
00000260: 70b0 a2bc bbf0 86bd 96e0 9ebd 1508 cbbd
00000270: 5466 49bd 09c9 33bd f8b9 62bd 1b06 023d
00000280: 087e 143d 9160 5f3d 69a4 6e3c da4d 423d
00000290: 8739 613a c879 183e 6b5c 263e 2888 cf3d
000002a0: 9171 68bd 0edf b4bd e5ee f0bd b248 333d
000002b0: a8f1 023e 206e 043e e527 ca3d 91d4 293e
000002c0: 2fe6 6f3e 90dc 873d 1ea7 3b3e 208f 3d3e
000002d0: 67c2 a8bd 0221 a1bd 0e69 8cbd 8b6a 743c
000002e0: 9f84 b23d 68f7 b13d 9c20 3dbe 7999 a8bd
000002f0: 564c 9bbd cb28 aa3b d51c a53b b091 803c
00000300: 8de4 38be 549c 29be 2b79 38be ab87 773c
00000310: e9e1 9bbc f6b1 12bd 62f4 653e 6e6d f63d
00000320: b26d 473e fd4b 85bd c3cc 13be 95e3 4cbe
00000330: e996 363e c859 d53d f16b 90bc 8cdc 3a3e
00000340: 30a0 843e 8903 0e3e 56a4 a23d 8b1d b93c
00000350: 06b4 d0bd 1d04 dbbd 5a7f 84bd 1d4c 32bd
00000360: 2604 95bc 0e8c 0f3c 8871 b03d 8949 6f3d
00000370: 2459 b73d 1cc7 f0bb 0741 9f3e dad0 3e3e
00000380: 2692 0f3e 4fde 1c3e d9d7 a73d 7c82 e73b
00000390: e7a8 b0bb 69f0 8c3b d273 dc3c f408 79bd
000003a0: e1fe 42bd 659c 23be c15c 3ebe c012 f2bd
000003b0: d317 13be 169c 91bb 2d55 55bd 9eb1 80bd
000003c0: 9e31 bc3c 521b 3a3c a5e5 05bd 7f61 7fbc
000003d0: 5107 c23b 4c08 c73d c3b4 0f3e f73a 183e
000003e0: f0f6 033e 5479 bbbd 3d63 c0bc 8480 17be
000003f0: fd3d 37bd f81a 2fbd 536f 3d3d 9bab 4ebd
-0.0035362402 -0.009267456 0.019621983 -0.035324097 0.08329816 0.08062206 -0.10355438 -0.053039633
-0.13100682 0.2119931 0.09015394 0.015169854 0.041284062 0.07467752 0.12774266 -0.03541129
-0.095440134 -0.06356618 0.019802306 0.033742778 0.07370808 0.15504785 0.15129434 0.16048835
-0.17899987 -0.08806085 -0.01361204 -0.047720097 -0.044782717 -0.044619225 -0.07347596 -0.058547046
-0.034225278 -0.051491287 -0.058997754 -0.11231383 -0.095906205 -0.085983686 -0.103714384 0.029293967
0.041950107 0.07839512 0.029160248 0.09613358 0.08051042 0.19570816 0.22583307 0.21573484
-0.16064207 -0.03946207 0.0018776237 -0.10040453 -0.032565866 -0.057143606 0.0030567143 0.007734734
0.011476907 -0.06189684 -0.03746117 -0.08552126 -0.09558951 -0.08883866 -0.06269755 0.044768844
0.09660864 0.094854765 0.019323565 -0.03120338 -0.09700342 0.18498814 0.115202025 0.17823629
-0.078702986 -0.11346999 -0.12768398 0.143269 0.16121465 0.11420147 0.030558417 0.12679274
0.1717378 0.1355949 0.20321274 0.19125928 -0.08322141 -0.052951753 -0.060267206 -0.0156096695
0.063529246 0.071575485 -0.1175057 -0.010454242 -0.038755424 0.013325776 -0.04353967 -0.033050187
-0.07112488 -0.0548765 -0.038625777 0.05300204 0.16997302 0.16263379 -0.0607557 -0.05695264
-0.039065212 0.15107329 0.07500958 -0.024537753 0.09416987 0.115886986 0.1831648 -0.065926254
-0.04573815 -0.07243788 0.06495837 0.21476673 0.17162976 0.14308083 0.17037071 0.13740075
-0.1432219 -0.050110232 -0.0067846645 0.019154 -0.023037529 -0.053291086 -0.06419019 -0.03146724
-0.030984767 -0.0105658425 -0.016812135 -0.112073466 -0.0946769 -0.090005755 -0.084379815 0.071593635
0.07691107 0.041265864 -0.0014481405 0.017721219 0.040758166 0.096066765 0.11783536 0.17571779
-0.10142248 -0.05044657 -0.037253868 -0.021483272 -0.006764761 0.0048568146 -0.01618738 0.03941869
-0.019859523 -0.065888844 -0.0775768 -0.09913651 -0.049169853 -0.043892894 -0.055353135 0.031744104
0.036253005 0.054535452 0.014565566 0.047437526 0.0008591641 0.14890206 0.16246192 0.101333916
-0.05674893 -0.08831607 -0.117643155 0.0437705 0.12787497 0.12932634 0.098708905 0.16584994
0.23427652 0.06633866 0.18325469 0.18511629 -0.08240204 -0.07867624 -0.06855975 0.01491798
0.08716702 0.08689767 -0.1846947 -0.082323976 -0.07582919 0.005192851 0.0050388374 0.01569447
-0.18055935 -0.1656354 -0.18014972 0.015108029 -0.01902862 -0.035814248 0.22456506 0.12032591
0.19475439 -0.06508634 -0.14433579 -0.2000869 0.17831005 0.10417515 -0.017629595 0.18248194
0.25903463 0.13868536 0.07941501 0.022597095 -0.10190587 -0.10694144 -0.06469603 -0.04352962
-0.018190455 0.008761419 0.08615404 0.058419738 0.08952549 -0.0073479544 0.311043 0.18634358
0.14020595 0.15319179 0.081954665 0.0070651155 -0.0053912285 0.00430112 0.026910696 -0.060799554
-0.047606353 -0.15977629 -0.1859007 -0.118199825 -0.14364557 -0.0044436557 -0.052083183 -0.06283878
0.022972878 0.011359053 -0.03268971 -0.01558721 0.0059212823 0.097183794 0.14033799 0.14866243
0.12887168 -0.09154001 -0.02348482 -0.14795119 -0.04473685 -0.04275033 0.046248745 -0.050456624

features.10.bias f4 [64]
00000000: d862 e83c e61c 27bd 5173 193e 6648 bcbd
00000010: 6f97 fcbc b96c d43d 1fd9 d43d 3a98 c23c
00000020: d1ce df3d 6626 3ebd c737 363c bca7 613c
00000030: 7f5e d0bb c7d8 c5bb 6cfa 95bd 885f 783c
00000040: 7842 c43d 073b a33d 2714 01be ddda 0c3e
00000050: 1dca bf3c d6c9 9ebc 1646 41bd 5ade c33d
00000060: 8532 b83d 3c5f a1bb e180 1fbe 7331 74bd
00000070: d3a4 953d a14a e43b a816 393d aad9 a93d
00000080: e119 8cbd 3273 c4bc 5dca c73d 262c ab3d
00000090: 6764 9f3d c963 bd3c 4551 bebc 5672 efbd
000000a0: 6dfc a43d ef65 663c de7f 64bd 8bb4 92bd
000000b0: 15da e53d 6524 fabc 8de3 0cbd 7b27 573d
000000c0: 055a b73d 9ea0 bcbc 94c2 17bc 741a 00bb
000000d0: 6a09 943c 56cc d23d be45 5b3d b782 a13c
000000e0: 83f3 27bb 84ee a53c 9e97 eb3c ed4d 4a3c
000000f0: 90cd 233d 98e6 9f3c 2138 8dbd dac8 c33d
0.028367445 -0.040799044 0.14985396 -0.091934964 -0.030833928 0.103723 0.10392975 0.023754228
0.10928119 -0.04642334 0.011121697 0.013772901 -0.006358921 -0.0060378048 -0.07323155 0.015159495
0.095829904 0.07970243 -0.12605344 0.13755365 0.023411805 -0.019383352 -0.04718598 0.095638946
0.08994011 -0.004924683 -0.15576507 -0.05961747 0.07306828 0.0069669043 0.045187622 0.08293469
-0.068408735 -0.02398071 0.097553946 0.0835803 0.07782822 0.02311887 -0.023232112 -0.1169173
0.08055959 0.014062389 -0.055786006 -0.07163342 0.112232365 -0.030534932 -0.034396697 0.052527886
0.08952717 -0.023025807 -0.0092627 -0.0019547017 0.018070895 0.1029288 0.05353331 0.01971565
-0.0025627322 0.020255335 0.02875882 0.0123476805 0.03999096 0.019519135 -0.06895471 0.09559794

features.11.weight f4 [64]
00000000: bf5b 743f 9a39 5e3f 09c3 713f f60e 6b3f
00000010: f3dc 593f 4326 683f 00d9 713f 99fb 793f
00000020: 56c0 5a3f 1301 643f c4e9 593f 5d15 6b3f
00000030: 6b9a 783f 4a9f 5d3f e7bd 6f3f 9acd 633f
00000040: 8d85 643f 6406 6c3f 2579 643f 64ae 5a3f
00000050: 16b6 5b3f 61be 5e3f bae0 753f 7d72 773f
00000060: 77ad 603f 244f 6d3f 450f 743f 5e55 683f
00000070: 9b24 663f ffe4 6a3f 2e38 693f 484a 643f
00000080: c0f0 663f e6b1 583f c6eb 5d3f a5a1 6b3f
00000090: 1ed4 8a3f 7dbe 693f 1865 6e3f 9229 5c3f
000000a0: 266e 683f a81d 6f3f b8e8 753f a67f 6d3f
000000b0: 530e 743f 8cb7 5b3f 4ef1 643f 2280 623f
000000c0: a909 6c3f b5cd 623f edcc 683f 2124 503f
000000d0: 8bbf 693f 4bf9 623f 5a25 613f 7b16 763f
000000e0: f026 5e3f 9744 713f fbaf 633f 84c7 543f
000000f0: 225b 793f 28a7 563f 830d 643f 777e 543f
0.95452493 0.86806643 0.94438225 0.91819704 0.85102767 0.9068338 0.9447174 0.9764953
0.8544973 0.8906414 0.85122323 0.9182947 0.97110623 0.8657118 0.93649143 0.889856
0.8926628 0.9219725 0.8924735 0.8542235 0.85824716 0.87009245 0.9604603 0.9665907
0.87764686 0.92698884 0.953358 0.9075526 0.89899606 0.9175567 0.9110135 0.89175844
0.90211105 0.8464645 0.86687887 0.92043525 1.0845983 0.9130629 0.93123007 0.8600093
0.90793073 0.93404627 0.96058226 0.927729 0.9533436 0.85826945 0.894307 0.88476765
0.9220224 0.88595134 0.9093769 0.8130513 0.91307896 0.8866164 0.8794762 0.9612805
0.86778164 0.94245285 0.889404 0.83116937 0.9740468 0.8384881 0.8908312 0.8300547

features.11.bias f4 [64]
00000000: 239f 86be 1f8b aebe a672 2b3d d31a 8d3c
00000010: a72e aebe 1520 83bb 4e28 763d 96bd f0bd
00000020: db7a adbe 6a8a 46be 9590 b8be bfa1 14be
00000030: 05b2 843d bbf1 a5be 3ff9 cebd 7f22 b83c
00000040: ac44 d3bc d165 e33b 591e 7fbe f080 a9be
00000050: 6f1f b4bd ba05 99be 8f5c 8e3d 7eaf 18be
00000060: eaef a93c 0c36 dd3c 5f58 f8bc f549 05bd
00000070: 01d2 dc3b 66b1 68be a8c2 003d c417 abbe
00000080: b568 88bd 5341 bbbe d333 9bbe ea62 4b3c
00000090: 2f1f 2fbe 6260 88be 59bc 6e3d 115b a3be
000000a0: a653 513c 4234 2e3d 77b4 cbbd 28e7 8a3c
000000b0: 7d1e a43c cf15 a2be 33f3 2d3c c049 903d
000000c0: 2fec 97be ceba 073c c584 903c 4698 a7be
000000d0: c45d 013d 8c1e 95be 7462 9cbe a2d2 3d3d
000000e0: 25dc b2be 04a8 a0be 6ade 96be 6361 a4be
000000f0: 2d7f 1abe 8edd b2be 19d2 a4be 7359 acbe
-0.26293287 -0.34090516 0.041857384 0.017224705 -0.34019968 -0.004001627 0.06009703 -0.11754911
-0.33882794 -0.19388738 -0.36047807 -0.14514826 0.06479267 -0.32410988 -0.10106134 0.022477387
-0.025789581 0.0069396277 -0.2491392 -0.33106184 -0.08795058 -0.29887182 0.06951248 -0.14910695
0.020744283 0.02700331 -0.030315576 -0.032541234 0.0067389016 -0.22723922 0.03143564 -0.3341657
-0.06660596 -0.36573276 -0.30312976 0.01241372 -0.1710174 -0.26636034 0.05828509 -0.31905416
0.012776291 0.042530306 -0.0994653 0.016955927 0.02003407 -0.31657264 0.010617065 0.07045317
-0.2967238 0.008284284 0.017641434 -0.32733363 0.031583562 -0.29124868 -0.30543864 0.046343453
-0.34933582 -0.31378186 -0.29466563 -0.3210555 -0.15087576 -0.34934658 -0.32191542 -0.33661994

features.11.running_mean f4 [64]
00000000: 26e2 0abe c769 0ebe 1f46 aa3e 17f9 293e
00000010: 74f0 cabe 595f 0f3f 47f8 ad3e 835b 5a3e
00000020: d2b1 2bbe 4625 793e 01b0 fabe b0c6 5cbc
00000030: 8003 3e3e 9407 80be f5e1 ffbd 979d 493e
00000040: e24b 9b3e 1a5e 1c3e 2be7 54bd 551a 0ebe
00000050: acea ed3b b1ec f7be d835 7c3e 7a33 7d3e
00000060: ce3f bf3e 75a3 a2bd 2f0a 0cbf dbd7 523d
00000070: 9707 8c3e 1199 f7be fd02 4bbd 6e1d b5be
00000080: 09d0 5abd 1c46 82be 2cc1 b3bd 0ab1 263e
00000090: 37fe ac3d b235 bbbc 59d5 863e d016 39bf
000000a0: d507 bb3e 1c02 c63d e32c 62be f3f1 ce3d
000000b0: 781c 0a3f f8f0 3fbe c26f ad3e 9af5 06bd
000000c0: 2495 6ebe 07e6 c43e 5447 54be 2e60 a4be
000000d0: acf7 b93d f5de 3b3e 19f8 febe c933 cc3e
000000e0: 045b 13be ec02 203d d9e9 b03d f003 05bf
000000f0: f9f1 9c3d 46bf c6bd a64a d1be a457 b9be
-0.13562831 -0.13907538 0.33256623 0.16598926 -0.39636576 0.56004864 0.33978483 0.21323971
-0.16767052 0.24330625 -0.48962405 -0.013475105 0.18556023 -0.25005782 -0.1249427 0.19689022
0.30331331 0.15270272 -0.05197827 -0.13877232 0.007260641 -0.4842277 0.24629915 0.24726668
0.37353367 -0.07941333 -0.5470304 0.051475387 0.2734954 -0.48358968 -0.049563397 -0.35374016
-0.053421054 -0.25444114 -0.08777079 0.16278473 0.08446925 -0.022852752 0.26334646 -0.72300434
0.36529413 0.09668371 -0.22087435 0.10104742 0.5394969 -0.18744266 0.33874327 -0.032949068
-0.2329908 0.38456747 -0.20730335 -0.3210463 0.09080443 0.1834677 -0.49798658 0.3988326
-0.14390188 0.039065287 0.08638353 -0.51959133 0.0766334 -0.09704451 -0.40877265 -0.36199677

features.11.running_var f4 [64]
00000000: 33c4 243e 975b 0f3e 3d53 4f3e d6ea 2f3e
00000010: 13c9 853e b109 133e 8155 593e c952 5b3e
00000020: d45c 343e 2e60 2f3e a034 5c3e 254b 283e
00000030: d207 253e 029e 0a3e ac09 253e 750e 443e
00000040: 3716 0b3e 4f7b 373e 5350 2a3e 778a 063e
00000050: 41c5 033e 2d6c 4f3e 511a 643e 50ca 463e
00000060: 534a ff3d 3e61 7d3e b322 083e 421e 133e
00000070: af58 6f3e e22e 773e bd07 343e 17d5 5d3e
00000080: 25d6 193e eb82 303e f74b 233e a283 6e3e
00000090: ef90 1d3e ea2a 0b3e 6897 453e e690 643e
000000a0: 0352 8c3e 53e6 3e3e 3c83 1f3e 77d2 4d3e
000000b0: 8321 453e c4f2 eb3d 8f28 4b3e 5ea8 063e
000000c0: 0c79 3f3e 0b66 433e 48c8 283e 6e3c 653e
000000d0: 1708 383e ce9c d93d e1c0 533e e3e6 2c3e
000000e0: 27ba 1d3e 2032 0d3e 4c06 f93d 45ec 873e
000000f0: 564d 2c3e 6040 0a3e b678 683e 2411 813e
0.16090469 0.13999783 0.20246597 0.17179427 0.2612997 0.14359166 0.21224023 0.21418299
0.17613536 0.17126533 0.2150445 0.16434915 0.16116264 0.13536838 0.16116971 0.1914614
0.13582693 0.17918132 0.16632204 0.13138758 0.12868215 0.2025611 0.22275664 0.19413114
0.12465348 0.24744126 0.13294487 0.14367011 0.23373674 0.24138978 0.17581077 0.21663319
0.15023096 0.17237441 0.15946947 0.23292401 0.15387319 0.13590589 0.19296038 0.223209
0.2740632 0.18642549 0.15577406 0.20099817 0.19251065 0.11520913 0.1983969 0.13150164
0.1869852 0.19081895 0.16482651 0.22386333 0.17971836 0.10625611 0.20679046 0.16884951
0.15403043 0.13788652 0.12159404 0.26547447 0.16826376 0.1350112 0.22702298 0.2520839

embedding_layer.0.weight f4 [16, 64]
00000000: e74b 993d 75c5 cabd 4f26 2fbd a591 3bbe
00000010: 3abb 86bd 2522 eebd af7d debd 45db 20be
00000020: d3e1 e53d 2922 53be 78c5 2e3d ce03 d2bd
00000030: ec12 93bd 4a14 dcbc 4667 e8bd fcaf 09bd
00000040: 327b 8bbe b504 72bd 56c6 c1b9 d14f af3d
00000050: 1ac0 14be af65 373e ac10 9e3d d921 3fbe
00000060: 8546 06be 0efe b4bd 173c 2e3e 9f04 5cbe
00000070: 2df3 f8bd b27b 733c 88a4 e0bd 7f2a e63d
00000080: f3b7 21be 559d 543d a321 ddbc 792c f1bc
00000090: 3ceb 60bd 5258 393e 48cc 80bd 45b2 f23d
000000a0: fc11 d0bd f44d f0bc 2461 a9bd 4b79 773c
000000b0: e099 57be 670c 233e f69d 10bd 9f11 9ebd
000000c0: 61a9 593e a39c 09be 236a 20bd e844 fc3d
000000d0: d0bd d2bd 8386 0a3c dfa8 3f3d 9df8 f7bd
000000e0: 0a5a 863d d73f e2bb 0b0a 123d 0bec 193e
000000f0: a641 0ebe 273d d13d e6c2 143d 98f2 513e
00000100: 8196 0f3e 1c40 16bc df84 b1bc a2f1 c13b
00000110: f3f2 8e3d fd95 aebd e273 963d c63b 1bbe
00000120: fc3b 953d 381c c5bc d526 7f3d c191 e8bd
00000130: c82b 9d3c 0f99 dc3d cebb a8bc 9485 63bd
00000140: 3eab a1bc 2fbc 50bd e41d f33d b60e 153e
00000150: 6672 88bc 8dc7 7f3e 5a87 823d 8ded a9bd
00000160: ab08 28be a186 70bd 04b2 8b3d 7923 17be
00000170: d1c0 543d 4c85 163e 6441 fabb 2283 223e
00000180: 0f7b 32be 18cb 5a3d ea9d 233e eaee a7bd
00000190: b4a0 1b3e bf44 bd3d d6c9 6ebc f226 153e
000001a0: db46 0f3d b119 0c3d 6a46 00be 4cbb bd3d
000001b0: 9251 d0bb bca3 1f3e 88f5 d9ba e40b 01be
000001c0: edb1 623e 4f27 7c3b 0f43 ae3d e39f 153e
000001d0: 83f0 babd 095f ec3d 4eb9 1a3e 074f 47bc
000001e0: 19d8 903d c65b 713d 5cac de3d 4466 023e
000001f0: bf96 17be 0333 2a3e ec92 8a3e a212 433e
00000200: 0a6a 49be daa2 40be 2017 c03d 6ca9 003e
00000210: a429 24be 617b 4f3d 1224 ac3d 51e9 fcbe
00000220: 9975 60be f80c babe 20ad debc f71e c4be
00000230: 1d17 2c3e 531b 9cbe 9e14 8dbe 5679 e83d
00000240: 6d88 08bd 4815 f73d 395e 58be 4c4f b7be
00000250: cf66 8fbe 1993 a33c c734 8a3e db80 b8be
00000260: 8727 b13d 85ad b93c 736d 373e eff6 80be
00000270: 0528 b03d 9e26 1f3e 2a79 263e fe47 0ebd
00000280: 5fb6 96be 6ea4 1bbe d6d6 5dbe d096 813d
00000290: 8d63 67be ab9f b6be 5ac2 433e 13cd 45be
000002a0: 69d2 c33d 26f6 583d 7abb c8be a2ef ec3d
000002b0: bd1c 1e3e 5d02 b8be d08f fe3d 5089 dc3c
000002c0: fc92 fdbd 9593 353e 56db 153e bd76 c6bc
000002d0: 5c79 a4b9 5738 9cbe bde3 7bbe 416f 003e
000002e0: 65ce 8dbe 912b 4fbe 6f9f 90be d856 35be
000002f0: 0361 99be 6963 56be aa3a 02bd 495f 0abd
00000300: 1c6d 47bd e243 a3bd 4efd a63d 341d fd3d
00000310: 9e20 6fbd 6e5c c13c d6a6 1f3e 4e0c 9f3d
00000320: f06f 58bd 2c25 233c 6b47 fdbd d9cc aabc
00000330: 0e33 483e dadb bfbc 1226 2f3e 863b c43d
00000340: 7b92 233e bd0f 263e f90d a3bd 1e69 21bd
00000350: aaaa 4b3d 9d03 e4bd fe34 bf3b 59e4 513d
00000360: d75f d63d 4ac9 023e c385 e9bb 0bc0 f63d
00000370: 0c8b b33b acbb 58bd c84f 1f3e 4afe a4bd
00000380: 83fd a33c 3051 c8bd a7ee 99bd 4a95 cb3d
00000390: 56ff 56bc b7cb 8bbc a4d5 1f3e cc6a 8cbd
000003a0: 4dce f53d 4de9 e43d fe9f 873d b322 4b3d
000003b0: cef1 983d abc4 b2bd 4ec6 933d e5bc f03d
000003c0: 6789 b4bd c163 a9ba 2b67 df3d a6cc 12be
000003d0: df12 043e 87fa 14bd 24d2 0abd 108f c33d
000003e0: 28b9 22bd 6336 56bd 0a29 a1bd eb4a 94bd
000003f0: 19cd 41bd 9cff abbd ef4d f2bd 9ac7 f0bd
0.0748518 -0.09900943 -0.042761143 -0.18317278 -0.065786794 -0.11627606 -0.10863816 -0.15708645
0.11224713 -0.206185 0.04266879 -0.10254632 -0.071813434 -0.026865143 -0.11347823 -0.033615097
-0.27242428 -0.05908652 -0.000369596 0.08560146 -0.14526406 0.17909883 0.07718024 -0.18665256
-0.13112839 -0.088375196 0.1701511 -0.21486138 -0.12155757 0.014861034 -0.10968882 0.11238574
-0.15792827 0.051907856 -0.026993578 -0.029440152 -0.054911837 0.18100098 -0.062889636 0.118504085
-0.1015968 -0.029334046 -0.08270481 0.015104602 -0.21054792 0.159227 -0.035306893 -0.07718205
0.21256019 -0.13438658 -0.03916372 0.1231783 -0.1029011 0.008454922 0.046791907 -0.12107966
0.06560142 -0.006904583 0.03565411 0.1503145 -0.1389223 0.10216742 0.036318682 0.20502698
0.14022256 -0.009170558 -0.021669803 0.0059186975 0.06979933 -0.08524702 0.07346322 -0.1515952
0.07286832 -0.024061307 0.062292892 -0.11355925 0.019185916 0.10771381 -0.020597365 -0.055547312
-0.019734975 -0.050960716 0.118709356 0.14556393 -0.016656112 0.24978466 0.063734725 -0.08297262
-0.16409557 -0.058722142 0.06821063 -0.14759625 0.051941697 0.14699286 -0.0076371897 0.15870336
-0.17429756 0.05341634 0.15978208 -0.08199866 0.15198022 0.09241628 -0.014574489 0.14565638
0.034979682 0.03420419 -0.12526861 0.0926424 -0.00635738 0.15589803 -0.001662896 -0.12602192
0.22138186 0.0038475578 0.08508884 0.14611773 -0.09127905 0.11541564 0.1510975 -0.012164838
0.07072467 0.058925413 0.10872719 0.12734324 -0.14803599 0.16621022 0.27065217 0.19050077
-0.19669357 -0.18812123 0.09379411 0.1256463 -0.1603151 0.050654773 0.08405317 -0.49396756
-0.2191986 -0.3633802 -0.027182162 -0.38304874 0.16805692 -0.30489597 -0.27554792 0.11351268
-0.03333323 0.12064606 -0.21129693 -0.35802686 -0.28008124 0.019967603 0.2699339 -0.3603581
0.08650117 0.022665748 0.17912845 -0.25188395 0.08601383 0.15542075 0.16257158 -0.034736626
-0.29436013 -0.15199444 -0.21663985 0.06327593 -0.2259657 -0.35668692 0.19117108 -0.19316511
0.09561617 0.05296912 -0.39205533 0.11569144 0.1544065 -0.35939303 0.12429774 0.026920944
-0.12381551 0.1773208 0.14634451 -0.02422654 -0.00031370937 -0.30511734 -0.24598594 0.1254244
-0.2769653 -0.20231463 -0.28246638 -0.1770891 -0.29956827 -0.2093636 -0.031794228 -0.033782277
-0.04868804 -0.07971932 0.08153783 0.12359086 -0.058380716 0.023603644 0.15590987 0.07766019
-0.052841127 0.009957593 -0.123671375 -0.020849632 0.19550726 -0.023420263 0.17104366 0.09581666
0.15973847 0.16216941 -0.079616494 -0.03940689 0.049723305 -0.11133502 0.0058351746 0.05124316
0.10467499 0.12772098 -0.0071265413 0.12048348 0.005479222 -0.052913353 0.15557778 -0.08056314
0.020018345 -0.0978111 -0.075162224 0.09940584 -0.0131224 -0.017064912 0.15608841 -0.068563074
0.120022394 0.11177311 0.06622313 0.04959364 0.074679956 -0.08728918 0.07215558 0.11754779
-0.0881527 -0.0012923406 0.109083496 -0.1433588 0.12897824 -0.036371734 -0.033891812 0.095487714
-0.03972736 -0.05229796 -0.07869156 -0.07240852 -0.047314737 -0.08398363 -0.11831271 -0.11756821

embedding_layer.0.bias f4 [16]
00000000: 75ab ef3d c79e 2ebd 1f77 333d f281 af3e
00000010: 98b9 4e3d ca82 923d bc47 d93d 1ee2 c13e
00000020: e6be be3e d1fb d13e 37f4 803e d2c2 6e3e
00000030: dae0 513e 13ad 2d3e aa0c 013d c193 853d
0.11702625 -0.04263189 0.043814775 0.34278828 0.050469965 0.07153852 0.10609385 0.37867826
0.3725502 0.41012433 0.2518632 0.23316506 0.2049593 0.16960554 0.031506218 0.065223224

classifier.weight f4 [2, 16]
00000000: 7bd4 92be 07ae 50be 24e8 093f 39d5 6a3e
00000010: 5467 e2bd 4d84 41bd 36bb 66be a398 b13e
00000020: c82c 793e 2471 983e 28cf 143e 91ba b63d
00000030: fa7b 9a3e 0964 d0be 25b4 c7be 7fb6 5bbe
00000040: 7328 8d3d 5f43 353e 8937 f8be 4d1c 8cbe
00000050: c61a 953e e5f9 cf3e 1bf4 973e ab34 c0be
00000060: 5bb5 df3c c1d6 cabd f84f abbd fc5f d5be
00000070: 250f c13d e745 0b3e 41b0 803d 0271 803e
-0.28677735 -0.20378886 0.53869843 0.229329 -0.110548645 -0.047245312 -0.22532353 0.34686765
0.24333489 0.2977382 0.14532149 0.089223035 0.30172712 -0.4070132 -0.39004627 -0.21456335
0.06892481 0.17701481 -0.4847987 -0.27365342 0.2912199 0.40620342 0.29678425 -0.37540182
0.027308157 -0.09904242 -0.08364862 -0.41674793 0.09426717 0.13600884 0.06283618 0.25086218

classifier.bias f4 [2]
00000000: ad42 313e 21c2 cabc
0.17310591 -0.024750771
