o02_train/run_outputs/42Bcnn_train_weights.pth (torch, 48171 bytes, 22 tensors)

features.0.weight f4 [16, 6, 5]
1.051871 0.46976978 -0.22004029 -0.87817127 -1.8223615 -0.114022195 -0.4216455 -0.3230297
0.11887904 -0.35470942 0.82864946 0.42243096 0.5562687 0.5062131 0.47652125 0.07188101
0.04768531 -0.028249694 -0.04336426 0.009869636 -0.14724903 0.025523769 -0.051896155 0.10407554
0.028656289 -0.3156256 -0.003008834 0.022343611 0.10022191 -0.49275106 -2.7446077 -3.0615106
-1.8479505 -0.5079824 0.77411413 0.5391802 0.3650429 0.59060407 0.7650737 1.3451225
-0.62172693 -0.48613173 -0.4205911 -0.2896263 -0.27381578 -0.05937272 0.089149155 -0.07696739
0.06780205 -0.057686772 -0.08204796 -0.073314734 -0.05732297 0.21348287 0.0037657814 -0.06132653
0.03975922 0.003938893 0.10568166 -0.19171743 -2.4907131 -2.7048311 -1.7781994 -0.56742966
0.29411986 0.50617725 0.87971824 0.77291495 0.864334 0.9003886 -0.5678266 -0.8706187
-0.8390619 -1.132882 -0.7882486 -0.025085516 -0.028025629 0.058046114 -0.06335218 0.06190513
0.017120274 -0.13011761 0.16052817 -0.077456154 0.17396675 -0.09338977 0.1045923 -0.11390818
-0.03515882 0.12708512 3.1750515 2.47473 1.4565208 0.24327229 -0.8137908 -0.5869356
-0.035560407 -0.12511905 0.55607796 0.5800744 0.26335713 -0.02682659 -0.41112128 -0.79464614
-1.1432383 0.025483875 -0.048430193 -0.008955634 -0.05135577 -0.06865277 0.09332003 -0.07400389
0.09104863 -0.1347673 -0.1044177 -0.11587977 -0.10812275 -0.29879886 -0.18151538 -0.022142092
0.4922516 1.5034801 2.2735677 2.4896927 2.5098424 1.249492 1.1359073 0.7544472
0.36858082 -0.393165 0.2568183 0.3945731 0.10412453 0.25299495 0.10582485 0.021935428
0.014819292 -0.019106586 0.030608498 -0.057781707 -0.23278873 -0.26567677 -0.005931838 -0.13685861
-0.05732822 -0.04772011 0.034118067 0.1158555 0.2010464 0.046499904 -0.35013786 0.5353265
0.24116243 0.17306557 0.89473253 0.15539707 0.3766164 0.25913432 0.24816969 0.40298912
-1.0841881 -0.73535216 -0.11711337 -0.37628517 -0.52500045 0.07947969 -0.1368208 0.070906475
0.01902435 -0.027536228 -0.15849183 0.1553989 0.13671483 -0.11716024 -0.058297064 -0.058295965
-0.095316894 0.1402358 0.16959578 -0.2032665 1.478516 0.8740576 0.004578069 -1.0231106
-1.416933 -0.3460423 -0.6648868 -0.7506259 -0.7649559 -0.57962286 0.80906016 0.7478392
0.74152267 0.65226996 0.23053089 0.016928889 -0.037331987 -0.013738462 0.026542593 0.06325382
-0.17325531 -0.04774359 0.01648377 0.05158559 0.073295526 -0.29489583 -0.028890649 -0.07735074
-0.048599932 -0.27397546 1.2716622 1.0593495 0.13581173 -0.4778781 -1.0051348 1.6956193
1.7664894 1.1056864 0.7727293 0.35567182 -0.59183913 -0.5121218 -0.4099994 -0.164482
-0.34704092 0.17999971 0.1517741 0.059589613 -0.111469194 -0.14162666 -0.31262505 0.013297564
0.11057005 0.1420687 0.049847156 0.08035688 0.0147977695 -0.040079396 0.015510992 -0.01122598
0.22596854 0.37118265 0.62521565 0.76272297 1.0480765 -1.3381745 -1.6707104 -1.3706342
-1.3680124 -1.2179972 1.462737 1.5119015 1.4844329 1.448504 1.4617779 -0.13385466
00000000: b5a3 863f aa85 f03e 3e52 61be d5cf 60bf
00000010: 2443 e9bf 7884 e9bd ebe1 d7be 2664 a5be
00000020: db76 f33d 799c b5be 5f22 543f df48 d83e
00000030: a067 0e3f 2f97 013f 98fa f33e 5a36 933d
00000040: ac51 433d e76b e7bc b99e 31bd 41b4 213c
00000050: 73c8 16be 3917 d13c 1091 54bd 8f25 d53d
00000060: 98c0 ea3c ae99 a1be dc2f 45bb f309 b73c
00000070: 2541 cd3d de49 fcbe a7a7 2fc0 caef 43c0
00000080: a489 ecbf 220b 02bf 582c 463f b707 0a3f
00000090: e7e6 ba3e d431 173f dfdb 433f f92c ac3f
000000a0: 7f29 1fbf 42e6 f8be b757 d7be e649 94be
000000b0: 9531 8cbe cf30 73bd d593 b63d 14a1 9dbd
000000c0: cddb 8a3d f748 6cbd c308 a8bd 0926 96bd
000000d0: 7ecb 6abd 419b 5a3e 54cb 763b 8731 7bbd
000000e0: 90da 223d d411 813b a06f d83d 9351 44be
000000f0: d867 1fc0 f41b 2dc0 0a9c e3bf 1243 11bf
00000100: e196 963e d594 013f 3735 613f c1dd 453f
00000110: fe44 5d3f de7f 663f 165d 11bf dee0 5ebf
00000120: c3cc 56bf 4702 91bf a9ca 49bf 2480 cdbc
00000130: 0196 e5bc c3c1 6d3d cabe 81bd 3c90 7d3d
00000140: d13f 8c3c 8d3d 05be 7f61 243e 55a1 9ebd
00000150: 5724 323e 2343 bfbd 7d34 d63d b148 e9bd
00000160: b202 10bd 9a22 023e 0b34 4b40 fa61 1e40
00000170: 466f ba3f 5f1c 793e 9854 50bf 6941 16bf
00000180: caa7 11bd 351f 00be 205b 0e3f c27f 143f
00000190: bfd6 863e 70c3 dbbc 7d7e d2be ee6d 4bbf
000001a0: a255 92bf 8fc3 d03c bd5e 46bd a7ba 12bc
000001b0: 6e5a 52bd d399 8cbd 921e bf3d 5a8f 97bd
000001c0: b477 ba3d 7000 0abe f2d8 d5bd 5f52 edbd
000001d0: 766f ddbd 2afc 98be 2bdf 39be 5563 b5bc
000001e0: 6708 fc3e 0972 c03f 2282 1140 2057 1f40
000001f0: 42a1 2040 5bef 9f3f 6965 913f 7423 413f
00000200: a0b6 bc3e ec4c c9be b07d 833e 7c05 ca3e
00000210: 3e3f d53d 8e88 813e b3ba d83d edb1 b33c
00000220: 9ecc 723c 6a85 9cbc acbe fa3c 83ac 6cbd
00000230: 2b60 6ebe c906 88be dd5f c2bb aa24 0cbe
00000240: ffd0 6abd 2976 43bd 63bf 0b3d a645 ed3d
00000250: 1cdf 4d3e af76 3e3d 4545 b3be 280b 093f
00000260: 49f3 763e 1a38 313e 310d 653f 6920 1f3e
00000270: ddd3 c03e 41ad 843e 3220 7e3e 9754 ce3e
00000280: adc6 8abf 0a40 3cbf 22d9 efbd 73a8 c0be
00000290: 6e66 06bf 3fc6 a23d c01a 0cbe 6a37 913d
000002a0: f4d8 9b3c a893 e1bc af4b 22be e420 1f3e
000002b0: f9fe 0b3e b5f1 efbd e7c8 6ebd c0c7 6ebd
000002c0: 8135 c3bd f999 0f3e 84aa 2d3e 1825 50be
000002d0: 0340 bd3f 3dc2 5f3f a003 963b 4af5 82bf
000002e0: 0f5e b5bf 752c b1be 0536 2abf 0529 40bf
000002f0: 26d4 43bf 2a62 14bf 911e 4f3f 6472 3f3f
00000300: 6ed4 3d3f 2afb 263f 4a10 6c3e 74ae 8a3c
00000310: 6de9 18bd 4917 61bc da6f d93c 388b 813d
00000320: d769 31be c88e 43bd f908 873c 694b 533d
00000330: f71b 963d 96fc 96be 15ac ecbc 116a 9ebd
00000340: b910 47bd 8346 8cbe d4c5 a23f c498 873f
00000350: 3b12 0b3e 70ac f4be 42a8 80bf 0e0a d93f
00000360: 531c e23f 2287 8d3f 96d1 453f 9e1a b63e
00000370: c582 17bf 6a1a 03bf 71eb d1be f86d 28be
00000380: 59af b1be d851 383e ab6a 1b3e 3d14 743d
00000390: f649 e4bd 9406 11be 6410 a0be 07de 593c
000003a0: 8d72 e23d 757a 113e 882c 4c3d 2692 a43d
000003b0: 5872 723c 4b2a 24bd d121 7e3c 2ced 37bc
000003c0: 4c64 673e a70b be3e 220e 203f d041 433f
000003d0: 5f27 863f 4d49 abbf d7d9 d5bf f170 afbf
000003e0: 081b afbf 55e7 9bbf f73a bb3f fd85 c13f
000003f0: e601 be3f 9468 b93f 8a1b bb3f 3211 09be

features.0.bias f4 [16]
0.039689627 -0.15544903 -0.18131803 0.0045870896 -0.09840789 -0.15855186 0.04140805 -0.002840957
0.18745859 0.09191199 0.06761806 0.07663853 -0.020177593 0.08807385 0.033161003 -0.02930904
00000000: 9791 223d 082e 1fbe 6fab 39be 4c4f 963b
00000010: 138a c9bd 6b5b 22be 7d9b 293d 592f 3abb
00000020: 25f5 3f3e 5a3c bc3d 567b 8a3d a9f4 9c3d
00000030: 7b4b a5bc 1060 b43d d5d3 073d 8319 f0bc

features.1.weight f4 [16]
0.9525141 0.9179687 0.8280258 0.9154664 0.7782647 0.91838837 0.94609463 0.81514525
0.7859629 0.8853441 0.9397513 0.7672522 0.85900086 0.88595104 0.8084844 0.70108294
00000000: f7d7 733f ffff 6a3f 80f9 533f 025c 6a3f
00000010: 5b3c 473f 801b 6b3f 4233 723f 5cad 503f
00000020: dd34 493f e9a5 623f 8b93 703f a46a 443f
00000030: 7be7 5b3f b0cd 623f d5f8 4e3f 2c7a 333f

features.1.bias f4 [16]
-0.1570116 -0.32329646 -0.0003666253 0.0018606575 -0.29257774 -0.136458 -0.15296246 -0.04851102
-0.13620481 -0.009798876 0.0019491963 -0.010608811 -0.049369447 0.005360527 -0.006912456 -0.012232735
00000000: a6c7 20be 1d87 a5be 9d37 c0b9 4ee1 f33a
00000010: c0cc 95be a5bb 0bbe 31a2 1cbe 7eb3 46bd
00000020: 4679 0bbe 778b 20bc 2d7c ff3a 94d0 2dbc
00000030: 9e37 4abd 5ca7 af3b e281 e2bb cf6b 48bc

features.1.running_mean f4 [16]
0.027452275 -0.15126699 -0.17235962 0.008855145 -0.12444857 -0.15998071 0.026243648 -0.010302755
0.17965566 0.02920336 0.049652375 0.08122815 -0.0396093 0.08892222 0.06439158 -0.02628196
00000000: 98e3 e03c bce5 1abe 0a7f 30be 2c15 113c
00000010: e4de febd fcd1 23be ebfc d63c e3cc 28bc
00000020: a7f7 373e e33b ef3c 4a60 4b3d f25a a63d
00000030: 5d3d 22bd da1c b63d bcdf 833d 444d d7bc

features.1.running_var f4 [16]
729.1899 32.01979 35.9691 945.65784 522.9636 12.518512 845.51685 348.69122
132.19398 1492.5498 1082.4058 1225.4095 183.23091 407.55823 636.49036 604.2942
00000000: 274c 3644 4414 0042 5ce0 0f42 1a6a 6c44
00000010: acbd 0244 d34b 4841 1461 5344 7a58 ae43
00000020: a931 0443 9891 ba44 fc4c 8744 1b2d 9944
00000030: 1d3b 3743 74c7 cb43 621f 1f44 d412 1744

features.5.weight f4 [32, 16, 3]
0.11255574 0.16009939 -0.00799142 -0.13568898 -0.12753129 -0.10142288 -0.017689275 0.033083424
0.1864049 0.13683012 -0.08931174 -0.057070967 -0.04889975 -0.06760788 -0.09209378 -0.20596008
-0.15485947 -0.20824431 -0.008997123 0.0027597032 0.12170618 -0.16635464 -0.13677986 -0.17021322
-0.15053205 -0.097342834 -0.039590593 0.060707007 0.08268037 -0.053648952 0.122658424 0.085471034
0.01919512 -0.016349396 0.04875688 0.00153178 -0.07794216 0.12332607 0.17498791 0.018930977
-0.08413203 0.029129349 -0.14001012 -0.055926234 -0.12042714 -0.17878164 -0.07789681 0.041189965
-0.16220994 -0.19179966 -0.1268413 -0.00930061 0.28988272 0.033695605 -0.0903541 0.112740494
-0.001216894 0.02749751 -0.015316907 -0.06451435 -0.017751103 0.02428769 0.036022257 0.15844284
0.0999939 0.119352505 -0.2372316 -0.2743068 -0.24184135 -0.11231338 -0.0508146 0.054480143
0.024961654 0.011859529 -0.037763704 -0.056354452 -0.007708908 -0.012948596 -0.12142672 -0.22530793
-0.13028939 -0.01282499 0.01387858 0.004325311 -0.041444957 -0.123633474 0.042842403 0.101421945
-0.045636144 0.03705698 -0.13200627 -0.043846637 0.023516346 0.029289916 0.03240245 0.013660525
-0.042626593 0.03362766 -0.0212167 -0.056606654 -0.014999302 -0.05479309 0.0074017816 -0.03790328
-0.10330563 -0.0923173 -0.1688729 -0.18036683 -0.15089105 -0.21299665 -0.13994622 0.07662155
0.12735336 0.16680288 0.062452782 -0.019584658 0.014824979 0.09928468 -0.034600317 -0.046249907
0.03721899 -0.048727714 -0.020587567 0.0051229484 -0.048756912 0.013117117 -0.06370223 -0.017943203
0.033857528 -0.15529555 -0.15076768 -0.13687617 -0.037581917 -0.087663695 -0.06296555 -0.11242275
-0.094945 -0.061905786 -0.19093665 -0.21590877 -0.25957283 -0.087490894 -0.112598576 -0.026460022
0.012360775 -0.055718333 0.08652643 -0.031794176 -0.24520263 -0.24336128 -0.029407622 -0.056360647
-0.002090889 -0.01653426 0.18985343 0.022182306 -0.042615183 -0.035400655 -0.0068668905 -0.15558809
-0.22192383 -0.21185787 -0.015636172 0.12612464 -0.14032309 -0.0562208 -0.1335628 -0.019941874
-0.010542498 -0.09786398 -0.110654056 -0.037606545 0.11292434 -0.05025627 0.04621014 0.1046625
0.1362005 -0.033875216 -0.09532971 0.15321097 -0.025031343 -0.08480153 -0.22455189 0.009456489
0.11889704 0.06176096 -0.09471022 0.0861479 0.029401695 0.08683567 -0.14523219 -0.069204
-0.2800388 -0.23025663 -0.107956834 0.14926794 0.023859857 0.14327924 0.011698055 0.023509573
0.07468891 0.19909267 -0.09426506 0.18738589 0.036339227 -0.054182526 -0.09687319 -0.10690555
0.0063724625 -0.13924897 -0.10422423 -0.18237506 -0.2805226 -0.08621822 -0.06293908 -0.04438583
-0.1395081 -0.12657192 -0.046967145 0.1968691 0.062347215 -0.115993336 -0.1864737 -0.19198103
-0.15477051 -0.046242703 0.03153213 0.12700225 -0.086595565 0.06855806 0.140486 -0.062180288
-0.012337233 -0.068733774 0.039763387 -0.036287826 -0.015659573 0.0018098274 0.062856376 0.056196917
0.080836535 0.01953561 0.08156217 0.1415553 -0.004459877 -0.089861356 0.12174892 0.067296915
-0.099399365 -0.11810339 -0.01959908 -0.11539388 -0.084295 0.09321265 0.036972303 0.09754643
00000000: a083 e63d 18f1 233e 72ee 02bc 0df2 0abe
00000010: 9097 02be cdb6 cfbd 19e9 90bc 7c82 073d
00000020: ede0 3e3e 321d 0c3e 13e9 b6bd 3fc3 69bd
00000030: 1b4b 48bd 0076 8abd aa9b bcbd 33e7 52be
00000040: 7b93 1ebe ff3d 55be ab68 13bc 23dc 343b
00000050: 1741 f93d df58 2abe 0510 0cbe 604c 2ebe
00000060: 1325 1abe ae5b c7bd bf29 22bd e9a7 783d
00000070: 5354 a93d 01bf 5bbd 5734 fb3d 700b af3d
00000080: 163f 9d3c 2bef 85bc 4bb5 473d 02c6 c83a
00000090: 24a0 9fbd 6192 fc3d 0830 333e 2315 9b3c
000000a0: 6a4d acbd aca0 ee3c d05e 0fbe e812 65bd
000000b0: 81a2 f6bd 8912 37be 5d88 9fbd cfb6 283d
000000c0: 5d1a 26be 2167 44be b0e2 01be 9661 18bc
000000d0: 826b 943e 6704 0a3d 920b b9bd 7de4 e63d
000000e0: 3080 9fba 7542 e13c c4f3 7abc 1920 84bd
000000f0: c36a 91bc faf6 c63c 138c 133d d73e 223e
00000100: 9ac9 cc3d 166f f43d d7ec 72be f171 8cbe
00000110: 42a5 77be 8f04 e6bd f822 50bd 9226 5f3d
00000120: 627c cc3c 784e 423c 1dae 1abd edd3 66bd
00000130: 029b fcbb 5926 54bc 92ae f8bd 1fb7 66be
00000140: 956a 05be e81f 52bc fc62 633c 57bb 8d3b
00000150: 30c2 29bd 8c33 fdbd 847b 2f3d 4fb6 cf3d
00000160: f7ec 3abd 0fc9 173d a72c 07be 8898 33bd
00000170: 5aa5 c03c 68f1 ef3c 6eb8 043d 65d0 5f3c
00000180: 3999 2ebd 28bd 093d a5ce adbc 61dc 67bd
00000190: a2bf 75bc b86e 60bd a58a f23b 7840 1bbd
000001a0: e791 d3bd da10 bdbd 04ed 2cbe 15b2 38be
000001b0: 2f83 1abe cb1b 5abe 104e 0fbe c2eb 9c3d
000001c0: eb68 023e 60ce 2a3e 7dce 7f3d 0170 a0bc
000001d0: 78e4 723c c455 cb3d 10b9 0dbd 8b70 3dbd
000001e0: f172 183d b696 47bd 42a7 a8bc 68de a73b
000001f0: 54b5 47bd 2de9 563c 5176 82bd a0fd 92bc
00000200: 31ae 0a3d cc05 1fbe d862 1abe 4429 0cbe
00000210: 7fef 19bd 0689 b3bd 15f4 80bd e63d e6bd
00000220: 8672 c2bd ec90 7dbd e684 43be 3017 5dbe
00000230: bbe6 84be 6d2e b3bd 159a e6bd b0c2 d8bc
00000240: d984 4a3c e838 64bd c534 b13d 9c3a 02bd
00000250: 6616 7bbe b333 79be 41e8 f0bc 6cda 66bd
00000260: 4c07 09bb db72 87bc f068 423e abb7 b53c
00000270: 428d 2ebd 4700 11bd a703 e1bb 7c52 1fbe
00000280: 0040 63be 45f1 58be 6e17 80bc d126 013e
00000290: dbb0 0fbe c847 66bd b0c4 08be 245d a3bc
000002a0: 71ba 2cbc e96c c8bd 989e e2bd 5209 1abd
000002b0: e044 e73d 85d9 4dbd d846 3d3d 4b59 d63d
000002c0: 2578 0b3e bdc0 0abd 393c c3bd 56e3 1c3e
000002d0: 880e cdbc 6dac adbd eef0 65be 64ef 1a3c
000002e0: 4b80 f33d 0ff9 7c3d 6ff7 c1bd 4f6e b03d
000002f0: d3db f03c e6d6 b13d bfb7 14be d4ba 8dbd
00000300: 3f61 8fbe 65c8 6bbe 7918 ddbd b2d9 183e
00000310: bf75 c33c cbb7 123e 33a9 3f3c 2697 c03c
00000320: 80f6 983d f3de 4b3e 0a0e c1bd 16e2 3f3e
00000330: 71d8 143d 7fee 5dbd 7365 c6bd 4cf1 dabd
00000340: 17d0 d03b 4897 0ebe 8373 d5bd 87c0 3abe
00000350: a9a0 8fbe 2e93 b0bd 34e6 80bd ebcd 35bd
00000360: 36db 0ebe 129c 01be 9f60 40bd 0e98 493e
00000370: cb5f 7f3d ea8d edbd f6f2 3ebe ad96 44be
00000380: 297c 1ebe fd68 3dbd d627 013d e10c 023e
00000390: 0459 b1bd 2b68 8c3d 90db 0f3e c2b0 7ebd
000003a0: 1b22 4abc 4bc4 8cbd efde 223d 8ba2 14bd
000003b0: 8148 80bc bb37 ed3a d8ba 803d bd2e 663d
000003c0: a08d a53d 2509 a03c 110a a73d dff3 103e
000003d0: 2924 92bb 3b09 b8bd 7f57 f93d f7d2 893d
000003e0: e591 cbbd 31e0 f1bd 408e a0bc a053 ecbd
000003f0: dba2 acbd 46e6 be3d 4570 173d 6cc6 c73d

features.5.bias f4 [32]
-0.13656978 -0.050058223 -0.054681607 -0.2085211 -0.1099764 -0.0862533 0.049720377 0.01781773
0.015818624 -0.14036067 -0.09915597 -0.08650332 0.09645969 0.017962953 -0.053379368 -0.10430186
0.12740925 0.051672667 -0.08667899 0.0124867475 0.0719325 -0.0048538144 0.036479596 -0.10704124
0.04856556 0.14991455 -0.09969235 -0.035441443 0.08886519 -0.027517693 0.023563536 0.08343088
00000000: f3d8 0bbe da09 4dbd d2f9 5fbd 8e86 55be
00000010: 4f3b e1bd 92a5 b0bd 98a7 4b3d 7df6 913c
00000020: 0f96 813c b5ba 0fbe 4912 cbbd a728 b1bd
00000030: a88c c53d 0b27 933c 53a4 5abd 379c d5bd
00000040: 9277 023e b8a6 533d c184 b1bd 3795 4c3c
00000050: 5951 933d bf0c 9fbb a16b 153d 7038 dbbd
00000060: aeec 463d 3383 193e 812b ccbd 0c2b 11bd
00000070: f4fe b53d c96c e1bc 5108 c13c cfdd aa3d

features.6.weight f4 [32]
0.8796394 0.8421751 0.97791106 0.75328493 0.7672179 0.8894358 0.76981854 0.84314877
0.725409 0.9334498 0.96174085 0.72163266 0.86596876 0.8944978 0.863017 0.8309831
0.7193744 0.8510583 0.831537 0.806699 0.7181842 0.97075236 0.8897266 0.90999067
0.95263803 0.74666715 0.81067723 0.82094043 0.80811113 0.8673512 0.78310204 0.9486867
00000000: 0c30 613f ca98 573f 6158 7a3f 48d7 403f
00000010: 6468 443f 11b2 633f d412 453f 99d8 573f
00000020: 67b4 393f 91f6 6e3f a634 763f ebbc 383f
00000030: 21b0 5d3f cffd 643f afee 5c3f 4fbb 543f
00000040: ec28 383f f5de 593f 9cdf 543f d383 4e3f
00000050: ebda 373f 3a83 783f 1fc5 633f 26f5 683f
00000060: 16e0 733f 9425 3f3f 8b88 4f3f 2729 523f
00000070: 5fe0 4e3f ba0a 5e3f 6079 483f 22dd 723f

features.6.bias f4 [32]
-0.08475638 -0.33502847 -0.15023641 -0.06821239 -0.11951156 -0.25790262 -0.1451558 -0.33067057
-0.054865766 -0.14896703 -0.24146862 -0.25343764 0.0702582 -0.15533558 -0.19740221 -0.17333424
-0.33001506 -0.28501013 -0.20549053 -0.021053508 -0.44788048 -0.26633048 -0.17710857 -0.18331203
-0.005697484 -0.15901014 -0.22765528 -0.1611618 -0.16765426 -0.31122267 -0.08847988 -0.22253785
00000000: c194 adbd da88 abbe 93d7 19be f0b2 8bbd
00000010: 7ac2 f4bd d00b 84be b9a3 14be a74d a9be
00000020: edba 60bd d08a 18be 8d43 77be 94c2 81be
00000030: 88e3 8f3d 4a10 1fbe ce23 4abe 887e 31be
00000040: bcf7 a8be d9ec 91be 1c6c 52be 6878 acbc
00000050: 9750 e5be 785c 88be f35b 35be 26b6 3bbe
00000060: f6b1 babb 8ed3 22be 771e 69be 9907 25be
00000070: 8fad 2bbe 9458 9fbe f034 b5bd f6e0 63be

features.6.running_mean f4 [32]
-0.379071 -0.31808135 -0.58716685 -0.46127537 -0.40760556 -0.58813715 -0.25999945 -0.21697322
-0.27658644 -0.6664417 -0.58636683 -0.2163367 -0.47040594 -0.2962253 -0.3105302 -0.36250472
0.26518434 -0.42945918 -0.547321 -0.17197657 0.66933155 -0.50908846 -0.4069266 -0.39747852
-0.5847181 -0.26168388 -0.6227722 -0.4207594 0.09260036 -0.35209152 -0.3722405 -0.428979
00000000: 9815 c2be 8fdb a2be 9150 16bf 492c ecbe
00000010: adb1 d0be 2890 16bf a61e 85be 3a2e 5ebe
00000020: bd9c 8dbe ec9b 2abf 231c 16bf 5e87 5dbe
00000030: 0cd9 f0be d8aa 97be d0fd 9ebe 389a b9be
00000040: 3ec6 873e 13e2 dbbe 3b1d 0cbf a01a 30be
00000050: 5059 2b3f 9f53 02bf af58 d0be 4e82 cbbe
00000060: 16b0 15bf 6efb 85be 006e 1fbf c76d d7be
00000070: 42a5 bd3d 5745 b4be 4f96 bebe 23a3 dbbe

features.6.running_var f4 [32]
0.44591078 0.9537853 0.9492947 0.5036936 0.9997868 0.9229029 1.0275075 0.8741441
0.8473116 0.8923912 0.8637907 0.33839956 2.6388876 1.0437288 0.6651458 0.6760263
0.31947035 0.80184585 0.9940441 0.42370647 1.4583589 1.044831 0.89815843 0.8000386
2.7987587 1.299475 1.0656867 1.1052597 0.34357736 0.9873188 1.2865814 0.7752445
00000000: 6b4e e43e 462b 743f fa04 733f 10f2 003f
00000010: 07f2 7f3f 5d43 6c3f 5e85 833f e8c7 5f3f
00000020: 6ae9 583f c073 643f 6321 5d3f b542 ad3e
00000030: 89e3 2840 e898 853f ff46 2a3f 0f10 2d3f
00000040: 9e91 a33e c545 4d3f ad79 7e3f 0ef0 d83e
00000050: 81ab ba3f 06bd 853f b6ed 653f 54cf 4c3f
00000060: dd1e 3340 3255 a63f 6c68 883f 2679 8d3f
00000070: 5fe9 af3e edc0 7c3f b3ae a43f 6c76 463f

features.10.weight f4 [64, 32, 3]
0.0721431 0.0061715213 0.0013482535 0.032697514 0.12163604 0.0964752 -0.08639565 -0.04836983
-0.111605026 0.061218683 0.012301592 -0.032855738 0.05538517 0.051132534 0.09342601 0.0043863347
-0.07797565 -0.010606766 0.044417005 -0.0040991516 0.037474234 0.1074338 0.047715098 0.012562135
-0.063683644 -0.08575494 -0.09273274 -0.057325725 -0.020124929 0.0043665012 -0.08384751 -0.079556555
-0.04226627 -0.03439348 -0.0364805 -0.11801053 -0.09441525 -0.07540137 -0.11461761 0.07152694
0.055703055 0.094317384 0.007041563 0.015020981 -0.06342756 0.020103287 0.057790503 0.06953356
-0.1372764 -0.034725174 -0.030967234 0.0013355549 0.0131517425 -0.017225698 0.06759022 0.06124935
0.05488295 -0.09648449 -0.045878783 -0.053727947 -0.12845588 -0.095177814 -0.053977653 0.23298964
0.27908555 0.3058488 0.18113053 0.10700133 0.08880816 0.15034565 0.047044933 0.10223713
-0.09337742 -0.108684875 -0.12101502 0.022268511 0.066041365 0.020517746 0.18632768 0.19316037
0.22267772 0.03564534 0.11034592 0.11007981 -0.10927517 -0.08402546 -0.103099115 0.032459233
0.10106296 0.116076574 -0.10059341 -0.07491634 -0.108312376 -0.0035482242 -0.07433072 -0.0689521
0.08611459 0.06594849 0.07915364 0.107402585 0.24946839 0.19716173 -0.053883623 -0.031398136
-0.01398432 0.049721047 0.0033196146 -0.06104796 -0.032303017 0.026146064 0.0613943 -0.036303487
-0.016469179 -0.041830674 0.07148591 0.0609174 0.05263991 0.17319964 0.18423986 0.15297586
-0.054264948 0.008289455 -0.072225295 0.0065855337 -0.032919507 -0.024424262 -0.065431304 -0.06641787
-0.063455515 0.01336693 0.0174634 -0.08541566 -0.044825703 -0.015615021 -0.056885537 0.18011549
0.17374398 0.075267576 0.09485605 0.088783816 0.058697216 0.045387663 -0.019579666 -0.012712032
-0.083343185 -0.06353651 -0.072353944 0.028099941 -0.01292615 -0.0032201062 -0.01597396 0.05023221
-0.02723485 -0.10203858 -0.10410439 -0.11475107 -0.054534506 -0.042418566 -0.0496367 0.20642169
0.1552661 0.14250495 0.12855254 0.091532715 0.06715468 0.11505137 0.08914475 0.011197357
-0.07199594 -0.078565694 -0.10217888 0.03239564 0.110517055 0.10079644 0.13711552 0.10086271
0.13730979 -0.009561951 0.05550182 0.04616778 -0.043166187 -0.06962111 -0.07938676 -0.03744173
0.15051685 0.1752561 -0.060028214 -0.04867995 -0.06941535 -0.030220486 0.004443119 -0.023520771
-0.09290413 -0.121345386 -0.124628276 -0.039063636 -0.08046253 -0.070001766 0.18028837 0.057930514
0.15698403 -0.09861313 -0.09236967 -0.1196917 -0.059306316 0.021816721 -0.11817096 0.22395147
0.18822901 0.17303474 -0.05429805 -0.075622246 -0.06906617 -0.042170152 0.00039602703 -0.032327455
-0.13410382 -0.05755776 -0.061139356 0.0713583 0.11769723 0.09474519 0.18540083 0.11854733
0.10255634 0.059033867 0.107851975 0.04064414 -0.052528813 0.03535933 0.023698937 -0.040453985
-0.028040621 -0.079580694 -0.21226688 -0.16098987 -0.14413379 -0.1437172 -0.05501612 -0.16785498
0.068736136 0.02056747 0.007939725 0.14128147 0.21362758 0.28902397 0.13865404 0.027988503
0.06264951 -0.07682797 -0.13887034 -0.16465907 -0.0043646274 -0.020200003 0.045621373 -0.056282096
00000000: c3bf 933d 793a ca3b e1b7 b03a d4ed 053d
00000010: 511c f93d ca94 c53d 34f0 b0bd 711f 46bd
00000020: 2d91 e4bd 71c0 7a3d 9e8c 493c bd93 06bd
00000030: 8fdb 623d 5970 513d 2356 bf3d 3ebb 8f3b
00000040: b3b1 9fbd 00c8 2dbc 9bee 353d 2d52 86bb
00000050: 957e 193d 4106 dc3d e870 433d 6ad1 4d3c
00000060: 926c 82bd 49a0 afbd aaea bdbd 61ce 6abd
00000070: 09dd a4bc de14 8f3b 3eb8 abbd 8cee a2bd
00000080: 651f 2dbd 2de0 0cbd 946c 15bd 81af f1bd
00000090: c85c c1bd 096c 9abd a3bc eabd b77c 923d
000000a0: e328 643d 7929 c13d e9bc e63b 901a 763c
000000b0: 4fe6 81bd a6af a43c bcb5 6c3d 9c67 8e3d
000000c0: 2f92 0cbe fc3b 0ebd ffae fdbc c90d af3a
000000d0: 687a 573c e81c 8dbc be6c 8a3d 99e0 7a3d
000000e0: f2cc 603d a999 c5bd 64eb 3bbd d611 5cbd
000000f0: f089 03be 96ec c2bd ac17 5dbd d694 6e3e
00000100: 4de4 8e3e 3798 9c3e 487a 393e 8323 db3d
00000110: 0de1 b53d 36f4 193e 30b2 403d b361 d13d
00000120: a93c bfbd 2d96 debd b9d6 f7bd 746c b63c
00000130: b240 873d d514 a83c afcc 3e3e d5cb 453e
00000140: a105 643e d900 123d 0bfd e13d 8671 e13d
00000150: a9cb dfbd 8a15 acbd a125 d3bd f9f3 043d
00000160: 19fa ce3d 8eb9 ed3d eb03 cebd bd6d 99bd
00000170: e1d2 ddbd 5389 68bb b43a 98bd c236 8dbd
00000180: d95c b03d 0010 873d 4e1b a23d e3f5 db3d
00000190: a474 7f3e c4e4 493e 13b5 5cbd 559b 00bd
000001a0: 7d1e 65bc 4ca8 4b3d e48d 593b 6d0d 7abd
000001b0: 2b50 04bd 4530 d63c 9778 7b3d f7b2 14bd
000001c0: 5fea 86bc a456 2bbd 3467 923d 8684 793d
000001d0: f29c 573d 3f5b 313e 60a9 3c3e b4a5 1c3e
000001e0: ec44 5ebd 7fd0 073c dbea 93bd 76cb d73b
000001f0: 9bd6 06bd 6415 c8bc d900 86bd 1806 88bd
00000200: f7f4 81bd f800 5b3c 670f 8f3c 68ee aebd
00000210: 289b 37bd 25d6 7fbc cf00 69bd 3270 383e
00000220: f1e9 313e e325 9a3d e443 c23d 4ad4 b53d
00000230: 7e6c 703d 6ae8 393d 8965 a0bc 2046 50bc
00000240: d5af aabd 6e1f 82bd 4e2e 94bd d931 e63c
00000250: 34c8 53bc 6b08 53bb d2db 82bc 4ac0 4d3d
00000260: 9f1b dfbc 9af9 d0bd af34 d5bd 9c02 ebbd
00000270: 935f 5fbd 17bf 2dbd da4f 4bbd 3560 533e
00000280: 14fe 1e3e d1ec 113e 47a3 033e 8175 bb3d
00000290: 6588 893d 0da0 eb3d 8691 b63d 1f75 373c
000002a0: 9b72 93bd 0de7 a0bd 2943 d1bd 4ab1 043d
000002b0: c456 e23d 5d6e ce3d 0368 0c3e 1c91 ce3d
000002c0: f09a 0c3e bba9 1cbc e055 633d 6d1a 3d3d
000002d0: 07cf 30bd 8395 8ebd 8795 a2bd 805c 19bd
000002e0: 1721 1a3e 5676 333e 25e0 75bd a164 47bd
000002f0: a329 8ebd f490 f7bc 9597 913b a2ae c0bc
00000300: 8544 bebd ee83 f8bd 1c3d ffbd 3101 20bd
00000310: 8ac9 a4bd 165d 8fbd 849d 383e 8c48 6d3d
00000320: 6cc0 203e aef5 c9bd 4f2c bdbd ec20 f5bd
00000330: 2eeb 72bd fbb8 b23c 9e03 f2bd 8953 653e
00000340: 1bbf 403e 0530 313e a267 5ebd d6df 9abd
00000350: 9072 8dbd 9cba 2cbd d9a1 cf39 cb69 04bd
00000360: 8352 09be b0c1 6bbd 436d 7abd 4d24 923d
00000370: 3f0b f13d c409 c23d b7d9 3d3e f1c8 f23d
00000380: 0f09 d23d 7fcd 713d 7fe1 dc3d 787a 263d
00000390: 7428 57bd f2d4 103d 4624 c23c 14b3 25bd
000003a0: 72b5 e5bc 34fb a2bd 7d5c 59be 87da 24be
000003b0: cf97 13be 9a2a 13be 9558 61bd 2de2 2bbe
000003c0: 88c5 8c3d 1c7d a83c 9f15 023c 17ac 103e
000003d0: 30c1 5a3e f3fa 933e 53fb 0d3e 2548 e53c
000003e0: 634e 803d fc57 9dbd 0734 0ebe 639c 28be
000003f0: 2605 8fbb 7a7a a5bc 7add 3a3d 0e88 66bd

features.10.bias f4 [64]
0.025915401 -0.11456218 0.066283986 -0.106052004 -0.09210505 0.040647753 0.13962337 -0.082402475
0.066432 0.00083259644 -0.048138883 -0.0075873025 0.017131008 -0.023495436 -0.1705291 0.08976747
0.09230975 0.103918344 -0.06566065 0.05703264 0.044742282 0.051986624 -0.009546857 0.0351762
0.068828866 0.102513 -0.07722375 -0.022031669 -0.1094501 -0.041301645 0.022185503 0.08207229
-0.115378216 -0.068488196 0.005156777 0.065865435 -0.004257356 -0.0105827255 -0.019728769 -0.04979138
0.10563751 0.14561607 -0.103468254 -0.0041015935 0.034553107 -0.05638031 -0.09254246 -0.012772913
0.029450132 0.08523832 -0.085962415 0.060283806 0.09222159 0.031681087 0.028914336 -0.009177819
0.010335383 -0.025968581 -0.079122335 0.0535429 0.045645006 -0.07727154 -0.04123737 -0.031115077
00000000: 894c d43c 949f eabd e6bf 873d cb31 d9bd
00000010: 93a1 bcbd 427e 263d 6ef9 0e3e a1c2 a8bd
00000020: 800d 883d 9a42 5a3a 472d 45bd e89e f8bb
00000030: 5456 8c3c 8079 c0bc 2e9f 2ebe 02d8 b73d
00000040: e50c bd3d 24d3 d43d 1779 86bd 0f9b 693d
00000050: af43 373d edef 543d 6c6a 1cbc eb14 103d
00000060: 26f6 8c3d 56f2 d13d 7c27 9ebd c27b b4bc
00000070: 6027 e0bd ea2b 29bd 5fbe b53c 8415 a83d
00000080: 6a4b ecbd 8a43 8cbd 2efa a83b 75e4 863d
00000090: 4a81 8bbb 2b63 2dbc 3a9e a1bc 0cf2 4bbd
000000a0: 7b58 d83d 611c 153e 2ae7 d3bd a966 86bb
000000b0: 8f87 0d3d 0aef 66bd e786 bdbd 7b45 51bc
000000c0: 6741 f13c 6e91 ae3d 100d b0bd 27ec 763d
000000d0: acde bc3d 07c4 013d c2dd ec3c 905e 16bc
000000e0: bd55 293c 10bc d4bc e40a a2bd cd4f 5b3d
000000f0: 42f6 3a3d 8b40 9ebd 84e8 28bd 0ce5 febc

features.11.weight f4 [64]
0.88657653 0.87595737 0.93602705 0.9314475 0.86468995 0.93637663 0.91176504 0.9120257
0.84656143 0.948658 0.86808026 0.8883105 0.9401541 0.8713905 0.9002846 0.8877722
0.8905352 0.93562347 0.8713117 0.875103 0.9115283 0.8783352 0.9560222 0.9434781
0.8882983 0.91320217 0.93351173 0.88913906 0.9385874 0.91110736 0.90364033 0.91212904
0.90511876 0.9036539 0.87804604 0.8706541 0.8701955 0.8981141 0.9398201 0.90102506
0.9136819 0.98162377 0.9588385 0.93452317 0.97480655 0.8975698 0.91938347 0.8946722
0.9533527 0.9744791 0.9479597 0.8346784 0.92454606 0.9731867 0.8796588 0.9844603
0.9058126 0.87618273 0.9080987 0.8985923 0.92196786 0.8683545 0.84997666 0.82450014
00000000: aef6 623f be3e 603f 789f 6f3f 5873 6e3f
00000010: 525c 5d3f 61b6 6f3f 6f69 693f 847a 693f
00000020: 40b8 583f 40db 723f 823a 5e3f 5168 633f
00000030: f0ad 703f 7313 5f3f 0d79 663f 0a45 633f
00000040: 1dfa 633f 0585 6f3f 490e 5f3f c006 603f
00000050: eb59 693f 93da 603f dfbd 743f c887 713f
00000060: 8467 633f 9ec7 693f a0fa 6e3f 9e9e 633f
00000070: 4447 703f 553e 693f f954 673f 4a81 693f
00000080: ddb5 673f dd55 673f a0c7 603f 30e3 5e3f
00000090: 22c5 5e3f ceea 653f 0d98 703f 94a9 663f
000000a0: 0fe7 693f b24b 7b3f 7176 753f e93c 6f3f
000000b0: ec8c 793f 22c7 653f b75c 6b3f 3d09 653f
000000c0: ec0e 743f 7677 793f 7dad 723f 7cad 553f
000000d0: 0daf 6c3f c322 793f 5231 613f 9705 7c3f
000000e0: 56e3 673f 834d 603f 2879 683f 250a 663f
000000f0: 1606 6c3f 7b4c 5e3f 1298 593f 7112 533f

features.11.bias f4 [64]
-0.3298325 -0.34044126 0.018232102 -0.01745626 -0.34704986 -0.064902954 -0.036018357 -0.27338642
-0.36143938 -0.22852497 -0.3410801 -0.17634939 -0.01527004 -0.34470776 -0.28052995 -0.10232022
-0.038752265 0.029413719 -0.34567666 -0.32306543 0.023592127 -0.3013398 0.04500528 -0.20141958
-0.03642987 -0.008619737 0.03296242 0.016031547 0.045248408 -0.2636402 0.012744091 -0.33262295
-0.08824383 -0.33559072 -0.31687197 0.0024187132 -0.3765494 -0.38953698 -0.09502878 0.05262252
-0.02367676 0.029801283 -0.26463977 -0.012754091 0.051850244 -0.3341141 0.027823133 0.009997082
-0.2468148 0.0040067323 0.032167003 -0.37314978 0.018014153 -0.19472449 -0.33190677 0.047808886
-0.3336205 -0.3211505 -0.29904893 -0.27676186 -0.20519048 -0.34601232 -0.3730236 -0.3152289
00000000: cedf a8be 514e aebe 7d5b 953c 6e00 8fbc
00000010: 85b0 b1be d7eb 84bd fc87 13bd 4ef9 8bbe
00000020: 950e b9be 7302 6abe 0da2 aebe ef94 34be
00000030: 312f 7abc 897d b0be 9fa1 8fbe 438d d1bd
00000040: b2ba 1ebd 0af5 f03c 88fc b0be d568 a5be
00000050: 4744 c13c 3649 9abe 7557 383d ef40 4ebe
00000060: 7d37 15bd cc39 0dbc 9a03 073d 9754 833c
00000070: 6556 393d d9fb 86be 98cc 503c 8e4d aabe
00000080: 2eb9 b4bd 8cd2 abbe 0b3d a2be 4683 1e3b
00000090: 15cb c0be 6471 c7be 739e c2bd b68a 573d
000000a0: c4f5 c1bc d221 f43c dd7e 87be 89f6 50bc
000000b0: ec60 543d 0111 abbe 57ed e33c cdca 233c
000000c0: 05bd 7cbe e84a 833b 8cc1 033d 7d0d bfbe
000000d0: 6b92 933c db65 47be afef a9be 40d3 433d
000000e0: 4ed0 aabe d76d a4be f11c 99be bbb3 8dbe
000000f0: 741d 52be 8728 b1be f3fc bebe af65 a1be

features.11.running_mean f4 [64]
-0.12030376 -0.109706424 0.046791278 0.3373241 -0.28105047 0.72908205 0.30940768 0.69331706
-0.1420379 0.49960312 -0.22413015 -0.07085934 0.20453757 0.04867144 0.123508796 -0.17507629
0.1965935 -0.047959417 -0.043064203 0.16317093 0.0908315 -0.10637641 0.16172415 0.82913494
0.08172941 0.0008959174 -0.064236455 -0.10743166 -0.26549014 -0.17415385 0.41994298 0.2237573
-0.6390255 -0.12414554 -0.08649608 -0.021102246 -0.0460078 -0.043599598 0.7251827 -0.269461
0.3133141 0.5736112 0.11561248 0.3966699 -0.19511096 0.034917727 -0.025605097 -0.07993677
-0.08982892 0.9296389 0.10033547 -0.15538792 -0.20473735 0.5183071 0.23138347 0.067927696
0.11674272 -0.068440214 -0.25567076 -0.23565726 0.59814775 -0.11704482 -0.19552734 -0.14059345
00000000: d161 f6bd c3ad e0bd 36a8 3f3d bfb5 ac3e
00000010: d9e5 8fbe 1fa5 3a3f af6a 9e3e 3a7d 313f
00000020: 6272 11be fbcb ff3e 6082 65be b41e 91bd
00000030: 4c72 513e b45b 473d 2ef2 fc3d 3347 33be
00000040: ce4f 493e 1871 44bd 1764 30bd 4816 273e
00000050: de05 ba3d e0db d9bd 049b 253e 3042 543f
00000060: c061 a73d 00dc 6a3a 678e 83bd 2105 dcbd
00000070: 53ee 87be 6355 32be c402 d73e a220 653e
00000080: 2d97 23bf 0440 febd db24 b1bd 9ede acbc
00000090: ad72 3cbd 7e95 32bd 93a5 393f cbf6 89be
000000a0: b56a a03e 2fd8 123f 3cc6 ec3d 5118 cb3e
000000b0: 2bcb 47be e405 0f3d c8c1 d1bc e4b5 a3bd
000000c0: 3af8 b7bd d1fc 6d3f af7c cd3d 031e 1fbe
000000d0: aba6 51be c6af 043f caef 6c3e ad1d 8b3d
000000e0: cf16 ef3d 622a 8cbd 47e7 82be 2350 71be
000000f0: 3620 193f 32b5 efbd 5238 48be bbf7 0fbe

features.11.running_var f4 [64]
0.19008309 0.16309272 0.1620321 0.20444743 0.19417475 0.17794068 0.22111838 0.21636166
0.20391104 0.1745396 0.20021 0.15889929 0.1869126 0.1755366 0.1802292 0.120765254
0.16543065 0.13882038 0.17192519 0.18457352 0.17834866 0.18897486 0.15862559 0.21743856
0.17002827 0.16468512 0.19258705 0.14069209 0.17716266 0.1796695 0.20256017 0.17255557
0.13412538 0.18468152 0.17942813 0.17142782 0.16729476 0.19583075 0.17641447 0.14910759
0.21015202 0.2115898 0.18090072 0.20740484 0.1484854 0.16301683 0.1953437 0.14588809
0.18006569 0.20186515 0.17323622 0.20219246 0.17455737 0.13969553 0.18356927 0.17191507
0.16628169 0.19477971 0.18644731 0.15702689 0.17653844 0.18556425 0.18779086 0.19947779
00000000: 24a5 423e c701 273e beeb 253e ab5a 513e
00000010: bfd5 463e 1536 363e db6c 623e e98d 5d3e
00000020: 0ece 503e 82ba 323e da03 4d3e 7fb6 223e
00000030: 0466 3f3e debf 333e 018e 383e c653 f73d
00000040: a766 293e ee26 0e3e 280d 303e d700 3d3e
00000050: 08a1 363e a082 413e bf6e 223e 37a8 5e3e
00000060: e41b 2e3e 37a3 283e 8a35 453e 9611 103e
00000070: 216a 353e 48fb 373e ef6b 4f3e 68b2 303e
00000080: 2a58 093e 271d 3d3e 02bc 373e c68a 2f3e
00000090: 514f 2b3e db87 483e ffa5 343e a9af 183e
000000a0: 1732 573e ffaa 583e 0a3e 393e ef61 543e
000000b0: 8f0c 183e e2ed 263e 2e08 483e b063 153e
000000c0: 2463 383e bdb5 4e3e d664 313e 8a0b 4f3e
000000d0: 2bbf 323e 580c 0f3e 95f9 3b3e 810a 303e
000000e0: bf45 2a3e 5574 473e 0bec 3e3e a8cb 203e
000000f0: 7ec6 343e 8e04 3e3e 3f4c 403e e843 4c3e

embedding_layer.0.weight f4 [16, 64]
0.15680058 0.0022112415 0.03793313 -0.07860329 0.10821504 -0.09975325 0.07105066 -0.18158321
0.24508984 -0.22097768 0.13598828 -0.17319588 -0.031385127 0.037069697 0.11249383 -0.045634773
0.040049285 0.05349158 0.05763273 0.06275944 -0.0048870435 0.19877593 0.043664727 -0.18468043
-0.030820917 0.059618082 0.015963363 -0.074780874 -0.0068317554 0.053924866 -0.07955771 0.042978086
-0.06506125 0.107186064 0.11056955 0.023145866 -0.009964032 0.23347864 -0.1878413 0.08651118
0.040527742 0.054265838 0.16920505 0.009739119 -0.0169284 0.1667703 0.09829242 0.0021086256
0.19229372 -0.13431253 -0.005836677 0.25701457 0.017906103 -0.15112083 -0.019682817 0.0029601844
0.01337661 -0.0068447543 0.15197746 0.17557813 -0.1575288 0.1603458 0.053302795 0.17636146
0.17772773 0.0059559084 0.040549684 0.03194652 0.10354339 -0.052707475 0.09151891 -0.21809846
0.21728134 -0.113095276 0.06390224 -0.16663152 0.00025197506 0.08554859 0.075585485 -0.1923673
0.021331143 0.03888388 0.188879 0.14011726 0.013413848 0.25413138 -0.0054270015 -0.15416105
-0.1524224 -0.0126650045 -0.06082085 -0.1580575 -0.006138793 0.19535407 0.014505999 0.124127515
-0.1075312 0.061952014 0.22119549 -0.09557446 0.17170675 0.14312124 -0.21574412 0.05094306
0.07195265 0.014409756 0.0031193444 0.0046101697 0.05681527 0.16400668 0.020467434 -0.037913352
0.24264252 -0.110298485 0.0066700657 0.19815211 0.0042840797 -0.0820749 0.10548601 -0.0070812884
0.026356481 0.075696975 0.20930982 0.139367 -0.18525633 0.18225728 0.20890157 0.17203668
-0.10653279 -0.23765488 0.029607808 0.28770933 -0.07675269 0.009679731 0.20356894 -0.0048993467
-0.07406309 -0.08676065 -0.03496894 -0.119721845 0.14119932 -0.28066158 -0.19575077 -0.17194845
0.09738039 0.1669759 -0.21330062 -0.29307953 -0.062024385 0.104652755 0.16896585 -0.0004805852
0.075557575 0.040769115 0.163322 0.052632205 0.001164099 -0.024934247 0.18336709 -0.23265435
-0.10784022 -0.11496567 -0.10797765 0.09176347 -0.20279856 -0.2786665 0.038117167 0.022420792
0.17540099 0.11341089 -0.349254 0.076826714 0.1984455 -0.2591812 0.06182865 0.08470854
-0.18560839 0.24186543 0.16743717 -0.07918051 -0.10937564 -0.015515689 -0.25859445 0.0905346
-0.28740185 -0.3171321 -0.06766322 -0.1839247 -0.073090225 -0.21332555 -0.15426672 -0.08362354
-0.06935643 -0.09804935 0.07523984 0.09914768 -0.118054874 0.091547914 0.09632319 0.054805666
-0.08777889 0.08897354 -0.12139627 0.0095999595 0.17400087 -0.034697562 0.0020594103 0.04787615
0.14185399 0.14596984 -0.06897577 -0.042831667 0.10892974 -0.08740228 0.045491192 0.09930737
0.16287874 0.14202714 0.08004601 0.1738615 0.071592934 -0.089449175 0.134721 -0.06007183
0.036427993 -0.10362216 -0.13447219 0.052911974 -0.09098805 -0.051289394 0.1360576 0.087381974
0.13587494 0.13467982 -0.057231862 0.092425615 0.10388554 -0.026506266 0.101513594 0.14673357
-0.080698274 0.034544375 0.15600313 -0.12030544 0.13802578 0.16829893 -0.074255794 0.14011271
-0.011236829 -0.052441783 -0.07722412 -0.039871614 -0.013486551 -0.114496134 -0.14160961 -0.11857804
00000000: 5590 203e 7aea 103b c55f 1b3d c3fa a0bd
00000010: d99f dd3d 6f4b ccbd 0283 913d f3f0 39be
00000020: d5f8 7a3e f947 62be 8340 0b3e 435a 31be
00000030: b18d 00bd 65d6 173d 2a63 e63d 87eb 3abd
00000040: b80a 243d fd19 5b3d 4c10 6c3d 0588 803d
00000050: 7e23 a0bb eb8b 4b3e c9d9 323d de1c 3dbe
00000060: 267c fcbc 1732 743d 99c5 823c b726 99bd
00000070: ebdc dfbb 52e0 5c3d 27ef a2bd ca09 303d
00000080: d53e 85bd 5e84 db3d 4a72 e23d 669c bd3c
00000090: 2e40 23bc 0615 6f3e 7859 40be c62c b13d
000000a0: 6b00 263d db45 5e3d 1744 2d3e d390 1f3c
000000b0: 6ead 8abc d5c5 2a3e 894d c93d de30 0a3b
000000c0: a5e8 443e 3989 09be 9841 bfbb 6a97 833e
000000d0: d2af 923c 6bbf 1abe dc3d a1bc a7ff 413b
000000e0: 9229 5b3c f649 e0bb fb9f 1b3e c1ca 333e
000000f0: 3b4f 21be b031 243e 0854 5a3d 1998 343e
00000100: 42fe 353e c829 c33b 6d17 263d 5bda 023d
00000110: 8f0e d43d cbe3 57bd 446e bb3d 3455 5fbe
00000120: 007f 5e3e 7f9e e7bd 2ddf 823d 74a1 2abe
00000130: 851b 8439 1934 af3d 90cc 9a3d effb 44be
00000140: a6be ae3c b444 1f3d 7f69 413e e67a 0f3e
00000150: c2c5 5b3c 821d 823e fdd4 b1bb 65dc 1dbe
00000160: 9e14 1cbe e180 4fbc 491f 79bd d3d9 21be
00000170: ee27 c9bb e60a 483e 92aa 6d3c 9136 fe3d
00000180: 5139 dcbd 65c1 7d3d 1281 623e 8bbc c3bd
00000190: e5d3 2f3e 608e 123e 07ec 5cbe aca9 503d
000001a0: e95b 933d e616 6c3c ea6d 4c3b e810 973b
000001b0: 21b7 683d 5ef1 273e 52ab a73c 084b 1bbd
000001c0: 4877 783e 2ce4 e1bd 9190 da3b 63e8 4a3e
000001d0: 7761 8c3b e316 a8bd 0d09 d83d 270a e8bb
000001e0: 8ce9 d73c 0407 9b3d 5055 563e 39b6 0e3e
000001f0: d6b3 3dbe a7a1 3a3e 4bea 553e 622a 303e
00000200: dd2d dabd cd5b 73be 138c f23c a34e 933e
00000210: 8430 9dbd bc97 1e3c 6074 503e b38a a0bb
00000220: 64ae 97bd 91af b1bd 973b 0fbd ba30 f5bd
00000230: 8e96 103e e0b2 8fbe e472 48be 4113 30be
00000240: 5f6f c73d bbfb 2a3e 7a6b 5abe 850e 96be
00000250: 480d 7ebd 2f54 d63d 6205 2d3e 0ef7 fbb9
00000260: eebd 9a3d 84fd 263d e23d 273e de94 573d
00000270: ae94 983a e842 ccbc 95c4 3b3e f13c 6ebe
00000280: 55db dcbd 1f73 ebbd 6323 ddbd 7cee bb3d
00000290: 6daa 4fbe 60ad 8ebe bf20 1c3d cfab b73c
000002a0: 519c 333e f843 e83d 6cd1 b2be 5357 9d3d
000002b0: 4c35 4b3e 66b3 84be 0a40 7d3d ac7b ad3d
000002c0: 2010 3ebe 92ab 773e a674 2b3e 6429 a2bd
000002d0: 5600 e0bd 8435 7ebc 7e66 84be 346a b93d
000002e0: 5626 93be 235f a2be 0493 8abd c256 3cbe
000002f0: 54b0 95bd 0372 5abe 18f8 1dbe d242 abbd
00000300: be0a 8ebd 19ce c8bd 5817 9a3d f00d cb3d
00000310: c1c6 f1bd 797d bb3d 1845 c53d e87b 603d
00000320: 6bc5 b3bd c237 b63d 9c9e f8bd 2649 1d3c
00000330: 492d 323e 081f 0ebd 2cf7 063b c819 443d
00000340: 2c42 113e 1e79 153e 2b43 8dbd 4270 2fbd
00000350: 8e16 df3d f7ff b2bd f954 3a3d aa61 cb3d
00000360: afc9 263e 906f 113e 2aef a33d c008 323e
00000370: 519f 923d 2131 b7bd 4df4 093e e10d 76bd
00000380: 8535 153d db37 d4bd 14b3 09be 3aba 583d
00000390: f157 babd d414 52bd af52 0b3e 52f5 b23d
000003a0: cd22 0b3e 82e9 093e f56b 6abd a449 bd3d
000003b0: f1c1 d43d ab23 d9bc 5ce6 cf3d 5341 163e
000003c0: 2345 a5bd 677e 0d3d 49bf 1f3e b362 f6bd
000003d0: a156 0d3e 8e56 2c3e 6c13 98bd b579 0f3e
000003e0: ad1a 38bc 32cd 56bd ae27 9ebd 6b50 23bd
000003f0: b2f6 5cbc f37c eabd 1c02 11be 0bd9 f2bd

embedding_layer.0.bias f4 [16]
0.022438789 -0.008773433 -0.059639532 0.25805172 0.057273436 0.008637197 0.10766849 0.32246754
0.36012408 0.38182276 0.102474175 0.21162933 0.12444104 0.068614215 -0.117142886 0.0032827868
00000000: 8dd1 b73c 72be 0fbc 9548 74bd 5b1f 843e
00000010: 8d97 6a3d 0883 0d3c 4c81 dc3d 771a a53e
00000020: 2f62 b83e 467e c33e fbdd d13d 5cb5 583e
00000030: f2da fe3d 9c85 8c3d 9ce8 efbd 0624 573b

classifier.weight f4 [2, 16]
-0.27809834 -0.2430683 0.3079335 0.22081704 -0.15328802 -0.02020512 -0.24049976 0.3730352
0.2772456 0.2808795 0.09780011 0.080114484 0.2826399 -0.37514406 -0.20296277 -0.30062616
0.05943343 0.21618062 -0.25377566 -0.26524606 0.33457494 0.38018873 0.31227648 -0.4016711
-0.005709964 -0.08160323 -0.035944603 -0.40850168 0.11438099 0.103311196 -0.1251752 0.33711636
00000000: e862 8ebe e5e6 78be 76a9 9d3e dd1d 623e
00000010: 89f7 1cbe 3585 a5bc 9245 76be 78fe be3e
00000020: 23f3 8d3e 70cf 8f3e 6d4b c83d 1013 a43d
00000030: 2db6 903e e212 c0be 79d5 4fbe aceb 99be
00000040: 7870 733d 745e 5d3e e2ee 81be 55ce 87be
00000050: 684d ab3e 19a8 c23e b4e2 9f3e d6a7 cdbe
00000060: a61a bbbb 981f a7bd a63a 13bd 2227 d1be
00000070: 9540 ea3d d294 d33d ed2d 00be 849a ac3e

classifier.bias f4 [2]
0.094383895 0.05442461
00000000: 584c c13d 57ec 5e3d
