o02_train/run_outputs/58Bcnn_train_weights.pth (torch, 48171 bytes, 22 tensors)

features.0.weight f4 [16, 6, 5]
00000000: cc86 6d3f df26 143e 5469 1cbf decd 95bf
00000010: 0909 fabf 30f7 80ba a394 8cbe a1d8 9a3d
00000020: 2d87 9d3d a116 f9be ea16 f53e 7cbc f03d
00000030: 215e a33e f526 633e aec5 2f3e bb76 c2bb
00000040: c4e7 f43c a8e2 2abc 1586 96ba 6674 b23b
00000050: d569 2abe 137b 583d c011 34bd 3271 ed3d
00000060: d94f 193c df92 b8be ec5d 47bd 5777 62bd
00000070: 73b3 553c 5fef fabe 7bfd 3ec0 610a 51c0
00000080: 7bd1 05c0 6ad9 6bbf 7745 ce3e 160b 5b3f
00000090: 0476 af3e 98c1 253e c7bb 40bd 0ee1 003e
000000a0: b7b4 f23d c2f7 d33d 7467 413e 3b32 1e3f
000000b0: c0b1 693f dac7 d3bc a8ea 9d3d 822e b0bd
000000c0: 9c3b d03c 8ee5 153d d91d 9bbd 573a d7bd
000000d0: ffd9 08bd d34e 723e 64e0 c5bc c577 53bd
000000e0: 51f9 3c3b bf1a f7bc 678c f43d 89b3 13be
000000f0: 7f1a 2dc0 34f5 24c0 0586 dbbf 6314 8dbf
00000100: 8bb4 bfbe 4ab1 4b3f c35c 523f d38d 39be
00000110: 4d8b 01bf ee07 80bf 1930 03bf 621d fbbe
00000120: ee39 21be 1c5a a53e b8e9 273f 9ea4 a6bb
00000130: bdd8 4d3c 181f a93d baac 0ebd dbe1 293e
00000140: e9d0 3fbe b8fd 16be f50b 313e cec2 88bd
00000150: dff3 1abc b608 edbd c5c7 a53d be44 e8bd
00000160: d41c a6bd 9597 453b 1221 3f40 539f 1b40
00000170: 2f58 cc3f 9c7f 063f 9615 bbbe 58ac 56bf
00000180: 9f4f 1fbe 0bcb e3bc ce12 253f 015b 4d3f
00000190: 4bf9 943e d4bd 4e3e f38a 26bd b2e5 b6be
000001a0: b0fc 2dbf 7b62 31bd f395 33bd 001e a63c
000001b0: 9c06 47bd f55e 93bd 7331 e1bc e91d ffbd
000001c0: 2908 8bbb 9e50 18be 67f6 8abd fe3c 0abe
000001d0: 1d49 bfbd a1a2 95be 8ea2 5dbe 0128 a1bd
000001e0: fac1 0bbe 1ae0 343f 3f31 d73f 4cff 0040
000001f0: ab08 0840 d0f8 073f 2e68 023f 45cc c63e
00000200: e0b2 a93d e458 fabe 613f 2c3f 8b69 473f
00000210: 8c9f ce3e 2b41 c23e 7d55 8b3e 0603 9abd
00000220: cd3b 15bc 0415 ec3b abb7 b23d 7870 6b3d
00000230: e463 1dbe 8eba 7cbe e390 1b3c b4db 6bbe
00000240: c7d0 6bbe a26f 4c3d eced 873d 7082 ba3d
00000250: 5e3d 313e 1160 173c cb62 bfbe 5baf 8a3e
00000260: f13b 3fbd 65e3 06be 8a04 063f 0964 bf3e
00000270: 16a5 fa3d 300c a2bd 19a4 0c3f 9cb2 793f
00000280: f33a 78bf 29b3 7abf 2b8b 04bf 07ab 63bf
00000290: 30aa 8ebf caa1 903d 93c9 debd 18e5 2f3d
000002a0: c66c 3f3d d6d7 06bd ea29 1fbe e07c 183e
000002b0: 56d4 4c3e 802c c5bd b1f5 a6bd c143 93bd
000002c0: 0903 90bd d94f 1b3e 0a0f 193e 9fcb 28be
000002d0: 5b7f 0740 b7f6 a93f 453f 073e 976b 8abf
000002e0: 24cf ccbf e115 42bf 87e9 4bbf 59b7 4dbf
000002f0: bdd6 65bf 938e 2abf 8b73 5a3f 41eb 1f3f
00000300: 48f9 263f 6414 293f 844b 373e 6759 16bd
00000310: decc 01bc 23b2 3f3d 4b49 873d c574 313d
00000320: 9067 01be 5e56 50bd cd19 a03d 65c5 ad3d
00000330: 26d6 de3c 1748 4abe e53f 243c 5efa dc3b
00000340: de0c 70bd 450b 8cbe e391 ef3f 0325 983f
00000350: b859 ebbc 1801 51bf c03e aebf 48cc ef3f
00000360: a76d e43f c89f 763f ae82 f23e bc2c 4b3e
00000370: ff7a 6dbf e3b4 1ebf 2548 f5be 894c b0be
00000380: 0bae 03bf dcc2 063e 479e e83d 25a2 303d
00000390: cfda cebd f5c7 89bd 0ace c0be 9c49 543d
000003a0: 2133 073e 7dad f03d a694 7b3d b782 0f3d
000003b0: 30e0 a7bb 2469 2abd ee59 893c 8bcb c63a
000003c0: adf8 6c3e d49b 183f e1cc 8a3f 118c 8d3f
000003d0: 494c b63f 02bc fcbf 8daf 1cc0 3638 d4bf
000003e0: d041 ddbf 496b b1bf ea26 cc3f e772 d03f
000003f0: 76cc c53f 05e5 af3f bc54 a03f 9def abbd
0.9278381 0.14467953 -0.6109822 -1.1703451 -1.9534007 -0.0009839293 -0.2745715 0.0756085
0.07691798 -0.48650077 0.47869045 0.117547005 0.31907752 0.2218283 0.17165253 -0.005934564
0.02989567 -0.010430016 -0.0011484051 0.0054460047 -0.16641934 0.052851748 -0.04396224 0.11593856
0.009357416 -0.36049554 -0.048673555 -0.055289593 0.013043272 -0.4901075 -2.9842212 -3.2662585
-2.0909107 -0.9212862 0.40287372 0.8556379 0.34269726 0.16187131 -0.04705408 0.12585852
0.11850875 0.103499904 0.1888712 0.61795396 0.9128685 -0.025852133 0.07710773 -0.08602621
0.025419049 0.036595874 -0.07574052 -0.10509174 -0.033411022 0.23662882 -0.02415485 -0.051627893
0.0028835128 -0.03016412 0.11940842 -0.14423956 -2.7047422 -2.577466 -1.7150275 -1.1021847
-0.3744243 0.79567397 0.82172793 -0.18120508 -0.5060318 -1.000242 -0.51245266 -0.49045855
-0.15744755 0.3229531 0.65591 -0.005085542 0.012563881 0.08257884 -0.034832694 0.16590063
-0.18732037 -0.14745224 0.17289717 -0.06677781 -0.009457557 -0.11573927 0.08094744 -0.113412365
-0.08110967 0.0030150164 2.9863935 2.4315994 1.5964411 0.52538466 -0.36539906 -0.83856726
-0.15557717 -0.02780678 0.6448182 0.80216986 0.29096445 0.20189601 -0.040659856 -0.3572212
-0.67963696 -0.04330681 -0.043844175 0.020277977 -0.048590288 -0.07195846 -0.0274894 -0.12456877
-0.004242916 -0.14874503 -0.06785279 -0.13499829 -0.09340117 -0.29225639 -0.21644041 -0.07868958
-0.13648215 0.7065445 1.6811904 2.015582 2.125529 0.5311403 0.50940216 0.3882772
0.08286071 -0.48895943 0.6728421 0.7789542 0.403561 0.37940344 0.2721366 -0.07520108
-0.009108496 0.0072046537 0.08726438 0.057480305 -0.15370136 -0.2468054 0.009494993 -0.23033029
-0.23028861 0.04991115 0.06637177 0.0910691 0.17308566 0.009239213 -0.3738006 0.2708691
-0.046688024 -0.13172682 0.52350676 0.37381008 0.12238519 -0.07912481 0.54937893 0.9753816
-0.9696495 -0.97929627 -0.51774853 -0.8893284 -1.1145687 0.07062109 -0.10878291 0.04294309
0.046734594 -0.03292068 -0.15543333 0.14891386 0.20002875 -0.09627628 -0.08152331 -0.071906574
-0.07031829 0.15167178 0.14947143 -0.16483925 2.1171482 1.3278416 0.13207729 -1.0814084
-1.6000714 -0.75814635 -0.7965321 -0.8035789 -0.8978079 -0.666238 0.85332555 0.62468344
0.65224123 0.6604674 0.178999 -0.036706354 -0.007922379 0.046800744 0.066057764 0.04332425
-0.12637162 -0.050863616 0.07817421 0.08484916 0.027201723 -0.19754063 0.010024999 0.0067437133
-0.05860602 -0.27352348 1.8716396 1.1886295 -0.028729305 -0.81642294 -1.36129 1.8734217
1.7845963 0.96337557 0.47365326 0.19841284 -0.927658 -0.6199476 -0.47906604 -0.34433392
-0.51437443 0.1316027 0.11358314 0.043123383 -0.10100328 -0.06727592 -0.37657195 0.051828012
0.13203098 0.1175184 0.06142106 0.03503677 -0.005123161 -0.041604176 0.016766515 0.0015166862
0.23141737 0.59612775 1.0843774 1.105837 1.424203 -1.9744875 -2.4482148 -1.6579654
-1.7285709 -1.3860866 1.5949376 1.6285065 1.5453022 1.3741766 1.2525859 -0.08395312

features.0.bias f4 [16]
00000000: a69b 843d e729 d5bd bf82 14bd 2d83 843d
00000010: aabb debd 6215 3ebe bab4 8e3d 7877 9b3d
00000020: 89c3 373e e88d 803d 3c61 a5bc 351e 013e
00000030: aaed 583d 9d97 2a3d a3f1 ac3b 3f50 4bbd
0.06475 -0.10408383 -0.0362575 0.06470332 -0.10875638 -0.18562844 0.069680646 0.07591146
0.17945684 0.062770665 -0.020187967 0.1260918 0.05296103 0.041648496 0.005277829 -0.049637076

features.1.weight f4 [16]
00000000: ac4a 613f 2f39 733f 0bb1 513f d226 723f
00000010: b5cf 413f 687a 523f ce84 6c3f 86d3 5a3f
00000020: cfe5 523f 4fd8 5b3f 1641 6e3f cc9e 603f
00000030: 4d92 563f 1706 5b3f 5de7 4e3f 3968 443f
0.88004565 0.9500913 0.8191077 0.94590485 0.7570756 0.8221803 0.92390144 0.8547901
0.8238191 0.85876936 0.93068063 0.87742305 0.8381699 0.8555617 0.8082178 0.7672153

features.1.bias f4 [16]
00000000: fa1e 72be fc05 b2be 2c84 65bd 79b4 84bb
00000010: e77a 76be faaa b2be 41b4 99bd 41f1 07be
00000020: 8775 cdbd cfbf e5bb 74bb d7bb 9315 c7be
00000030: 3709 a3bc a2a3 e1bd 9ea1 cdbb 76a6 78bc
-0.23644629 -0.3477019 -0.056034252 -0.0040498343 -0.24070321 -0.3489607 -0.07505084 -0.13275625
-0.10032182 -0.0070113908 -0.0065836255 -0.38883647 -0.019901855 -0.110175386 -0.00627537 -0.015176406

features.1.running_mean f4 [16]
00000000: 11e0 f53c 8018 dcbd e5ec 2ebd 4f5e ed3c
00000010: 4816 b5bd dd0f 3bbe 9f56 5b3d 03c5 a03d
00000020: 9f76 353e 23f7 673d 7b59 24bd b0b6 fa3d
00000030: ae2d 2e3d dc87 113d 3bd0 a73b f6dd 62bd
0.03001407 -0.107468605 -0.04270639 0.028975634 -0.088421404 -0.1826777 0.053549405 0.07850077
0.17721032 0.056632172 -0.040124398 0.12241876 0.042524032 0.035529956 0.0051212586 -0.05538746

features.1.running_var f4 [16]
00000000: 6842 c044 a68e 0a42 cdc7 ab43 b2dd bc44
00000010: eafc 4744 ba12 6f41 3caf 0644 93d7 5443
00000020: a956 b942 e131 bf44 39fd 1f44 e6aa 2a42
00000030: 161b f143 9107 3743 5d3b 9b44 5b24 5b43
1538.0752 34.639305 343.56094 1510.928 799.9518 14.942072 538.73804 212.84209
92.66926 1529.5587 639.9566 42.666893 482.2116 183.02956 1241.8551 219.14201

features.5.weight f4 [32, 16, 3]
00000000: 0dfd b43d 7795 ed3d 4804 c7bb d3c0 dbbd
00000010: d62f 98bd 542b c5bd 0017 f8bc 36b5 713d
00000020: f176 133e 3a2e f23d 3f1b e2bd 7853 d1bc
00000030: c44f d5bd a0b3 83bd 8be3 4ebd 5fee 78be
00000040: dee0 11be 8e31 6bbe 14ad b4bc 81c6 47bd
00000050: 24b5 e43d 514c 20be 876a 0fbe 06d7 15be
00000060: e17c 1dbe bc8b 26bd f170 27bd 2205 6b3a
00000070: f3c8 643b 801b 06be 1f38 143e 8af7 af3d
00000080: 7919 4bbc 6111 40bd d1f5 abbd 75fc 02be
00000090: 0b85 1b3c cfaf 1e3e a5f8 1d3e b228 e63d
000000a0: e353 b1bd e48e 6c3d 4326 48bd 1022 403e
000000b0: 1120 b93c d270 d0bd 9c37 9bbc ff01 ff3c
000000c0: 2b36 b0bc 6fbf 26be 537a d9bd c6e2 db3d
000000d0: 5037 7c3e 5ec2 5d3d cd9a 3b3d 7d5a ef3d
000000e0: bd94 a93c a6d7 b53d fa1c ebbc c993 18be
000000f0: 1933 363d 3434 c7bc 120a 0dbd 63de 463d
00000100: fd0d afbd 64de 933d 27f7 f4bd a0ff 62be
00000110: c945 2abe 2ffd 4dbe cadb 7cbd 747d c5bd
00000120: 0260 0cbe ff99 58be b2c9 e0bd fa17 1e3d
00000130: ccbe ab3b 709f 75bb 8ee4 c9bd f548 18be
00000140: 0ab3 4fbe f347 f53d 2307 01be c81f c0bd
00000150: a23e 373a 8e06 c5bd 7f45 ae3d e075 4a3d
00000160: 3638 4dbd b3ad c43d 0999 3ebe 7497 05bd
00000170: 3ec5 f63d 7547 46bd 7933 2bbe fcae 60bd
00000180: 5c3a 213d d429 ab3d 0927 debc b185 8ebc
00000190: fc1d e83c 9f12 06bd 1411 d2b9 7686 e2bc
000001a0: d37f 23bd 2d88 29be 298b a1be 21a0 72be
000001b0: 19eb 9f3c ed73 46bd 0279 c5bd f255 a53d
000001c0: c9fc 923d ecd7 693d c6e4 073e b53f d73d
000001d0: ea54 8b3d a022 403e c2a7 b3bd 82b8 cebd
000001e0: 0aa1 0f3e d7c5 0db8 3649 5cbd 5c02 9f3c
000001f0: df08 21be d27d bebd 7e48 2fbe 529b 58bd
00000200: 3da1 d4bd 3e25 013d 6414 abbd 8fbe 0abd
00000210: 9a3a 80bd 8cbc 10be 67a6 2abe 9d9e 7dbd
00000220: 29b7 d9bb 575d 1ebd fd28 8dbd 6fb5 efbd
00000230: a9d4 10be fa2c 0cbe f762 73be d72f 4cbe
00000240: f445 ecbd df5c 21be 66ae 833c 8b5c c73d
00000250: 9405 53be aadc 04be fdbb 023c 3219 cabc
00000260: 202d 6dbc cc2c f2bc 0b6a 393e 4a67 093d
00000270: e7ec c03d 8cf1 97bb 9b79 f43b 499f 843d
00000280: fa46 22bd 431a c1bd bc2d 2cbe f5b1 c1bd
00000290: f5f7 57be 8a17 f3bd 9f2b 9fbd ca81 97bd
000002a0: 06e4 2c3d e37f 9ebd 96fd 4bbe 5ba9 703c
000002b0: 6488 a93d 527e bfbb 857c 1dbe 62cb ccbd
000002c0: a04a 52bd 9682 cd3d b92e 37bd 2d2a 8d3e
000002d0: 8187 94bc ac96 b2bd dfcc 84bd 9520 283d
000002e0: e6e1 893d ac08 203d da40 a8bc ec85 a33d
000002f0: e02c 193d 948b 97bc b8e7 16be 6cfb 11be
00000300: 9612 37be 80d6 25be e34f a4bc 6edb 843e
00000310: a9ec ab3c fb79 583e e011 c13a 8819 8a3d
00000320: 1cfe 193e 83c0 cebd 007d 73be 382d afbc
00000330: a406 8d3d 9481 7fbb c854 80bd be4b 14be
00000340: 8207 8ebd b2d6 12be 93c5 febc de9a 71bc
00000350: 6c08 49bd be36 c23d 736b 523d 20bf c13c
00000360: 8283 c5bd 2f83 c6bd 1415 003c c9fd bc3c
00000370: bd98 89bd 3482 f4bd c508 e6bc cea3 5bbd
00000380: b786 cdbb 7907 40bd ce0f e5bc c9ed bd3d
00000390: 6604 8e3d efbc 8f3d a05f 9f3d 30f7 8dbe
000003a0: 1cbd 87be 8e0c 44be bd83 823d 5f0a 9fbd
000003b0: 11aa 26be 164d 73bd 2b88 f5bc 2a09 8abd
000003c0: e98d 12be 706f bdbc d293 163e ad53 8f3b
000003d0: 5f3c afbd 9bb4 1dbe 29d9 21bd 153e 053d
000003e0: b9bf 31be 9f58 b4bd 6d8b 473e 728d 95bc
000003f0: 8a06 69be 4503 64bc 2fb5 9f3c c12a d13d
0.08837328 0.11600774 -0.0060735084 -0.10730138 -0.07430999 -0.09627405 -0.030284405 0.059010707
0.14400841 0.11825223 -0.11040353 -0.025552496 -0.10415605 -0.06430745 -0.05050997 -0.24309681
-0.14245936 -0.22968122 -0.022055186 -0.048773292 0.11167362 -0.15654112 -0.1400548 -0.14632806
-0.15379669 -0.040660605 -0.040879194 0.00089653034 0.0034909814 -0.13096428 0.14474533 0.08592136
-0.01239621 -0.046891574 -0.08396495 -0.12791617 0.009492169 0.15496753 0.15426882 0.11238231
-0.08658578 0.05775346 -0.048864614 0.18762994 0.022598298 -0.10177769 -0.018947415 0.031128881
-0.021510204 -0.16283964 -0.106190346 0.10736613 0.24630475 0.05414044 0.045801926 0.11687181
0.020700807 0.08879022 -0.02870034 -0.14900126 0.044482324 -0.024316885 -0.034433432 0.04855193
-0.0854759 0.07220152 -0.11961203 -0.22167826 -0.16628183 -0.20116113 -0.061733045 -0.09643069
-0.13708499 -0.21152495 -0.1097597 0.038597085 0.0052412506 -0.0037479065 -0.098580465 -0.14871581
-0.20283142 0.11976614 -0.12600379 -0.09381062 0.0006990229 -0.09620391 0.08509349 0.04942882
-0.050102435 0.09603443 -0.18613066 -0.03261514 0.1204934 -0.04840799 -0.16718854 -0.054854378
0.039362296 0.083575875 -0.027118223 -0.017397733 0.02833461 -0.032732602 -0.00040067045 -0.027652007
-0.039916825 -0.16555853 -0.31551483 -0.23693897 0.019521283 -0.0484504 -0.09642221 0.080730334
0.07177121 0.057090685 0.13270864 0.10510198 0.068033054 0.18763208 -0.08772232 -0.10093786
0.14026275 -3.3801272e-05 -0.053780757 0.019410305 -0.1572604 -0.09301342 -0.17117497 -0.0528825
-0.10382316 0.031529658 -0.083534986 -0.033873137 -0.06261177 -0.14134425 -0.1666504 -0.061918844
-0.006644149 -0.038663235 -0.068925835 -0.117045276 -0.14143623 -0.13689032 -0.23768221 -0.19940124
-0.1153678 -0.15758084 0.01607437 0.09734448 -0.20607597 -0.12974802 0.00797939 -0.024670217
-0.014476091 -0.029562376 0.18106858 0.03354577 0.094201855 -0.004636949 0.0074607856 0.06475694
-0.03961847 -0.09428837 -0.16814321 -0.09457771 -0.21090682 -0.11869724 -0.07771992 -0.07397802
0.042209648 -0.07739236 -0.19920954 0.014688815 0.082779676 -0.005843916 -0.15379532 -0.0999973
-0.0513407 0.10034673 -0.044722293 0.2757124 -0.01813102 -0.08720145 -0.064843886 0.041046698
0.0673254 0.03907077 -0.020538736 0.07984528 0.03739631 -0.018499173 -0.14736831 -0.14256066
-0.17878184 -0.16195107 -0.020057624 0.25948662 0.020986872 0.21140282 0.0014730059 0.06743151
0.15038341 -0.100953124 -0.23778152 -0.021383867 0.06886032 -0.0038987147 -0.06266171 -0.14482018
-0.06935026 -0.14339712 -0.03110007 -0.014746396 -0.049080297 0.094830975 0.051372003 0.023650706
-0.09644224 -0.0969299 0.007817525 0.023070233 -0.06718586 -0.11938897 -0.028080354 -0.053623013
-0.006272163 -0.046882126 -0.027961638 0.092738695 0.06934433 0.07018458 0.07781911 -0.27727652
-0.26511467 -0.19145414 0.06372783 -0.0776565 -0.16275813 -0.059399687 -0.029972157 -0.06740029
-0.14311947 -0.023124427 0.14704826 0.0043739886 -0.08556437 -0.15400927 -0.03951374 0.03252991
-0.17358293 -0.08805966 0.1948678 -0.018255923 -0.227564 -0.013916795 0.019495575 0.10213233

features.5.bias f4 [32]
00000000: 7587 fcbd ccca 1fbd 63f2 ecbc 53cc 59be
00000010: 6709 ac3d 4f35 0fbe 4b55 b33d c6e6 a13d
00000020: 1e58 6cbc bd2c 41bd c856 13be 58eb 90bd
00000030: 3a05 273e 0249 ba3c f342 5c3b d9da b23d
00000040: 505c 3e3e 7890 163d f300 dd3c f815 1b3d
00000050: cf0b 44bd 5455 1ebe 2847 c8bd 2bc5 e6bd
00000060: c138 f13d 1f35 c03d 0e1d e9bd 56f9 42be
00000070: e770 f43c c5fa eebc a061 033e fde9 a33d
-0.12330524 -0.03901176 -0.028924173 -0.2126935 0.08400231 -0.1398518 0.08756503 0.07905345
-0.014425306 -0.047161806 -0.14388573 -0.07076138 0.16310588 0.022739891 0.003360924 0.08733148
0.18589902 0.03675887 0.026977992 0.037862748 -0.047862824 -0.15462238 -0.09779197 -0.112680756
0.11778403 0.09385132 -0.11382495 -0.19040427 0.029838992 -0.02917231 0.1283021 0.08003614

features.6.weight f4 [32]
00000000: 7285 513f 9d5b 593f 6a19 783f 8e9b 463f
00000010: f3ae 573f fce4 453f e5ee 563f c488 553f
00000020: e90e 463f 1166 6b3f f888 703f e14d 543f
00000030: 6e86 593f 5bde 5d3f adaa 603f b10f 5c3f
00000040: a1a2 4c3f 3b4c 623f 9807 693f 70bb 513f
00000050: c020 6e3f e731 653f 40b8 723f 946f 593f
00000060: 3849 6c3f f9ab 493f 2bb2 583f 3d4d 533f
00000070: d589 4e3f 716a 5d3f 3383 4c3f c0bf 663f
0.81844246 0.84905416 0.9691378 0.7758111 0.84251326 0.7730253 0.83958274 0.8341181
0.773665 0.91952616 0.93959 0.82931334 0.8497075 0.8666741 0.8776043 0.85961443
0.7993565 0.8839757 0.9102721 0.8192663 0.9301872 0.8952927 0.94812393 0.8493588
0.9229922 0.78778034 0.8464686 0.8253973 0.80679065 0.8649054 0.79887694 0.9013634

features.6.bias f4 [32]
00000000: 5509 a33c dee5 0cbe 73db 3bbe 8fa5 0cbe
00000010: df65 24be a920 52be 8f5b 15be a73b 66be
00000020: 696d 41be 894c cdbd ae16 23be 5531 28be
00000030: 87ac 6a3d 1d74 0dbe 45f4 1abe fa3a 2dbe
00000040: 1cbe 49be 8ad1 16be 252a 5bbe 322b d13c
00000050: a193 73bd 539e 53be 22e5 84be 857f 2ebe
00000060: 6547 053d 5fd8 93be bf24 e9bd 084b 88be
00000070: 3569 3bbe e5b0 3ebe 42a6 82be 5154 88be
0.01990191 -0.13759562 -0.18345432 -0.1373503 -0.16054486 -0.20520271 -0.14585708 -0.22483693
-0.18889393 -0.100243635 -0.1592662 -0.16425069 0.05729344 -0.13813825 -0.15132244 -0.16917029
-0.19701427 -0.1472837 -0.21402796 0.025533292 -0.05946696 -0.20665865 -0.25956064 -0.17040832
0.03253879 -0.28876016 -0.11383962 -0.26619744 -0.18301852 -0.18622167 -0.2551747 -0.26626828

features.6.running_mean f4 [32]
00000000: 8834 8bbe bec1 d6be fa80 08bf 34a8 fabe
00000010: f411 64be 8d35 09bf 4280 77be 5aff 4dbe
00000020: c28b 9f3d 2177 05bf 2f5c 37bf 2902 25be
00000030: a76d a7be 1c9d 5cbe fca9 5abe 5f89 63be
00000040: 71eb 923e 0f87 a9be 9377 02bf 59f5 49be
00000050: 0246 e9be a22e 05bf c0cb 0abf 9cd8 ccbe
00000060: 40d0 09bf b923 2ebe 5582 35bf 9122 19bf
00000070: 04dc 94bc 63b3 acbe eb1d ccbd 32f3 acbe
-0.27188516 -0.4194469 -0.533218 -0.48956454 -0.22272474 -0.53597337 -0.2417002 -0.2011694
0.077903286 -0.521349 -0.71625036 -0.16114105 -0.32700846 -0.21544307 -0.21353906 -0.22220372
0.28695253 -0.33110854 -0.50963706 -0.19722499 -0.45561224 -0.5202428 -0.5421715 -0.4000901
-0.5383339 -0.17005815 -0.70901996 -0.5981837 -0.018171318 -0.3373061 -0.09966644 -0.33779293

features.6.running_var f4 [32]
00000000: 0164 ba3e 6f48 763f efc7 883f b109 2e3f
00000010: 53bf 203f 59d1 6d3f 6aff 5f3f 914b 3f3f
00000020: 11d6 983e 0b12 833f 6b78 cc3f 380a 9f3e
00000030: 2b36 dc3f fa07 293f 8779 023f 4daa 5b3f
00000040: 2929 7c3e 1ce9 2f3f 97dd 703f 5407 193f
00000050: c568 a53f 12b4 6d3f 858e 883f a264 2e3f
00000060: c79f 3240 04da 273f 71be 0940 248b 693f
00000070: 1795 d63e c8ad 513f ec66 043f 727c 1e3f
0.36404422 0.96204275 1.0686015 0.6798354 0.6279194 0.92897564 0.87499106 0.7472468
0.2985082 1.0239881 1.5974249 0.31062484 1.7204031 0.66027796 0.50966686 0.85806733
0.24625076 0.6871507 0.9408812 0.59776807 1.2922598 0.9285289 1.0668494 0.68122303
2.791002 0.6556704 2.1522486 0.91227937 0.41910622 0.81905794 0.51719546 0.6190864

features.10.weight f4 [64, 32, 3]
00000000: 3ed2 e4bd 0917 1cbe a0a4 32be 5578 36be
00000010: 6c5b b93b c9aa 81bd 4886 bc3c 2110 843d
00000020: 028c f7bc f706 ffbd c81b b8bd d588 32be
00000030: f6e4 2fbe fe54 30be 047b 1abe 3821 95bd
00000040: 820e 01be 8dcd d7bc f696 f7bd 5bd0 5ebd
00000050: 7842 49bd f7e4 febd 9465 9dbd 04c1 0bbe
00000060: 36ad 563d 93d0 4d3c cf03 f53c 03f7 4b3d
00000070: 3856 3e3d e25e bf3d ce00 fdb9 acdb c2bb
00000080: 3060 b13d e80a 6d3d 2c73 a83c 35df 2a3d
00000090: 9a9f 253e 2706 db3d 4f55 d93d a891 b5bd
000000a0: 54cf e0bd 49f1 f4bd 8cbb 04be 4202 02bd
000000b0: c106 b6bd 0a1d a7bd 631a 3abd 62a5 f5bd
000000c0: 169e 123d 5a2b 3e3d e29d dd3d cf99 ca3d
000000d0: fa8a c83d 9da3 fe3d 0b67 bb3b eb87 6b3c
000000e0: b533 9e3b 410f 30bd 75b6 213d 556f 903c
000000f0: 9ad0 113e 5c34 e83d ca03 2b3e 55cf 34be
00000100: 3079 89bd 76fd 5bbd 1dc4 c93d b894 203d
00000110: 282e 923d f8da f5bd fa7c 10be 3d6c fabd
00000120: 63cf d13d 8f0e cebc 6b47 923c 421b b4bd
00000130: 886b 5cbc 7761 c2ba a227 a33d 7242 603d
00000140: b3fe 373d 4417 433e 5581 6e3d 96ca cf3c
00000150: 3b42 b33d 62cc 403d 107a a43d c744 debd
00000160: 59f4 f4bc 3e48 a4bc 2eb4 ed3d d4b6 073e
00000170: 30b1 233e 6cc1 cf3d 48a8 e0bc 743d 81bc
00000180: e74b aab9 79c0 09bb 01d4 b9bc bf9d 013d
00000190: a1ce 5c3d f853 813d f3af 5ebd 33d0 dbbc
000001a0: d918 90bc a636 df3d d765 a93d b045 b03c
000001b0: 3458 01bd afd8 a63c af79 c83d 3278 ac3d
000001c0: 3e59 0e3e d12e de3d db34 a43d b347 253e
000001d0: 60a3 f13d 73a5 163e 2b5c 323e 526e 033e
000001e0: 3f4b 1cbd f23c 09bd 1dfc 8abd daba 30bd
000001f0: b6e8 abbd 5781 a1bd ed01 a1bd 0fda 24bd
00000200: a76e 37bd f847 28bd 2111 11bd f9e2 00be
00000210: abfb c6bd f96d b2bd df60 c4bd b4f0 e53d
00000220: ccab e93d e7a3 503d d883 023d 1021 453d
00000230: f1b8 833d d504 de3d 3cd4 373e 2335 2c3e
00000240: a120 64bd b51d bbbc 2125 e2bc 52f0 69bc
00000250: ba2f 74bd 5a08 3ebd 9d2f 85bc 3d4f fb3b
00000260: 377b 10bd 44d1 d8bd b933 9ebc 6869 4cbd
00000270: 1e11 eebd b4f0 50bd ded8 8dbd 2a5e d73d
00000280: ca56 ac3d ea25 9a3d d391 363e a2f8 023e
00000290: 80bb 813d 5c86 bb3d 568b a23d 523c 1a38
000002a0: 672c babd f468 b0bd db01 aabd f2ca f43d
000002b0: e645 8f3e 9d90 803e 2803 d2bd 8857 a6bd
000002c0: 01c1 47bd 51f4 08be 706f 60bd 707e c8bd
000002d0: 673b 25bd a3c9 4cbd 361a 74bd ee03 893c
000002e0: 10b8 cd3d c6fc ba3d 906e 18be e082 46bd
000002f0: 694b 3cbd 09d5 6a3c aa62 8b3c 651b 86bb
00000300: 3429 fbbd 93b4 c3bd c714 a3bd 7f22 3abd
00000310: ff92 c63c 1466 3dbb f65b 453e f8a0 7a3d
00000320: 2f9a b93d cc54 cfbc 2c72 e23c e089 d5bd
00000330: 3561 cd3c a7ad aa3d 6523 563d cade b03d
00000340: e911 d23d f282 853d 162a 49bd 5cb2 c0bc
00000350: d32e 7fbc ff2e 8dbd 04c5 1ebc 07c1 b23c
00000360: 5a0f 1d3d 3c68 c8bb 97d0 2ebd 2ee3 933d
00000370: 78c6 f03d 060f cebc 3a43 a83e a9c8 713e
00000380: dc40 fa3d 84cb b33d fa06 f63d de95 d33d
00000390: 873b 23bd add4 093d ab51 143d e409 e3bd
000003a0: af43 18bd 4030 bbbd a514 37be 0e20 f3bd
000003b0: a5d0 debd ba63 a4bc cf5a 9bbc 5f57 58bd
000003c0: 83a6 9fbb 3b46 77bc 490f 51bc b3ac c1bd
000003d0: 896f 72bc dccb 303e ecc0 663e c914 0d3e
000003e0: 5371 fd3d 1a66 1dbe 0198 04be 57c1 0cbe
000003f0: 1b7b 64bd dba9 1f3d 2416 b8bc afe1 643c
-0.11172913 -0.15243162 -0.17445612 -0.1781934 0.0056566503 -0.06331403 0.023013249 0.06448389
-0.030218128 -0.124525 -0.08989674 -0.1743501 -0.17177185 -0.17219922 -0.15085989 -0.072817266
-0.1260319 -0.026343131 -0.120893404 -0.054397922 -0.049135655 -0.12446015 -0.0768539 -0.13647848
0.05241128 0.012561935 0.029909043 0.049796116 0.046468943 0.09344269 -0.0004825652 -0.005946597
0.086609244 0.05787173 0.02056273 0.041716773 0.16174164 0.10694533 0.106119744 -0.08865672
-0.10977045 -0.11960084 -0.12962168 -0.031740434 -0.08888007 -0.08159836 -0.04543532 -0.11994435
0.035795294 0.046428062 0.108211294 0.09892618 0.09792133 0.124335505 0.005719071 0.014375667
0.0048279413 -0.042983297 0.039480645 0.017631212 0.14239731 0.11338112 0.16700664 -0.17657216
-0.06712568 -0.053708516 0.09851859 0.03920433 0.0713771 -0.120046556 -0.14110175 -0.12227676
0.10244634 -0.025153426 0.01785632 -0.087942615 -0.013453372 -0.0014830072 0.07966544 0.054750867
0.044920634 0.19051844 0.05822881 0.025365155 0.08752867 0.047069915 0.08031094 -0.10852962
-0.02990167 -0.020053979 0.11606632 0.13253337 0.1598556 0.10144314 -0.027423993 -0.015776373
-0.00032481478 -0.0021019264 -0.0226841 0.03164458 0.053907994 0.06314844 -0.054367017 -0.026832676
-0.017589973 0.10899095 0.082713775 0.021517605 -0.031578258 0.020366995 0.09788834 0.08421363
0.1390123 0.10848773 0.08017894 0.16140632 0.117987394 0.14711551 0.17417972 0.12835053
-0.038157698 -0.033505388 -0.06786368 -0.043146946 -0.083939955 -0.07885998 -0.078616954 -0.04024702
-0.04478326 -0.04108426 -0.035416726 -0.12586583 -0.097159706 -0.08712382 -0.09588789 0.11227551
0.11409721 0.05093756 0.031864017 0.048127234 0.06431759 0.108407654 0.17952055 0.16817145
-0.05569518 -0.022841314 -0.027605595 -0.014278488 -0.059615828 -0.046394683 -0.016258055 0.007669358
-0.035273757 -0.10586789 -0.019311773 -0.04990521 -0.116243586 -0.051010802 -0.0692613 0.10516007
0.08414991 0.07526763 0.17829065 0.12790158 0.06334591 0.091564864 0.079367325 3.677264e-05
-0.090905 -0.08613768 -0.08301135 0.11952771 0.27983016 0.2511033 -0.10254508 -0.08122164
-0.048768047 -0.1337445 -0.054793775 -0.09789741 -0.040339854 -0.049996983 -0.05959531 0.016725507
0.10044873 0.09130244 -0.14885926 -0.048464656 -0.045970354 0.014333018 0.01701482 -0.004092621
-0.12263718 -0.09555926 -0.07962947 -0.045443054 0.024240015 -0.0028899955 0.19273362 0.061188668
0.09062611 -0.025308989 0.027642332 -0.10426688 0.025070766 0.08333903 0.05227985 0.08636244
0.10257322 0.065191165 -0.049112402 -0.023522548 -0.015575129 -0.068937294 -0.009690527 0.021820558
0.03834472 -0.0061159413 -0.042679396 0.072210655 0.11756605 -0.025153648 0.3286379 0.23611702
0.12219402 0.08779052 0.120130494 0.10331319 -0.03985169 0.03365009 0.036210697 -0.11085871
-0.037173923 -0.09140062 -0.17878969 -0.11871348 -0.108796395 -0.020067085 -0.0189642 -0.0528177
-0.0048721447 -0.015092428 -0.012759992 -0.09456768 -0.0147971 0.17265266 0.22534531 0.1377746
0.123751305 -0.1537098 -0.1294861 -0.13745628 -0.055781465 0.038980346 -0.022471495 0.013969823

features.10.bias f4 [64]
00000000: 7698 493c e22d e2bc 94ee bc3d 51df b1bd
00000010: 83fd 4ebd fdf9 7a3d 47bf 0ebc fae2 04bd
00000020: 5c18 003e 6a7e 74bc 99e4 203a d75c 9fbc
00000030: ff08 f23b 44cd c6bc 721e d0bd 005c c43d
00000040: e177 f93d 5ea2 413d 27b6 26bd 6d96 ac3d
00000050: 059f 593d 4238 4f3d da5f e5bd 26d4 2d3d
00000060: 5d41 243d a137 9f3d e099 21bd 1faa abbc
00000070: dea1 9e3d 5c26 95bd 71f9 e43d d3a8 c63c
00000080: 3a15 94bd 021f a9bd 93ca 1e3d 917d e43c
00000090: fb4f aa3c 5658 f8bc 57ec 04bc 4e3d 89bd
000000a0: 116d ba3d 5721 ce3d 5917 56bd 69a8 91bd
000000b0: a0e7 0b3d d065 20bd 8b99 f0bd bdd4 4b3d
000000c0: fd15 323c 1f57 f63c 0f00 c7bc ceff 9cbb
000000d0: ae75 113d 9b2e 883d 34f1 463d 3bfb 4e3c
000000e0: f371 96bd 865f 0e3d 71c9 97bd 6702 693d
000000f0: f322 6a3d f22c c2bc 6bf1 d0bd fd66 b73d
0.012304416 -0.02760977 0.09225193 -0.08685172 -0.050534736 0.061273564 -0.008712596 -0.032443024
0.12509292 -0.014922718 0.00061375793 -0.01945345 0.0073863263 -0.0242678 -0.10162057 0.0958786
0.12181068 0.047273986 -0.040701058 0.08427129 0.05313017 0.05059076 -0.11199923 0.04243865
0.040101398 0.07774282 -0.039453387 -0.020955143 0.077457175 -0.07282707 0.1118039 0.024250424
-0.07230611 -0.082578674 0.03876741 0.027891906 0.02079009 -0.03031556 -0.008112988 -0.06701146
0.09102834 0.10064953 -0.05226836 -0.071122 0.03415644 -0.039159596 -0.11748036 0.04976343
0.0108695 0.03007084 -0.02429202 -0.0047912365 0.03551262 0.06649514 0.048569873 0.01263314
-0.07345953 0.034759067 -0.07411469 0.056887057 0.057162236 -0.023703072 -0.10202297 0.0895519

features.11.weight f4 [64]
00000000: 32e2 703f 29ff 553f 0203 773f 6fd5 6a3f
00000010: e8e0 5e3f 6c97 6c3f 676c 693f 3eb7 7d3f
00000020: d278 523f 48ad 723f 0af2 593f b6f5 7b3f
00000030: c51d 773f e7be 683f 6d4a 603f 1e06 5b3f
00000040: b531 653f e8fb 6f3f 1729 7a3f 7d3e 633f
00000050: c0a8 6b3f 8fb5 573f c9bb 6a3f c80c 743f
00000060: ae40 6c3f f1f1 683f 45fe 703f b37d 623f
00000070: 3544 653f 3616 683f 005e 6f3f 4ef9 5e3f
00000080: 1fca 6a3f a03a 593f b6cb 633f fc67 693f
00000090: 3294 723f 082d 6b3f c2d4 703f 1ee3 5e3f
000000a0: a6c2 603f 7f1c 7a3f d6ef 603f f6c5 753f
000000b0: 621f 733f 592a 653f 84e4 6a3f 3462 643f
000000c0: cf08 613f 06c9 643f 3e9a 713f 9509 523f
000000d0: d212 763f 087d 703f 4d4d 5e3f a7c5 723f
000000e0: bd7f 5e3f a95f 583f 0d7b 5b3f ac0f 5c3f
000000f0: 2b47 773f de56 533f 33fa 583f f2c8 503f
0.94095147 0.8359247 0.96488965 0.91731924 0.8706193 0.9241855 0.91181034 0.9910773
0.8221561 0.94795656 0.8513495 0.984218 0.965298 0.90916294 0.87613565 0.8555621
0.8952897 0.93743753 0.9771895 0.88767225 0.9205437 0.8426141 0.9169279 0.95332
0.92286193 0.90994173 0.94137985 0.8847305 0.895572 0.9065889 0.9350281 0.8709916
0.9171466 0.8485508 0.88982713 0.9117429 0.9475738 0.9186559 0.9407464 0.87065303
0.8779701 0.9769973 0.8786596 0.9600519 0.9496976 0.8951774 0.9175494 0.89212346
0.87904066 0.8936924 0.9437598 0.8204587 0.9612247 0.9394078 0.868367 0.94832844
0.86913663 0.84520966 0.85734636 0.85961413 0.9659297 0.82554424 0.84756774 0.8155662

features.11.bias f4 [64]
00000000: baa2 0bbe 83b4 bdbe bfac 8c3d ab9c 4a3b
00000010: 78ea b5be bfbc 3dbb c135 ff3b eda1 1cbe
00000020: 1e81 c4be 8d27 26be 4178 b9be b5ce edbd
00000030: 068f 613d 4ade 99be 8a5f aebe c550 d1be
00000040: e715 773c 5d76 883d 34e0 56be e0e4 9cbe
00000050: 10ce be3c 882b bebe 5ca3 d43b 6e6d 01be
00000060: 4a4f c1bd 4f94 ae3c ccd8 553c 155f 073d
00000070: 62ca a9bc e279 7cbe cd8b 193d 0030 adbe
00000080: e885 f5bd b0e5 babe a5c7 9abe dd59 5cbb
00000090: ca26 80be 583e d8bc 3780 b43d 8a74 9abe
000000a0: e26a d4bc 1800 9f3d f017 b7be 64ec 113d
000000b0: afc9 f73c 8454 98be 5dd8 5fbe 2d7a 013d
000000c0: 4de2 aebe 808c 15bc b6ac 1c3d d250 c0be
000000d0: eac8 4e3d d051 67be 685c b7be 9e8f 3d3b
000000e0: 0248 a8be fd02 abbe 15c0 adbe 3f41 a6be
000000f0: d3c7 55be a90c bdbe 7ec1 bbbe 344a babe
-0.13636294 -0.37051782 0.06868886 0.0030916135 -0.35530448 -0.0028951613 0.0077883904 -0.15296145
-0.3837976 -0.16226025 -0.3622456 -0.11611692 0.05506804 -0.30052406 -0.34057266 -0.40881935
0.0150809055 0.06663201 -0.20983964 -0.30643368 0.023291618 -0.37142587 0.0064892005 -0.126394
-0.09438951 0.021310953 0.013052177 0.03304966 -0.020726386 -0.2465587 0.03748684 -0.33825684
-0.11988431 -0.36503363 -0.30230442 -0.0033622899 -0.25029594 -0.026396915 0.088135175 -0.30167037
-0.025929872 0.0776369 -0.3576045 0.03562583 0.030247537 -0.2975198 -0.2185988 0.031610657
-0.3415703 -0.009127736 0.038250647 -0.3756166 0.050484575 -0.22589803 -0.35812688 0.0028924714
-0.32867438 -0.33400717 -0.3393561 -0.32471654 -0.20877008 -0.3692372 -0.3667106 -0.36384737

features.11.running_mean f4 [64]
00000000: 3b60 013d 04ad 34be 61d5 ac3e f2f4 073f
00000010: dc31 eebe 3096 493f 75de 843e 1cad d03c
00000020: 073d 2bbe ab54 8a3e 48b3 09bf 264d 67be
00000030: 6fe3 ce3e 669c 82bb 94e3 4fbd 9bf4 b0be
00000040: 7a66 093f ed41 313e 86d5 34be 759d 933d
00000050: 5bc8 9c3e 0b4c c3be 13e9 223f 5fcd c63d
00000060: b81c 03be 02cf e43d 681c 4f3e 69b7 713e
00000070: f345 d03e 72be f0be 6172 103e 6644 58be
00000080: 2656 f8bd d86f a1be b2d6 babe 9647 923e
00000090: e64c e53d ec56 253f 026a ef3e 37bc debe
000000a0: e135 ed3e e0e5 f73e 1012 3ebe 1660 e23e
000000b0: a8ae 9d3e 690e 49be c22a 02bf 2a52 693e
000000c0: 4c53 d5be 4719 fd3e 4045 853e 18f4 efbe
000000d0: 350c 413e 3dcc 863d 3758 7ebe cd02 e23e
000000e0: d2de 11be dc19 81be 5584 c8be 538f a5be
000000f0: 0601 a73e a52b 5bbe c23c 0dbf 578d aabe
0.031585913 -0.17644125 0.33756545 0.5310813 -0.46522415 0.7874479 0.2595097 0.02547317
-0.16722499 0.27017722 -0.53789186 -0.22588024 0.40407893 -0.0039859293 -0.050754145 -0.3456162
0.5367199 0.17310305 -0.17659578 0.07207767 0.3062161 -0.38143954 0.63636893 0.0970714
-0.12803924 0.11172296 0.2022568 0.23605122 0.40678367 -0.47020298 0.14106132 -0.21119842
-0.121258065 -0.31530643 -0.36491925 0.2857024 0.11196308 0.6458576 0.46760565 -0.43502972
0.4633017 0.48417568 -0.18561578 0.44213933 0.30797315 -0.19634403 -0.50846493 0.2278525
-0.41665113 0.49433348 0.26029396 -0.46865916 0.18852313 0.06581924 -0.24838339 0.44142762
-0.14245155 -0.25215042 -0.3916346 -0.3233591 0.32617968 -0.21403368 -0.55170834 -0.3331096

features.11.running_var f4 [64]
00000000: 523d 0b3e 37bb 063e ba16 1e3e acf9 1e3e
00000010: fc0f 3b3e fd37 213e 8611 193e 0421 2a3e
00000020: bbdf 253e 2b60 183e 102b 473e ac57 093e
00000030: 8ec9 2d3e 1a28 1c3e 98d0 033e e2f8 3f3e
00000040: 7567 233e b86c 133e f75a 063e d9c4 123e
00000050: 45b1 073e bc8a 383e e7fe 413e 1534 1f3e
00000060: e0ad 163e 2100 043e 68b7 2d3e 7e1c 0a3e
00000070: 6f55 2f3e 2cbc 133e eb65 153e 094c f53d
00000080: 3cd1 123e 2c14 283e f34a 2e3e fe3f 203e
00000090: 794a 0b3e 8db7 303e 75bb 1a3e 5188 3d3e
000000a0: c392 0b3e b3c1 423e 79ef 053e 7432 1d3e
000000b0: 4eec 133e 8c6b 153e 40fa 283e 500f d13d
000000c0: d1e3 313e c06e 0f3e 20b7 263e 382b 3e3e
000000d0: cb0d 183e 7287 123e 3697 2e3e 8056 103e
000000e0: c09a 0b3e 816e 213e 0f6b 343e dbcb 1d3e
000000f0: 5973 223e 16dd 063e 9c11 2a3e bc8e 213e
0.1359761 0.13157354 0.15438357 0.1552493 0.18267816 0.15744014 0.14948091 0.16614157
0.16198628 0.14880435 0.19450021 0.1341235 0.16971418 0.15249673 0.12872541 0.18747285
0.15957434 0.14396942 0.13120638 0.14332904 0.13251217 0.18021673 0.18944894 0.15547211
0.14714766 0.12890674 0.16964495 0.13487431 0.17122434 0.1442725 0.1458966 0.11977393
0.14337629 0.16413945 0.17020778 0.15649411 0.13602628 0.17257519 0.15110572 0.18509032
0.13630204 0.19019203 0.13079633 0.15351278 0.14445612 0.14591807 0.16501713 0.10207999
0.17372061 0.14007092 0.16280794 0.18571174 0.14849012 0.14309481 0.1704987 0.14095497
0.13633251 0.1576481 0.17618965 0.15409796 0.15864314 0.13170275 0.1660828 0.15777105

embedding_layer.0.weight f4 [16, 64]
00000000: aba7 0ebe af9e 8ebd 7bab eb3c 51ea 42be
00000010: 9f60 0f3d 3058 12be 8fcb e83a 0f3b b0bd
00000020: 5b72 103e aa80 5abe c853 e13d 2051 0cbe
00000030: e25f 80bd 490c 813c b8ca cb3d 38aa 593e
00000040: e080 09be 7ce0 133d d2cd 573c 2b21 b43d
00000050: e09d 253b 0743 513e 2e43 a3bd 3d9f 30be
00000060: a0a2 19be 3327 34bd 5ce3 863d cfec 18be
00000070: 57bf bebc d96a bd3c 4a20 39bd e864 653d
00000080: e141 15be a221 ab3d 1576 0a3d 20bc a6bd
00000090: 7e9a 833a 0203 9bbd 28ab 3bbe 9ad8 e23d
000000a0: 56b4 2abe 4422 cbbc 9dc7 273e f94a b1bd
000000b0: 0583 05be 9682 263e b785 523e 47eb fbbd
000000c0: b821 303e b134 14be f0bb 523d 193f 1a3e
000000d0: 2235 383d 07c2 85bd 0773 fd3c 883c 38bd
000000e0: 3da1 503c c8de 043d 62c0 473d 7b04 0e3e
000000f0: 0cd8 18be e7da 233e af82 9a3d 47a3 f43d
00000100: e3d0 cfbd 1b46 87bc 7a57 763d cd25 09bd
00000110: c8a0 9b3d 5fd4 8fbd 4929 8f3c c2d6 3dbe
00000120: 8dcc f63d 31cd f7bd 0d0c ad3d a155 08be
00000130: 0484 aa3c f6c4 5b3d f8e5 d73d 764c 333d
00000140: 4abf 4ebd c457 703d 15b5 273e 79df 173e
00000150: 838f 043d 61be 6a3e 2888 82bd 333e 02be
00000160: 6238 5bbe 5bf6 84bc 2d94 343d 6166 d1bd
00000170: 7c15 cc3c 1d15 113e da00 553d 8b27 083e
00000180: f41c 65be 54ba 723d ba39 6a3e 6616 23be
00000190: 543e 143e 2cdd 55bd 89d6 35be e3d2 0e3e
000001a0: b84b 42bd 34fa a83d ec2c a43c 8b5b 1e3b
000001b0: ff05 943d b4e9 2e3e 7d0b c73d e94f c6bd
000001c0: 951b 883e ae52 f1bd 0d88 d93d d182 e13d
000001d0: 3b3b c83d f44a ba3d d107 083e 4800 3cbd
000001e0: d6cd 843d d030 9c3d 7730 253e 9115 273e
000001f0: c652 3abe c2d4 133e 841f 7a3e 0d9e 0b3e
00000200: 9734 12be aad3 f7bd 1346 18bc 146d 0f3e
00000210: a4e5 70bd 7d64 823d 4eed 123d 5016 edbe
00000220: a860 14be 4a39 d1bd 4fa8 c3bb ae31 c9be
00000230: 578e 6f3e e588 a1be 8cb0 45be bded 23be
00000240: 3adf 963d bd2c 103e 7df5 6dbe 9ccb e3be
00000250: a26c a53d 1755 7abc 8f1c 1d3e ce75 a0be
00000260: 0dd1 8bbe 9366 25bd 65bc 483e 579e c43d
00000270: 4459 a23d fd46 113d d8f4 0a3e a1eb 2bbe
00000280: 84dc 63be b862 b4bd 9941 ea3c e2c7 183d
00000290: 7713 90be 1dcc 743d c545 163e 572d 46be
000002a0: 0c5f 0d3e 7c20 3c3d b1e2 8bbe d683 de3d
000002b0: e15f 2f3e 069b a0be e14d 94bc b731 293e
000002c0: 6c8b 07be bd0b a83d 27fb 683e e170 e3bd
000002d0: 85f9 c83d eb51 8cbe 81e2 4ebe 6831 5e3d
000002e0: 9bcf 66be 650a 9bbe 1073 36be 45b9 8ebc
000002f0: 37dc c4bd b872 a0be ba40 10be 6c78 3dbc
00000300: 4e67 e73d 6c59 acbd e6df 3d3d b134 c53d
00000310: 0a00 c3bd 5f6d 853d da24 1e3e 4075 803d
00000320: d59b c8bd 8af2 bb3d f4a4 07be 3862 213c
00000330: 9336 093e 94a4 61bd ca46 3cbd 2bad ccbd
00000340: ad46 263e 4f1c 0d3e 4f83 263c 9015 81bd
00000350: a208 bf3d 92b9 04be 6219 b33b e576 b03d
00000360: b7fd 823d fd99 053e f387 7e3d 17d9 f13d
00000370: db3c 0f3d 95de 0dbc 2136 1a3e 1457 c3bc
00000380: ed36 1f3d 060e bfbd 2b01 b2bd a160 583d
00000390: 59a8 b3bc cc80 173e 505f 293e cdc0 a1bd
000003a0: f330 e53d a60d ef3d b2d0 d4bd 8e45 b83d
000003b0: 8d45 9d3d eb07 65bd 7c8a 5ebc 2f0b ac3d
000003c0: b1fe c8bd 9513 713c 139b 053e 7f8f f6bd
000003d0: 7b3b 183e 6934 9f3a e77c a9bd a990 e23d
000003e0: 17f8 33bd 77b5 47bd 047a e3bd 240c 9cbd
000003f0: 2974 8bbc 7a6c d9bd 1b3d a0bd 48a1 15be
-0.13931148 -0.0696386 0.028768292 -0.19034697 0.035004254 -0.14291453 0.001776086 -0.086050145
0.14106123 -0.21338144 0.11002308 -0.13702822 -0.06268288 0.015752928 0.09950775 0.2125634
-0.13428068 0.036102757 0.01317163 0.08795389 0.0025271103 0.20435725 -0.07971798 -0.17248245
-0.15003443 -0.043982696 0.06586334 -0.14934085 -0.023284597 0.023122238 -0.04519681 0.056004435
-0.14575912 0.08356024 0.033804018 -0.08141351 0.0010040549 -0.07568933 -0.1832701 0.1107647
-0.16670355 -0.024796613 0.1638474 -0.08656878 -0.13038261 0.16260752 0.2055882 -0.12300735
0.17200363 -0.14473225 0.051448762 0.15063132 0.044972546 -0.065311484 0.030938638 -0.044979602
0.012733755 0.032439023 0.048767455 0.13868897 -0.14926165 0.16001473 0.07544457 0.11945205
-0.10147264 -0.016512921 0.060142018 -0.033483315 0.07599026 -0.070229284 0.017475741 -0.18538955
0.12050734 -0.12099684 0.08449564 -0.13313915 0.020814903 0.053654633 0.1054191 0.04377409
-0.050475396 0.05867745 0.16377671 0.14831342 0.032363426 0.22924186 -0.06373626 -0.1271904
-0.21408227 -0.016230753 0.044086624 -0.10224605 0.024912588 0.1416821 0.052002765 0.13296334
-0.22374326 0.059259728 0.22873583 -0.15926513 0.14476901 -0.05221288 -0.1775762 0.13947634
-0.047435492 0.082508475 0.020040952 0.002416345 0.07227706 0.17081338 0.09718988 -0.096832104
0.26583543 -0.11783348 0.10621653 0.110112794 0.09776922 0.090963274 0.13284232 -0.045898706
0.064845726 0.07626498 0.16131769 0.1631682 -0.18195638 0.1443663 0.24426085 0.1363451
-0.14277874 -0.121009186 -0.009294051 0.14006454 -0.058812752 0.06366823 0.035870843 -0.46306086
-0.14489996 -0.10216005 -0.0059709917 -0.39295715 0.23394142 -0.31549755 -0.19305629 -0.16008659
0.07366796 0.14079566 -0.23238178 -0.4449128 0.08077361 -0.015279076 0.15342925 -0.31339878
-0.2730793 -0.040381026 0.19603117 0.096005134 0.07927182 0.03546809 0.13569963 -0.16789104
-0.22252089 -0.088078916 0.028595733 0.037299998 -0.2813985 0.05976497 0.14675052 -0.19353233
0.13805789 0.045929417 -0.2732139 0.108649895 0.17126419 -0.31368273 -0.018103542 0.16522871
-0.13236779 0.08205364 0.22752057 -0.11105514 0.09813217 -0.27406248 -0.20203592 0.054246336
-0.22540133 -0.30281368 -0.1781733 -0.017422328 -0.09612315 -0.31337523 -0.14087191 -0.011564355
0.11299001 -0.08415493 0.046356104 0.09629191 -0.09521492 0.065150015 0.15443745 0.06272364
-0.097953476 0.0917712 -0.13246518 0.009850077 0.13399725 -0.055088595 -0.045965947 -0.09993967
0.16237898 0.1378033 0.010163142 -0.06302941 0.093278185 -0.12961414 0.0054656724 0.08616427
0.063960485 0.13047023 0.06214137 0.11808985 0.034970146 -0.008659025 0.15059711 -0.023845233
0.03887074 -0.09328847 -0.08691629 0.052826528 -0.02193086 0.14795226 0.16540265 -0.07898102
0.11190977 0.11672525 -0.10391368 0.089976415 0.076792814 -0.055915754 -0.013582822 0.084005706
-0.098142035 0.014714141 0.13047437 -0.120390885 0.1486644 0.0012146357 -0.08275776 0.11062748
-0.04393777 -0.048757043 -0.11107257 -0.07619503 -0.017023163 -0.106163934 -0.07824155 -0.14612305

embedding_layer.0.bias f4 [16]
00000000: 2fcb 913d 258f 58bc fcad b7bb 2000 a13e
00000010: af2e 253c 73b1 0d3d 7982 a13d 88fd a23e
00000020: 5dec a33e fa5a b93e 0a46 f53d 2c70 b73e
00000030: 4624 2d3e b30b c63d f1ed cfbd efe1 003b
0.07118832 -0.013217722 -0.0056054574 0.31445408 0.010081931 0.034593057 0.07886214 0.31834054
0.32016268 0.36202222 0.119762495 0.35827768 0.16908368 0.096702 -0.101528056 0.0019665917

classifier.weight f4 [2, 16]
00000000: 52df 92be cdaa 78be 4a9f ea3e df17 623e
00000010: a62c b0bd 05a4 35bc 73b2 68be 01c8 c33e
00000020: cd6e 763e 921b 7e3e 945e d23d d651 833d
00000030: 8b41 943e 076e c9be cb62 7ebe fbac 87be
00000040: 27e7 8a3d c10b 5d3e 84e8 cebe c5cf 87be
00000050: 5afd 883e 4673 be3e 8624 993e 7379 d2be
00000060: 7a95 003d dd6a 46bd 87b1 26bd 587c c9be
00000070: 3ed2 dd3d 1daa f73d 5dd6 a4bd d56f 9a3e
-0.28686005 -0.24283905 0.45824653 0.22079419 -0.08602266 -0.011086469 -0.22724323 0.38238528
0.24065705 0.24815205 0.102719456 0.06412093 0.28956255 -0.39341757 -0.24842374 -0.2649916
0.0678237 0.21586515 -0.4041177 -0.26525703 0.26755792 0.37197322 0.29910678 -0.41108283
0.031392552 -0.048441757 -0.040696647 -0.3935268 0.10831116 0.120929934 -0.08048699 0.30163446

classifier.bias f4 [2]
00000000: 03ef 353e 0489 e9bc
0.17766957 -0.028507717
