o02_train/run_outputs/64Acnn_train_weights.pth (torch, 48171 bytes, 22 tensors)

features.0.weight f4 [16, 6, 5]
00000000: 6c79 773f ecfc 7b3e 4942 f9be 201a 91bf
00000010: 0ff3 fdbf 9330 543c 3590 83be 9a70 be3d
00000020: fb94 673d b7d4 04bf 832f 033f 1372 053e
00000030: fa01 a33e ed5a 663e 5047 133e 264c 31bb
00000040: 62f5 f13c 54ad 37bc 4a90 aabb e719 0e3c
00000050: 32c5 35be 6911 3f3d 98f5 42bd 7296 f23d
00000060: cf08 c73c 4717 ccbe cb80 8dbd 1fa2 81bd
00000070: df13 8c3c 3993 04bf de1e 47c0 b0ca 59c0
00000080: b9ea 09c0 43ec 63bf f758 053f 3ede 2d3f
00000090: 3ddf 823e 039e 103e e69f 46bd 02ee 4b3e
000000a0: 65bf 4b3e ca6c 273e 4330 693e 34df 243f
000000b0: 358b 643f d500 febc 7a7c b13d 170a babd
000000c0: c998 7f3c e198 243d 1d62 9cbd 31ff efbd
000000d0: 158a e2bc 134b 763e 945e c9bc d0b4 63bd
000000e0: 20ae dab9 291f e7bc e817 003e 963d 1cbe
000000f0: 1ed2 37c0 b433 31c0 ffd1 f2bf 3f6a a0bf
00000100: 6368 e6be 587f 413f 6fa9 453f 4d15 8abe
00000110: c109 11bf 4029 8fbf 6350 08bf 4109 f8be
00000120: 52d9 ffbd 8082 be3e c405 303f c55b 883c
00000130: b53c 263c 3a1b 903d fc8b e6bc 8132 2f3e
00000140: 1ab8 50be db0e 21be cf4b 2f3e 988e 74bd
00000150: d4d1 59bc 073e f4bd f9fc a03d 2b22 ecbd
00000160: 4194 b0bd 17aa 86bb ca6c 4a40 e529 2540
00000170: 633c dd3f 82db 1d3f ead9 a7be b59e 6cbf
00000180: dab1 40be 057b f2bd e478 143f 3866 503f
00000190: 605e ab3e c9ae 5c3e eae8 e5bc c6ea b7be
000001a0: 2a09 3ebf fda9 32bd 2563 20bd 1468 983c
000001b0: c98e 71bd 829f a1bd 1f7a b3bc b1ea 09be
000001c0: c20a f93b 7d37 09be fa33 7dbd 3dda f4bd
000001d0: d09c bfbd 9d81 9bbe a622 6dbe e7fe a3bd
000001e0: 93ea 43bd 5684 5a3f b2b0 e83f dec8 0740
000001f0: 8adc 0d40 20f9 133f 140c 0b3f 6006 cd3e
00000200: 85d5 ca3d aee7 fdbe d976 153f 7fb6 283f
00000210: 8b7e 823e 61f2 713e 7dff e83d c10b 8abd
00000220: 2707 1cbb 675c 263c f4ef af3d 31cb 523d
00000230: 275b 35be 3e12 87be 5bee e4bb 9cbc 61be
00000240: a082 65be 9e05 763d 12c0 963d 4143 c23d
00000250: 9a4a 373e 5da2 b93c 61dd dbbe 1518 0e3e
00000260: da7b 3ebe 4d09 4fbe 6cdf eb3e bdf5 c63e
00000270: 8bb8 b13d ee64 d1bd caa7 073f 3f20 7b3f
00000280: 82b5 76bf 8dec 73bf e2e6 03bf 504a 6dbf
00000290: eba0 93bf 16de 933d 5119 edbd b2d4 6c3d
000002a0: d7c7 7c3d f924 09bd 1a31 19be 0aa1 273e
000002b0: a51c 503e 7d85 c8bd 20c2 b6bd 8bdc 9bbd
000002c0: a5d3 92bd a2e2 1a3e ee05 183e b072 26be
000002d0: d325 0f40 96da b03f 7cec cb3d 1fba 9abf
000002e0: 025b debf b907 65bf c2dd 75bf 0d37 61bf
000002f0: ae41 72bf 5c75 41bf 02fd 803f bd86 433f
00000300: 0522 3c3f 5769 383f d46d 7e3e 6ef1 1fbd
00000310: 857e 1cbb 8ce7 6b3d f500 9d3d f69f 793d
00000320: 07ee ecbd 9fdb 5dbd 05aa 9e3d 0b7a b33d
00000330: b8c8 bd3c 8d04 43be eb40 f23b 2d6f 1cbc
00000340: 3beb 8ebd 580c 8abe a0ab ff3f 77bd a33f
00000350: 722e 8abb be46 52bf b53b b0bf cf83 f63f
00000360: 1a0f ea3f 3ab4 743f b5cb e43e c9eb 413e
00000370: 8002 78bf 2138 2bbf 840c 03bf 1453 babe
00000380: 15ab 06bf c5a9 193e 65ab ff3d 2907 533d
00000390: 2504 c5bd 9bfa 82bd 7555 c3be 4eff 3a3d
000003a0: fed9 093e 0013 f03d dfc4 793d 1ef4 1a3d
000003b0: bde5 9bbb 5829 fcbc bcdf ce3c 2eec 14bb
000003c0: 5815 673e cd6e 1d3f 8503 903f faa3 953f
000003d0: 0ccd bc3f efc9 05c0 c869 27c0 a82b e4bf
000003e0: f455 edbf e61b c3bf 0307 ca3f 0ca5 d43f
000003f0: 6b8c cc3f 3a53 b53f 8889 a43f e656 a3bd
0.9666965 0.24608201 -0.48683384 -1.1336098 -1.9839801 0.012951034 -0.2569596 0.09298821
0.056538563 -0.5188708 0.5124437 0.13031797 0.31837445 0.22495623 0.14382672 -0.0027053445
0.029535953 -0.011210758 -0.005205189 0.008673168 -0.17751005 0.046647463 -0.047597498 0.118451014
0.024296192 -0.3986151 -0.06909331 -0.0632975 0.017099319 -0.51787144 -3.111259 -3.402996
-2.1549513 -0.8903238 0.52088875 0.6791724 0.25560942 0.14122777 -0.048492335 0.19915012
0.1989723 0.16350093 0.22772317 0.6440308 0.89274913 -0.031006256 0.0866632 -0.09083956
0.015600392 0.04018486 -0.07635901 -0.11718596 -0.027653733 0.24052076 -0.024581231 -0.055592358
-0.00041709933 -0.0282131 0.1250912 -0.15257868 -2.8721995 -2.7687807 -1.8970336 -1.2532424
-0.45001516 0.75584936 0.7721166 -0.26969376 -0.5665551 -1.1184464 -0.5324766 -0.4844456
-0.124926224 0.3720894 0.687588 0.016645322 0.01014631 0.07036443 -0.028142922 0.1710911
-0.20382729 -0.15728323 0.17118762 -0.0597063 -0.013294656 -0.11925893 0.07860751 -0.115299545
-0.08622027 -0.0041096318 3.16289 2.580682 1.7284054 0.6166307 -0.32783443 -0.9242967
-0.18817845 -0.1183987 0.57996964 0.81405973 0.3347044 0.2155105 -0.028065164 -0.35921305
-0.74232733 -0.043619145 -0.03915705 0.018604316 -0.05897406 -0.07891752 -0.021908818 -0.13468434
0.0076001594 -0.13400073 -0.061817147 -0.11955688 -0.093560815 -0.30372325 -0.23157749 -0.08007603
-0.04783113 0.8535818 1.8178923 2.121635 2.2165856 0.5780201 0.54315305 0.40043926
0.09904007 -0.4959082 0.5838447 0.65903467 0.2548717 0.23627616 0.113768555 -0.06740523
-0.0023807974 0.010153866 0.08590689 0.05146331 -0.17710553 -0.26381105 -0.006986422 -0.22044605
-0.2241311 0.06006395 0.07360853 0.09485484 0.17899552 0.022660429 -0.42942336 0.13876374
-0.18601933 -0.20218392 0.46068895 0.38859358 0.08677777 -0.10224329 0.529904 0.9809608
-0.9637071 -0.9528282 -0.51524174 -0.92691517 -1.1533483 0.07220094 -0.11577094 0.05782003
0.06171402 -0.033482525 -0.14960137 0.16370025 0.20323427 -0.09791086 -0.08923745 -0.076104246
-0.07169274 0.15125516 0.14846012 -0.16254687 2.2366836 1.3816707 0.09957215 -1.208805
-1.7371523 -0.8946491 -0.960415 -0.87974626 -0.9463147 -0.755697 1.0077212 0.7637747
0.7348941 0.72035736 0.24846584 -0.039048605 -0.0023879122 0.057593867 0.07666198 0.060943566
-0.115688376 -0.054164525 0.077472724 0.08763512 0.023167 -0.19044705 0.0073929927 -0.009547991
-0.069784604 -0.26962543 1.9974251 1.2792195 -0.0042169625 -0.82139194 -1.3768221 1.9258975
1.8285859 0.95587504 0.44686666 0.18937601 -0.96878815 -0.6688252 -0.5119097 -0.3639151
-0.526048 0.15006168 0.12483863 0.0515205 -0.09619931 -0.063954554 -0.38151136 0.045653634
0.13462064 0.11722374 0.060978767 0.037830465 -0.0047576115 -0.030781433 0.02525317 -0.0022723782
0.22566736 0.61497194 1.1251074 1.1690667 1.4750075 -2.09045 -2.6158314 -1.7825823
-1.8541856 -1.5242889 1.578339 1.6612868 1.5980352 1.4166024 1.2854471 -0.07975559

features.0.bias f4 [16]
00000000: e339 ab3d abc8 8d3c 10da 4c3c c4fe 3fbd
00000010: 38a5 fabd abb5 aebd 2b17 a23d d605 033d
00000020: e61b 733e 97c9 f23d 5d65 52bb 5ebd b93d
00000030: 0d42 003e 9028 71bc f050 a93d 3abb e23b
0.083606504 0.0173076 0.012503162 -0.046873823 -0.12238544 -0.08530744 0.07914575 0.031987987
0.23741111 0.118548565 -0.0032103874 0.09069322 0.12525196 -0.0147191435 0.08267391 0.006919292

features.1.weight f4 [16]
00000000: b60a 603f b145 6c3f 462c 4f3f 18d0 713f
00000010: 0a71 413f a52d 523f 2a07 6d3f 8283 5b3f
00000020: 371d 513f 609f 553f 51b7 6e3f e997 5e3f
00000030: 46bf 553f 1d7c 5b3f 62c6 473f 85c3 423f
0.87516344 0.9229384 0.8092693 0.9445815 0.7556311 0.821009 0.92589056 0.8574754
0.81685203 0.8344631 0.9324847 0.86950547 0.83494985 0.85736257 0.78037083 0.7607959

features.1.bias f4 [16]
00000000: 9b7b 80be 5a15 bebe ed70 c6bd b99f 38bc
00000010: 92a2 65be d187 b1be fd05 5abd 7045 20be
00000020: 325f cdbd 99fd 533c 1da5 22bb 52fd c7be
00000030: 0c0c 45bc 50e2 a7bd 4b63 b6bc 0d5e 09bc
-0.25094303 -0.37125665 -0.09689508 -0.01126855 -0.22425297 -0.34673932 -0.053228367 -0.15651488
-0.10027923 0.01293888 -0.0024817653 -0.39060456 -0.012026798 -0.081974626 -0.022264143 -0.00838424

features.1.running_mean f4 [16]
00000000: 8f43 c83d cb0a 893c a83a 533c bb44 eabb
00000010: 7b81 bdbd 8524 b4bd 9fea 9c3d 9b20 bc3c
00000020: bccb 763e d418 3d3e badb 67ba 3fce ba3d
00000030: bcd1 ed3d 89fb 9abc 6644 943c fa1a be3b
0.09778511 0.01672878 0.012892403 -0.0071493066 -0.09253212 -0.08796028 0.07661938 0.022964766
0.24101156 0.18466502 -0.00088446925 0.091213696 0.11612269 -0.01891877 0.018099021 0.0058015557

features.1.running_var f4 [16]
00000000: 3c78 cc44 e35f 0842 f4f5 c043 1efb a944
00000010: 5926 4444 902e a241 bcd5 0d44 6912 8143
00000020: 879e ae42 8510 ae44 37e4 2044 8ee5 2242
00000030: c4b3 ec43 94ea 3a43 4700 a744 8eb5 7943
1635.7573 34.09364 385.9215 1359.8474 784.5992 20.272736 567.3396 258.14383
87.30962 1392.5162 643.56586 40.724174 473.40442 186.91632 1336.0087 249.7092

features.5.weight f4 [32, 16, 3]
00000000: 0968 be3d 369a f83d f5a6 63bc f938 ebbd
00000010: 1c96 c5bd bc42 bebd fc9d b8bc 0ad8 b73d
00000020: b474 0d3e 23fb b23d 28e3 e3bd 5a7f 08bd
00000030: 4478 ebbd 8dea dfbd 40ed 72bd 2d0e 73be
00000040: 4bd6 08be 7faf 6cbe c697 8abc 5270 5dbd
00000050: 43e4 ef3d 0ad3 21be beaa 20be a90f 25be
00000060: 0400 33be 5ccb 76bd 4443 50bd b873 8cbb
00000070: 8cf3 7239 ca26 1abe cde7 073e 454f 793d
00000080: cf69 19bc 5c00 b9bd dc24 02be 0f7f 1abe
00000090: 1498 b53c c4ac 123e a1f4 2c3e 0527 f53d
000000a0: 744f 96bd f60d a13d 899e fbbc 1a7a 463e
000000b0: b8fc 6abb 1be7 febd 667b 82bc 2f89 523c
000000c0: 8db0 9abb d53e 4dbe d57b 27be 3c13 0d3d
000000d0: d3e5 4b3e 0936 b53c 1b69 e43c 84f5 0c3e
000000e0: b5ea 783d 4143 013e e603 ff3b 99aa 16be
000000f0: bc17 0b3c 93ae 49bd b9fb 08bd 4e2f 263d
00000100: dfc2 87bd 98b6 e63d ddd9 16be 2801 80be
00000110: aa89 39be 670c 65be 215a babd a109 b8bd
00000120: b541 d3bd 1bbf 54be da89 cebd 1e8b 893c
00000130: 6b35 673c 24d7 923c b96d bebd 1026 36be
00000140: 3909 79be 18ff 143e 0a39 f0bd 8751 3fbd
00000150: cad1 21bd 5fce 00be 39f0 ad3d 9a43 8b3d
00000160: ee4f 53bd 5404 e93d a71a 13be 4567 81bc
00000170: eb07 173e aec3 4cbd 5a7f 0ebe 5d20 7abc
00000180: 0172 a43d 5106 ac3d 5aa0 4dbd 03a1 8dbb
00000190: fd1c 283b d4f3 0dbd b9c4 4cbb 62ef 7dbd
000001a0: cf2a 85bd 91e8 12be 5887 9fbe b766 80be
000001b0: 857f c73c 0a79 95bd 3dfe dcbd 3316 ad3d
000001c0: 7f76 823d 16ac 413d bede 1c3e d1fb d43d
000001d0: 315d 3d3d b1e9 403e 1d73 9ebd e0af f3bd
000001e0: eb54 fc3d 7d10 163c 9841 7dbd 593d 1c3c
000001f0: 8f88 28be 1316 e1bd 4c56 32be 1fb6 56bd
00000200: 7b0c 14be d807 d73c e876 8ebd f91b b3bd
00000210: eb59 c0bd e883 2abe df34 56be cca2 a4bd
00000220: 882d 1ebc 6e23 38bd fabc 89bd 6704 cebd
00000230: fbfa 0abe c417 11be ebee 73be 1786 4dbe
00000240: bdac 02be e15b 42be e025 e3bc c295 0d3e
00000250: 3207 44be 69a7 3bbe f381 75bc 9f45 90bd
00000260: 36db 7fbc 119c a7bc 0651 3f3e 5d57 1f3d
00000270: e06c 303d a6ea b0bc a81c 98bc 8499 883d
00000280: 8788 21bd 440b 4bbd 158f 32be b60d f6bd
00000290: 1943 86be d8b0 16be a907 a7bd 2975 ccbd
000002a0: f105 c93d ba2d 71bd 23dc 4ebe fd2a 7f3c
000002b0: c6ec 7d3d 9b65 f8ba 13e0 13be 2934 e8bd
000002c0: be60 b0bd 828a a33d 1a07 9bbd 2191 863e
000002d0: 6dda 86bd 5a07 96bd bc11 6fbd b822 413d
000002e0: e17d 9a3d bf16 ce3c 85f3 02bd 8238 a43d
000002f0: d916 2e3d bb0c 2abd 01d8 1dbe 2fe5 0dbe
00000300: 3bd0 50be e3fe 4dbe d2c7 74bd 3926 8b3e
00000310: 1ff5 ba3a 49bb 773e 1882 d63c fe2b aa3d
00000320: 981e 293e 301c ffbd 79e1 88be 5225 6bbd
00000330: f2de 963d f0e8 9f3c 2774 62bd 4bd7 d7bd
00000340: 69bf 88bd cf3d f7bd 3c58 13bd 1a59 68bc
00000350: 3765 78bd 5eb5 943d 8fce 003d 9b07 343d
00000360: 8b9a ccbd 4041 ecbd af37 323b a187 6c3c
00000370: 1177 8bbd 854d 02be 23b3 00bd ff6e 5dbd
00000380: de79 b73a 4c8c 05bd 919f 94bd 0132 c73d
00000390: baae 803d 2a9c 8c3d 834e e33d e5df 8ebe
000003a0: e1d0 96be a88b 2cbe a66f 1e3d 6fcc 7cbd
000003b0: c859 19be f8c3 82bd 2510 95bc 4efa a2bd
000003c0: 8743 1cbe 6dd0 bfbd 29f3 be3d 9340 273e
000003d0: e499 9bbb 828e 1bbd 6972 ce3d 73b0 4f3e
000003e0: af6a 81bd 23eb 96be 885b ef3a 8ba4 6dbd
000003f0: 0776 8ebd 1162 f83c 01ec 5f3d 954a 823d
0.09297187 0.121387884 -0.013894786 -0.11485476 -0.09647772 -0.09290072 -0.02253627 0.08976753
0.1381405 0.08739307 -0.11127311 -0.033324577 -0.11497548 -0.10933409 -0.05930829 -0.23735876
-0.13362996 -0.23113821 -0.016918074 -0.054062195 0.11713459 -0.15803161 -0.15690133 -0.16119255
-0.17480475 -0.060252532 -0.0508454 -0.0042862557 0.00023169647 -0.1505386 0.13272019 0.060866613
-0.009363606 -0.09033272 -0.12709373 -0.15087532 0.022167243 0.14323717 0.16890194 0.11970333
-0.07339373 0.07863991 -0.030715244 0.19382516 -0.0035856199 -0.124464236 -0.015927982 0.01285009
-0.0047207535 -0.200435 -0.16355832 0.03444217 0.1991189 0.022120493 0.02788215 0.13765532
0.06077071 0.12623312 0.007782447 -0.14713515 0.008489545 -0.049238753 -0.033443186 0.040572457
-0.066289656 0.11265296 -0.14731546 -0.25000882 -0.18118921 -0.22368012 -0.09099222 -0.089862116
-0.10315267 -0.20776026 -0.10084887 0.016789969 0.014111857 0.017924853 -0.09298272 -0.17787957
-0.24319924 0.14550436 -0.11729629 -0.04670861 -0.03950671 -0.12578724 0.084930845 0.06800003
-0.0515899 0.11377779 -0.14365636 -0.015796313 0.14749114 -0.049991302 -0.13915768 -0.015266505
0.08029557 0.08399642 -0.05020175 -0.0043221726 0.0025652044 -0.03465636 -0.0031245186 -0.06199587
-0.06502306 -0.1434653 -0.31157947 -0.25078365 0.024352798 -0.07298477 -0.107906796 0.084515
0.063702576 0.047283255 0.15319344 0.10399593 0.046231452 0.18839146 -0.077368 -0.1189878
0.12320884 0.009159205 -0.061830133 0.009536111 -0.16458343 -0.109905384 -0.17415732 -0.052419778
-0.14457886 0.026248857 -0.06956273 -0.0874557 -0.093921505 -0.1665188 -0.20918606 -0.080388635
-0.00965441 -0.044955663 -0.067254975 -0.100594334 -0.13572304 -0.14169222 -0.23821609 -0.20070682
-0.12761207 -0.18980362 -0.027728021 0.1382666 -0.1914337 -0.1832558 -0.014984596 -0.07044529
-0.015616229 -0.02046016 0.18683252 0.038901675 0.04307258 -0.021596264 -0.018568352 0.06669906
-0.039436843 -0.04957129 -0.17437394 -0.12014334 -0.26223066 -0.14715898 -0.08155758 -0.09983284
0.09815586 -0.0588815 -0.20201163 0.015574214 0.061993383 -0.0018951179 -0.14440946 -0.11338074
-0.08612202 0.07985403 -0.07569714 0.262826 -0.0658463 -0.07325621 -0.058366522 0.04715225
0.07543541 0.02515733 -0.03197052 0.080185905 0.042502258 -0.041516047 -0.1541443 -0.13856958
-0.20391934 -0.20116763 -0.059760876 0.271776 0.0014263726 0.24192537 0.02618508 0.08309172
0.16515577 -0.12456548 -0.26734522 -0.05740864 0.07366742 0.019520253 -0.055286553 -0.10539111
-0.066771336 -0.12072336 -0.03597282 -0.0141814 -0.0606434 0.072611555 0.03144699 0.043952566
-0.09990414 -0.11535883 0.0027193835 0.014436633 -0.068098195 -0.12724884 -0.031420838 -0.054060932
0.0013998111 -0.0326045 -0.072569974 0.09726334 0.062833264 0.068657234 0.11098959 -0.27905193
-0.29456237 -0.1685015 0.038680695 -0.0617184 -0.14975655 -0.06385034 -0.018196175 -0.07957898
-0.15260135 -0.09365926 0.09323723 0.16333227 -0.00474857 -0.037977703 0.10080416 0.20282154
-0.063191764 -0.2947627 0.0018261531 -0.05801825 -0.06956106 0.0303202 0.05466843 0.06361882

features.5.bias f4 [32]
00000000: 5df5 16be 1d87 4dbd 3c5f 75bd 7b05 01be
00000010: df8a 45bc a0a5 08bd fab6 41be ca94 973d
00000020: 8540 1b3d 7ae6 c7bd 68b1 3abd 6cda 28be
00000030: ef73 653e ad41 81bd 4900 973d 5ae3 1d3e
00000040: 91ac 9a3d 2824 443d c406 dbbc 5678 8abd
00000050: b1a2 f93d a6ba d3bd 0d10 0dbe d44a 41bd
00000060: 0b29 083e a362 7d3e 827d 203d b617 17be
00000070: 2195 11be 2f16 4d3d 694a a5bd c002 31bd
-0.14742036 -0.050177682 -0.059905276 -0.12599747 -0.012057035 -0.033361077 -0.18917456 0.07401426
0.037903327 -0.09760757 -0.045579344 -0.16489571 0.22407506 -0.06311355 0.07373101 0.15418759
0.07552446 0.047886044 -0.026736625 -0.067612335 0.12189234 -0.10338335 -0.13775654 -0.047190502
0.13296907 0.24744658 0.039182194 -0.14755139 -0.14217044 0.050069984 -0.08070833 -0.043215513

features.6.weight f4 [32]
00000000: e2de 463f ced8 563f 5167 793f 90bd 473f
00000010: 30db 593f 519d 443f 0680 553f a944 463f
00000020: 146c 463f 41f7 6c3f 21ca 6f3f 72ae 513f
00000030: d4a2 553f 079a 603f 3750 593f cd4c 593f
00000040: 7f4c 4b3f c9a1 633f f52c 663f a219 553f
00000050: 0c93 6f3f fe56 683f 16b7 763f 3b6f 5a3f
00000060: af9b 663f aad9 4d3f 37a7 583f 0b55 563f
00000070: a303 4f3f d9aa 5f3f c21e 3c3f fc2b 673f
0.7768384 0.8392457 0.97423273 0.78023624 0.8510008 0.76802546 0.83398473 0.7744852
0.77508664 0.9256478 0.936678 0.8190681 0.8345158 0.8773503 0.84888023 0.84882814
0.794136 0.8891874 0.8991235 0.8324224 0.9358375 0.9075774 0.96373117 0.85325974
0.90081304 0.80410254 0.8463015 0.83723515 0.80864924 0.8737007 0.7348443 0.9030149

features.6.bias f4 [32]
00000000: 12bc 543d 8927 f6bd 8bbf 2bbe 7883 07be
00000010: d5ce 07be 379e 35be 902f e3bd 9d6f 8ebe
00000020: f258 20be 0960 9fbd 8578 34be 6b35 35be
00000030: c355 3b3d ef82 eebd f0ed 20be eaf7 2bbe
00000040: a93f 43be 418a 01be e3ea 5ebe 46e1 123d
00000050: 59a1 b8bd 9ee4 43be 774f 83be 4174 29be
00000060: cad9 303d ec47 90be 5ee0 12be fdf8 7dbe
00000070: d50d 31be 9237 44be 4352 5ebe 4109 83be
0.05193717 -0.120192595 -0.16772287 -0.13233745 -0.13262494 -0.17736135 -0.11093056 -0.2781953
-0.1565893 -0.07781989 -0.176241 -0.17696159 0.045736086 -0.11646067 -0.15715766 -0.1679379
-0.19067253 -0.12650396 -0.2176929 0.03585937 -0.090151496 -0.1913018 -0.25646564 -0.16548254
0.04317645 -0.28179872 -0.14343402 -0.24802013 -0.17290433 -0.19161823 -0.21711068 -0.25592998

features.6.running_mean f4 [32]
00000000: c8f6 b6be 819b dbbe a380 21bf a7fb efbe
00000010: 8fd6 aebe 95de d3be 8303 07bf ce26 6abe
00000020: cc42 a93d 4a35 30bf 3099 13bf 728a 5abe
00000030: 7181 8abe 8516 adbe bc2e 39be 0f77 24be
00000040: 5780 6c3e 6bcf b0be 8878 20bf 820b 90be
00000050: d1ae a2be 6297 01bf 4802 0dbf a30c c1be
00000060: 3b27 0bbf 1069 ac3d d73c 1ebf f0b6 19bf
00000070: 4be1 51be 1d50 8bbe 47e3 90be 270c 09bf
-0.35735154 -0.42892078 -0.6308691 -0.46871683 -0.3414807 -0.41380754 -0.52739733 -0.22866365
0.082646936 -0.6883131 -0.5765562 -0.21341875 -0.2705188 -0.33806244 -0.18084234 -0.16061042
0.23095833 -0.34533247 -0.62683916 -0.2813378 -0.31774 -0.50621617 -0.55081606 -0.37704954
-0.54356736 0.084184766 -0.61811584 -0.60044765 -0.20496099 -0.2720956 -0.282984 -0.5353417

features.6.running_var f4 [32]
00000000: 2c0e ea3e 1beb 883f 9e96 ae3f 76cf 773f
00000010: d321 333f 6e5a 403f ea76 7e3f bc56 623f
00000020: e012 953e a97b cc3f c050 ac3f 18a9 9a3e
00000030: 99a0 e53f 0949 493f 40ff 313f 79d0 693f
00000040: 8c3c 923e 731d 4d3f 3788 913f 59bc 083f
00000050: 0912 be3f 36d1 8e3f dd4d 5a3f b125 5d3f
00000060: b016 3b40 b72b d53e 1363 0d40 b138 933f
00000070: 07a2 e63e 3c3c 643f d509 0a3f a517 583f
0.45713937 1.0696748 1.3639715 0.96800935 0.69973487 0.75137985 0.994002 0.88413596
0.29115963 1.5975238 1.3462143 0.30207133 1.7939636 0.7862707 0.69530106 0.9133373
0.2856182 0.8012306 1.1369694 0.53412396 1.4849254 1.1157596 0.8527506 0.8638564
2.9232597 0.41634914 2.209172 1.1501676 0.45045492 0.8915441 0.5392125 0.8441108

features.10.weight f4 [64, 32, 3]
00000000: c11a e8bd d795 17be 06f1 0fbe c49a 57be
00000010: 396f 53bd f0ec f0bd 2435 c3bb 5b24 e73c
00000020: db3a 71bd 6b9e cabd e11f 8bbd fa37 48be
00000030: 2c01 76be 555f 7ebe f88c 71be d181 3dbe
00000040: b5d6 64be f0ef 37be 79c4 07be cd07 d1bd
00000050: 88d3 e4bd f32d edbd 26dc 98bd b9ac 08be
00000060: b4c4 cc3d 8d22 493d fd83 443d 0b7e 303d
00000070: b849 363d 3c84 c03d 84fa 4d3c e96d 9ebc
00000080: e3fc 573d 16dc c53d c656 8a3d e573 953d
00000090: f05d 0a3e cbd0 9d3d 2007 9b3d 5874 09be
000000a0: 1a62 1bbe 0b7c 16be 2a9e f7bd c5eb 903b
000000b0: 42f1 a5bd 92e2 98bd 8ce4 9bbc 7a43 eabd
000000c0: 117c b63b 1257 863c f6d6 a23d 9b0e b23d
000000d0: 1096 c73d ebfe 053e 8fb3 40bc e264 b1bc
000000e0: 4b23 0cbd b7b2 f1bb 651a 363d 6e98 6d3c
000000f0: 12ac 2e3e 7ef9 023e b5fb 2f3e 7c2a 75be
00000100: 9935 05be bdaa f2bd 4980 953d 4193 203c
00000110: 783f 793d abb3 e1bd 0487 ffbd 3c48 2dbe
00000120: d877 b13d 085f f4bc be33 2bbc 2b5c 34bd
00000130: c9a4 4c3b aeec ed3c 131f 503d c026 7b3c
00000140: 79d3 4dba 6e9a 3a3e b514 583d d80a 463c
00000150: 5021 d53d 49f4 333d 8151 b83d c530 efbd
00000160: b6b6 99bd 0230 c0bd 7ef3 753d 14d8 8b3d
00000170: 60b7 b93d c1bd 653d 0246 33bd c1b1 49bd
00000180: 5ad5 5f3c 397f c13b cd48 20bd f45e 5e3d
00000190: 0a96 873d ffae 5d3d 68c6 e5bd 84ba 8cbd
000001a0: 70b2 15bd e85a f83d 4281 e53d 6930 643d
000001b0: 06dc 303c e969 1bba 405b ad3d 1954 bf3d
000001c0: 6b39 d23d d7ca a83d f4d8 963d dc5a 123e
000001d0: 412d ae3d 9026 343e 6082 263e 964f 013e
000001e0: 1d1e 11bc fd30 b1bb 7a0c 1fbd 7186 afbd
000001f0: 1bcc 03be dc9c eebd e9d9 efbd f1a6 a0bd
00000200: e455 92bd d1ee 11bd 2ee1 d7b8 6994 c9bd
00000210: 0544 edbd c307 dcbd 057b febd eb99 093e
00000220: 4ee3 053e 5f60 193d fc55 a23d 4a10 ba3d
00000230: 6c9c df3d f3b5 1e3e 899e 4c3e e878 673e
00000240: 0808 8cbc a084 d2bc 77ff d1bc 7119 05bd
00000250: e8e1 55bd b9d6 40bc 2628 52bd 6b20 08bd
00000260: 4a65 77bd 3b8a f3bd 027d 4fbd a852 73bd
00000270: 3966 8abd fd1f a1bc b8d3 70bd 72bd 013e
00000280: 64df 843d f537 993d dd2c 073e 3103 ca3d
00000290: 1362 aa3d e890 113e ed73 063e d62f 053d
000002a0: 6162 ebbd 6298 eabd 17e0 bfbd 70e9 133e
000002b0: 30df 963e efb7 7e3e d3ca b6bd 7360 e3bd
000002c0: d866 70bd bfd3 1abe 416b 75bd c947 cdbd
000002d0: ab06 93bb f5c8 84bc 93a1 7ebd 4a4d 9c3d
000002e0: 351b 213e 41f5 163e 0aef b3bd e3bf a03c
000002f0: 1251 9d3b b625 04bd 6449 0dbd b42e 29bd
00000300: defe aabd f522 0bbd f0c9 ea3a f1e1 7bbd
00000310: 7eb5 5a3a ad08 f8bc ec38 4e3e a254 383d
00000320: 144e ad3d 5970 eebc b0a2 443d 2bf0 23be
00000330: 8a32 123b c7ee 133d 6d3d 86bc 5d5d 693d
00000340: 3cb2 823d 229a 3f3d fe4d 56bd 382d f0bc
00000350: 5869 6abd 0e58 ddbd 4d9d 80bd ce8f e9bc
00000360: 7705 48bc 3630 05bd 1ece 64bd 6fe4 c83d
00000370: 616c 143e beef 2ebd ce0b b03e c18e 4c3e
00000380: a93f b53d 9f70 683d 4c73 023e b87b e83d
00000390: 5f66 d23c 2c8d 8b3d ea34 803a eb5b 12be
000003a0: 7b09 1fbd 4167 e9bd c279 23be 3824 05be
000003b0: b3cf edbd ff62 0d3c 8eb2 9e3c d84a 14bd
000003c0: ff21 00bc 788c e8bc 854f 42bc 51a3 cabd
000003d0: 9f21 d63c d55f 133e 1836 7c3e b9ab 1c3e
000003e0: db9f 073e 5342 22be a223 28be 825e 4cbe
000003f0: 42de 253d d671 673d 61dd 40bd 6c65 5b3d
-0.11333228 -0.14803253 -0.14056787 -0.21055132 -0.051619742 -0.11763942 -0.0059572626 0.028215578
-0.05889402 -0.09893497 -0.0679319 -0.19552603 -0.24023885 -0.24841054 -0.23588932 -0.18506552
-0.22347529 -0.17962623 -0.13258542 -0.10206566 -0.11173159 -0.1158103 -0.07463865 -0.13347138
0.09998456 0.049105216 0.047977436 0.043088954 0.044503897 0.09400222 0.012571935 -0.019339519
0.052731406 0.09661119 0.06754832 0.07297496 0.13512397 0.0770584 0.07569718 -0.13423288
-0.15174142 -0.14695756 -0.12090714 0.004422637 -0.08102657 -0.0746509 -0.019029878 -0.114386514
0.005568989 0.01639894 0.07951157 0.08694192 0.09745419 0.13085525 -0.01176156 -0.02165455
-0.034213345 -0.007376041 0.044458766 0.014501674 0.17057827 0.12790486 0.17185862 -0.23941988
-0.13008727 -0.11848972 0.07299859 0.009800733 0.060851544 -0.11020597 -0.12476924 -0.16922086
0.086654365 -0.02983047 -0.010449348 -0.04403321 0.003122615 0.029043522 0.050810885 0.015329063
-0.0007851641 0.18222973 0.052754123 0.012087546 0.104067445 0.04393414 0.08999921 -0.11679224
-0.075055525 -0.09384157 0.060046665 0.06828323 0.09068179 0.056089167 -0.043767937 -0.049241785
0.013661707 0.0059050587 -0.03913193 0.054289773 0.066204146 0.054121967 -0.112194836 -0.068715125
-0.036547124 0.12126714 0.112062946 0.05571023 0.010794645 -0.00059285626 0.0846467 0.09342212
0.10264858 0.08241814 0.07365599 0.14292473 0.08504725 0.17592835 0.16260672 0.12628016
-0.008857277 -0.005407451 -0.038830258 -0.085705645 -0.12870829 -0.11651012 -0.11711485 -0.078443415
-0.071452886 -0.035628144 -0.00010293942 -0.0984276 -0.11585239 -0.10743668 -0.12425808 0.13437621
0.13074991 0.037445422 0.079265565 0.09085138 0.10918507 0.15499096 0.19982351 0.22604716
-0.017093673 -0.025698006 -0.02563451 -0.032494966 -0.052217394 -0.011769944 -0.05130782 -0.03323404
-0.06039933 -0.118916 -0.050656326 -0.059405 -0.06757779 -0.019668574 -0.05879566 0.12669924
0.06487921 0.07481376 0.13200708 0.0986389 0.083194874 0.14215434 0.1313016 0.032516323
-0.11493374 -0.11454846 -0.093689136 0.14444518 0.29467154 0.24874853 -0.089254044 -0.111023806
-0.05869183 -0.15119837 -0.05991674 -0.100234576 -0.004486879 -0.016209105 -0.062165808 0.07631929
0.15733035 0.14741994 -0.087858275 0.019622749 0.004800924 -0.032262526 -0.03449382 -0.041304305
-0.08349393 -0.033968884 0.0017912965 -0.06149477 0.00083430845 -0.030277574 0.20138901 0.045002587
0.08462158 -0.029106306 0.048006713 -0.16009586 0.0022307956 0.036116388 -0.016386712 0.056973804
0.06381652 0.046777852 -0.052320473 -0.029318437 -0.05722937 -0.10807811 -0.06280003 -0.028510954
-0.012208334 -0.03251668 -0.05586063 0.09809195 0.14494468 -0.042709105 0.34384006 0.19976331
0.08850033 0.05674803 0.12739295 0.113517225 0.02568358 0.06814036 0.0009781395 -0.14292876
-0.0388274 -0.11396647 -0.15964416 -0.13002098 -0.11611881 0.00862956 0.01937225 -0.03620419
-0.007820605 -0.028387293 -0.011859779 -0.098944314 0.026139079 0.14392026 0.2463001 0.15299882
0.13244574 -0.15845613 -0.16419843 -0.19957927 0.040495165 0.056505047 -0.047086123 0.05356352

features.10.bias f4 [64]
00000000: 8e9f 313d 62cd 16bd 487d ef3d 1d38 d6bb
00000010: 11f9 e9bc 9101 343d cf84 aabc 4dbc a2bc
00000020: 2963 353d 73b0 f43c 16ac c73c d45b c9bd
00000030: 6630 d53b 7c81 78bc aa4e 55bd ca23 cf3d
00000040: a328 e33d 9f7e 173e 8dd9 bcbd 7ed3 d53d
00000050: 9066 fc3d c058 5a3d 04b7 94bd 428e 113d
00000060: f9a3 033c 4d19 163e c917 c0bc ba16 4fbc
00000070: 3ba9 d53c 9488 24bd a286 e13d fb68 c03d
00000080: d1cd c1bc 34ee cdbd f1dd fa3b 9275 2e3c
00000090: cbb7 b2bb 6dbf 323d 2700 113c 1a62 d0bd
000000a0: f42d a13d ddde 633c 725e b4bc 4196 a63c
000000b0: 4d96 863d b374 1ebd dcfb f9bc 0416 f9bc
000000c0: 5bf4 06bd 4f1d f13d e22c 15bd 50a2 d6bc
000000d0: 6928 763d 3472 883d ca91 c83d 2e4e 2d3d
000000e0: 6c62 5d3c 34ee 35bd 6958 f6bd fe6c 073d
000000f0: c2f7 4c3d 401e 09bd 1a09 49bd 180b 923d
0.043365054 -0.036816962 0.116938174 -0.006537451 -0.028561147 0.043946806 -0.020815281 -0.01986518
0.04428402 0.029869294 0.02437405 -0.09831968 0.0065060137 -0.01516759 -0.052076973 0.10114248
0.11091735 0.14794396 -0.09221182 0.104407296 0.1232425 0.053307295 -0.0726147 0.03553606
0.0080347 0.14658089 -0.023448842 -0.012639696 0.026081672 -0.040169314 0.11012007 0.093950234
-0.023657711 -0.10055199 0.007655852 0.010648148 -0.0054540387 0.04363959 0.008850134 -0.101749614
0.07870093 0.013908115 -0.022017691 0.020335319 0.06571636 -0.03868551 -0.030515604 -0.030406006
-0.03294788 0.11773168 -0.036419757 -0.026200444 0.060097132 0.066624075 0.09793432 0.042310886
0.013512235 -0.04441662 -0.12028582 0.033062927 0.050040968 -0.033476114 -0.049080946 0.07131022

features.11.weight f4 [64]
00000000: 74c5 803f a2a7 573f 20c9 723f 87a4 683f
00000010: e2da 603f 7143 703f 848d 703f f806 7f3f
00000020: 4e96 533f 551a 793f 07d0 583f a885 793f
00000030: 8284 763f 8828 6b3f 7421 533f cd0a 593f
00000040: 3b3d 683f 0ba2 6e3f 9db9 703f e522 5d3f
00000050: d98f 683f 5bc3 553f 46ee 713f 0aaa 763f
00000060: 9442 753f 92df 623f e71b 6b3f 9fe4 613f
00000070: 8b13 613f e494 663f 8853 663f c9e1 5e3f
00000080: 2628 6f3f 55f0 583f 9168 633f 2217 693f
00000090: e026 703f 8e71 6d3f fa37 6d3f 0854 523f
000000a0: bcdb 5e3f 693c 743f 3717 603f 62cf 743f
000000b0: a9a3 6a3f 935e 653f aa4c 673f 7971 613f
000000c0: 7c28 5d3f 0448 663f 859e 6e3f cf77 533f
000000d0: f7c0 703f 537e 773f 626d 5d3f cbc3 713f
000000e0: 04ee 5b3f a946 513f 9011 593f d6a9 5e3f
000000f0: fef9 783f 343e 4f3f aa37 573f a179 4e3f
1.0060258 0.8424016 0.9483814 0.9087605 0.8783399 0.9385291 0.93965936 0.9962001
0.8265122 0.97305804 0.84692425 0.9746957 0.9629594 0.9185872 0.8247292 0.84782106
0.9071843 0.9321601 0.94033223 0.8638137 0.90844494 0.83501214 0.945042 0.9635321
0.95804715 0.8862239 0.9183945 0.88239473 0.87920445 0.9007094 0.8997121 0.8706327
0.93420637 0.8474172 0.8883143 0.9105092 0.9380932 0.92751396 0.9266354 0.8215947
0.8705404 0.9540468 0.87535423 0.9562894 0.91655976 0.89597434 0.90351355 0.8806377
0.863899 0.8995364 0.9321063 0.8260469 0.9404444 0.9667713 0.8649503 0.9443938
0.8591006 0.81748444 0.84792423 0.869779 0.9725646 0.8095429 0.8406931 0.8065434

features.11.bias f4 [64]
00000000: e7e8 91bd 785a b6be 488c 793d cd6c 4c3b
00000010: 6539 b1be c2cd aeba b0d3 0d3d 63f5 1dbe
00000020: 6852 c4be 766b 0dbe d6a3 babe 64d8 fcbd
00000030: 7560 683d 7183 90be 69af cebe 8ffc c8be
00000040: da5d ee3c 5c1b 933d b43e 7cbe 62c5 9bbe
00000050: a9f2 5c3c 26bd bfbe 7137 c13c 17e4 06be
00000060: 660b a4bd f24b 973b dca0 0b3c 6878 fa3c
00000070: d0fb eabc f11c 80be a72c 8c3b 466a a7be
00000080: 8126 e4bd 8c2d bbbe 98a3 97be 817d bcbd
00000090: 5563 7cbe f3ae 4cbc 0693 953d 73c1 b7be
000000a0: 38df 0dbd d452 9c3d c465 b0be 0fb4 f73c
000000b0: c2cd 663c 476d 98be 1ff9 87be 934d e23c
000000c0: dba8 b8be 607d 2f3c 8ff1 433d 6d96 b8be
000000d0: c62e 383d e7a7 62be 8367 acbe e2cc 66ba
000000e0: b2ad aabe 06a6 bcbe c390 a7be 60f0 97be
000000f0: 9345 50be c592 c4be a357 bdbe 3308 bbbe
-0.07124501 -0.35615897 0.0609248 0.003119278 -0.346141 -0.0013336467 0.03462571 -0.15425639
-0.3834412 -0.13810524 -0.36453122 -0.12345961 0.056732614 -0.28225282 -0.40368202 -0.39255187
0.029097486 0.07182953 -0.24633294 -0.3042403 0.013485589 -0.37448996 0.023586007 -0.13172947
-0.080099866 0.0046172077 0.008522239 0.030574992 -0.028684527 -0.2502208 0.004277784 -0.32698268
-0.111401565 -0.36558187 -0.29617 -0.092036255 -0.24647267 -0.012492883 0.07303433 -0.35889778
-0.034636706 0.07632986 -0.3445264 0.030237226 0.014087142 -0.29770872 -0.26557252 0.02762488
-0.36066326 0.010711044 0.04783779 -0.36052266 0.04496648 -0.22134362 -0.33672723 -0.00088043336
-0.33335644 -0.36845416 -0.32727632 -0.2967558 -0.2033904 -0.38393226 -0.36980924 -0.36529693

features.11.running_mean f4 [64]
00000000: 4bb0 3fbe 43b7 33be d401 d53e 3ec5 5b3f
00000010: 1bdd 12bf 1e8b 623f 5719 c93e d7fc 983c
00000020: ba24 80be 9ca1 213e ffd6 12bf feaa a7be
00000030: b379 d93e 6a28 903c bcb6 76be 5c35 b2be
00000040: f015 eb3e d0c0 9f3e a532 01be 80c7 873d
00000050: d9d7 bb3e 938a ecbe 0fc8 583f ee28 a6bd
00000060: b8f8 3dbe 5aa4 893e ee6b b13e e8f0 983e
00000070: b8cd 143f 765f 08bf 55e2 483e 304b 34be
00000080: 0215 28be 4e3c babe 71de b3be ee06 563e
00000090: 20ca db3d 85b5 3d3f ab0e 103f d142 12bf
000000a0: a45d 1a3f f4d0 c33e c9be 61bd 8439 1f3f
000000b0: f3cf 933e 8b86 43be b830 f5be 96a0 963e
000000c0: efd8 e2be 1953 153f 69d5 a13e 4341 2dbf
000000d0: ba31 5b3e c4d5 073e 432a d8bd 6f10 223f
000000e0: 8c6c 04be afc5 9dbe e45d 6abe 065a bebe
000000f0: d471 ce3e 835e 39be 1fa9 0dbf 6b48 b8be
-0.18719594 -0.17550378 0.41602957 0.8584784 -0.5736863 0.88493526 0.39277145 0.018675251
-0.2502802 0.15784305 -0.5735931 -0.32747644 0.42475662 0.017597396 -0.24093145 -0.34806335
0.45915174 0.31201792 -0.12616976 0.066298485 0.36688116 -0.46199474 0.84680265 -0.081132755
-0.1855191 0.26883203 0.34652656 0.29871297 0.581264 -0.5327066 0.19617589 -0.17606807
-0.16414264 -0.36374134 -0.35130647 0.20901081 0.10731912 0.741051 0.5627238 -0.57133204
0.60299134 0.38245356 -0.055113588 0.62197137 0.2886959 -0.19094293 -0.47888732 0.29419392
-0.44306132 0.5832992 0.31608132 -0.67677706 0.21405688 0.13265139 -0.10554936 0.63306326
-0.12932032 -0.30814883 -0.22887379 -0.37178057 0.4032122 -0.1810246 -0.55336183 -0.3599275

features.11.running_var f4 [64]
00000000: 9ad2 4c3e 9584 573e 4a74 4f3e dd0c 533e
00000010: 3b54 3c3e d30a 3c3e f742 493e 034b 643e
00000020: e006 443e aa71 553e 02d0 793e ab75 333e
00000030: 85f4 4c3e b669 5a3e 8599 3a3e 8d47 833e
00000040: b4a6 413e 29b3 513e 7690 413e c7a4 443e
00000050: 3dc1 233e 528b 633e bdf2 7c3e b2f8 533e
00000060: aa7c 263e 7375 fc3d 4844 893e 3807 4b3e
00000070: ad5d 4c3e e9ca 423e 9cc1 273e 5294 2b3e
00000080: bb7c 443e d782 4e3e 710c 713e 6e2e 543e
00000090: 3964 493e 4b0d 473e ae23 223e 2fbf ab3e
000000a0: 237a 453e 404f 873e 92fd 4e3e 12f0 413e
000000b0: 002d 443e ffd7 4e3e ce1b 1a3e b7cc 123e
000000c0: 9c32 513e 4369 3a3e bf40 863e ebfc 4d3e
000000d0: ac19 523e 50fb 663e 9e2a 5e3e cb43 563e
000000e0: 5510 413e 0672 7a3e d918 5f3e 572a 593e
000000f0: e005 453e 0bba 323e 90a1 623e a10c 4f3e
0.20002213 0.2104667 0.20259205 0.20610376 0.18391506 0.18363504 0.19654451 0.2229424
0.19143248 0.2084414 0.24395755 0.17525356 0.20015152 0.21329388 0.18222626 0.25640526
0.18911248 0.204785 0.18902764 0.19203483 0.15991683 0.22221115 0.24701972 0.20700338
0.16258493 0.12327089 0.26809907 0.19826972 0.1995761 0.19022717 0.1638245 0.16755798
0.19188206 0.20167099 0.23539902 0.20720837 0.19667138 0.19438665 0.15833923 0.335443
0.19284873 0.2642765 0.20213917 0.18939236 0.19157791 0.20199583 0.15049669 0.14335905
0.20429462 0.18204217 0.26221272 0.20116012 0.20517606 0.22556806 0.21695945 0.20924298
0.18853886 0.24457559 0.21786822 0.21207558 0.19240522 0.17453782 0.22131944 0.20219661

embedding_layer.0.weight f4 [16, 64]
00000000: 16ce a3bd 3bfd a2bd 0e26 cd3c 10dd 4fbe
00000010: a69a 423d 9a45 08be 2d3b a4bd d08b dfbd
00000020: bd38 113e 613c 3bbe 551a db3d 4a14 bbbd
00000030: ba5f 08bd 8e22 363d d814 143e 9475 383e
00000040: 85e4 14be 8a70 693c 7db8 873c 4bc8 043e
00000050: aadd ffbc 3267 5d3e 97b7 11be a441 31be
00000060: 842c e7bd 9fa1 32bd c8ba c1bc 584d 12be
00000070: 2b21 03be 5e4f 723d a1da 11be 6e5a 8f3d
00000080: 582e 1cbe f54e 933d 00a5 c53c 88a8 c0bd
00000090: 927f 4dbc d8ca d1bd 515f 1abe e325 c93d
000000a0: 1cd7 12be c33c 16bd d58a 313e 1be8 cbbd
000000b0: 86e9 15be 6064 443e 6d1f 2f3e f957 16be
000000c0: 4af8 353e 5599 efbd 14c0 083c 0fdc 1d3e
000000d0: 7626 0c3d 04d2 2cbd b363 913c b622 81bd
000000e0: 04c3 063d 922a 9dbb 3fdf ec3a 1938 1b3e
000000f0: 0901 08be 3d4b 133e 579c 4d3d 674d 053e
00000100: 361e eabd 0097 c4bc b70e ad3c 1831 90bd
00000110: b843 d63d c4a4 fabd be92 b7bd 306f 49be
00000120: 29e9 c93d e833 0ebe 2212 c23d 02f1 07be
00000130: 89fc b93b 95d4 933d 9e56 083e 8959 0abc
00000140: cda5 97bd 67d1 2c3b f022 193e f05f 153e
00000150: 28be 323d 1c54 6d3e d9df 0cbe cb9c 1fbe
00000160: c121 82be 7ceb 24bd 5968 27bd 9059 12be
00000170: 3e6d adbd 405a 1e3e 84b8 a33c aa5e 1a3e
00000180: 6e00 6dbe 8073 263d 4e1f 4a3e 6b70 42be
00000190: 04c3 fa3d d9b7 f7bd 9748 6cbe b3a8 0d3e
000001a0: 0de5 c4bd 03c0 8d3c eb29 29bc e45e 5dbd
000001b0: 14c9 f33c cafd 353e 6961 ac3d ee52 e2bd
000001c0: 4ce8 813e a644 18be e440 613d bae3 dc3d
000001d0: 9d71 813d 6702 d13d fd0c fd3d 4338 44bd
000001e0: 6f18 513d f45c 9d3d 7430 fd3d 8f20 2d3e
000001f0: c4ad 32be b1ac ef3d 8f86 7f3e 2123 123e
00000200: 6802 bcbe 4615 ecbd f675 f5bc 59b2 2e3e
00000210: 9f70 fbbc 74f6 113d c3b7 8d3d 288f fabe
00000220: 82ce 11be 715e 85be c332 cabc 84fc f7be
00000230: 002d 623e c908 b3be ff81 c3bd 18d8 5cbe
00000240: 427d c93d f46a 313e 7526 74be ed2a dcbe
00000250: d1d7 823d 3e20 5dbb eb67 383e bc1e a3be
00000260: 92bf 8abe 4c5d d7bc f691 523e bab6 cc3d
00000270: 40f2 4e3d 74b0 543d 1167 093e 6ca8 0cbe
00000280: 805c 94be 2862 1bbe eeb8 223d 6e25 1dbd
00000290: b58b 98be 4c81 e03d 2f72 023e ed0e 03be
000002a0: 86f6 1d3e dc7a 853d 5a01 9abe df40 163e
000002b0: ea50 c33d 5d22 9bbe 5267 1cbd 80a9 2c3e
000002c0: a3e7 2fbd fb0c b53d 914b 6a3e 8537 23be
000002d0: 863d 843d 5d36 94be 2a66 5bbe 3e9c 813d
000002e0: 6c1a 32be 5f13 7abe bceb 53be 5bc2 c5bc
000002f0: e15a 5ebe 92f4 92be a922 ecbd 5521 a33c
00000300: 9ac8 133e f385 c7bd 73ac 363d b082 253d
00000310: 205f cabd a1f1 9f3d 69c9 393e a609 893d
00000320: 8c5e d0bd 5052 b03d 2daa f7bd 450c e03c
00000330: f7de 113e a4d7 15bd c006 a3bd ea13 adbd
00000340: fe6b 3f3e c2c5 0c3e e3fd f9bc f515 33bd
00000350: 880b f13d da77 cfbd 4a5f 1fbc 20af 733d
00000360: 079d 9f3d 5694 013e b135 5f3d 7556 f63d
00000370: e8a9 643c d325 b33a 00f9 0b3e 4401 0ebd
00000380: 94de 4b3d aad0 e4bd e9da dbbd 0aa0 5e3d
00000390: f680 d5bc d83a e53d ed0e 283e 65b0 39bd
000003a0: 6604 e23d b863 e23d 5d15 d2bd 733d c03d
000003b0: 939e 9f3d 8a6f 74bd 98db a2bc 5ec5 a93d
000003c0: 0c17 d0bd a828 2e3d 6fb3 f63d 9d1b 01be
000003d0: 8c1d 0f3e 63d2 9ebc cf1e 6dbd 8714 ea3d
000003e0: b385 a3bd 5435 60bd feb3 e8bd 921e 8fbd
000003f0: 2cef 3abd 1b0c c5bd e94a bfbd 4601 f4bd
-0.07998292 -0.07958456 0.02504256 -0.20299172 0.047510765 -0.13307801 -0.080190994 -0.10915339
0.141818 -0.18284751 0.10698382 -0.09134729 -0.033294417 0.044466548 0.14461076 0.18013602
-0.14540298 0.014248023 0.016567463 0.1296703 -0.031233627 0.21621397 -0.1423019 -0.17310196
-0.112877876 -0.043611165 -0.023648635 -0.14287317 -0.12805621 0.05915772 -0.14243557 0.0699967
-0.15252054 0.07192794 0.02412653 -0.09407145 -0.012542622 -0.102437675 -0.15075423 0.098216794
-0.1433987 -0.03667904 0.17338116 -0.0995638 -0.14639863 0.19178915 0.17101832 -0.14681996
0.17770496 -0.11699168 0.008346576 0.15415977 0.034216367 -0.042192474 0.017747736 -0.06305449
0.032900825 -0.0047963345 0.0018071904 0.15158118 -0.13281645 0.1438417 0.050197925 0.13017808
-0.114315435 -0.023997784 0.02112518 -0.07040614 0.10462135 -0.12238458 -0.08963536 -0.19671321
0.09858925 -0.13886988 0.09476115 -0.13275531 0.0056758565 0.07218281 0.13314292 -0.008444198
-0.07404671 0.002636993 0.14954734 0.14587379 0.04363838 0.23176616 -0.13757266 -0.15587156
-0.25416377 -0.040263638 -0.040870998 -0.14291978 -0.08468102 0.15464115 0.019985445 0.15075174
-0.23144695 0.040637493 0.19738504 -0.18988197 0.122442275 -0.12095613 -0.23074566 0.13833885
-0.096140005 0.017303472 -0.010324935 -0.054045573 0.029758967 0.17772594 0.08417017 -0.11050974
0.2537254 -0.14869937 0.054993525 0.10785623 0.06320498 0.10205536 0.12355993 -0.047905218
0.051048692 0.07683745 0.12362757 0.16906951 -0.17449099 0.1170286 0.24953674 0.14271213
-0.36720586 -0.11527495 -0.029963475 0.17060222 -0.03069335 0.035635427 0.069198154 -0.48937345
-0.14238933 -0.26048616 -0.024682408 -0.48434842 0.22087479 -0.3496764 -0.09546279 -0.21566808
0.09838344 0.17325956 -0.23842795 -0.430015 0.0638882 -0.0033741142 0.18008392 -0.31859386
-0.27099282 -0.026289605 0.20563492 0.0999579 0.050523996 0.05192609 0.13418223 -0.13736123
-0.28976822 -0.15174162 0.039727144 -0.038365774 -0.29794088 0.109621614 0.1273887 -0.12798662
0.15426072 0.06517574 -0.30079156 0.14673184 0.095369175 -0.30299655 -0.03818447 0.16861534
-0.042945515 0.088403665 0.22880389 -0.15939148 0.06457047 -0.28947726 -0.21425691 0.06328629
-0.17392892 -0.24421452 -0.20695394 -0.024140527 -0.21714355 -0.28702217 -0.115300484 0.019913355
0.14431992 -0.09742346 0.044598054 0.040407836 -0.09881425 0.07809759 0.18143238 0.066912934
-0.101742834 0.0860945 -0.12093005 0.0273496 0.1424521 -0.036582604 -0.07960272 -0.08451064
0.1869354 0.13747314 -0.03051657 -0.04372211 0.117697775 -0.10130282 -0.0097273085 0.059493184
0.077936225 0.12654242 0.054494563 0.12028209 0.013956524 0.0013667889 0.13669205 -0.034669176
0.049772814 -0.11172612 -0.10735113 0.054351844 -0.02606247 0.11192864 0.16411944 -0.04533424
0.11035995 0.11054176 -0.10257981 0.093867205 0.077939175 -0.059676684 -0.019880101 0.08289598
-0.10160646 0.04251924 0.12045943 -0.1260819 0.13976115 -0.01938743 -0.05789071 0.114296965
-0.079844855 -0.054738358 -0.11362456 -0.06988253 -0.04563825 -0.096214496 -0.0934046 -0.119143054

embedding_layer.0.bias f4 [16]
00000000: 68b1 a63d 8459 9cbb 280d ae3b 4a10 ab3e
00000010: 2d12 2a3b b888 3b3d 2ae5 a73d aa06 a73e
00000020: 8ffe a23e a0ec c73e d8e6 773e 1500 c03e
00000030: 0e30 333e d4c8 d93d ad32 b4bd 85fb 053d
0.08139306 -0.0047714133 0.005311627 0.33410865 0.0025950775 0.045784682 0.081980065 0.32622272
0.31834838 0.39047718 0.24209154 0.37500063 0.174988 0.10634008 -0.08798728 0.03271057

classifier.weight f4 [2, 16]
00000000: a58d 8cbe 84b4 7dbe b990 fc3e 96d7 633e
00000010: 8b3b 6bbd f3df 5cbb ec5d 66be 2b0f d43e
00000020: 00d8 6f3e cd68 823e 0ed0 f93d 0ca2 7b3d
00000030: 7f20 923e 9f35 d0be 1022 7abe 725a 76be
00000040: 1173 693d 8351 623e 9402 e1be 8990 88be
00000050: 2382 733e e137 b93e 53b6 973e 65a4 e2be
00000060: c933 133d 07d6 66bd 656b 77bd c6d7 c6be
00000070: 7002 e13d 3e5d 0b3e 2eb0 a8bd 04bb 8d3e
-0.27451816 -0.24775892 0.49329165 0.22250208 -0.05742983 -0.003370282 -0.22496766 0.41417822
0.23422241 0.25470582 0.121978864 0.061433837 0.28540418 -0.4066591 -0.24427056 -0.2405794
0.0569945 0.22101407 -0.4394728 -0.26672772 0.23780112 0.36175445 0.2963129 -0.44266048
0.035938058 -0.056356456 -0.060405154 -0.38836497 0.10986793 0.13609788 -0.082367286 0.27681744

classifier.bias f4 [2]
00000000: 0e1a 3d3e 43c3 15bd
0.1846697 -0.03656317
