o02_train/run_outputs/64cnn_train_weights.pth (torch, 48140 bytes, 22 tensors)

features.0.weight f4 [16, 6, 5]
0.386847 0.15298125 -0.15820372 -0.16482677 -0.5099708 -0.3373985 -0.62567896 -0.32764462
-0.12130734 -0.533607 0.43705755 0.12565048 0.12931684 -0.113048665 -0.12629789 -0.07542106
0.016499532 0.0042886897 0.014802957 0.11517073 -0.03429396 0.03260515 -0.06391206 0.082510464
-0.08544853 -0.26936388 -0.10606774 -0.120668456 -0.062692076 -0.38651803 -1.0884641 -1.3640236
-0.7938599 -0.54169554 -0.22790568 0.38146454 -0.08547796 -0.09984149 -0.344339 -0.14232606
0.21099626 0.25432515 0.48481753 0.72589934 0.85617626 0.015824025 0.107478686 -0.04593946
0.089334525 0.024704201 -0.16508742 -0.042278018 -0.09761445 0.16121674 -0.0031560746 0.0344815
0.006309781 -0.08203768 0.050420314 -0.26801172 -1.0570017 -1.2034844 -0.8408086 -0.64247006
-0.27626637 0.49374306 0.53241414 -0.103469275 -0.30852035 -0.5629153 0.047459364 -0.010307183
0.16186108 0.09522287 0.346909 0.046925887 -0.01772327 0.060710914 -0.017775737 0.15532584
-0.24130577 -0.18206754 0.12892066 -0.06203237 0.077688895 -0.086678535 0.08770378 -0.15795685
-0.11716765 0.020159878 0.9815336 0.6542715 0.31968364 -0.05385904 -0.42874804 -0.11195783
0.23757878 0.25126496 0.5219065 0.49076957 0.059291814 0.04148489 -0.19516803 -0.44121057
-0.45235053 -0.024494668 -0.07571727 -0.034607302 -0.096373096 -0.11667596 0.11733845 -0.05062487
-0.02909411 -0.2241518 -0.12780572 -0.13543124 -0.050573383 -0.23026529 -0.12240071 -0.10242085
-0.34078538 -0.05742693 0.38366708 0.45404917 0.5195691 0.1379051 0.12906703 0.080320515
0.31299457 0.04668976 0.45063484 0.48020056 0.2787711 0.5477396 0.4090562 -0.035022274
-0.060873043 -0.08312278 0.08917359 0.019613182 -0.0725551 -0.24380788 0.0339445 -0.21121086
-0.15604441 0.072885394 0.110018946 0.14577617 0.1867627 -0.0468446 -0.10521208 0.27880138
0.37338895 0.3550117 0.8136114 0.24618271 0.2298582 -0.010342701 0.29623023 0.4185113
-0.3323234 -0.30180705 -0.06733739 -0.41483456 -0.34522557 -0.004974038 -0.13557845 0.10551482
0.04357629 -0.051272504 -0.1033427 0.061955266 0.15808813 -0.013233338 -0.0469355 -0.05761806
-0.08820353 0.14953375 0.20198612 -0.1468293 0.582924 0.32188377 -0.10599337 -0.52174133
-0.478335 -0.4656668 -0.5382086 -0.55758613 -0.4977045 -0.32554188 0.43612298 0.41100946
0.30186856 0.11089837 -0.18697767 -0.07258797 -0.016872749 0.011299942 0.05890553 0.07912381
-0.044867408 -0.00645647 0.08287636 0.0085191745 -0.035655517 -0.21404108 -0.12083968 -0.15644594
-0.1811071 -0.21453366 0.45323682 0.07796635 -0.48476982 -0.6182065 -0.62905943 1.1010892
0.90368605 0.33885282 0.20350243 -0.0073923534 -0.5922117 -0.3440638 -0.36549145 -0.19979717
-0.27286914 0.20362714 0.13466541 0.021475034 -0.15408488 -0.18829736 -0.25513393 0.079767585
0.0809084 0.13796641 0.12044276 0.063533895 0.036267146 -0.041641124 0.002922126 0.013264297
-0.07556347 -0.03877376 0.071185246 -0.04369636 0.021839248 -0.96307963 -0.9903971 -0.5574442
-0.5410497 -0.3299901 0.77066666 0.7242668 0.72728765 0.6109785 0.56566405 -0.17383307
00000000: cf10 c63e 1ea7 1c3e 2800 22be 59c8 28be
00000010: 728d 02bf 7fbf acbe 7f2c 20bf 09c1 a7be
00000020: fc6f f8bd 789a 08bf 02c6 df3e 85aa 003e
00000030: a26b 043e 0f86 e7bd 3c54 01be 5b76 9abd
00000040: 072a 873c 2388 8c3b 1a88 723c a2de eb3d
00000050: d377 0cbd fa8c 053d 53e4 82bd 3ffb a83d
00000060: a4ff aebd 10ea 89be 0b3a d9bd 0621 f7bd
00000070: b464 80bd b1e5 c5be cb52 8bbf 5398 aebf
00000080: 673a 4bbf 8fac 0abf 1b60 69be 524f c33e
00000090: 120f afbd b279 ccbd 344d b0be ecbd 11be
000000a0: 670f 583e e836 823e 013a f83e 8ad4 393f
000000b0: 5e2e 5b3f 63a1 813c c91d dc3d 042b 3cbd
000000c0: 05f5 b63d 7760 ca3c ad0c 29be b72b 2dbd
000000d0: 16ea c7bd 0016 253e 25d6 4ebb 793c 0d3d
000000e0: 48c2 ce3b 5f03 a8bd 8885 4e3d d538 89be
000000f0: d54b 87bf c70b 9abf 3b3f 57bf eb78 24bf
00000100: c972 8dbe e4cb fc3e 4b4c 083f b3e7 d3bd
00000110: 61f6 9dbe 381b 10bf c064 423d 75df 28bc
00000120: e9be 253e 3504 c33d 0e9e b13e 5c35 403d
00000130: 6430 91bc 02ac 783d 6c9e 91bc bd0d 1f3e
00000140: dc18 77be ea6f 3abe c703 043e a815 7ebd
00000150: 5b1b 9f3d 8484 b1bd 0a9e b33d 71bf 21be
00000160: 98f5 efbd 5426 a53c c945 7b3f 567e 273f
00000170: 93ad a33e 4c9b 5cbd dd84 dbbe 264a e5bd
00000180: da47 733e cda5 803e aa9b 053f 2646 fb3e
00000190: f9db 723d 0fec 293d 21da 47be 5ae6 e1be
000001a0: 7d9a e7be 0ba9 c8bc a811 9bbd 63c0 0dbd
000001b0: 425f c5bd cef3 eebd 244f f03d 065c 4fbd
000001c0: c556 eebc 0d88 65be 81df 02be 7dae 0abe
000001d0: 0926 4fbd aaca 6bbe 39ad fabd 06c2 d1bd
000001e0: 6c7b aebe 8038 6bbd 0370 c43e 2279 e83e
000001f0: 7b02 053f ff36 0d3e 262a 043e 157f a43d
00000200: d340 a03e c33d 3f3d 9cb9 e63e d9dc f53e
00000210: 16bb 8e3e aa38 0c3f d06f d13e 8473 0fbd
00000220: 0356 79bd 473c aabd a5a0 b63d d3ab a03c
00000230: c597 94bd c6a8 79be 6309 0b3d a947 58be
00000240: 1bca 1fbe f044 953d 9d51 e13d 5946 153e
00000250: b93e 3f3e 20e0 3fbd 6e79 d7bd 0ebf 8e3e
00000260: d62c bf3e 18c4 b53e d648 503f 5217 7c3e
00000270: f35f 6b3e 6f74 29bc 7dab 973e 1d47 d63e
00000280: 4b26 aabe 7486 9abe 2fe8 89bd 3265 d4be
00000290: 68c1 b0be 41fd a2bb 14d5 0abe 2718 d83d
000002a0: 0d7d 323d 1e03 52bd 56a5 d3bd cec4 7d3d
000002b0: dbe1 213e a4d0 58bc 703f 40bd ea00 6cbd
000002c0: 0da4 b4bd 601f 193e 73d5 4e3e 6c5a 16be
000002d0: 823a 153f f3cd a43e 0d13 d9bd d790 05bf
000002e0: 53e8 f4be e16b eebe 0ac8 09bf f7bd 0ebf
000002f0: 20d3 febe 6dad a6be 834b df3e d56f d23e
00000300: 848e 9a3e af1e e33d 1377 3fbe 00a9 94bd
00000310: b838 8abc 6423 393c ed46 713d aa0b a23d
00000320: e3c6 37bd cc90 d3bb 15bb a93d 0294 0b3c
00000330: 850b 12bd 962d 5bbe cb7a f7bd 5d33 20be
00000340: 2474 39be b6ae 5bbe a80e e83e d2ac 9f3d
00000350: c033 f8be c842 1ebf 0a0a 21bf 7ef0 8c3f
00000360: f857 673f 1e7e ad3e f162 503e 8e3b f2bb
00000370: 309b 17bf 2129 b0be b221 bbbe a197 4cbe
00000380: 81b5 8bbe a283 503e bbe5 093e 69ec af3c
00000390: 6dc8 1dbe 06d1 40be eaa0 82be 305d a33d
000003a0: 4eb3 a53d 1147 0d3e b2aa f63d 0f1e 823d
000003b0: dc8c 143d e28f 2abd 2481 3f3b 7e52 593c
000003c0: 05c1 9abd 3cd1 1ebd 92c9 913d f4fa 32bd
000003d0: 39e8 b23c 638c 76bf aa8a 7dbf aab4 0ebf
000003e0: 3c82 0abf 76f4 a8be 694a 453f 8d69 393f
000003f0: 862f 3a3f 1669 1c3f 5ccf 103f 4c01 32be

features.0.bias f4 [16]
0.052169465 -0.060983907 -0.10329684 0.05211521 -0.08282074 -0.10778978 0.06266729 -0.0010619978
0.22627944 0.24119419 0.024456348 0.03947837 0.087818325 -0.023569798 0.034027707 -0.00060743827
00000000: a6af 553d 43ca 79bd 4b8d d3bd c276 553d
00000010: ec9d a9bd e3c0 dcbd b557 803d bc32 8bba
00000020: ccb5 673e 9cfb 763e ae58 c83c 12b4 213d
00000030: 18da b33d 7315 c1bc a360 0b3d 7e3c 1fba

features.1.weight f4 [16]
0.9983223 0.9999726 0.9102877 0.9583714 0.9460812 0.93711925 0.99806905 0.9328831
0.89943576 0.93511367 0.98676115 0.98872715 0.9115229 0.9913613 0.9538066 0.8667332
00000000: 0d92 7f3f 34fe 7f3f 9d08 693f d457 753f
00000010: 6132 723f 0ce7 6f3f 7481 7f3f 6dd1 6e3f
00000020: 6c41 663f 9c63 6f3f 619c 7c3f 391d 7d3f
00000030: 9159 693f dbc9 7d3f ab2c 743f 3ae2 5d3f

features.1.bias f4 [16]
-0.029107625 -0.048067246 -0.048853256 -0.009351967 -0.012636959 -0.24640317 -0.17200398 0.0010971089
-0.10963133 -0.013252483 -0.0007246288 -0.21968704 -0.034364168 0.011170989 -0.023956982 -0.03246096
00000000: 1d73 eebc 29e2 44bd 5a1a 48bd fe38 19bc
00000010: 3f0b 4fbc 1d51 7cbe d021 30be decc 8f3a
00000020: 6486 e0bd f120 59bc 04f5 3dba a4f5 60be
00000030: 71c1 0cbd 8606 373c 6f41 c4bc c9f5 04bd

features.1.running_mean f4 [16]
-0.001074818 -0.07695905 -0.119994275 -0.0015253462 -0.07321181 -0.104220845 0.013367655 -0.00013553537
0.22340348 0.21492241 -0.043331694 0.035422977 0.081669144 -0.028249055 0.068478696 0.015735347
00000000: e8e0 8cba b59c 9dbd 8fbf f5bd 20ee c7ba
00000010: 13f0 95bd bd71 d5bd 0204 5b3c 801e 0eb9
00000020: e2c3 643e 9f14 5c3e 937c 31bd af17 113d
00000030: 2742 a73d 906a e7bc 8f3e 8c3d 6ae7 803c

features.1.running_var f4 [16]
1342.4176 262.53 350.25122 1071.9476 583.43085 40.055622 1201.5089 408.38467
188.61778 916.64526 1942.2386 32.305363 80.632576 201.26144 598.3301 895.1434
00000000: 5dcd a744 d743 8343 2820 af43 53fe 8544
00000010: 93db 1144 f538 2042 4930 9644 3d31 cc43
00000020: 279e 3c43 4c29 6544 a3c7 f244 b138 0142
00000030: e143 a142 ee42 4943 2095 1544 2dc9 5f44

features.5.weight f4 [32, 16, 3]
0.064004995 0.14239608 -0.06350304 -0.072023824 -0.06973596 -0.13285926 0.045228336 0.07279864
0.040157996 0.12350623 -0.07392926 -0.0052260873 -0.02304734 -0.018794645 0.11266254 -0.16103624
0.021788787 -0.07140899 -0.11143336 -0.16904761 0.06030972 -0.13314228 0.11608848 -0.050288938
-0.04312905 0.002376254 -0.09534298 0.12307734 0.13547646 -0.097920634 0.072427444 -0.0104194665
0.0016545122 -0.055416875 -0.048711356 -0.12337286 -0.076843694 -0.011570359 -0.0013922071 -0.070723236
-0.17559873 -0.06539084 -0.050729223 0.21225457 -0.04946619 -0.0010182793 -0.012199685 0.016588734
0.008134819 -0.09751901 -0.041154522 0.10365215 0.12899905 -0.041282777 -0.027975464 0.073962025
-0.0107334275 0.15866917 0.057611104 -0.033963215 0.022500455 0.00434376 0.050855175 0.1062752
0.10076755 0.15449525 -0.10221677 -0.2197888 -0.1734414 -0.18994631 -0.18043809 -0.09143247
-0.09278118 -0.14093624 -0.08873244 -0.044933792 -0.020673176 0.044968113 0.0054158675 -0.111173496
-0.12367316 0.13557172 -0.06781752 -0.013740241 0.0474224 -0.09988419 -0.019463943 0.13966827
0.001349377 0.07203248 -0.10437123 -0.0685325 0.03165313 0.026954217 0.018996311 0.11164566
-0.11083108 -0.10235522 -0.10322175 -0.08637203 -0.06082951 -0.11912475 0.033780552 0.028046161
-0.046549417 -0.14749236 -0.23751307 -0.22256656 -0.05693098 -0.13935883 -0.16166389 0.054110125
0.10763486 0.11395552 0.06311463 -0.046600047 -0.055106446 0.10631266 0.013816433 -0.043600142
0.021851132 -0.042982664 -0.011140337 0.00045040343 -0.060358156 -0.056721963 -0.0929882 -0.09643517
-0.07521295 0.060115717 0.027661188 0.019964714 -0.03270032 0.07435073 -0.008690297 -0.106425785
-0.03656702 -0.026653191 -0.10895278 -0.19005561 -0.23338655 -0.100290745 -0.16115037 -0.1262149
-0.034542765 -0.13696335 0.013702544 0.10920486 -0.16862532 -0.030231196 0.028713413 -0.03872496
0.017012905 -0.007924458 0.13310921 -0.052142173 0.03695672 -0.037823614 -0.001731849 0.12253068
-0.058752 -0.098530255 -0.10425136 -0.003669058 -0.1974172 -0.06828978 -0.13394651 0.008889441
0.0023262263 -0.05867753 -0.04742373 -0.014273268 0.06458967 -0.08263246 -0.08190375 -0.012142661
0.041862182 0.15435289 -0.07251803 0.19923465 -0.06078291 -0.12941132 -0.18030624 -0.0052249134
0.14555436 0.033307426 -0.0502329 0.019414956 -0.04435228 0.13599235 -0.10007711 -0.043032367
-0.18458961 -0.13898596 -0.008731958 0.18400909 0.014520983 0.14335532 -0.0072162817 0.025764436
0.11900954 0.11417884 -0.10050372 0.15458226 0.007732837 -0.051350974 -0.039972294 -0.07376507
0.06824034 -0.12890552 -0.022446834 -0.0047759423 -0.18710841 -0.044113293 -0.025351997 0.017965395
-0.11373019 -0.19766705 -0.016415823 0.04970888 0.01588594 -0.10971536 -0.06714513 -0.040274903
-0.05008284 0.018483445 0.028548725 0.1703655 -0.13145326 -0.09076217 -0.056243885 -0.1296732
-0.16657245 -0.08621081 0.10680322 -0.071492136 -0.1457214 0.0868574 0.08334427 0.09570117
-0.122160055 -0.112199955 0.08772494 0.12057166 0.066564865 0.084161304 0.015123084 0.111671776
-0.116467394 -0.102170944 0.13689321 -0.058608547 -0.034212578 0.055968903 0.04359842 0.095692344
00000000: 0d15 833d 47d0 113e e20d 82bd 3a81 93bd
00000010: bad1 8ebd 420c 08be 5941 393d 7417 953d
00000020: b67c 243d d6f0 fc3d 3968 97bd 993f abbb
00000030: c6cd bcbc 3af7 99bc 9ebb e63d afe6 24be
00000040: 667e b23c e03e 92bd 2c37 e4bd d11a 2dbe
00000050: 5307 773d 7356 08be ccbf ed3d c6fb 4dbd
00000060: 16a8 30bd edba 1b3b 2e43 c3bd f90f fc3d
00000070: 57ba 0a3e 9d8a c8bd d754 943d 69b6 2abc
00000080: 38dc d83a cefc 62bd 8f85 47bd e9aa fcbd
00000090: 3a60 9dbd 9a91 3dbc b87a b6ba 58d7 90bd
000000a0: 27d0 33be a2eb 85bd 72c9 4fbd 4359 593e
000000b0: 0f9d 4abd c977 85ba 30e1 47bc 19e5 873c
000000c0: e747 053c 0cb8 c7bd a591 28bd 9447 d43d
000000d0: 5418 043e 2118 29bd cd2c e5bc 6779 973d
000000e0: 42db 2fbc 2c7a 223e 9ff9 6b3d 031d 0bbd
000000f0: e052 b83c 1a56 8e3b 844d 503d d0a6 d93d
00000100: 385f ce3d 0134 1e3e 0757 d1bd 5110 61be
00000110: 9f9a 31be 4981 42be c3c4 38be f240 bbbd
00000120: 0f04 bebd 9751 10be 5ab9 b5bd 7f0c 38bd
00000130: cb5a a9bc 7c30 383d 9777 b13b eeae e3bd
00000140: 5b48 fdbd 50d3 0a3e e9e3 8abd bf1e 61bc
00000150: fe3d 423d 1590 ccbd d972 9fbc 3305 0f3e
00000160: 94dd b03a c485 933d 95c0 d5bd c45a 8cbd
00000170: b6a6 013d 17cf dc3c 279e 9b3c 7ba6 e43d
00000180: 68fb e2bd 9d9f d1bd ed65 d3bd d2e3 b0bd
00000190: 5d28 79bd adf7 f3bd 7a5d 0a3d 10c1 e53c
000001a0: 9aaa 3ebd 3d08 17be a036 73be 7de8 63be
000001b0: 7630 69bd 15b4 0ebe 388b 25be 94a2 5d3d
000001c0: aa6f dc3d 8361 e93d 3e42 813d b1df 3ebd
000001d0: 4cb7 61bd 74ba d93d 525e 623c 1096 32bd
000001e0: 2501 b33c 970e 30bd f685 36bc 2024 ec39
000001f0: 1d3a 77bd 4a55 68bd 9970 bebd cd7f c5bd
00000200: 3f09 9abd e63b 763d b799 e23c 0a8d a33c
00000210: c5f0 05bd 3245 983d bf61 0ebc c3f5 d9bd
00000220: 4dc7 15bd cb57 dabc a322 dfbd f09d 42be
00000230: e2fc 6ebe 3c65 cdbd 9a04 25be 7b3e 01be
00000240: b77c 0dbd 1f40 0cbe a380 603c cca6 df3d
00000250: 1eac 2cbe 6aa7 f7bc 6438 eb3c 109e 1ebd
00000260: a65e 8b3c 96d5 01bc c84d 083e 0893 55bd
00000270: ee5f 173d efec 1abd 36ff e2ba 5df1 fa3d
00000280: f0a5 70bd 3bca c9bd bd81 d5bd 9474 70bb
00000290: bc27 4abe 83db 8bbd 4629 09be 05a5 113c
000002a0: 9a73 183b da57 70bd 633f 42bd 6dda 69bc
000002b0: 9747 843d 353b a9bd 27bd a7bd 03f2 46bc
000002c0: ae77 2b3d af0e 1e3e 5584 94bd 2b04 4c3e
000002d0: 80f7 78bd 6784 04be 33a2 38be c035 abbb
000002e0: 340c 153e 5e6d 083d 03c1 4dbd 1d0c 9f3c
000002f0: bdaa 35bd 9441 0b3e 3af5 ccbd b542 30bd
00000300: 0f05 3dbe 5652 0ebe 7d10 0fbc e16c 3c3e
00000310: 6be9 6d3c bdcb 123e 8f76 ecbb f00f d33c
00000320: 46bb f33d 98d6 e93d e5d4 cdbd d04a 1e3e
00000330: bd63 fd3b 6655 52bd fdb9 23bd 2412 97bd
00000340: 97c1 8b3d cfff 03be 6ce2 b7bc 827f 9cbb
00000350: 5999 3fbe 24b0 34bd feae cfbc 2a2c 933c
00000360: 60eb e8bd 3b69 4abe 7a7a 86bc 8a9b 4b3d
00000370: 3b23 823c 72b2 e0bd 6383 89bd 4cf7 24bd
00000380: aa23 4dbd 986a 973c 04df e93c 4b74 2e3e
00000390: af9b 06be 84e1 b9bd fd5f 66bd 0dc9 04be
000003a0: f891 2abe 4b8f b0bd a6bb da3d 786a 92bd
000003b0: fe37 15be 4be2 b13d 67b0 aa3d fafe c33d
000003c0: 0d2f fabd 17c9 e5bd 22a9 b33d 46ee f63d
000003d0: 2953 883d c35c ac3d d0c6 773c 2cb4 e43d
000003e0: 7586 eebd 003f d1bd bc2d 0c3e 840f 70bd
000003f0: 7d22 0cbd a63f 653d 4294 323d 59fa c33d

features.5.bias f4 [32]
-0.08255409 -0.15298192 -0.052810535 -0.09465076 -0.00571298 -0.03428377 0.05087584 0.14835533
-0.011341342 -0.03853792 -0.084016375 -0.093348034 -0.025418406 0.030641811 -0.038509574 0.05425327
0.08726471 0.064117566 -0.109832175 0.047787614 0.03546149 -0.05877452 -0.05443259 0.035364166
0.06835628 0.0853458 -0.071348764 -0.09595253 -0.0017412439 0.08952948 0.090696126 -0.02363304
00000000: 1e12 a9bd 4ba7 1cbe dc4f 58bd 42d8 c1bd
00000010: f333 bbbb 236d 0cbd 2f63 503d 76ea 173e
00000020: 09d1 39bc f0d9 1dbd c710 acbd 412d bfbd
00000030: 433a d0bc 8904 fb3c 37bc 1dbd ad38 5e3d
00000040: d7b7 b23d 1250 833d b1ef e0bd f2bc 433d
00000050: 1140 113d 8dbd 70bd b5f4 5ebd 04da 103d
00000060: 61fe 8b3d c7c9 ae3d 4d1f 92bd c382 c4bd
00000070: 733a e4ba 3b5b b73d e4be b93d 149a c1bc

features.6.weight f4 [32]
0.8391031 0.9818846 1.1316289 0.91179574 0.90667975 0.9299178 0.96355164 0.9724671
0.8726998 1.0604445 1.0860189 0.9714666 0.8420337 1.0345178 0.9954143 0.91818273
0.91391015 0.95683265 0.9376705 0.9179303 0.930995 0.94030386 0.96118385 0.9033006
1.0629805 0.8621964 0.7955316 0.86614466 0.98332614 0.98664856 0.95552695 1.1215736
00000000: 76cf 563f ca5c 7b3f 37d9 903f 726b 693f
00000010: 2a1c 683f 180f 6e3f 52ab 763f 9bf3 783f
00000020: 4169 5f3f a5bc 873f ab02 8b3f 09b2 783f
00000030: 858f 573f 146b 843f 79d3 7e3f 060e 6b3f
00000040: 04f6 693f fcf2 743f 2d0b 703f 7bfd 6a3f
00000050: b055 6e3f c1b7 703f 2510 763f b53e 673f
00000060: bf0f 883f e7b8 5c3f f5a7 4b3f a8bb 5d3f
00000070: 43bb 7b3f 0095 7c3f 6a9d 743f b98f 8f3f

features.6.bias f4 [32]
-0.10640031 -0.10999279 -0.02869364 -0.068946615 -0.08549651 -0.10392808 -0.052032955 -0.2017158
0.059631683 -0.028108321 -0.011702131 -0.08279532 -0.08765721 -0.06013463 -0.043891475 -0.06530768
-0.12711711 -0.031826418 -0.14845301 -0.026657214 -0.15431508 -0.08993508 -0.14664344 -0.10811746
-0.010849656 -0.14377707 -0.09784182 -0.13364893 -0.047459524 -0.11966808 -0.034349993 -0.057058018
00000000: 68e8 d9bd e643 e1bd ed0e ebbc e233 8dbd
00000010: cb18 afbd 3fd8 d4bd 8220 55bd 968e 4ebe
00000020: 5a40 743d 6c43 e6bc 4bba 3fbc 9890 a9bd
00000030: a085 b3bd bb4f 76bd 8cc7 33bd 08c0 85bd
00000040: fd2a 02be 6b5c 02bd 1104 18be 3b60 dabc
00000050: c604 1ebe e22f b8bd b329 16be b06c ddbd
00000060: c1c2 31bc 4c3a 13be 4b61 c8bd 44db 08be
00000070: eb64 42bd 8a14 f5bd 94b2 0cbd abb5 69bd

features.6.running_mean f4 [32]
-0.2524235 -0.2906764 -0.67809194 -0.30545497 -0.24574353 -0.33266813 -0.13129506 0.0907539
-0.12872185 -0.71374416 -0.67915165 -0.12190934 -0.4032211 -0.1846504 -0.22833022 -0.14284721
0.2435724 -0.25132176 -0.6903463 0.013444726 -0.068546295 -0.34105614 -0.2683198 -0.21107163
-0.5089288 -0.16500127 -0.32948315 -0.24376969 0.20934685 -0.12591776 -0.13120683 -0.44790304
00000000: a73d 81be 89d3 94be 6f97 2dbf 9864 9cbe
00000010: 31a4 7bbe 7a53 aabe 3672 06be 2edd b93d
00000020: a9cf 03be f0b7 36bf e2dc 2dbf 9bab f9bd
00000030: ff72 cebe ff14 3dbe 66cf 69be 8a46 12be
00000040: 0b6b 793e 3fad 80be 89ba 30bf 4547 5c3c
00000050: 0062 8cbd e99e aebe 3661 89be 2923 58be
00000060: 2849 02bf 18f6 28be 04b2 a8be c39e 79be
00000070: 055f 563e 96f0 00be 155b 06be 8c53 e5be

features.6.running_var f4 [32]
0.3165677 0.3668068 1.3116347 0.3271602 0.53804976 0.5763884 0.3737599 0.34826642
0.29349557 1.4136958 1.4195734 0.33657432 1.1851444 0.46604225 0.44520834 0.3846245
0.2817969 0.62785673 0.9180193 0.24487501 0.46762866 0.5044399 0.3319316 0.54734915
1.5692942 0.4122132 0.61621773 0.3354564 0.36359715 0.45480627 0.5697438 0.6176617
00000000: 2915 a23e 1ace bb3e a5e3 a73f 8b81 a73e
00000010: a1bd 093f 318e 133f 755d bf3e fa4f b23e
00000020: 0d45 963e fcf3 b43f 95b4 b53f 7853 ac3e
00000030: d0b2 973f 179d ee3e 59f2 e33e 81ed c43e
00000040: af47 903e 38bb 203f 5003 6b3f 84c0 7a3e
00000050: 066d ef3e f922 013f f0f2 a93e 131f 0c3f
00000060: a2de c83f 9c0d d33e 72c0 1d3f f1c0 ab3e
00000070: 6829 ba3e 5edc e83e bbda 113f 141f 1e3f

features.10.weight f4 [64, 32, 3]
0.0038348618 -0.038734693 -0.01735799 -0.009424731 0.057949282 0.026947657 -0.08559181 -0.01628905
-0.1292054 0.11588783 0.04419475 0.03482551 0.08347171 0.04311662 0.07216405 0.108141124
-0.00739351 0.1433666 0.03582747 0.019567749 0.06432802 0.09948503 -0.00035470712 -0.021914044
0.022676725 -0.022318851 -0.057058226 -0.0839895 -0.053562466 -0.011402789 -0.09516773 -0.09714374
-0.023373777 -0.069413126 -0.052550074 -0.12866968 -0.015093612 -0.062010664 -0.102692835 0.05017308
0.035644572 0.08182512 0.040949777 0.0715111 0.0046335678 0.05898227 0.099518575 0.032971483
-0.097326204 -0.039181057 -0.013281375 -0.03962677 0.013389877 -0.004922774 0.011140342 0.017067933
0.02026007 -0.013055099 0.012942386 -0.019077556 -0.11592363 -0.12407463 -0.06531245 0.04710961
0.11694733 0.11610635 0.18227397 0.12081423 0.056712836 0.09695786 -0.014425097 0.054145455
-0.07023633 -0.18532342 -0.103533134 0.05277414 0.11354024 0.011620513 0.015227427 0.0033272698
-0.038411275 -0.02532072 -0.026783936 -0.12046093 -0.063575506 -0.08944666 -0.120406836 -0.015764821
0.032276124 0.044325728 -0.027992459 -0.010768065 -0.031569377 0.0116266515 -0.0867649 -0.06463695
-0.039592188 -0.045061916 0.030689592 0.10565266 0.12045797 0.028384417 -0.09984974 -0.06744627
-0.017705308 0.09991362 0.07140944 0.022040676 0.000808166 -0.018284846 0.068148464 0.09928507
0.10178644 0.10325087 0.022114495 0.10427732 0.0220108 0.07720324 0.040901855 -0.012933785
0.0005246718 0.012270769 -0.06356536 -0.017429894 -0.09818059 -0.103028566 -0.07341713 -0.05837669
-0.05239573 -0.06322434 -0.009533412 -0.11811085 -0.021350058 0.0036712356 0.007129012 0.12458907
0.11161929 0.004106625 -0.0072120824 -0.019324193 -0.029863337 0.06644403 0.040868234 0.016253443
-0.011058307 -0.042360283 -0.039060526 -0.043097902 -0.011083182 0.04234677 -0.05363071 0.014270672
-0.056877717 -0.07654597 -0.025313381 -0.020891212 0.003470523 0.011738108 -0.034117784 0.05183062
0.027688492 0.044100482 0.10082736 0.16859214 0.15727068 0.023517318 0.038702194 -0.058931988
-0.05588631 -0.11798349 -0.06916888 -0.01008802 0.09625033 0.077962115 0.006432701 -0.026222313
0.030588599 -0.06119481 0.0071459357 -0.07301819 -0.027788458 -0.10347915 -0.09473796 0.080585524
0.17066646 0.10252225 -0.117217876 -0.042156175 -0.04023345 -0.061778 -0.028544331 -0.00028099862
-0.10176742 -0.13378815 -0.10516661 -0.09579414 -0.09022626 -0.0865863 0.1646923 0.04586126
0.10922471 -0.09294378 -0.022598516 -0.07403245 -0.06381356 0.017895255 -0.059247654 -0.024891295
0.055359643 0.044375017 0.008171323 -0.061136417 -0.08280157 -0.084961474 -0.021620193 -0.092080384
-0.14104494 -0.109933004 -0.14333753 0.064688876 0.10839146 0.030650482 0.11634527 0.045586564
0.034331888 0.12856658 0.11824169 -0.03189691 -0.05412888 0.018228743 0.03872464 -0.015884912
-0.016486699 -0.12813504 -0.16398434 -0.12457733 -0.10545231 -0.052163947 -0.09933891 -0.15861738
0.007952197 -0.03490503 -0.027897555 -0.0589632 0.0016268771 0.09926881 0.07728574 0.027435664
0.06052942 -0.057881363 -0.10353413 -0.136045 -0.10999351 -0.06339411 -0.024793161 -0.108796544
00000000: 4e52 7b3b 45a8 1ebd 5832 8ebc 306a 1abc
00000010: 3a5c 6d3d 55c1 dc3c c24a afbd 9d70 85bc
00000020: 6c4e 04be 9956 ed3d 8e05 353d 32a5 0e3d
00000030: 37f3 aa3d 0e9b 303d bfca 933d 1879 dd3d
00000040: 4245 f2bb b2ce 123e d3bf 123d 8b4c a03c
00000050: 69be 833d cfbe cb3d fcf7 b9b9 1585 b3bc
00000060: 8ac4 b93c 06d6 b6bc e3b5 69bd b002 acbd
00000070: 5164 5bbd c3d2 3abc 4ce7 c2bd 4cf3 c6bd
00000080: 5d7a bfbc 7828 8ebd bf3e 57bd fcc1 03be
00000090: 324b 77bc e5fe 7dbd 9f50 d2bd 4a82 4d3d
000000a0: 0b00 123d ee93 a73d f4ba 273d 6974 923d
000000b0: 2fd5 973b 6597 713d 65d0 cb3d 1b0d 073d
000000c0: f652 c7bd 517c 20bd 209a 59bc ae4f 22bd
000000d0: 3761 5b3c 394f a1bb fb85 363c 0dd2 8b3c
000000e0: 72f8 a53c 0ee5 55bc 4d0c 543c 8948 9cbc
000000f0: 5e69 edbd d71a febd 89c2 85bd 02f6 403d
00000100: 1582 ef3d 2bc9 ed3d 07a6 3a3e 736d f73d
00000110: b84b 683d d891 c63d 3e57 6cbc a0c7 5d3d
00000120: 11d8 8fbd 6cc5 3dbe 2e09 d4bd b229 583d
00000130: c987 e83d f763 3e3c 757c 793c 530e 5a3b
00000140: 2455 1dbd 666d cfbc fc69 dbbc 38b4 f6bd
00000150: e033 82bd cf2f b7bd dc97 f6bd 3a25 81bc
00000160: f833 043d e58e 353d 7150 e5bc 8a6c 30bc
00000170: e44e 01bd b67d 3e3c ccb1 b1bd 6160 84bd
00000180: 6b2b 22bd d892 38bd bd68 fb3c 6c60 d83d
00000190: abb2 f63d 7086 e83c 057e ccbd 4521 8abd
000001a0: b90a 91bc 839f cc3d 1d3f 923d a68e b43c
000001b0: 1adb 533a 1aca 95bc 6c91 8b3d f955 cb3d
000001c0: 6975 d03d 3175 d33d 7529 b53c 598f d53d
000001d0: fe4f b43c bb1c 9e3d b488 273d 3ae8 53bc
000001e0: 218a 093a 560b 493c 8e2e 82bd 23c9 8ebc
000001f0: e812 c9bd a400 d3bd b85b 96bd 651c 6fbd
00000200: e89c 56bd c37b 81bd 0732 1cbc 1ae4 f1bd
00000210: 51e6 aebc 1d99 703b 7d9a e93b 8e28 ff3d
00000220: a898 e43d de90 863b 5553 ecbb c54d 9ebc
00000230: f5a3 f4bc cf13 883d 7365 273d f125 853c
00000240: e72d 35bc fa81 2dbd eefd 1fbd 6d87 30bd
00000250: 3c96 35bc cf73 2d3d e0ab 5bbd 89cf 693c
00000260: 9cf8 68bd 22c4 9cbd 025e cfbc 0c24 abbc
00000270: b771 633b 3151 403c 17bf 0bbd 584c 543d
00000280: fad2 e23c b5a2 343d 937e ce3d 6ba3 2c3e
00000290: 910b 213e 64a7 c03c 3186 1e3d ab62 71bd
000002a0: 0be9 64bd 54a1 f1bd 6aa8 8dbd 3948 25bc
000002b0: e51e c53d 9aaa 9f3d 68c9 d23b 2dd0 d6bc
000002c0: f194 fa3c 69a7 7abd 7428 ea3b 908a 95bd
000002d0: 9fa4 e3bc e0ec d3bd fa05 c2bd 060a a53d
000002e0: 30c3 2e3e 2ff7 d13d ed0f f0bd f4ab 2cbd
000002f0: d4cb 24bd ee0a 7dbd cdd5 e9bc ff52 93b9
00000300: 706b d0bd c3ff 08be 9761 d7bd b82f c4bd
00000310: 8cc8 b8bd 2854 b1bd 19a5 283e 04d9 3b3d
00000320: 34b1 df3d 4f59 bebd 8620 b9bc 539e 97bd
00000330: afb0 82bd 1299 923c abad 72bd d4e8 cbbc
00000340: cbc0 623d 94c2 353d 03e1 053c 2e6a 7abd
00000350: df93 a9bd 4800 aebd d51c b1bc a494 bcbd
00000360: 166e 10be 8e24 e1bd 13c7 12be 9a7b 843d
00000370: 57fc dd3d b816 fb3c 6e46 ee3d fab8 3a3d
00000380: 989f 0c3d f5a6 033e b328 f23d 56a6 02bd
00000390: 3fb6 5dbd 7254 953c ba9d 1e3d 1321 82bc
000003a0: 1d0f 87bc d535 03be 83eb 27be 6622 ffbd
000003b0: 61f7 d7bd dda9 55bd 3372 cbbd 986c 22be
000003c0: ef49 023c 94f8 0ebd 6a89 e4bc 6583 71bd
000003d0: f03c d53a 724d cb3d fc47 9e3d c2c0 e03c
000003e0: b2ed 773d 0215 6dbd b409 d4bd 614f 0bbe
000003f0: 4744 e1bd c5d4 81bd 071b cbbc b9d0 debd

features.10.bias f4 [64]
0.050210785 -0.049137834 0.10433811 -0.03755071 -0.07324589 0.09522628 0.08165489 -0.03626479
0.11580237 0.0002290967 0.046896376 -0.021263901 -0.04371834 -0.03851837 -0.092677206 0.072192155
0.06948177 0.097683765 -0.08505675 0.09662698 0.10195562 0.058495052 -0.02424055 0.04923286
0.08504193 0.064266175 -0.1275662 0.013157334 0.04438291 -0.088768855 0.054755304 0.06704652
-0.08208289 -0.10977775 -0.018466335 0.044575956 0.01732288 0.0043936237 -0.00050472113 -0.095146455
0.08458774 0.04685553 -0.063564114 -0.01611444 0.065465204 -0.03995976 -0.09185353 0.05118922
0.04080268 0.09957677 -0.04540179 0.011638409 0.070243016 0.077179134 0.045762468 0.024382891
0.0050450554 -0.029839 -0.045770872 0.034543663 0.07661188 -0.038225774 -0.04967836 0.051903367
00000000: d3a9 4d3d c144 49bd 38af d53d c6ce 19bd
00000010: f101 96bd ff05 c33d ae3a a73d 638a 14bd
00000020: cb29 ed3d ad39 7039 6a16 403d a231 aebc
00000030: 0112 33bd 70c5 1dbd 8ccd bdbd 7bd9 933d
00000040: 754c 8e3d 6d0e c83d 3c32 aebd 5ee4 c53d
00000050: 1cce d03d 8298 6f3d 1e94 c6bc 65a8 493d
00000060: 772a ae3d fc9d 833d b7a0 02be dc91 573c
00000070: dbca 353d 72cc b5bd 1947 603d b04f 893d
00000080: 131b a8bd 28d3 e0bd b646 97bc 4795 363d
00000090: b6e8 8d3c 63f8 8f3b 434f 04ba 25dc c2bd
000000a0: 563c ad3d 96eb 3f3d e72d 82bd 6e02 84bc
000000b0: 9f12 863d d8ac 23bd b41d bcbd caab 513d
000000c0: b620 273d e8ee cb3d 3af7 39bd 07af 3e3c
000000d0: 92db 8f3d 1810 9e3d 6d71 3b3d a1be c73c
000000e0: fe50 a53b eb70 f4bc 3d7a 3bbd a87d 0d3d
000000f0: b0e6 9c3d a192 1cbd 897b 4bbd a098 543d

features.11.weight f4 [64]
0.9964702 0.9680392 1.100482 1.0584785 0.9760279 1.0500096 1.0291913 1.046351
0.97676015 1.0586799 1.0104177 1.0600221 1.0617014 0.987718 0.9511766 1.0120364
0.9885721 1.0360589 0.99961084 0.97309643 1.0514501 0.96960473 1.0408181 1.0604092
1.0021065 1.0380758 1.0391736 1.0228176 1.0547676 1.001544 1.0335932 0.9976011
1.0034674 0.9938084 0.98854226 1.0476058 1.0225369 0.97371984 1.0366572 0.98594326
1.0245697 1.0573361 1.0202389 1.0708888 1.0460575 0.95619524 1.065952 1.0294553
0.9986724 1.0253634 1.0487993 0.97135997 1.0106814 1.0561105 0.98220396 1.085184
0.99484456 1.0319537 0.9824107 0.95893127 1.0738008 0.95791334 0.9743422 0.93899703
00000000: ac18 7f3f 6bd1 773f 98dc 8c3f 397c 873f
00000010: f7dc 793f b766 863f 8abc 833f d4ee 853f
00000020: f40c 7a3f d382 873f 5e55 813f ceae 873f
00000030: d5e5 873f 16db 7c3f 4f80 733f 698a 813f
00000040: 1013 7d3f 949d 843f 7fe6 7f3f d91c 793f
00000050: eb95 863f 0438 783f 8739 853f 7dbb 873f
00000060: 0745 803f abdf 843f a403 853f b0eb 823f
00000070: a002 873f 9832 803f c84c 843f c962 7f3f
00000080: 9f71 803f 3a6a 7e3f 1b11 7d3f f217 863f
00000090: 7de2 823f b445 793f 2fb1 843f c766 7c3f
000000a0: 1a25 833f ca56 873f 3097 823f e212 893f
000000b0: 36e5 853f 36c9 743f 1d71 883f 31c5 833f
000000c0: ffa8 7f3f 1c3f 833f 0e3f 863f 0cab 783f
000000d0: 025e 813f a12e 873f b871 7b3f 4fe7 8a3f
000000e0: 22ae 7e3f 0f17 843f 457f 7b3f 857c 753f
000000f0: 4e72 893f cf39 753f 7e6e 793f 1c62 703f

features.11.bias f4 [64]
-0.08837851 -0.13997824 0.121110655 0.090635814 -0.13419993 0.07579711 0.031053485 -0.036118597
-0.116488 -0.015609731 -0.034052957 -0.02421938 0.08809398 -0.086617164 -0.14773466 -0.022201443
0.026934007 0.035921734 -0.100987285 -0.13521896 0.07825337 -0.13986073 0.08289046 -0.017420473
-0.046832014 0.0681613 0.0581157 0.089563325 0.07313073 -0.086183324 0.08049719 -0.11414847
-0.029072165 -0.12055267 -0.114037514 0.056240603 -0.107295774 -0.10407822 0.071143575 -0.11038681
0.051559143 0.06603725 -0.10129527 0.0757828 0.03691188 -0.13912256 0.1151881 0.0865826
-0.09818429 0.03947902 0.076750204 -0.07933672 0.03069875 0.03221363 -0.11466016 0.1069698
-0.11088847 -0.100665346 -0.11565643 -0.14258572 -0.031399153 -0.12321097 -0.10620542 -0.1482166
00000000: cbff b4bd 7556 0fbe dd08 f83d 459f b93d
00000010: b56b 09be 843b 9b3d e163 fe3c 18f1 13bd
00000020: 4391 eebd f5bf 7fbc 1d7b 0bbd b967 c6bc
00000030: 9e6a b43d 5764 b1bd c147 17be cddf b5bc
00000040: b5a4 dc3c ab22 133d 6cd2 cebd d776 0abe
00000050: 4e43 a03d a737 0fbe 79c2 a93d 61b5 8ebc
00000060: edd2 3fbd 2798 8b3d ba0a 6e3d fa6c b73d
00000070: 90c5 953d e280 b0bd b6db a43d acc6 e9bd
00000080: c028 eebc 51e4 f6bd 808c e9bd 8c5c 663d
00000090: e3bd dbbd f626 d5bd b9b3 913d 7b12 e2bd
000000a0: ae2f 533d 8a3e 873d e573 cfbd 0334 9b3d
000000b0: e930 173d 2576 0ebe bde7 eb3d 3852 b13d
000000c0: d814 c9bd c1b4 213d 362f 9d3d 4a7b a2bd
000000d0: f27b fb3c 70f2 033d f2d2 eabd fc12 db3d
000000e0: 7f19 e3bd a229 cebd 47dd ecbd fe01 12be
000000f0: 669c 00bd 0856 fcbd 3a82 d9bd 18c6 17be

features.11.running_mean f4 [64]
-0.15003413 -0.13494131 -0.36571306 -0.12569967 -0.3501746 0.6297767 0.51638407 0.12241833
-0.0047388384 -0.089946434 -0.0978075 0.068958655 0.102152705 -0.36691445 -0.4063639 -0.08190292
0.37775043 0.4213364 -0.058954798 0.26856065 0.3749921 -0.01165894 0.2988889 0.15889981
0.010994782 -0.32757235 0.2492125 0.051810972 0.66973376 -0.36501077 0.18620324 0.150294
0.39029217 -0.27690825 -0.14070456 0.23711886 0.0912991 -0.3283675 0.62459135 -0.268271
0.34024182 0.3986398 -0.31661764 0.6006121 0.60185367 -0.05064557 0.45309 -0.094715685
-0.121763185 0.6446444 0.43164358 -0.3022446 0.58059245 -0.25558156 -0.33002037 0.39477575
-0.010744425 -0.15448694 -0.22622661 -0.19210745 0.22875787 -0.13057947 -0.21066387 -0.20807599
00000000: 8ca2 19be 0e2e 0abe be3e bbbe 6ab7 00be
00000010: 164a b3be 0c39 213f bf31 043f 76b6 fa3d
00000020: 4248 9bbb d635 b8bd 4c4f c8bd 323a 8d3d
00000030: 7035 d13d 36dc bbbe ee0e d0be b8bc a7bd
00000040: 8168 c13e 68b9 d73e 967a 71bd c880 893e
00000050: f7fe bf3e 2405 3fbc f707 993e a2b6 223e
00000060: 7523 343c 90b7 a7be 9031 7f3e be37 543d
00000070: ac73 2b3f b1e2 babe 10ac 3e3e ace6 193e
00000080: 60d4 c73e ebc6 8dbe db14 10be 49cf 723e
00000090: 06fb ba3d c91f a8be 38e5 1f3f d15a 89be
000000a0: 2d34 ae3e 841a cc3e b51b a2be b7c1 193f
000000b0: 1513 1a3f bb71 4fbd 6afb e73e 4cfa c1bd
000000c0: fa5e f9bd 6a07 253f 6300 dd3e cebf 9abe
000000d0: b5a1 143f 96db 82be 6ef8 a8be 0c20 ca3e
000000e0: 6209 30bc d331 1ebe f3a7 67be d1b7 44be
000000f0: 813f 6a3e a0b6 05be 45b8 57be df11 55be

features.11.running_var f4 [64]
0.46274257 0.40400988 0.5807548 0.46822128 0.450633 0.23153548 0.41841355 0.552499
0.3857808 0.6287064 0.4691668 0.64584494 0.4094151 0.30896714 0.33900383 0.40661365
0.21895492 0.36834002 0.48267338 0.5531864 0.30493048 0.3887141 0.5446018 0.49405175
0.51330614 0.4524211 0.3497274 0.29135323 0.41937122 0.4940471 0.31761348 0.46536237
0.6055349 0.5251147 0.45738694 0.40646917 0.53680456 0.40256932 0.2531497 0.50364196
0.31807166 0.32040283 0.41741914 0.32979602 0.41926888 0.42591667 0.24697141 0.37587008
0.49743912 0.33953357 0.3370837 0.36114037 0.3255014 0.4565994 0.4273162 0.4139996
0.4284366 0.5265976 0.43059573 0.48415843 0.5293996 0.3915266 0.45882362 0.44599763
00000000: 98ec ec3e 62da ce3e 59ac 143f b3ba ef3e
00000010: 5eb9 e63e a317 6d3e 4d3a d63e 9370 0d3f
00000020: 1085 c53e e7f2 203f a136 f03e 1856 253f
00000030: db9e d13e f130 9e3e e991 ad3e aa2f d03e
00000040: b835 603e 1097 bc3e f720 f73e a09d 0d3f
00000050: d91f 9c3e 8905 c73e 066b 0b3f 5af4 fc3e
00000060: 0868 033f bda3 e73e 780f b33e 402c 953e
00000070: d3b7 d63e bef3 fc3e 3c9e a23e fa43 ee3e
00000080: 5604 1b3f eb6d 063f 9f2e ea3e ba1c d03e
00000090: 066c 093f 911d ce3e d69c 813e aeee 003f
000000a0: 4ada a23e d70b a43e f6b7 d53e 06db a83e
000000b0: 69aa d63e c011 da3e 13e6 7c3e 0b72 c03e
000000c0: 57b0 fe3e 58d7 ad3e 3c96 ac3e 64e7 b83e
000000d0: 1fa8 a63e 66c7 e93e 30c9 da3e c1f7 d33e
000000e0: 0b5c db3e 1acf 063f 0b77 dc3e 9de3 f73e
000000f0: bb86 073f 2d76 c83e eeea ea3e cd59 e43e

embedding_layer.0.weight f4 [16, 64]
0.08506177 -0.015321712 0.006341305 -0.1621556 -0.034217853 -0.09806632 -0.05397612 -0.13623801
0.08225135 -0.18424036 0.04731588 -0.13920207 -0.11390168 0.023563359 0.10316368 0.004107779
-0.15378897 0.020244868 0.022275655 0.041855242 -0.04126728 0.14203715 0.037340812 -0.20810878
-0.09504775 -0.020686902 -0.016477304 -0.061784327 -0.09635898 -0.0709549 -0.1108569 0.047963087
-0.15120624 0.06922806 -0.029797075 0.015884552 -0.025297914 0.12401129 -0.08429897 0.074343316
-0.08908369 -0.028589053 0.17229015 0.029841445 -0.08900461 0.1265811 0.008078314 -0.15439472
0.115445085 -0.045158572 0.01951257 0.12157468 -0.0050821975 -0.112933956 -0.011900393 -0.10372797
0.0036348642 -0.01182344 0.03526189 0.058652718 -0.12275977 0.09565795 -0.0287656 0.092914775
0.0840233 -0.009184631 0.013370321 0.0008742859 -0.022088174 -0.040851455 0.052048337 -0.19146934
0.08986189 -0.055852983 0.009958915 -0.1129449 0.0010753123 0.118075125 0.11881027 -0.13604705
-0.03396125 0.034420375 0.16285793 0.15592496 0.015094532 0.14636421 -0.0579296 -0.10817263
-0.20805204 -0.08620351 -0.065324664 -0.119041234 0.04165244 0.10811126 0.043902684 0.12875308
-0.18660359 0.006180525 0.14710487 -0.061049093 0.13936122 0.07482257 -0.09453595 0.080813214
-0.051640283 -0.004391929 0.021674525 0.024940131 0.063517824 0.13421102 -0.027732098 -0.13534144
0.19136478 0.012152692 0.09701501 0.08272721 0.014990851 -0.011941609 0.11853402 -0.04797428
0.05854934 0.06174899 0.12208407 0.05341524 -0.09957135 0.13960779 0.15354863 0.09801885
-0.10382104 -0.091400586 0.036093082 0.11620289 -0.11751524 -0.11336787 0.07369251 -0.2949841
-0.059276287 -0.18904237 0.020493293 -0.13096058 0.13180146 -0.22357553 -0.008096039 -0.09886844
-0.06902005 0.1650887 -0.14956135 -0.14014377 -0.03994933 -0.07211623 0.16244446 -0.09528576
-0.1282443 -0.030448953 0.15280166 0.06727434 0.011273413 0.06416982 0.19622189 -0.043314297
-0.095542565 0.009098118 -0.115648925 0.11742226 -0.122954786 -0.1418212 0.15223658 -0.062828146
0.14000812 -0.053364135 -0.23434314 0.056094192 0.1545679 -0.18449278 0.037521966 0.024914421
-0.13340728 0.13340707 0.15638651 -0.13389698 0.032667585 -0.23940596 -0.14383039 0.065404214
-0.091658615 -0.19915673 -0.06392051 -0.05681157 -0.07533037 -0.14390554 -0.1427187 -0.026200725
0.045280613 -0.08325226 0.095029935 0.120674655 -0.027923217 0.08268527 0.1225638 0.025615714
0.002560261 0.060609266 -0.07727724 -0.023622818 0.16781588 0.0074586906 0.028356701 -0.0014864207
0.13316801 0.13590147 -0.026069438 -0.06213036 0.10278565 -0.09158864 0.032159213 0.07292595
0.061744314 0.13941158 0.03872733 0.17519687 0.026252558 -0.08029572 0.13867158 -0.022276387
0.046253476 -0.059759866 -0.07882178 0.08153955 -0.009839191 0.022432065 0.17501271 -0.006006263
0.13298836 0.120903574 -0.015414002 0.09896363 0.062364575 0.023993615 0.096546754 0.13947481
-0.02919456 0.019998625 0.113516055 -0.05258958 0.11997834 0.1326288 -0.013309242 0.07911869
-0.049411964 0.03565923 -0.069084175 -0.039877232 -0.058114428 -0.05512711 -0.057601336 -0.053168837
00000000: de34 ae3d eb07 7bbc b9ca cf3b 1e0c 26be
00000010: 0528 0cbd ffd6 c8bd 1016 5dbd fa81 0bbe
00000020: 6573 a83d 81a9 3cbe 4cce 413d fd8a 0ebe
00000030: 4945 e9bd f207 c13c 7b47 d33d 8c9a 863b
00000040: db7a 1dbe 91d8 a53c 6f7b b63c 6770 2b3d
00000050: e107 29bd 3072 113e aef2 183d 781a 55be
00000060: 65a8 c2bd 9477 a9bc 69fb 86bc 9011 7dbd
00000070: db57 c5bd cd50 91bd f108 e3bd f174 443d
00000080: cfd5 1abe 71c7 8d3d ff18 f4bc 5220 823c
00000090: 923d cfbc a2f9 fd3d f0a4 acbd 4f41 983d
000000a0: 8271 b6bd 9733 eabc d46c 303e 0c76 f43c
000000b0: 0d48 b6bd 7a9e 013e e85a 043c a619 1ebe
000000c0: 796e ec3d 32f8 38bd d3d8 9f3c 25fc f83d
000000d0: 9088 a6bb eb49 e7bd def9 42bc 546f d4bd
000000e0: e736 6e3b 1ab7 41bc c66e 103d d53d 703d
000000f0: 7969 fbbd 51e8 c33d d6a5 ebbc 1a4a be3d
00000100: 6814 ac3d 227b 16bc 310f 5b3c 5530 653a
00000110: 42f2 b4bc db53 27bd a330 553d 8a10 44be
00000120: 8309 b83d 19c6 64bd b82a 233c a84f e7bd
00000130: 7ef1 8c3a 5fd1 f13d cd52 f33d eb4f 0bbe
00000140: f41a 0bbd 61fc 0c3d 3bc4 263e cbaa 1f3e
00000150: 0e4f 773c 80e0 153e 9747 6dbd 9d89 ddbd
00000160: 980b 55be 778b b0bd f0c8 85bd e4cb f3bd
00000170: c09b 2a3d 7069 dd3d 4dd3 333d d9d7 033e
00000180: 0315 3fbe 0086 ca3b a9a2 163e 9d0e 7abd
00000190: b5b4 0e3e 933c 993d 109c c1bd 6681 a53d
000001a0: c384 53bd 2cea 8fbb c68e b13c 3f4f cc3c
000001b0: a215 823d 9d6e 093e 6d2e e3bc f296 0abe
000001c0: 21f5 433e 161c 473c ceaf c63d e26c a93d
000001d0: 309c 753c bda6 43bc f7c1 f23d ae80 44bd
000001e0: 6fd1 6f3d 82ec 7c3d 3707 fa3d f0c9 5a3d
000001f0: 10ec cbbd 58f5 0e3e da3b 1d3e 1bbe c83d
00000200: 20a0 d4bd 3b30 bbbd 57d6 133d c8fb ed3d
00000210: d5ab f0bd 6a2d e8bd 19ec 963d 2808 97be
00000220: b1cb 72bd 5394 41be 8de1 a73c 881a 06be
00000230: f6f6 063e fcf0 64be 40a5 04bc 897b cabd
00000240: 625a 8dbd 030d 293e 9c26 19be d981 0fbe
00000250: e9a1 23bd adb1 93bd d757 263e 2e25 c3bd
00000260: 7952 03be 1570 f9bc 0a78 1c3e 21c7 893d
00000270: 1fb4 383c 776b 833d 64ee 483e 556a 31bd
00000280: d2ab c3bd 4610 153c 58d9 ecbd 157b f03d
00000290: b8cf fbbd 9439 11be e8e3 1b3e 0bac 80bd
000002a0: 4a5e 0f3e 5a94 5abd a6f7 6fbe 06c3 653d
000002b0: 0c47 1e3e adeb 3cbe a2b0 193d 5419 cc3c
000002c0: eb9b 08be dd9b 083e c923 203e 4a1c 09be
000002d0: 72ce 053d d626 75be 4648 13be a5f2 853d
000002e0: 83b7 bbbd beef 4bbe c2e8 82bd 40b3 68bd
000002f0: cf46 9abd f95b 13be da24 12be e7a2 d6bc
00000300: 2a78 393d 2980 aabd 0e9f c23d 4624 f73d
00000310: 3bbf e4bc e556 a93d bb02 fb3d 0cd8 d13c
00000320: 0dca 273b 6c41 783d 8843 9ebd a484 c1bc
00000330: edd7 2b3e 0868 f43b 504c e83c 01d4 c2ba
00000340: 325d 083e c129 0b3e 938f d5bc 687c 7ebd
00000350: 4881 d23d d392 bbbd 61b9 033d 335a 953d
00000360: 9be7 7c3d e9c1 0e3e 8ca0 1e3d cf66 333e
00000370: 9b0f d73c 1572 a4bd ecff 0d3e f87c b6bc
00000380: 4974 3d3d c3c6 74bd 506d a1bd 35fe a63d
00000390: 8f34 21bc 73c3 b73c 8836 333e 30d0 c4bb
000003a0: 1a2e 083e 4b9c f73d 038b 7cbc 72ad ca3d
000003b0: ff71 7f3d 428e c43c 4eba c53d 7cd2 0e3e
000003c0: 6e29 efbc 28d4 a33c 1b7b e83d 2c68 57bd
000003d0: 34b7 f53d d8cf 073e 020f 5abc fb08 a23d
000003e0: 3364 4abd 6a0f 123d 017c 8dbd 4f56 23bd
000003f0: 6509 6ebd f7cc 61bd 61ef 6bbd 91c7 59bd

embedding_layer.0.bias f4 [16]
-0.023533706 -0.051162973 -0.0553034 0.17747806 0.02465935 -0.08007608 0.05321843 0.12917133
0.19168076 0.19981419 0.08535031 0.10108602 0.07641767 0.045532286 -0.121106565 -0.066343874
00000000: c2c9 c0bc 4490 51bd d185 62bd cfbc 353e
00000010: 6802 ca3c eefe a3bd 92fb 593d 7d45 043e
00000020: f647 443e 179c 4c3e 25cc ae3d 3006 cf3d
00000030: de80 9c3d 1080 3a3d b806 f8bd 4cdf 87bd

classifier.weight f4 [2, 16]
-0.24570864 -0.21245004 0.2614902 0.23017119 -0.0863533 0.05881627 -0.1504108 0.3647035
0.2516025 0.23298031 0.1297044 -0.05218765 0.33808985 -0.30625704 -0.1864818 -0.14707561
0.0035090891 0.18267077 -0.20155704 -0.27940008 0.2871917 0.3402292 0.22984524 -0.3964193
0.049213964 -0.012123558 -0.06114308 -0.31184638 0.102030195 0.00500163 -0.17721108 0.18742786
00000000: 0c9b 7bbe 818c 59be 0be2 853e ffb1 6b3e
00000010: 00da b0bd 54e9 703d 4a05 1abe 6bba ba3e
00000020: 0bd2 803e 6492 6e3e 3bd1 043e b8c2 55bd
00000030: 1d1a ad3e b9cd 9cbe 16f5 3ebe fd9a 16be
00000040: bff8 653b 0c0e 3b3e f864 4ebe 870d 8fbe
00000050: ca0a 933e 8632 ae3e 8d5c 6b3e 78f7 cabe
00000060: 9594 493d e3a1 46bc 2b71 7abd 54aa 9fbe
00000070: 35f5 d03d b7e4 a33b d276 35be 17ed 3f3e

classifier.bias f4 [2]
0.1646723 0.00024196057
00000000: db9f 283e ccb6 7d39
