o02_train/run_outputs/79cnn_train_weights.pth (torch, 48140 bytes, 22 tensors)

features.0.weight f4 [16, 6, 5]
1.9334784 1.4848108 0.64216363 -0.62063307 -1.5318847 -1.0120956 -1.4341253 -0.9615321
-0.52399665 -1.1114799 1.3822974 0.76981866 0.5334796 -0.16511314 -0.64787984 -0.022815743
0.041476857 0.0055298363 0.029295895 0.12174477 -0.0075248103 0.0047480864 -0.13294373 0.0299774
0.040941782 -0.26976174 -0.05896593 -0.07475694 -0.0882342 -0.3956494 -3.6164865 -3.3544066
-1.815695 -0.8938697 0.27377868 0.1709962 -0.62860554 -0.25862002 -0.52589226 0.19233811
-0.3166318 -0.19834794 0.28047946 1.1602558 1.3287015 -0.03406865 0.10615883 -0.08613265
0.08379334 0.007683604 -0.10310713 0.018471021 -0.018064681 0.15901817 -0.11049371 -0.034836084
0.020951984 -0.039658174 0.13281175 -0.22038063 -3.4298868 -3.6797209 -2.4999723 -1.37557
-0.37884682 0.33008966 0.5393045 -0.42185545 -0.4625193 -0.82427496 -0.23568839 -0.44258794
-0.16260433 0.6213957 1.2889607 0.016739283 -0.02066984 0.03761073 -0.0716571 0.101147465
-0.15114395 -0.14438286 0.21594198 0.026027696 0.054994594 -0.10342371 0.1158496 -0.10465531
-0.08615707 0.035098623 2.8435585 2.2846406 1.2738459 0.037281312 -0.57573855 -1.1199558
-0.71860605 -0.69243836 -0.37395898 0.23588493 1.2145923 1.1209363 0.5391647 -0.16479056
-0.85026354 0.06958385 -0.008252022 -0.026226444 -0.094136 -0.09955854 -0.17436074 -0.10651068
0.08785858 -0.09143079 -0.18470454 -0.14130698 -0.014144833 -0.17259581 -0.14720656 -0.16392697
0.056782376 0.1457544 0.4558197 0.27042973 0.3388167 0.48103678 0.04399724 0.007226528
-0.25702506 0.19013645 0.13392399 -0.04845926 -0.24994117 -0.036909364 -0.4188259 -0.28119376
0.091287225 -0.23225515 -0.05727079 -0.022355111 -0.11449179 -0.11672176 0.06765871 -0.084880576
-0.13066757 -0.19682556 -0.052685075 -0.02513667 0.08195616 -0.12792866 0.62205464 1.1937993
0.4907732 -0.13421036 0.27428418 0.8922962 0.29064268 -0.29142812 0.25432375 0.51938105
-1.6753907 -1.4106495 -0.4371528 -0.32527778 -0.75228864 0.05538235 -0.052781753 0.010841316
0.021090275 -0.0029545526 -0.1918839 0.18067494 0.22142151 -0.1105981 -0.09605374 -0.11138196
-0.07917838 0.17195858 0.15161806 -0.17758028 3.1442358 2.4317858 1.1754829 -0.5707889
-1.2756732 -1.5243062 -1.7875109 -1.5309986 -1.6456256 -1.5835587 1.6558982 1.4753085
1.2436821 0.7806339 0.20035914 -0.024791192 0.016355649 -0.006645903 0.0054197824 0.085576385
0.041183013 -0.034067363 -0.030369682 0.017290995 0.043168236 -0.12105072 0.03936821 0.0068136393
-0.061743185 -0.1529899 3.0860026 2.297642 1.1884494 0.2070891 -1.1029634 2.0433517
1.544076 0.5366711 0.27308708 0.2851394 -0.89180404 -0.828291 -0.6150704 -0.22599432
-0.3334991 0.07397317 0.050524995 0.06445812 -0.01763729 -0.08583608 -0.391624 0.005082385
0.14245462 0.08975997 0.016665377 0.12955801 -0.00071424426 -0.06803876 0.010015249 0.021912444
-0.93589485 0.3737129 1.5946413 2.356459 2.9853883 -1.2581334 -1.7254595 -0.6644943
-0.722609 -1.1050686 1.4003927 1.6476072 1.5768117 1.2451 0.9432678 -0.12042037
00000000: 387c f73f 480e be3f d664 243f cfe1 1ebf
00000010: cc14 c4bf 598c 81bf 6b91 b7bf f826 76bf
00000020: a524 06bf f944 8ebf 1fef b03f d612 453f
00000030: 1e92 083f 6b13 29be 74db 25bf 15e8 babc
00000040: a3e3 293d a133 b53b f2fd ef3c 5255 f93d
00000050: af92 f6bb d695 9b3b 6722 08be 2a93 f53c
00000060: 92b2 273d 361e 8abe 4286 71bd 2b1a 99bd
00000070: 22b4 b4bd 8f92 cabe 8474 67c0 99ae 56c0
00000080: b268 e8bf a5d4 64bf b82c 8c3e a119 2f3e
00000090: 4bec 20bf d869 84be e0a0 06bf 48f4 443e
000000a0: 901d a2be b91b 4bbe 019b 8f3e 4383 943f
000000b0: e412 aa3f 928b 0bbd cd69 d93d 5166 b0bd
000000c0: d89b ab3d bec6 fb3b d529 d3bd 8a50 973c
000000d0: 62fc 93bc a9d5 223e 874a e2bd 48b0 0ebd
000000e0: 7fa3 ab3c 9c70 22bd ceff 073e 76ab 61be
000000f0: 4483 5bc0 8c80 6bc0 8cff 1fc0 ae12 b0bf
00000100: 36f8 c1be 8301 a93e dc0f 0a3f 70fd d7be
00000110: 54cf ecbe af03 53bf 4c58 71be e39a e2be
00000120: c081 26be ca13 1f3f aafc a43f d220 893c
00000130: cc53 a9bc b50d 1a3d f5c0 92bd 6726 cf3d
00000140: 7bc5 1abe 1ad9 13be e51f 5d3e 0938 d53c
00000150: 0342 613d cfcf d3bd 8e42 ed3d 8655 d6bd
00000160: 1e73 b0bd 93c3 0f3d ddfc 3540 8d37 1240
00000170: 620d a33f 4ab4 183d 9a63 13bf b65a 8fbf
00000180: 91f6 37bf a443 31bf 8d77 bfbe d28b 713e
00000190: c377 9b3f d77a 8f3f b306 0a3f dbbe 28be
000001a0: dfaa 59bf fa81 8e3d 7d33 07bc d7d8 d6bc
000001b0: 60ca c0bd 59e5 cbbd 9f8b 32be 4522 dabd
000001c0: 33ef b33d 1140 bbbd 3023 3dbe c7b2 10be
000001d0: bbbf 67bc f5bc 30be 51bd 16be 79dc 27be
000001e0: a394 683d a440 153e 3361 e93e c475 8a3e
000001f0: 6279 ad3e 744a f63e 7336 343d 83cc ec3b
00000200: ca98 83be 21b3 423e 5f23 093e 387d 46bd
00000210: 94f0 7fbe 462e 17bd 5970 d6be a1f8 8fbe
00000220: ccf4 ba3d 4bd4 6dbe c794 6abd 1122 b7bc
00000230: ac7a eabd d10b efbd a690 8a3d ded5 adbd
00000240: b8cd 05be a48c 49be 4ecc 57bd 6beb cdbc
00000250: a2d8 a73d bbff 02be f93e 1f3f 6ace 983f
00000260: a046 fb3e 716e 09be fa6e 8c3e 866d 643f
00000270: 1ecf 943e 1136 95be b936 823e 28f6 043f
00000280: 3473 d6bf 2a90 b4bf 7ed2 dfbe cf8a a6be
00000290: fd95 40bf 9ad8 623d ae31 58bd c69f 313c
000002a0: 83c5 ac3c 2ba1 41bb 377d 44be da02 393e
000002b0: 52bc 623e 4281 e2bd d3b7 c4bd 3a1c e4bd
000002c0: 4628 a2bd e915 303e c441 1b3e 9bd7 35be
000002d0: 293b 4940 61a2 1b40 3976 963f 391f 12bf
000002e0: 4249 a3bf 771c c3bf 28cd e4bf c3f7 c3bf
000002f0: dca3 d2bf 0db2 cabf 79f4 d33f e9d6 bc3f
00000300: fa30 9f3f a0d7 473f f22a 4d3e e616 cbbc
00000310: 48fc 853c e0c5 d9bb 6e98 b13b ac42 af3d
00000320: 85af 283d 388a 0bbd d7c9 f8bc d8a5 8d3c
00000330: 2dd1 303d 71e9 f7bd 8f40 213d f344 df3b
00000340: 6ce6 7cbd 62a9 1cbe 1181 4540 910c 1340
00000350: 1c1f 983f 2a0f 543e e82d 8dbf 46c6 0240
00000360: 48a4 c53f 4763 093f 12d2 8b3e cbfd 913e
00000370: 454d 64bf e10a 54bf 4175 1dbf 0e6b 67be
00000380: 65c0 aabe 3f7f 973d 4cf3 4e3d 9e02 843d
00000390: 147c 90bc d4ca afbd f182 c8be 238a a63b
000003a0: a0df 113e 13d4 b73d d485 883c dbaa 043e
000003b0: 1f3c 3bba e857 8bbd 0017 243c ba81 b33c
000003c0: ce96 6fbf 4c57 bf3e 351d cc3f 39d0 1640
000003d0: 9a10 3f40 840a a1bf dbdb dcbf 4c1c 2abf
000003e0: e7fc 38bf e372 8dbf 1140 b33f cbe4 d23f
000003f0: f7d4 c93f 705f 9f3f 007a 713f f49e f6bd

features.0.bias f4 [16]
0.12973732 0.031520173 -0.03680574 0.0024547426 -0.059314784 -0.07434574 -0.0349799 -0.0029465284
0.13237526 0.14558119 0.0367547 0.062025692 -0.056632295 0.023397107 -0.018156515 0.0070328927
00000000: dcd9 043e 4c1b 013d 9ec1 16bd bfdf 203b
00000010: 0ff4 72bd 9442 98bd 1547 0fbd 8b1a 41bb
00000020: 618d 073e 3c13 153e 198c 163d a70e 7e3d
00000030: 44f7 67bd 4aab bf3c f9bc 94bc 2e74 e63b

features.1.weight f4 [16]
0.8808428 0.90210485 0.75520384 0.7577626 0.6537291 0.7679883 0.85545784 0.8248673
0.75099885 0.8056213 0.9104358 0.8081663 0.7702752 0.78267235 0.8600557 0.6612374
00000000: ea7e 613f 58f0 663f 0a55 413f bbfc 413f
00000010: ca5a 273f e29a 443f 49ff 5a3f 812a 533f
00000020: 7641 403f 333d 4e3f 5212 693f fde3 4e3f
00000030: c130 453f 375d 483f 9c2c 5c3f db46 293f

features.1.bias f4 [16]
-0.12556568 -0.1017414 -0.32811657 -0.071104996 -0.0041679163 -0.331562 0.0021148473 -0.17911544
-0.267024 -0.014444779 -0.26544863 -0.074742965 -0.106598146 -0.3142831 -0.054802578 -0.09811739
00000000: 4a94 00be cc5d d0bd e5fe a7be 7f9f 91bd
00000010: 0493 88bb 7fc2 a9be 4099 0a3b 0a6a 37be
00000020: 5fb7 88be cba9 6cbc e2e8 87be d712 99bd
00000030: 2150 dabd b7e9 a0be ab78 60bd c5f1 c8bd

features.1.running_mean f4 [16]
0.092441194 0.023452735 -0.046408616 0.009484465 -0.019757923 -0.07808191 -0.048339173 -0.0100500565
0.13652737 0.16142245 -0.0074993563 0.06267063 -0.06609484 0.014888379 -0.036710735 -0.03147892
00000000: cf51 bd3d f31f c03c f616 3ebd bb64 1b3c
00000010: 5edb a1bc 69e9 9fbd 4cff 45bd fea8 24bc
00000020: d5cd 0b3e ed4b 253e 29bd f5bb 7659 803d
00000030: bb5c 87bd 63ee 733c ff5d 16bd 0af0 00bd

features.1.running_var f4 [16]
1504.6815 65.67306 73.91933 1019.5577 926.84 19.7963 171.10655 125.86506
165.05287 1406.5637 3751.2017 17.414572 199.8094 207.14198 439.8861 716.34534
00000000: cf15 bc44 9b58 8342 b2d6 9342 b1e3 7e44
00000010: c3b5 6744 d35e 9e41 471b 2b43 e9ba fb42
00000020: 890d 2543 0ad2 af44 3a73 6a45 0b51 8b41
00000030: 35cf 4743 5924 4f43 6cf1 db43 1a16 3344

features.5.weight f4 [32, 16, 3]
0.16943799 0.18226746 -0.027345067 -0.12448523 -0.13505277 -0.102653444 -0.052968953 -0.07199825
-0.13265441 0.12755919 -0.0018395493 -0.05122145 -0.09755257 -0.100537516 -0.06849796 -0.16791491
-0.1837846 -0.20572016 0.08360568 0.024318265 0.05354994 -0.072227605 -0.12154634 -0.09747059
-0.05303721 -0.060450613 0.018420404 0.10544515 0.08557861 -0.02508968 0.1768351 0.12572277
0.023576379 -0.3021225 -0.38709626 -0.3179344 -0.048618887 0.005433481 0.007971728 0.02398087
-0.12440066 -0.021718482 -0.025871906 0.13629164 -0.007380654 -0.11198419 -0.017563542 -0.014776667
0.088174924 -0.1624776 -0.27404064 -0.053880494 0.16574788 0.034680277 0.050272275 0.11387495
0.061120946 0.09966254 0.0021798564 -0.008220018 0.06679263 -0.012955245 -0.015808582 -0.11776373
-0.09413062 0.012779159 0.028774722 -0.20379536 -0.2440207 -0.18114288 -0.09373908 -0.015433441
-0.17864817 -0.18470809 -0.07299147 0.053970877 -0.055496126 -0.116095 0.080525704 -0.15838636
-0.24052724 -0.031257875 -0.23154512 -0.15846722 -0.11521698 -0.017341575 0.03462424 0.15430231
0.0012656054 0.15379544 -0.27302796 -0.27057654 -0.064640425 -0.18538645 -0.027082378 0.13594924
-0.016992278 0.09515007 0.004919128 -0.12568493 -0.09837464 -0.029452719 -0.122462876 -0.031112513
0.019529937 -0.06529857 -0.19443995 -0.23629697 -0.22090915 -0.19659734 -0.19864468 -0.16780244
-0.071429625 0.0655322 0.08294135 0.124719165 0.0038936948 0.25864905 0.025409043 0.0071855336
0.19913006 -0.1213842 -0.13423789 0.026819542 -0.07922698 -0.08829738 -0.09046415 -0.010616022
-0.053274397 0.03759345 0.02427143 0.038468968 -0.13057733 -0.10570963 -0.122581765 -0.09146365
0.044305097 0.015704105 -0.11496375 -0.0945541 -0.06059267 -0.08298894 -0.10008307 -0.12520617
-0.08120817 -0.15529723 -0.07086592 -0.057608195 -0.25332263 -0.27485627 -0.16606732 -0.14902453
-0.13519254 -0.039343067 0.07878607 0.00971936 0.104853176 -0.028741838 0.0141868 0.024126431
0.074940026 -0.03721888 -0.14548016 -0.051928263 -0.21632291 -0.08099204 0.008947362 0.055970676
-0.067185394 -0.09113577 -0.08594612 -0.13878478 -0.09738447 -0.08072589 -0.042992394 0.02434748
0.054764625 0.09561093 -0.035581883 0.27334026 -0.28557876 -0.15624163 -0.10926302 -0.068505034
-0.043295577 0.018765612 0.11328987 0.12844352 0.07209286 0.06386345 -0.06081381 -0.10093129
-0.060659412 -0.15113567 -0.10783947 0.26864555 -0.14692415 0.21251328 0.03244481 0.114792764
0.19356659 0.14533217 -0.1619864 0.02683811 0.0044729896 -0.13255702 -0.06632408 -0.015828475
0.09638493 -0.030069605 0.0129265785 -0.04732681 -0.11236594 -0.026521323 -0.02657419 -0.0036961655
-0.050918914 -0.03996423 0.042096697 0.018780889 0.02092382 -0.13635178 -0.2516646 -0.3411534
-0.33079305 -0.016046504 -0.045779623 0.037626337 -0.011683054 0.034589887 0.09525731 -0.14057717
-0.20991112 -0.055614717 -0.111756444 -0.16307336 -0.18055762 0.07640384 0.04471087 0.014656236
-0.10641565 -0.01877619 0.12304889 -0.007409963 -0.03688533 -0.010708434 0.03388549 0.13462223
0.03431836 -0.082595125 -0.0051320037 0.0030735524 -0.23064153 -0.20566472 -0.17013837 0.12599495
00000000: 2781 2d3e 52a4 3a3e c302 e0bc 1df2 febd
00000010: 464b 0abe f83b d2bd f9f5 58bd d273 93bd
00000020: 8fd6 07be e09e 023e 081d f1ba 95cd 51bd
00000030: a4c9 c7bd 9de6 cdbd a948 8cbd e3f1 2bbe
00000040: 0832 3cbe 4ea8 52be 7439 ab3d 1937 c73c
00000050: 2f57 5b3d 11ec 93bd 4aed f8bd a99e c7bd
00000060: 8c3d 59bd 109b 77bd 63e6 963c a0f3 d73d
00000070: d743 af3d df88 cdbc 4314 353e 78bd 003e
00000080: 4023 c13c cdaf 9abe 7b31 c6be 4cc8 a2be
00000090: 9924 47bd 580b b23b da9b 023c 8873 c43c
000000a0: c6c5 febd f5ea b1bc 52f1 d3bc 0990 0b3e
000000b0: 6ad9 f1bb f857 e5bd 6be1 8fbc d519 72bc
000000c0: 0e95 b43d 8760 26be 0e4f 8cbe cbb1 5cbd
000000d0: d0b9 293e e80c 0e3d 4dea 4d3d 4537 e93d
000000e0: f559 7a3d e01b cc3d ecdb 0e3b 41ad 06bc
000000f0: 93ca 883d 3c42 54bc 0081 81bc 1c2e f1bd
00000100: 8ec7 c0bd ad5f 513c f7b8 eb3c bbaf 50be
00000110: 90e0 79be 857d 39be 46fa bfbd 8bdc 7cbc
00000120: 8cef 36be 1e24 3dbe 8d7c 95bd 9110 5d3d
00000130: e84f 63bd 37c3 edbd a9ea a43d 0930 22be
00000140: c64c 76be 4208 00bd 2a1a 6dbe 3b45 22be
00000150: e1f6 ebbd eb0f 8ebc 26d2 0d3d 6d01 1e3e
00000160: ace2 a53a 8d7c 1d3e 52ca 8bbe 0289 8abe
00000170: 3362 84bd f2d5 3dbe dddb ddbc 4736 0b3e
00000180: 6433 8bbc 0ade c23d a330 a13b 8db3 00be
00000190: a578 c9bd d446 f1bc d1cd fabd abdf febc
000001a0: 3ffd 9f3c 42bb 85bd 441b 47be d5f7 71be
000001b0: 0236 62be d050 49be 8369 4bbe 67d4 2bbe
000001c0: b249 92bd bf35 863d 28dd a93d c36c ff3d
000001d0: 5c2d 7f3b a66d 843e a026 d03c a074 eb3b
000001e0: c0e8 4b3e 4898 f8bd a875 09be a8b4 db3c
000001f0: c141 a2bd 42d5 b4bd 4545 b9bd d3ee 2dbc
00000200: 4136 5abd 97fb 193d e1d4 c63c a391 1d3d
00000210: 10b6 05be 4a7e d8bd 260c fbbd 4b51 bbbd
00000220: 4379 353d e5a5 803c 1d72 ebbd 94a5 c1bd
00000230: 0530 78bd 1bf6 a9bd 5af8 ccbd 0c36 00be
00000240: 7850 a6bd 3d06 1fbe 2722 91bd 92f6 6bbd
00000250: 81b3 81be f6b9 8cbe 8d0d 2abe e399 18be
00000260: ea6f 0abe 3226 21bd 975a a13d f33d 1f3c
00000270: 43bd d63d 0174 ebbc c16f 683c cba4 c53c
00000280: 287a 993d d372 18bd c0f8 14be bbb2 54bd
00000290: c183 5dbe 28df a5bd f597 123c 8241 653d
000002a0: 7f98 89bd 64a5 babd 8504 b0bd 991d 0ebe
000002b0: 8271 c7bd 9e53 a5bd cb18 30bd 5e74 c73c
000002c0: df50 603d aacf c33d 4fbe 11bd 41f3 8b3e
000002d0: 6137 92be cefd 1fbe 4ac5 dfbd 5e4c 8cbd
000002e0: b456 31bd 57ba 993c 8504 e83d b386 033e
000002f0: 6ca5 933d d7ca 823d e717 79bd 10b5 cebd
00000300: 0176 78bd 4fc3 1abe f1da dcbd e98b 893e
00000310: 4973 16be 159d 593e d9e4 043d 7818 eb3d
00000320: 5236 463e f5d1 143e c3df 25be 99db db3c
00000330: 2892 923b 07bd 07be ebd4 87bd b8aa 81bc
00000340: 7665 c53d 8854 f6bc 00ca 533c c2d9 41bd
00000350: 1d20 e6bd 3f43 d9bc 1eb2 d9bc 5e3b 72bb
00000360: 5a90 50bd 88b1 23bd 966d 2c3d 61da 993c
00000370: 6e68 ab3c cd9f 0bbe 2fda 80be a9ab aebe
00000380: b55d a9be f573 83bc 6a83 3bbd 131e 1a3d
00000390: 486a 3fbc 20ae 0d3d 4416 c33d 76f3 0fbe
000003a0: f1f2 56be 42cc 63bd 90e0 e4bd b4fc 26be
000003b0: 19e4 38be 9e79 9c3d bf22 373d b620 703c
000003c0: 73f0 d9bd 86d0 99bc 0e01 fc3d 46cf f2bb
000003d0: 1215 17bd 6d72 2fbc 83cb 0a3d 69da 093e
000003e0: 6991 0c3d a227 a9bd 5e2a a8bb a76d 493b
000003f0: 4b2d 6cbe c699 52be c138 2ebe d204 013e

features.5.bias f4 [32]
-0.0517521 -0.0105559835 -0.10877864 -0.20407662 -0.21960051 -0.21758951 0.15633678 -0.0031267637
-0.24307732 -0.23326446 -0.24314594 -0.061152335 0.20686038 -0.08027165 -0.085571356 0.033066794
0.10822355 -0.019547582 0.04622257 0.09010991 0.11666767 -0.113590844 0.09889265 0.07111452
-0.017554658 -0.0699747 -0.09465508 -0.07174139 0.09678784 -0.1949569 0.08113288 -0.004024357
00000000: 03fa 53bd 01f3 2cbc 56c7 debd 76f9 50be
00000010: f5de 60be c9cf 5ebe c016 203e 64ea 4cbb
00000020: 43e9 78be e1dc 6ebe 40fb 78be df7a 7abd
00000030: 35d3 533e 7665 a4bd 0940 afbd 0c71 073d
00000040: 4fa4 dd3d 4022 a0bc e153 3d3d 8b8b b83d
00000050: 76ef ee3d 51a2 e8bd 3b88 ca3d 7da4 913d
00000060: c9ce 8fbc e54e 8fbd 86da c1bd 26ed 92bd
00000070: b438 c63d c8a2 47be ff28 a63d c1de 83bb

features.6.weight f4 [32]
0.8741081 0.91312224 0.9335064 0.7127603 0.6217238 0.7346831 0.7871448 0.77581835
0.5674995 0.936265 0.88822657 0.7539791 0.7794558 0.88108844 0.81452495 0.77849334
0.64455485 0.8627148 0.85560393 0.7240855 0.7591792 0.85713243 0.8302678 0.79311055
0.8900767 0.64912266 0.6650909 0.5959521 0.72978526 0.8291857 0.65423334 0.881999
00000000: 8cc5 5f3f 61c2 693f 47fa 6e3f 7677 363f
00000010: 4a29 1f3f 3114 3c3f 5282 493f 089c 463f
00000020: a647 113f 10af 6f3f d162 633f c604 413f
00000030: 6a8a 473f 038f 613f b584 503f 574b 473f
00000040: 8c01 253f e1da 5c3f dc08 5b3f ab5d 393f
00000050: 9159 423f 086d 5b3f 6e8c 543f 4b09 4b3f
00000060: 11dc 633f e72c 263f 6643 2a3f 5190 183f
00000070: 35d3 3a3f 8445 543f d67b 273f b0ca 613f

features.6.bias f4 [32]
-0.15303408 -0.23042731 -0.22549796 -0.35653406 -0.08251623 -0.20009342 -0.061658513 -0.39156067
0.041602463 -0.097103514 -0.14650774 -0.24941352 -0.061708532 -0.124987535 -0.13457835 -0.16789843
-0.26656738 -0.22666845 -0.20331343 -0.21495995 -0.13629 -0.21018423 -0.19055754 -0.1462715
-0.07829573 -0.37578657 -0.25013313 -0.53197795 -0.12083791 -0.22326922 -0.2010567 -0.1423807
00000000: f7b4 1cbe 23f5 6bbe f0e8 66be a28b b6be
00000010: 45fe a8bd 4ae5 4cbe a38d 7cbd a47a c8be
00000020: 5867 2a3d 35de c6bd 2006 16be 4266 7fbe
00000030: 16c2 7cbd 77f9 ffbd e8ce 09be 91ed 2bbe
00000040: 857b 88be c61b 68be 6531 50be 761e 5cbe
00000050: 9b8f 0bbe 893a 57be 8421 43be 32c8 15be
00000060: 8359 a0bd 1967 c0be 7311 80be b52f 08bf
00000070: de79 f7bd b0a0 64be cfe1 4dbe 3fcc 11be

features.6.running_mean f4 [32]
-0.38928595 -0.48980477 -0.48753718 -0.56633174 -0.49962208 -0.6634982 -0.15867783 -0.21899532
-0.52995974 -0.6260991 -0.677426 -0.20801213 -0.11967773 -0.4337101 -0.49137595 -0.2881244
0.24196239 -0.4440338 -0.37208596 -0.16790845 -0.020462655 -0.60307926 -0.2888184 -0.29765376
-0.42264497 -0.33009169 -0.4754986 0.07442817 0.04304497 -0.5111075 -0.08433342 -0.40216818
00000000: 7d50 c7be b1c7 fabe 799e f9be 1efb 10bf
00000010: 77ce ffbe 05db 29bf 717c 22be 4f40 60be
00000020: 71ab 07bf 0848 20bf ca6b 2dbf 2201 55be
00000030: 9919 f5bd 400f debe a195 fbbe 0b85 93be
00000040: fdc4 773e 6658 e3be 0d82 bebe 31f0 2bbe
00000050: 4ca1 a7bc 6763 1abf 01e0 93be 1366 98be
00000060: ec64 d8be c701 a9be 8d74 f3be cc6d 983d
00000070: ec4f 303d f1d7 02bf 00b7 acbd fde8 cdbe

features.6.running_var f4 [32]
0.8084496 1.189755 0.78113884 1.1975943 0.8316756 0.73600864 1.1357584 0.7224193
0.7958038 1.0367488 0.85400254 0.4434404 0.9419155 0.9888277 1.3246369 0.86687213
0.3454593 0.8504544 0.82851017 0.54943234 0.49278948 1.2189724 0.90743154 0.9694925
1.4163849 0.7741874 0.64746124 0.27691916 0.3051216 0.7714658 0.46319896 1.0305946
00000000: 8ef6 4e3f e449 983f b7f8 473f c54a 993f
00000010: b1e8 543f 106b 3c3f 8860 913f 79f0 383f
00000020: ccb9 4b3f 2fb4 843f e99f 5a3f 9f0a e33e
00000030: 6021 713f d023 7d3f b48d a93f 55eb 5d3f
00000040: 0be0 b03e 61b7 593f 3e19 543f 99a7 0c3f
00000050: e74e fc3e 4a07 9c3f 6f4d 683f a930 783f
00000060: 1a4c b53f 2531 463f 05c0 253f 59c8 8d3e
00000070: e638 9c3e c87e 453f 6a28 ed3e 86ea 833f

features.10.weight f4 [64, 32, 3]
0.13795461 0.11425606 0.11705643 0.21104695 0.2234659 0.21139793 -0.104059644 -0.09106832
-0.13377872 0.32281274 0.2990037 0.2793211 0.042118922 0.024154717 0.018635182 -0.0861454
-0.121854134 -0.08667156 0.08327124 0.15689227 0.12346407 0.19632287 0.15385725 0.0951034
-0.08645207 -0.034351967 -0.028075615 -0.086799204 -0.07206925 -0.09531137 -0.128782 -0.11790572
-0.11607612 -0.033148542 -0.00032299545 -0.06366704 -0.12476982 -0.056246024 -0.08747462 0.11942144
0.12423072 0.12409048 0.026389712 0.09368707 0.065087706 0.11950327 0.2073859 0.17007062
-0.0031791532 0.03277638 0.031086808 -0.10096435 -0.0970525 -0.11390157 -0.081964895 -0.04984277
-0.045159064 -0.01441497 0.021490742 -0.043461602 -0.04732641 -0.05254942 -0.046834663 0.13673632
0.16871226 0.13653626 0.11408007 0.101994865 0.069059215 0.09325905 0.048879173 0.06534322
-0.099969156 -0.10646469 -0.096008316 0.15227553 0.17654839 0.11448764 -0.1288003 -0.14401717
-0.19266728 -0.040284958 -0.020207305 -0.0520637 -0.010984457 -0.009520486 -0.03211064 0.078247204
0.17034572 0.17076705 -0.011522905 0.005529693 -0.0069610355 -0.07565705 -0.08455332 -0.08447729
0.1350255 0.07039223 0.095726125 0.25262567 0.23335189 0.23717295 -0.112886935 -0.096601106
-0.094566084 0.2355627 0.14801186 0.09685142 -0.00070874125 0.0045804693 0.052943133 -0.07868724
-0.07276882 -0.073309176 0.084470354 0.118988104 0.10033302 0.026603367 -0.0075461008 -0.06281876
-0.08351327 -0.06981129 -0.112433 -0.12666567 -0.098705985 -0.1223886 -0.08867212 -0.0869437
-0.084729746 -0.028680189 -0.03882067 -0.14671099 -0.11819413 -0.06393168 -0.0724677 0.12788956
0.10659595 0.09138143 0.052495424 0.037475523 0.063866235 0.09026221 0.12302478 0.1565335
-0.055975154 -0.04653706 -0.0642646 -0.057215605 -0.07136068 -0.058568228 -0.09342208 -0.05469571
-0.09449293 -0.09762755 -0.0630159 -0.12088103 0.010680145 0.014603365 0.00013256817 0.2016479
0.14060038 0.20567864 0.19868314 0.1680469 0.18013985 0.05882569 0.04583604 0.014812287
-0.09039509 -0.081241295 -0.084683396 0.1883235 0.21231261 0.18219171 -0.14235769 -0.21064596
-0.19025375 -0.09228308 -0.03239211 -0.070427254 -0.028223583 -0.10226952 -0.13152446 0.075084716
0.19099274 0.1831733 -0.06806602 -0.045652818 -0.07645458 -0.08391929 -0.079968646 -0.06274336
-0.1265047 -0.08638261 -0.07941331 0.004032779 0.05301476 0.06771963 0.13572156 -0.021273643
0.21940473 -0.043682102 -0.0073615653 0.026358828 -0.049548034 0.019239644 0.02565645 0.40800774
0.28731796 0.2812135 0.09352862 0.029626891 0.0473698 0.0041330364 -0.020802915 -0.0102667315
-0.077671 0.004093968 -0.056272168 0.06983883 0.007231499 0.03697011 0.16278201 0.11032774
0.18010338 -0.03178977 -0.04934946 -0.07269323 -0.084655315 0.06253802 0.13647583 -0.100145206
-0.011174291 -0.038934726 -0.012185417 0.04804447 0.103917725 0.04053676 0.014498936 0.045731947
0.09045787 0.034825485 -0.005622364 0.1632505 0.114882015 0.36678553 0.35414734 0.26667443
0.3146566 -0.15263739 -0.056486674 -0.16276896 -0.18447764 -0.14098226 -0.09207517 -0.19858778
00000000: f943 0d3e 15ff e93d 48bb ef3d b11c 583e
00000010: 3fd4 643e b378 583e 391d d5bd 0782 babd
00000020: 4afd 08be b647 a53e 0317 993e 2d03 8f3e
00000030: e484 2c3d 1de0 c53c cfa8 983c 006d b0bd
00000040: a98e f9bd dc80 b1bd 1d8a aa3d 5ea8 203e
00000050: bbda fc3d dd08 493e c18c 1d3e 92c5 c23d
00000060: c80d b1bd a6b4 0cbd d5fe e5bc c8c3 b1bd
00000070: 0b99 93bd 9c32 c3bd 6edf 03be 8e78 f1bd
00000080: 51b9 edbd c4c6 07bd b757 a9b9 dd63 82bd
00000090: 5287 ffbd 3b62 66bd e525 b3bd 3a93 f43d
000000a0: ad6c fe3d 2623 fe3d 3d2f d83c 02df bf3d
000000b0: b44c 853d 21be f43d f85c 543e fe26 2e3e
000000c0: 5759 50bb 8740 063d c3a9 fe3c 66c6 cebd
000000d0: 76c3 c6bd 3a45 e9bd 36dd a7bd ef27 4cbd
000000e0: b6f8 38bd c42c 6cbc 5a0d b03c cb04 32bd
000000f0: 56d9 41bd 103e 57bd b4d5 3fbd 9b04 0c3e
00000100: e8c2 2c3e 29d0 0b3e d0a2 e93d afe2 d03d
00000110: eb6e 8d3d 9afe be3d 8735 483d abd2 853d
00000120: a1bc ccbd 290a dabd 02a0 c4bd 1eee 1b3e
00000130: 1ac9 343e 7f78 ea3d 3ae4 03be 3d79 13be
00000140: 924a 45be d701 25bd ca89 a5bc bf40 55bd
00000150: 27f8 33bc d0fb 1bbc 7286 03bd 1240 a03d
00000160: 1c6f 2e3e 8fdd 2e3e 91ca 3cbc 6d32 b53b
00000170: 6619 e4bb 15f2 9abd 4b2a adbd 6e02 adbd
00000180: 2044 0a3e cd29 903d 0f0c c43d 2758 813e
00000190: ccf3 6e3e 77dd 723e 4431 e7bd cdd6 c5bd
000001a0: ddab c1bd 5937 713e 6c90 173e 0a5a c63d
000001b0: d2ca 39ba c317 963b e6da 583d c726 a1bd
000001c0: d207 95bd 1f23 96bd cbfe ac3d 09b0 f33d
000001d0: 667b cd3d 4eef d93c 4845 f7bb 1fa7 80bd
000001e0: 0109 abbd 39f9 8ebd 4643 e6bd a5b4 01be
000001f0: 5d26 cabd e0a6 fabd ba99 b5bd 8a0f b2bd
00000200: ca86 adbd b7f2 eabc 6c02 1fbd 683b 16be
00000210: c40f f2bd 9dee 82bd f269 94bd 7bf5 023e
00000220: fa4e da3d 3026 bb3d 7105 573d ef7f 193d
00000230: 4dcc 823d 65db b83d 6af4 fb3d 514a 203e
00000240: 3446 65bd a59d 3ebd 299d 83bd e95a 6abd
00000250: 8c25 92bd 3de5 6fbd 1354 bfbd 9c08 60bd
00000260: 8285 c1bd f4f0 c7bd 7b0e 81bd 7990 f7bd
00000270: c6fb 2e3c f442 6f3c ff01 0b39 c97c 4e3e
00000280: 8cf9 0f3e 6c9d 523e 9873 4b3e 7d14 2c3e
00000290: 9576 383e 35f3 703d 92be 3b3d 3caf 723c
000002a0: 1021 b9bd d661 a6bd 7d6e adbd e0d7 403e
000002b0: 7a68 593e 7790 3a3e 37c6 11be 93b3 57be
000002c0: e1d1 42be e9fe bcbd 97ad 04bd 2a3c 90bd
000002d0: 2535 e7bc af72 d1bd 59ae 06be 04c6 993d
000002e0: 9a93 433e c891 3b3e 3366 8bbd 73fe 3abd
000002f0: 3894 9cbd e0dd abbd 9ac6 a3bd 977f 80bd
00000300: 738a 01be 5ee9 b0bd 72a3 a2bd 6725 843b
00000310: 0126 593d 97b0 8a3d 98fa 0a3e 1046 aebc
00000320: a2ab 603e 01ec 32bd 4939 f1bb 78ee d73c
00000330: e1f2 4abd 759c 9d3c 7a2d d23c 64e6 d03e
00000340: 571b 933e 37fb 8f3e ef8b bf3d 18b4 f23c
00000350: d606 423d 6c6e 873b e06a aabc cb35 28bc
00000360: f911 9fbd b126 863b a57d 66bd a907 8f3d
00000370: 36f6 ec3b f86d 173d 54b0 263e 83f3 e13d
00000380: 056d 383e fd35 02bd a922 4abd 30e0 94bd
00000390: c45f adbd ef13 803d 52c0 0b3e ee18 cdbd
000003a0: 6014 37bc 057a 1fbd 58a5 47bc 47ca 443d
000003b0: d1d2 d43d e009 263d f28c 6d3c 6c51 3b3d
000003c0: fa41 b93d 2ba5 0e3d cf3b b8bb 242b 273e
000003d0: 4347 eb3d 50cb bb3e cd52 b53e 8d89 883e
000003e0: ab1a a13e fa4c 1cbe 925e 67bd e8ac 26be
000003f0: b5e7 3cbe a75d 10be e891 bcbd 985a 4bbe

features.10.bias f4 [64]
0.026425565 -0.068658344 0.17696272 -0.090019785 -0.025908435 -0.074821 0.13247882 -0.0013101096
0.06793149 -0.020678435 -0.0061682086 -0.012907493 -0.04007895 -0.06748463 -0.043169476 0.17250358
0.082650304 -0.03315648 -0.009661944 0.06125459 0.06792659 0.027905798 -0.015977873 0.016967721
0.036709383 0.03653496 -0.06504225 0.05547008 0.06632654 -0.029577017 0.10509735 -0.030105842
-0.04341517 -0.085360676 0.146931 -0.0059232046 0.049814038 0.035128184 0.05069865 -0.08280722
0.1503358 -0.012052025 -0.02914068 0.027310854 0.12103043 -0.06213022 -0.033267 0.012998415
0.029436 0.09862752 -0.09992333 0.08114416 -0.0013752017 0.14640123 0.06693686 -0.032412354
-0.0044704056 -0.062348492 -0.13305375 -0.03175958 0.057461124 -0.049040426 -0.035484005 0.14037369
00000000: 6d7a d83c bf9c 8cbd b735 353e 4b5c b8bd
00000010: ed3d d4bc c13b 99bd 87a8 073e fcb7 abba
00000020: aa1f 8b3d d265 a9bc af1e cabb f379 53bc
00000030: d329 24bd 6235 8abd 7ad2 30bd c7a4 303e
00000040: 9044 a93d 17cf 07bd 214d 1ebc 18e6 7a3d
00000050: 191d 8b3d b39a e43c 07e4 82bc e4ff 8a3c
00000060: 945c 163d afa5 153d df34 85bd 9834 633d
00000070: 36d6 873d 804b f2bc 483d d73d 87a0 f6bc
00000080: 1bd4 31bd 94d1 aebd 1475 163e 7117 c2bb
00000090: ce09 4c3d 92e2 0f3d 63a9 4f3d d596 a9bd
000000a0: a1f1 193e db75 45bc 6fb8 eebc 03bb df3c
000000b0: cdde f73d 427c 7ebd fa42 08bd 4ef7 543c
000000c0: c423 f13c 3afd c93d 9aa4 ccbd e92e a63d
000000d0: 1d40 b4ba 34ea 153e 3116 893d d1c2 04bd
000000e0: 7b7c 92bb 2261 7fbd 3e3f 08be 5516 02bd
000000f0: 5b5c 6b3d 9dde 48bd ad57 11bd 1fbe 0f3e

features.11.weight f4 [64]
0.879357 0.7740035 0.89644337 0.85655874 0.80080795 0.8470579 0.8976031 0.8915285
0.81247896 0.90133864 0.7991684 0.90785617 0.85300165 0.7890615 0.8646358 0.7805286
0.8081907 0.85631615 0.9790065 0.82973 0.84252936 0.76673573 0.900979 0.8966278
0.8297162 0.83680123 0.8941896 0.85180354 0.8906215 0.8004293 0.8165404 0.8167651
0.8235842 0.8175094 0.7997991 0.87199783 0.85713595 0.881639 0.8240256 0.8200634
0.825953 0.86270577 0.9256006 0.86223996 0.9003674 0.8315303 0.8552907 0.78941315
0.8388056 0.84280485 0.8711667 0.76397216 0.8301465 0.91586924 0.93390006 0.86818415
0.8366762 0.79329073 0.81005037 0.77480453 0.8886959 0.8999806 0.8324147 0.7532694
00000000: 8a1d 613f 1825 463f 507d 653f 6f47 5b3f
00000010: c001 4d3f c9d8 583f 51c9 653f 363b 643f
00000020: 9ffe 4f3f 21be 663f 4d96 4c3f 4369 683f
00000030: 515e 5a3f efff 493f c658 5d3f b9d0 473f
00000040: 96e5 4e3f 8937 5b3f 2ca0 7a3f 2f69 543f
00000050: 01b0 573f cb48 443f 8fa6 663f 6689 653f
00000060: 4868 543f 9b38 563f 9ce9 643f cc0f 5a3f
00000070: c5ff 633f efe8 4c3f cb08 513f 8517 513f
00000080: 6ad6 523f 4c48 513f a2bf 4c3f 403b 5f3f
00000090: 436d 5b3f 18b3 613f 57f3 523f adef 513f
000000a0: a871 533f 49da 5c3f 29f4 6c3f c2bb 5c3f
000000b0: 7a7e 663f 2bdf 543f 55f4 5a3f fb16 4a3f
000000c0: f7bb 563f 0fc2 573f c804 5f3f ae93 433f
000000d0: 7b84 543f 6876 6a3f 1314 6f3f 5141 5e3f
000000e0: 6930 563f 1a15 4b3f 765f 4f3f 9759 463f
000000f0: 9381 633f 2165 663f 2119 553f 43d6 403f

features.11.bias f4 [64]
-0.31688362 -0.41671103 0.010987662 -0.1193235 -0.3586528 -0.12112506 0.05289691 -0.22238748
-0.3505866 -0.20615666 -0.3553565 -0.2009291 -0.046478037 -0.4097008 -0.29374388 -0.3991438
0.014276607 0.04632555 -0.23845984 -0.37595236 -0.04573067 -0.40579322 -0.1745297 -0.2392283
-0.08308793 0.012507182 0.050467033 -0.1573558 0.054482643 -0.39149633 -0.041066322 -0.38870963
-0.20424208 -0.37258717 -0.38552418 0.06576425 -0.33676594 -0.331516 -0.3199376 -0.36483523
0.002699029 -0.096935734 -0.306926 0.015708368 0.042483177 -0.3793501 0.036634356 -0.20694348
-0.34637788 0.010676948 0.0037727943 -0.36685982 -0.011891359 -0.16181819 -0.28096443 0.03348158
-0.319429 -0.40396145 -0.36757264 -0.37450773 -0.20749733 -0.306094 -0.38753018 -0.4057929
00000000: 923e a2be 265b d5be 9805 343c e15f f4bd
00000010: 57a1 b7be 6a10 f8bd 6eaa 583d 8bb9 63be
00000020: 1680 b3be bb1a 53be 4af1 b5be 5cc0 4dbe
00000030: c15f 3ebd 4ec4 d1be 9965 96be 935c ccbe
00000040: 6ee8 693c dcbf 3d3d d12e 74be d47c c0be
00000050: 1550 3bbd 21c4 cfbe eab7 32be 43f8 74be
00000060: 012a aabd ecea 4c3c 85b6 4e3d e121 21be
00000070: 3129 5f3d 3572 c8be 2935 28bd f304 c7be
00000080: d624 51be bfc3 bebe 6d63 c5be 68af 863d
00000090: 966c acbe 77bc a9be dcce a3be afcb babe
000000a0: 31e2 303b 3e86 c6bd 6825 9dbe d6ae 803c
000000b0: d702 2e3d 2d3a c2be e80d 163d fee8 53be
000000c0: 7158 b1be 5eee 2e3c fc40 773b 0dd5 bbbe
000000d0: fad3 42bc abb3 25be 92da 8fbe fb23 093d
000000e0: 338c a3be 09d4 cebe 7b32 bcbe 7abf bfbe
000000f0: 2e7a 54be 5ab8 9cbe 5b6a c6be 16c4 cfbe

features.11.running_mean f4 [64]
0.036787458 -0.17675748 0.5767063 -0.19926098 -0.2759052 -0.017853834 0.26897907 -0.053558245
0.011822748 -0.10687069 -0.30314463 -0.21669318 0.8151771 -0.28977755 -0.22015874 -0.027185863
0.29258433 0.10944817 -0.09462312 -0.022849984 0.9120246 -0.24311697 0.038813747 0.039299197
0.3595172 0.027182654 0.3432437 -0.1617243 0.42945793 -0.29817644 0.75348735 -0.2547407
-0.1896027 -0.29919183 -0.12585759 0.21311097 0.08521964 -0.10436377 -0.14789146 -0.39861205
0.2413598 1.0054446 -0.17808393 -0.0017592581 0.72983694 -0.21759433 0.35561073 -0.09601276
-0.25576958 0.8893405 0.82526404 -0.04376789 0.46137303 -0.0060946336 -0.011623306 0.16580875
-0.043592494 -0.2936012 -0.2912652 -0.20289776 -0.015021518 -0.035932947 -0.2995562 -0.053120855
00000000: 72ae 163d eaff 34be 06a3 133f 120b 4cbe
00000010: 7243 8dbe 3442 92bc a0b7 893e e45f 5bbd
00000020: 33b4 413c 05df dabd c635 9bbe d1e4 5dbe
00000030: 72af 503f b95d 94be 4b71 61be e3b4 debc
00000040: 9dcd 953e 5d26 e03d c4c9 c1bd e42f bbbc
00000050: 727a 693f a8f3 78be 2afb 1e3d 32f8 203d
00000060: a312 b83e 28ae de3c a3bd af3e 0e9b 25be
00000070: e9e1 db3e 95aa 98be 8ce4 403f 5f6d 82be
00000080: 3627 42be ac2f 99be d0e0 00be c339 5a3e
00000090: a287 ae3d acbc d5bd dc70 17be e116 ccbe
000000a0: 0627 773e 69b2 803f a25b 36be e896 e6ba
000000b0: 98d6 3a3f 0cd1 5ebe 9c12 b63e 57a2 c4bd
000000c0: 3bf4 82be d2ab 633f 8144 533f f645 33bd
000000d0: 1639 ec3e 7eb5 c7bb ae6f 3ebc c5c9 293e
000000e0: 0b8e 32bd e652 96be b620 95be 6ec4 4fbe
000000f0: d01c 76bc 6d2e 13bd 6e5f 99be 4195 59bd

features.11.running_var f4 [64]
0.12996069 0.14530517 0.15444389 0.17082971 0.18374276 0.19955538 0.14278896 0.14893942
0.16933127 0.21720567 0.17562643 0.21018223 0.1919049 0.16609092 0.1270744 0.25218147
0.10793291 0.16213939 0.12454675 0.13151228 0.23601045 0.24275245 0.15522037 0.1398873
0.16197948 0.08860017 0.17087296 0.15948425 0.14697531 0.17940263 0.21128316 0.14484741
0.192298 0.17347556 0.17714511 0.20437971 0.114800766 0.1672405 0.14843158 0.16444135
0.10428219 0.254773 0.1467324 0.13640113 0.26032785 0.15746407 0.18763393 0.10463905
0.19550593 0.23895703 0.22831067 0.18359593 0.20454647 0.121987715 0.11807149 0.11781356
0.13268617 0.16586483 0.19488749 0.16128767 0.1365139 0.12656066 0.25431886 0.20670293
00000000: 6a14 053e e1ca 143e 8a26 1e3e fced 2e3e
00000010: 1027 3c3e 3f58 4c3e 4537 123e 9383 183e
00000020: 2d65 2d3e 2a6b 5e3e 6ad7 333e 033a 573e
00000030: b882 443e bd13 2a3e cb1f 023e ee1d 813e
00000040: ee0b dd3d de07 263e 5e12 ff3d 28ab 063e
00000050: b9ac 713e 1994 783e 17f2 1e3e 9e3e 0f3e
00000060: f3dd 253e 0274 b53d 52f9 2e3e d74f 233e
00000070: b280 163e 53b5 373e 9d5a 583e e152 143e
00000080: c4e9 443e 94a3 313e 8765 353e ea48 513e
00000090: aa1c eb3d 1841 2b3e 73fe 173e 5063 283e
000000a0: e791 d53d 9b71 823e 0541 163e bdac 0b3e
000000b0: b149 853e 433e 213e 1c23 403e 004d d63d
000000c0: b532 483e 27b1 743e 46ca 693e 9200 3c3e
000000d0: a174 513e b2d4 f93d 77cf f13d 3c48 f13d
000000e0: e2de 073e 78d8 293e 9690 473e 9828 253e
000000f0: 4dca 0b3e 1e99 013e 1536 823e efa9 533e

embedding_layer.0.weight f4 [16, 64]
0.10850173 0.053227738 -0.042102564 -0.25619644 0.04463957 -0.28814533 -0.08320789 -0.14435557
0.12127235 -0.19613154 0.08152165 -0.2182058 -0.19050808 0.10982906 0.17969127 0.23975757
-0.11076622 -0.03150808 -0.012221713 0.07984959 -0.07396214 0.25482893 0.21981753 -0.24755785
-0.21543685 -0.11940554 -0.06895144 -0.22255006 -0.035514925 0.04521989 -0.18808295 0.0663305
-0.22463083 0.075458795 0.037246883 -0.010574971 -0.03936006 0.23363508 -0.06384591 0.07264762
0.027849115 -0.19293869 0.24444705 0.036524627 -0.09465713 0.19841136 -0.0630029 -0.20276429
0.17189103 -0.0951433 -0.064958446 0.1110596 -0.13480464 -0.094257824 -0.03383079 -0.14074016
0.01277643 0.06676391 0.1196361 0.026545092 -0.17173278 0.16044608 0.085570976 0.17094296
0.0924966 0.11941694 0.040257934 -0.11672245 0.09192163 -0.17103533 0.055144396 -0.2060488
0.101588964 -0.1252896 0.049759805 -0.10877847 -0.045576487 0.13251586 0.13695535 0.07773921
-0.049009375 0.041812386 0.1348186 0.16649109 0.014962807 0.28957033 0.11613466 -0.15219338
-0.20877752 -0.07341554 -0.044873584 -0.18058339 0.05164846 0.18515392 0.03908611 0.20865943
-0.13467655 0.0994088 0.2110233 0.02896695 0.13018192 0.20618539 -0.02570887 0.15430349
0.082614504 -0.03592787 0.032670163 0.10432582 0.023677722 0.18951772 0.052900486 -0.14185716
0.15893869 0.032308172 0.019901235 0.11813369 0.027507229 -0.06959265 0.11247937 -0.14521818
0.055770434 0.1713175 0.20951958 0.12905069 -0.14028531 0.12364968 0.30287495 0.24545725
-0.08988185 -0.2194664 0.02896858 -0.030871904 -0.3102413 -0.124595635 0.16571061 -0.22220883
-0.2448861 -0.27216598 -0.24235263 -0.25332206 0.13104452 -0.3099788 -0.16214877 -0.13803421
-0.03223491 0.12642784 -0.10265509 -0.3093732 -0.00017770767 -0.1025653 0.3354803 -0.14103512
0.01180366 -0.03309509 0.1594295 -0.12881617 -0.037297238 -0.1343415 0.22918089 -0.19283035
-0.1567521 -0.14398167 -0.16107461 0.082372054 -0.08917851 -0.11361849 -0.19442819 -0.28952873
0.04380984 0.077873625 -0.19111553 0.054815095 0.20640366 -0.2450988 0.1207565 -0.18425126
-0.11190443 0.17693138 0.20973876 -0.2155356 0.028600663 -0.20299628 -0.2479627 0.012265025
-0.2716945 -0.15313064 -0.26768333 -0.24303912 -0.22772141 -0.19893637 -0.050328285 -0.16813815
-0.07204495 -0.19122359 0.042235054 0.10363864 -0.06820872 0.000877054 0.16490611 0.10454222
-0.1047911 0.133046 -0.10329372 0.01868088 0.105521485 -0.071647786 0.034288052 -0.11529722
0.13837364 0.16707277 -0.03134106 -0.07382806 0.042058285 -0.14158231 -0.083887205 0.1414268
0.119867235 0.15893842 0.09623463 0.0506136 0.07876102 -0.1261813 0.09425467 -0.08777718
0.08447604 -0.13064988 -0.17944695 0.104258455 -0.0731645 -0.15060519 -0.08695017 -0.036119852
0.1623363 0.06465932 -0.06639127 0.10811671 0.045424856 -0.10519224 0.042866264 0.099335894
-0.064308606 0.002354526 0.028254883 -0.12353665 0.11827735 0.15443105 -0.05247132 0.083298825
-0.027605046 -0.1397967 -0.15587504 -0.035816714 0.06381163 -0.09612904 -0.17324439 -0.19994113
00000000: 2836 de3d 5405 5a3d bd73 2cbd 2e2c 83be
00000010: fbd7 363d c987 93be e668 aabd f2d1 13be
00000020: a35d f83d b5d6 48be d3f4 a63d 5771 5fbe
00000030: 8d14 43be 0fee e03d fd00 383e 0283 753e
00000040: 66d9 e2bd 9e0e 01bd 943d 48bc 2f88 a33d
00000050: 7679 97bd f078 823e d917 613e ce7f 7dbe
00000060: 7a9b 5cbe e48a f4bd 6a36 8dbd 2ae4 63be
00000070: 1978 11bd 7e38 393d d198 40be 49d8 873d
00000080: a005 66be 248a 9a3d 3090 183d a542 2dbc
00000090: 0438 21bd 093e 6f3e a5c1 82bd 47c8 943d
000000a0: d423 e43c b891 45be 5450 7a3e d99a 153d
000000b0: 99db c1bd 592c 4b3e aa07 81bd 71a1 4fbe
000000c0: 3404 303e 7eda c2bd ef08 85bd 3773 e33d
000000d0: 3a0a 0abe 3f0a c1bd 2892 0abd 301e 10be
000000e0: 3b54 513c 84bb 883d c603 f53d 1875 d93c
000000f0: b8da 2fbe fa4b 243e d63f af3d ac0b 2f3e
00000100: db6e bd3d de90 f43d 81e5 243d 2e0c efbd
00000110: 6841 bc3d e323 2fbe 17df 613d 75fe 52be
00000120: e00d d03d eb4b 00be f0d0 4b3d 3fc7 debd
00000130: 69ae 3abd 3db2 073e 063e 0c3e bc35 9f3d
00000140: 0ebe 48bd 7743 2b3d e30d 0a3e a47c 2a3e
00000150: 9026 753c 9042 943e 02d8 ed3d 95d8 1bbe
00000160: c6c9 55be e35a 96bd 5dcd 37bd daea 38be
00000170: 568d 533d fd98 3d3e c218 203d d1aa 553e
00000180: a6e8 09be d796 cb3d 7e16 583e 194c ed3c
00000190: 694e 053e 4322 533e 689b d2bc bc01 1e3e
000001a0: cb31 a93d 1a29 13bd 26d1 053d c7a8 d53d
000001b0: c8f7 c13c ef10 423e 2eae 583d 0143 11be
000001c0: d3c0 223e 9355 043d ea07 a33c 13f0 f13d
000001d0: d756 e13c 9786 8ebd 955b e63d 13b4 14be
000001e0: 8a6f 643d db6d 2f3e 4d8c 563e dd25 043e
000001f0: f4a6 0fbe 0b3c fd3d 6d12 9b3e 2559 7b3e
00000200: fa13 b8bd cdbb 60be 844f ed3c 13e7 fcbc
00000210: f3d7 9ebe ff2b ffbd 0bb0 293e b68a 63be
00000220: 6cc3 7abe 5759 8bbe 4a2b 78be 6eb3 81be
00000230: 8930 063e 8bb5 9ebe 540a 26be d758 0dbe
00000240: c108 04bd 4d76 013e d53c d2bd 2a66 9ebe
00000250: 0a57 3ab9 c20d d2bd 13c4 ab3e 836b 10be
00000260: 2364 413c b88e 07bd 7d41 233e 63e8 03be
00000270: fdc4 18bd d190 09be 65ae 6a3e 5275 45be
00000280: 9f83 20be ee6f 13be bef0 24be aeb2 a83d
00000290: 39a3 b6bd d0b0 e8bd 2f18 47be 1c3d 94be
000002a0: f271 333d 357c 9f3d cab3 43be cb85 603d
000002b0: 7b5b 533e 2efb 7abe 2f4f f73d 5dac 3cbe
000002c0: 262e e5bd 802d 353e c2c5 563e 5db5 5cbe
000002d0: f04b ea3c 42de 4fbe efe9 7dbe 3ef3 483c
000002e0: 8b1b 8bbe 47ce 1cbe ca0d 89be 3fdf 78be
000002f0: cd2f 69be fab5 4bbe 0825 4ebd 682c 2cbe
00000300: 4e8c 93bd 1ed0 43be aafe 2c3d 7f40 d43d
00000310: 03b1 8bbd 19ea 653a 26dd 283e 3b1a d63d
00000320: b79c d6bd 363d 083e a88b d3bd a508 993c
00000330: a61b d83d 13bc 92bd a171 0c3d f320 ecbd
00000340: d2b1 0d3e 2015 2b3e 7c5f 00bd 2a33 97bd
00000350: 4f45 2c3d f4fa 10be 0ecd abbd 30d2 103e
00000360: f47c f53d c1c0 223e a916 c53d 3550 4f3d
00000370: 754d a13d ac35 01be 9808 c13d 86c4 b3bd
00000380: c601 ad3d 15c9 05be f1c0 37be 7585 d53d
00000390: 45d7 95bd 3f38 1abe ee12 b2bd 69f2 13bd
000003a0: 7d3b 263e 1b6c 843d 25f8 87bd 4b6c dd3d
000003b0: 6a0f 3a3d 076f d7bd 8994 2f3d 9e70 cb3d
000003c0: 3bb4 83bd 644e 1a3b c976 e73c c800 fdbd
000003d0: 653b f23d 2c23 1e3e 2bec 56bd 9398 aa3d
000003e0: fa23 e2bc de26 0fbe b59d 1fbe 8cb4 12bd
000003f0: acaf 823d 4ddf c4bd fa66 31be 5ebd 4cbe

embedding_layer.0.bias f4 [16]
0.18841997 0.0071697473 0.18543997 0.41622233 0.15200728 0.19528647 0.18545741 0.40725526
0.458134 0.28241852 0.3726791 0.24561676 0.30456206 0.22367477 -0.12017283 0.18641801
00000000: 2af1 403e 33f0 ea3b fae3 3d3e 181b d53e
00000010: cca7 1b3e 2df9 473e 8ce8 3d3e c383 d03e
00000020: 8a90 ea3e 2999 903e cccf be3e f682 7b3e
00000030: 8fef 9b3e 000b 653e 2c1d f6bd 5de4 3e3e

classifier.weight f4 [2, 16]
-0.37034336 -0.21494366 0.45385727 0.23986351 -0.15547842 -0.121408485 -0.2775747 0.37344557
0.27593982 0.5580921 0.13584371 0.33880836 0.27497283 -0.43699643 -0.36685675 -0.30435982
0.16583245 0.1897944 -0.40326047 -0.28145647 0.3250713 0.45838428 0.34465525 -0.4002332
-0.021904394 -0.37158933 -0.077944994 -0.646219 0.09669849 0.18258385 0.059730086 0.3384465
00000000: a59d bdbe 311a 5cbe fb5f e83e c89e 753e
00000010: bc35 1fbe 03a5 f8bd 451e 8ebe 4234 bf3e
00000020: fc47 8d3e 20df 0e3f 9d1a 0b3e 4a78 ad3e
00000030: 3dc9 8c3e ffbd dfbe a6d4 bbbe 0dd5 9bbe
00000040: fbcf 293e 7759 423e 2878 cebe 101b 90be
00000050: bf6f a63e 58b1 ea3e a776 b03e 5eeb ccbe
00000060: d870 b3bc f540 bebe a0a1 9fbd 9c6e 25bf
00000070: dc09 c63d 43f7 3a3e 89a7 743d dc48 ad3e

classifier.bias f4 [2]
0.23410732 -0.094827406
00000000: d4b9 6f3e df34 c2bd
