o02_train/run_outputs/93cnn_train_weights.pth (torch, 48140 bytes, 22 tensors)

features.0.weight f4 [16, 6, 5]
0	0x3f0f86c0	0.5606499
1	0x3e8fe4ba	0.28104192
2	0xbdefc72f	-0.11707913
3	0xbe2d0333	-0.16895752
4	0xbf06cce3	-0.5265638
5	0xbd43ab93	-0.047771048
6	0xbef823f8	-0.48464942
7	0xbe5c4434	-0.21510392
8	0xbe8e3bdb	-0.2778004
9	0xbf303787	-0.6883473
10	0x3f00e687	0.50351757
11	0x3ded16c5	0.115766086
12	0x3db9c8cf	0.09071504
13	0xbda50afd	-0.080587365
14	0xbdc17858	-0.09446782
15	0xbd91a659	-0.071118064
16	0x3d44d740	0.04805684
17	0x3c814858	0.015781567
18	0x3bc34323	0.005958931
19	0x3dcc92c8	0.09988934
20	0xbd14f7d2	-0.036369152
21	0x3d1e84eb	0.03870098
22	0xbd60d10f	-0.054886874
23	0x3dfffc74	0.124993235
24	0xbd76adb4	-0.06022425
25	0xbe895193	-0.2682005
26	0xbdb32bf5	-0.087486185
27	0xbdee9028	-0.116485894
28	0xbbd401fe	-0.006469964
29	0xbec82377	-0.39089558
30	0xbf2f85ec	-0.68563724
31	0xbf82c2d5	-1.0215708
32	0xbf1568a3	-0.5836279
33	0xbec6e424	-0.38845932
34	0xbe270b2f	-0.1631286
35	0x3e810fd7	0.25207397
36	0x3d5f7318	0.05455312
37	0x3dfd7210	0.12375271
38	0x3c12f04c	0.008968424
39	0xbc1b3cf3	-0.009474981
40	0xbe402330	-0.18763423
41	0xbe822810	-0.2542119
42	0x3d9d9c2f	0.07695805
43	0x3ef57370	0.47939634
44	0x3f23ceaa	0.6398722
45	0xbda0d11c	-0.078523844
46	0x3d88823a	0.06665464
47	0x3b3c831d	0.0028764673
48	0x3dc802c6	0.09766154
49	0xbcf84f4c	-0.03031125
50	0xbe50ce90	-0.20391297
51	0xbda36d25	-0.07979802
52	0xbd75576c	-0.059897825
53	0x3e8726d2	0.26396805
54	0x3dd76a5b	0.105183326
55	0xbb7d18ac	-0.0038619442
56	0xbb608055	-0.003425618
57	0xbd6e8a06	-0.0582371
58	0x3da7cdbb	0.08193537
59	0xbe3aefd7	-0.18255554
60	0xbf8e3713	-1.1110557
61	0xbfa0541f	-1.2525672
62	0xbf4dc4ce	-0.80378425
63	0xbf09b726	-0.5379509
64	0xbe01dadd	-0.12681146
65	0x3f65cd78	0.89766645
66	0x3f5f37cd	0.8719452
67	0x3e9c40d9	0.30518225
68	0xbce90a37	-0.028447254
69	0xbe442bf2	-0.19157389
70	0xbf288a3c	-0.6583593
71	0xbf37609a	-0.7163178
72	0xbec891b1	-0.39173654
73	0xbe17c7b1	-0.1482227
74	0x3e5985cc	0.21242446
75	0x3d3a8cef	0.04554456
76	0xbd24965f	-0.040182468
77	0x3cc97d0e	0.024595764
78	0xbb5709ca	-0.0032812231
79	0x3e23e934	0.16006929
80	0xbe500d45	-0.20317562
81	0xbe135494	-0.14387733
82	0x3e28f755	0.165006
83	0x3c0323e2	0.008004161
84	0x3e0845d5	0.13307889
85	0xbe19fe73	-0.15038471
86	0x3d2a6709	0.04160217
87	0xbe1deaf6	-0.15421662
88	0xbd8ff791	-0.070296414
89	0x3d9d5235	0.07681695
90	0x3f8e5eec	1.1122718
91	0x3f64a377	0.8931193
92	0x3f0f91c6	0.5608181
93	0x3e2003ba	0.15626422
94	0xbeae2b46	-0.3401739
95	0xbedf9049	-0.43664768
96	0xbc24ada5	-0.010051166
97	0x3e1bcf42	0.15215781
98	0x3ef65a32	0.4811569
99	0x3ed88cfb	0.4229506
100	0x3ed2ffec	0.41210878
101	0x3eab4c57	0.3345668
102	0xbdbd1207	-0.09231954
103	0xbf210deb	-0.6291186
104	0xbf47a397	-0.77983993
105	0xbc88d035	-0.016700843
106	0xbce73172	-0.02822182
107	0x3c3e8705	0.011628871
108	0xbdbafea8	-0.09130603
109	0xbdf5e808	-0.12007147
110	0x3de81a40	0.11333132
111	0xbd5e1aca	-0.054224767
112	0xbd4602d1	-0.04834253
113	0xbe66c50b	-0.22536103
114	0xbe183060	-0.14862204
115	0xbe22d9d4	-0.15903407
116	0xbd262966	-0.040566824
117	0xbe677512	-0.22603253
118	0xbe1361b8	-0.14392745
119	0xbdf6e162	-0.12054707
120	0xbeb49dfa	-0.35276777
121	0xbe54a26b	-0.20765083
122	0x3ddeb290	0.10873902
123	0x3e1cc832	0.15310743
124	0x3e73730a	0.23774353
125	0x3e9ab40b	0.30215487
126	0x3e74bb0c	0.23899478
127	0x3d7c757c	0.06163548
128	0x3e93dc61	0.28879073
129	0x3ced8621	0.028994622
130	0xbd2789da	-0.04090295
131	0x3e2576c7	0.16158591
132	0x3e305c37	0.17222677
133	0x3f0a31a1	0.5398198
134	0x3ec5e5e9	0.3865197
135	0xbdc5c95b	-0.09657546
136	0xbd586d47	-0.05283859
137	0xbdab3d2d	-0.08361278
138	0x3d5a31de	0.053270213
139	0xbd0fa9ff	-0.03507423
140	0xbe186c9f	-0.14885186
141	0xbe7e091d	-0.24808164
142	0x3d8283e1	0.0637281
143	0xbe422ede	-0.18963191
144	0xbe2fd4eb	-0.17171066
145	0xbbdcfb4e	-0.006743825
146	0x3da5b47a	0.08091064
147	0x3e11cf30	0.14239192
148	0x3e4390ce	0.19098207
149	0xbd5b57c7	-0.053550508
150	0x3ed4f5d7	0.4159381
151	0x3f0af877	0.5428538
152	0x3eebc8cd	0.46051636
153	0x3e88fc0c	0.26754797
154	0x3f23d90a	0.6400305
155	0x3dc0ec1c	0.09420034
156	0xbd811b7e	-0.06304072
157	0xbe97f83e	-0.2968158
158	0xbdb6c329	-0.089239426
159	0x3d51e63c	0.05124496
160	0xbecfeccc	-0.4061035
161	0xbd9c6639	-0.07636685
162	0x3e4bd772	0.19906405
163	0xbe6b13ba	-0.22956744
164	0xbed1afa8	-0.40954328
165	0x3c08b1fa	0.008343214
166	0xbdf6d4ca	-0.12052305
167	0x3e087a2c	0.13327855
168	0x3d3bbc17	0.045833673
169	0xbdbc2eb6	-0.09188597
170	0xbd95cf4e	-0.07314931
171	0x3d917dd5	0.07104079
172	0x3e1276bd	0.14303108
173	0xbc68e21b	-0.014214064
174	0xbd7b4cc1	-0.061352495
175	0xbdb2cb25	-0.08730153
176	0xbdced44a	-0.10099085
177	0x3e04ce05	0.12969215
178	0x3e2fdefc	0.17174906
179	0xbe43bd10	-0.1911509
180	0x3f58aac7	0.84635586
181	0x3ed5a358	0.41726184
182	0xbd6b2d46	-0.057416223
183	0xbed0fbcd	-0.4081711
184	0xbed3976f	-0.41326472
185	0xbe930c44	-0.28720295
186	0xbed08bca	-0.4073165
187	0xbf08549a	-0.5325409
188	0xbf27b03f	-0.65503305
189	0xbf1dd627	-0.61654896
190	0x3f14d4fc	0.5813749
191	0x3ebd98c4	0.37030613
192	0x3e53347f	0.20625494
193	0x3da31510	0.07963002
194	0xbdf7d5e1	-0.12101341
195	0xbd958a75	-0.07301799
196	0x3c7e7d83	0.015532854
197	0x3d0f3e23	0.034971368
198	0x3d8b9f35	0.06817476
199	0x3d9b9489	0.0759669
200	0xbd5d7486	-0.054066204
201	0xbd095fe7	-0.033538725
202	0x3dcd247d	0.10016725
203	0x3cc7f138	0.024407014
204	0xba96c92c	-0.0011504046
205	0xbe6231ff	-0.22089384
206	0xbd91d93c	-0.07121512
207	0xbded9b42	-0.11601879
208	0xbe171957	-0.1475576
209	0xbe4733ca	-0.1945335
210	0x3e1044fa	0.14088812
211	0xbe49ff61	-0.19726326
212	0xbf2d04b2	-0.6758529
213	0xbf50680f	-0.8140878
214	0xbf591eb6	-0.84812486
215	0x3f61dec8	0.8823056
216	0x3f24f5f7	0.6443781
217	0x3e9366fe	0.28789514
218	0x3e7143b8	0.23560989
219	0x3d912fe9	0.07089216
220	0xbefc2e34	-0.49254
221	0xbebf4e26	-0.3736431
222	0xbeea31e9	-0.45741203
223	0xbe66b226	-0.22528896
224	0xbe93044f	-0.28714225
225	0x3e6ed64f	0.2332394
226	0x3e1d7f90	0.15380692
227	0x3d3b80da	0.04577718
228	0xbddfaeac	-0.10921988
229	0xbe162518	-0.14662588
230	0xbe5f1c24	-0.21788079
231	0x3daed58f	0.08536827
232	0x3d87b863	0.06626966
233	0x3e050b3e	0.1299257
234	0x3de1e829	0.11030609
235	0x3d945744	0.07243207
236	0x3cebc701	0.028781416
237	0xbda5265f	-0.08063959
238	0xbd86d3f6	-0.06583397
239	0xbdcad180	-0.0990324
240	0x3ed2bfcf	0.41161963
241	0x3f0c6651	0.5484362
242	0x3f2e2e95	0.6803983
243	0x3f0ad824	0.54236054
244	0x3f0dca55	0.5538686
245	0xbf4e3787	-0.8055348
246	0xbf495a07	-0.78652996
247	0xbec070fa	-0.37586194
248	0xbf02b2ee	-0.51054275
249	0xbeb74061	-0.35791305
250	0x3f7ce704	0.9879
251	0x3f75e5e5	0.96053916
252	0x3f6cb1ff	0.924591
253	0x3f1a0761	0.6016751
254	0x3f08102d	0.5314968
255	0xbe159810	-0.14608788

features.0.bias f4 [16]
0	0x3da94be3	0.08266427
1	0xbdad64f5	-0.08466522
2	0xbdff457c	-0.12464425
3	0x3d1e9580	0.038716793
4	0xbdc233a5	-0.09482507
5	0xbdf5eff4	-0.12008658
6	0x3dcc7a95	0.09984318
7	0xbd767443	-0.06016947
8	0x3e3523c9	0.17689432
9	0x3e564089	0.20923056
10	0x3db6b1ed	0.089206554
11	0x3e009e09	0.12560286
12	0x3d197b1c	0.037470922
13	0xbca9ab2d	-0.020711506
14	0x3d57d3ac	0.0526921
15	0x3b80695d	0.0039188103

features.1.weight f4 [16]
0	0x3f885fa3	1.0654186
1	0x3f774c32	0.9660064
2	0x3f6de502	0.92927563
3	0x3f6f8580	0.9356308
4	0x3f6b2406	0.9185184
5	0x3f763f70	0.9619055
6	0x3f85119f	1.0396003
7	0x3f6aed67	0.917685
8	0x3f654a15	0.89566165
9	0x3f765ac7	0.96232265
10	0x3f7b6153	0.9819538
11	0x3f7a4386	0.9775928
12	0x3f62e225	0.8862632
13	0x3f79a196	0.97512186
14	0x3f6b253f	0.9185371
15	0x3f44c293	0.76859397

features.1.bias f4 [16]
0	0xbd533a3b	-0.051569205
1	0xbd81b1a9	-0.06332714
2	0xbde0a2ac	-0.10968527
3	0xbc9b02e8	-0.018922284
4	0x3aca668b	0.0015441937
5	0xbe260051	-0.16211058
6	0xbd699e8e	-0.057035975
7	0x3c1fe4a3	0.009759101
8	0xbd926a26	-0.071491525
9	0xbd1c82b4	-0.038210586
10	0xbcb734a7	-0.022363974
11	0xbe55ee90	-0.20891786
12	0xbdc069e7	-0.09395199
13	0x3d307f3e	0.043090098
14	0xbd2cd3ce	-0.04219418
15	0xbc80918a	-0.015694398

features.1.running_mean f4 [16]
0	0x3d998782	0.07496549
1	0xbdafa96d	-0.08577237
2	0xbdfd67ee	-0.12373339
3	0x3cd8f698	0.026484773
4	0xbdb2b90c	-0.08726701
5	0xbdfb1dde	-0.12261556
6	0x3dbdf3c6	0.09275012
7	0xbd8d73f7	-0.06906884
8	0x3e3d0c22	0.1846166
9	0x3e63b992	0.22238758
10	0x3d9b944b	0.07596644
11	0x3e04280a	0.12905899
12	0x3d0bb1d8	0.034105152
13	0xbcf50c98	-0.029913232
14	0x3d37819f	0.04480135
15	0x3bf986ea	0.00761496

features.1.running_var f4 [16]
0	0x445e73dd	889.81036
1	0x42cbca7a	101.89546
2	0x43629bb0	226.60815
3	0x444f4baa	829.18225
4	0x440bbd9b	558.9626
5	0x41b658eb	22.793417
6	0x4436063b	728.09735
7	0x43c70c47	398.09592
8	0x42c21c2d	97.05503
9	0x448502c4	1064.0864
10	0x44a73399	1337.6124
11	0x42dbacc9	109.83747
12	0x42d974c3	108.72805
13	0x43a1e520	323.79004
14	0x4408a023	546.50214
15	0x442fb57d	702.83575

features.5.weight f4 [32, 16, 3]
0	0x3c98cca5	0.01865227
1	0x3d349812	0.044090338
2	0xbdc89855	-0.0979468
3	0xbd971d15	-0.07378594
4	0xbd5b5b6c	-0.053553984
5	0xbd43fc2a	-0.047847904
6	0x3cd0c981	0.02548671
7	0x3df02051	0.11724914
8	0x3e09fd20	0.13475466
9	0x3e03b808	0.12863171
10	0xbdf6c634	-0.12049523
11	0xbe0c4cc2	-0.13701156
12	0xbd92d565	-0.07169608
13	0xbd0746a3	-0.03302635
14	0xbce16864	-0.027515598
15	0xbe601d43	-0.21886162
16	0xbb869f35	-0.0041083344
17	0xbe59fd75	-0.21288092
18	0xbdcd14e6	-0.10013752
19	0xbe1d3119	-0.1535076
20	0x3c806436	0.015672784
21	0xbe220e5b	-0.15825789
22	0xbd034869	-0.032051478
23	0xbdb9141c	-0.09037039
24	0xbdc7c5dd	-0.09754536
25	0xbd1ce624	-0.038305417
26	0xbdccea04	-0.100055724
27	0x3daa990c	0.083299726
28	0x3da0486e	0.07826315
29	0xbddb96ee	-0.10722147
30	0x3d63be1a	0.055601217
31	0xbcb5290a	-0.022114296
32	0xbd115bc5	-0.03548791
33	0x3cbbbdce	0.022917654
34	0x3d6d3ab5	0.057917316
35	0xbde0110a	-0.1094075
36	0xbd1104b8	-0.03540489
37	0x3e081e14	0.13292724
38	0x3dd94adf	0.10609984
39	0x3d730ca9	0.059338246
40	0xbdb52bf9	-0.08846278
41	0x3da4370b	0.08018311
42	0xbdc88fdd	-0.09793065
43	0x3e1e8504	0.15480429
44	0xbd17e000	-0.037078857
45	0xbd279d9e	-0.0409218
46	0xbcd52d4d	-0.026022578
47	0x3d8cb6a4	0.068707734
48	0xbd0d2e75	-0.034468133
49	0xbe111433	-0.14167862
50	0xbdb9f606	-0.09080128
51	0x3d91a36b	0.07111248
52	0x3e00500f	0.1253054
53	0xbdc3caaf	-0.09560143
54	0xb9eab640	-0.00044767745
55	0x3da98a9e	0.08278392
56	0xbd221540	-0.039571047
57	0x3dd80be9	0.10549147
58	0xbd47e50a	-0.048802413
59	0xbd35162a	-0.04421059
60	0x3d72844e	0.059208207
61	0x3d80d0f8	0.062898576
62	0x3d4e2e40	0.050337076
63	0x3e06ffe8	0.13183558
64	0x3dd2078e	0.10255347
65	0x3e2e2a29	0.1700827
66	0xbdfeee66	-0.12447815
67	0xbe829ea9	-0.25511673
68	0xbe63a08a	-0.2222921
69	0xbe092b48	-0.13395417
70	0xbde78e7b	-0.11306473
71	0xbd32d5eb	-0.04366104
72	0xbe0bea7c	-0.13663667
73	0xbe0820ec	-0.13293809
74	0xbdd11f92	-0.102111
75	0xbd86c121	-0.06579805
76	0xbc9759f9	-0.01847552
77	0x3d33964b	0.043844502
78	0x3b3028ab	0.0026879709
79	0xbdf467ea	-0.119338825
80	0xbdeed1c7	-0.116611056
81	0x3db84af9	0.08998675
82	0xbd6034e4	-0.05473794
83	0x3cc061d8	0.023484156
84	0xbbf4ef3a	-0.007474807
85	0xbdf6b4d6	-0.120462105
86	0xbc4793ea	-0.012181262
87	0x3e069ff0	0.13146949
88	0xbc36c38c	-0.01115502
89	0x3d2285d6	0.039678417
90	0xbce0e25c	-0.027451687
91	0x3ae77a60	0.0017660372
92	0x3d3eef98	0.046615213
93	0xbc184d2a	-0.009295741
94	0x3a84ef9a	0.0010142208
95	0x3db383a8	0.08765346
96	0xbd8a68b0	-0.06758249
97	0x3cfa81c6	0.030579459
98	0xbcf31628	-0.02967365
99	0xbaf1d5ac	-0.001845052
100	0x3d97002a	0.07373078
101	0xba3a2ee4	-0.0007102324
102	0x3ba99d70	0.0051762387
103	0x3c9bb664	0.019007869
104	0xbd27cc18	-0.040966123
105	0xba03cb4b	-0.00050275464
106	0xbe23c77b	-0.15994065
107	0xbe2122e2	-0.15735963
108	0xbe5342dd	-0.20630975
109	0xbe869d52	-0.262919
110	0xbe61a77e	-0.2203655
111	0x3dad2119	0.084535785
112	0x3d92c6c0	0.07166815
113	0x3dbbf1fc	0.09177014
114	0x3deded52	0.11617531
115	0x3b93b1d3	0.0045072823
116	0xbb9e8fd0	-0.004838921
117	0x3cf27133	0.029594993
118	0xbd22a07f	-0.039703842
119	0xbdf4789b	-0.11937066
120	0x3d753d73	0.059873056
121	0xbcd90647	-0.026492251
122	0xbbccd699	-0.006251168
123	0xbd9866e6	-0.07441501
124	0xbe1aea82	-0.1512852
125	0xbe117062	-0.14203027
126	0xbda9e068	-0.08294755
127	0xbd1baf54	-0.038009003
128	0x3d2bc0b8	0.041931838
129	0xbd0c5664	-0.034262076
130	0xbd42d30a	-0.047564544
131	0x3c4fd6bc	0.012685474
132	0xbd972637	-0.07380336
133	0xbbd95d28	-0.0066334195
134	0xbd371f52	-0.044707604
135	0xbd3cfcd5	-0.046139557
136	0x3c4978c7	0.012296862
137	0x3d8a2116	0.06744592
138	0xbe47f819	-0.19528235
139	0xbe32dbd4	-0.1746667
140	0xbe69b7cb	-0.22824018
141	0xbdeea9c7	-0.11653476
142	0xbe0877d1	-0.13326956
143	0xbdc53b9b	-0.096305095
144	0xbd7c748f	-0.061634596
145	0xbe2fac2a	-0.17155519
146	0x3c92e3c9	0.017930882
147	0x3bba965f	0.005694195
148	0xbe69aa76	-0.22818932
149	0xbdc8cd08	-0.098047316
150	0x3bdf4656	0.0068138046
151	0xbcf0cb17	-0.029393716
152	0x3d096c75	0.0335507
153	0xbd05b950	-0.03264743
154	0x3e15023c	0.14551634
155	0xbcbcb55f	-0.023035703
156	0x3d444b03	0.0479231
157	0xbcbe1db1	-0.023207517
158	0x3c156424	0.009118114
159	0x3dc0a154	0.09405771
160	0x3caca3ee	0.021074262
161	0xbdfc3ad5	-0.12315909
162	0xbde74ac2	-0.11293556
163	0xbbdc95f9	-0.0067317453
164	0xbe3775cf	-0.17916034
165	0xbdc1d75a	-0.09464903
166	0xbdbfe55d	-0.093699194
167	0x3d8a554f	0.067545526
168	0xbc982212	-0.018570933
169	0xbd4c88cd	-0.04993515
170	0xbd88ffeb	-0.066894375
171	0xbcfcbd69	-0.030852037
172	0x3d9b0f96	0.07571332
173	0xbd4e93e8	-0.050434023
174	0xbdc3ca1c	-0.09560034
175	0xbd0aacac	-0.03385608
176	0x3d5bd69a	0.053671457
177	0x3da2ce37	0.079494886
178	0xbdb30127	-0.08740454
179	0x3e893123	0.267953
180	0xbdfc11b5	-0.12308065
181	0xbdc12a4a	-0.09431894
182	0xbe067fd5	-0.13134702
183	0x3c2124d0	0.009835437
184	0x3e074e3e	0.13213441
185	0x3c5a05ec	0.013307076
186	0xbd18868b	-0.037237685
187	0x3d472ff7	0.048629727
188	0xbcefff34	-0.029296495
189	0x3d94149a	0.07230492
190	0xbdc11fac	-0.09429869
191	0xbd771ed0	-0.06033212
192	0xbe43f106	-0.19134912
193	0xbe222d63	-0.15837626
194	0xbd472cbf	-0.048626658
195	0x3e1b203d	0.15149017
196	0xbd0d5fa8	-0.034515053
197	0x3de5ee8d	0.112271406
198	0x3bb4dbf5	0.005519385
199	0x3d721900	0.059105873
200	0x3dcab2d6	0.098973915
201	0x3e01fb43	0.12693505
202	0xbe138c02	-0.14408877
203	0x3e0e7e7b	0.13915436
204	0x3d1e3605	0.038625736
205	0xbdcf15f2	-0.101116076
206	0xbdadc290	-0.084843755
207	0xbe2f1740	-0.17098713
208	0x3c8a3887	0.016872657
209	0xbe21bf87	-0.15795718
210	0xbc7ff63d	-0.015622673
211	0xbd2c03e4	-0.041995898
212	0xbe3b62fe	-0.18299481
213	0xbd2cd808	-0.04219821
214	0xbd4483d3	-0.04797728
215	0x3cd8e29a	0.02647524
216	0xbd603c4d	-0.054745007
217	0xbe2430d3	-0.1603425
218	0x3d31c014	0.04339607
219	0x3dcbc235	0.099491514
220	0x3cacaa93	0.02107743
221	0xbdc0e5df	-0.094188444
222	0xbdba448e	-0.09095107
223	0xbdb2fa15	-0.087391056
224	0xbd2bbe0f	-0.0419293
225	0x3d35525a	0.04426799
226	0x3d94901f	0.072540514
227	0x3e3a4040	0.18188572
228	0xbd17a462	-0.037022002
229	0x3d360964	0.04444255
230	0x3d7d8502	0.061894424
231	0xbdd2279f	-0.102614634
232	0xbe401e78	-0.18761623
233	0xbd8f0588	-0.06983477
234	0x3d99083b	0.07472273
235	0xbd993002	-0.0747986
236	0xbe18bada	-0.14915028
237	0x3d72523e	0.059160464
238	0x3d5db613	0.054128718
239	0x3dc83042	0.097748294
240	0xbe2a0229	-0.16602387
241	0xbe2c0727	-0.16799603
242	0x3b934877	0.0044947225
243	0x3a85858f	0.0010186898
244	0x3cf41e09	0.029799478
245	0xbc5f6e62	-0.013637157
246	0x3cbd221d	0.023087556
247	0x3df5afd9	0.11996431
248	0xbdd6a61e	-0.10480903
249	0xbcf6b3d8	-0.030115053
250	0x3e25a1b2	0.16174963
251	0xbcdf5310	-0.027261287
252	0xbdbe78e8	-0.09300405
253	0xbd2e8cf9	-0.04261491
254	0xbc6f444f	-0.014603688
255	0x3d453770	0.048148572

features.5.bias f4 [32]
0	0xbdb2230d	-0.08698092
1	0xbe00c24e	-0.12574121
2	0xbdc98a03	-0.09840777
3	0xbd4a5754	-0.04939969
4	0xbd11aac0	-0.03556323
5	0xbdd0e4ef	-0.101999156
6	0x3dc124ac	0.09430823
7	0x3dcab7ca	0.09898336
8	0xbc9b6951	-0.018971117
9	0xbdc1a375	-0.09455005
10	0xbde6b713	-0.112653874
11	0x3bb33c9f	0.005469873
12	0x3d954516	0.07288568
13	0xbd8e305e	-0.06942819
14	0x3d7a1005	0.061050434
15	0x3da109c4	0.07863191
16	0x3da3ac6b	0.079918705
17	0xbda6ce43	-0.0814481
18	0x38a449b2	7.833856e-05
19	0x3d9067ec	0.070510715
20	0x3dc8a9a4	0.097979814
21	0xbdc9b096	-0.09848134
22	0xbc6ecf6c	-0.01457582
23	0x3d4c699e	0.049905412
24	0x3d9234c3	0.0713897
25	0x3ddc64bc	0.10761401
26	0xbdf59a23	-0.1199229
27	0xbe3f97cf	-0.18710254
28	0x3ce4c504	0.027925976
29	0xbca9a552	-0.020708714
30	0x3d99614f	0.07489263
31	0xbdb7954e	-0.089640245

features.6.weight f4 [32]
0	0x3f5bdd3b	0.85884446
1	0x3f70c62b	0.9405238
2	0x3f90f5ee	1.1325052
3	0x3f7b0da8	0.9806771
4	0x3f5ab514	0.85432553
5	0x3f7059f0	0.93887234
6	0x3f6f6314	0.93510556
7	0x3f755587	0.9583363
8	0x3f599e34	0.85007024
9	0x3f893d35	1.0721804
10	0x3f8beb39	1.0931159
11	0x3f7653dd	0.96221715
12	0x3f6d801e	0.92773616
13	0x3f824b21	1.0179178
14	0x3f7b3f59	0.98143536
15	0x3f7ac22d	0.9795254
16	0x3f6594d5	0.89680225
17	0x3f64358a	0.89144194
18	0x3f809717	1.0046109
19	0x3f69939e	0.9124087
20	0x3f80e7d7	1.0070752
21	0x3f7ad219	0.97976834
22	0x3f73973b	0.95152634
23	0x3f65c7d9	0.8975807
24	0x3f84aab9	1.03646
25	0x3f55cd3e	0.835163
26	0x3f681356	0.90654504
27	0x3f7581d3	0.9590122
28	0x3f7387e0	0.95129204
29	0x3f716cfb	0.94306916
30	0x3f70550f	0.9387979
31	0x3f895216	1.0728176

features.6.bias f4 [32]
0	0xbd1bb48e	-0.038013987
1	0xbe80019c	-0.25001228
2	0xbc4ff91c	-0.01269367
3	0xbd1745c3	-0.036931764
4	0xbd726079	-0.059174035
5	0xbdaf73ac	-0.085669845
6	0xbd9041c8	-0.07043797
7	0xbe7692b5	-0.24079402
8	0xbd8c898b	-0.06862172
9	0xbc0c162d	-0.008550209
10	0xbccc529d	-0.024941737
11	0xbd706c44	-0.058697
12	0x3d3c3fdc	0.04595934
13	0xbd2dadb2	-0.042401977
14	0xbc6e994b	-0.014562915
15	0xbd3ebc8f	-0.046566542
16	0xbe075f00	-0.13219833
17	0xbd9fbe30	-0.07799947
18	0xbdd513a2	-0.10404135
19	0xbcaab9e3	-0.02084059
20	0x3d1a83e2	0.03772343
21	0xbdc7bf18	-0.09753245
22	0xbdf0e8cb	-0.11763152
23	0x3b97c45e	0.004631563
24	0xbc730e94	-0.014835019
25	0xbeaba26b	-0.33522353
26	0xbda861c6	-0.08221774
27	0xbcdcd761	-0.02695817
28	0xbd81ba46	-0.06334357
29	0xbe1a1884	-0.15048414
30	0x3c9dd985	0.01926876
31	0xbc37380d	-0.011182797

features.6.running_mean f4 [32]
0	0xbeacc0ef	-0.33740947
1	0xbe9e288b	-0.30890307
2	0xbf1ae88d	-0.60511094
3	0xbe8e082b	-0.27740607
4	0xbe934ff9	-0.28771952
5	0xbec3d10a	-0.38245422
6	0xbe1d1f5e	-0.15343997
7	0xbc219452	-0.0098620225
8	0xbd89b2c9	-0.06723554
9	0xbf159e56	-0.58444726
10	0xbf154dc2	-0.58321774
11	0x3e0fc23d	0.1403894
12	0xbe56b364	-0.2096687
13	0xbeb43356	-0.35195416
14	0xbe563e2a	-0.20922151
15	0xbe3265e1	-0.17421676
16	0x3e2fcb3b	0.1716737
17	0xbed1d684	-0.40983975
18	0xbf04ca74	-0.5187142
19	0xbdd4daf7	-0.10393327
20	0x3cde2224	0.027115889
21	0xbed5ed9f	-0.41782853
22	0xbe9cfa66	-0.3065979
23	0xbe3a10ee	-0.1817052
24	0xbe9f9434	-0.31167758
25	0xbd608b58	-0.05482039
26	0xbf1c225c	-0.6098993
27	0xbee80bd6	-0.4532153
28	0x3e41803a	0.18896571
29	0xbe8f8c80	-0.2803688
30	0x3deedcc6	0.11663203
31	0xbef64fd2	-0.48107773

features.6.running_var f4 [32]
0	0x3ecffc12	0.40622002
1	0x3f30bc9e	0.69037807
2	0x3f642d58	0.8913169
3	0x3f084f1a	0.532457
4	0x3f0a21e5	0.5395797
5	0x3f0e823b	0.55667466
6	0x3f10e8d4	0.5660527
7	0x3f002130	0.5005064
8	0x3e80e596	0.2517516
9	0x3f8d5416	1.1041286
10	0x3f714e8a	0.94260466
11	0x3eaef083	0.3416787
12	0x3f489424	0.78351045
13	0x3f4cb903	0.79969805
14	0x3f2aff00	0.6679535
15	0x3f28eafc	0.6598356
16	0x3ea02a34	0.31282198
17	0x3f14f9e3	0.58193797
18	0x3f5e6b02	0.8688203
19	0x3f3ca106	0.736832
20	0x3e869ba7	0.26290628
21	0x3f49989b	0.7874848
22	0x3f03baec	0.51457095
23	0x3f283213	0.6570141
24	0x3f82b56f	1.0211619
25	0x3ef88889	0.48541668
26	0x3fab0c00	1.3363037
27	0x3f4114ef	0.7542257
28	0x3eb7ebec	0.35922182
29	0x3f2676e3	0.65025157
30	0x3e687028	0.22699034
31	0x3f18bfb4	0.59667516

features.10.weight f4 [64, 32, 3]
0	0x3d253f00	0.040343285
1	0x3ca5b4de	0.020227846
2	0x3dbd2572	0.09235658
3	0xbbc196a8	-0.005907852
4	0x3db78fd3	0.08962979
5	0x3d8ca7ff	0.0686798
6	0xbd697ea3	-0.057005536
7	0x3c8127be	0.01576602
8	0xbdb072a7	-0.08615618
9	0x3dfc07be	0.12306164
10	0x3dab25f1	0.08356846
11	0x3d702da9	0.058637295
12	0x3dacebd9	0.08443422
13	0x3d24f835	0.04027577
14	0x3dbd1067	0.09231644
15	0x3de2358a	0.11045368
16	0xbbfe0b66	-0.0077528236
17	0x3db32f1a	0.08749218
18	0x3d360619	0.04443941
19	0x3d421d09	0.04739097
20	0x3db0b09b	0.08627435
21	0x3dc6e74a	0.09712084
22	0xbb54dfcc	-0.0032482026
23	0xbbed0eb4	-0.0072344188
24	0xbb045f91	-0.0020198564
25	0xbd432856	-0.04764589
26	0xbc53e03f	-0.012931882
27	0xbdc355db	-0.0953786
28	0xbd8ba231	-0.06818045
29	0xbcbaef8f	-0.022819309
30	0xbdf78566	-0.120859906
31	0xbde82c73	-0.11336603
32	0xbd181d1f	-0.037137147
33	0xbda63b4a	-0.08116777
34	0xbd8ce43f	-0.06879472
35	0xbe12274b	-0.14272802
36	0xbd7dad73	-0.061932992
37	0xbd794b35	-0.06086274
38	0xbd9b128b	-0.07571896
39	0x3cef7109	0.029228704
40	0x3d2b0768	0.04175511
41	0x3dc10060	0.094239
42	0x3cf0049b	0.029299071
43	0x3d91fd8e	0.0712844
44	0x3cbd2fd1	0.02309409
45	0x3db6bfe4	0.08923319
46	0x3dfed16e	0.12442289
47	0x3d936472	0.07196893
48	0xbdaeb17c	-0.08529946
49	0xbca57a79	-0.020200001
50	0xb9d10727	-0.00039868915
51	0xbd62adcb	-0.055341523
52	0xbcc80183	-0.024414783
53	0xbd6b2838	-0.057411402
54	0x3d1a9cad	0.037747074
55	0x3d2128de	0.039345615
56	0x3cec4c7c	0.028845064
57	0x3b985715	0.004649053
58	0x3d78e128	0.0607616
59	0x3d4c1418	0.04982385
60	0xbd35bbf5	-0.044368703
61	0xbcd243dd	-0.025667125
62	0x3ab5db2a	0.001387452
63	0x3d912999	0.07088012
64	0x3e253422	0.16133168
65	0x3e2cf154	0.16888934
66	0x3e0ae58c	0.13564128
67	0x3da01980	0.07817364
68	0x3c36c707	0.01115585
69	0x3d6e441f	0.058170434
70	0xbce0ac4f	-0.027425913
71	0x3d08f6df	0.03343856
72	0xbd695715	-0.056967814
73	0xbe0be51e	-0.1366162
74	0xbdbff009	-0.09371955
75	0x3d5c760c	0.053823516
76	0x3e18c162	0.1491752
77	0x3cef1091	0.029182704
78	0x3b1ccc84	0.0023925612
79	0xbc3c1966	-0.011480665
80	0xbd211b9e	-0.03933298
81	0xbd56105e	-0.052261703
82	0xbdaf1c39	-0.08550305
83	0xbe199817	-0.14999424
84	0xbd5d9899	-0.054100607
85	0xbd75bd94	-0.05999525
86	0xbda10e70	-0.07864082
87	0x3b9feada	0.0048802914
88	0x3d819951	0.06328071
89	0x3d58c9fe	0.05292701
90	0xbca3b20a	-0.019982357
91	0xbb9f0189	-0.004852478
92	0xbbcf2d5c	-0.006322546
93	0x3d4143e4	0.047183886
94	0xbd50d55d	-0.05098473
95	0xbd14503d	-0.036209334
96	0x3c01dd86	0.00792635
97	0xbc0b19dd	-0.008490053
98	0x3d9832f3	0.07431593
99	0x3d8e50d8	0.069490135
100	0x3db3ce89	0.08779628
101	0x3d33e213	0.043916773
102	0xbd9b6f24	-0.07589558
103	0xbd5b71b9	-0.05357525
104	0x3c45d35a	0.012074316
105	0x3d9fe887	0.07808023
106	0x3ce433ee	0.027856793
107	0x3cfc5355	0.030801455
108	0x3bd6dbda	0.00655697
109	0x3cec9a9a	0.028882314
110	0x3df78bd1	0.12087215
111	0x3d2e5d65	0.042569537
112	0x3db36126	0.08758764
113	0x3d9bde29	0.07610733
114	0x3d995e2d	0.07488666
115	0x3df60006	0.12011723
116	0x3d32a7a8	0.04361692
117	0x3da0564e	0.07828961
118	0x3d2a791b	0.0416194
119	0x3c80551a	0.01566558
120	0x3c8fd4cc	0.017557524
121	0x3d67e389	0.05661348
122	0x3b4b427c	0.003101497
123	0xbd4f1c91	-0.050564352
124	0xbe077918	-0.13229787
125	0xbe051bae	-0.1299884
126	0xbddc15c2	-0.107463375
127	0xbdcdbfb5	-0.10046331
128	0xbdc1896a	-0.09450038
129	0xbd8e2925	-0.069414414
130	0x3c2fc2c7	0.010727591
131	0xbdd433bb	-0.10361429
132	0xbd3ffddb	-0.046872955
133	0xbd2fb5b6	-0.042897902
134	0xbca71719	-0.020396756
135	0x3df123f4	0.11774436
136	0x3ddcacbf	0.10775136
137	0x3d1b4d3e	0.03791546
138	0xbb93073b	-0.004486946
139	0x3be88bd6	0.007096748
140	0x3c850774	0.016238905
141	0x3df1a675	0.11799327
142	0x3daa6bd8	0.08321351
143	0x3dba3729	0.09092552
144	0x3a05bc02	0.0005101563
145	0xbb145f8d	-0.002263996
146	0xbb32fc0d	-0.0027310879
147	0xbc7923f2	-0.015206324
148	0xbd2ad4fa	-0.041707017
149	0x3caadb29	0.020856457
150	0xbd3b2ac6	-0.04569509
151	0x3c9e296f	0.019306866
152	0xbd40dc3b	-0.04708503
153	0xbc3d6950	-0.011560753
154	0x3cc5ce3e	0.024146196
155	0x3d35d3b4	0.04439135
156	0x3b8e18c7	0.00433645
157	0x3b7e2435	0.0038778905
158	0xbd0a6393	-0.033786368
159	0x3d42e86c	0.047584936
160	0xbc16ad02	-0.009196522
161	0x3cc4d981	0.024029495
162	0x3d9bf2b1	0.07614649
163	0x3de03851	0.109482415
164	0x3d9a5555	0.07535807
165	0x3c3ed794	0.0116480775
166	0x3d53b496	0.051685892
167	0xb987022d	-0.00025750828
168	0xbdaf6c9f	-0.0856564
169	0xbe180799	-0.14846648
170	0xbde18113	-0.11010947
171	0x3d21cc70	0.039501607
172	0x3e355e52	0.17711762
173	0x3e209908	0.15683377
174	0xbdd12155	-0.10211436
175	0xbe039c54	-0.12852603
176	0xbda36c00	-0.07979584
177	0xbdaff691	-0.08591951
178	0xbc56c577	-0.013108603
179	0xbdc38b11	-0.09548009
180	0xbcbea46e	-0.023271766
181	0xbda4283a	-0.08015485
182	0xbd93a1d0	-0.07208598
183	0x3ce2adb1	0.027670713
184	0x3de13306	0.1099606
185	0x3da40f69	0.08010752
186	0xbdb0678f	-0.08613502
187	0xbd5e8017	-0.054321375
188	0xbd1c3774	-0.03813882
189	0xbd917b1f	-0.071035616
190	0xbc90ddc4	-0.017683871
191	0xbc326084	-0.010887269
192	0xbcf8b87c	-0.030361407
193	0xbc4ed5b8	-0.012624197
194	0x3d5f27d6	0.05448135
195	0xbd4e136e	-0.0503115
196	0xbc5333e3	-0.012890789
197	0xbba86bd2	-0.0051398063
198	0x3e4e153e	0.20125291
199	0x3da16be9	0.0788191
200	0x3e2d6ba4	0.16935593
201	0xbd8784d8	-0.06617135
202	0xbd174393	-0.03692968
203	0xbd8d507d	-0.069001175
204	0x3d01673b	0.03159259
205	0x3cb7ec8c	0.022451662
206	0xbd52e206	-0.051485084
207	0x3d61f8ce	0.05516892
208	0x3db57fec	0.0886229
209	0x3c878211	0.016541513
210	0x3dae079e	0.084975466
211	0xbd1889f6	-0.037240945
212	0xbd10b535	-0.035329062
213	0xbd5d3f77	-0.054015603
214	0xbc490fba	-0.012271816
215	0xbd28a9a6	-0.041177414
216	0xbd8e7876	-0.0695657
217	0xbd58622e	-0.052828006
218	0xbd99e21d	-0.07513831
219	0x3dbd5b8a	0.09245975
220	0x3dee24cb	0.116281115
221	0x3d894f2c	0.06704554
222	0x3e20cc99	0.15703048
223	0x3da8ae07	0.08236318
224	0x3dd141ff	0.10217666
225	0x3de291fa	0.11062999
226	0x3dfd50f5	0.12368957
227	0x3b19e2e9	0.0023481196
228	0xbde50575	-0.111826815
229	0xbdb76334	-0.08954468
230	0xbd5bb737	-0.053641524
231	0xbd5161c4	-0.051118627
232	0xbcf43b91	-0.02981356
233	0xbdafdc2b	-0.085869156
234	0xbdce130b	-0.10062226
235	0xbddcb0dc	-0.10775921
236	0xbd9d84d7	-0.07691353
237	0xbd7c74a7	-0.061634686
238	0xbd9cbf28	-0.07653648
239	0xbdc56667	-0.09638672
240	0x3ca8d079	0.02060722
241	0xbc4fed78	-0.012690894
242	0xbc5ca97c	-0.013468143
243	0xbd5dc13e	-0.05413937
244	0xbbfcb3ed	-0.0077118785
245	0x3dd6a12a	0.10479958
246	0x3e1890e9	0.14899029
247	0x3d5eb5fc	0.054372773
248	0x3dc2fb37	0.09520572
249	0xbd927a0d	-0.071521856
250	0xbd9f8e07	-0.077907614
251	0xbdeec8f0	-0.116594195
252	0xbdcfd605	-0.10148243
253	0xbda32c0f	-0.07967388
254	0xbd2ce86a	-0.042213835
255	0xbd7e9239	-0.062151168

features.10.bias f4 [64]
0	0x3d3ea5db	0.04654489
1	0xbdb6ec4d	-0.089317895
2	0x3db235e4	0.08701685
3	0xbdeb4941	-0.114885814
4	0xbd88f76e	-0.066878185
5	0x3d7a528d	0.061113883
6	0x3d72dde2	0.059293635
7	0xbd00f26c	-0.03148119
8	0x3d838926	0.06422643
9	0x3cee1d61	0.029066743
10	0x3cf5db13	0.03001169
11	0xbd502ac3	-0.05082203
12	0xbd098f14	-0.033583716
13	0xbd3926eb	-0.04520313
14	0xbdbe6eac	-0.09298453
15	0x3db4ba42	0.08824588
16	0x3d9f38fd	0.077745415
17	0x3db9994c	0.09062442
18	0xbdae3222	-0.08505656
19	0x3e008b88	0.12553227
20	0x3dc46fdc	0.09591648
21	0xbb148d19	-0.0022667109
22	0xbd5cbbf7	-0.053890195
23	0x3d3e013e	0.046387903
24	0x3d890ae6	0.06691532
25	0x3ce122c3	0.027482396
26	0xbdc3166e	-0.095257625
27	0xbcdef97b	-0.027218571
28	0x3d835c26	0.0641406
29	0xbdb8b851	-0.090195306
30	0x3d99614e	0.074892625
31	0x3d8d3cb1	0.068963416
32	0xbd923813	-0.071396016
33	0xbdd87d63	-0.105707906
34	0x3cbda19f	0.023148356
35	0x3da5f74e	0.0810381
36	0x3c6f708a	0.014614234
37	0xbc8a1feb	-0.016860923
38	0x3ca99a49	0.020703452
39	0xbdab9387	-0.08377748
40	0x3db2ede5	0.08736781
41	0x3d06da40	0.032922983
42	0xbd567398	-0.052356333
43	0xbd317bb6	-0.04333087
44	0x3daa8261	0.08325649
45	0xbd8616a9	-0.06547291
46	0xbd97b5c0	-0.07407713
47	0x3da7d513	0.081949376
48	0x3d89a9d7	0.067218475
49	0x3da96f2c	0.082731575
50	0xbd2722d7	-0.04080471
51	0x3d55e163	0.0522169
52	0x3c888f01	0.016669752
53	0x3db82f69	0.08993418
54	0x3cf23781	0.029567482
55	0xbd1e08c2	-0.03858257
56	0xbc828a1e	-0.015935
57	0xbcb68909	-0.02228214
58	0xbd554e77	-0.052076783
59	0x3d327c65	0.043575663
60	0x3dc7cc1b	0.09755727
61	0xbcfbaf2f	-0.030723182
62	0xbd71e113	-0.059052538
63	0x3d9b1d89	0.07573993

features.11.weight f4 [64]
0	0x3f7a8392	0.9785701
1	0x3f766144	0.96242166
2	0x3f892b15	1.0716273
3	0x3f8b0465	1.0860716
4	0x3f77b6b6	0.9676317
5	0x3f879cd9	1.0594741
6	0x3f87f86f	1.0622691
7	0x3f86b473	1.0523819
8	0x3f7c188e	0.9847497
9	0x3f7a3f2f	0.9775266
10	0x3f76cced	0.9640644
11	0x3f86e880	1.0539703
12	0x3f8aeb0c	1.0852981
13	0x3f7318c0	0.9495964
14	0x3f78006e	0.96875656
15	0x3f7a1433	0.9768707
16	0x3f862d2c	1.0482535
17	0x3f84683c	1.034431
18	0x3f7f6960	0.99770164
19	0x3f71e3f6	0.94488466
20	0x3f868bf9	1.0511466
21	0x3f7b0fd5	0.9807103
22	0x3f8c325b	1.0952867
23	0x3f881f62	1.0634577
24	0x3f769fec	0.9633777
25	0x3f84473f	1.0334243
26	0x3f8ab059	1.0835067
27	0x3f800722	1.0002177
28	0x3f89c0c6	1.0761955
29	0x3f798a38	0.9747653
30	0x3f8a620e	1.0811174
31	0x3f8032b8	1.0015478
32	0x3f821a1a	1.0164216
33	0x3f78eaa8	0.9723306
34	0x3f7b1a83	0.9808733
35	0x3f8a62b8	1.0811377
36	0x3f7ddcd4	0.9916508
37	0x3f7cacb6	0.98701036
38	0x3f87b74e	1.0602815
39	0x3f804c63	1.0023311
40	0x3f8839c7	1.0642632
41	0x3f8ce471	1.1007215
42	0x3f75b5b3	0.95980376
43	0x3f8ae8fb	1.085235
44	0x3f8e463d	1.1115185
45	0x3f7b6a83	0.982094
46	0x3f80c5df	1.0060385
47	0x3f811599	1.0084716
48	0x3f79fd6c	0.97652316
49	0x3f866ffb	1.0502924
50	0x3f8e6f08	1.1127634
51	0x3f76458d	0.96199876
52	0x3f836e25	1.0267988
53	0x3f6dca12	0.9288646
54	0x3f80d78c	1.006578
55	0x3f8fcd71	1.1234571
56	0x3f7af970	0.9803686
57	0x3f72527a	0.946571
58	0x3f7b794b	0.98231953
59	0x3f7c4a7b	0.9855115
60	0x3f8b51e9	1.0884372
61	0x3f710233	0.9414398
62	0x3f7bc37e	0.9834517
63	0x3f706771	0.9390784

features.11.bias f4 [64]
0	0xbe0e79d4	-0.13913661
1	0xbe2d8f6a	-0.1694924
2	0x3dbc0cd5	0.09182135
3	0x3dcb6c46	0.09932761
4	0xbe0aa253	-0.13538484
5	0x3d716441	0.0589335
6	0x3d94b49f	0.07261013
7	0xbd7e6a83	-0.062113296
8	0xbe13483f	-0.14383028
9	0xbdacbdf5	-0.08434669
10	0xbe0299f1	-0.12754036
11	0xbd0dc204	-0.034608856
12	0x3d9c6216	0.07635896
13	0xbe0db5d6	-0.13838896
14	0xbe1b0379	-0.15138043
15	0xbe01e4f2	-0.12684992
16	0x3d7d441c	0.061832532
17	0x3da42398	0.080146015
18	0xbde91f06	-0.113828704
19	0xbe2cb2cb	-0.16865079
20	0x3daf1ac8	0.0855003
21	0xbdb3a9b5	-0.087726034
22	0x3def704e	0.11691342
23	0xbd24f62a	-0.040273823
24	0x3b774853	0.0037732318
25	0x3d93e837	0.07222026
26	0x3dcee058	0.10101384
27	0x3d609e99	0.05483875
28	0x3db2a3ef	0.08722674
29	0xbe1181af	-0.14209627
30	0x3de05489	0.10953624
31	0xbd8d5e33	-0.06902733
32	0xbbfb509e	-0.0076695224
33	0xbe235c6b	-0.15953223
34	0xbd9d0e0e	-0.07668696
35	0x3e00fa9e	0.12595603
36	0xbe065d6d	-0.13121577
37	0xbdf4329a	-0.11923714
38	0x3dd77bdc	0.10521671
39	0xbd8508c4	-0.064958125
40	0x3d9a2cfb	0.075281106
41	0x3dbe47a2	0.092910066
42	0xbe22d273	-0.15900593
43	0x3d9f2924	0.07771519
44	0x3e05b409	0.13056959
45	0xbdfca281	-0.12335683
46	0x3bda2110	0.0066567734
47	0x3d5a0b89	0.053233657
48	0xbe000b63	-0.12504344
49	0x3d8b872a	0.0681289
50	0x3e0d5f3d	0.13805862
51	0xbdd208a6	-0.10255556
52	0x3db06401	0.08612824
53	0xbe16621b	-0.14685862
54	0xbdcdc78f	-0.100478284
55	0x3dec5eaa	0.11541493
56	0xbe375754	-0.17904407
57	0xbe173b4b	-0.14768712
58	0xbde05531	-0.10953749
59	0xbdafa2a7	-0.08575945
60	0xbcdf4253	-0.027253306
61	0xbe2c736c	-0.16840905
62	0xbdc785c3	-0.0974231
63	0xbdf094b7	-0.11747115

features.11.running_mean f4 [64]
0	0xbc8b56fb	-0.017009249
1	0xbe92a34f	-0.2864022
2	0x3e4135f6	0.1886824
3	0x3e5498da	0.20761433
4	0xbe7362c9	-0.23768152
5	0x3f7f4000	0.9970703
6	0x3eeb8cb4	0.46005785
7	0x3f151086	0.5822834
8	0x3ca11410	0.019662887
9	0x3e87ee93	0.26549205
10	0xbe4c9d7c	-0.1998195
11	0x3ebbe723	0.3669978
12	0x3efff12f	0.49988696
13	0xbe224da2	-0.15849927
14	0xbdb8ef01	-0.090299614
15	0xbd0b8f96	-0.03407248
16	0x3f30d4fd	0.69074994
17	0x3ddcc02a	0.1077884
18	0xbb33e468	-0.0027449373
19	0x3e8b58b5	0.27216116
20	0x3e895b4c	0.26827466
21	0xbea2858c	-0.31742513
22	0x3f533245	0.8249858
23	0x3f282903	0.6568758
24	0xbe2a84cd	-0.16652222
25	0xbde7a5e9	-0.11310942
26	0x3f196117	0.5991377
27	0xbe82651a	-0.2546776
28	0x3f40e57e	0.7535018
29	0xbe5ac302	-0.21363452
30	0x3dc90a74	0.09816447
31	0x3d9c693d	0.0763726
32	0xbdc830c2	-0.09774925
33	0xbe0cb3d2	-0.13740471
34	0xbe03a316	-0.12855181
35	0xbe0f1051	-0.13971068
36	0x3df65a45	0.12028936
37	0xbe751b3e	-0.23936173
38	0x3e5cb189	0.215521
39	0xbea73d3b	-0.32663903
40	0x3e6adea5	0.22936495
41	0x3f024e52	0.5090076
42	0xbe2e5152	-0.17023209
43	0x3f2a9aba	0.66642344
44	0x3eff518e	0.4986691
45	0xbd88c52f	-0.06678235
46	0xbf128c55	-0.5724538
47	0x3ea6cf21	0.32579902
48	0xbd6fe986	-0.058572315
49	0x3eda1f70	0.4260211
50	0x3f164444	0.58697915
51	0xbe7b4264	-0.24537045
52	0x3d1c31ee	0.038133554
53	0x3b8e4af2	0.0043424303
54	0xbd841e52	-0.06451096
55	0x3e7a895c	0.24466461
56	0xba9019c2	-0.0010994005
57	0xbe333307	-0.17499934
58	0xbe1dbdda	-0.15404454
59	0xbdca5f41	-0.098814495
60	0x3f27b8fd	0.65516645
61	0xbd969b40	-0.0735383
62	0xbe58497a	-0.21121779
63	0xbdc8accb	-0.09798583

features.11.running_var f4 [64]
0	0x3ec5541f	0.38540742
1	0x3e8d42e5	0.275901
2	0x3e907013	0.28210506
3	0x3e7a9923	0.2447248
4	0x3ec2b64a	0.380297
5	0x3e4960f7	0.19665895
6	0x3eb01973	0.34394416
7	0x3f6d6b52	0.9274188
8	0x3e804d0d	0.25058785
9	0x3eae6d8a	0.34067947
10	0x3ec1d525	0.3785793
11	0x3f3ec602	0.74520886
12	0x3ee945f9	0.45561197
13	0x3e9fddec	0.31224
14	0x3ea2c638	0.31791854
15	0x3e960d71	0.2930713
16	0x3e1831d4	0.14862758
17	0x3ea44af7	0.32088444
18	0x3e89b126	0.26892966
19	0x3e966989	0.29377392
20	0x3efd1b24	0.4943477
21	0x3e7893cc	0.2427513
22	0x3e7cb532	0.24678496
23	0x3f26e69c	0.6519563
24	0x3ef2ff55	0.47460428
25	0x3e902c51	0.2815881
26	0x3e5020b7	0.2032498
27	0x3eb66245	0.3562185
28	0x3ec94228	0.39308286
29	0x3eb70df3	0.3575283
30	0x3edc96af	0.43083712
31	0x3ea9ae6b	0.33140883
32	0x3f1ed4cd	0.6204346
33	0x3eb45bae	0.35226196
34	0x3ea0b82e	0.31390518
35	0x3ea0bf6e	0.3139605
36	0x3eb28c36	0.34872597
37	0x3edce487	0.43143103
38	0x3e3e49b3	0.18582802
39	0x3e7a615d	0.24451204
40	0x3ec04cec	0.37558687
41	0x3e97c264	0.29640496
42	0x3e8b89d2	0.27253586
43	0x3ec5bdad	0.38621274
44	0x3ec41e7b	0.38304505
45	0x3ea1bcaa	0.31589252
46	0x3e89be41	0.26902965
47	0x3ef4b776	0.4779622
48	0x3ef2d214	0.47425902
49	0x3ef0cf7a	0.47033292
50	0x3ecf92b2	0.40541607
51	0x3ede3606	0.43400592
52	0x3e756024	0.23962456
53	0x3eaebea9	0.34129837
54	0x3eaaaafe	0.33333582
55	0x3f0c7d34	0.54878545
56	0x3eb7a24b	0.35866007
57	0x3f0cac0c	0.5495002
58	0x3e98e09d	0.29858866
59	0x3e8eabec	0.2786554
60	0x3f614a9d	0.88004476
61	0x3e96f8d1	0.29486707
62	0x3eb6e3ba	0.35720617
63	0x3ec652b4	0.38734972

embedding_layer.0.weight f4 [16, 64]
0	0x3dc20655	0.09473864
1	0x3c53668f	0.01290287
2	0xbc63621d	-0.0138783725
3	0xbdf313ae	-0.11868988
4	0xbc2c02db	-0.010498728
5	0xbe094b02	-0.1340752
6	0xbcce7b68	-0.025205329
7	0xbdbc0ba6	-0.09181909
8	0x3e04d4cf	0.12971805
9	0x3b5e10b6	0.0033884472
10	0x3cfb2ebe	0.030661937
11	0xbe2d0fad	-0.16900511
12	0xbdd849fb	-0.10560986
13	0x3d4f9f9d	0.05068933
14	0x3e07e21c	0.13269848
15	0x3e1c8d16	0.15288195
16	0xbdaba6f1	-0.08381451
17	0xbc58a3a8	-0.013222612
18	0x3b8587e1	0.004075036
19	0x3cd6281b	0.02614217
20	0xbd0f3ff6	-0.034973107
21	0x3e0f883c	0.14016813
22	0x3c8d1020	0.017219603
23	0xbe27a1c4	-0.16370302
24	0xbd52c94a	-0.051461495
25	0x3c80340f	0.015649823
26	0xbbd089e7	-0.0063640955
27	0xbc646014	-0.013938922
28	0xbdf2ea68	-0.11861116
29	0xbd32360f	-0.043508586
30	0xbe1362cb	-0.14393155
31	0x3d1d60d9	0.03842244
32	0xbe064d16	-0.13115343
33	0x3dad5088	0.08462626
34	0xbbc27f89	-0.0059356135
35	0x3ca85373	0.020547604
36	0xbca8b950	-0.020596176
37	0x3e31a2e5	0.17347296
38	0xbda7b7b8	-0.081893384
39	0x3dad5735	0.08463899
40	0xbd797274	-0.060900167
41	0xbc2a5518	-0.0103962645
42	0x3e203724	0.15646034
43	0x3cfdccd2	0.030981455
44	0xbe1d1df6	-0.1534346
45	0x3e0593f6	0.13044724
46	0x3e102482	0.14076427
47	0xbe3d2867	-0.18472444
48	0x3def18c3	0.11674645
49	0xbdaac598	-0.08338469
50	0x3c71d9de	0.014761416
51	0x3e16cf80	0.14727592
52	0xbd8b7aba	-0.068105176
53	0xbc1de4d4	-0.009637076
54	0x39d1ef22	0.00040041754
55	0xbd32078a	-0.04346422
56	0x3d2e6e12	0.04258544
57	0xbc4fd8a5	-0.012685929
58	0x3d005e36	0.031339847
59	0x3db97d61	0.09057117
60	0xbdc54180	-0.09631634
61	0x3de849b9	0.113421865
62	0x3c041f28	0.008064069
63	0x3dada216	0.08478181
64	0x3dcfacd4	0.10140386
65	0x3d1a466a	0.03766481
66	0xbc816a81	-0.015797855
67	0x3acaf40c	0.0015484109
68	0xbb06fd03	-0.0020597584
69	0xbd952d5d	-0.07284043
70	0x3d2244fc	0.03961657
71	0xbe2a2342	-0.16615012
72	0x3de77a0e	0.11302577
73	0x3d9c5ab3	0.07634487
74	0xbd177258	-0.03697428
75	0xbdb8f62a	-0.09031327
76	0x3be2b954	0.0069190655
77	0x3de193db	0.11014529
78	0x3e149d0a	0.1451303
79	0xbced0699	-0.02893381
80	0xbd9820d6	-0.07428138
81	0x3ccafd7a	0.02477907
82	0x3e23e172	0.1600397
83	0x3e107b3e	0.14109513
84	0x3d30543e	0.04304909
85	0x3e20f294	0.15717536
86	0xbdd8d367	-0.10587197
87	0xbd8ab3e2	-0.06772591
88	0xbdfc98cd	-0.12333832
89	0xbd92ed21	-0.07174135
90	0xbdbbc15e	-0.09167741
91	0xbdc705a6	-0.09717874
92	0x3c2d0424	0.010560069
93	0x3da37533	0.07981338
94	0x3c315844	0.010824267
95	0x3deaa2ca	0.11456831
96	0xbe1eabf0	-0.15495276
97	0x3c9aa580	0.018877745
98	0x3e17431f	0.14771698
99	0xbe207034	-0.15667802
100	0x3e256996	0.16153559
101	0x3dd4a2c6	0.10382609
102	0xbdf36157	-0.118838005
103	0x3db3d5c2	0.087810054
104	0xbc5d9082	-0.013523223
105	0xbd0c32d2	-0.034228154
106	0x3d17b046	0.03703334
107	0x3c1dea5d	0.009638396
108	0x3ce0bc75	0.027433613
109	0x3e0ec200	0.13941193
110	0x3d555418	0.05208215
111	0xbdfe5aa2	-0.124196306
112	0x3e356d83	0.17717557
113	0xbd121083	-0.035660278
114	0x3d8ad777	0.06779378
115	0x3dc37df3	0.09545507
116	0xbc34cf1c	-0.011035707
117	0x3ddf8185	0.10913376
118	0x3e0abcaa	0.13548532
119	0xbd84658b	-0.0646468
120	0x3d8a124a	0.067417696
121	0x3daa51be	0.08316372
122	0x3dfaaaf2	0.122396365
123	0x3dbf0c13	0.09328475
124	0xbdb36336	-0.08759157
125	0x3e1acdc1	0.15117551
126	0x3e1ac4a2	0.15114072
127	0x3d9ab99a	0.07554932
128	0xbc38339d	-0.011242774
129	0xbd3fff73	-0.046874475
130	0x3d4b9dd7	0.049711075
131	0x3e4c4072	0.19946459
132	0xbce215c1	-0.027598264
133	0xbd313712	-0.04326541
134	0x3ddaea1a	0.106891826
135	0xbcc8cd40	-0.024511933
136	0x3c8f8a52	0.017522011
137	0xbc95348b	-0.018213531
138	0x3b848393	0.004044005
139	0x3dac4575	0.084116854
140	0x3e41a26d	0.18909617
141	0xbd51e32c	-0.05124204
142	0xbc907d9f	-0.017638026
143	0xbc98dfd3	-0.018661415
144	0x3d01ed64	0.031720534
145	0x3e2aef72	0.16692904
146	0x3baeece9	0.0053383005
147	0xbd8e5545	-0.069498576
148	0x3cd43f67	0.025909139
149	0x3cbcb888	0.02303721
150	0x3e7415ef	0.23836492
151	0x3daaa237	0.08331721
152	0x3db6db5e	0.0892856
153	0xbd0cee30	-0.03440684
154	0x3e616d95	0.22014458
155	0x3d758160	0.059937835
156	0x3d970873	0.073746584
157	0x3d12e967	0.03586712
158	0x3e64de99	0.2235054
159	0x3cfb1940	0.030651689
160	0x3e262346	0.16224393
161	0x3d5453ec	0.051837847
162	0xbc8947ca	-0.016757865
163	0x3dedf064	0.116181165
164	0x3b9e22bb	0.0048259175
165	0xbdac2e06	-0.08407216
166	0x3dfcee5f	0.12350153
167	0xbccc6c81	-0.024954082
168	0x3e3dca82	0.18534282
169	0x3c672848	0.014108725
170	0xbdd99d13	-0.10625663
171	0x3d9e5061	0.07730175
172	0x3e5d5743	0.21615319
173	0xbd0501c6	-0.032472394
174	0xbbc4602a	-0.005992909
175	0x3dbfc9bd	0.093646504
176	0xbd68af40	-0.056807756
177	0x3e1603dd	0.14649911
178	0x3e7d7959	0.24753322
179	0x3d0a6e9e	0.0337969
180	0x3d41fdce	0.047361188
181	0xbdae3d3a	-0.08507772
182	0xbd8d824f	-0.0690962
183	0x3df86da3	0.121302865
184	0xbd11b8b8	-0.035576552
185	0xbdb49252	-0.08816971
186	0x3cdebbb2	0.02718911
187	0xbcd340b6	-0.025787693
188	0x3e1dca91	0.15409304
189	0xbd6ead1b	-0.058270555
190	0x3c437dd5	0.011931856
191	0xbc661042	-0.014041962
192	0xbc3bb155	-0.0114558535
193	0xbdf9e0d6	-0.12201087
194	0x3d2a1ce2	0.04153145
195	0x3e00f510	0.12593484
196	0xbcf7506f	-0.03018972
197	0x3d1045e3	0.0352229
198	0x3e1b27e4	0.15151936
199	0x3d9bb310	0.07602513
200	0xbc0c761d	-0.008573082
201	0x3baacd69	0.005212475
202	0xbd8d70a8	-0.06906253
203	0xbcf5f4d4	-0.03002397
204	0x3e219d14	0.15782577
205	0xbcd006bf	-0.025393842
206	0x3c9b6bd4	0.018972315
207	0xbd012875	-0.031532723
208	0x3e39467d	0.18093295
209	0x3ddc343d	0.10752151
210	0xbda01063	-0.078156255
211	0xbd87e488	-0.06635386
212	0x3dd8032e	0.105474815
213	0xbda06585	-0.07831863
214	0x3d25a526	0.0404407
215	0x3dab0096	0.08349721
216	0x3dea4970	0.11439788
217	0x3e05b5b1	0.13057591
218	0x3d73c0c8	0.059510022
219	0x3e21cd37	0.1580094
220	0x3cda2f63	0.026633924
221	0xbddbde47	-0.107357554
222	0x3e32526d	0.17414255
223	0xbd659254	-0.056047752
224	0x3d5d9cbb	0.054104548
225	0xbd3d785a	-0.046257354
226	0xbd83c3fd	-0.06433866
227	0x3db41b34	0.08794251
228	0xbd18897e	-0.037240498
229	0x3ca16f60	0.019706428
230	0x3e47d7c0	0.19515896
231	0x3c713de5	0.014724229
232	0x3e2c8e3b	0.16851132
233	0x3e06bb54	0.13157398
234	0xbd405a61	-0.046961192
235	0x3dce0edb	0.10061427
236	0x3daf3f94	0.085570484
237	0xbce94d4c	-0.02847924
238	0x3ae1407e	0.0017185358
239	0x3db68d0c	0.08913621
240	0xbd6a8921	-0.057259683
241	0xbd838a08	-0.06422812
242	0x3e0da269	0.13831486
243	0xbd81aad6	-0.063314125
244	0x3df89c52	0.12139191
245	0x3ca56f88	0.020194784
246	0xbcd8a210	-0.026444465
247	0x3dc363e7	0.09540539
248	0xbd6bf716	-0.057608686
249	0x3a6f0714	0.0009118181
250	0xbdade450	-0.08490813
251	0xbd4c6204	-0.049898162
252	0xbdc356c3	-0.09538033
253	0xbdc20ede	-0.09475492
254	0xbd089351	-0.033343617
255	0xbdab22a7	-0.08356219

embedding_layer.0.bias f4 [16]
0	0x39f3bb35	0.00046488052
1	0xbce97c05	-0.02850152
2	0x3dc1a175	0.094546236
3	0x3e4da0a1	0.20080806
4	0x3d358ce3	0.044323813
5	0xbc9ae6e6	-0.01890893
6	0x3d8aa52d	0.06769786
7	0x3e4c3808	0.19943249
8	0x3e709bed	0.23496981
9	0x3e80d446	0.25161952
10	0x3de44c11	0.11147321
11	0x3e279fa8	0.16369498
12	0x3dbfc04a	0.09362848
13	0x3d77adc6	0.060468458
14	0xbddc7d2e	-0.10766064
15	0xbc99db0c	-0.018781208

classifier.weight f4 [2, 16]
0	0xbe82ab84	-0.2552148
1	0xbe510091	-0.20410372
2	0x3e1c8ea2	0.15288785
3	0x3e856eb0	0.2606101
4	0xbdcee53e	-0.10102318
5	0x3dac0c92	0.08400835
6	0xbe067ecd	-0.13134308
7	0x3eb661b4	0.35621417
8	0x3e88b198	0.26697993
9	0x3e91eebc	0.28502452
10	0x3e0e76fc	0.13912576
11	0xbd23a515	-0.039952356
12	0x3eb15994	0.34638655
13	0xbe87013b	-0.26368126
14	0xbe5093ba	-0.20368853
15	0xbe7648c4	-0.24051195
16	0x3c56060e	0.013062967
17	0x3e32842c	0.17433232
18	0xbdbe66e3	-0.09296968
19	0xbe9ea184	-0.30982602
20	0x3e9a8861	0.30182174
21	0x3ea14278	0.31496024
22	0x3e57d2a9	0.21076454
23	0xbec69d82	-0.38792044
24	0x3d0a5a83	0.033777725
25	0xbd8383ff	-0.06421661
26	0xbd908cd8	-0.07058114
27	0xbea5e470	-0.32400846
28	0x3dbfcb71	0.09364975
29	0xbd19a79f	-0.03751337
30	0xbe23c4bd	-0.15993018
31	0x3e8fccb9	0.28085878

classifier.bias f4 [2]
0	0x3e2183ff	0.15773009
1	0x3bea7842	0.007155449
